models/Training/AC_nmcts20/train_017.pth (torch, 424031 bytes, 15 tensors)

conv1.weight f4 [32, 5, 3, 3]
000000 98 86 46 3d 3d 98 14 be 5c 8e 4b bd 43 fa e6 3d
       0.048468202 -0.145112 -0.04969631 0.112782024
000010 8a 35 38 be c3 b0 98 bb c3 36 a7 3d 09 a9 9d bd
       -0.17989174 -0.0046597435 0.08164742 -0.076982565
000020 e4 4a 2c 3c 8e 96 dc 3b 83 23 06 bd b1 d1 e0 3d
       0.010515902 0.0067318147 -0.03274871 0.109774955
000030 8d 54 96 3d 2e 11 fa bd da a9 f4 3d 76 7d 01 bc
       0.073403455 -0.12210308 0.11946459 -0.007903447
000040 a5 ae 8b bb 41 86 f1 3d 2e 6c ba 39 d4 44 3f 33
       -0.0042627626 0.11793185 0.00035557285 4.453325e-08
000050 fe 4b f1 34 cf ed 26 b8 0f ae 8c b7 7a 1b f7 ba
       4.494504e-07 -3.979896e-05 -1.6770353e-05 -0.0018852793
000060 2e 5b 2a bb 60 3b f3 35 b5 c6 ca b4 6e 7c ee 3d
       -0.0025994289 1.8122191e-06 -3.777001e-07 0.11644827
000070 8c 2b d4 3c ce 14 bd bd d0 45 18 be ee be ae bd
       0.025899671 -0.09232484 -0.14870381 -0.08532511
000080 b9 60 8c 3b e4 95 09 3d f7 71 bf bd 7f 99 b9 3d
       0.004283991 0.033590212 -0.09347909 0.0906248
000090 0a 5a 4e b5 2f ae 9b 37 73 d5 2a b7 38 b2 09 b7
       -7.6872004e-07 1.855855e-05 -1.0182487e-05 -8.207331e-06
0000a0 4f f8 b1 bb c3 3b c3 b6 48 af 21 34 1d 49 a0 37
       -0.005431212 -5.81841e-06 1.505806e-07 1.9107532e-05
0000b0 42 e3 0a bb 10 79 11 bd d2 c7 1a 3e 72 14 89 3d
       -0.0021192585 -0.035515845 0.15115288 0.06693353
0000c0 5d 9f 42 bd 3a 2a 10 3d de 78 1c bd 46 92 01 3e
       -0.047515262 0.03519652 -0.038201205 0.12653455
0000d0 3a f2 9b 3d b4 45 0c 3e a3 d3 24 3d b2 e5 33 be
       0.076145604 0.13698465 0.040240895 -0.1756809
0000e0 66 10 41 bc 24 9d 4c 3d 7a 07 97 3d 1d f7 31 3d
       -0.011783695 0.04995455 0.07374473 0.043448556
0000f0 7b a3 c9 bd 02 e3 5d bd 8c ee fc 3d d3 c4 91 b9
       -0.098456345 -0.05417157 0.12350187 -0.000278032
000100 51 fe 3e b8 70 fe 22 b5 60 3d 4f bc c1 31 b0 34
       -4.553638e-05 -6.071996e-07 -0.01264891 3.2818755e-07
000110 05 29 00 36 fb 17 4c bc d2 4f 23 37 3b 76 a2 b8
       1.9097363e-06 -0.012456889 9.734142e-06 -7.746784e-05
000120 32 4a 0c be 55 3e fc 3d b4 b3 d9 bd c1 c2 74 bc
       -0.13700178 0.123165764 -0.10629979 -0.014939011
000130 f3 09 e6 bd bd 99 b7 bd b0 3c c1 bd 10 b9 b4 3d
       -0.112323664 -0.0896487 -0.09435403 0.0882436
000140 66 ca 3c 3c 93 f5 88 b7 40 50 dc 3c ff 89 6a 38
       0.011522865 -1.6326818e-05 0.026893735 5.5918466e-05
000150 cd 6d 77 36 39 2f 7b 39 6d 81 92 bc 25 9e 21 3a
       3.686978e-06 0.00023954817 -0.01788398 0.0006165228
000160 82 91 34 3c 55 79 b3 b6 fe 8c e2 bd fb 8a 3d 3d
       0.01102102 -5.3487406e-06 -0.110620484 0.04627512
000170 5e c5 f5 3d 22 25 35 3c 46 6a 88 3d 72 2b 19 3e
       0.120005354 0.011056216 0.06660895 0.1495798
000180 c6 dd ea bd 5a 49 0c be 21 fe d1 3c 79 26 61 bd
       -0.11468081 -0.13699856 0.025633873 -0.05496833
000190 20 a0 ba bb e8 ce 4d bd 64 fb bd 3b 15 b6 7a bd
       -0.005695358 -0.05024615 0.0057977904 -0.061208803
0001a0 2d 3c bd 3d 29 02 3d 3e 77 4d 71 3c 67 73 83 3d
       0.09239993 0.18457855 0.014727942 0.064184956
0001b0 a8 28 51 bb 59 19 a5 3a d8 33 72 b7 4c d9 5f b5
       -0.0031915102 0.0012596055 -1.4436395e-05 -8.339018e-07
0001c0 0d c3 06 3c ee 7b d2 bc 0b 7b a1 b6 67 ca ea b6
       0.008225215 -0.02569386 -4.812498e-06 -6.997306e-06
0001d0 31 31 cb b6 ae 4b 53 3d 6c 79 7d 3a f3 33 dd bd
       -6.055598e-06 0.051585846 0.00096692774 -0.10800924
0001e0 c8 17 87 bd 23 78 c7 bc 23 ed 9b 3d 92 5c 98 3d
       -0.06596333 -0.024349278 0.076135896 0.074395314
0001f0 24 59 05 3c dd 58 2e 3d 39 d9 ca ba 54 78 5e 3c
       0.008138929 0.042565215 -0.0015476114 0.013578493
000200 34 8e 6c b8 a3 6f cf bc e6 9d 4a 33 3a 19 c1 bc
       -5.639922e-05 -0.025321787 4.7175398e-08 -0.0235716
000210 fb 54 15 bc c9 72 90 35 90 ab 96 35 02 b6 b2 3d
       -0.009114499 1.0762243e-06 1.1225802e-06 0.087261215
000220 b6 84 14 be f9 03 58 bd 53 39 1d 3d e6 04 ff 3c
       -0.1450375 -0.052738164 0.038384747 0.031130265
000230 0a 8a 31 3c 8a 49 10 3e f5 8f 30 3e d8 f9 24 3e
       0.010836134 0.14090553 0.17242415 0.16110933
000240 24 aa 06 3d b4 97 0f 3d 76 8e bf bd ee 64 09 bc
       0.032877102 0.035056785 -0.09353344 -0.00838588
000250 81 50 22 be 14 65 f4 bd ee a4 c8 3d 63 14 41 3d
       -0.15851022 -0.119333416 0.09797083 0.047138583
000260 4c bb d1 bd e8 dc 57 bb 99 21 00 36 bf a7 9e b9
       -0.10240802 -0.0032938067 1.9093043e-06 -0.0003026109
000270 61 27 2c 36 d7 60 e2 ba 82 ac 31 ba c8 62 a5 b5
       2.5652919e-06 -0.0017271292 -0.000677772 -1.2322207e-06
000280 84 c9 52 b8 fc 6e 1e bc e1 2e 43 3d a0 fe f8 3d
       -5.0255578e-05 -0.009670015 0.04765213 0.12157941
000290 6e ca ab 3d 88 a6 30 be ea 84 ee 3d bc a3 2b 3d
       0.0838822 -0.17251027 0.11646445 0.041904196
0002a0 5d 19 85 3d 36 6c 5d 3d c8 17 05 3d 7b 34 c2 3c
       0.06498978 0.054058276 0.032493383 0.023706665
0002b0 6f 16 be 3a d8 a0 02 bb 0e b5 83 34 77 8c ad 3a
       0.0014502535 -0.0019932296 2.4532386e-07 0.0013240714
0002c0 1e 65 02 37 bc 39 11 b7 94 86 a4 3c f4 cc f7 b4
       7.772147e-06 -8.656116e-06 0.020083703 -4.6156458e-07
0002d0 63 d3 ec 3d 2b a4 8f bc f6 02 cb 3d c3 90 28 3d
       0.11563756 -0.017534336 0.09912674 0.04115368
0002e0 49 72 44 3c da a0 81 3c 6b 57 d5 3c 1b 04 31 3d
       0.011990138 0.01582377 0.02604266 0.043216806
0002f0 5a 06 f4 bd 21 11 fc 3d cb 73 0a be bc 7d c0 3d
       -0.11915274 0.123079546 -0.13520734 0.09398982
000300 57 8b c6 3d 3e 73 6b 3d 49 34 d0 3d 95 69 d4 3d
       0.09694546 0.05748295 0.101662226 0.10371701
000310 42 d4 e5 3c 6a 3a 06 be 17 43 32 b8 66 be be b6
       0.028055314 -0.1310822 -4.250099e-05 -5.6846065e-06
000320 28 69 8d 3b 97 ea dd bc 09 22 5a bb 22 89 41 b6
       0.004315514 -0.0270894 -0.0033284447 -2.8839063e-06
000330 33 c8 e9 bb d3 16 ab ba 41 1b b5 34 fb 43 fe 3d
       -0.0071344613 -0.0013053067 3.3733707e-07 0.1241531
000340 d0 db 2a bc 7d 55 f5 3d bc 2f 8f 3c 8b 04 50 3d
       -0.010428384 0.11979196 0.017478816 0.050785583
000350 c3 15 14 3e a4 10 ec 3d c3 fe 29 3d de 4e 1c bb
       0.14461426 0.115266114 0.041502725 -0.002385072
000360 7b 3b d9 36 e6 c3 78 36 76 2f 4a b5 7c 13 59 3b
       6.4740284e-06 3.7068908e-06 -7.531993e-07 0.0033123186
000370 c4 da b2 b5 d8 97 5d b5 86 08 36 38 d1 0b 9e bb
       -1.3325703e-06 -8.254988e-07 4.340012e-05 -0.004823186
000380 71 c5 cd 3c 47 17 cd 3d 83 cc 01 3e 5e 3c f2 3d
       0.025118561 0.100142054 0.12675671 0.118279204
000390 2a b9 eb 3d 50 67 be bd f2 2d d1 bc 8d f4 0d 3e
       0.115099266 -0.09297049 -0.025534604 0.1386282
0003a0 80 0b 33 3e 67 2c ca bd 36 ca b9 3d fd 7b b2 3d
       0.17484856 -0.0987175 0.09071772 0.08715055
0003b0 5b 24 14 3d 2c 7e eb 3c f6 d9 f6 bd 10 a0 76 bd
       0.036167484 0.028746687 -0.120532915 -0.06021124
0003c0 c5 f7 58 3d d5 cb d1 bd c2 56 21 bd dd a4 79 bc
       0.052970666 -0.10243956 -0.03938938 -0.01523706
0003d0 16 11 1b 38 ec 2e 2a 3c ea 3a 45 35 73 fb 4f bc
       3.6970792e-05 0.010387164 7.347395e-07 -0.0126942275
0003e0 9c 1a c6 ba 5f c4 12 38 04 45 94 bb 70 06 2c 3a
       -0.0015114131 3.4991997e-05 -0.004524829 0.00065622386
0003f0 ac 9c b0 3c ea b6 51 3d fd 41 5e 3c 8f c3 0f 3d
       0.021559082 0.05119983 0.0135655375 0.03509861

conv1.bias f4 [32]
000000 4b ff cf 3d 05 21 00 3d 38 9c 7f bc 93 3a e0 3d
       0.10156115 0.03128149 -0.01560121 0.10948672
000010 1a 08 84 bd 6c 0c 1f be ff 40 41 3c 82 3e b5 3d
       -0.06446858 -0.15532082 0.011795281 0.08849813
000020 0a 0f 89 3d 18 c8 b3 bd bb c3 40 3e 8c ce 3e bd
       0.066923216 -0.08778399 0.18824665 -0.046583697
000030 1f 5d 1d 3e c4 54 12 3e 2e 12 80 bd 10 42 43 bd
       0.15367554 0.14290148 -0.062534675 -0.047670424
000040 3b 81 ff bc 8c e1 ae bd 17 42 5f bd d8 0c 1d 3e
       -0.031189552 -0.085391134 -0.054506388 0.15336931
000050 ed 03 4a bd 5f bb 5c 3d df 33 b8 3c fd e6 7a bd
       -0.04932015 0.05388963 0.022485672 -0.061255444
000060 e5 a0 f3 bd 64 bf ae 3d 2c 1b f4 bd b5 e5 0b 3e
       -0.118959226 0.085325986 -0.11919245 0.13661845
000070 92 8e 11 3e af 07 b1 bd 96 ee bc bd 9c eb e6 3d
       0.14214543 -0.08644044 -0.09225194 0.11275408

conv2.weight f4 [64, 32, 3, 3]
000000 4a 3d be bc f3 5d 28 3d 78 94 19 3c 84 84 a7 3c
       -0.023222584 0.041105222 0.009373777 0.02044893
000010 88 38 2e bd 70 18 5a bd 79 95 2f bd 94 d3 f9 3c
       -0.04253438 -0.05324596 -0.042867158 0.030496396
000020 16 0e 6d bc c6 99 0f bd 83 1a 2d bd b7 57 a0 bc
       -0.01446869 -0.03505876 -0.04226161 -0.019573076
000030 f8 f4 1c 3d 74 bf 35 3d 00 6d 5c 3d 26 bb 4d 3d
       0.038319558 0.044372037 0.053814888 0.050227307
000040 90 4a ac 3c be cc 2b 3d d4 38 80 bd 2d f6 98 bc
       0.021031648 0.041943304 -0.06260839 -0.018672073
000050 6d 18 87 bc 7f 1f 8b 3c a2 92 c7 3c 05 a3 25 3c
       -0.01649114 0.016982792 0.024361912 0.010109668
000060 2d 1e 04 3c d9 c3 33 3a dc 75 02 bd 0d 13 87 bd
       0.008063835 0.00068574917 -0.03185068 -0.065954305
000070 38 81 b6 bb 0b bd 07 3d 32 61 4d 3b a1 e9 db bb
       -0.0055696033 0.03313927 0.003133845 -0.0067112003
000080 08 82 06 bb 25 dd 3a 3d a6 66 ec 3c 31 98 9f 3d
       -0.0020524282 0.045621056 0.02885754 0.077927
000090 ea 6a 2c b9 cc a4 53 3d 3a ed 19 bd 3f 27 9f 3c
       -0.00016443027 0.051670834 -0.037579753 0.019427894
0000a0 5f e6 4d 3d 5c 2a 61 bc ad 75 c3 3b b7 7b 6b 3c
       0.050268527 -0.013743009 0.005964956 0.014372758
0000b0 2b df 3b bc b8 d7 45 bd 59 90 73 3b b7 80 fa 3b
       -0.011466782 -0.04830143 0.0037164895 0.0076447385
0000c0 c6 8f 0e bd 7c 36 a5 bc 0b 1d 2f 3c f8 1d 10 bc
       -0.03480508 -0.020167582 0.010688077 -0.008796208
0000d0 b2 ea 8f 3d b7 89 24 3d fe c3 8f bc 2d 4c a1 bc
       0.070271865 0.040170398 -0.017549511 -0.019689644
0000e0 14 a4 87 bd a1 19 43 bb 58 12 ca 3c 4a bd 12 bb
       -0.06623092 -0.0029769915 0.02466695 -0.0022390657
0000f0 13 b4 be 3c f1 90 d4 bc a6 f5 00 bc 7c 82 eb 3b
       0.023279225 -0.02594802 -0.007871067 0.007187186
000100 ac e1 20 bd d2 48 ff 3c 09 d8 1f bd ce 5c b0 3d
       -0.039277717 0.031162653 -0.039024387 0.08611451
000110 68 12 1b 3d b1 0d 44 3d 91 4f 9c bc b3 31 12 bc
       0.03785935 0.04786462 -0.019080909 -0.008922982
000120 42 17 a1 bd 61 2c 88 bc 3e f7 88 3b 83 be 6c bd
       -0.07865764 -0.016622724 0.004179864 -0.057798874
000130 fb 4d 13 3d a8 c3 78 bd af c9 b7 bc 8f 51 21 3d
       0.03596304 -0.060733467 -0.022435037 0.03938442
000140 ff 94 49 3d 98 00 be 3c 98 b1 19 bd d7 57 01 bd
       0.04921436 0.023193642 -0.037522882 -0.03157791
000150 27 4b c2 3c 80 c5 9f bd 08 b6 14 bd c6 4d 4a 3d
       0.023717476 -0.07801342 -0.03630641 0.049390577
000160 50 4d 37 3d 50 39 a0 3c d9 6b 2f bd b4 fa d2 3c
       0.044751465 0.019558579 -0.04282746 0.02575431
000170 f0 0b 86 bd d0 50 84 bd 5b 6c 84 bd a0 16 b0 bd
       -0.06545246 -0.06460726 -0.0646598 -0.085980654
000180 d8 eb 02 bd 52 ed a5 bc 64 50 e7 bc cc 9a 7b 3b
       -0.0319632 -0.020254765 -0.028236575 0.0038391827
000190 42 f5 70 3d 3c 0f 7c ba 87 7d 81 bd 92 5b a9 3c
       0.058827646 -0.0009615307 -0.063227706 0.020673547
0001a0 5d e3 37 3d c3 6c 31 3c 83 af 37 3d 43 e1 24 bd
       0.044894565 0.0108291535 0.044845115 -0.04025389
0001b0 fe da a2 bd 48 45 0e bd 6a 65 a1 bd d9 d7 b9 bb
       -0.07951926 -0.03473404 -0.07880671 -0.005671483
0001c0 28 e8 62 3d 1c 68 ad bd 1b a6 34 bd f0 cf de bc
       0.055397183 -0.08467123 -0.044103723 -0.027198762
0001d0 37 fd a6 3b 3f 8a 71 bd 85 90 58 bd 76 7a 8d 3c
       0.0050961035 -0.058969732 -0.0528722 0.017270308
0001e0 9a 50 71 bd 48 b1 02 3d 88 0b 22 bc eb 21 34 bd
       -0.05891476 0.03190735 -0.009890445 -0.04397766
0001f0 51 1d 7f 3c 7b 4a 75 3b 8c 33 96 bc 6c ce 8d 3c
       0.015570954 0.0037428427 -0.018335126 0.017310344
000200 72 e5 54 bd 87 89 5f bd 9a 0a a8 bc a8 f3 8c 3c
       -0.05197663 -0.054574516 -0.020512868 0.017206028
000210 21 c8 4a bd 83 98 07 3c a2 09 20 3d ba c6 0a bd
       -0.049507264 0.008276108 0.039071687 -0.033880927
000220 81 a5 9b bc 1a 1a b1 bc 01 e9 67 bd c0 06 fd bb
       -0.018999817 -0.021618892 -0.056618694 -0.007721752
000230 9b 6c be bc 88 14 9a 3b 34 3d 06 bd 22 86 fb bc
       -0.023245146 0.0047021545 -0.03277321 -0.030703608
000240 76 a2 72 3d 86 6f 3a bd 33 4a 70 bd a4 66 02 bd
       0.059236966 -0.045516513 -0.058664512 -0.031836167
000250 65 86 68 bd 34 10 ef bc 4b 8d 78 3c 9b 80 12 3d
       -0.056768794 -0.029182531 0.015170406 0.03576718
000260 fd 2c e1 bc ef 0f bb bc e1 2d 1f 3d fb b1 e3 3b
       -0.027487272 -0.022834746 0.038862113 0.006948707
000270 46 33 3a bd f8 cc af bc 63 4b 99 3d 3a 2c 15 3c
       -0.045459054 -0.021460041 0.07485082 0.009104783
000280 f2 c3 6f 3d c2 78 fc bc 11 9b 2f bc 52 a5 bf 3b
       0.058536477 -0.0308193 -0.010718123 0.005848565
000290 65 28 0c 3d ce 0b eb bb 99 14 78 bd ca a1 ff 3b
       0.03421821 -0.007173038 -0.06056652 0.007801269
0002a0 64 1b 1c 3d c3 05 af bb ff 87 48 3d 37 41 c6 3c
       0.03811206 -0.005341263 0.04895782 0.024201019
0002b0 83 7b 62 bd ec b7 46 bd e9 0d 88 3b 2e c0 33 3d
       -0.05529357 -0.048515245 0.004152049 0.04388445
0002c0 61 b7 1e bd 8b eb 1f 3b 7c 90 6f bd ce ce 95 bd
       -0.038749103 0.002440187 -0.0584874 -0.073148355
0002d0 70 0c 35 bd 89 c6 29 3d db 77 a2 3b 02 ee 83 bb
       -0.044201314 0.041449104 0.0049581355 -0.0040261755
0002e0 37 cd 3c 3d 2c 73 5a 3c ca 7e ac 3c f7 28 00 3d
       0.046094146 0.013333123 0.021056551 0.031289067
0002f0 1c 0b 52 bb 4f fc 08 3c de f3 8f 3a 9a 4c 6b bd
       -0.0032050079 0.008360936 0.0010982712 -0.0574461
000300 a8 7f c0 bc d2 65 3d 3d a3 c3 8b 3b 55 fe 7a bc
       -0.023498371 0.04623968 0.004265265 -0.015319427
000310 2b 96 8b bd d9 49 84 bd 45 4f 3e 3d 3c 03 c8 3b
       -0.06815752 -0.06459398 0.046462316 0.006103901
000320 b8 d9 44 3b 48 f5 65 bd f3 6f db bc a3 1b ab bb
       0.0030036997 -0.05614212 -0.02678678 -0.0052218004
000330 2c 0b 68 bd b6 9a 18 3c 53 39 25 bd bb b8 4a 3d
       -0.05665128 0.00931423 -0.04033787 0.04949258
000340 2e 28 41 bd 23 26 27 bd 3f 3e 39 bb 84 36 46 3c
       -0.04715746 -0.040807854 -0.0028265861 0.0120979585
000350 c9 0f 32 bd 1e 2f 6f 3c 49 95 a1 3d 39 c5 8b 3d
       -0.043472085 0.014598636 0.07889802 0.068247266
000360 a7 f0 24 bc ac e0 8f 3c 3f 46 0c 3d b6 a8 ba bb
       -0.010067142 0.017563187 0.03424668 -0.0056963814
000370 a1 03 83 3c 76 f6 a6 bd 20 df 7b 3d 81 69 94 bc
       0.015992941 -0.081524774 0.061492085 -0.018116714
000380 ea 4d a0 bc f5 8f d4 3b 2e 32 32 3d 5a 18 99 3c
       -0.019568402 0.0064868876 0.043504886 0.01868837
000390 e2 37 e0 bc 0d 43 e5 bc a6 74 5e bd 5c c3 05 3d
       -0.027370397 -0.027986074 -0.054310463 0.032657012
0003a0 63 18 2c 3b 53 e2 b8 3c cc 53 d7 3b 18 89 12 3d
       0.0026259653 0.022568857 0.0065712687 0.035775274
0003b0 91 f8 ad 3c 49 4b e9 3c 98 ed ae b8 e3 78 94 3d
       0.02123669 0.028478282 -8.341222e-05 0.0724962
0003c0 1d 16 7e 3d 9a df 2a 3c af 20 9d 3a 81 c1 0a 3c
       0.062032808 0.010429287 0.001198789 0.0084689865
0003d0 d7 28 88 bd cd f2 85 bc 34 6e a3 3c 31 5f 2f bd
       -0.066484146 -0.016351128 0.01995001 -0.04281539
0003e0 19 4a a9 bc b7 b9 2e bd 80 ce 49 bd 7e c4 55 bd
       -0.020665215 -0.04265758 -0.0492692 -0.052189343
0003f0 92 c8 da bc 30 90 17 3d f9 b4 2a 3d 08 d5 b6 3c
       -0.026706968 0.037002742 0.041676495 0.022318378

conv2.bias f4 [64]
000000 79 85 c8 3c 42 f0 e3 3c cd 9b 8f bd 0d 1a 1d bd
       0.024477707 0.027824525 -0.070121385 -0.038354922
000010 df 30 90 bc 0d ed 72 3d 44 4a 3a 3d ae ae d1 3c
       -0.017601429 0.0593081 0.04548098 0.02559599
000020 95 b6 c1 bc 63 ce 6c 3d b0 ce 15 bd 0b 11 0f bd
       -0.023646632 0.057814013 -0.036574066 -0.034928363
000030 27 45 54 3d f4 b3 16 bd 14 50 e0 3c 4a 59 c3 bc
       0.05182376 -0.03679271 0.027381934 -0.023846287
000040 3a 7d b7 bb 03 f6 a0 3d d3 93 8b 3c ad 63 7c 3d
       -0.005599645 0.07859423 0.017038262 0.061618496
000050 f6 57 3c bb 77 01 c5 bc eb 7e 8c 3d 44 9e 56 3d
       -0.0028738952 -0.02404855 0.06860145 0.052397028
000060 2b da d8 3c ad ad be 3d a6 15 a1 3b e1 50 4d 3d
       0.026471218 0.0931047 0.004915911 0.05012596
000070 46 c9 66 bd 64 10 ea bc c4 71 66 3d 1b a4 52 3d
       -0.056344293 -0.028572269 0.05626084 0.051426034
000080 00 89 6f 3b 21 53 e2 3c d6 e8 9c 3c 07 9e a0 3d
       0.0036550164 0.02762753 0.019153994 0.07842641
000090 ee 5e b1 3c 7e a6 04 bd 58 5f af 3c be 70 78 3d
       0.021651711 -0.03238534 0.021407768 0.060654394
0000a0 54 00 f7 3c 25 58 34 bc 8f 3d 85 bd cd 05 16 bd
       0.030151524 -0.011007343 -0.06505882 -0.036626626
0000b0 87 26 fb bb 18 1c 4a 3d 7d 49 2c bd b5 be 81 3d
       -0.007664505 0.0493432 -0.04206227 0.063352026
0000c0 78 18 77 3d a5 36 49 bd 1f 19 36 3d 95 1c 80 3d
       0.06032607 -0.04912438 0.04445755 0.062554516
0000d0 df 26 af 3d cd 07 a3 3a 58 4c 76 3d 3b 00 9b 3d
       0.08552336 0.0012438238 0.0601314 0.07568403
0000e0 b6 3d 1e bc 14 3b 29 3d 6d ed 92 bc 93 45 1a bc
       -0.009658268 0.041316107 -0.017935479 -0.009416002
0000f0 23 1a 4c 3c 76 d7 d3 bc 0f 36 3d bd a6 83 42 bc
       0.012457403 -0.025859576 -0.046194132 -0.011872208

conv3.weight f4 [128, 64, 3, 3]
000000 60 dd ba 3c 3e 3e 2a 3d bc 76 33 bc c2 0f e0 bc
       0.022810638 0.041563265 -0.010953601 -0.027351264
000010 ad 25 be bc 7a 10 c5 bc 6f b5 40 3b cf 7d f8 bb
       -0.023211325 -0.024055708 0.0029405018 -0.007583357
000020 e9 93 40 3c fb 8d fe 3c d4 ad 04 3d 2d 8b 16 3d
       0.0117540145 0.031073561 0.032392338 0.036753822
000030 de f8 16 bd 8b b5 22 3d f8 ed 31 bc ee 12 f9 bb
       -0.036858432 0.039723914 -0.010859959 -0.0076011335
000040 68 af 77 bb 19 59 e4 bb 52 9a 81 3d 2a f1 03 bd
       -0.003779376 -0.006968629 0.063282624 -0.032212414
000050 8e 3d 51 bc b8 67 d2 3c 43 b6 02 bc c6 8c dc 3c
       -0.012771023 0.025684223 -0.007978025 0.026922595
000060 7e eb 51 bd ce e6 12 bd 1f 16 ed 3c 5e 90 57 3c
       -0.051249973 -0.035864644 0.028941212 0.013156978
000070 82 91 6c bc 61 8b a4 3d 8b d4 fe bc 29 22 8e 3c
       -0.014438989 0.08034397 -0.031107208 0.017350273
000080 1e 49 a6 3d a5 1c 84 3c 5b be 41 3d 2a 09 5f bd
       0.08119415 0.01612694 0.047300678 -0.0544521
000090 0e f4 0b 3c 0e b0 ce b7 26 06 48 bd 08 6f ac bc
       0.008542074 -2.4639095e-05 -0.04883399 -0.021049038
0000a0 6d 7a 32 bd 27 ef ed bc 70 2c 24 bd 19 4d f3 bb
       -0.043573786 -0.0290447 -0.04008144 -0.0074249622
0000b0 1b 91 12 3d 33 a5 fc 3c 2f 9c 8b 3b 56 ef f3 bc
       0.035782915 0.030840492 0.004260562 -0.02977721
0000c0 15 07 87 3d f2 e8 38 3c 95 40 10 bd 96 65 08 3d
       0.06593148 0.011286007 -0.03521784 0.033300005
0000d0 9d 25 67 bd 5a 57 67 3c 5f a0 b8 3c 76 0c 9e ba
       -0.056432355 0.014119947 0.022537408 -0.0012058157
0000e0 ff 36 cf bc a2 72 dc bc 4f b3 f2 bc cd 11 2c bc
       -0.025294779 -0.02691013 -0.029626517 -0.010502291
0000f0 5f fc 78 3c e0 1d ce bc 53 58 57 bc 82 97 d4 3b
       0.015196889 -0.02516073 -0.013143617 0.0064877877
000100 51 a6 10 bc 3e f4 20 3d 63 9f d0 bc 69 4f f6 3c
       -0.008828715 0.039295428 -0.025466627 0.030067163
000110 1e 06 b2 bb 5f 2f d1 3c 49 e2 c6 bb c4 0b ff 39
       -0.005432858 0.025535284 -0.0060694558 0.00048646156
000120 a5 41 c0 3b 25 8c 66 3c 67 03 17 bd 01 f6 e7 3c
       0.0058672004 0.014071499 -0.03686848 0.028315546
000130 92 80 70 3c 17 2b 07 bc f7 7e 01 3d 35 cc 35 bd
       0.014679091 -0.0082500195 0.031615224 -0.0443842
000140 46 6c c2 bc f2 39 c2 bc 54 e1 cd bc fa dc 64 bd
       -0.02373327 -0.023709271 -0.025131859 -0.055874802
000150 b4 ef 30 bd a2 ec 67 bd c9 42 06 3d 19 bc 13 bd
       -0.04319735 -0.056622155 0.032778535 -0.036068056
000160 96 bc 13 3d 92 c9 d1 bc 90 23 b4 3c 3b 4b 81 3c
       0.03606852 -0.025608812 0.021989614 0.015782943
000170 96 39 64 bc b8 a5 d2 3a c7 06 9e 3c 6a 4b 8b bc
       -0.013929745 0.0016071117 0.019290341 -0.017003734
000180 ac 03 f9 3c cf 67 70 3c ae aa 5a bd da a0 37 bd
       0.030397259 0.014673187 -0.05338543 -0.044831134
000190 fd 44 5c 3d 59 ff 87 3c 5d 3e 1d 3d 21 bc 1d 3d
       0.05377673 0.016601251 0.038389552 0.03850949
0001a0 1f 90 a2 bc 77 c1 be 3c 41 ee 68 bd 0b cb 6d 3d
       -0.019844113 0.02328561 -0.05686784 0.058054965
0001b0 ca eb 15 bd 26 ac 24 3d 0a 54 ab bc 68 7a 73 3c
       -0.03660182 0.040203236 -0.020914096 0.014860727
0001c0 92 c5 9f 3c f5 00 d8 bc 56 9f 05 3c 88 7d 0d bb
       0.019503389 -0.026367644 0.008155664 -0.0021589715
0001d0 20 35 a0 3d 6e 27 22 bc bf af ca bc e2 d4 1e bd
       0.07822633 -0.009897096 -0.024742005 -0.03877724
0001e0 19 9d 14 3c b3 f9 82 3c b1 5d ea b9 11 43 5b 3d
       0.009070658 0.015988206 -0.00044701764 0.053530756
0001f0 63 60 79 3c 65 4f 0a bd 47 6d 78 bd 61 8f 87 3c
       0.015220734 -0.033767123 -0.06065109 0.01654786
000200 e6 14 9e bc 37 28 85 bd 14 e8 d1 bc b0 2c c1 3b
       -0.019297075 -0.06501811 -0.025623359 0.0058952197
000210 9b db e5 3c dd b0 25 3c 10 ab bb 3c d5 d2 50 bb
       0.028058818 0.010112968 0.022908717 -0.0031863947
000220 ba 49 12 bc 28 80 e4 bc f1 34 1d 3d 24 dc 9d bd
       -0.008928711 -0.02789314 0.038380567 -0.07708004
000230 04 c8 4a bd 2d ba 3d 3c 06 75 04 3c 47 7d 9c bc
       -0.049507156 0.011580032 0.008084541 -0.019102706
000240 43 dc c4 3b c1 4e 9c bc bf f3 17 bc 5b 01 cc bb
       0.0060077026 -0.019080522 -0.009274422 -0.0062257475
000250 41 cc 35 bc 1b bc 21 bd 64 2b 62 3c 82 0e d9 bb
       -0.011096061 -0.039486032 0.01380429 -0.006624044
000260 19 c5 13 3d 60 d8 85 bc 53 60 ed 3c a4 cb 3f bb
       0.03607664 -0.016338527 0.028976595 -0.0029265666
000270 a6 17 4c 3d c2 d6 4b 3d c8 ab b6 bc 17 16 03 3d
       0.04982724 0.049765356 -0.022298709 0.03200349
000280 03 bc f7 3b 84 2c 2e 3c d7 bd de 3c 50 c4 4c bd
       0.0075602545 0.010630731 0.027190132 -0.049991906
000290 fe ae f1 3c 63 95 9a bc ab 43 cc 3b 6f 02 25 3d
       0.029502388 -0.018870061 0.0062336526 0.040285524
0002a0 9f 3d 70 bd fe 4c a5 3c 36 94 d4 3b a3 a8 d7 bb
       -0.058652516 0.020178314 0.0064873947 -0.0065813824
0002b0 69 2b 53 3d 52 ff 80 3d 1f 7e 1f 3c de ff fe bc
       0.05155507 0.062986985 0.009734659 -0.031127866
0002c0 e5 67 9a bc b7 82 59 3d 72 8d da 3c b1 8e 75 bc
       -0.018848369 0.053103175 0.026678775 -0.014987634
0002d0 33 ca 13 bb 18 d2 ff 3c 90 c8 f1 3b 82 4d b2 bc
       -0.002255094 0.03122811 0.0073786452 -0.021765474
0002e0 18 40 be bc 67 f4 dc 3a e4 04 59 bc 66 89 f7 3c
       -0.023223922 0.0016857506 -0.013245795 0.030216884
0002f0 00 d4 63 3d 76 47 77 bc 8b 9d 43 3d 0a 2f b7 3c
       0.0556221 -0.015092721 0.047757667 0.022361297
000300 98 9c 28 bd 0a ce 15 3d 59 e9 de bb 89 1c 61 bd
       -0.041164964 0.036573447 -0.0068027196 -0.054958854
000310 c5 af 43 bd 52 4b 77 bd b7 c5 c6 3b 14 e6 00 3d
       -0.04777505 -0.060374565 0.00606605 0.03146942
000320 b8 66 bb bd bf 6f 9f 3b 73 30 42 bd 05 ab 76 bd
       -0.091504514 0.004865616 -0.047409486 -0.06022169
000330 59 0c f4 3c 81 00 18 bd 16 c6 9f 3d 4c 7c 28 bd
       0.029791044 -0.037109856 0.07801454 -0.041134164
000340 5f 81 67 bc c9 fc 46 3d 86 d5 1f bd 42 ed 1b 3d
       -0.014129966 0.04858092 -0.03902199 0.038068064
000350 f0 38 10 bd 37 b0 44 bd 30 1d dc 3c db 8d d1 3c
       -0.03521055 -0.048019614 0.026869386 0.025580337
000360 72 48 84 3c 4e a4 a0 3b a7 af 54 3c fe af 4c 3d
       0.016147826 0.004902399 0.012981332 0.049972527
000370 f6 5c c6 bc 03 87 e9 bb c9 f6 a9 bb 48 69 d7 bc
       -0.02421425 -0.0071266904 -0.00518689 -0.02629532
000380 f3 44 ed bc 9e b0 83 bd a9 62 0a 3d 62 92 f1 3c
       -0.028963542 -0.064301714 0.033785496 0.029488746
000390 4c ca d2 3c 70 ef 47 3c d2 83 63 bd 7c b5 e6 3c
       0.025731228 0.012203082 -0.055545636 0.02816271
0003a0 f8 2f d3 ba 35 be 10 3d e6 4f c1 3a 55 b3 9d bb
       -0.0016112318 0.035337646 0.0014748543 -0.004812638
0003b0 39 d5 2c bd c3 c4 94 ba 17 f8 2c bd de ef 41 3b
       -0.042195532 -0.0011350143 -0.042228784 0.0029592435
0003c0 69 98 2e bd 12 fa a1 bd 7a a7 da 3c 09 93 5e 3c
       -0.04262582 -0.07909025 0.026691187 0.013584861
0003d0 79 f0 10 bb 84 9c 10 bd fa fd 96 bc ee 3f 90 3c
       -0.002211599 -0.035305515 -0.018431652 0.017608609
0003e0 4e e9 84 bc f3 a0 41 bc 89 8a 37 bc 36 d4 0b bc
       -0.01622453 -0.011818158 -0.011202463 -0.008534482
0003f0 ca 5f 39 bd a9 67 3f 3a f8 d9 a7 3c b6 bf 35 3d
       -0.045257367 0.00073015183 0.020489678 0.044372283

conv3.bias f4 [128]
000000 8e 3e c0 bb 60 fe 17 bd ed ea af bc 76 78 d7 3c
       -0.005866832 -0.037107825 -0.021474326 0.026302557
000010 95 09 01 bd af 5f 0d 3c c7 d4 7f bc 79 15 45 3d
       -0.03150328 0.00862877 -0.015614695 0.04811618
000020 2f fc 88 bc a4 bf 8b 3c e8 69 86 bb f6 8b a8 bc
       -0.016721813 0.017059155 -0.0041019805 -0.020574551
000030 6e f1 2b 3d 02 65 79 bc 1b 9a 61 3c 01 d6 f5 3c
       0.041978292 -0.015221836 0.013769652 0.030009272
000040 7c 78 0e 3d db a1 44 3d cf 96 c3 3c 98 33 1d 3c
       0.03478287 0.04800592 0.023875622 0.00959482
000050 e0 87 17 3d 6b 96 df 3c 58 1b 52 3d e5 b4 f6 3c
       0.036994815 0.027293405 0.05129561 0.030115554
000060 3e b3 9f bc ed b2 92 3c 2e e2 43 3d 42 5c 92 bc
       -0.019494649 0.017907584 0.047823124 -0.017866258
000070 53 21 f9 ba 16 95 69 bd 31 17 49 bd 1e 04 ca 3c
       -0.0019007124 -0.057026945 -0.049094383 0.024660166
000080 2f 46 19 bd 83 ff 15 3d 04 67 01 3c f0 0d 1e bd
       -0.037420448 0.036620628 0.007898096 -0.03858751
000090 e5 ef 10 3d 30 60 1b bd b0 7b 89 ba 6e f6 a6 bb
       0.03538503 -0.03793353 -0.0010489132 -0.0050952947
0000a0 da e5 40 3d 08 59 4a bc 5e d9 94 3c 80 ba b1 bc
       0.047094204 -0.012350328 0.018170055 -0.021695375
0000b0 d1 37 fa 3c 73 7f 89 3d 9a eb 1b 3c 71 34 c2 3b
       0.030544193 0.06713762 0.009516621 0.0059266617
0000c0 26 dd c8 3c 97 ef 13 b9 5c a5 01 bd 6b a8 6d bc
       0.024519514 -0.00014108267 -0.03165184 -0.014505486
0000d0 03 c5 07 bd d3 c4 13 3d 9e ca bb bb 3e d1 db 3c
       -0.03314687 0.036076378 -0.005730941 0.026833173
0000e0 af 92 5d bc 4c 6a 0d 3d 88 a2 06 bc cd 50 29 3d
       -0.013523742 0.0345252 -0.008217461 0.041336823
0000f0 a9 ab 16 3d 68 c3 f7 3c 7b fb 27 3c 2d 01 82 bc
       0.0367848 0.030244544 0.010252829 -0.015869701
000100 94 be b9 bc fb f3 1e 3d 57 6a f8 3c 7e bd 7e 3c
       -0.022673883 0.038806897 0.030324144 0.015548108
000110 26 b0 bb 3c 2d 4d 63 3c 1f 33 93 3c 1f cb ed 3b
       0.022911143 0.013873381 0.017968712 0.00725688
000120 bd f4 d4 bc 48 37 22 bc 7a 06 75 3c c1 3d 58 3d
       -0.025995607 -0.009900875 0.014955157 0.052793268
000130 26 d6 51 3d 3d ce 59 3d 5d 25 89 3c 02 88 68 3c
       0.05122962 0.0531752 0.016741449 0.014192583
000140 5f 9b 36 bd af 75 c4 3c f5 02 42 bc fe f4 12 bd
       -0.044581767 0.023981897 -0.011841525 -0.035878174
000150 d4 cd 25 3c 64 62 0c bc 26 fc 0b 3d 09 fe 1f bc
       0.010119874 -0.00856838 0.034176014 -0.009765157
000160 c2 8d 90 3b 17 d8 bb 3c b9 ce f8 bc 5a 4e 61 3d
       0.00441143 0.022930188 -0.03037201 0.055006362
000170 fe 66 3f bc 3d 06 c9 3c 07 11 2d 3c 67 5b 60 bb
       -0.01168227 0.024539107 0.010563142 -0.0034234168
000180 c5 50 c0 3a b8 d5 bd 3c b1 21 9e bc 21 c2 9c 3c
       0.0014672509 0.023173198 -0.019303175 0.019135537
000190 eb 6a ba 3c 5f 05 48 3d 38 4b 63 bc 7d 35 aa bb
       0.02275606 0.048833247 -0.013872914 -0.0051943646
0001a0 16 6b ed 3c 64 14 4c 3d 71 42 07 bc 24 fa 7e 3c
       0.028981727 0.049824134 -0.008255587 0.015562568
0001b0 59 ae e2 bc b3 38 4d 3c 50 a3 2e bc 96 c3 85 3c
       -0.027671026 0.012525725 -0.010659054 0.016328614
0001c0 5c 55 25 bd b9 aa c9 bb b4 ce d2 3b 95 3d 43 3d
       -0.04036461 -0.006154385 0.0064333323 0.04766615
0001d0 0b 66 d2 ba f7 b9 c6 bb 5d 8d 7d bc 61 ff 8b 3b
       -0.001605214 -0.006064649 -0.015475598 0.004272387
0001e0 93 00 5e bc 59 ac 47 bb dd 37 c7 bc c6 9e 3a 3c
       -0.013549942 -0.0030467717 -0.02431863 0.011390394
0001f0 2f 62 da bc cc c6 11 bd b9 75 cc bc 27 24 5a 3d
       -0.026658146 -0.035589978 -0.024958478 0.053257134

act_conv1.weight f4 [4, 128, 1, 1]
000000 a6 79 b3 3b de 59 b6 36 8f 23 12 3d ee 92 39 bd
       0.005477148 5.4344846e-06 0.035678443 -0.04530614
000010 95 e4 34 3c e9 f5 8d 3c af 25 4d 3d 7b ef a9 3c
       0.011040826 0.017329173 0.050084766 0.020744076
000020 90 dc 90 3d 94 ea d8 bd 20 9d 19 b5 84 61 c8 3c
       0.07073319 -0.10591617 -5.722559e-07 0.024460562
000030 11 bb fd bd d1 52 33 3c 24 35 f5 3c 2b 15 49 bd
       -0.12389196 0.010945038 0.029932566 -0.049092453
000040 19 8b 8c 3c f3 bc 4b bd b0 9d e8 3c 06 ca 0e 3c
       0.01715617 -0.049740743 0.028395504 0.008715158
000050 ce 85 4f bc 49 86 c5 3c f3 d7 bc bd a4 03 d3 3b
       -0.012666179 0.024111884 -0.092208765 0.006439643
000060 45 ae 87 3c c0 4c 15 3d 19 5c 76 bb 79 c8 19 bd
       0.01656259 0.036450148 -0.0037591516 -0.0375447
000070 86 0d 17 3c 57 a1 30 bd c7 13 be bc 90 dd 27 3d
       0.009219533 -0.043122616 -0.02320279 0.040982783
000080 d2 f5 76 36 c2 47 32 3c db 1c d9 bc ec d5 69 3d
       3.6799943e-06 0.010881366 -0.026503017 0.057088777
000090 3d f4 87 bd c4 0a db bc 7d 0f ab b9 b4 bd fd b8
       -0.06638382 -0.026738532 -0.000326272 -0.00012099315
0000a0 72 59 0c bd 5a 80 19 bd 68 04 13 bd ab 67 34 bd
       -0.03426499 -0.03747592 -0.035892874 -0.044044178
0000b0 49 f7 3b 3b 0f 60 a6 bd cb 98 86 ba 7f ab ac bd
       0.002868133 -0.081237905 -0.0010268925 -0.08431148
0000c0 b9 32 95 3c 6e 51 02 bd 8b 97 19 3d cc 8b 05 3d
       0.018212663 -0.03181594 0.03749804 0.032604024
0000d0 cb a2 24 3b 8b 0f 17 bd fd 57 45 bd d3 8a 71 3d
       0.0025121446 -0.036880057 -0.048179615 0.058970284
0000e0 fa fd 7f 35 17 44 d5 bd bc 26 98 bd 77 c8 a3 bc
       9.5364487e-07 -0.10413378 -0.07429263 -0.01999305
0000f0 ce e0 a0 bd ac 95 ed 3c 2e 0e 26 3d 28 2c 99 36
       -0.07855378 0.029002033 0.040540867 4.564896e-06
000100 de ea 76 3d 6f fe 4f bd ad e7 42 3d f5 23 10 bc
       0.06028258 -0.050779756 0.047584224 -0.008797635
000110 2f de b9 bc 1d 44 ab bb 92 24 1a 3d 58 d6 22 3c
       -0.022688953 -0.0052266256 0.037632532 0.009938799
000120 22 2d 0f bd c6 49 99 3d 50 a0 58 3d fe 43 65 bd
       -0.03495515 0.07484774 0.05288726 -0.055973046
000130 cd d9 19 3a f3 2a a0 3b 77 14 80 bd 7f 2d b6 bc
       0.00058689417 0.0048879324 -0.06253903 -0.022238491
000140 cf e4 4e 3c f9 0b 22 3d 52 e3 11 3c fd f6 ce b7
       0.012627794 0.0395622 0.008904295 -2.4672127e-05
000150 3c b3 bb bc 15 07 25 37 0e e4 a4 bd 35 d8 96 3d
       -0.022912614 9.836415e-06 -0.080513105 0.07365457
000160 40 68 29 3d a7 0f cc 3b 74 ce 34 3c 99 05 91 bd
       0.041359186 0.006227452 0.01103555 -0.07081146
000170 89 6c c0 3c 1a 90 69 3d cc 91 00 bd cf 06 1b 3d
       0.023489254 0.05702219 -0.031389043 0.03784829
000180 eb 60 16 bd 76 72 5e 3d 1d 36 f4 bc 56 16 89 3d
       -0.036713522 0.054308377 -0.02981096 0.06693713
000190 12 6a 21 3c fd 27 cb 3c c1 51 3d 3c 49 ea 94 bd
       0.009851949 0.024799341 0.011555136 -0.07271249
0001a0 a1 f9 7c ba 38 5d d9 3b f7 6b 91 3b 27 c1 af bd
       -0.0009650235 0.006633427 0.0044379192 -0.08581763
0001b0 4a 93 e4 3c ca bd 80 3d 29 74 db bc 1d 54 9a 3c
       0.027902264 0.062861994 -0.026788788 0.018838936
0001c0 39 2b fe 36 68 7d 25 3b e6 04 11 bd 57 68 ad bb
       7.5748217e-06 0.002525175 -0.035405062 -0.0052919793
0001d0 ca 30 2b bd bd fd 27 3d de 6a 2e 3d f6 fb 92 3b
       -0.041794576 0.041013468 0.042582385 0.0044856025
0001e0 e5 5e a1 3d 15 69 8a bc d4 73 71 bc 93 06 b2 bd
       0.07879428 -0.01689581 -0.014737088 -0.0869266
0001f0 f4 a6 04 ba c1 4d 3e 3d 4d 49 bb 36 47 fd 45 bb
       -0.00050602783 0.04646087 5.5815676e-06 -0.003021078
000200 5d 31 08 ba 95 89 80 3d cb 07 7e bd 48 86 91 bb
       -0.0005195344 0.06276242 -0.06201915 -0.0044410564
000210 b7 92 8f 3d 93 09 a0 bd d8 5d 70 bd b0 c8 a1 3d
       0.070104055 -0.07814326 -0.058683246 0.07899606
000220 17 39 9d 3d df bb 95 bd f7 fe 03 bc 38 d7 df bd
       0.07676905 -0.07311224 -0.008056394 -0.109297216
000230 cc 7c 9d 3b c5 ab db 3c d5 30 b4 3d 66 f1 d9 3d
       0.0048061367 0.026815305 0.087983765 0.10641746
000240 d8 36 ec bd ce 16 3d bd 82 10 0c 3c 00 5c 64 3c
       -0.11533898 -0.046164326 0.008548858 0.01393795
000250 83 d6 1d 3d 1a 3c 8e bd 67 d4 d9 3b f5 0e d6 bc
       0.038534652 -0.06945057 0.006647635 -0.026130179
000260 a8 5f 64 3d 3a 56 fb bb a3 b7 76 bc cd e9 d9 3d
       0.055755287 -0.007670191 -0.015058431 0.10640297
000270 ef 09 12 3d cc aa a9 bd 6f 29 66 bb 03 43 34 bd
       0.035654005 -0.0828453 -0.0035119911 -0.04400922
000280 30 fb a1 bd 74 a9 d0 3c 24 1f 69 3c 56 b6 d6 bb
       -0.07909238 0.025471427 0.014228616 -0.006552498
000290 67 be 95 3d 44 42 74 3d 03 6a 32 3c 08 ab 73 bc
       0.07311707 0.05963351 0.010889533 -0.01487232
0002a0 84 84 0a 3d 6f 29 c4 ba 6e 06 cb bc 0b 9a 6f 3d
       0.033817783 -0.0014965961 -0.02478334 0.058496516
0002b0 d2 87 9b bd 68 cc 8c 3c 76 41 3b bd c2 63 77 bc
       -0.07594265 0.017187312 -0.045716725 -0.015099468
0002c0 70 9a ea bd 29 15 ad bc d5 0b 57 3d 89 68 42 3c
       -0.11455238 -0.021128254 0.05250152 0.011865743
0002d0 26 9d 0b be 65 aa a9 3d dd 8c 12 3d 4f 05 53 bd
       -0.13634166 0.08284453 0.03577887 -0.051518735
0002e0 17 e3 65 ba f8 40 82 3d aa 64 70 3c c1 10 93 3d
       -0.0008769496 0.06360048 0.014672438 0.0718093
0002f0 6a f1 9a 3d 2e 02 4c 3c 88 5d d1 bc 30 a9 36 b6
       0.07565577 0.012451692 -0.025557294 -2.7218593e-06
000300 0e 0e cb 3b 90 e0 79 3d e8 47 9b 3d 8e b7 8d 3d
       0.006196744 0.061005175 0.075820744 0.06919776
000310 7c eb 8a 3d 1b 41 5d bd 82 7d 8f bd 59 cc 92 3d
       0.06783196 -0.054017168 -0.070063606 0.071678825
000320 1e ff c5 3d 02 0c 9a 3d ff 72 6d 3d 85 06 9a bd
       0.096678 0.075218216 0.057970997 -0.07520775
000330 5b 45 38 bc 91 6b aa 3c 3f a3 ad 3d 97 9d dd 3d
       -0.011247004 0.020803245 0.08478402 0.108210735
000340 99 3c 27 bd 2b cc d9 bc 0a d4 c2 bc 97 85 f2 bc
       -0.040829275 -0.026586613 -0.023782749 -0.029604716
000350 22 e1 8d 3d bd 9f 65 38 95 02 b0 3d bd 1c 86 bd
       0.06927706 5.4746622e-05 0.085942425 -0.0654845
000360 92 a0 8e 3d 66 6d 45 3c d3 6a 04 3c 6a c3 ef 3c
       0.0696422 0.012050008 0.0080821095 0.029267985
000370 a8 47 00 bd 3f d9 a8 bd 48 18 83 3d e6 3f 4d 3d
       -0.031318337 -0.082445614 0.06401116 0.050109766
000380 df cb aa 3d d6 e5 cf 3c 41 3c 89 bd ff 66 fb 3c
       0.083396666 0.025378149 -0.06700946 0.03068876
000390 00 76 d9 3d 9d 2f 8b 3d ec 37 d2 bd b2 f7 f7 3d
       0.1061821 0.06796191 -0.102645725 0.12107791
0003a0 67 e5 99 3d 63 34 08 bd 63 87 d3 bc 59 b8 08 3e
       0.07514458 -0.033253085 -0.025821393 0.13351573
0003b0 11 8c a2 bd 02 30 c0 bb 18 61 aa 3d f0 bf 1a bd
       -0.07936872 -0.005865098 0.083193004 -0.037780702
0003c0 ac 12 f5 bb 08 3c 41 3d d0 89 13 3e 65 a6 03 be
       -0.0074790325 0.04717639 0.1440804 -0.12856443
0003d0 08 d0 8a 3c 24 80 c0 bd e4 69 88 3a c1 fa 25 3d
       0.0169449 -0.09399441 0.0010407534 0.04052234
0003e0 26 89 c6 bb 22 5f d3 3c ec cf c4 3d 12 60 2f 3c
       -0.00605883 0.025802199 0.096099705 0.010704057
0003f0 79 f2 ee 3c a4 4d d6 3c 3e ae 8a 3c 8b c2 b8 3c
       0.029168354 0.026160069 0.016928788 0.022553703

act_conv1.bias f4 [4]
000000 a2 1d 8c bc a6 75 42 3d f4 ba 98 3d e0 b0 90 bd
       -0.017103974 0.04747548 0.074575335 -0.07064986

act_fc1.weight f4 [36, 144]
000000 5a 97 15 bd 3b 48 77 bd c8 3c b8 bd ee 8c c4 bc
       -0.036521293 -0.06037162 -0.08995968 -0.023992982
000010 23 fa 0b bd 03 89 89 bd 02 02 0b bd 78 5a 93 bd
       -0.034174096 -0.06715586 -0.03393746 -0.0719499
000020 ef 97 b8 bd 81 54 ca bd ee dd 1f bd d1 ba 90 bd
       -0.09013354 -0.09879399 -0.039030008 -0.070668824
000030 31 e4 f6 bd 16 56 ac bd 35 7c ce bd 45 80 2e bd
       -0.12055243 -0.08414857 -0.10082284 -0.042602796
000040 4f a8 15 bd 4d bc e0 bc 95 0f 41 bd d1 c4 0d bd
       -0.036537465 -0.027433539 -0.047134 -0.034611527
000050 07 76 36 bd ca b6 00 bd 7e 86 43 3c b3 bb 7f bb
       -0.044546153 -0.03142432 0.011933921 -0.003902179
000060 69 b1 48 bc c9 5a c5 bc 7a 3b b1 bd 2c 9e c4 bb
       -0.012249329 -0.024091141 -0.086539224 -0.006000301
000070 12 61 3d 3c b3 dd 9b 3c a1 7b 5a bc cf 3e bf bc
       0.011558788 0.019026613 -0.0133351395 -0.02334538
000080 0f c1 6f bc 15 68 c2 bc 69 f2 07 bd 42 be 03 bd
       -0.014633431 -0.02373127 -0.033190165 -0.032163866
000090 61 b8 98 3d ad 18 ab 3d 7f ca c0 3b 45 63 41 3d
       0.074570425 0.08354316 0.0058835144 0.04721381
0000a0 ce 45 9d 3c 01 ad b4 3c 9c 88 b3 3c c3 02 c2 bc
       0.019198325 0.022055151 0.021915726 -0.023682958
0000b0 67 a7 fa 3c f0 56 99 3d 11 5e 5e 3d a6 b5 70 bc
       0.030597402 0.07487285 0.054288927 -0.014691746
0000c0 26 e4 7c 3d 5a b1 90 3d e9 ff 6a 3d c9 f1 1d bc
       0.061741017 0.07065077 0.05737296 -0.009640166
0000d0 0c 13 97 bd 71 79 6b 3d 1c f0 16 bd 35 66 bc bd
       -0.0737668 0.057488862 -0.03685008 -0.09199182
0000e0 36 35 89 3d 54 fe c7 3d da 75 32 3d f4 3d 8d 3d
       0.06699602 0.09765306 0.043569423 0.06896582
0000f0 84 f1 82 bd d0 e4 a6 3d 03 71 3b 3d a3 db 9f bd
       -0.06393722 0.08149111 0.045762073 -0.07805564
000100 79 c4 9b 3b 14 40 e6 bc 2e 40 5b 3d 2e ab e7 bd
       0.004753646 -0.028106727 0.053528003 -0.11311947
000110 a8 b6 79 3d be 0b b9 3b e2 8a ac bd a3 0c 81 3c
       0.06096521 0.0056471517 -0.08424927 0.015753096
000120 51 2e 3f 3d b3 d1 13 bd d8 cb 29 bd ae 51 28 bb
       0.04667503 -0.036088657 -0.041454166 -0.002568345
000130 a3 ea 98 3d 84 cc 1c 3b 25 95 b5 bc 86 32 cd bd
       0.074666284 0.0023925612 -0.022165844 -0.10019402
000140 86 97 9d bd 78 7f c1 bd 6a 9e 89 bd 51 02 b0 3c
       -0.076949164 -0.09448141 -0.06719668 0.02148548
000150 c5 2f 65 bd 04 57 8a bd 3b 6b b3 bc 73 73 5d bd
       -0.05595376 -0.06754878 -0.021901717 -0.05406518
000160 78 bc b2 bc 15 74 df bd 37 54 8e 3b 75 be c1 bd
       -0.021818385 -0.10910813 0.0043435353 -0.09460155
000170 d1 eb b4 bd 27 c7 96 bd ee f4 8a bd ec 28 ef bc
       -0.08834041 -0.07362204 -0.06784998 -0.029194318
000180 e1 e0 9b bd 7c 8a 2f bd d8 35 a3 3c 95 85 02 be
       -0.076112516 -0.04285668 0.019923136 -0.1274627
000190 c4 f7 83 3b d8 a0 77 38 ff 53 90 bb a2 a0 73 bd
       0.0040273387 5.9039186e-05 -0.0044045444 -0.059479363
0001a0 04 d1 0c bd f1 78 cd bd 43 c1 28 bd d1 9a 32 bd
       -0.03437902 -0.10032833 -0.041199934 -0.043604676
0001b0 7e 57 88 bd 65 dd 64 bd f8 e9 ec bc d3 ff b4 bd
       -0.06657313 -0.0558752 -0.028920159 -0.08837857
0001c0 b0 10 f6 bd d5 dd 90 3c 83 ad 04 3d ab 1b e6 bb
       -0.12014902 0.017683903 0.032392036 -0.0070223412
0001d0 d4 a6 a1 3c be 3f 8c bd f6 bd 35 bd 8b e7 34 3d
       0.01973287 -0.06848095 -0.044370614 0.04416613
0001e0 2c 4a d2 bc b6 e4 1b bd c9 da c1 bb d1 5f 53 3d
       -0.025670134 -0.038059913 -0.005915974 0.05160505
0001f0 ee 79 dd bc ce 37 8c bd bb fa 76 bb 30 b8 56 3d
       -0.02703568 -0.068465814 -0.0037686068 0.05242175
000200 75 b4 0f bb df 65 77 bc 95 c3 8d 3c e0 a1 50 3d
       -0.002192763 -0.015099972 0.017305175 0.050935626
000210 22 8b ec 3c 40 f4 a4 3c 46 a9 fd 3c 70 c3 cb bc
       0.028874937 0.020135999 0.030964505 -0.024873465
000220 91 02 a9 bd 67 e7 07 b9 3d 1f 8b 3d 2c f2 a7 3c
       -0.08252443 -0.00012960807 0.067930676 0.020501219
000230 82 5d 3f bd bf b7 04 3d ab df 32 3a 6a 6e 95 bb
       -0.046720035 0.032401796 0.000682349 -0.0045602815
000240 8f ab f6 bc 7c e5 92 bc b3 4b b6 3c 9d 3f 17 bd
       -0.030111102 -0.017931692 0.022252893 -0.0369259
000250 39 e7 ea bc 27 5c d8 bc b9 51 c3 bc 5c d5 d4 bc
       -0.028674709 -0.02641113 -0.02384268 -0.025980644
000260 0b 91 5c bc 41 04 80 bc a4 bc bc bc b8 0e ec bc
       -0.013462315 -0.015627028 -0.02303917 -0.028815612
000270 47 ee 56 bc 5b f2 16 bc c9 ea 95 bd c3 6c c1 bc
       -0.013118333 -0.0092130555 -0.07320172 -0.023611432
000280 18 19 7f 3c 06 b3 cf 3a 26 90 3e bd 05 35 97 bc
       0.015569948 0.00158462 -0.04652419 -0.018457899
000290 ee 27 ae 3c 6f ae a2 bb 11 3e 77 bd 8e 0c 73 bd
       0.021259274 -0.0049646418 -0.060361926 -0.059338145
0002a0 1b ad 81 3c 25 74 29 bd 17 1a 73 3c 89 36 8e 3c
       0.015829613 -0.04137053 0.014837763 0.017359989
0002b0 fa 1e 02 bc fc 89 50 bd bf 73 2f bc cf 66 ab 3c
       -0.007941956 -0.050912842 -0.010708748 0.020923046
0002c0 53 ad ba 3c fb 08 d2 bc 34 47 34 3b 7c 57 17 bd
       0.022787726 -0.025639048 0.002750826 -0.036948666
0002d0 63 f4 2f be 9e c6 26 bd 56 fa fe bc 11 5f ff 3d
       -0.1718307 -0.04071676 -0.031125229 0.12469304
0002e0 1c 1f c8 3c 93 9f b9 3d 99 d5 7f bd e5 a5 d7 3d
       0.024428897 0.090636395 -0.062459562 0.10529689
0002f0 2a fa a8 bd 40 b4 57 bd ca 66 9e bd dd 0c 4a 3d
       -0.0825084 -0.052662134 -0.07734449 0.049328674
000300 7c 2d 6f bd cd 82 92 bc f8 7f fd bc b8 f7 d5 bd
       -0.058392987 -0.017884636 -0.03094481 -0.10447639
000310 fd bf 03 bd f3 02 cd bd bb aa 13 bd b5 08 c3 3c
       -0.032165516 -0.10010328 -0.036051493 0.023807863
000320 ab 00 9a bd 64 7b b2 bd eb 7e a7 bd 53 03 f0 bc
       -0.07519659 -0.08714941 -0.081785046 -0.02929846
000330 ab cc b1 bc f3 f4 cf bd a1 0f 28 bc b1 74 7f 3c
       -0.021704039 -0.10154142 -0.0102576325 0.015591786
000340 50 08 fc bb 5f 77 f0 bd 40 ba 95 3c 69 d0 32 bc
       -0.0076914206 -0.11741518 0.018277287 -0.010913947
000350 a1 7d 2e be 6a c0 be 3c be 29 b8 bd d6 a5 94 bc
       -0.17040111 0.02328511 -0.08992337 -0.018145483
000360 a4 78 19 3e da c2 08 3e 5c 3f 95 3d b9 5b ca 3d
       0.14987427 0.1335558 0.072874755 0.09880776
000370 96 4c a7 3d cf 66 fb 3d 72 d2 4e bc e8 25 ef 3c
       0.081689045 0.122754686 -0.012623416 0.02919288
000380 13 50 a6 3d 34 a4 9b 3d 7f 3b 4b 3d ee 18 06 3c
       0.08120742 0.07599679 0.049617287 0.008184655
000390 b8 7c 88 3d d6 a4 72 3d 04 e7 53 bc a3 a0 66 3d
       0.06664413 0.05923923 -0.012933496 0.05630554
0003a0 7a 5a 6e bb a2 49 23 bd eb 1a 67 3d 0b 05 91 3d
       -0.0036369846 -0.039865144 0.056422155 0.0708104
0003b0 62 a3 09 bd c4 fb a8 bc 8b 80 2e 3d 0f bd 69 bc
       -0.03360308 -0.020627864 0.042603057 -0.0142662665
0003c0 f8 b6 b9 3d 70 1d b0 3d df 65 1c 3d ac 0e a1 3d
       0.09068102 0.08599365 0.03818309 0.078641266
0003d0 b7 37 2e 3b a5 cd 01 bd 2a ef 86 3d 52 1f d0 3b
       0.0026583502 -0.03169026 0.06588586 0.00635139
0003e0 3f b9 9b bd 56 6c a3 bc aa b5 60 3d e5 f6 a4 bd
       -0.07603692 -0.01994912 0.05486075 -0.08054904
0003f0 82 b4 dd 3b ba 9f 4a bd 81 b3 db bc 9c 46 81 bd
       0.006765903 -0.049468733 -0.026818993 -0.06312296

act_fc1.bias f4 [36]
000000 f7 91 b7 bc 38 35 2b 3d 32 d3 3a bb 98 74 8b bd
       -0.022408469 0.0417988 -0.002850723 -0.06809348
000010 01 72 f3 3b a5 80 80 bd 65 90 ef bd 62 42 c0 3a
       0.007429362 -0.06274537 -0.11697463 0.0014668221
000020 56 01 56 3d 83 8b 9e bd f1 53 6b bd c4 2e 06 3d
       0.052247368 -0.077414535 -0.0574531 0.032759443
000030 40 7b a4 3d ca e6 63 3d 09 ab a2 3c 75 49 dc bc
       0.080313206 0.05564002 0.019856947 -0.026890496
000040 b2 a5 03 3d e3 88 b1 3d d6 c5 3f 3d 52 19 2b 3d
       0.03214044 0.08668687 0.04681953 0.041772194
000050 fc 7b 6e bd 6d ee 3e 3d 2d b1 6d 3c 2c fd 87 3d
       -0.05822371 0.0466141 0.014507574 0.066400856
000060 f9 e3 4b bd 5d dc 34 bd 5c ad ca 3d 33 2f 30 bd
       -0.04977796 -0.044155467 0.09896347 -0.043013763
000070 84 a1 6f 3d a8 d7 40 bd 39 c9 da bd 62 8b 51 3b
       0.058503643 -0.047080666 -0.106829114 0.0031973948
000080 8f 25 50 3c c3 55 9c 3c 5d 96 90 3c ee 6a 85 3c
       0.012704267 0.019083863 0.017649824 0.01628634
