models/Training/AC_nmcts20/train_071.pth (torch, 424031 bytes, 15 tensors)

conv1.weight f4 [32, 5, 3, 3]
000000 ce 0e 2d 3d dc ec 4d be 95 45 2f bd fb e3 1b 3e
       0.042250447 -0.20109886 -0.042790968 0.15223686
000010 be ff 7a be b8 50 ef bc fc f3 df 3d ec f4 17 be
       -0.2451162 -0.029213294 0.10935208 -0.14839524
000020 51 cd 21 3d d5 49 a6 3c 89 ff 33 bc c9 a9 1b 3e
       0.039502446 0.020298878 -0.010986217 0.15201487
000030 b3 50 98 3d 42 27 2e be d3 b3 15 3e ec e8 20 bd
       0.07437267 -0.17007163 0.14619379 -0.03928463
000040 fc 69 a8 bc d2 da ed 3d a0 19 c8 ac 21 87 1a a9
       -0.02055835 0.11614002 -5.687187e-12 -3.4312075e-14
000050 98 6a fa 29 af 7c 9c 2c 7c 34 a6 ab 87 a7 28 2f
       1.1120721e-13 4.4476293e-12 -1.1809577e-12 1.5339029e-10
000060 3d 27 a7 2d 5a 1b a8 aa dc ba ec 28 0b 3b ef 3d
       1.9003127e-11 -2.9861774e-13 2.62823e-14 0.116811834
000070 2c 70 4b 3c 90 15 74 bd 85 3e 05 be 6c ed 26 be
       0.012416881 -0.059590876 -0.1301213 -0.16301507
000080 86 26 b7 3b 4d 21 0b 3d 69 23 14 be 5d 56 d3 3d
       0.005589309 0.033967305 -0.14466633 0.10319207
000090 63 bd fa 2a da af f4 ac 6b a5 81 2b d1 d5 26 ab
       4.4540334e-13 -6.9544205e-12 9.211914e-13 -5.9271777e-13
0000a0 c7 5a 4a 30 fe cf 6d 2a da 0d 64 29 30 18 02 ac
       7.3616174e-10 2.112199e-13 5.0638184e-14 -1.8487538e-12
0000b0 b1 90 2b 2f c3 e2 e8 bc 5e 88 69 3e 89 9e d0 3d
       1.5603764e-10 -0.02842844 0.22805926 0.10186488
0000c0 68 bc b2 3d eb 9c de bc 99 d8 e2 bc 20 00 68 3d
       0.08727342 -0.027174434 -0.027691172 0.056640744
0000d0 dd b9 f7 3d ca 93 ed 3d 4b 42 61 3d 3c 66 2d be
       0.120959975 0.11600454 0.054994863 -0.1693353
0000e0 4e 9a b6 bc 0e ec 6d bd c3 48 02 3d 32 94 10 3d
       -0.022290375 -0.058086447 0.031807672 0.03529758
0000f0 97 ff 5b bd 1b 2e 2a bd 90 19 be 3d 9e 33 68 2d
       -0.053710546 -0.041547876 0.092822194 1.31991345e-11
000100 2e dc 44 2c c0 f4 f2 a9 c8 4d a2 b4 e2 2b e6 a8
       2.79755e-12 -1.0789416e-13 -3.0231445e-07 -2.555416e-14
000110 5d d4 87 2a 4a f0 8d b4 17 b2 81 ab 48 91 91 2c
       2.4128174e-13 -2.643813e-07 -9.215431e-13 4.1372773e-12
000120 c0 5d 01 be 76 f8 3d 3e 18 49 a6 bd c3 b2 eb bc
       -0.12633419 0.18551812 -0.0811941 -0.028771764
000130 22 4a 37 be a9 d4 b8 bd 9b 40 fb bd 66 97 02 3e
       -0.17899373 -0.09024937 -0.12268182 0.12753066
000140 b9 f7 90 bc a4 5b 89 ab e7 ae 0d 38 dc 41 85 2c
       -0.017696248 -9.759871e-13 3.377991e-05 3.787399e-12
000150 3f 1c dc a9 00 43 84 ad 82 61 6f b6 2a 15 07 2e
       -9.7748625e-14 -1.5036417e-11 -3.5670532e-06 3.0714244e-11
000160 b0 dc a1 33 ee 4c f6 aa 46 d2 c9 bd bb 51 9a 3d
       7.5372895e-08 -4.375176e-13 -0.098545596 0.0753512
000170 b6 10 de 3d f9 dd b6 3d 6c 4d c1 3c 3d cc 33 3e
       0.10843031 0.08929057 0.023596488 0.1755838
000180 af 57 0a be a3 d0 3c be 39 ca 0a 3c 61 0d 15 bd
       -0.13510011 -0.18438964 0.008471065 -0.036389712
000190 35 7f 95 bd 6e f0 ba bd 57 df 97 bc 96 8a ef bc
       -0.072996534 -0.091278896 -0.018539114 -0.029240888
0001a0 9e 82 c6 3d 7d ed 3e 3e 3c 99 b5 3b 24 12 ac 3d
       0.09692882 0.18645282 0.0055419486 0.084018975
0001b0 a5 ae d0 af d0 a0 a3 ad a2 fa be a9 09 eb c4 a9
       -3.7959072e-10 -1.860237e-11 -8.481173e-14 -8.7449206e-14
0001c0 96 b6 58 b2 7e fa e0 b7 fa d8 e0 2b 89 88 da 2b
       -1.261437e-08 -2.6819525e-05 1.597638e-12 1.5527728e-12
0001d0 31 81 15 2b 4f a2 87 3d 8c 55 73 bc d8 67 0c be
       5.3114723e-13 0.06622755 -0.014851939 -0.13711488
0001e0 32 ab 05 bd 66 f9 20 bd ba 1b c7 3d 57 ad 7f 3d
       -0.032633968 -0.039300345 0.09722085 0.06242117
0001f0 6a e9 dd bc 18 8b 30 3d 37 72 c9 2e 5c 38 11 35
       -0.02708884 0.0431014 9.1607104e-11 5.4098723e-07
000200 82 e2 7d ac ea ca d0 b7 e4 e0 6c 27 40 b6 8f b7
       -3.60792e-12 -2.4890021e-05 3.2873493e-15 -1.7131795e-05
000210 cf aa ef 31 52 19 b2 a9 fd 20 4b ab 22 d0 dc 3c
       6.975234e-09 -7.90918e-14 -7.216587e-13 0.026954714
000220 c9 7d f3 bd 0e 03 05 be 40 24 2b 3d 87 ab b8 3c
       -0.11889226 -0.12989447 0.041782618 0.022542728
000230 b9 b2 33 bd 60 34 2d 3e 39 43 5d 3e c6 97 21 3e
       -0.043871615 0.1691451 0.21607675 0.15780553
000240 94 4a 7f 3d 43 c4 9d 3c 5d 99 c9 bd de ae 46 bd
       0.062326983 0.019258624 -0.09843705 -0.04850661
000250 81 02 47 be 7c ce 1b be df 49 71 3d 81 2e 2c 3d
       -0.19434549 -0.15215486 0.05890834 0.042036537
000260 a5 c1 19 be 7e 7d fd af 85 0e 1d 2a 1a d1 46 2d
       -0.15015276 -4.61096e-10 1.3949439e-13 1.1301427e-11
000270 9a 9a 83 2a 91 eb 0f 2f 88 d6 21 ae fe 72 c3 2b
       2.337755e-13 1.3089464e-10 -3.6797704e-11 1.38875e-12
000280 36 a7 1a ac 56 94 93 b1 dd f6 bf 3c 08 b5 f7 3d
       -2.1977537e-12 -4.295127e-09 0.023433143 0.12095076
000290 eb 11 04 3d 64 9c 48 be 98 7a b1 3d 02 7a 3b bc
       0.03224365 -0.19590908 0.08665961 -0.011442663
0002a0 09 27 87 3d 0b 46 a0 3d bc 27 bc ba 7f 1f 94 37
       0.06599242 0.0782586 -0.0014355103 1.7657641e-05
0002b0 2d 38 93 ae 12 97 2f 2f 46 7b 64 28 ec 90 17 ae
       -6.694765e-11 1.5969828e-10 1.2683273e-14 -3.446214e-11
0002c0 33 d6 d2 ab 50 17 24 ab 20 07 ee 36 82 d1 81 29
       -1.498085e-12 -5.8296857e-13 7.093782e-06 5.7650946e-14
0002d0 4e 84 f1 3d 2e 20 81 bd 24 fd ed 3d ee f2 1d 3d
       0.11792813 -0.06304966 0.11620548 0.038561754
0002e0 3c 2c 4a bc eb 45 22 3d 85 1d f3 3c c8 c1 b0 3c
       -0.012339648 0.03961746 0.029677162 0.021576777
0002f0 ea e7 1c be 8e 9a 09 3e de 9a 28 be 78 1d dc 3d
       -0.15322843 0.13437864 -0.16465327 0.10747808
000300 f3 82 90 3d 83 64 51 3d 3f 4a 0a 3e a5 ac d4 3d
       0.070562266 0.051121246 0.13504885 0.10384492
000310 02 65 28 3d 34 00 16 be 9c 11 8e 2a 88 b9 0b 2b
       0.041111954 -0.14648515 2.5236486e-13 4.9640196e-13
000320 1a d6 81 30 9d e9 12 b8 85 56 06 b0 c9 bb 3e aa
       9.446837e-10 -3.5026682e-05 -4.887187e-10 -1.6940541e-13
000330 fa 5a 1b 32 de e4 02 2e 75 d8 b4 a8 17 75 05 3e
       9.042873e-09 2.9761853e-11 -2.0077888e-14 0.13032947
000340 c5 4d 58 bd 67 62 0d 3e cc 25 08 ba 96 19 0e 3d
       -0.05280854 0.13807069 -0.00051936205 0.03469237
000350 65 2c 36 3e 05 83 ef 3d 96 17 12 3d 62 1d 00 bd
       0.17790373 0.11694912 0.035667025 -0.03127802
000360 80 bd 11 a7 9c 71 dc ab ee 76 fb 2a 04 ce 02 30
       -2.022552e-15 -1.5663473e-12 4.466908e-13 4.758649e-10
000370 20 b0 0c aa 13 29 f7 aa 4f ac 9e 2b cb 64 1f b0
       -1.2495604e-13 -4.3904515e-13 1.12744e-12 -5.79871e-10
000380 bc 50 c8 37 67 16 b4 3d 13 a5 16 3e 9d 33 0f 3e
       2.3879453e-05 0.087933354 0.14711408 0.13984533
000390 61 df 1d 3e bc 2d 8c bd 88 de 8b bd 6c be f4 3d
       0.15417244 -0.06844661 -0.06829554 0.119503826
0003a0 de c9 27 3e 7b 76 cb bd 62 93 ba 3d c7 04 02 3e
       0.163856 -0.09934708 0.09110142 0.12697135
0003b0 11 39 82 3d f4 07 eb 3c b0 c7 e1 bd 95 52 b7 bd
       0.06358541 0.028690316 -0.110244155 -0.08951298
0003c0 97 8c 4f 3d 96 e2 ef bd c8 c9 89 bc 2c 0b a9 b5
       0.050671186 -0.1171314 -0.01681985 -1.2594733e-06
0003d0 5d 47 b2 ac ea e5 0b 33 ae b0 30 29 b2 63 a7 b4
       -5.066987e-12 3.2572565e-08 3.9233096e-14 -3.1178712e-07
0003e0 a3 9e b5 2e 96 47 bf ac 02 aa 6d b0 d9 64 19 2e
       8.2591066e-11 -5.436494e-12 -8.6461693e-10 3.4877743e-11
0003f0 dc e5 88 3c 54 4f ac 3d 1b 1e 29 3d 11 7c 77 3d
       0.016711168 0.08413568 0.041288476 0.060421053

conv1.bias f4 [32]
000000 34 2f f7 3d b2 be 8f 3b 7b 28 04 bd 43 3b a3 3d
       0.1206955 0.0043867463 -0.032265168 0.07970288
000010 88 a3 97 bd 9e 04 0e be 2c e6 d7 bc 06 ad c9 3d
       -0.07404238 -0.13868949 -0.026354872 0.09847455
000020 67 8f 82 3d 9a 2c c1 bd 3c cc 3d 3e 45 ea 30 bd
       0.06375008 -0.09432335 0.1853494 -0.043192167
000030 cd 4e 2e 3e 27 a2 19 3e c1 53 dd bd 9b 28 f5 bc
       0.17022248 0.15003262 -0.108069904 -0.029926589
000040 66 a5 94 bc 5a 5e 80 bd 04 de 12 bd 07 99 2c 3e
       -0.018145274 -0.06267996 -0.03585626 0.1685525
000050 9f 6a 87 bd bf 6e 8c 3d 13 75 a3 3b 31 4a 9b bd
       -0.06612133 0.06857061 0.0049883216 -0.0758251
000060 20 a6 aa bd 34 ed 91 3d 3a 75 f0 bd 22 c3 28 3e
       -0.08332467 0.07125321 -0.11741109 0.16480687
000070 f9 06 04 3e eb 2c 9b bd 6f 97 cd bd 42 68 f2 3d
       0.12893285 -0.07576927 -0.10038649 0.11836292

conv2.weight f4 [64, 32, 3, 3]
000000 74 13 c8 bc ee 32 01 3d 7c 53 06 bc 76 e8 0b 3d
       -0.024423338 0.03154271 -0.008198615 0.03415724
000010 a8 51 56 bd cc c3 5c bd d3 e4 56 bd c5 bb 49 3c
       -0.052323967 -0.053897664 -0.052464318 0.012312834
000020 f9 92 ab bc 51 bc 3f bd 2f fd 1a bd ad ea 23 bd
       -0.020944105 -0.046810452 -0.03783911 -0.040018726
000030 70 f5 d8 3c 69 d1 f9 3c 89 20 1a 3d d4 bd c6 3c
       0.026484221 0.030495362 0.037628684 0.024260439
000040 84 3f a9 3c 3b 18 88 3d 83 32 69 bd 95 20 2f bd
       0.02066017 0.066452466 -0.056932937 -0.042755682
000050 3f 88 26 bd cf 40 30 3c 88 8b 2e 3d 94 04 b6 bb
       -0.04065728 0.010757639 0.042613536 -0.005554745
000060 b3 63 30 3b be b8 a0 3b 99 7a 56 bd 16 01 a2 bd
       0.0026914894 0.0049048355 -0.052363012 -0.079103634
000070 95 ec 76 bc 0e f1 fb 3c ae c4 eb ba 7b 4c 4f bb
       -0.015071054 0.030754592 -0.0017987692 -0.003163128
000080 25 ab 41 ba 7a 98 04 3d 73 c1 ac 3c 2d ec 42 3d
       -0.0007387868 0.032371975 0.021088338 0.047588516
000090 90 78 67 bb 6a 8c 0f 3d 09 e4 3e bd 7d 62 97 3c
       -0.0035319664 0.03504602 -0.04660419 0.01847958
0000a0 49 bd 56 3d 34 e9 07 bd 02 7f 23 bb b5 0c 2a 39
       0.05242661 -0.033181384 -0.0024947529 0.00016217197
0000b0 c1 d6 04 bd 9f c6 55 bd 30 af 93 bc 4e 18 19 bc
       -0.032431368 -0.052191373 -0.018027872 -0.009344174
0000c0 85 7b 56 bd 24 6e 05 bd 5a 96 ae 39 60 42 f9 bc
       -0.05236389 -0.03257574 0.00033299887 -0.030427158
0000d0 ff 79 70 3d bd 33 c7 3c 69 84 6c bc 41 c0 3e bd
       0.058710095 0.024316663 -0.014435866 -0.046570066
0000e0 b0 bf 90 bd 20 5b ab bb 9a c2 ce 3c a9 0c b5 bb
       -0.070678115 -0.005229369 0.025239278 -0.005525191
0000f0 f0 5f bf 3c c0 c5 d5 bc f1 c3 0f bd d1 0e 99 3c
       0.023361176 -0.026095271 -0.035098974 0.018683823
000100 3a cd d2 bc 0f 83 df 3c 24 0a 2c bd 67 65 b1 3d
       -0.025732625 0.027284173 -0.04200186 0.08661919
000110 b9 4d 07 3d 02 44 42 3d d8 cf 35 bc ef c4 7d bb
       0.033033106 0.04742814 -0.011096917 -0.0038722118
000120 4f ec a8 bd 96 15 85 bc 2c 9b 1b 3c fd df 82 bd
       -0.08248197 -0.016245645 0.009497445 -0.063903786
000130 57 db 51 3d 77 74 87 bd 04 8a 12 bd ec f6 05 3d
       0.05123457 -0.06614011 -0.035776153 0.032706186
000140 51 25 3e 3d b1 a0 38 bb e6 c2 75 bd c4 46 c3 bc
       0.046422306 -0.0028171951 -0.060000323 -0.023837455
000150 f3 4d e0 3c 57 98 95 bd de 03 25 bd 66 d2 1d 3d
       0.02738092 -0.07304447 -0.04028689 0.03853073
000160 5f 8b 2b 3d 27 e5 4d bc 50 bb 72 bd 68 e4 cb 3c
       0.04188096 -0.012566841 -0.059260666 0.024889186
000170 a8 e5 87 bd 47 6a 6f bd 32 bf 74 bd 14 a4 ae bd
       -0.066356 -0.058450963 -0.05975265 -0.08527389
000180 d4 af 43 bd 26 9b bf bc fb 61 ba bc 24 7a d6 3b
       -0.047775105 -0.02338941 -0.022751799 0.006545322
000190 f5 c2 3a 3d 72 8c c6 bc 54 93 8d bd f0 10 4d 3c
       0.04559608 -0.024236891 -0.06912866 0.012516245
0001a0 68 14 26 3d c8 c4 cd bc 04 dd d0 3c 3d 21 66 bd
       0.040546805 -0.025118247 0.025496013 -0.056184042
0001b0 81 00 c0 bd ee 64 06 bd 11 e6 9b bd 05 16 4b 3b
       -0.09375096 -0.032811098 -0.07612241 0.0030988466
0001c0 8d 00 85 3d fc 58 c0 bd 36 d1 43 bd 2c 2e 48 bd
       0.06494246 -0.093919724 -0.04780694 -0.048872158
0001d0 05 bb 78 ba c4 b9 92 bd 59 f6 60 bd 8f 0e 07 3d
       -0.00094883173 -0.07164338 -0.054922435 0.03297287
0001e0 24 68 8e bd 18 0c 02 3d be 5c 81 bc 39 21 3a bd
       -0.06953457 0.031749815 -0.015791293 -0.04544184
0001f0 2f 97 18 3c be f5 4d bc b6 a0 df bc 85 98 86 3a
       0.009313389 -0.012570797 -0.027298313 0.0010268843
000200 33 e7 74 bd 45 0e 87 bd c7 1a f8 bc fe 53 13 3c
       -0.0597908 -0.065945186 -0.030286206 0.008992193
000210 ab 86 a2 bd 50 d8 87 bc 3a 54 f3 3b 0a 19 36 bd
       -0.07935842 -0.016582638 0.007425812 -0.044457473
000220 18 86 18 bd 35 0e 06 bd 10 e8 35 bd 87 4c 76 bc
       -0.037237257 -0.032728393 -0.044410765 -0.015032894
000230 3c 72 0d bd ae 65 a4 bc 35 f0 4a bd 1e 2a 7b bd
       -0.03453277 -0.020068016 -0.049545486 -0.061319463
000240 84 45 4c 3d dc 81 1b bd c1 c5 a4 bd 15 45 2e bd
       0.049870983 -0.03796564 -0.08045531 -0.04254635
000250 e8 f4 6b bd 24 0f 09 bd 7f 84 3f bc cb 1f 1c 3c
       -0.057606608 -0.033461705 -0.011689304 0.009529064
000260 39 47 c7 bc ce e7 4b bd b1 dd c8 3c 5d b1 86 3b
       -0.024325954 -0.049781613 0.024519773 0.004110499
000270 c4 34 8b bd 31 23 c0 bb 1c 51 80 3d ca b5 bf 3a
       -0.067971736 -0.00586357 0.062654704 0.0014626321
000280 3c 94 39 3d cf 17 7f bd 0a 02 0c bd 0e b3 48 3c
       0.045307383 -0.062278565 -0.034181632 0.012249721
000290 da df 4a 3d bc 85 35 bc b5 11 64 bd 64 24 e9 3b
       0.049529888 -0.011079248 -0.05568095 0.007114934
0002a0 49 e2 47 3d 6f 8f ee bc 71 23 73 3c 1b 73 cf 3c
       0.048799787 -0.029121129 0.014839993 0.025323441
0002b0 0e 9e 94 bd 2f 51 4a bd e4 4e 77 bc a5 8b 3d 3d
       -0.07256709 -0.04939383 -0.015094493 0.046275754
0002c0 1e 14 e0 bc ed 68 f0 bb 25 08 27 bd 8a 98 be bd
       -0.027353343 -0.007336727 -0.04077925 -0.09306438
0002d0 41 49 87 bd 52 fe f9 3c ed ca ee bb af 61 ba bc
       -0.06605769 0.030516777 -0.007287374 -0.022751657
0002e0 2e 5c 6f 3d 81 0c 29 3b 84 cc 1a 3a 93 91 d2 39
       0.05843752 0.0025794806 0.0005905109 0.00040162783
0002f0 33 33 f6 bc c9 60 b1 bb 6b 5b 23 3c 14 fb 35 bd
       -0.03005371 -0.005413149 0.009970526 -0.0444289
000300 4e 62 90 bc ea 29 82 3d ad 16 ac bc 67 78 77 bc
       -0.017625 0.06355651 -0.021006906 -0.01510439
000310 f2 b5 9e bd b4 04 94 bd 27 bb 34 3d 74 ba 36 bc
       -0.07749547 -0.072274595 0.044123795 -0.011152852
000320 44 69 5b bc 05 70 65 bd fb e6 0a bd e9 5f 0a bc
       -0.0133917965 -0.056015033 -0.033911686 -0.008445718
000330 0d dc 97 bd 6c 4e cd 3b cc ab 61 bd 35 cd 23 3d
       -0.07415018 0.006265452 -0.05509548 0.039990623
000340 0a 5c f7 bc 4a 4f 6d bd 05 e5 ae 3c ac 22 27 3b
       -0.030195255 -0.057936944 0.02134944 0.0025502844
000350 88 0a 4f bd 40 a6 4e 3c 74 90 6d 3d be f6 a5 3d
       -0.050547153 0.012612879 0.05799909 0.08103703
000360 04 d2 8b 3c 4b 48 86 bc f1 76 b7 3c f9 3d 39 bd
       0.017067917 -0.016391894 0.022395583 -0.045225117
000370 31 64 b0 3c f2 49 1b bd 93 2e 77 3c 42 cb a7 bc
       0.02153215 -0.037912317 0.015086788 -0.020482663
000380 ef 01 06 bd 09 ae 08 3c ac 97 3f 3d 41 d5 fc bb
       -0.032716688 0.008342274 0.046775505 -0.0077158515
000390 9f bd 1b bc 46 39 07 bd a2 23 5f bd b3 24 c8 3c
       -0.009505658 -0.033013605 -0.05447734 0.024431562
0003a0 17 f0 c4 ba cb de 9b 3c ae 75 6b 3b c2 18 1b 3d
       -0.0015025166 0.019027134 0.0035928297 0.037865408
0003b0 f0 72 5f bc 2e 86 25 3d 67 6a c0 bc e1 04 5c 3d
       -0.013638243 0.040411167 -0.023488237 0.05371559
0003c0 d2 47 28 3d 56 a3 a1 bc f5 6c 95 bc 57 b7 92 bb
       0.04108412 -0.019731205 -0.018240431 -0.004477422
0003d0 2b dd 85 bd 6c f6 c3 bc 20 24 44 3c 76 2d 3e bd
       -0.06536325 -0.023921214 0.0119715035 -0.046430074
0003e0 38 fa dc ba 7d 8b 66 bd 56 0a de bc 61 17 36 bd
       -0.0016859239 -0.05628537 -0.027104538 -0.04445589
0003f0 55 ac 00 bd b1 01 de 3c e0 bb 36 3d c5 fd 99 3c
       -0.03141435 0.027100416 0.044612765 0.018797765

conv2.bias f4 [64]
000000 2a 1f c9 3c 36 98 2c 3c c3 c4 8c bd 13 dc 45 bd
       0.024550993 0.010534337 -0.06873467 -0.048305582
000010 f6 9d 7c bc c4 bb 94 3d 8f 4d 72 3d 65 b9 b7 3c
       -0.01541852 0.07262376 0.059155997 0.02242727
000020 58 1f 1b bd 0f b3 a6 3d 88 c8 4f bd d3 68 02 bd
       -0.03787169 0.081396215 -0.05072835 -0.03183825
000030 2c 76 77 3d a4 cd 49 bd d7 da 25 bb 54 5d 29 bb
       0.06041543 -0.04926838 -0.002530744 -0.0025842981
000040 dc 6c 93 3d a1 76 a9 3d 8f 2c bd 3c 69 1c 59 3d
       0.07198498 0.0827458 0.023092536 0.05300561
000050 f4 8d 34 3c 5b b4 c7 bc 10 5b 9a 3d 24 de 1a 3d
       0.011020172 -0.024377992 0.075369 0.037809506
000060 7e 96 d6 3c 91 56 c7 3d c2 b5 0e bc 78 3c 61 3d
       0.026194807 0.09733308 -0.008710327 0.054989308
000070 b1 d4 3b bd 19 6f c2 bc 88 89 93 3d a4 ec 8a 3d
       -0.045857135 -0.023734616 0.072039664 0.06783417
000080 a1 f8 5d 3b 15 18 84 bc bf e8 08 3c fb 22 b5 3d
       0.0033870118 -0.016124764 0.008356272 0.088445626
000090 bd 13 e7 3c 9d 6e d2 bc 06 07 19 3c 89 1e a5 3d
       0.028207654 -0.02568751 0.009340053 0.08062465
0000a0 9d 89 35 3d fb 04 4b bc 49 7e 77 bd a8 17 b6 bc
       0.04432069 -0.012391324 -0.06042317 -0.022228077
0000b0 da 2a 9a bc 17 22 7b 3d 8c 41 28 bd 18 6f b3 3d
       -0.018819261 0.061311807 -0.041078135 0.08761424
0000c0 1d ab 45 3d 3e 05 78 bd 02 7a 35 3d 61 ea 97 3d
       0.04825889 -0.060551874 0.04430581 0.07417751
0000d0 b6 83 83 3d 9a 5b 05 bd b3 d2 13 3d ea 3d 97 3d
       0.06421606 -0.03255806 0.03608961 0.07384856
0000e0 40 5a d7 bb 99 6a 0c 3d e7 34 f6 bc af 93 3d bc
       -0.006572038 0.034281347 -0.030054523 -0.011570855
0000f0 d4 6d c5 3c cb 95 d3 bc 72 bc 47 bd cf 88 af bb
       0.024100222 -0.025828263 -0.0487637 -0.005356885

conv3.weight f4 [128, 64, 3, 3]
000000 4c b4 bc 3c f3 e4 2f 3d 46 00 0d ba 84 be b3 bc
       0.023035191 0.042942952 -0.0005378764 -0.02194143
000010 d2 b5 aa bc f0 19 a5 bc ec 9f fb 3a 66 f2 0e bc
       -0.020838652 -0.02015397 0.0019197441 -0.0087247845
000020 e6 0f b7 3b 85 3e 87 3c 4f d6 36 3c d0 64 cc 3c
       0.005586612 0.016509304 0.011159494 0.024950415
000030 4a 4d 19 bd b2 82 b1 3c 70 8f 09 ba 6e 31 de bc
       -0.037427224 0.021668766 -0.0005247509 -0.02712318
000040 02 50 17 bc 66 0d ad b9 97 0a 60 3d b9 34 cd bc
       -0.009235384 -0.00033007114 0.0546976 -0.025049554
000050 f4 3d 20 bc 65 ce b5 3c c7 8a dd bb ea 51 b4 3c
       -0.009780396 0.022193143 -0.0067609283 0.022011716
000060 14 03 39 bd f2 e2 ff bc 59 3f c5 3c cb 3e 22 3c
       -0.04516895 -0.031236146 0.024078058 0.009902666
000070 36 25 25 bc 4c c2 a9 3d a8 52 9d bc af d9 69 3c
       -0.010079673 0.08289012 -0.019204453 0.014273091
000080 88 e1 c9 3d 25 5a 2f 3c 06 f5 27 3d 64 62 46 bd
       0.0985747 0.0107026445 0.041005157 -0.048433676
000090 2c d0 3d 3c 3d 59 ef bb cb 25 13 bd 76 1a cb bc
       0.011585277 -0.007304339 -0.035924714 -0.024792891
0000a0 21 16 42 bd 86 a4 15 bd 0c 8b 17 bd d5 5d 90 bc
       -0.047384385 -0.036533855 -0.03699784 -0.017622868
0000b0 af 59 9f 3c 49 ba 56 3d 4f 6b 96 bc 63 c1 f6 bc
       0.019451944 0.05242375 -0.018361716 -0.03012151
0000c0 33 56 4e 3d 6e 4d e9 3b 01 f3 3e bd a2 ac d2 3c
       0.050375175 0.007119826 -0.046618465 0.025717083
0000d0 69 bb 31 bd 7c a9 c5 ba 65 67 64 3c 7e b9 cc bc
       -0.04339162 -0.0015080418 0.013940667 -0.024990793
0000e0 bf 23 8c bc 55 5e 75 bd 8b 46 16 bd 14 9e a3 bc
       -0.017106889 -0.059904415 -0.03668837 -0.019972838
0000f0 9e 83 16 bc f4 e7 a1 bc 10 a9 f5 ba 57 4b 96 3b
       -0.009186653 -0.019763924 -0.0018742401 0.004586618
000100 c6 4f d1 bb 7f 8c f2 3c 36 89 a2 bc 15 4a be 3c
       -0.0063876836 0.02960801 -0.019840818 0.023228684
000110 9b d3 f1 bb b2 cb 97 3c 85 ac 9d bb 52 dd e4 ba
       -0.0073799617 0.018529747 -0.0048118257 -0.0017460978
000120 b8 f8 04 3c e9 64 8a 3c c0 c2 9e bc fc 33 fb 3c
       0.00811594 0.01689382 -0.019379973 0.030664437
000130 c0 79 5f 3c a7 b0 08 3a dd b9 17 3d ab d3 f3 bc
       0.013639867 0.00052143115 0.037042487 -0.029764017
000140 90 28 3f bc f5 cf a5 bc df 0d 02 bd dd ea 6d bd
       -0.011667386 -0.020240763 -0.03175151 -0.05808531
000150 ab 43 26 bd 46 8f 65 bd 82 4c 94 3c 14 cb f3 bc
       -0.040591877 -0.05604484 0.018102888 -0.029759921
000160 bf db 1b 3d d0 41 03 bc be 1c 4e 3d 50 b6 04 3d
       0.038051363 -0.008011296 0.05032038 0.03240043
000170 55 18 d2 bb 89 4b 95 3c 3e 45 ab 3c ff ea 76 bb
       -0.006411592 0.018224495 0.02090704 -0.003767669
000180 ac 04 3a 3d b5 bc c7 3c 24 3b 00 bd d9 5c 41 bd
       0.04541461 0.024381975 -0.0313064 -0.047207687
000190 68 ff 65 3d ac d7 0d 3d 4d ec 04 3d 8c 71 47 3d
       0.056151778 0.03462951 0.032451916 0.04869227
0001a0 73 8e 43 3b 1a 82 9f 3c 39 4a 57 bd ff e1 88 3d
       0.0029839545 0.019471217 -0.05256102 0.0668373
0001b0 d0 4d df bc 3a cc 27 3d 62 c3 ba bc 7b 0e 9a ba
       -0.027258784 0.04096625 -0.022798244 -0.0011753583
0001c0 1d c7 fe 3b e1 01 13 bd 7a be ee bb 1d be ec bb
       0.007775201 -0.035890464 -0.00728589 -0.0072248117
0001d0 a2 c7 a7 3d e8 db 9a bb 2d 6c 53 bc 3c 01 83 bc
       0.08192374 -0.004725922 -0.012904209 -0.0159918
0001e0 c9 d3 96 3b 4e 07 29 3c 22 20 36 3b 0e 90 e5 3c
       0.0046028835 0.010316683 0.0027790149 0.028022792
0001f0 4c 5a da 3b d6 1d 39 bc 5f e9 56 bd ca b6 b1 3c
       0.0066635963 -0.011298617 -0.052468654 0.021693606
000200 40 73 ab bb a0 8f 8c bd 5d 0c 9b bc 3f cf 51 3c
       -0.0052322447 -0.06863332 -0.018926794 0.012805759
000210 2e 71 9d 3c 36 d1 3b 3c 30 05 ea 3c 19 f2 0e 3c
       0.019219007 0.011463454 0.028566927 0.008724713
000220 4c d0 83 3c 74 b3 23 bd 8d 8c 92 3d 8d 1f 6e bd
       0.016090535 -0.03996606 0.07155714 -0.058135558
000230 c0 5b 46 bd f1 79 5a 3c 00 5c 36 bc d6 41 cd bb
       -0.048427343 0.013334737 -0.011130333 -0.006263952
000240 7d 9c 36 3c c0 19 16 bc 28 60 58 bd 11 d6 8b 3c
       0.011145708 -0.009161413 -0.052826077 0.017069848
000250 07 17 1f bc 26 f4 42 bd 99 2f 2f 3c df 9b 04 bb
       -0.00971008 -0.04759612 0.0106925005 -0.0020234508
000260 58 ab c2 3c 8c b9 a6 bb 9f 8e ef 3c d2 dd 4d 3b
       0.023763344 -0.005088037 0.029242812 0.0031412733
000270 29 83 c8 3c 5f 8c 23 3d 27 68 c6 bb 86 b0 c0 b9
       0.024476605 0.03992879 -0.0060548964 -0.00036752614
000280 fe 31 90 3b 3c 28 f3 3c 05 4c 63 3c 6a 5d 24 bd
       0.004400491 0.029682271 0.013873105 -0.04012815
000290 56 0d e9 3c a7 86 04 bd 0e 79 3a ba bf 28 33 3d
       0.028448742 -0.032354977 -0.00071133755 0.04374003
0002a0 eb 7f 68 bd f2 34 c8 3c 21 08 00 3d 93 fb 87 3b
       -0.056762617 0.024439309 0.031257752 0.004149863
0002b0 7e 4b 60 3d 13 34 bf 3d e4 99 92 bb 60 3e 0e bd
       0.054759495 0.09336104 -0.0044739116 -0.034727454
0002c0 fa 62 6d bc 45 a1 44 3d 13 1b a2 3c 27 e7 10 3c
       -0.01448893 0.04800536 0.0197883 0.0088441735
0002d0 fe 3d c4 bb da 5b 16 3d f9 69 e8 3b da 88 fc bc
       -0.0059888354 0.03670869 0.007092711 -0.030826975
0002e0 40 db d5 bc aa 39 90 bc 65 16 62 bc 28 86 bf 3c
       -0.026105523 -0.017605621 -0.013799285 0.0233794
0002f0 7f d9 7f 3d f7 81 e4 bc 67 e0 0c 3d 60 2f 15 3d
       0.06246328 -0.027894003 0.034393694 0.036422133
000300 99 6c 48 bd 5a 5c 14 3d dc a4 a6 3b 58 a6 67 bd
       -0.04893169 0.036220886 0.0050855707 -0.056555122
000310 9d c1 31 bd 49 df 2f bd ac 6f 13 3c 63 dc a0 3c
       -0.043397535 -0.04293755 0.008998793 0.019636339
000320 ef 69 bb bd 67 ac 81 bc 9b 9c 3b bd 97 9b a2 bd
       -0.091510646 -0.015829278 -0.045803647 -0.07939833
000330 a1 57 80 3c 08 2e 4b bd 8e a1 92 3d ac 6b e1 3b
       0.015666785 -0.049604446 0.0715972 0.0068792906
000340 fd 56 02 bd cf 6f 57 3d 7d b5 52 bd 18 24 cc 3c
       -0.03182124 0.052596863 -0.051442612 0.024919555
000350 e3 cb a2 bb 23 57 a7 bd 6d a4 a2 3c 91 30 a4 3d
       -0.004968153 -0.08170917 0.019853795 0.08017076
000360 e9 e3 55 3c d9 28 6c 3b 0d 2c 16 3c 2d be 18 3d
       0.013054826 0.003603509 0.009165776 0.03729074
000370 32 cb 9a bc e7 d4 af bb 9f 2e 6f bb 68 02 a6 bc
       -0.01889572 -0.005365956 -0.0036496294 -0.02026482
000380 e9 bc af bc af eb 1b bd 4f d7 38 3d 49 d5 02 3d
       -0.021452384 -0.038066562 0.04512721 0.031941686
000390 b9 15 27 3c 3e f2 6e 3c c4 6d 48 bd 4b fa aa 3b
       0.01019805 0.014584122 -0.048932806 0.0052178255
0003a0 3a 4b 27 3c c4 de 3a 3d bf d5 7c 3c 27 8a 4e bc
       0.0102108065 0.045622602 0.01543182 -0.01260618
0003b0 ac 67 0e bd 21 3d 28 3c ed c3 c3 bc 63 69 a0 bc
       -0.034766838 0.0102684805 -0.023897136 -0.019581502
0003c0 91 89 9d 3c d0 8d 62 bd ea e3 0e 3d fc 43 1b 3c
       0.019230636 -0.055311024 0.034885325 0.009476658
0003d0 45 be 2a bb 34 28 db bc 49 b1 8b bc bc bd 3c 3c
       -0.002605335 -0.026752569 -0.01705231 0.011519846
0003e0 9d 5b 69 bc 10 da 47 bc 09 51 1d bc 76 00 fb bb
       -0.014243034 -0.012197986 -0.00960184 -0.007659967
0003f0 72 1e 1a bd 0d c3 1f 3c 1c 84 a3 3c 3b 4d 1e 3d
       -0.03762669 0.009751094 0.019960456 0.03864787

conv3.bias f4 [128]
000000 51 e1 4d bc 36 0e ca bc d1 c5 ca bc 5f af 59 3d
       -0.012565927 -0.02466498 -0.02475253 0.053145763
000010 51 12 e6 bc 56 7f 4e 3b 2f ec 8f bc d4 70 3a 3d
       -0.028084906 0.0031509004 -0.017568676 0.045517758
000020 a0 e1 a5 bc 97 54 64 3c 32 8b 97 bc db 66 34 bc
       -0.020249188 0.013936183 -0.01849899 -0.011010851
000030 b4 d0 2a 3d d3 70 70 bc fe 3a 5a 3c d6 82 d2 3c
       0.04170294 -0.014675337 0.013319729 0.025697153
000040 61 03 5b 3d 39 0e 23 3d bf 13 c8 3c e3 48 19 3c
       0.05347002 0.039808486 0.024423478 0.009355756
000050 a3 25 29 3d d4 a2 da 3c c5 0a 64 3d 21 2f fc 3c
       0.04129566 0.02668897 0.055674333 0.030784192
000060 5a 95 9c bc 90 e5 9f 3c 1c fd 49 3d 96 65 7b 3b
       -0.019114185 0.019518644 0.04931365 0.003836011
000070 41 af dd 3b 52 8d 20 bd 55 da 45 bd c9 d2 89 3c
       0.0067652767 -0.039197274 -0.04830392 0.016824143
000080 ae c4 f3 bc 8f be 2d 3d 86 72 3f 3c 71 d6 13 bd
       -0.02975687 0.04241806 0.011685019 -0.03609318
000090 5b b5 6a 3d 93 ba f5 bc 5e bf 00 3c 12 9b 20 3b
       0.05730186 -0.029996192 0.0078581255 0.0024506492
0000a0 a2 ca 23 3d 0f ba 48 bc 00 89 fb 3b 3b 88 ae bc
       0.039988168 -0.012251391 0.007676244 -0.021305194
0000b0 5d b2 aa 3c 6c 6a 9a 3d fc 0c f2 3b 4c 22 22 3c
       0.020837003 0.075398296 0.0073868018 0.009895872
0000c0 41 b9 92 3c 3a 0d 8b 3b 0a 00 4a bc 9e 20 1b 3c
       0.017910602 0.00424352 -0.012329111 0.009468226
0000d0 f8 c7 2b bd 92 d4 89 3d ee 54 77 bb 4c 30 d4 3c
       -0.041938752 0.06729998 -0.003773983 0.025901936
0000e0 b0 2a 38 ba e4 fc 50 3d ce fb 6c bc 82 48 f4 3c
       -0.0007025404 0.051022425 -0.014464332 0.02981973
0000f0 d2 89 45 3d 88 2e 01 3d 0a 9b ae 3b 5d b7 bc bb
       0.04822714 0.031538516 0.0053285407 -0.0057591633
000100 92 44 b8 bc 03 ab 3d 3d af 5a 2b 3d e5 8a e7 3c
       -0.022493634 0.046305668 0.04183453 0.028264472
000110 e7 ec ca 3c 30 b7 4a 3c 56 5e cf 3a 7b 04 b3 3c
       0.024771167 0.012372777 0.0015820961 0.021852722
000120 cf c7 c4 bb 5f 6b d6 3b 05 4d fa 3c 3b 31 72 3d
       -0.0060052644 0.0065435614 0.030554304 0.05912898
000130 b9 7c 2a 3d cd a8 53 3d 3f 24 d6 3c a8 d9 dc 3c
       0.04162285 0.051674653 0.02614033 0.026959255
000140 5a af 20 bd e8 ee 06 3d d3 8e 8b 39 71 2c e3 bc
       -0.03922973 0.032942683 0.00026618558 -0.027731152
000150 0a 42 6d 3c 09 01 1e b8 a3 30 46 3d 9d 60 54 bb
       0.014481077 -3.76711e-05 0.048386227 -0.0032406219
000160 4b 91 39 3c 98 87 d2 3c 7d cc cb bc e0 85 a3 3d
       0.011326144 0.025699422 -0.024877781 0.07984519
000170 3a 08 0f bc b1 d2 c3 3c 6a 55 87 bc 4e 89 44 3a
       -0.008729989 0.023904176 -0.01652022 0.00074972666
000180 21 b6 06 3c f5 42 e2 3c 72 96 97 bc 1c 08 10 3d
       0.008222134 0.027619818 -0.018504355 0.035163984
000190 19 5c 15 3d d6 ba 48 3d 3c 4d 68 bc ac 1e 43 bc
       0.036464784 0.049006306 -0.01417857 -0.011909168
0001a0 8c 0d 42 3d 70 e1 59 3d 20 bc 0d 3c 65 2c 4f 3d
       0.0473762 0.05319351 0.0086508095 0.050579447
0001b0 91 6d 2d bd b3 e3 46 3c d5 3c af 3b da 41 06 3c
       -0.04234082 0.012139249 0.005347828 0.008194411
0001c0 e1 a7 9a bc f2 2b 87 bb a9 dc 45 3d 44 85 38 3d
       -0.018878879 -0.0041251117 0.04830614 0.045048967
0001d0 e9 2d a9 3c 98 34 fb bb 1a 7d 60 bc ba 03 b1 3c
       0.020651774 -0.007666182 -0.013701702 0.021608222
0001e0 96 c8 b5 bc 43 57 4c 3c 45 d6 2d bc 71 60 2e 3c
       -0.022190373 0.012471977 -0.010610168 0.010643111
0001f0 9d a0 8b bc 13 ac b7 bc b1 3f 97 bc 65 2a 85 3d
       -0.01704436 -0.022420919 -0.018462988 0.06502227

act_conv1.weight f4 [4, 128, 1, 1]
000000 f8 43 bb 3b f7 7e b3 2a 5f 02 99 3b 06 03 f4 bd
       0.0057148896 3.1884887e-13 0.004669472 -0.11914639
000010 87 91 31 3c 11 1c 7f b8 9d 74 4a 3d 6c d9 7c 3c
       0.010837919 -6.0822877e-05 0.049427617 0.015432697
000020 72 cd 8d 3d 10 f0 d4 bd a5 c4 37 bc f3 08 93 3c
       0.06923951 -0.10397351 -0.011216317 0.017948603
000030 55 c9 04 be 63 b4 2d 3c a2 47 f2 3c 32 59 41 bd
       -0.12967427 0.01060209 0.029575173 -0.047204204
000040 84 f7 e1 3b c3 a5 79 bd 2f 0c e5 3c 59 91 0d 3c
       0.0068959612 -0.0609491 0.027959911 0.008640611
000050 f2 8e a9 bc 7f b6 c3 3c ab 85 bf bd 31 4b c4 3b
       -0.020698044 0.023890732 -0.09351667 0.005990409
000060 14 8e 84 3c 54 6f 11 3d de 2c 5a bc d5 3d 20 bd
       0.01618103 0.03550656 -0.013316361 -0.039121468
000070 52 82 83 ba ac 23 2b bd 88 ed ba bc 70 fd 12 3d
       -0.0010033345 -0.041782066 -0.022818342 0.035886228
000080 ba d7 67 a9 ce b2 d3 ba af c5 d6 bc bf ac 4c 3d
       -5.1479417e-14 -0.001615131 -0.02621731 0.04996943
000090 39 6b 8a bd 08 33 87 bc 67 e8 a4 ba 8a a4 b9 b8
       -0.06758732 -0.016503826 -0.0012581468 -8.852135e-05
0000a0 12 8f 27 bd 2c 56 3f bc 1f c9 1b bd 00 80 60 bd
       -0.040907927 -0.01167826 -0.0380336 -0.05480957
0000b0 77 e1 f8 bb 25 ac a6 bd 18 21 05 bc 0b 76 a5 bd
       -0.007595237 -0.08138303 -0.008125566 -0.080791555
0000c0 93 61 1d bb 42 a9 00 bd 26 f6 f7 3c 01 fd d8 3c
       -0.0024014458 -0.031411417 0.03026874 0.02648783
0000d0 89 53 29 bc 8f b2 17 bd a8 74 81 bd 3f 63 6f 3d
       -0.010334858 -0.03703552 -0.063210785 0.058444258
0000e0 64 9e eb 28 ba e7 da bd fb ea 8f bd b3 78 91 bc
       2.6158932e-14 -0.106887296 -0.07027241 -0.01775775
0000f0 86 76 a1 bd 10 a2 e8 3c ac 81 04 3d 11 66 f4 ac
       -0.07883935 0.02839759 0.032350227 -6.9462287e-12
000100 3c 7e 75 3d 5b 61 49 bd 7c ce 27 3d cf 76 c8 bc
       0.05993484 -0.04916511 0.040968403 -0.024470715
000110 10 fa 53 bd 54 ba a2 bb 47 8d 1c 3d 7c b7 fe 3b
       -0.05175215 -0.0049660597 0.03822067 0.007773338
000120 f1 de 11 bd 76 3b 94 3d 7e be 4a 3d 26 c0 74 bd
       -0.035613004 0.07237904 0.049498074 -0.05975356
000130 ae 63 da bb 8f 1b a6 bb 89 2c 81 bd 75 22 c0 bc
       -0.006664715 -0.005069203 -0.063073225 -0.02345393
000140 2c 30 e1 3b a2 e9 09 3d 82 6e 31 bb a0 4f 21 2c
       0.0068721976 0.033670075 -0.0027073924 2.2923677e-12
000150 a8 df e8 bc ba 3a d7 aa 35 f2 d8 bd ba ee 94 3d
       -0.02842696 -3.8232422e-13 -0.10593072 0.07272096
000160 d7 64 2f 3d cf f6 b1 bb 2d bf 31 3c 55 d4 a8 bd
       0.042820778 -0.005431033 0.0108488025 -0.08243624
000170 fe b1 88 3c 04 a9 65 3d 7d 62 ef bc d6 db 4a 3d
       0.016686436 0.05606939 -0.029221768 0.04952606
000180 5c 20 29 bd 2b 11 49 3d b3 27 10 bd 74 bb 60 3d
       -0.041290626 0.04908864 -0.03519411 0.05486627
000190 ed 4a 05 bc 8f ff bb 3c 99 90 e8 bb b3 0a a2 bd
       -0.0081355395 0.022949008 -0.0070973155 -0.07912197
0001a0 19 86 0c bc fa 8a e1 3a 0d d3 b1 bb c2 1b b7 bd
       -0.008576893 0.0017207556 -0.0054267705 -0.08940841
0001b0 be 40 c2 3c c1 c3 7d 3d 21 b7 f5 bc ea 1d d6 ba
       0.023712512 0.061954264 -0.02999455 -0.0016335819
0001c0 79 17 d5 ab 1f 95 1d 3b f9 3d ec bc 3c 6d ca bc
       -1.5141075e-12 0.0024045182 -0.028838145 -0.02471029
0001d0 8c ba 2c bd 29 68 25 3d 5c 83 ec 3c e5 9f 4f bc
       -0.042170092 0.040382538 0.02887123 -0.012672399
0001e0 23 10 94 3d 9b 8e ee bc c8 05 a8 bc 7b 08 c3 bd
       0.0722964 -0.029120734 -0.02051057 -0.09523102
0001f0 b1 7b 8d ad 86 9b 25 3d a6 1b 59 2a 07 ac 47 bc
       -1.6084774e-11 0.04043152 1.9283064e-13 -0.012187011
000200 ae 80 b2 bb c0 e9 02 3d c3 92 6a bd 96 c3 31 3d
       -0.0054474687 0.031961203 -0.05726887 0.043399416
000210 69 e5 d1 3d a6 6d b9 bd 6b 39 7c bd 7f 12 d6 3d
       0.10248835 -0.09054117 -0.061578196 0.104527466
000220 67 f2 89 3d 3d a7 c2 bd ec a5 15 3c f8 f9 0b be
       0.06735688 -0.095045544 0.009133797 -0.13669574
000230 94 a5 c5 3c 61 82 cf 3c f3 01 ef 3d 05 03 fc 3d
       0.024126805 0.025330724 0.11670294 0.123052634
000240 c6 48 32 be 83 e3 27 bd 1b 2b 1b 3c bb 5a 62 3c
       -0.17410573 -0.040988456 0.009470726 0.013815577
000250 4b 25 47 3d 2f e6 84 bd ba 2f 13 3d 91 3e bd bc
       0.04861955 -0.064892165 0.035934187 -0.023101123
000260 bc f8 54 3d 57 ff 6f bb 60 29 88 ba 95 2f 0b 3e
       0.051995024 -0.00366207 -0.0010388307 0.1359237
000270 d2 e6 9b 3d 2d 48 f2 bd e0 cb c9 bb 0e 87 8c bd
       0.07612385 -0.11830173 -0.006158337 -0.06861697
000280 c1 6a 4f bd 32 64 95 3d b6 a0 de 3c 53 6a b5 3b
       -0.050638918 0.07294501 0.027176242 0.0055363565
000290 e5 44 10 3e 0c 43 05 3e 70 a3 70 3c 3a be 8f bc
       0.14088781 0.13013858 0.014687404 -0.017546762
0002a0 34 0a 19 3d ca 0f 9a ba e0 e9 b2 bc 39 86 ba 3d
       0.037363246 -0.0011753973 -0.021840036 0.09107632
0002b0 14 05 b6 bd cc b1 3c 3d 12 a7 25 bd f9 79 25 3b
       -0.08887687 0.046067998 -0.040442534 0.0025249703
0002c0 b0 a1 04 be f5 d8 0d bd 6c ad 33 3c 82 35 59 bb
       -0.12952304 -0.034630734 0.01096664 -0.0033143465
0002d0 2b 86 13 be f9 c3 02 3e c2 6f 06 3d 79 2b 4d bd
       -0.1440665 0.1277007 0.032821424 -0.050090287
0002e0 a1 8d 37 ae 0c 97 b8 3d ba 0c d9 3b cf ed a5 3d
       -4.1735174e-11 0.09013185 0.0066238316 0.08101999
0002f0 f9 ba d1 3d 8a 05 41 3c 5f d6 e6 bc 20 b3 ff a7
       0.1024074 0.011781106 -0.028178392 -7.0970926e-15
000300 ad e9 b6 3b b8 91 cc 3d 33 1d c6 3d 6b e2 a6 3d
       0.0055820555 0.09988731 0.09673538 0.081486546
000310 5f f5 9d 3d f5 73 f3 bc d3 f0 38 bd e9 2b d3 3d
       0.077128164 -0.029718379 -0.045151543 0.103111096
000320 c3 01 fa 3d 89 ad b8 3d 4e 65 b0 3d b5 db f2 bd
       0.12207367 0.09017474 0.08613072 -0.11858312
000330 24 f6 36 ba 19 d7 a9 3c eb 86 e0 3d ab d1 18 3e
       -0.0006979427 0.02073245 0.109632336 0.14923732
000340 db 6c 5d bd f8 f0 8c 3b 33 da d1 bc bb f7 3b bc
       -0.05405889 0.0043011867 -0.02561674 -0.011472638
000350 ec c2 af 3d 7c 20 20 ab 55 5d d9 3d e7 c7 a8 bd
       0.085821 -5.68885e-13 0.10613505 -0.08241253
000360 ec cf b5 3d 3e c5 09 3c 43 c1 01 3c 1c 58 8a 3d
       0.088775486 0.008408843 0.007919612 0.06755087
000370 4b 0e 23 bd 23 76 a1 bd 4b 50 80 3d 32 d4 a2 3d
       -0.039808553 -0.07883861 0.06265315 0.07950629
000380 85 5c d0 3d c1 1c 99 3c e3 f4 40 bd 20 ed 00 3d
       0.10173897 0.018690469 -0.047108542 0.03147614
000390 61 b9 fa 3d f0 ce 7f 3d 11 6d e1 bd bc b2 16 3e
       0.122423895 0.06245321 -0.11007131 0.14716619
0003a0 88 09 c2 3d 85 e2 b2 bc cf f2 4e bc f5 d3 38 3e
       0.09474474 -0.021836529 -0.012631132 0.18049605
0003b0 43 dc ad bd a5 73 9e bb 3f 23 d3 3d 1a d4 e8 bc
       -0.08489277 -0.0048355632 0.10309457 -0.02842145
0003c0 77 fc 59 b9 22 f4 60 3d 78 b6 44 3e b1 17 14 be
       -0.00020788783 0.054920323 0.19210231 -0.14462163
0003d0 f6 60 26 3d e9 63 b1 bd ed 2f 4c 37 f1 95 ad 3d
       0.040619813 -0.086616345 1.2170506e-05 0.08475865
0003e0 e1 de 22 bd 87 8c 3a 3d 5b 2e f9 3d a1 9e 35 3d
       -0.039763335 0.045544174 0.12167045 0.044340733
0003f0 82 6f 3f 39 94 ab c9 3c 4a d9 66 39 c9 d1 86 3d
       0.0001825672 0.024617948 0.00022015456 0.06582982

act_conv1.bias f4 [4]
000000 56 7d 9a bc 3b b0 83 3d 0b 06 9f 3d 14 31 90 bd
       -0.018858593 0.06430098 0.077648245 -0.07040611

act_fc1.weight f4 [36, 144]
000000 09 88 07 bd 7e 54 50 bd 1b 56 98 bd ab 07 c8 bc
       -0.033088718 -0.050861828 -0.07438298 -0.024417719
000010 bd d2 12 bd 55 94 8a bd c5 47 00 bd 48 79 7e bd
       -0.035845507 -0.06766573 -0.031318445 -0.06212738
000020 3c f1 7a bd bc a2 d0 bd 3c 67 0d bd 82 b1 d8 bd
       -0.061265215 -0.10187289 -0.03452228 -0.10580732
000030 e8 a1 ea bd 0d 23 a8 bd ab e0 bb bd bc 69 41 bd
       -0.114566624 -0.082098104 -0.091737114 -0.047219977
000040 06 89 37 bd c9 5e 69 bc 3f c8 0a bd d9 9a 22 bd
       -0.04480841 -0.01424379 -0.033882376 -0.039698455
000050 73 b3 b9 bc 8f 1a 05 bd 4a 5b 0d 3c 6f c7 b1 bc
       -0.022668576 -0.03249603 0.008627722 -0.021701543
000060 a8 c2 38 3b 4f 1c bc bc 40 b2 9e bd ac 6f c2 bc
       0.0028192196 -0.022962717 -0.07748842 -0.02373489
000070 ca 5a aa 3c 74 ce 21 3c 12 a4 85 bc 16 bd 12 bd
       0.020795245 0.009875882 -0.016313586 -0.035824858
000080 0a 19 11 bc df 93 94 bc 0f bb e6 bc 5c f5 43 bd
       -0.008856067 -0.018136917 -0.028165368 -0.047841415
000090 ee f0 22 3d d4 cc 8a 3d f4 e7 28 bc ff 0d 2a 3d
       0.03978055 0.06777349 -0.010309208 0.041517254
0000a0 ff 3b c1 3d 52 df 21 3d 27 54 09 bd ce fa b9 bc
       0.094352715 0.039519615 -0.03352752 -0.0227026
0000b0 7b 5a 88 bd f2 bd b2 3d 39 f3 e8 bb 58 18 75 3b
       -0.06657883 0.087276354 -0.0071090725 0.0037398543
0000c0 ad 49 2d 3c 2d 0c 2a 3d 5a 9b 6b bd a2 50 db bc
       0.010576648 0.041515518 -0.0575212 -0.026771847
0000d0 8f 69 c5 bd 34 f5 20 3c 2d cb ab bc f5 9f eb bd
       -0.09639274 0.009824086 -0.020970905 -0.11505119
0000e0 c1 95 ac 3c 8c 86 55 3d b5 6b a7 bb 77 7e 3c 3c
       0.021067502 0.052130267 -0.005109275 0.011504761
0000f0 aa ad 86 bd 9c f9 52 3d 4f 58 12 bd 61 2c 2f bd
       -0.065760925 0.051507577 -0.03572875 -0.042766932
000100 28 93 f4 bc d9 db f6 bc c1 8a 92 3b f9 df 53 bd
       -0.029855326 -0.030134128 0.004472107 -0.05172727
000110 86 79 ae 3c e9 c8 f9 bc 5a 85 40 be 7c 56 cb 3b
       0.021298181 -0.03049131 -0.1880087 0.006205378
000120 54 54 46 bd e9 58 2a bd 2f b0 ac bd c4 87 94 bd
       -0.048420265 -0.041588698 -0.08432042 -0.07252458
000130 b1 68 7e 3d d2 e9 57 bc cf 6c 81 bd a9 53 0d be
       0.06211156 -0.013178306 -0.06319582 -0.13801445
000140 59 ca d3 bd ec a4 17 bd dd d0 09 bd cb 55 8a bc
       -0.10341329 -0.037022516 -0.033646453 -0.016886612
000150 85 38 10 be 6b 73 b7 bd 83 dc 21 bd 94 88 cc bd
       -0.1408406 -0.08957561 -0.039516937 -0.09986988
000160 71 95 83 bd 28 d3 c3 bd 5f 37 7e 3c bf ba e3 bd
       -0.06424988 -0.09561759 0.015516131 -0.11119603
000170 97 c4 9f bd 23 ac 33 bd b6 ca 59 bd 7e 8f 8e bd
       -0.078011684 -0.043865334 -0.053171836 -0.06960963
000180 df 33 c8 bd 25 2a 8c bc a0 9b b9 bc 2f d0 14 be
       -0.097755186 -0.01710994 -0.022657216 -0.1453254
000190 85 3f 1c bd 83 47 91 3c 17 28 e9 bb 95 28 3a bb
       -0.038146514 0.017734295 -0.007115375 -0.0028405536
0001a0 08 e2 c5 bd 36 7c 91 bd 7b e1 d0 bd ed d8 1a bc
       -0.09662253 -0.071037695 -0.10199257 -0.009451133
0001b0 c8 e3 21 bd 27 c6 3f bd d1 30 d8 bc 4f ff ac bd
       -0.03952387 -0.046819832 -0.026390465 -0.08447134
0001c0 16 d5 d2 bd a1 2f 8f 3c ae 25 ff 3c 18 9f 0e bc
       -0.10294549 0.017478766 0.031145897 -0.008704923
0001d0 f5 38 8b 3c 1b 23 84 bd df 61 2e bd f2 11 c5 3c
       0.016994933 -0.06452008 -0.042573806 0.024056409
0001e0 fe 79 b4 bc 3c 14 15 bd d1 e4 c2 bb 1e f8 44 3d
       -0.022030827 -0.03639625 -0.005947687 0.048088185
0001f0 73 bc bd bc f4 e1 8a bd 44 2c 33 bb 43 9e 39 3d
       -0.023161149 -0.067813784 -0.0027339617 0.045316946
000200 72 fd fc ba 11 b7 7a bc 58 c2 83 3c 41 c9 57 3d
       -0.0019301607 -0.0153024355 0.016083881 0.052682165
000210 ab 20 ca 3c 83 9f a0 3c 29 9f fa 3c bc 02 06 bd
       0.02467378 0.019607311 0.030593472 -0.03271745
000220 55 20 8b bd 42 3e 5f b8 a7 11 89 3d 91 1e 9d 3c
       -0.06793276 -5.3225325e-05 0.0669282 0.019179614
000230 a6 5c ec bc df 91 00 3d eb 3c 31 3a 47 d4 eb bc
       -0.028852772 0.031389114 0.00067610916 -0.028787745
000240 5c 76 f1 bc b7 0f 8f bc 67 f0 b0 3c 4c eb 11 bd
       -0.029475383 -0.017463548 0.021599008 -0.035624787
000250 56 70 e6 bc dd 79 d6 bc 4d 8e bf bc bb 49 cd bc
       -0.028129738 -0.026181156 -0.023383284 -0.025059571
000260 82 4b 63 bc e0 33 81 bc 44 2e bb bc ba 88 f8 bc
       -0.013872983 -0.015771806 -0.02284921 -0.030338634
000270 59 27 51 bc f6 c8 15 bc 7e 84 93 bd 7e 31 c6 bc
       -0.012765729 -0.009142151 -0.07203005 -0.024193522
000280 42 bb 76 3c f0 8d f1 3a 0c c8 39 bd ba 53 97 bc
       0.015059294 0.0018429141 -0.045356795 -0.018472541
000290 c2 ee a8 3c a1 b9 a6 bb 0c 79 74 bd 3e 47 74 bd
       0.020621661 -0.0050880467 -0.05968575 -0.059638254
0002a0 b2 45 7f 3c 9a 79 27 bd 5e 44 74 3c ae dd 6f 3c
       0.0155805815 -0.040887453 0.014908878 0.014640255
0002b0 6b de fc bb de 69 4e bd 54 ee 2c bc 2a 7d 95 3c
       -0.007716944 -0.05039393 -0.010554869 0.01824816
0002c0 ac f6 ab 3c fc 95 c4 bc 22 35 21 3b 58 92 15 bd
       0.020991646 -0.0239973 0.002459832 -0.036516517
0002d0 8a ba eb be b0 4b 45 bd e7 46 45 be 0e 87 17 3e
       -0.46040756 -0.048167884 -0.19265328 0.14797613
0002e0 8e 10 ee 3d 8c 36 7b 3e 62 6f a4 bd 16 47 20 3e
       0.11624251 0.24532527 -0.08029057 0.15652117
0002f0 d5 6d 41 be 70 56 e3 bd c4 9d 02 be a3 c6 f7 3c
       -0.18889554 -0.11100471 -0.12755495 0.030246085
000300 e9 7e cb bd 90 ef 5c bd fb 66 8e bd 6f 6a fd bd
       -0.099363156 -0.053939402 -0.06953236 -0.12373816
000310 ed 17 4b bd 8a 26 a8 bd bf e5 4a bd 41 b5 fc 3c
       -0.049583364 -0.08210476 -0.04953551 0.030848147
000320 ef 13 5c bd 42 ba c3 bd 5a a6 98 bd 0b 1e 3b bd
       -0.053729948 -0.0955701 -0.07453604 -0.045682948
000330 d2 81 2c bd b8 99 37 be 39 67 45 bd 79 d9 22 bc
       -0.042115994 -0.17929733 -0.048194144 -0.009939545
000340 bf a8 b8 bc 1d e3 f5 bd c9 ce 9b bb 3d 1a af bc
       -0.022541402 -0.12006209 -0.0047548753 -0.021374816
000350 48 65 31 be 82 74 a7 bc 5f 5b cb bd ce a7 f8 bc
       -0.17323792 -0.020441297 -0.09929537 -0.030353453
000360 46 92 33 3e 9a ab 68 3e 2e 69 a9 3d 1b 50 a8 3d
       0.17536268 0.22721711 0.082720146 0.08218404
000370 db 29 f8 3d 09 31 44 3e 55 e8 1f bd e9 91 bd bc
       0.12117358 0.1915933 -0.03903993 -0.023140864
000380 2c 58 87 3d a2 5e 01 3e 02 4c 90 3d ef 3a c9 3c
       0.06608614 0.12633756 0.07045747 0.024564235
000390 56 e7 74 3d 60 b8 38 3d b7 c5 ec bb 3e cd ca 3c
       0.05979093 0.04509771 -0.007225718 0.02475607
0003a0 14 6e fd 3b 4c 56 d1 bc 4f 19 4c 3d 30 15 88 3d
       0.0077340696 -0.025553845 0.049828824 0.06644666
0003b0 bd 38 c3 bc a4 99 d0 bc e9 a1 dc 3c 7f 3c 08 bd
       -0.023830766 -0.025463887 0.026932674 -0.03326082
0003c0 95 7f aa 3d 7d 5b 6a 3d 4f 18 7e 3c 15 a8 8c 3d
       0.083251156 0.057216156 0.015508725 0.068679966
0003d0 9c e1 40 3c a0 28 cd bc ff b8 68 3d cc 82 38 bc
       0.0117725395 -0.025043786 0.05681705 -0.011261653
0003e0 4e d7 62 bd ed 70 8f bc de 1e 8d 3d ff 42 6e bd
       -0.05538111 -0.017509902 0.06890653 -0.05816936
0003f0 88 47 c1 3b 57 44 3c bd c5 fe cb bc 60 64 6f bd
       0.00589842 -0.04596361 -0.024901757 -0.058445334

act_fc1.bias f4 [36]
000000 64 14 28 bd 18 af a6 3c be 54 02 bd 36 27 6d bd
       -0.04103507 0.020347163 -0.031819098 -0.057898723
000010 8f 9f 54 bc 37 92 a0 bd 49 8e de bd a9 bd ee bb
       -0.012977495 -0.07840388 -0.108669825 -0.007285793
000020 4f a5 30 3d 82 18 9e bc 84 0f 9c bc 0a 65 23 3d
       0.0431264 -0.019298796 -0.019050367 0.03989128
000030 95 c5 b1 3d ca 60 08 3d 92 80 39 3c c2 dd ba bb
       0.08680264 0.03329543 0.011322157 -0.005702705
000040 7a bc 95 3c 51 d8 35 3d b3 5f d9 3c 91 92 b4 3c
       0.01827835 0.04439575 0.02653489 0.022042545
000050 c6 c2 0a bd fe 29 35 3d 9f a8 19 3c 0a f6 9c 3d
       -0.033877157 0.0442295 0.009378581 0.07664116
000060 6f 24 f2 bc a2 e6 09 bd 3c 34 05 3e 7f 82 59 bd
       -0.029558389 -0.033667214 0.13008207 -0.053102966
000070 e2 60 37 3d 21 7c 72 bc 46 d9 dd bd 89 ec 88 3c
       0.04477013 -0.014800102 -0.10832457 0.016714351
000080 10 4e 98 3b f5 4e 43 bc 05 f3 28 bc 7b 9f 71 3d
       0.0046479777 -0.01192068 -0.010311847 0.058989983
