models/Training/AC_nmcts20/train_049.pth (torch, 424031 bytes, 15 tensors)

conv1.weight f4 [32, 5, 3, 3]
00000000: e09f 6c3d 4568 28be 0e2c b2bc b20b 273e
00000010: 7622 66be f4f5 163c 1e9b e03d 1e52 19be
00000020: eff0 0c3d 0697 863c 0737 23bc c1a9 203e
00000030: 9918 623d 93ea 18be 7a95 063e 7d90 2cbb
00000040: e25b 33b9 80af de3d 1181 8eb1 f6df 55ad
00000050: 544c 31ae 536b 0131 6c82 aa2f 572d d831
00000060: cf3c c533 ad0b e8ae b341 d32c b08b fd3d
00000070: 0b0b 003d 4fa9 3fbd 3138 06be 2b68 07be
00000080: bae0 933c 09e9 5a3d 3e8f 06be 7d05 c63d
00000090: 56da 812e 256c dfb0 28e8 22ae ebf3 60af
000000a0: cf2a dbb4 8efd b5ae 6e5a c02d 8812 172f
000000b0: 6dfc ff32 42f1 b7bc e50b 383e 3027 d53d
000000c0: 0c49 153d 0870 fa3c f6d0 d8bc 512d ab3d
000000d0: 3d84 e33d 17dc 1e3e 7de8 5e3d 158d 46be
000000e0: c59d 56bc 0660 27bc f486 243d d493 3b3d
000000f0: 31a6 a1bd 0344 5abd 93e0 f63d 28ae b131
00000100: ddaf f330 dccc 15ae 54a0 3eb8 6f2b 37ad
00000110: 76c4 5d2e 0887 33b8 006a 8a2e b620 0d31
00000120: d607 f6bd 2636 0c3e 09c2 9abd d622 c7bc
00000130: a398 0fbe 556e a5bd 99d4 f3bd 6bfd e73d
00000140: 0f89 b13c cc3b 512f 363c 223a 7032 70ad
00000150: 24ee 22af 30b1 b4b1 fd27 2ab9 22ff a031
00000160: aaec da37 5335 e12f 40aa 4fbd 6b39 4f3d
00000170: dc2c 0d3e 30ad 413d 5088 ee3c b70a 313e
00000180: 8e7c 95bd 0d2b 06be 6bdf 333c 9187 26bd
00000190: 8ab9 15bd bbd2 c4bd 0c59 c8bc ba3a 0dbd
000001a0: 8edc c03d c484 2b3e d779 05bc 664c 9d3d
000001b0: 2885 3534 df5b c032 5f25 7dae 3277 0bae
000001c0: 2067 e936 4ea9 0cba c36a 0eb0 77b4 03b0
000001d0: 4ebe 282f d252 b13d 37ab 3fbc 7336 eebd
000001e0: 1057 8fbd 264c 1cbd ad25 c03d 1927 903d
000001f0: e028 21bc 9cb1 213d e1f5 87b2 3791 7a38
00000200: 2086 a02f 2758 06ba cf72 482b 59e1 d5b9
00000210: a4e5 3eb7 1673 f62d 6075 44af d8ca 473d
00000220: d846 09be d705 95bd a2d1 403d c23a 2c3d
00000230: ac04 f5bc 615c 053e 5ab9 573e afb5 1c3e
00000240: 4a2b 833d 68c8 3eba e236 b5bd 1cb4 34bd
00000250: 3c25 35be 9d1f 11be d749 b33d 0972 283d
00000260: 1aa3 1fbe 80ad 4034 e8cb f4ab e280 aa31
00000270: 41f3 d2ad 356d ccb1 68f2 fab1 89d0 10b0
00000280: da77 48b0 31a4 79b7 1d6b 263d 2b80 d03d
00000290: 160a 963d db94 40be 0262 e53d ad70 da3b
000002a0: dc28 523d d204 983d dece 07bc a5d7 d939
000002b0: 51fb a532 29dc 8c32 2c4c a32d 3a26 bc32
000002c0: a0d5 fb2f 8da9 41af ebcd 7c39 4f05 9d2d
000002d0: b4c5 193e 5423 4ebd 567c 003e 2e99 503d
000002e0: 5d97 11bc 1482 283d 66c0 da3c 4b46 ed3c
000002f0: ec42 28be a218 f03d 877e 03be 44cc ce3d
00000300: be65 7f3d 03f9 613d 70b4 fa3d 8e53 cc3d
00000310: 9613 493d f173 f7bd c6ba 79b0 eefb 312f
00000320: 1c55 22b4 a0ed 25ba 1818 4434 ed0e 972e
00000330: 9091 5ab6 02dc bdb2 4979 fdac 84ea 0d3e
00000340: 394e d6bc 873e 0e3e fc24 ee39 3699 1e3d
00000350: 170c 2f3e 2ee4 e63d b7fa 363d 20e0 adbc
00000360: f675 092f fa00 1130 a729 802e 2f87 42b4
00000370: 3ca6 0a2e b94a d82d 3a50 44b0 f2a9 47b2
00000380: 9ff7 023a 3e2e be3d 56a7 173e 3a1f 103e
00000390: c451 2a3e c042 90bd 04c2 f1bc d91a fd3d
000003a0: e866 323e fb1c aebd f699 ba3d 684b e13d
000003b0: ac6d 263d b4ba 8d3c c91b 04be ae35 5ebd
000003c0: 362e 7d3d c7ed acbd 9122 67bb f875 c0b8
000003d0: 565a 02b1 518e aa37 99f8 a32d e54e 41b8
000003e0: 7a72 94b2 0630 02b1 103d d633 5627 db31
000003f0: d42b 9e3c cfa0 9a3d d605 f93c ae19 813d
0.057769656 -0.16446026 -0.021749523 0.16313055 -0.22474083 0.009213913 0.10967086 -0.14972731
0.03440946 0.016429435 -0.00996185 0.15689756 0.05519924 -0.14933233 0.13142958 -0.002633124
-0.00017105 0.10873318 -4.147417e-09 -1.21573775e-11 -4.0312934e-11 1.8832977e-09 3.101549e-10 6.291582e-09
9.1845884e-08 -1.05522126e-10 6.0042748e-12 0.12380159 0.03126053 -0.046792325 -0.13107373 -0.1322333
0.018051494 0.053444896 -0.1314058 0.096690156 5.905025e-11 -1.6256122e-09 -3.704073e-11 -2.0459338e-10
-4.0823076e-07 -8.2759674e-11 2.1868032e-11 1.3739954e-10 2.9800697e-08 -0.022453908 0.17973287 0.10407865
0.036446616 0.030570999 -0.026466828 0.08358253 0.11109207 0.15513645 0.054420937 -0.19389756
-0.013099139 -0.010215765 0.040167764 0.045795277 -0.078930266 -0.053287517 0.12054553 5.1711773e-09
1.773056e-09 -3.406063e-11 -4.5448847e-05 -1.041199e-11 5.0424075e-11 -4.2802683e-05 6.294343e-11 2.0536794e-09
-0.12013213 0.13692531 -0.075565405 -0.024308603 -0.1402307 -0.08077685 -0.11905784 0.113276325
0.0216718 1.9029683e-10 0.00061887817 -1.365362e-11 -1.4818419e-10 -5.2588334e-09 -0.0001622736 4.685618e-09
2.609783e-05 4.096515e-10 -0.050699472 0.050591867 0.13786644 0.047284305 0.029117733 0.17289244
-0.072991475 -0.1310236 0.01097856 -0.04065663 -0.036553897 -0.09610506 -0.024456523 -0.034479834
0.094170675 0.16749865 -0.008146725 0.076805875 1.690538e-07 2.239352e-08 -5.7558732e-11 -3.1710808e-11
6.9559464e-06 -0.00053658045 -5.1811017e-10 -4.791398e-10 1.5347121e-10 0.08658375 -0.011698536 -0.11631479
-0.06999028 -0.03815856 0.09382186 0.07038707 -0.0098364055 0.039476022 -1.5827881e-08 5.9739887e-05
2.9199132e-10 -0.000512483 7.12136e-13 -0.00040794423 -1.137835e-05 2.801807e-11 -1.7867796e-10 0.04877743
-0.13405931 -0.072765045 0.04707492 0.042048223 -0.029909454 0.13023521 0.210668 0.15303682
0.06404741 -0.00072777877 -0.08848359 -0.04411708 -0.17689985 -0.14172216 0.08754318 0.041124377
-0.15589562 1.7944512e-07 -1.7393838e-12 4.9623035e-09 -2.3982262e-11 -5.949597e-09 -7.303516e-09 -5.268324e-10
-7.2929895e-10 -1.4879785e-05 0.040629495 0.10180696 0.073261425 -0.18806784 0.11200334 0.006666264
0.051308498 0.074227944 -0.008289067 0.00041550133 1.9322814e-08 1.6398262e-08 1.8564782e-11 2.1903464e-08
4.5808424e-10 -1.7613484e-10 0.00024109303 1.7851191e-11 0.15016824 -0.05032666 0.1254743 0.050927334
-0.0088861855 0.041139677 0.02670307 0.028964182 -0.16431779 0.11723448 -0.12841235 0.10097554
0.06235289 0.055169117 0.12241447 0.09976874 0.049090944 -0.12082661 -9.0851093e-10 1.618756e-10
-1.5118388e-07 -0.00063296594 1.8262688e-07 6.8693363e-11 -3.256926e-06 -2.2102544e-08 -7.204158e-12 0.13858992
-0.026160346 0.1389104 0.00045422453 0.038720332 0.17094456 0.112739906 0.044672694 -0.021225035
1.2501986e-10 5.275208e-10 5.828165e-11 -1.8116837e-07 3.1525213e-11 2.458954e-11 -7.1418393e-10 -1.1621966e-08
0.0004996005 0.09286164 0.14809927 0.14074412 0.16632754 -0.070439816 -0.02951146 0.123586364
0.17422068 -0.08501621 0.09111397 0.11000711 0.040631935 0.017300941 -0.12901224 -0.05425041
0.06181165 -0.0844379 -0.0035268406 -9.177247e-05 -1.896884e-09 2.033185e-05 1.8641354e-11 -4.6088262e-05
-1.7281526e-08 -1.8944788e-09 9.976259e-08 6.378211e-09 0.019308008 0.07550203 0.03039829 0.06303726

conv1.bias f4 [32]
00000000: 1626 fe3d 9e1a 953c 32db f3bc e2a1 c63d
00000010: 2e0b 93bd 9760 13be 76fa 9cbc c734 c83d
00000020: 4e97 903d 1b5f f1bd 9c60 3c3e e8d3 4ebd
00000030: 80c8 283e 603d 163e 080d c4bd ff75 28bd
00000040: b9b5 0abd c11b 90bd 4593 00bd 0c5d 2a3e
00000050: fa4f 56bd aa63 8a3d 7615 3739 f216 96bd
00000060: eb95 a0bd 4b7d a23d 418a f6bd 3d62 253e
00000070: 59c1 043e 7596 8ebd 3359 d2bd 50fb db3d
0.12409608 0.018201169 -0.029767606 0.096988454 -0.07179867 -0.14392315 -0.019162398 0.097756915
0.07060109 -0.11785718 0.18396229 -0.05049506 0.16482735 0.1467185 -0.09572798 -0.041128155
-0.03386471 -0.07036544 -0.031390447 0.16637057 -0.052322365 0.06757291 0.00017460235 -0.07328595
-0.078410946 0.07934054 -0.120380886 0.16150756 0.12964381 -0.06962291 -0.1027092 0.107412934

conv2.weight f4 [64, 32, 3, 3]
00000000: df1b d6bc e5e4 003d 5d8e abbb b53c 0a3d
00000010: a325 5ebd 6a14 61bd 9f5f 58bd fd29 5d3c
00000020: 3ca2 aabc e559 43bd afc3 28bd 50e5 1bbd
00000030: db27 e03c 102d 023d 7733 1a3d 4a67 c83c
00000040: b2b6 9a3c 2a22 8b3d 973e 6fbd 59d0 3fbd
00000050: 4115 23bd 2636 543c fd36 393d b025 8abb
00000060: a39c 463b 6372 0f3c fe7f 62bd 023b a5bd
00000070: 2952 59bc cf9d f63c 3c74 49bb cf53 35bb
00000080: a340 e939 80d6 fe3c f44c a63c 9b48 473d
00000090: 42bd 53bb 50d6 0a3d 96ee 4abd bd41 a13c
000000a0: 9fd6 4f3d 3eba f3bc c144 19bb eed9 a838
000000b0: 56cd 04bd f5f7 5dbd 7c35 93bc bc04 9bbb
000000c0: 1b6e 56bd 9083 08bd d6bb b8ba 8751 04bd
000000d0: 5719 6e3d 12a2 d03c 0c05 71bc 3e2c 44bd
000000e0: 256a 95bd 8558 9dbb b826 cb3c 2475 02bc
000000f0: 4a20 bf3c ff73 cebc 3f05 11bd 6cdf 9c3c
00000100: bc6c e1bc 35d3 ee3c b130 2abd 6be3 b33d
00000110: 3b48 123d 1a02 423d b762 05bc a77f 54bb
00000120: b91c b4bd 20f8 82bc e4f1 ea3b 3e0e 8bbd
00000130: 1ed3 6c3d 39b3 98bd baec 17bd c282 083d
00000140: 078c 293d 7b4a 9ebb ceda 82bd dff8 dbbc
00000150: 59bf e23c 67c7 90bd 1a9c 2abd b1bf 1e3d
00000160: d9b4 333d 7262 7dbc 9b64 78bd e13f c73c
00000170: d314 80bd a8be 74bd d888 79bd 2573 b0bd
00000180: db6b 3ebd 49ce c6bc 1b8f d2bc 7bc2 a63b
00000190: c2b5 413d 1d6b d1bc 5e56 8ebd 2649 613c
000001a0: 146a 2d3d 1087 cfbc 0ab2 dc3c 65b9 62bd
000001b0: c16e c2bd 3327 0ebd 72c1 a0bd 3216 733b
000001c0: 9687 813d f741 bdbd 460a 41bd e412 51bd
000001d0: 8a73 90ba 63e0 98bd 060d 6bbd cfd2 153d
000001e0: a291 94bd a85f 043d 55a7 91bc e0be 3cbd
000001f0: e8fe d63b e3dc 58bc 3f34 e4bc a151 083c
00000200: f08a 6bbd 6c47 8cbd 4d43 01bd 4ff1 ee3b
00000210: 6e47 a5bd 8508 8fbc 5103 e23b 1113 3ebd
00000220: 6f70 14bd 20e0 13bd 781f 40bd 2835 68bc
00000230: d715 1dbd de07 c8bc ae28 55bd c877 79bd
00000240: 8dc4 473d 196e 2cbd f03e 90bd 8c37 39bd
00000250: 40b8 71bd 05f9 f3bc 9715 49bc a34d 413c
00000260: 507b b2bc 04cd 4bbd 051c c13c b897 8d3a
00000270: 60cc 8cbd 48fc b0bb d1b4 853d 1cb7 9139
00000280: ca6f 383d 182b 78bd ab76 0fbd 0e65 193c
00000290: cec4 543d 7132 4abc 84b1 63bd 234c fe3b
000002a0: bcbb 4d3d 86a7 e7bc a9dd 493c 8229 d93c
000002b0: e3c7 98bd c471 50bd dfde 7fbc bb8a 3a3d
000002c0: 1ef0 e2bc c1d2 e9bb a7af 2dbd 3ea8 c2bd
000002d0: bc88 87bd 0a39 e53c 1975 ceb9 c27f cabc
000002e0: 9e8f 6b3d baf5 1e3c 6849 cfb9 63b9 b1ba
000002f0: 2486 dbbc f0b1 98bb 49d2 533c 7166 44bd
00000300: 8ee0 91bc d211 8d3d b034 a5bc 3072 8abc
00000310: 06a4 92bd 5acf 9cbd 8496 2c3d 08d7 39bc
00000320: c53b 60bc 706c 6abd 788a 09bd 869a 4bbc
00000330: d3c0 96bd 4481 f33b ed48 64bd c66d 233d
00000340: 8474 00bd 1e8f 7bbd 38fd b23c 7d3b 9c3b
00000350: 6ed8 5fbd 475b 5d3c 7604 763d 4df3 a93d
00000360: c482 923c 5339 17bc ffd4 943c ef0a 3dbd
00000370: af0f a33c cf16 33bd f153 143c 0985 d0bc
00000380: b93f 06bd e5c3 fd3b d08c 423d 5207 eaba
00000390: 34ec 23bc ca00 13bd 7576 60bd bad0 d23c
000003a0: 3e16 ffb9 2686 b33c d144 663b 4c29 243d
000003b0: 4aeb 68bc 33cb 233d 1f39 babc f10b 573d
000003c0: ebcb 273d e57c a1bc 9092 64bc 9ecc 65bb
000003d0: 3e66 82bd 1881 c1bc f111 343c 5b4d 40bd
000003e0: 5643 a2bb 8d63 66bd 5c59 01bd 5c48 3dbd
000003f0: 3611 0fbd 1258 ef3c ae51 4c3d 68cb 8b3c
-0.026136337 0.03146829 -0.005235477 0.0337493 -0.054235112 -0.05495111 -0.052825566 0.01349878
-0.020829313 -0.047693152 -0.041202243 -0.038060486 0.027362755 0.031781256 0.037646737 0.024463315
0.018885944 0.06793626 -0.0584093 -0.046829555 -0.03981519 0.012952363 0.045218457 -0.0042159185
0.0030305765 0.008755299 -0.055297844 -0.080678955 -0.013264217 0.030104546 -0.0030739447 -0.0027668362
0.0004448938 0.031108141 0.020300366 0.048653226 -0.0032308851 0.03389579 -0.04954394 0.019684667
0.050741788 -0.029751893 -0.0023386928 8.051457e-05 -0.032422386 -0.05419155 -0.01796984 -0.004730789
-0.0523511 -0.033328593 -0.0014094065 -0.032304313 0.058129635 0.025467906 -0.014710676 -0.047893755
-0.07295636 -0.004801812 0.024798736 -0.007962499 0.023330826 -0.025201796 -0.035405394 0.019149505
-0.027517669 0.029153446 -0.041550342 0.08783611 0.035713416 0.047365285 -0.008141211 -0.003242472
-0.08794541 -0.015987456 0.007169949 -0.06789826 0.057818525 -0.07456059 -0.037090994 0.033327825
0.041393306 -0.004830656 -0.0638939 -0.02685207 0.027679132 -0.07069283 -0.041652776 0.03875703
0.04387364 -0.015465366 -0.06064282 0.024322452 -0.06253972 -0.059752136 -0.06092152 -0.08615712
-0.046489578 -0.024268286 -0.025703004 0.005089102 0.04729248 -0.02556377 -0.06950067 0.01375035
0.042337492 -0.025332958 0.026940364 -0.055352587 -0.09493781 -0.034705352 -0.07849397 0.0037092087
0.06324689 -0.092410974 -0.04712894 -0.051043406 -0.0011020761 -0.07464673 -0.057385467 0.036577996
-0.0725434 0.032317787 -0.017779985 -0.04608047 0.006561149 -0.013236257 -0.027856944 0.008320243
-0.057505548 -0.0684956 -0.031558324 0.00729195 -0.08070265 -0.017460117 0.006897368 -0.046404902
-0.036240038 -0.036102414 -0.04690501 -0.01417283 -0.038350906 -0.024417814 -0.05204075 -0.060905248
0.04877143 -0.042097185 -0.070432544 -0.04521899 -0.059013605 -0.029781828 -0.012273214 0.011798295
-0.021787316 -0.049756065 0.023572931 0.0010802662 -0.06874919 -0.005401168 0.065286286 0.00027792982
0.045028485 -0.060587972 -0.03502528 0.009362472 0.0519455 -0.012341128 -0.055589214 0.007760541
0.050227866 -0.028278124 0.012320914 0.02650905 -0.0746 -0.050889745 -0.015617101 0.04554246
-0.027702387 -0.0071357195 -0.042403843 -0.09504746 -0.06617877 0.0279813 -0.00039378626 -0.024719123
0.05751001 0.00970214 -0.0003953681 -0.0013559278 -0.026797362 -0.0046598837 0.012928554 -0.04794926
-0.017807271 0.068881646 -0.020166725 -0.016900152 -0.07160191 -0.07656737 0.04213573 -0.011342771
-0.013686125 -0.05723232 -0.03357932 -0.012426978 -0.07360997 0.007431181 -0.05573361 0.03989961
-0.031361118 -0.061415784 0.02184926 0.0047678337 -0.054649763 0.013510532 0.060062848 0.08298359
0.01788462 -0.009229976 0.01816797 -0.046153005 0.01990494 -0.043722924 0.009053216 -0.025454061
-0.032775614 0.0077442997 0.04749757 -0.0017854965 -0.010005046 -0.035889424 -0.05480047 0.025734294
-0.00048653962 0.021914553 0.0035136233 0.040078446 -0.0142162535 0.039988708 -0.022732316 0.052501623
0.040965956 -0.019712875 -0.013950959 -0.0035064588 -0.063671574 -0.023621127 0.010990606 -0.046948772
-0.0049518747 -0.056247283 -0.03157936 -0.046211585 -0.034928523 0.0292168 0.049882583 0.017064765

conv2.bias f4 [64]
00000000: 4746 c73c 8cd6 323c 4f7b 90bd 2938 5cbd
00000010: b6c1 4cbc cfd2 8e3d 1536 653d 0357 b53c
00000020: b616 b5bc 0e3a a83d fe0a 88bc 1a91 03bd
00000030: 71eb 4d3d 3120 2bbd cdb8 2b3b 4da9 5a3c
00000040: edef 8a3d e663 a83d 008d 103d 82f1 3e3d
00000050: a5e0 543c 146f e7bc 69d0 8a3d 650c 5a3d
00000060: 0bc3 d93c 976a c63d d104 c2ba ac5d 513d
00000070: 87a2 53bd 300f d9bc 1524 953d 105f 813d
00000080: 44a6 2b3b eb92 ab3c 3973 f63b 2850 b23d
00000090: b1c6 e53c 64ff 0cbd fb80 473b c954 a03d
000000a0: 0922 273d ba76 efbc f605 5fbd 0b9e 00bd
000000b0: 9936 24bc 0068 653d beb7 16bd fa06 a43d
000000c0: 3d32 683d a192 42bd fe6c 393d 8ea1 8c3d
000000d0: bf9b a83d 6782 4e3a 3601 0a3d 636a 9a3d
000000e0: 15fd 82bc 4a14 403d b4e0 06bd e243 0ebc
000000f0: 22ab ac3c 263e a4bc 0b05 0fbd b8a3 ed3b
0.024325503 0.01091541 -0.07054769 -0.053764496 -0.012497356 0.06973802 0.05595978 0.022136217
-0.022105556 0.08214198 -0.016606804 -0.0321208 0.050273363 -0.041778747 0.002620268 0.0133460285
0.067840435 0.08222179 0.035290718 0.04661704 0.012993013 -0.028251208 0.06778032 0.053234477
0.026582262 0.09688299 -0.0014802461 0.051114723 -0.05166867 -0.0264965 0.07282273 0.0631696
0.0026191631 0.02094408 0.00752106 0.08706695 0.028048845 -0.034423247 0.0030441869 0.078286715
0.040803943 -0.029231418 -0.054449044 -0.03140072 -0.010022783 0.056007385 -0.036796324 0.08009143
0.056688536 -0.047503117 0.04526996 0.068667516 0.08232831 0.0007877708 0.03369256 0.07539823
-0.01598982 0.04689435 -0.032929137 -0.008683177 0.021077696 -0.020049166 -0.03491692 0.007252183

conv3.weight f4 [128, 64, 3, 3]
00000000: c38a c53c 18f0 323d d6d4 faba 78a3 b7bc
00000010: 6efa b2bc 5498 aebc 0fbc ec3a 5f25 1abc
00000020: f93f c23b 2826 973c b796 c83b 7aa1 d03c
00000030: e2b1 20bd cd91 a73c f73a 66bc 7136 4bbc
00000040: ac1a 1ebc eaee a1bb e729 6e3d fd5d dabc
00000050: 0ca5 1ebc 797f bd3c 50f9 dabb a039 c73c
00000060: 803d 45bd 66a5 08bd 98f3 d43c 2010 e63b
00000070: 61f0 4fbc f908 a33d 6e22 a2bc 2e40 6f3c
00000080: 770e d33d 49b3 0e3c 1aa5 3d3d 4527 55bd
00000090: 5159 143c 47ce 31bc 7de4 37bd 198f e1bc
000000a0: 62ab 57bd 20bd 2ebd 50c7 3cbd 2b8c b0bc
000000b0: fd43 7f3c 5034 283d e2ee 1ebc 3de1 cfbc
000000c0: 62e1 4d3d 07c9 b33b 1ff3 55bd 0a52 ae3c
000000d0: dbe3 61bd e91a 63bb 3dec aa3c bc2c fbbc
000000e0: fb80 b8bb 6b93 43bd 1156 3bbd bc3e c0bc
000000f0: 729a 333a a925 d6bc cbe0 b9bb 4366 aa3b
00000100: 451c e9bb 0c26 073d c466 b4bc f840 d03c
00000110: 7fb2 08bc 1e48 aa3c e754 b1bb 260f faba
00000120: 0f42 b73b c928 313c 6d5d 09bd 44c2 f53c
00000130: 713f 713c 8fca ffba a3de 0c3d a0bd 16bd
00000140: b1eb c3bc 65b6 a2bc f7c7 12bd 7de6 75bd
00000150: ae7b 31bd 9d14 70bd 4262 b33c a3c7 ecbc
00000160: 2f4f 0e3d 32d0 31bc 14a3 003d 90d7 9d3c
00000170: d5a1 61bc 3f38 813b 45db 6d3c aa06 75bc
00000180: 3a4d 043d ac49 913c 730e 2fbd c293 4cbd
00000190: 8af5 2f3d 0f50 ea3c 40fa 183d 16c1 4c3d
000001a0: 11d3 14bc 9cc8 eb3c 0a6c 5fbd 1f66 8e3d
000001b0: 4fae e3bc 8c9e 203d 0d26 cebc c390 493b
000001c0: 5762 913b b3a8 22bd 8a1b 0bbb 6340 d0bb
000001d0: e858 af3d 329f c8bb b1d2 8abc f43f bcbc
000001e0: 2e5b e63b d283 843c e9a4 7e3b 91e4 163d
000001f0: 1910 5a3c cd9d 98bc a62c 56bd 33bf 813c
00000200: 81be 7ebc bdb1 8dbd 3f54 e0bc bc35 023a
00000210: 0612 df3c db6e 4d3c de9a cd3c f5ca 02bc
00000220: c38e 31bc 7d5e 5cbd 91ae 1a3d 5a57 a3bd
00000230: 7712 6fbd dd60 22bb 2043 b8bc d2de 10bd
00000240: 032e db3b adb1 19bd a868 80bd 135c b63b
00000250: caa4 c6bc 9891 73bd 00f1 3d3c 06bb 22bc
00000260: b79a b43c d339 81bb 8d75 e33c 4077 7e3b
00000270: 7b73 e23c 0cf4 113d ac09 37bc 80db 0f3c
00000280: c774 823b e933 f13c 3f3d ac3c 9aa3 68bd
00000290: 027d f33c 91ab bdbc 1775 56bc e7f7 0c3d
000002a0: 58a6 46bd e4bf 3f3c db21 c43c 3ab6 f8bb
000002b0: 9d60 463d 4435 973d c4b8 64bb 37c0 25bd
000002c0: 3f5b 0dbd 51c1 543d 61a4 963c c3ac 37bc
000002d0: d836 8cbb fee9 e83c b9e5 813b 75aa f1bc
000002e0: 37ac f5bc 7fb6 9bbc 4582 42bc cf35 663c
000002f0: 6865 713d 350e e3bc 715b 023d 71c9 073d
00000300: 907d 39bd 70c1 083d 2125 073a 366b 59bd
00000310: 1aba 44bd b549 5ebd d4e7 403c 7a56 a83c
00000320: 29ad c3bd befb 08bc e492 5cbd d1dd a9bd
00000330: 33d0 953c 9a56 56bd b39e 903d b661 72bc
00000340: bb71 11bd aee7 373d 1b40 52bd a0ff cf3c
00000350: 69e4 9fbc 725c 9dbd 5d41 b83c 0e73 8e3d
00000360: d18f 693c 76d9 823b 1147 2e3c 9b48 2c3d
00000370: 2b45 acbc 37fb b2bb 5055 8abb ace8 b9bc
00000380: 3392 c4bc 4969 1ebd 9006 1d3d f87e f83c
00000390: f92a 623c 311b 143c 8549 60bd 74b9 923c
000003a0: 02fd 313c ec90 563d 66df e53b d362 92bc
000003b0: d275 1cbd d099 f1bb 3c8f 1fbd c6f1 b7bc
000003c0: 16f7 02bc c5d8 97bd aad7 083d 849b 2e3c
000003d0: f742 75bb 9e7e f5bc 729f 9abc fe18 3f3c
000003e0: eb0f 7fbc 0b39 5ebc 5398 39bc 9812 10bc
000003f0: a305 25bd dd5b 583b cd9f 7b3c dd74 2a3d
0.024114018 0.043686002 -0.0019136916 -0.022416815 -0.02184793 -0.02131287 0.0018061417 -0.009408324
0.0059280363 0.018450812 0.0061214822 0.025467623 -0.039232142 0.020455265 -0.014052144 -0.012403117
-0.009649914 -0.004941811 0.05814543 -0.026656145 -0.009682905 0.023132073 -0.0066825524 0.02431947
-0.048154354 -0.03336086 0.02599506 0.007020965 -0.012691588 0.07960696 -0.019791808 0.014602704
0.10305493 0.008709737 0.04630003 -0.052039403 0.009054498 -0.010852403 -0.044895638 -0.027534055
-0.052653678 -0.042660832 -0.046088517 -0.021551212 0.0155801745 0.041065514 -0.009700509 -0.025375957
0.05026377 0.005486611 -0.05223381 0.021279354 -0.05514894 -0.003465349 0.0208646 -0.03066098
-0.00563061 -0.04774801 -0.045736376 -0.023467414 0.0006851322 -0.026141005 -0.0056725494 0.005200179
-0.0071139657 0.03299527 -0.022021659 0.025421605 -0.008343338 0.020786341 -0.0054117325 -0.0019078001
0.0055925916 0.010812947 -0.033536363 0.02999986 0.014724598 -0.0019515323 0.03439201 -0.036801934
-0.023916097 -0.019862363 -0.035835233 -0.060034264 -0.04333084 -0.05861341 0.021897439 -0.028903788
0.034743484 -0.01085286 0.031405523 0.019267827 -0.013771494 0.0039434726 0.01451761 -0.014955202
0.03230021 0.017735325 -0.04273839 -0.0499456 0.042958774 0.028602628 0.037348032 0.04998883
-0.009083525 0.028782181 -0.054546393 0.06953072 -0.027793078 0.039213702 -0.025164628 0.003075645
0.004436772 -0.039711665 -0.0021226131 -0.0063553317 0.085618794 -0.006122493 -0.016946169 -0.022979714
0.0070299124 0.016176138 0.0038855618 0.03683907 0.013309502 -0.018629933 -0.052288674 0.015838241
-0.015548349 -0.069186665 -0.027383922 0.00049671135 0.027230274 0.012538637 0.02509826 -0.007982959
-0.01083726 -0.05380105 0.037764136 -0.07975645 -0.05836722 -0.0024776973 -0.022492945 -0.035368748
0.0066888346 -0.03752296 -0.062699616 0.0055651753 -0.0242485 -0.05946502 0.011593103 -0.009932285
0.02204643 -0.0039436608 0.027766014 0.0038828403 0.027642956 0.03563313 -0.01117174 0.00878036
0.003981206 0.029443698 0.021025298 -0.056796648 0.029722694 -0.023153098 -0.01308944 0.034416106
-0.04849848 0.011703465 0.023941925 -0.0075900825 0.04843198 0.073832065 -0.0034900168 -0.040466513
-0.034510847 0.051942173 0.018388929 -0.011210623 -0.004278999 0.028431889 0.0039641527 -0.029500226
-0.029989345 -0.01900792 -0.011871879 0.014050915 0.0589346 -0.027716735 0.031825487 0.033151094
-0.04528576 0.0333876 0.0005155374 -0.05308076 -0.048029043 -0.05426951 0.011774022 0.020549048
-0.09554512 -0.008360801 -0.053851023 -0.08294261 0.018287754 -0.052328683 0.070615195 -0.014793804
-0.035508852 0.04489868 -0.051330667 0.025390446 -0.019518094 -0.07683648 0.022492105 0.06955539
0.01425548 0.0039932085 0.010637061 0.04206143 -0.021029076 -0.005462076 -0.004221596 -0.022693954
-0.023995494 -0.038674626 0.038336337 0.03033398 0.013804191 0.009039686 -0.054757614 0.017910697
0.010863544 0.052384302 0.0070151566 -0.017869389 -0.0381983 -0.007373072 -0.03895496 -0.022454154
-0.00799348 -0.074143924 0.0334088 0.010657195 -0.0037423947 -0.029967602 -0.018874858 0.011663673
-0.01556776 -0.013563405 -0.011327821 -0.008793496 -0.04028858 0.003301374 0.015357924 0.041615356

conv3.bias f4 [128]
00000000: 2f31 87bc 374f efbc 21b8 a3bc c003 c53d
00000010: 8031 b6bc f72b d23b 1673 85bc abc3 1d3d
00000020: 9a7d a6bc a9fb 493c 4d32 9abc 59de 8cbc
00000030: 50d0 3f3d 8f68 71bc b1e6 983c 1898 063d
00000040: d13e 533d db0f 263d d23e c23c 8b57 1a3c
00000050: 71f8 0a3d 662e db3c 7767 603d b863 fb3c
00000060: f111 9ebc 7136 aa3c ce91 553d f1c4 ffbb
00000070: dd53 bf3c 2140 4bbd 698e 4abd 1e26 d13c
00000080: 00ef 05bd e800 0c3d 69ea 113c 59f6 e4bc
00000090: 6b3b 433d 52fa dcbc b2aa 1d3c 3c90 153b
000000a0: 7272 093d b2c9 45bc 46bb 5d3c 8adf 1abc
000000b0: 8b8e a83c 2843 9a3d 1432 b83b cd14 183c
000000c0: 1752 a33c 0720 3d3b 28ef acbc ad24 453c
000000d0: 22ac 05bd 3d94 753d 99f1 e2bb 3ad4 df3c
000000e0: 71bc 1fbb 0846 893d 2eb4 7fbc aac5 f73c
000000f0: 5eb2 1f3d a89a 013d 58fd 413c e4cb 0fbc
00000100: 3a04 b3bc 53f1 333d 2330 343d 58ea df3c
00000110: 5db7 a33c 0eb7 4f3c a44a 2e3c 3ce2 b73c
00000120: 5bba 2cbc 2824 8a3c 8e72 e03c 5c9c 553d
00000130: 11ae 1c3d 3ae0 4c3d 90ba 8b3c 1e11 cf3c
00000140: eb3b 0fbd 43df 243d 7799 003c 59bd fcbc
00000150: a513 2d3c c041 cbb9 e3f9 303d 0ede fabb
00000160: 5b1c 1c3c a43c 883c 0fd2 cabc 0517 a63d
00000170: c622 c1bb df0c c53c 5a3a aebc 8882 3d3b
00000180: 646b a83b 862a c43c f220 b5bc d7e4 293d
00000190: 815c 153d 5640 2b3d a1cc 82bc 6ed1 efbc
000001a0: 3738 283d b8b1 763d a795 efba 3cfe 2f3d
000001b0: 2a07 2bbd 0dc4 483c 4b35 bd3c 5a97 cc3c
000001c0: 4ef8 d3bc 92b4 d8bb 779f 4a3d 528a 4d3d
000001d0: 975b 1b3c 243f febb 8d16 6cbc 4b43 143d
000001e0: c81e 5fbc dc7e 3f3c bd55 8ebc 415a d83b
000001f0: a078 acbc 1568 dfbc fcfd abbc 4473 8d3d
-0.016502945 -0.029212577 -0.01998526 0.09619856 -0.0222404 0.0064139324 -0.016290229 0.03851668
-0.020323563 0.012328067 -0.018822813 -0.017195867 0.04682952 -0.014734401 0.01866469 0.03285989
0.05157358 0.040542465 0.023711596 0.009420286 0.03392834 0.026755523 0.05478617 0.030687198
-0.019295665 0.020777913 0.052141003 -0.0078054597 0.023355419 -0.049621705 -0.04945222 0.025530871
-0.03269863 0.03418055 0.008905985 -0.027949499 0.047664087 -0.02697483 0.009623216 0.0022821566
0.03355641 -0.012072014 0.013533419 -0.00945271 0.020575782 0.0753234 0.005621204 0.009282303
0.019936604 0.00288582 -0.021110132 0.01203267 -0.03263486 0.059955824 -0.0069257733 0.027322877
-0.0024373794 0.067028105 -0.015606923 0.03024562 0.038988464 0.031641632 0.011840187 -0.008776639
-0.021852601 0.043931317 0.04399122 0.027333423 0.019984895 0.012677921 0.010637913 0.022446744
-0.0105424775 0.016862944 0.027398374 0.05215107 0.03825194 0.050018527 0.017056733 0.025276717
-0.03496925 0.04025198 0.007849089 -0.030852007 0.010563766 -0.00038768165 0.04320706 -0.0076558655
0.009528245 0.016630478 -0.024758367 0.081098594 -0.005894038 0.024053989 -0.021268059 0.0028916914
0.005139755 0.023946058 -0.022110436 0.041478004 0.03646517 0.041809402 -0.015966715 -0.029274669
0.041069236 0.06022808 -0.0018278853 0.042967066 -0.04175488 0.012253773 0.023096701 0.024974514
-0.025875237 -0.0066133225 0.049468484 0.05018074 0.009482286 -0.007758992 -0.014409673 0.036196988
-0.013618179 0.0116879605 -0.017374868 0.006602556 -0.021053612 -0.02727131 -0.020995133 0.06906751

act_conv1.weight f4 [4, 128, 1, 1]
00000000: 369c bb3b 3d51 a6ad 07e6 aa3b befb f4bd
00000010: 171a 323c ca2a 44b6 669e 4b3d a2f0 7e3c
00000020: 4e64 8e3d 3757 d6bd 79fd 87bc 6097 933c
00000030: 3750 05be b0db 2f3c 8d0d f33c 24b7 41bd
00000040: 42e4 e43b f534 7abd 6940 e63c f104 0e3c
00000050: 38d4 a9bc dc73 c43c 283a c1bd 0ec3 c83b
00000060: bfce 853c 4dde 123d 6268 5abc c69f 20bd
00000070: f55e 81ba fd9f 2dbd de89 bcbc 4363 133d
00000080: 88cd 4f2e 1c0f d8ba 834b d8bc bc0e 4d3d
00000090: 149b 8bbd b021 a5bc 3782 a5ba 294f bab8
000000a0: 18db 27bd 3752 9bbc b040 1cbd c926 64bd
000000b0: e411 f8bb cca5 a7bd 938d 05bc 700c a8bd
000000c0: ee94 19bb 2286 01bd 96a3 fe3c 62c8 d93c
000000d0: 26e2 28bc ba7c 18bd df50 83bd 4563 703d
000000e0: d3f7 e4ad e797 dbbd 7a98 93bd 07ca 98bc
000000f0: 1106 a2bd 5ceb ea3c 2746 053d 6991 aeb0
00000100: 2e15 763d 4867 4bbd 5028 283d babe c8bc
00000110: 9f0e 55bd bf34 a6bb 30db 1c3d c9d3 ff3b
00000120: 646f 12bd 828e 943d 32fc 4b3d 53ed 75bd
00000130: 1373 dabb 223c a5bb aba1 81bd 87f2 c0bc
00000140: 242d e23b 9180 0a3d 9396 2ebb 3477 d7af
00000150: e9fa e9bc c195 8faf 1a6d dabd 673e 953d
00000160: 8f79 303d 6618 b1bb c25e 323c a728 aabd
00000170: 2320 893c 4f4a 673d a7da f4bc 44a9 523d
00000180: 6b87 29bd 3458 493d 9119 14bd b04a 613d
00000190: 37f9 04bc ed47 bc3c a7d4 e8bb cce3 a3bd
000001a0: 148d 0cbc 1778 e33a 379c b0bb 8856 b8bd
000001b0: e13a c33c 8b48 7f3d 3a9f f6bc b97d ceba
000001c0: d9fe fe2f 664f 1e3b e358 f1bc d256 cabc
000001d0: 6528 2ebd 6e79 263d dbe8 0a3d 089e 50bc
000001e0: a666 943d 1adb eebc 3bdf a8bc 242a c5bd
000001f0: 3854 b0af 2009 263d 0c0b a22d 643a 49bc
00000200: c8a9 a4bb b025 2d3d 8882 5abd e0ad 213d
00000210: dc7f b43d 22a5 bebd 94aa 68bd 2d99 a63d
00000220: e2c5 8a3d fa31 a8bd d52d 163c 6b47 09be
00000230: d581 c83c b758 d43c dd8a de3d 1241 003e
00000240: cfb3 21be c77b 2cbd 4362 0e3c 2342 643c
00000250: eee4 233d a76a 88bd f66e d93c 76e0 ccbc
00000260: cd26 5b3d 1da4 ae3a e9ee feb9 6df8 053e
00000270: d85a 9b3d bc88 e4bd a4b0 ccbb efde 8cbd
00000280: 3274 79bd 0baa 4c3d e4a8 b03c 88f0 b63b
00000290: 1b2a f83d 0ecf ef3d 8099 833c 319d 5bbc
000002a0: 0e29 073d c05c bbba 57b0 42bd dbef 9a3d
000002b0: 3346 bcbd af41 2c3d d22c 2ebd f16a 1a3b
000002c0: 0dfb 02be 8411 aebc 226a de3c 4143 733c
000002d0: af08 21be c0cc f73d 31e9 003d dcb9 53bd
000002e0: 6ca9 82b2 e51c b83d 579b ae3b d5b1 a63d
000002f0: 39fe ba3d d89d 463c da16 d9bc e5cc 1caf
00000300: bad1 c23b dd4f b33d 2ef1 bb3d 73d6 a03d
00000310: 14a0 913d 1f18 1cbd 0754 66bd f95e cc3d
00000320: 06ea e53d bec5 af3d 4bca a23d 6a9d ccbd
00000330: 71e7 02bc 45ed 9b3c 8b4a c53d faea 0a3e
00000340: 081e 58bd e0ca 1c3c de07 c7bc ef54 8bbc
00000350: 70ae 9a3d d67e a0b0 d4e7 cc3d 8ef1 88bd
00000360: f3cb b43d 7d75 a43a 7160 4c3c fd62 8d3d
00000370: f883 2fbd f259 a4bd 9e47 653d 6068 9d3d
00000380: fc53 c53d f093 953c ff72 70bd fa0b fe3c
00000390: d2ea f13d ea15 813d ecbe f4bd eeb6 0a3e
000003a0: b921 b73d 14e6 6cbc a62e b8bc cc11 2f3e
000003b0: 94e9 d5bd e348 a6bb 327b d63d 538b ddbc
000003c0: 0dba 77ba 238e 563d 8142 413e 63e9 09be
000003d0: d4db 6a3c 54ea b6bd 8f90 a938 f0bb ad3d
000003e0: 39d5 22bd e4c2 2f3d 6daa de3d 5a3a d63c
000003f0: 4f77 d13a bd4f ef3c 6f11 b63a b7f4 713d
0.005725409 -1.8908092e-11 0.0052154097 -0.119620785 0.010870478 -2.9231182e-06 0.049711607 0.015560301
0.06952725 -0.10465854 -0.016600357 0.018016517 -0.13018881 0.01073353 0.029669547 -0.047293797
0.0069852183 -0.06108566 0.028106885 0.00866817 -0.020731077 0.023981027 -0.094349205 0.006126768
0.016333936 0.035856534 -0.013330551 -0.03921487 -0.0009870218 -0.042388905 -0.023014959 0.035983335
4.72489e-11 -0.0016483995 -0.026403194 0.05006288 -0.06816688 -0.020157665 -0.0012627308 -8.883916e-05
-0.04098043 -0.018960102 -0.03814763 -0.05570105 -0.007570492 -0.0818592 -0.00815143 -0.08205497
-0.0023434716 -0.03162206 0.031083863 0.026584808 -0.010307824 -0.037228324 -0.06411909 0.05868842
-2.6030655e-11 -0.107223324 -0.07206817 -0.018651022 -0.07911313 0.028676681 0.032537606 -1.2701494e-09
0.060078792 -0.049659044 0.04105407 -0.024505008 -0.052015897 -0.005072206 0.03829497 0.007807229
-0.03575076 0.07253744 0.04980106 -0.060040783 -0.00666655 -0.005042569 -0.06329664 -0.023553146
0.006902354 0.033814017 -0.0026640042 -3.919297e-10 -0.028562026 -2.6117955e-10 -0.10665341 0.07287293
0.043084677 -0.00540452 0.01088685 -0.08308535 0.016738957 0.05646735 -0.029889418 0.051430956
-0.04138891 0.049156383 -0.036157195 0.05500287 -0.008116058 0.022983516 -0.0071054283 -0.08002433
-0.0085785575 0.0017354515 -0.005389716 -0.090008795 0.023831787 0.06232504 -0.030105222 -0.0015754021
4.638341e-10 0.0024156212 -0.02946133 -0.024699602 -0.042518992 0.040643148 0.033913475 -0.01273299
0.07246141 -0.02915721 -0.020614257 -0.09627178 -3.2074055e-10 0.040536046 1.8422174e-11 -0.012281988
-0.0050251223 0.04227227 -0.05334714 0.03947246 0.0881345 -0.0930884 -0.0568033 0.08134685
0.067760244 -0.08212657 0.009166201 -0.1340615 0.024475971 0.025921209 0.1086633 0.12524822
-0.15791248 -0.04211023 0.00869042 0.013931784 0.040013246 -0.06660967 0.026542168 -0.025009375
0.0535038 0.0013324056 -0.00048624657 0.13083048 0.075856864 -0.111588925 -0.006246643 -0.06878459
-0.060901828 0.049966853 0.021564908 0.005582873 0.12117406 0.117094144 0.016064405 -0.013404177
0.032998137 -0.001429461 -0.047531452 0.0756528 -0.09193077 0.04205483 -0.042523213 0.0023562277
-0.12791081 -0.021248586 0.027150217 0.014847578 -0.15725969 0.120996 0.03147239 -0.05169092
-1.5211036e-08 0.08989886 0.0053285765 0.081393875 0.091305204 0.012122594 -0.026500154 -1.426091e-10
0.0059454115 0.08755467 0.09176861 0.07853403 0.071106106 -0.03810894 -0.05623248 0.09979052
0.11226277 0.08582638 0.079487406 -0.09990962 -0.00798975 0.019034037 0.096333586 0.13566199
-0.052763015 0.009569854 -0.024295744 -0.017008273 0.075528026 -1.1677581e-09 0.10005155 -0.06686698
0.08827963 0.0012547221 0.012474165 0.06903646 -0.042850465 -0.08024968 0.055976503 0.076859236
0.096351594 0.018259019 -0.05870342 0.03101157 0.118123665 0.06303008 -0.11950478 0.13546345
0.08941979 -0.014459152 -0.022483181 0.17096633 -0.10444942 -0.0050746067 0.104727164 -0.027043974
-0.0009450026 0.052381646 0.18873025 -0.13467936 0.014334638 -0.08931413 8.085474e-05 0.08483112
-0.039754126 0.04291047 0.1087235 0.026150871 0.0015980991 0.029212827 0.0013890694 0.05907127

act_conv1.bias f4 [4]
00000000: 4e7c 9abc 5ddb 743d 91d2 9f3d 9004 8bbd
-0.018858101 0.059779514 0.07803834 -0.067879796

act_fc1.weight f4 [36, 144]
00000000: 8bfb 11bd b714 60bd cabc a5bd 4f18 e8bc
00000010: 9574 19bd 6141 8fbd 1be4 04bd 0d54 89bd
00000020: 2d74 81bd d151 d8bd ce1f 13bd bd29 e3bd
00000030: fc1b f2bd ddce abbd 5a6a c1bd 264c 4bbd
00000040: 840e 3fbd 05a9 70bc 0a71 0fbd 1547 2abd
00000050: 8138 bdbc 7cb3 07bd 7a07 113c 2443 b7bc
00000060: 01bd 3f3b 16cd c2bc aebb a4bd a120 ccbc
00000070: dc08 ae3c a822 263c bddb 8abc 6c01 1abd
00000080: e6aa 28bc 9e1e a6bc 90fd ffbc f60b 58bd
00000090: 8f1c 783d 754f 903d 1229 fc3b 438b 5c3d
000000a0: f577 883d 2127 033d 3f65 48bc 12c6 55bd
000000b0: 88d5 eabc 46bf 923d a3d3 353d 00d7 75bb
000000c0: f08f 323d 574a 843c ae1d a0bc bb50 58bd
000000d0: b356 84bd 3db6 183d 3a00 a0bb 2e3f ebbd
000000e0: 6cce 093d 6490 603d 9663 62bc 4043 903c
000000f0: 7e9f 96bd 0e16 683d 5827 ddbb 2ae7 6cbd
00000100: 585c 973a 0e30 00bd 02c2 a63c a273 a9bd
00000110: 346d 523d 7e42 5abd f345 12be e8ab 353c
00000120: da65 ecbb 28a8 4cbd ac08 2bbd 30ee e1bc
00000130: 6936 803d 587e b23b b334 15bd 51f3 dabd
00000140: 1e69 b8bd 2454 8ebd 876e 8a3c 9b71 cf3c
00000150: a921 e2bd 0dd2 89bd 32cb beba 072b b2bd
00000160: f5e2 c2bc 9975 a3bd d5ef 4d3d d886 dbbd
00000170: 6ca4 a9bd 0dd8 26bd 418f 27bd 7c16 ebbc
00000180: 0edc 8abd bd1d 223b 284b fb37 2cd8 0abe
00000190: a202 fb3b ccbd 023d b9d3 593c 2dd9 9dbb
000001a0: 2359 82bd a5a5 ccbd 329e 8abd e69c a439
000001b0: 8ce8 48bd 0d87 4ebd 2923 dfbc 0e29 afbd
000001c0: b6c1 e0bd f01e 923c 4586 033d 6569 d6bb
000001d0: 8921 943c bf68 87bd 77d0 30bd 4b59 1e3d
000001e0: 7e46 c0bc ef82 17bd cec1 bbbb 5c95 523d
000001f0: e05a cabc 8c19 89bd cb62 7dbb 4c22 4d3d
00000200: 2de1 05bb 0eb3 75bc 768f 8c3c 683e 593d
00000210: a89f d73c da92 a23c 6094 fb3c 6d22 debc
00000220: d8ce 96bd 46ab 40b8 685b 8a3d 7ef6 a43c
00000230: ffc6 11bd 3d75 023d 9648 4f3a 1f5e 21bc
00000240: 8610 f5bc e5a5 90bc 300c b33c 82f7 14bd
00000250: 4094 e8bc 7b06 d8bc 3024 c1bc 47d7 d0bc
00000260: 5d25 65bc 9cf2 81bc a36b bcbc fcdc fbbc
00000270: 2c9a 52bc 3a8e 16bc f77f 94bd ead9 c8bc
00000280: a456 783c 79c8 f23a 08fe 3abd 8c60 99bc
00000290: 92eb a93c a09c a7bb 7456 76bd 000f 78bd
000002a0: 3baa 803c 8a97 28bd 3d21 763c e097 733c
000002b0: 88ff ffbb 8838 50bd fbd3 2ebc aa9e 983c
000002c0: 55c6 b13c 5b0d cabc 42ec 253b 47fb 1cbd
000002d0: d2e1 d3be 4515 7cbc c5c9 34be e01d 1d3e
000002e0: 71cc db3d 9339 7d3e 3e69 60bd 9b33 223e
000002f0: a5ed 3dbe f541 aabd 76d1 f2bd 78a6 853c
00000300: 055f a9bd 7ce8 44bd 5070 17bd db9b 00be
00000310: 98fb 43bd e9ce ccbd 989f a6bc 6cb2 9f3c
00000320: 2425 0abd 4d85 a9bd 16b2 87bd c0b5 3dbd
00000330: fe9c 31bd 8833 2abe f83a 17bd 7be1 5a3b
00000340: 111e 12bc 0d24 dfbd 8026 b136 c36b fcbb
00000350: 5621 32be d06a 0e3c 4603 c2bd 383d 58bc
00000360: 0896 233e 4eb9 5c3e 9be3 763d eaac 7b3d
00000370: 6a79 d63d 177b 303e 9c1d 49bd dec8 22bd
00000380: a0b4 743d 8177 f73d de81 733d 7301 9cb9
00000390: d222 7e3d e238 2c3d 5dc9 bcbb 7166 9f3c
000003a0: 57eb 5d3b f05b 13bd 9ab6 583d eb72 7d3d
000003b0: a77d c1bc b40d 00bd a934 d23c 95a7 2bbd
000003c0: e186 9a3d 38aa 6f3d a3b4 943c 7e6a 8f3d
000003d0: 8486 cb3b 25ff 04bd 828b 5a3d 5cf6 66bc
000003e0: 36c9 85bd 6dbf 4abc d69a 7e3d dc8c 83bd
000003f0: 5e91 cc3b 3f3b 42bd b9c2 d2bc 058d 76bd
-0.03564028 -0.054707255 -0.08092649 -0.028331904 -0.037464697 -0.06994892 -0.0324441 -0.067054845
-0.06320987 -0.1056248 -0.035919003 -0.11091945 -0.11821744 -0.083890654 -0.09444113 -0.049633168
-0.046644703 -0.014688735 -0.03501991 -0.041571695 -0.023098232 -0.033130154 0.00885188 -0.022370882
0.0029256942 -0.023779433 -0.080436096 -0.024917902 0.021244459 0.010140099 -0.016950483 -0.037599012
-0.010294652 -0.020278271 -0.031248838 -0.05274578 0.06057411 0.07046405 0.0076953257 0.053843748
0.06663505 0.032019738 -0.01223117 -0.052190848 -0.028666273 0.07165389 0.044391286 -0.0037512183
0.0435943 0.01614873 -0.019545402 -0.052811366 -0.06461849 0.03728317 -0.0048828395 -0.1148666
0.033644125 0.0548252 -0.013817688 0.017610192 -0.073546395 0.056661658 -0.006749075 -0.057837643
0.0011547906 -0.03129583 0.020356182 -0.08274008 0.051373675 -0.05328607 -0.14284496 0.011088349
-0.00721429 -0.049965054 -0.041756317 -0.027579397 0.06260378 0.0054471903 -0.03642721 -0.1069094
-0.090044245 -0.06949642 0.016898407 0.025322726 -0.110415764 -0.06729517 -0.0014556407 -0.08699613
-0.023789862 -0.07981414 0.05027755 -0.10719079 -0.08283314 -0.040733386 -0.040908102 -0.028697245
-0.06780253 0.0024736964 2.9956529e-05 -0.13559026 0.007660226 0.031919286 0.0132951075 -0.004817149
-0.06364658 -0.09992532 -0.067684546 0.00031397416 -0.0490499 -0.050421763 -0.027238445 -0.085527524
-0.109744474 0.017837018 0.03211047 -0.0065433257 0.018082397 -0.066117756 -0.043167558 0.038659375
-0.023471113 -0.036990102 -0.0057298904 0.05141197 -0.024701536 -0.06694326 -0.0038663622 0.050081536
-0.0020428405 -0.014996303 0.017158251 0.05303803 0.026321247 0.019845415 0.0307104 -0.027116025
-0.07363671 -4.5935878e-05 0.067557156 0.020137068 -0.035590168 0.03185009 0.00079072395 -0.0098491
-0.029915106 -0.01765723 0.021856397 -0.036368854 -0.028391004 -0.026370278 -0.023576826 -0.025493277
-0.013985959 -0.015862755 -0.023000544 -0.030745022 -0.01285414 -0.009189183 -0.0725097 -0.024517972
0.0151573755 0.001852288 -0.04565242 -0.018722795 0.020742211 -0.0051151067 -0.060141042 -0.06056118
0.015706172 -0.041160144 0.015022573 0.014867753 -0.007812444 -0.050835162 -0.010670657 0.018630344
0.021701017 -0.024664572 0.0025317823 -0.038325574 -0.41383225 -0.01538593 -0.17655094 0.15343428
0.107323535 0.24728994 -0.054787867 0.15839998 -0.18547685 -0.083133616 -0.11856358 0.01631473
-0.08270077 -0.048073277 -0.036972344 -0.12559454 -0.04784736 -0.100004025 -0.020339772 0.019494258
-0.033726826 -0.08277378 -0.06625764 -0.04631591 -0.04336261 -0.1662122 -0.03692147 0.0033398557
-0.008918301 -0.10895548 5.279493e-06 -0.007703276 -0.17395529 0.008692458 -0.094732806 -0.013198189
0.15975201 0.21555063 0.060275655 0.0614442 0.10472377 0.17234455 -0.049100503 -0.039742343
0.05974257 0.120833404 0.059450023 -0.00029755718 0.062044926 0.042046435 -0.005761309 0.019458028
0.0033862197 -0.03597635 0.052908517 0.061877172 -0.023619486 -0.03126307 0.025659876 -0.041907866
0.07545257 0.058511943 0.01815254 0.07002734 0.006211104 -0.032469887 0.0533557 -0.014096823
-0.065325186 -0.012374741 0.06215938 -0.06423351 0.006242915 -0.047419783 -0.025727617 -0.06019308

act_fc1.bias f4 [36]
00000000: 49b4 17bd c0d4 e83c d2b4 eabc 7d54 57bd
00000010: 109e 3bbc 2758 9ebd 75e4 d8bd 8ed1 e0bb
00000020: c681 c93c 9fd5 b1bc ac53 b4bc dc71 0e3d
00000030: 113a bb3d 4b33 023d a04e b53c b48d 8ebb
00000040: f25e bb3c 31e0 493d 4b35 c83c 3dbf 1d3d
00000050: fa2f 0cbd 33f7 2e3d c891 d83b 7ceb a03d
00000060: df28 0abd 37df 21bd 6e77 ce3d 0a5a 7bbd
00000070: 45ea 0e3d 372f 51bc 70e0 d5bd 5adb b83c
00000080: c00d a83c 7632 31bc 0a21 92bb 83ce 713d
-0.037037168 0.02842176 -0.028650675 -0.05257081 -0.011451259 -0.077316575 -0.1059045 -0.0068609184
0.024598014 -0.021708308 -0.022012554 0.034776554 0.09141935 0.031787198 0.022132218 -0.0043503884
0.022872422 0.04928607 0.024439475 0.038512457 -0.03422544 0.042716216 0.0066091754 0.07857415
-0.033730384 -0.039519515 0.10081373 -0.061365165 0.034891386 -0.012767605 -0.10443199 0.022565532
0.020514369 -0.0108152535 -0.004459505 0.059034836

val_conv1.weight f4 [2, 128, 1, 1]
00000000: 943a b6bd 9fc8 06bc 8ff2 673d ba88 b5bd
00000010: 1a9f 6a3d bf67 f3bd 79cd 863d 8455 6b3c
00000020: d53a 713d cd91 9e3a b974 1a3d d9f3 1dbd
00000030: 4353 263b 1ebf b03d 640b d13d 359d c1bd
00000040: 0265 763d 8dfe 96bd a722 4d3d d5c9 373d
00000050: 2911 a0bd 1b7d b63c cbcb d23b 7b56 883d
00000060: a56d 273d 32cc f23c 9c38 c7bd e6a3 ccba
00000070: 2afb a9bd e784 8a3d b38d 083d 6bc7 453d
00000080: 8bd2 58bc 6609 de3c bd74 38bd 4aa1 e8bd
00000090: da9f 583d 031d e93d b52b 8c3d 2760 973d
000000a0: 9cff c9bd 452d 7dbc 8c54 7c3c 2b91 ce3c
000000b0: 8e7f 03be a9d1 203b e9fa 28bd 3f95 923c
000000c0: e3c9 0cbe 1f26 e0bc e370 19bd f8a3 803c
000000d0: 4d76 0b3c ffe7 6d3d 0671 163d f241 ab3d
000000e0: 1bcf 822f 24f3 5f3c ed2d 803d 031d 773d
000000f0: 176e 64bc cda8 843d 8302 9b3d fd26 b0bb
00000100: 3fc6 7ebc b29b 93bb da0b 653d 6417 253c
00000110: d3c5 e9bd e45b ac3a 33de 663c 751c 803d
00000120: 309d 693d bf86 ad3d 2fb4 1e3d a332 7ebd
00000130: ad96 88bd 0412 1abe 1c17 f6bc 3540 d03d
00000140: 18f1 85bd 6ba7 0abd f46b 34be e197 cbbb
00000150: e8e0 81bd 02c8 96af c8ae dbbd 8329 e33d
00000160: 9432 ca3d fad5 f6bd fe97 113d 8163 9bbc
00000170: a06b b4bc 3658 923d 9e7a 9abd f582 5ebc
00000180: b879 28bb 2e76 10be f826 d53c 9000 a4bc
00000190: ae8b abbd bdb4 b0bd eda3 3d3c e64f 0fbd
000001a0: b1e9 43bd f7cc 00bd 39aa 603d bf45 e1b9
000001b0: e3ca 7f3d 4e5f 0cbd 38fd 633d 8c77 3a3d
000001c0: 00eb dcb0 be75 313d 3223 803d bc22 15be
000001d0: 7b83 a53d b1f6 053c d405 163c 8c68 8fbd
000001e0: 76fb 033d 4160 0bbe c94f ce3c 6267 f63c
000001f0: db19 613b a18f dd3c fc65 08ba 545b 6ebc
00000200: 1b16 283c 03ff d43c 586e 80bd 1951 e7bd
00000210: fb53 a3bd 2ec4 5e3d c846 243d de30 863d
00000220: 31c2 1b3d 22b5 773b 8a65 58bb d65c 5d3d
00000230: aaa7 19bd c20b a1bb 3eb6 d8bd 8f43 d4bd
00000240: 6a34 adbd 368b ec3c 6ceb b33c 352f 38bd
00000250: e87c cf3c a682 ba3c 71c9 0b3c 3390 5a3d
00000260: 4361 25bb 39d9 edbc eb96 e2bc c289 cbbd
00000270: a67c 3fbd 0280 dcbc b601 9e3c 527f 0e3d
00000280: 6559 9b3a 153b 3c3d 524d 963c 29a3 c9bc
00000290: f6ba b33c bc6a 8f3b 2267 d6bd 0a07 9ebd
000002a0: a162 fe3c fc38 223d 61a8 463d f1fe 463d
000002b0: 5591 483d 8968 2fbb 03f1 8f3d c6cc 883c
000002c0: 9c2c b13c 3ea6 a3bb 1e95 b8bd 1704 00be
000002d0: 0216 6b3d b1ef 28bc 30d4 053d dd6c a5ba
000002e0: ee78 dd33 102a 4cbd 220a 5b3b 1f86 633d
000002f0: f39b db3c 701e e83b 6e62 7cbc 1236 af39
00000300: e83e a43c 4cb6 f73c b79a 03be 382b c3bd
00000310: af54 003d eb31 30bd 23a2 9bbc 8894 94bd
00000320: df75 16bd d538 2abe 3177 873c baac 603b
00000330: 793e 243d 8357 9ebc 503a 433d 7708 dabd
00000340: c538 3abb efe8 90bd 8743 fabc eea3 cebb
00000350: eb55 263d a1e7 6ab2 67c2 ee3b 323a 9dbd
00000360: c292 6fbd ccc3 7a3d ec06 78bd 7695 3cbd
00000370: 3c35 1e3b 15ce 70bb 55b8 533d be26 173d
00000380: d427 b7bd ad3e b4bc 6679 f93c 2b64 d1bd
00000390: cb7a d7bd 661f 893d f17b 7b3d 3437 b93d
000003a0: b164 31bc f22f 98bd fb9d b63d e1a3 ce3c
000003b0: 54e0 9d3d 40f7 9a3b b403 05be 600e 45bd
000003c0: d55d 6bbb 21de a6bd 5fa9 6bbd 15d9 47bd
000003d0: 0f08 f93d 9f57 2dbd 1a73 b1bb 1791 50bd
000003e0: 1f88 61bd 580c c2bc 6516 b63c c7d3 ef3c
000003f0: 8d59 1fbc 5047 83bd fafd 9038 e405 eebb
-0.08897892 -0.008226543 0.056627806 -0.08863969 0.057280637 -0.11885022 0.065821595 0.01436365
0.058893997 0.0012097895 0.03770897 -0.03856263 0.0025379218 0.08630203 0.10207251 -0.09453813
0.060154922 -0.073727705 0.050081875 0.044870216 -0.07815773 0.022276452 0.0064329854 0.0665712
0.04087605 0.029638384 -0.09727594 -0.001561281 -0.08299859 0.0676363 0.03333826 0.048285883
-0.013233791 0.02710409 -0.045033205 -0.113588884 0.05288682 0.11382487 0.06844274 0.073913865
-0.09863207 -0.015452688 0.015401017 0.025215706 -0.12841627 0.002453903 -0.04125491 0.017893432
-0.13748889 -0.027361928 -0.037461173 0.015703186 0.008512092 0.058082577 0.03672888 0.083621874
2.379402e-10 0.013668809 0.0625876 0.060330402 -0.013942263 0.06477509 0.075688384 -0.0053757415
-0.015550195 -0.0045046443 0.055919506 0.010076378 -0.11414685 0.0013149944 0.014091062 0.06255428
0.05703467 0.084729664 0.038746055 -0.06206001 -0.06669364 -0.15045935 -0.030040316 0.101684965
-0.065401256 -0.03385107 -0.17619306 -0.0062131737 -0.063417256 -2.7426955e-10 -0.10726696 0.11091902
0.09872928 -0.120525315 0.03554534 -0.018968346 -0.022023976 0.07145731 -0.075429186 -0.013581027
-0.0025707316 -0.14107582 0.026019558 -0.0200198 -0.08376251 -0.08628223 0.0115747275 -0.034988306
-0.047830287 -0.03144547 0.054849837 -0.0004296731 0.062449347 -0.034270577 0.05566141 0.045524165
-1.6073898e-09 0.04332518 0.06256713 -0.14564031 0.080817185 0.008176492 0.009156663 -0.070023626
0.032222234 -0.13610937 0.025184529 0.030078594 0.0034347686 0.027046027 -0.0005203185 -0.0145481415
0.010259177 0.026000505 -0.062710464 -0.11294765 -0.079750024 0.05438631 0.040106565 0.065522894
0.038026992 0.0037797173 -0.0033019506 0.054043613 -0.037513413 -0.0049147317 -0.10581635 -0.10364448
-0.08457263 0.028874975 0.021962844 -0.044966895 0.025328115 0.022767376 0.008531914 0.053360175
-0.0025234974 -0.029034244 -0.027659854 -0.099383846 -0.046749733 -0.026916508 0.019287925 0.03478939
0.0011852203 0.045954783 0.018347416 -0.024613934 0.021939736 0.0043767374 -0.1046889 -0.07716186
0.03105289 0.039605126 0.048500422 0.048582975 0.048966724 -0.0026765189 0.07028391 0.016699206
0.021627717 -0.004994183 -0.09012817 -0.1250156 0.057394035 -0.010311053 0.03267306 -0.0012620945
1.03131114e-07 -0.0498448 0.0033422788 0.05554783 0.02680776 0.0070837066 -0.015404327 0.00033418887
0.020049527 0.030238293 -0.12851988 -0.09529728 0.03133076 -0.043016355 -0.018998211 -0.072548926
-0.036733504 -0.16623242 0.016536327 0.003428264 0.04009864 -0.019328838 0.047663033 -0.10646146
-0.0028415185 -0.070756786 -0.030549778 -0.006306163 0.04060928 -1.3673259e-08 0.007286358 -0.076771155
-0.05848957 0.061221883 -0.060553476 -0.046040975 0.0024140617 -0.0036743928 0.051689465 0.03690218
-0.089431435 -0.022002542 0.030453395 -0.10224184 -0.10521468 0.06695442 0.061397497 0.09043732
-0.010827229 -0.0743102 0.08916851 0.025224628 0.07708803 0.0047291815 -0.12989694 -0.048109412
-0.0035914083 -0.081478365 -0.05753457 -0.04879101 0.1215974 -0.04231989 -0.0054153325 -0.05091962
-0.055061456 -0.023687527 0.022227475 0.029275788 -0.00972594 -0.06410086 6.913762e-05 -0.007263886

val_conv1.bias f4 [2]
00000000: 528e 123d eacc 8e3d
0.03578026 0.06972678
