models/Training/AC_nmcts20/train_081.pth (torch, 424031 bytes, 15 tensors)

conv1.weight f4 [32, 5, 3, 3]
000000 e5 34 b9 3c b4 71 3e be 47 16 1d bd 4f 8e 14 3e
       0.02260823 -0.18598062 -0.038351323 0.14507411
000010 b0 2f 86 be 7d b5 10 bd f8 bf f9 3d 1f 38 13 be
       -0.26208258 -0.03532933 0.12194818 -0.14376877
000020 b7 cf db 3c 8e e4 89 3c 24 3c 88 bc 8c af 1d 3e
       0.026832445 0.016832616 -0.01663024 0.15398997
000030 70 38 c8 3d e4 93 38 be 01 00 18 3e 1c ce e2 bc
       0.097763896 -0.18025166 0.14843751 -0.027686171
000040 c1 aa 03 bc 32 71 d8 3d ce 22 7f 2a 52 19 47 a7
       -0.008036316 0.10568465 2.2660625e-13 -2.7630524e-15
000050 54 d9 0f 28 66 98 2e aa ba 24 89 a8 70 0c ef ac
       7.98522e-15 -1.5507178e-13 -1.5225983e-14 -6.7941694e-12
000060 94 6c 81 2d 10 5b 91 25 98 4a e0 26 f9 28 d2 3d
       1.471382e-11 2.5215197e-16 1.5563341e-15 0.10261721
000070 8f 63 7b 3c b6 40 66 bd fb f6 fb bd b8 9e 37 be
       0.015343561 -0.056214057 -0.12302967 -0.1793164
000080 a4 70 5d 3b 72 b6 44 3d 74 d1 08 be 92 71 b8 3d
       0.0033789063 0.048025556 -0.1336115 0.09006037
000090 5e bc a4 28 0f 0c 02 2b c2 8c 04 29 5a 9f 21 a9
       1.8289349e-14 4.620201e-13 2.9431976e-14 -3.5887397e-14
0000a0 a5 50 4e af 8f 49 0e 29 60 68 b1 a4 52 89 a9 a8
       -1.8764242e-10 3.1594136e-14 -7.693833e-17 -1.8822322e-14
0000b0 96 69 1d ac 9e a4 59 bd c2 35 72 3e 5b 00 b0 3d
       -2.2369654e-12 -0.053135507 0.2365332 0.08593818
0000c0 8e eb 05 3e ed 61 49 bd 62 2d 0b 3c 21 80 dc 3c
       0.13078138 -0.049165655 0.008494707 0.026916565
0000d0 1c 3e 1b 3e 89 e2 f7 3d db 5d 9c 3d d5 e0 24 be
       0.15160412 0.12103755 0.07635089 -0.16101392
0000e0 83 df 2f bd 5f e4 b0 bc 4e 99 f8 3c b4 09 24 3c
       -0.042937767 -0.02159327 0.030346539 0.010012079
0000f0 9e e9 cd bc ca f5 90 bd 9d 38 a2 3d 2e ad 70 ab
       -0.025135811 -0.070781305 0.079209544 -8.5505463e-13
000100 00 b7 63 a8 f8 13 fe 27 d7 0c d7 b1 21 d9 9e a7
       -1.2640713e-14 7.0520812e-15 -6.2587833e-09 -4.408922e-15
000110 de 6d 8f 27 16 db 8c b1 22 6a 24 a9 60 3c 3c aa
       3.980959e-15 -4.0994435e-09 -3.650737e-14 -1.6718701e-13
000120 de f9 fc bd f9 9a 47 3e 12 57 d7 bd 3f 4c e3 3c
       -0.12352346 0.19492711 -0.10514654 0.027746318
000130 e3 91 44 be d3 c6 b3 bd d4 a2 ff bd c4 b9 09 3e
       -0.19196276 -0.08778157 -0.12482229 0.1344977
000140 23 47 ba bc ba f0 39 29 26 93 e6 36 3e 56 81 aa
       -0.022738999 4.128705e-14 6.8716645e-06 -2.2974846e-13
000150 4d a8 f2 27 14 48 8f 2b d8 88 d1 b4 af 09 21 ac
       6.7350965e-15 1.0180767e-12 -3.902885e-07 -2.2884852e-12
000160 8a 5f 65 b1 8d 13 0f 2a f0 72 d4 bd c6 bc 1e 3d
       -3.3378194e-09 1.2707734e-13 -0.10373485 0.038754247
000170 7b 78 96 3d a8 f5 81 3d 69 df c1 3c 98 2f 25 3e
       0.073471986 0.06345683 0.0236661 0.16131437
000180 66 14 1f be c6 df 42 be 29 f3 eb bb 4b d8 f3 bc
       -0.15535125 -0.19030675 -0.007200618 -0.029766222
000190 92 b4 3b bd 11 ec a4 bd 68 f7 f7 bb 68 c3 90 bc
       -0.045826502 -0.080528386 -0.007567335 -0.017671302
0001a0 e6 fd ee 3d 30 7a 41 3e 64 7f 1e bc 76 17 e5 3d
       0.11669521 0.18894267 -0.009673927 0.111861154
0001b0 f9 f5 11 2e d0 7a 83 2c d9 45 cf 29 ee d3 f8 27
       3.318765e-11 3.736879e-12 9.204763e-14 6.9063602e-15
0001c0 b7 b2 83 b0 e6 5a ad b6 af cf 15 a9 fa 91 9b 27
       -9.582298e-10 -5.1663837e-06 -3.3264783e-14 4.317941e-15
0001d0 58 d4 19 29 fe 8f 8d 3d b6 50 df bc 3c d9 25 be
       3.4157003e-14 0.0691223 -0.027260166 -0.1619615
0001e0 39 12 49 bd a2 bb 03 bd a2 34 cf 3d e9 fb 5f 3d
       -0.049089644 -0.032161362 0.10117461 0.0546836
0001f0 43 5d 2f bd 5c 54 5e 3d d3 92 03 ad 35 dc c3 32
       -0.04281355 0.05427967 -7.479089e-12 2.2801126e-08
000200 1c 3e 99 2a 5c 05 9e b6 12 75 6f a5 4b 56 46 b6
       2.7221357e-13 -4.709391e-06 -2.076961e-16 -2.9554528e-06
000210 48 ac 15 31 0a bc ca a6 ab ce 0a a9 d2 ab 15 3d
       2.1780284e-09 -1.4067534e-15 -3.082141e-14 0.036540814
000220 4c 56 cf bd 6d ac f2 bd bc c1 be 3c dc 1f 9f 3c
       -0.10123882 -0.11849294 0.02328574 0.019424371
000230 d5 6b 3e bd 07 6b 3a 3e 69 a1 68 3e 02 01 32 3e
       -0.046489555 0.1820489 0.22717823 0.17383197
000240 ed ae 98 3d 8e 4c 87 3c ea 34 c6 bd 68 e7 37 bd
       0.074552394 0.016515996 -0.09678061 -0.04489842
000250 d2 c7 41 be ce b6 17 be 15 a6 62 3d f9 18 04 3d
       -0.18923882 -0.14815828 0.05533417 0.03225038
000260 10 02 20 be 6c 47 16 2e 1c 2c 39 28 4e e9 42 ab
       -0.15625787 3.4169487e-11 1.0279128e-14 -6.924642e-13
000270 18 32 92 28 e8 16 0c ad a4 54 32 2c fc fe bd a9
       1.6230981e-14 -7.963165e-12 2.5342306e-12 -8.437519e-14
000280 66 c4 b1 a8 58 79 4b 31 df 6e 20 3d be 97 04 3e
       -1.9736122e-14 2.9609364e-09 0.039168235 0.1294851
000290 29 cd 24 3d f9 a8 54 be 2a f8 b2 3d 9d c1 29 bc
       0.04023472 -0.20767583 0.0873874 -0.010361102
0002a0 19 4e 98 3d 24 3d a2 3d dc c7 d2 3b 77 fe 4d 36
       0.07436771 0.07921818 0.0064325165 3.0695498e-06
0002b0 75 c6 e5 2c df 57 b3 ac b0 48 76 27 78 28 a8 2c
       6.5306046e-12 -5.0972416e-12 3.4178762e-15 4.77934e-12
0002c0 d1 2c a3 a8 ac 56 3c a9 5c 4f 81 35 66 2d f0 27
       -1.8116071e-14 -4.181956e-14 9.634346e-07 6.6662603e-15
0002d0 3c f7 d5 3d 31 0f a9 bd 38 06 d3 3d a9 39 09 3d
       0.10447547 -0.08254851 0.103039205 0.033502255
0002e0 47 74 22 bc 8c 21 21 3d 4c 49 f5 3c 82 30 97 3c
       -0.009915418 0.039338633 0.029942177 0.018455748
0002f0 65 38 17 be a7 2a 16 3e c8 32 2a be b8 52 e9 3d
       -0.14767607 0.14664708 -0.16620934 0.113927305
000300 b5 0c 96 3d 89 ab 4e 3d be 14 0c 3e 0d e0 bf 3d
       0.073266424 0.050456557 0.13679788 0.09368906
000310 78 7f 2f 3d 10 b5 1d be 55 d9 3b aa b0 55 05 29
       0.042846173 -0.15401101 -1.6684339e-13 2.9606255e-14
000320 3d ef c6 2d 0a 1c f1 b6 22 c4 16 2e 94 0d 80 28
       2.2616237e-11 -7.185624e-06 3.4280252e-11 1.4216743e-14
000330 2a 38 a7 2d 05 bd 9d ac e9 2c 73 26 f6 02 05 3e
       1.9010644e-11 -4.4831938e-12 8.4368426e-16 0.12989411
000340 f2 b4 89 bd e4 64 0a 3e fe ab 75 ba 1e 72 11 3d
       -0.06723966 0.13515049 -0.0009371637 0.03550922
000350 e4 0b 37 3e 04 2f e3 3d 2a b5 0e 3d b7 dc 07 bd
       0.1787563 0.11092952 0.03484074 -0.033169474
000360 1e cc 9b a8 0a 99 64 29 56 e1 a6 28 98 9a 16 ae
       -1.7296979e-14 5.075891e-14 1.8527426e-14 -3.4243358e-11
000370 34 78 a3 26 3c c0 15 a9 ee 89 75 aa 42 90 cf ae
       1.1342978e-15 -3.3251383e-14 -2.1808225e-13 -9.4388955e-11
000380 5d 17 96 36 0c ad 9e 3d f8 ec 18 3e 3d 16 17 3e
       4.473068e-06 0.0774785 0.14934146 0.14754577
000390 5c 63 1f 3e 7b c2 9d bd 57 c6 bc bd bb f4 ce 3d
       0.15565246 -0.0770311 -0.09217518 0.101052724
0003a0 9d 62 22 3e 0d 07 e5 bd c4 2a a3 3d 78 9d fa 3d
       0.1585793 -0.111829855 0.07967141 0.12237066
0003b0 03 cc 5b 3d a3 fd 32 3d ec d0 11 be 44 3a c7 bd
       0.053661358 0.043698918 -0.14239854 -0.0972791
0003c0 0f 7e 7a 3d 8f 38 df bd 39 ab d0 bb e1 8b c2 b3
       0.061155375 -0.108994596 -0.0063680676 -9.059273e-08
0003d0 c6 4c 72 2a c1 01 78 b1 ce 11 c1 26 0c 6b ea b1
       2.1520554e-13 -3.6089747e-09 1.3396891e-15 -6.822466e-09
0003e0 2e 78 fc ac 52 ac 8e 2a f3 aa 5a ae 53 e1 2d ac
       -7.1756134e-12 2.5343838e-13 -4.9719295e-11 -2.4709859e-12
0003f0 70 9a 7a 3b 5e 94 a9 3d b3 8f 29 3d 88 d6 8c 3d
       0.0038239025 0.08280252 0.041396808 0.06876856

conv1.bias f4 [32]
000000 c4 8f 00 3e 0e f8 47 3b 79 90 25 bd b2 6e a8 3d
       0.12554842 0.0030512842 -0.040420983 0.082242385
000010 18 39 9a bd a4 59 0f be f8 6b 18 bd a2 df dd 3d
       -0.07530421 -0.13999039 -0.037212342 0.1083367
000020 2f 9f 98 3d 12 df b4 bd 78 f3 40 3e 7b cc 2a bd
       0.07452237 -0.0883161 0.18842876 -0.041698914
000030 4d 13 35 3e 4d bb 1b 3e 42 2b e3 bd 25 a7 e0 bc
       0.17683144 0.15208168 -0.11092235 -0.02742345
000040 6f 82 f3 bc 64 14 86 bd 19 26 e4 bc af 7b 2e 3e
       -0.029725282 -0.06546858 -0.027850198 0.17039369
000050 f7 92 7d bd 92 24 aa 3d 95 64 a4 3b d8 1a 9b bd
       -0.061907735 0.083077565 0.005016873 -0.075734794
000060 45 5b a6 bd fa 9f a1 3d 9c bb ef bd ce 4c 30 3e
       -0.08122877 0.07891841 -0.117057055 0.17216799
000070 1d 97 03 3e b5 1b a0 bd e4 08 e5 bd 86 e5 01 3e
       0.12850614 -0.07817785 -0.111833364 0.12685212

conv2.weight f4 [64, 32, 3, 3]
000000 20 83 b3 bc 30 3b f6 3c ea 2a 0c bc 80 d9 08 3d
       -0.021913111 0.03005752 -0.008555153 0.03341055
000010 35 6a 5d bd 3b 95 5b bd 66 1e 52 bd dc d7 35 3c
       -0.054056365 -0.053609114 -0.05129852 0.011098828
000020 44 f6 a0 bc 50 6f 40 bd 22 ae 0e bd d5 f2 37 bd
       -0.019648679 -0.046981156 -0.034834035 -0.044909317
000030 7c ef cf 3c 2c 32 db 3c d6 22 1a 3d 34 33 c9 3c
       0.02538275 0.026757322 0.03763088 0.024560548
000040 95 11 b2 3c 31 4c 6a 3d 74 cd 60 bd 8d 99 26 bd
       0.0217369 0.057201568 -0.054883435 -0.04067378
000050 11 b9 14 bd 52 f4 44 3c b1 b6 24 3d be 7a 5b bb
       -0.036309306 0.012021141 0.04021329 -0.0033489908
000060 b1 4b 0c 3b 50 0d 7a 3b ac 2f 5a bd 0d d3 a2 bd
       0.002140742 0.0038154908 -0.05326812 -0.07950411
000070 14 8d 76 bc 53 6c fe 3c 6b 52 37 bb 99 27 a6 bb
       -0.015048284 0.031057512 -0.002797271 -0.0050706384
000080 1d b5 40 bb c5 9e 03 3d 82 5c ae 3c 24 eb 3e 3d
       -0.0029404827 0.032133836 0.021284346 0.046610966
000090 a4 12 60 bb 63 cc 0e 3d be f8 32 bd 87 76 a8 3c
       -0.0034190798 0.034862887 -0.04369425 0.02056433
0000a0 ab ff 5c 3d bb 9f 0e bd 21 8b 4e bb b5 da 04 bb
       0.05395476 -0.0348203 -0.0031516033 -0.002027196
0000b0 07 f2 06 bd e1 c6 4c bd 95 1c ab bc e5 bf 4e bc
       -0.03294566 -0.049994353 -0.020887652 -0.012618993
0000c0 12 33 59 bd b1 9d 02 bd 01 ae d7 3a a7 b7 dc bc
       -0.05302722 -0.031888667 0.0016455055 -0.026943041
0000d0 dc 7b 6c 3d 72 62 b9 3c 6b 22 5a bc 8e 97 3f bd
       0.05773531 0.02262995 -0.01331387 -0.046775393
0000e0 76 48 8a bd 6d e4 7a bb 47 28 e1 3c 7b b5 ff bb
       -0.06752102 -0.0038283125 0.027485026 -0.0078036166
0000f0 ec f2 c8 3c 3f 1f e5 bc 84 51 10 bd 61 bb 9a 3c
       0.024529897 -0.027969 -0.03523399 0.018888177
000100 3f 90 cf bc 9e 0c c6 3c 41 42 28 bd 97 cc ab 3d
       -0.025337337 0.024175938 -0.04107881 0.08388632
000110 e7 7d 04 3d c8 2f 34 3d cb cb 89 bc a2 02 a1 bb
       0.032346632 0.04399088 -0.016820809 -0.004913644
000120 f8 d0 af bd e2 77 3b bc 8f 31 4b ba d5 21 81 bd
       -0.085847795 -0.0114421565 -0.000775122 -0.06305281
000130 4c f5 17 3d 63 57 7e bd e6 3b 20 bd 09 5a 14 3d
       0.037099168 -0.062095057 -0.039119624 0.036218677
000140 ed 79 1b 3d 8f e7 60 bb 6a 20 79 bd 7a 93 e0 bc
       0.037958074 -0.0034317707 -0.060821928 -0.027414072
000150 f7 1d f6 3c 38 a1 93 bd 7b d2 24 bd a7 86 22 3d
       0.030043585 -0.072084844 -0.040239792 0.039679196
000160 b5 9b 2a 3d d6 04 4e bc a5 b9 6f bd 4f 19 db 3c
       0.0416524 -0.012574395 -0.058526654 0.026745467
000170 a1 28 8d bd cc d6 7b bd 71 67 71 bd e2 08 ad bd
       -0.06892515 -0.061484143 -0.05893654 -0.0844896
000180 0e 35 43 bd fc f1 be bc bd ef c9 bc d5 e0 e7 3b
       -0.04765802 -0.023308747 -0.024650449 0.0070763626
000190 38 f8 43 3d 07 dd b1 bc 05 fc 8d bd ec 86 44 3c
       0.04784414 -0.02171184 -0.069328345 0.0119950585
0001a0 a2 1b 2c 3d 8a 5c d6 bc e5 2e ca 3c 5f 9c 72 bd
       0.04201854 -0.026167173 0.024680564 -0.05923116
0001b0 b6 cf b8 bd 6e 4c 06 bd 09 60 9a bd b5 c4 3d 3b
       -0.09023993 -0.032787733 -0.075378485 0.0028956358
0001c0 51 8a 7b 3d ac 27 be bd 94 74 48 bd 09 6f 56 bd
       0.061411206 -0.092849106 -0.048939303 -0.052351985
0001d0 fe 7a e2 ba 99 ef 8d bd 20 b8 5f bd 51 a8 05 3d
       -0.0017279086 -0.06930465 -0.054618955 0.032631222
0001e0 1f 82 8e bd cf 3d 02 3d 19 99 84 bc 85 c7 39 bd
       -0.069584124 0.031797227 -0.016186284 -0.045356292
0001f0 c0 07 0c 3c 0e 52 4d bc 84 fe e0 bc 13 5a d9 ba
       0.00854677 -0.01253177 -0.027465113 -0.001658263
000200 ef 0f 66 bd d8 52 85 bd b7 d1 fe bc c8 dd 57 3c
       -0.05616754 -0.06509942 -0.03110586 0.013175435
000210 e7 b4 9b bd 75 9a 86 bc d5 c9 f6 3b 88 ba 33 bd
       -0.07602864 -0.016431073 0.0075313845 -0.043879062
000220 36 33 15 bd 35 84 03 bd 05 c2 2e bd b4 2d 8c bc
       -0.03642579 -0.032108504 -0.0426655 -0.017111637
000230 2a 80 15 bd 07 a8 a2 bc be da 4e bd eb a6 84 bd
       -0.03649918 -0.019855512 -0.050501578 -0.064771496
000240 12 cf 62 3d 79 be 15 bd a6 d7 a4 bd 24 15 33 bd
       0.05537326 -0.036558602 -0.08048944 -0.043721333
000250 d8 39 6f bd fa fd 0e bd ad 92 08 bc 45 95 a0 3b
       -0.058404773 -0.03491018 -0.0083357515 0.004900607
000260 1b 90 f1 bc e5 52 4a bd bf 02 df 3c 09 7c b1 3b
       -0.02948766 -0.04939546 0.02722299 0.0054163975
000270 1b 16 8a bd ac 4d 01 bc f4 d6 79 3d a2 52 88 ba
       -0.067424975 -0.007892054 0.06099601 -0.0010400603
000280 e7 05 33 3d d3 6d 86 bd f4 73 05 bd 2b 2a 41 3c
       0.0437068 -0.06563916 -0.032581285 0.011789839
000290 38 5c 34 3d 61 ff 15 bc e6 50 5a bd 4b 95 9c 3b
       0.04403326 -0.009155125 -0.053299807 0.0047785393
0002a0 bd c8 47 3d 03 ee 08 bd a1 07 63 3c a0 93 e3 3c
       0.048775423 -0.03343011 0.013856799 0.027780354
0002b0 05 e2 95 bd ba ef 44 bd 50 71 8e bc 00 f2 3a 3d
       -0.073185004 -0.048080184 -0.017388016 0.045640945
0002c0 14 b6 ef bc b4 77 17 bc ad d6 36 bd ca bc bb bd
       -0.029261626 -0.009244848 -0.044638325 -0.09166868
0002d0 61 14 82 bd d1 63 ed 3c e8 d4 9c bb 62 a0 c7 bc
       -0.06351543 0.02897826 -0.0047861226 -0.024368469
0002e0 de 44 69 3d 86 10 fb 39 24 73 08 3b 5c 67 3c b9
       0.056950442 0.00047886762 0.0020820582 -0.00017967582
0002f0 56 e7 04 bd 5e 27 44 bb 91 c0 45 3c 14 9f 40 bd
       -0.03244718 -0.0029930691 0.012069837 -0.04702671
000300 c3 b4 93 bc 6c 57 6f 3d ae b6 d2 bc bd 19 9f bc
       -0.01803053 0.05843298 -0.025721874 -0.019421453
000310 6f c5 aa bd db 7c 91 bd e9 af 2a 3d 6e 37 32 bc
       -0.08338439 -0.071038924 0.041671667 -0.010877473
000320 d0 e9 5e bc 5e 97 63 bd 7e fd 0f bd 16 0e ac bb
       -0.01360555 -0.055564277 -0.03515386 -0.0052507026
000330 ef b1 93 bd 0b 3e f8 3b ac 7c 6a bd ff 36 18 3d
       -0.072116725 0.0075757555 -0.057247803 0.037161823
000340 c7 3d 02 bd 6f d5 6c bd 92 ec ad 3c a5 aa 88 38
       -0.031797197 -0.057820734 0.02123097 6.5167704e-05
000350 97 be 51 bd c0 67 59 3c 3e 57 6d 3d d0 3e a1 3d
       -0.05120715 0.013269365 0.05794453 0.07873309
000360 57 2e 90 3c c1 ac a1 bc f8 b2 eb 3c 10 4b 3c bd
       0.017600222 -0.019735696 0.028771862 -0.045970023
000370 15 b2 bc 3c dc 30 2b bd 7e 0c 9c 3c 83 8b e2 bc
       0.023034135 -0.041794643 0.019048925 -0.027654415
000380 53 bf 01 bd d0 09 0a 3c 1f cf 34 3d c7 c4 02 bc
       -0.0316766 0.008425191 0.04414284 -0.007981486
000390 ee 9c 26 bc 23 c7 05 bd f1 80 5d bd d6 b0 c7 3c
       -0.010169251 -0.032660615 -0.054078046 0.024376314
0003a0 c6 5b 22 bb 72 18 aa 3c 56 07 af 3b 78 b1 18 3d
       -0.002477394 0.02076361 0.0053414507 0.037278622
0003b0 79 75 4e bc 4b 49 20 3d f1 b2 bc bc eb 83 5e 3d
       -0.01260125 0.039132398 -0.023034545 0.054325026
0003c0 93 f7 30 3d d8 6c ad bc bc ef 9d bc 48 07 46 bb
       0.043204855 -0.021170065 -0.019279353 -0.0030216742
0003d0 da 7c 8a bd 02 35 bf bc e2 d2 1c 3c 1e 27 3c bd
       -0.06762095 -0.023340706 0.009571763 -0.045935743
0003e0 41 2e d5 bb 1f 42 67 bd f5 e6 03 bd 73 dc 39 bd
       -0.006505758 -0.056459542 -0.03220268 -0.045376252
0003f0 ac e4 00 bd f8 b2 d6 3c 7f 51 2b 3d 2a ca 9c 3c
       -0.03146808 0.026208386 0.041825768 0.019139368

conv2.bias f4 [64]
000000 70 54 c1 3c aa 32 ef 3b a8 bd 93 bd f9 2d 49 bd
       0.023599833 0.007299741 -0.072139084 -0.04911611
000010 2e ef 83 bc 41 84 90 3d 6e b3 88 3d 8c f7 b8 3c
       -0.01610526 0.070564754 0.066748485 0.022578977
000020 36 48 27 bd 60 50 a8 3d 7c 62 11 bd b6 30 07 bd
       -0.04084035 0.08218455 -0.035494313 -0.03300544
000030 02 fd 6c 3d e1 00 49 bd 07 5f 85 bc c2 93 11 ba
       0.057858475 -0.049073104 -0.016280664 -0.00055533287
000040 0d 5a ab 3d fd e3 aa 3d 8e 28 f3 3c 82 34 55 3d
       0.08366785 0.083442666 0.029682424 0.05205203
000050 28 17 57 3c 0d 19 ce bc bc f9 9f 3d 3e 55 23 3d
       0.0131280795 -0.02515843 0.07811305 0.039876215
000060 8d f5 d3 3c 57 32 d0 3d 4c 05 7a bc 34 92 89 3d
       0.025873924 0.101658516 -0.015260052 0.06717339
000070 ed 46 45 bd f3 9d a9 bc f8 24 99 3d 18 c6 92 3d
       -0.048163343 -0.020705199 0.07477754 0.0716669
000080 d0 9f 6c 3c 70 64 d5 bc b2 46 da 3b 91 8e b4 3d
       0.014442399 -0.026048869 0.0066612596 0.08816255
000090 cf d5 ea 3c 27 e0 f4 bc de 80 c5 3a 70 09 b2 3d
       0.028666405 -0.02989204 0.0015068313 0.08693206
0000a0 a1 44 3a 3d 00 8c 60 bc f8 67 6f bd de 43 45 bc
       0.045475606 -0.013705254 -0.05844876 -0.012040107
0000b0 1a dd ad bc eb 4d 75 3d 43 d9 2b bd 9b 6e bc 3d
       -0.021223594 0.05988876 -0.041955244 0.09200784
0000c0 9b bd 2c 3d 8c bc 79 bd 86 dc 34 3d 0f 50 9b 3d
       0.04217301 -0.060970828 0.04415562 0.07583629
0000d0 80 dc 87 3d 12 28 0f bd 2c a6 fb 3c 8d 93 93 3d
       0.06633854 -0.034950323 0.030718885 0.072058775
0000e0 ef db d3 bb 37 40 60 3c 17 e4 07 bd 56 07 43 bc
       -0.006465427 0.013687185 -0.033176508 -0.0119036045
0000f0 cc c2 8f 3c 96 26 bb bc 35 98 50 bd 67 77 9c bb
       0.017548941 -0.022845548 -0.050926406 -0.004774976

conv3.weight f4 [128, 64, 3, 3]
000000 4f 19 b7 3c ff 8d 2a 3d aa 6d 61 b9 63 96 af bc
       0.022350935 0.041639324 -0.00021498525 -0.021434015
000010 8c 21 a6 bc 68 09 a0 bc 6c 90 fc 3a 9d 8c 04 bc
       -0.020279668 -0.019535735 0.0019269115 -0.008090165
000020 88 c6 b5 3b 85 7b 10 3c f8 7f 14 3c dd b2 c3 3c
       0.0055473484 0.008818512 0.009063713 0.023889
000030 a4 80 13 bd 36 2c 78 3c 6d 6d 1e bc 30 ee 15 bd
       -0.036011353 0.015147259 -0.009669644 -0.036604106
000040 75 b7 2d bc 4f 62 e3 3b 5b cc 54 3d b0 37 ca bc
       -0.010602822 0.0069392095 0.0519527 -0.024684757
000050 c8 aa 2c bc c2 80 ae 3c 81 00 c2 bb 99 dd a2 3c
       -0.010538764 0.02130163 -0.00592047 0.019881057
000060 44 26 35 bd b6 73 f6 bc 8f 8c b9 3c 00 7f 0d 3c
       -0.044225946 -0.030084472 0.022650031 0.008636236
000070 73 1e 5b bc 48 ea a4 3d fd b6 82 bc 29 43 7e 3c
       -0.013373959 0.08052498 -0.015956396 0.015518942
000080 b9 95 b1 3d e7 ae 2d 3c fd 28 11 3d 9e cd 3b bd
       0.086711355 0.010600782 0.03543948 -0.04585039
000090 af 16 32 3c 40 4f 1f bc cb a4 38 bd 41 ef e6 bc
       0.010869666 -0.0097234845 -0.045079034 -0.028190257
0000a0 e9 fc 51 bd 92 8b f9 bc 2e 5e 1d bd e2 90 82 bc
       -0.051266585 -0.03046206 -0.038419895 -0.015938226
0000b0 2c ab 90 3c e7 35 09 3d dc c0 93 bc a1 cf 12 bd
       0.017659746 0.03349867 -0.018036298 -0.03584254
0000c0 57 5a 59 3d 66 12 d1 bb bb fb 52 bd 1f 38 fa 3c
       0.05306467 -0.006380367 -0.0515096 0.030544339
0000d0 ff 82 44 bd 59 69 91 bb d8 17 02 3c ff cc cd bc
       -0.04797649 -0.0044376072 0.007940255 -0.025122164
0000e0 62 9f 69 bc 5f 03 80 bd fb f1 39 bd 5e a2 b2 bc
       -0.014259191 -0.06250643 -0.045396786 -0.021805938
0000f0 6b 55 73 bc b7 6b cf bc 4d 66 7a bc 5c d9 8c 3b
       -0.014851908 -0.025319917 -0.0152831795 0.004298372
000100 71 fa c5 bb bc 57 e5 3c d4 01 9a bc 3b 9f b5 3c
       -0.006041818 0.027995937 -0.0187997 0.022170654
000110 a3 92 e3 bb 9d 0a 8f 3c b2 60 94 bb c1 9c da ba
       -0.0069449707 0.017461115 -0.0045281285 -0.0016678796
000120 35 2f 02 3c 55 58 87 3c 0a 4f 99 bc 03 80 f2 3c
       0.007945825 0.016521612 -0.018714447 0.029602056
000130 e3 fc 56 3c d1 d7 03 3a a5 a4 11 3d 0d 15 e6 bc
       0.013121816 0.00050294126 0.035557408 -0.02808621
000140 68 17 35 bc 8f d7 91 bc 47 3d 02 bd 50 01 65 bd
       -0.011052944 -0.017802982 -0.03179672 -0.055909455
000150 34 83 1b bd 64 94 65 bd 1a 49 5e 3c 5e 7a e8 bc
       -0.037966922 -0.05604972 0.013567233 -0.028378662
000160 51 d2 14 3d f2 e0 33 bc ff 0b 55 3d fd f7 09 3d
       0.036333386 -0.010978924 0.052013393 0.033683766
000170 20 db 08 bc 34 33 6c 3c 1d 1d b7 3c 75 f3 0e bc
       -0.008353025 0.014416505 0.02235275 -0.008725037
000180 bd 5f 36 3d 87 7c b3 3c b4 35 fb bc 60 cf 54 bd
       0.044524897 0.021909965 -0.030665256 -0.05195558
000190 8f e0 4f 3d 02 86 11 3d 67 5d f3 3c fa cb 1c 3d
       0.050751265 0.03552819 0.029707624 0.038280465
0001a0 13 32 09 bc d4 66 44 3c c1 3b 39 bd 13 ec 85 3d
       -0.008373755 0.011987407 -0.045223 0.06539168
0001b0 9d 9c da bc ee 5e 28 3d f6 e1 e5 bc 40 49 29 bb
       -0.026686007 0.041106157 -0.028061848 -0.0025831014
0001c0 a2 59 01 3c 73 6d 23 bd 1d e7 23 bc 19 29 12 bc
       0.007894905 -0.0398993 -0.010003832 -0.008920931
0001d0 e6 fb 8c 3d 9d 3f 87 bb 7d 8a 3a bc 74 2f 59 bc
       0.06883983 -0.0041274563 -0.011385557 -0.013255943
0001e0 63 f5 82 3b cf 77 0b 3c a6 b6 18 3b cf d8 c6 3c
       0.0039965375 0.008512451 0.0023302226 0.024273304
0001f0 e6 8a b2 3b a6 f3 0d bc 78 3e 70 bd 37 91 b8 3c
       0.005448687 -0.008664047 -0.058653325 0.022530181
000200 65 26 89 bb e5 a2 8e bd 4b f7 a5 bc 05 64 5f 3c
       -0.004185485 -0.069646634 -0.02025952 0.013634686
000210 c1 b7 4f 3c 41 ed 13 3c 2e 32 d0 3c 9e 9c 89 3c
       0.012678088 0.009028734 0.025414553 0.016798314
000220 60 c4 5e 3c d3 8e 37 bd c1 47 88 3d 9b 2f 70 bd
       0.013596624 -0.044813942 0.06654311 -0.05863915
000230 2b 8d 61 bd 26 80 15 3c 3c a8 38 bc 15 aa 29 bc
       -0.05506627 0.009124791 -0.011270579 -0.010355492
000240 f0 1b 1e 3c 58 76 33 bc c4 b0 8d bd 44 d5 37 3c
       0.0096502155 -0.010953508 -0.06918481 0.01122028
000250 fa 42 95 bc 90 b1 81 bd b8 11 d6 ba 1c 2b d1 bb
       -0.018220413 -0.063326955 -0.0016332185 -0.006383313
000260 45 45 12 3c 1a 5e 8a bb 71 c3 0d 3d 19 2d 3e 3b
       0.008927648 -0.0042226436 0.034610216 0.002901858
000270 cb 96 d1 3c 25 a8 2e 3d 14 6e 01 bc 75 03 85 ba
       0.025584599 0.042640824 -0.00789978 -0.0010148125
000280 ee 29 93 3b a5 e8 ca 3c 4b 5d 2f 3c 14 55 0a bd
       0.0044910824 0.024769137 0.010703395 -0.033772543
000290 37 ff 09 3d a7 67 0e bd 5d 94 44 ba 93 ca 31 3d
       0.033690657 -0.03476682 -0.00074989145 0.04340608
0002a0 ce 66 71 bd e8 06 b0 3c 78 cc f0 3c 56 54 82 bb
       -0.058935933 0.021487668 0.029394373 -0.003977339
0002b0 dc f1 3c 3d 66 95 ae 3d 65 71 4b bc f0 6d 2f bd
       0.046129093 0.08524589 -0.012417172 -0.042829454
0002c0 ee fb b8 bb 3b b5 1b 3d 1e 6c 39 3c 5f 6f 51 3b
       -0.0056452667 0.03801463 0.011317281 0.0031957251
0002d0 8c d5 c7 bb 61 c2 31 3d a6 f3 12 3c 61 30 03 bd
       -0.006098455 0.043398265 0.008969223 -0.03202856
0002e0 79 b7 8c bc c4 d0 91 bc 7d 03 83 bc 24 1e c4 3c
       -0.01717733 -0.017799743 -0.015992874 0.023940153
0002f0 7a 31 69 3d f6 31 0a bd 07 47 07 3d b3 3d 21 3d
       0.05693195 -0.033739053 0.03302672 0.03936548
000300 66 5a 6a bd b6 3c ea 3c f0 9a a6 3a b5 87 71 bd
       -0.057215117 0.028593402 0.001271097 -0.05896731
000310 76 87 34 bd 65 33 2b bd d7 c2 08 3c 3b 43 99 3c
       -0.044074498 -0.04179706 0.008347235 0.018708816
000320 0b 95 bc bd ae 35 a3 bc 3d 2b 3d bd a1 d1 ad bd
       -0.09208115 -0.019923057 -0.046183813 -0.08487249
000330 f5 24 68 3c 8d 41 5e bd 5a e6 6c 3d e9 dc ac ba
       0.0141689675 -0.054261733 0.057836868 -0.0013188395
000340 60 95 fb bc 3a 48 52 3d 4a 00 6a bd 13 b8 9d 3c
       -0.030710876 0.051338412 -0.057129182 0.019252812
000350 3d f7 90 ba de af b6 bd f7 87 60 3c d0 2e 9d 3d
       -0.0011060011 -0.08920263 0.013704292 0.076749444
000360 66 6f 4c 3c 4c 8b 5d 3b 53 9c 07 3c 45 87 0f 3d
       0.012477731 0.0033804951 0.008277017 0.035041112
000370 d6 2c 93 bc 7f 56 aa bb 3e d6 5d bb 69 bf 9d bc
       -0.017965715 -0.0051982994 -0.0033849622 -0.01925631
000380 99 02 a5 bc fa db 13 bd 85 9b 51 3d a4 bb de 3c
       -0.02014284 -0.036098458 0.051173706 0.027189083
000390 d1 da 36 3c 84 b2 90 3c 7f 62 58 bd ae 31 8b 3a
       0.011160568 0.017663248 -0.05282831 0.0010619664
0003a0 2d 3d 09 3c 92 ee 13 3d be 5e 71 bb 41 53 c8 bc
       0.008376402 0.03611619 -0.0036830152 -0.024453761
0003b0 59 4d 0a bd 94 97 82 3c 15 29 1c bd 96 6c dc bc
       -0.03376517 0.015941419 -0.038125116 -0.026907247
0003c0 53 4b 12 3d d7 30 83 bd 40 ff a9 3c b9 f2 25 3c
       0.035716366 -0.064058 0.020751595 0.01012867
0003d0 14 61 65 ba 8c 1c cd bc dd 68 76 bc 2f 52 2b 3c
       -0.00087501225 -0.025038026 -0.01503965 0.010456606
0003e0 49 ef 62 bc e2 e0 3d bc 75 07 0f bc 5d 59 de bb
       -0.013850995 -0.011589261 -0.008729805 -0.0067855553
0003f0 9f bf 1c bd 70 45 56 3c 12 42 07 3c ed 54 13 3d
       -0.03826868 0.013078079 0.0082554985 0.035969663

conv3.bias f4 [128]
000000 b4 55 77 bc 3e 20 b9 bc af 63 af bc 61 35 68 3d
       -0.015096117 -0.022598382 -0.021409838 0.05669153
000010 15 2b ce bc 96 70 dd 3b 76 c2 8f bc d0 9e 4d 3d
       -0.025167027 0.006757806 -0.01754878 0.050200284
000020 bd 73 a5 bc 90 69 67 3c ce 13 96 bc 10 74 22 bc
       -0.02019679 0.014124289 -0.01831999 -0.009915367
000030 83 69 26 3d 52 4f 70 bc 62 6b 7f 3c ef 57 f4 3c
       0.040627968 -0.014667349 0.015589567 0.029827086
000040 90 61 77 3d b2 19 1e 3d fb c9 c8 3c 50 be 18 3c
       0.060395777 0.038598724 0.024510374 0.009322718
000050 3a fd 23 3d 48 e0 d9 3c 53 2c 62 3d 89 3f 19 3d
       0.040036418 0.026596203 0.055218052 0.037414107
000060 38 d2 9b bc 56 84 35 3c 89 97 41 3d 28 49 d3 3a
       -0.019021139 0.011078915 0.047263656 0.0016119825
000070 7e 1a a2 3c 84 d8 15 bd 8c bb 43 bd 76 e5 6b 3c
       0.019788023 -0.03658344 -0.04778628 0.0143979695
000080 f0 35 e7 bc 3d 16 22 3d 38 2f 47 3c 0d 2e 11 bd
       -0.028223962 0.03957199 0.012157254 -0.035444308
000090 67 c9 5a 3d f2 d9 21 bd 0a f3 d5 3b 96 60 5d 3b
       0.05341473 -0.03951449 0.0065292167 0.0033779494
0000a0 2d 75 31 3d 1f 20 47 bc b2 29 99 3c b0 e7 cd bc
       0.04332464 -0.012153654 0.01869664 -0.025134891
0000b0 33 85 b1 3c 7f 94 99 3d 4c b6 a4 3b 87 16 12 3c
       0.02166996 0.074990265 0.0050266143 0.008916504
0000c0 7c 47 9f 3c 9b 15 bb 3b cc 67 a8 bc 31 ec 8b 3b
       0.019443266 0.0057093627 -0.020557307 0.0042700996
0000d0 1a bf 09 bd 0b d4 86 3d 87 4d be 3a 1e ad d3 3c
       -0.033629514 0.06583413 0.0014518955 0.025839385
0000e0 33 d7 bf b9 bb ce 75 3d 45 bc 5c bc b7 d5 f3 3c
       -0.00036590695 0.060011607 -0.013472621 0.029764993
0000f0 0c 6f 3b 3d eb c2 00 3d 9f fc 65 3b a0 ad 97 bb
       0.0457602 0.03143589 0.00350932 -0.004628852
000100 d0 92 b6 bc a5 52 3c 3d 48 49 37 3d 35 fe 01 3d
       -0.022286803 0.045977253 0.04474762 0.03173657
000110 ae 09 d0 3c a7 52 48 3c d0 01 bf 3a d1 ec d1 3c
       0.02539524 0.012226737 0.0014572684 0.025625618
000120 91 25 43 bc 26 97 a6 3b 08 77 ef 3c 16 21 72 3d
       -0.011910812 0.0050839363 0.029231563 0.059113584
000130 e9 39 28 3d c7 a8 54 3d eb 04 cc 3c 84 85 e4 3c
       0.041070852 0.05191877 0.024904689 0.027895696
000140 35 db 2e bd 9b 6b 0f 3d 75 8d e6 ba 9f fd d6 bc
       -0.04268952 0.03501473 -0.0017589765 -0.026243983
000150 68 86 94 3c 4a d5 34 b7 ba c4 43 3d aa 4f 7e bb
       0.018130496 -1.0778496e-05 0.047795035 -0.0038804808
000160 4e 22 3f 3c 13 21 f5 3c f4 90 d5 bc ad 53 9f 3d
       0.011665894 0.029922998 -0.026070096 0.07779632
000170 1c cc 1c bc 74 31 c3 3c 1f 34 2c bc c3 54 b0 bb
       -0.009570148 0.023827292 -0.0105104735 -0.005381198
000180 6b e4 1d 3c 84 dc ea 3c e5 c4 96 bc db 60 22 3d
       0.009636979 0.028669603 -0.018404434 0.03964315
000190 ff 7f 1a 3d 56 1e 39 3d d3 7a 4c bc 85 9b 08 bc
       0.037719723 0.045194946 -0.012480455 -0.00833786
0001a0 b6 a6 36 3d 91 73 5b 3d 62 1c 74 3c 33 82 4c 3d
       0.04459258 0.05357701 0.014899345 0.049928855
0001b0 8a bf 02 bd 8b ed 45 3c 75 31 96 3c 87 f8 b6 3b
       -0.031920947 0.01208056 0.01833413 0.005583826
0001c0 dc 5c 83 bc f8 67 81 ba 05 41 48 3d 7f 85 36 3d
       -0.01603549 -0.0009872904 0.048890132 0.044560906
0001d0 f7 34 bb 3c 20 76 f9 bb aa b8 5a bc 27 92 0a 3d
       0.022852404 -0.0076129586 -0.013349691 0.033830788
0001e0 88 08 b4 bc 2a 01 16 3c 3d 15 12 bc 0c 18 34 3c
       -0.021976724 0.009155551 -0.008916196 0.010992061
0001f0 7a 57 7a bc a7 dd 92 bc a1 86 8d bc 75 a7 88 3d
       -0.015279645 -0.017927958 -0.01727611 0.06672565

act_conv1.weight f4 [4, 128, 1, 1]
000000 f9 16 bb 3b d3 c9 d1 a7 ea 81 90 3b 63 65 f3 bd
       0.0057095257 -5.822797e-15 0.004410018 -0.11884572
000010 60 4b 31 3c 7d d5 7e b8 82 db 49 3d cd c6 7b 3c
       0.010821193 -6.0757146e-05 0.049281605 0.015367222
000020 24 80 8d 3d 9f 37 d4 bd 18 f9 15 bc 26 d5 92 3c
       0.069092065 -0.103621714 -0.009153627 0.017923903
000030 f2 80 04 be 54 9a 2c 3c 7c e2 f1 3c 59 27 41 bd
       -0.12939814 0.010534842 0.029526941 -0.047156665
000040 8d d0 e0 3b 4f 52 79 bd a2 6d e4 3c cd 55 0d 3c
       0.0068607987 -0.06086951 0.027884308 0.0086264135
000050 68 5e a9 bc ff 54 c3 3c 7b a5 be bd 6c 06 c2 3b
       -0.0206749 0.02384424 -0.09308907 0.0059211757
000060 ac e9 83 3c 24 b3 10 3d 29 e8 59 bc 8a 03 20 bd
       0.016102634 0.03532709 -0.01329998 -0.039065875
000070 0e 3f 83 ba 9f de 29 bd f7 19 ba bc f8 d5 12 3d
       -0.0010013299 -0.041472074 -0.02271746 0.035848588
000080 8f d7 df 28 cc 55 d1 ba 66 fd d5 bc 4a 81 4c 3d
       2.4851457e-14 -0.0015971004 -0.026121806 0.049927987
000090 0f cf 89 bd 48 d2 73 bc 92 8f a4 ba 06 40 b9 b8
       -0.067289464 -0.014881678 -0.0012554994 -8.833413e-05
0000a0 b4 5c 27 bd 48 cd 14 bc 85 81 1b bd ec 92 5e bd
       -0.040859893 -0.009082146 -0.037965316 -0.054339334
0000b0 5c c2 f8 bb 68 2b a6 bd 96 dc 04 bc 06 24 a4 bd
       -0.007591529 -0.08113748 -0.008109232 -0.080146834
0000c0 7f 36 1d bb c6 37 00 bd b3 a2 f4 3c 41 a4 d8 3c
       -0.002398878 -0.03130319 0.029862737 0.02644551
0000d0 2a ef 28 bc e7 48 17 bd 10 7c 80 bd 67 df 6e 3d
       -0.010310927 -0.03693476 -0.06273663 0.05831852
0000e0 73 cb cf 27 b4 89 da bd f1 0d 8e bd 5f d4 8d bc
       5.767462e-15 -0.10670796 -0.06936253 -0.01731318
0000f0 7e 2c a1 bd f4 75 e7 3c dd 30 04 3d 41 74 13 2b
       -0.07869814 0.028254487 0.032273162 5.2386226e-13
000100 74 30 75 3d f5 57 48 bd 31 ad 27 3d 60 fb c7 bc
       0.05986066 -0.048912007 0.040936653 -0.024411857
000110 0b 4d 53 bd c8 f5 a0 bb 64 6c 1c 3d e7 2a fe 3b
       -0.051587146 -0.004912112 0.038189307 0.007756579
000120 f0 93 11 bd 3e 13 94 3d 23 1d 4a 3d 53 21 74 bd
       -0.035541475 0.07230233 0.049344193 -0.059602093
000130 9f 2e da bb 2d ff a5 bb 27 f0 80 bd e4 b5 bf bc
       -0.0066583897 -0.0050658197 -0.062958054 -0.023402162
000140 91 14 e1 3b 46 a4 09 3d d2 48 31 bb 92 ce 8a a9
       0.006868907 0.03360393 -0.002705146 -6.164265e-14
000150 b7 4a e8 bc 1d fd 02 aa 36 24 d8 bd c3 c5 94 3d
       -0.02835594 -1.1634136e-13 -0.10553782 0.072642826
000160 64 d6 2e 3d 95 d4 b1 bb 26 6d 31 3c d2 1f a8 bd
       0.042684928 -0.005426953 0.010829246 -0.08209194
000170 64 99 88 3c b0 d2 64 3d 49 9c ec bc ba f0 46 3d
       0.016674705 0.05586499 -0.028883116 0.04856942
000180 95 dd 28 bd e9 f6 48 3d 6c 1f 0e bd 5c 8a 60 3d
       -0.041226942 0.049063597 -0.034697935 0.05481945
000190 5a 02 05 bc 6e da bb 3c 0f a8 e7 bb 42 18 a1 bd
       -0.008118236 0.022931304 -0.0070695947 -0.07865955
0001a0 66 63 0c bc ed 30 e1 3a b0 35 b1 bb f9 78 b6 bd
       -0.00856862 0.0017180719 -0.0054080114 -0.089097925
0001b0 1b d9 c1 3c e8 fb 7c 3d 02 12 f5 bc 35 c8 d5 ba
       0.023663094 0.061763674 -0.029915813 -0.0016310277
0001c0 24 7f 83 a8 69 35 1d 3b 11 63 e9 bc 8f 14 ca bc
       -1.459906e-14 0.0023988134 -0.028489621 -0.024668006
0001d0 1f e9 2b bd bb db 24 3d fe 9f d9 3c 61 e8 4e bc
       -0.04197037 0.040248614 0.026565548 -0.012628646
0001e0 d0 ea 93 3d 6c 4d ee bc bc 8e a7 bc 63 f0 c1 bd
       0.07222521 -0.029089652 -0.020453803 -0.09469678
0001f0 3b 22 c6 2b a6 6d 25 3d db 1f 98 a8 ae ca 46 bc
       1.4078247e-12 0.040387772 -1.6889205e-14 -0.012133284
000200 34 38 65 bb c1 8f e2 3c 3c 28 6e bd 15 2d 33 3d
       -0.0034976127 0.027656438 -0.05814384 0.043744165
000210 43 d1 d8 3d 9b 6a cc bd fb cd 7a bd c2 f6 ce 3d
       0.105867885 -0.09981271 -0.061231595 0.10105659
000220 f9 88 89 3d 99 a9 ca bd 6a 65 15 3c 83 46 15 be
       0.067155786 -0.098956294 0.009118417 -0.1457768
000230 f8 a4 d6 3c 3f 19 ce 3c 88 76 fd 3d 28 6d 00 3e
       0.02620171 0.025158523 0.12376124 0.1254164
000240 8c ba 3b be 21 b9 31 bd eb 54 1b 3c 19 63 61 3c
       -0.1833288 -0.043389443 0.009480695 0.013756537
000250 97 74 47 3d 40 1e 83 bd 14 63 15 3d e8 ca 1c bd
       0.048695173 -0.06402254 0.03647144 -0.038279444
000260 2a d9 51 3d 03 d5 03 3c d7 fc 77 39 f5 52 0e 3e
       0.051232494 0.008046391 0.00023649946 0.13898833
000270 7f 9e a0 3d a4 50 05 be 08 75 cb bb d3 da 98 bd
       0.07842731 -0.13019043 -0.0062090196 -0.074636124
000280 fa 8d 3c bd 4a c0 96 3d 68 40 e6 3c 44 d8 c3 3b
       -0.046033837 0.07360895 0.028106883 0.0059767086
000290 d0 f9 15 3e 5c b9 03 3e e3 10 46 3c 46 04 c5 bc
       0.14646077 0.12863678 0.012088987 -0.02404989
0002a0 94 97 0c 3d a0 6e 97 ba c8 30 fa bc 6f 27 b7 3d
       0.034324244 -0.0011553355 -0.030540839 0.08943068
0002b0 4a 33 c4 bd ae a9 47 3d 51 25 30 bd dd 9c 0a 3b
       -0.09580095 0.048745804 -0.043004338 0.0021150627
0002c0 32 2c 0c be be bb 12 bd 37 d9 c5 b9 e1 00 95 3b
       -0.13688734 -0.035823576 -0.00037736606 0.004547224
0002d0 01 b7 21 be 40 d9 06 3e 70 12 d4 3c e6 e6 4b bd
       -0.15792467 0.13168812 0.025887698 -0.04978075
0002e0 df 63 0a 2c 82 1f c0 3d 6e 6a d6 3b 0c 93 a5 3d
       1.966642e-12 0.0938101 0.006543449 0.080846876
0002f0 1d b9 d8 3d 39 a0 3d 3c 7e 88 e2 bc ac 3f b9 28
       0.105821826 0.011573845 -0.027652975 2.056674e-14
000300 a2 11 b6 3b 3b 7b d1 3d 9a 61 c8 3d 7d b3 a4 3d
       0.005556301 0.102285825 0.09784241 0.08042047
000310 21 9a 9e 3d ff 0d d6 bc 50 c4 3f bd 40 7f e1 3d
       0.077442415 -0.02612972 -0.046818078 0.11010599
000320 f2 e7 07 3e 5f 8f b8 3d 87 38 b3 3d 79 82 ff bd
       0.13272074 0.09011721 0.08751016 -0.124760576
000330 40 6f 37 bb 83 25 9b 3c a6 08 e7 3d ab 88 1e 3e
       -0.0027989894 0.018938785 0.112809464 0.15481822
000340 c1 f0 72 bd 29 65 93 3b 6e 5e e1 bc 38 44 19 bc
       -0.059311632 0.004498143 -0.027510848 -0.0093546435
000350 2a 9d b2 3d f8 1e e0 a9 64 9b dd 3d 62 d6 98 bd
       0.08721383 -9.9529705e-14 0.10820654 -0.07462765
000360 aa 35 bc 3d e1 5b 8c 3b ce b0 bd 3b 63 3f 90 3d
       0.09189923 0.0042834138 0.005788899 0.0704334
000370 c0 d1 43 bd 40 fd 9f bd 48 02 93 3d d9 c9 b1 3d
       -0.047807455 -0.078119755 0.071781695 0.086810775
000380 b0 4c d3 3d 94 0d 82 3c 93 2f 5a bd 88 8e f3 3c
       0.10317361 0.015875615 -0.053268027 0.02973105
000390 23 81 fe 3d fe 80 89 3d 65 d2 f7 bd 7c 7c 1a 3e
       0.124269746 0.067140564 -0.121006764 0.1508655
0003a0 54 d5 c6 3d 01 0e b0 bc 13 ed 99 bc 43 37 3d 3e
       0.09708658 -0.021491053 -0.018789804 0.18478112
0003b0 1b ef c5 bd 0d 8f 9a bb 3e a0 d9 3d b3 29 e6 bc
       -0.096647464 -0.00471676 0.10626267 -0.028096056
0003c0 27 58 c4 b8 3d 1e 6d 3d ae a6 49 3e 6f 4d 1a be
       -9.362428e-05 0.057890166 0.1969249 -0.15068601
0003d0 73 3c 0c 3d e1 9b ae bd 70 71 95 36 a2 5c b6 3d
       0.034237336 -0.08525825 4.453752e-06 0.08904387
0003e0 20 d6 26 bd 01 11 44 3d 6a ad fd 3d a0 b5 32 3d
       -0.04073155 0.04786778 0.12386592 0.043630242
0003f0 7c 35 70 38 32 5b c0 3c fa d6 ad 38 87 3d 8f 3d
       5.727027e-05 0.023480985 8.289325e-05 0.06994157

act_conv1.bias f4 [4]
000000 68 6f 9a bc 54 0e 84 3d e0 14 9d 3d b9 03 94 bd
       -0.01885195 0.064480454 0.07669997 -0.072272725

act_fc1.weight f4 [36, 144]
000000 ab 6a 02 bd 8d a1 48 bd 85 d7 91 bd 81 35 b9 bc
       -0.031840008 -0.04898219 -0.07121185 -0.02260852
000010 10 80 0f bd d3 38 88 bd 48 ec fb bc 63 a2 74 bd
       -0.03503424 -0.06651463 -0.030752316 -0.059725177
000020 79 07 77 bd 6d c4 cc bd 0c 89 0a bd bf 7e d3 bd
       -0.06030986 -0.09998403 -0.033822104 -0.10326909
000030 db db e6 bd 5e 46 a6 bd 95 13 b9 bd 8d 88 3c bd
       -0.11272403 -0.0811889 -0.09036938 -0.046028662
000040 92 bc 33 bd 39 03 66 bc 40 6e 08 bd 84 c6 1e bd
       -0.043881007 -0.014038854 -0.033308268 -0.038763538
000050 ad 16 b8 bc b8 c7 03 bd 52 88 0b 3c b2 f9 ae bc
       -0.02247175 -0.03217289 0.008516388 -0.021359298
000060 c8 7c 34 3b 79 be b8 bc 81 aa 9b bd d4 94 bd bc
       0.0027540196 -0.022551762 -0.076008804 -0.023142256
000070 48 69 a8 3c 19 a8 1f 3c b0 04 83 bc 50 1d 0f bd
       0.020558015 0.009744667 -0.015993446 -0.034940064
000080 94 3c 06 bc d0 3f 8c bc 53 a9 da bc e5 4a 3a bd
       -0.008193154 -0.017120272 -0.026692068 -0.04548158
000090 d6 55 af 3c 0f 03 a9 3d a9 85 d3 bb dc bb 57 3d
       0.021403234 0.082525365 -0.0064551425 0.05266939
0000a0 47 c4 d0 3d f4 de 6a 3d 5e 7f 26 bd 7c 5f d0 bc
       0.10193687 0.05734153 -0.04064881 -0.025436155
0000b0 c2 38 81 bd 90 f5 d1 3d 7c 0c ac 3c 65 28 ae ba
       -0.06309654 0.102519155 0.021002047 -0.0013287185
0000c0 18 90 12 ba 1b d6 a2 3c f1 65 fe bc c5 5c 12 bd
       -0.00055909296 0.019877484 -0.031054469 -0.035733003
0000d0 64 0e b2 bd 26 13 6e 3c 0a ed a1 b9 86 f3 0b be
       -0.08694151 0.0145309325 -0.0003088492 -0.13667116
0000e0 72 dd e1 bb 64 0d 63 3d ca ba 96 3c ef 56 a6 3c
       -0.0068928534 0.055432692 0.018399615 0.020305125
0000f0 e0 1f 1e bd d4 c9 9a 3d d8 b2 c5 bb 77 aa 4b bd
       -0.038604617 0.07558027 -0.0060332827 -0.049723115
000100 7e 6e 14 bd 90 10 43 bd b2 93 a7 bb 04 9a 80 bd
       -0.036238186 -0.047623217 -0.005114042 -0.06279376
000110 ef 1c 41 3d c9 b4 9d bc f1 a4 01 be 92 5a d5 3c
       0.047146734 -0.019251244 -0.12660576 0.026044164
000120 37 a2 c5 bd 20 dd 72 bd bf 2e d7 bd 8b 25 aa bd
       -0.09650081 -0.059292912 -0.10506963 -0.08307942
000130 db f0 13 3d fd c4 35 bd fd 47 d6 bd d2 61 32 be
       0.03611837 -0.044377316 -0.104629494 -0.17420128
000140 3c da f6 bd 02 a4 39 bd 82 02 45 bd 21 b1 00 bd
       -0.12053344 -0.045322426 -0.048098095 -0.031418923
000150 d7 de 25 be c4 0b cf bd 94 8f ca bb c1 de ca bd
       -0.16198288 -0.10109666 -0.0061816666 -0.09905768
000160 7c 41 ac bd 6d 0d 0e be 12 a8 14 3d ec ce 08 be
       -0.08410928 -0.13872309 0.036293097 -0.13360184
000170 d7 f1 cd bd 28 45 49 bd dd ad 5e bd ed 27 05 be
       -0.10055893 -0.04913822 -0.054365028 -0.13003512
000180 c2 a0 bf bd b7 74 a2 bc 6d 00 01 bd f1 89 2f be
       -0.09356834 -0.019831045 -0.031494547 -0.17142464
000190 24 7a 60 bd 08 8b 4c bb 79 f5 10 bd 31 06 6e bc
       -0.054803982 -0.0031210799 -0.03539035 -0.014527843
0001a0 9e d8 87 bd fb 60 96 bd 61 b5 9a bd d4 86 12 bd
       -0.06633113 -0.07342716 -0.075541265 -0.035773113
0001b0 5c c9 10 bd b1 91 38 bd ba fb d3 bc e0 3a ab bd
       -0.03534828 -0.045060817 -0.025876869 -0.08360839
0001c0 7c fb cb bd 3a 95 8d 3c a1 8e fd 3c 23 d1 0d bc
       -0.09960076 0.01728307 0.0309518 -0.008655819
0001d0 c5 d9 86 3c 73 7a 82 bd b8 23 2d bd f1 89 c3 3c
       0.016461262 -0.063710116 -0.042270392 0.023869487
0001e0 c1 aa ae bc db 56 13 bd 57 09 c2 bb 60 3f 44 3d
       -0.021321656 -0.035971504 -0.0059215236 0.047912
0001f0 22 87 b7 bc 60 a3 89 bd 36 a2 32 bb 73 fa 38 3d
       -0.022403304 -0.067206144 -0.002725733 0.045160722
000200 7c ae f5 ba 0a b9 79 bc d8 6d 83 3c 5b 13 57 3d
       -0.0018744017 -0.015241871 0.016043589 0.052508693
000210 19 79 c3 3c c1 c9 9f 3c 00 d2 f9 3c a5 b5 f2 bc
       0.023861455 0.019505383 0.030495644 -0.02962763
000220 50 73 85 bd d1 02 5e b8 8a aa 88 3d da 23 9c 3c
       -0.06516135 -5.2931548e-05 0.06673153 0.019060064
000230 bc f5 d5 bc f8 35 ff 3c d4 46 30 3a e3 79 7d bc
       -0.026118152 0.031153664 0.00067244214 -0.015470955
000240 32 9e ef bc b6 3f 8e bc 30 dc af 3c 86 5e 10 bd
       -0.029250238 -0.017364364 0.021467298 -0.035246395
000250 3e 57 e5 bc 13 ae d5 bc 00 be be bc 0f 7a cb bc
       -0.027995702 -0.026083982 -0.023283958 -0.024838476
000260 ab 56 62 bc a3 d1 80 bc fe 8a ba bc 60 d4 f6 bc
       -0.013814609 -0.015724963 -0.022771355 -0.030130565
000270 d8 68 50 bc 5f 64 15 bc 36 03 93 bd 62 d5 c4 bc
       -0.012720309 -0.009118169 -0.07178347 -0.02402753
000280 59 e8 75 3c a8 f6 f0 3a d1 28 39 bd 64 47 96 bc
       0.015009009 0.0018384056 -0.04520494 -0.018344589
000290 29 6d a8 3c 6a 44 a6 bb c0 83 73 bd 5f 58 72 bd
       0.020559864 -0.0050740736 -0.05945182 -0.05916631
0002a0 4d 37 7e 3c a8 e6 26 bd eb 4e 73 3c 3e f8 6d 3c
       0.015516114 -0.040747315 0.0148503585 0.014524518
0002b0 ef 43 fb bb 65 7c 4d bd 78 f5 2b bc ec e5 93 3c
       -0.0076680104 -0.05016746 -0.010495536 0.018053971
0002c0 70 09 a9 3c 1c d2 c1 bc bc d3 1e 3b 46 e1 11 bd
       0.020634383 -0.023659758 0.002423509 -0.035615228
0002d0 28 d7 ee be ea 73 2f bd 3a 90 46 be e6 54 29 3e
       -0.46648526 -0.042835154 -0.19390956 0.16536292
0002e0 8f 47 f2 3d 77 51 7b 3e c5 de c7 bd 29 1b 2b 3e
       0.11830055 0.24542795 -0.09759287 0.1670958
0002f0 de 9c 3f be 95 04 e8 bd 52 5b 0a be 52 03 47 3d
       -0.18712184 -0.11328999 -0.13511398 0.04858715
000300 4b 55 c5 bd 2b 3c 52 bd c9 57 9b bd 04 41 00 be
       -0.09635409 -0.051326912 -0.07585103 -0.12524801
000310 9b f0 2e bd f3 f2 a6 bd 44 15 5e bd 8e 64 f6 3c
       -0.042709928 -0.08151808 -0.0542195 0.030077245
000320 57 62 58 bd a4 21 e9 bd e5 36 98 bd c5 5f 5d bd
       -0.05282816 -0.113833696 -0.07432345 -0.05404641
000330 7b 82 3c bd a9 b9 37 be e5 dc 40 bd 73 50 87 bc
       -0.046022873 -0.17941917 -0.04708566 -0.016517853
000340 d5 85 ad bc fa 6d f5 bd 6c 91 7e bb 44 ef cf bc
       -0.02118198 -0.11983867 -0.0038844002 -0.025382645
000350 2d fa 39 be 6a 23 a0 bc 34 bf d7 bd 1f 3b 09 bd
       -0.1816184 -0.019548137 -0.10534516 -0.033503648
000360 e1 22 36 3e 84 20 6c 3e 39 62 ac 3d 9a 96 ba 3d
       0.17786743 0.23059279 0.08417172 0.09110756
000370 4a a4 fe 3d 00 16 47 3e 51 50 2a bd 2b 41 4f bc
       0.124336794 0.19441986 -0.041580502 -0.012649815
000380 34 6a 84 3d a8 05 ff 3d 60 44 89 3d 88 ae 04 3d
       0.06465569 0.12452251 0.067024946 0.03239301
000390 a9 a9 6b 3d fb ad 21 3d ee b2 43 bc 18 42 d7 3c
       0.057534847 0.03947256 -0.011944516 0.026276633
0003a0 28 b5 e6 3b 7b 03 d0 bc 3b 8c 48 3d 03 af 86 3d
       0.0070406385 -0.025392285 0.04896186 0.065763496
0003b0 08 c9 d8 bc 42 12 fe bc 9f f1 f5 3c 15 03 06 bd
       -0.026463047 -0.031014565 0.03002244 -0.032717783
0003c0 b5 09 a9 3d 34 20 63 3d d3 ca 80 3c 9f 40 83 3d
       0.082538046 0.055450633 0.015721714 0.0640881
0003d0 f2 f5 71 3c 90 c8 bb bc f4 a8 65 3d d9 de 61 bc
       0.014768111 -0.022922784 0.05606933 -0.013786041
0003e0 73 ef 57 bd 08 c9 52 bc d2 fb 8c 3d 1c e7 76 bd
       -0.05271859 -0.012865312 0.068839684 -0.060278997
0003f0 8d b1 bb 3b 23 42 39 bd 92 5c c8 bc 0b f9 6a bd
       0.005727953 -0.04522909 -0.024458203 -0.057366412

act_fc1.bias f4 [36]
000000 5a 92 f5 bc 16 a7 a8 3c 57 5d 10 bd 53 8b 5d bd
       -0.029977012 0.020587485 -0.035245266 -0.054087948
000010 ca b7 70 bc 99 b9 a0 bd 91 4f df bd 14 0d 80 bc
       -0.014692256 -0.078479 -0.10903848 -0.015631236
000020 e0 8f 26 3d c0 06 38 bc 02 8a 68 bc 83 d7 27 3d
       0.040664554 -0.011232078 -0.01419306 0.040977012
000030 f6 8c bb 3d 11 22 20 3d 45 5d b4 3b 45 cc fe bb
       0.091577455 0.03909499 0.0055042827 -0.0077758157
000040 4c d5 be 3c 98 df 2d 3d 5e de ed 3c cd cd a4 3c
       0.023295067 0.042449564 0.029036697 0.020117665
000050 ab 08 0e bd 4b 07 1c 3d 26 9a 4a 3b 63 17 ad 3d
       -0.034676235 0.038092893 0.0030914634 0.08451726
000060 86 3c e3 bc 26 56 09 bd e5 9d 02 3e 93 b4 66 bd
       -0.02773882 -0.033529423 0.12755544 -0.056324553
000070 f3 c1 33 3d c5 c4 79 bc b0 8e de bd be d9 65 3c
       0.043886136 -0.015244667 -0.10867059 0.014028965
000080 ce ca 29 3c 7c 05 80 bc 26 55 66 bc 87 c9 42 3d
       0.010363294 -0.015627615 -0.014058387 0.047555473
