models/Training/AC_nmcts20/train_016.pth (torch, 424031 bytes, 15 tensors)

conv1.weight f4 [32, 5, 3, 3]
0.047039457 -0.1456226 -0.057939436 0.11593428 -0.18290174 -0.0055642705 0.07824784 -0.07597872
0.009157578 0.002608672 -0.035132125 0.111763775 0.07418867 -0.11819862 0.11967631 -0.0063863187
-0.0013881009 0.115796365 0.0006471829 -5.09392e-07 2.590968e-06 -9.766822e-06 -1.8433127e-05 -0.002710536
-0.0036108096 -6.7195106e-06 7.6186654e-07 0.11297086 0.024079924 -0.09374328 -0.14666715 -0.08415793
0.0039110966 0.03266826 -0.09075557 0.08856705 8.165313e-06 -3.6977803e-05 -2.2901171e-05 -4.5355414e-06
-0.007026716 2.4526057e-06 -2.2680867e-06 4.9954804e-05 -0.0030081314 -0.03465933 0.14985552 0.064970545
-0.04980003 0.034107335 -0.039778985 0.12721495 0.07572413 0.1348245 0.038483303 -0.17756721
-0.013024177 0.05093347 0.07427642 0.04570147 -0.0985667 -0.05698487 0.12533271 -0.0005309414
-2.4231153e-05 2.4874462e-06 -0.01525056 3.63389e-06 -4.966432e-06 -0.015036783 2.2637387e-05 -0.0002122892
-0.1377932 0.12141161 -0.10883666 -0.01495032 -0.11253024 -0.088965654 -0.09395238 0.08654299
0.010915166 -1.4484696e-05 0.030726098 7.114973e-05 1.21856665e-05 0.00047216585 -0.021013374 0.0010235261
0.013431539 -3.099604e-05 -0.122542776 0.045810297 0.119984835 0.007018727 0.06676916 0.14640264
-0.119169205 -0.13954152 0.03056332 -0.05593889 -0.009659917 -0.060377046 0.007930581 -0.059041142
0.08408037 0.18410768 0.012605256 0.059336185 -0.0043419157 0.001898057 -7.4038426e-06 2.5151967e-06
0.010265481 -0.029443622 1.4020055e-05 9.860707e-06 -1.2807976e-05 0.04453989 -0.0016589061 -0.11360541
-0.06809484 -0.023237176 0.067931615 0.07212615 0.0053003198 0.04193778 -0.0022754904 0.016282735
-6.773599e-05 -0.029045347 -5.663388e-08 -0.027167916 -0.011279186 -2.054836e-06 -1.0999448e-05 0.08580462
-0.15098126 -0.05730858 0.037477814 0.032949578 0.013613554 0.13775586 0.17117466 0.16106574
0.03094176 0.03425045 -0.09361391 -0.0078117913 -0.1572952 -0.11802376 0.09682202 0.04537817
-0.103695795 -0.0044670985 -2.1531448e-06 -0.00056807935 8.421596e-06 -0.0025076682 -0.0011094656 2.038197e-05
-7.595756e-05 -0.011909088 0.04570232 0.118287764 0.08175106 -0.17276865 0.11820046 0.044121817
0.06229801 0.052281186 0.031579923 0.027313044 0.002148634 -0.0028481926 -5.625013e-07 0.0019831287
-8.322402e-06 -7.4360396e-06 0.0234045 -3.5792536e-06 0.1130252 -0.022901187 0.09891076 0.039111845
0.013126452 0.014703119 0.024102852 0.04306192 -0.11763206 0.11981057 -0.13752139 0.09149683
0.09689927 0.057273954 0.09853986 0.10189066 0.023193978 -0.13214462 -7.289842e-05 -1.2808246e-05
0.0057024797 -0.030934965 -0.004509418 -2.2591926e-06 -0.009011923 -0.0019584033 -1.4617345e-07 0.12094423
-0.014635444 0.118299305 0.016386 0.051261738 0.14223996 0.11324953 0.038843818 -0.0021769155
-8.990378e-07 -1.6038744e-05 8.18517e-06 0.00448972 2.6969883e-06 -9.980933e-06 0.00015341066 -0.0063078157
0.028827688 0.099505164 0.12765597 0.12104217 0.1138766 -0.08751433 -0.026117062 0.14074042
0.17321202 -0.09294466 0.08879213 0.0862143 0.034021363 0.02625926 -0.121792264 -0.059842736
0.048241206 -0.10478959 -0.04641147 -0.018114079 3.0564056e-06 0.012718823 5.1620714e-07 -0.015300983
-0.0022284058 -1.5185392e-06 -0.005952668 0.0010793151 0.020096628 0.05128032 0.014764885 0.03290573
00000000: 72ac 403d 171e 15be e751 6dbd f46e ed3d
00000010: 984a 3bbe 7c54 b6bb 6740 a03d bb9a 9bbd
00000020: ab09 163c 41f6 2a3b b4e6 0fbd 68e4 e43d
00000030: 3bf0 973d 1e12 f2bd da18 f53d 5344 d1bb
00000040: f0f0 b5ba a526 ed3d b6a7 293a 27bd 08b5
00000050: 7ee0 2d36 2edc 23b7 d7a0 9ab7 3fa3 31bb
00000060: 55a3 6cbb 2878 e1b6 1283 4c35 445d e73d
00000070: 4343 c53c 7afc bfbd ea2f 16be fe5a acbd
00000080: a828 803b 27cf 053d 0ede b9bd a462 b53d
00000090: c1fd 0837 9d18 1bb8 e41b c0b7 0130 98b6
000000a0: 5e40 e6bb 7297 2436 6f35 18b6 9086 5138
000000b0: 1224 45bb f1f6 0dbd ba73 193e 470f 853d
000000c0: 1efb 4bbd 22b4 0b3d 4aef 22bd a344 023e
000000d0: 4115 9b3d 6f0f 0a3e aba0 1d3d 2ed4 35be
000000e0: 5c63 55bc 9d9f 503d 3c1e 983d 7731 3b3d
000000f0: 57dd c9bd f868 69bd 3857 003e e02e 0bba
00000100: 0144 cbb7 00ee 2636 7cdd 79bc c1dd 7336
00000110: 53a5 a6b6 d75c 76bc 6be5 bd37 f399 5eb9
00000120: a919 0dbe a6a6 f83d c1e5 debd 30f2 74bc
00000130: 4176 e6bd a033 b6bd 1b6a c0bd 733d b13d
00000140: 86d5 323c 4c03 73b7 4cb5 fb3c 3836 9538
00000150: 0a71 4c37 078d f739 3d24 acbc d627 863a
00000160: f50f 5c3c bf01 02b8 b5f7 fabd 94a3 3b3d
00000170: 9cba f53d 59fd e53b 45be 883d 93ea 153e
00000180: fc0e f4bd f9e3 0ebe ed5f fa3c 2d20 65bd
00000190: a144 1ebc ec4d 77bd 45ef 013c 20d5 71bd
000001a0: 5432 ac3d b986 3c3e 4786 4e3c 800a 733d
000001b0: a146 8ebb 39c8 f83a 866e f8b6 c0ca 2836
000001c0: 8c30 283c c033 f1bc ad37 6b37 6a6f 2537
000001d0: d7e1 56b7 766f 363d a76f d9ba f4a9 e8bd
000001e0: 4f75 8bbd e45b bebc bb1f 8b3d e0b6 933d
000001f0: 4eae ad3b f3c6 2b3d 6520 15bb 5f63 853c
00000200: 7c0d 8eb8 82f0 edbc 9c3d 73b3 408f debc
00000210: 56cc 38bc d0e5 09b6 458a 38b7 55ba af3d
00000220: d59a 1abe 67bc 6abd 5682 193d 23f6 063d
00000230: 620b 5f3c df0f 0d3e 6948 2f3e 6bee 243e
00000240: 9379 fd3c 334a 0c3d a6b8 bfbd 0efa ffbb
00000250: fe11 21be 71b6 f1bd a04a c63d 76de 393d
00000260: 765e d4bd bd60 92bb bf7e 10b6 29eb 14ba
00000270: 7b4a 0d37 b157 24bb 7d6b 91ba f3f9 aa37
00000280: 684b 9fb8 561e 43bc 5b32 3b3d db40 f23d
00000290: 1a6d a73d 44ea 30be 1513 f23d 14b9 343d
000002a0: 332c 7f3d cc24 563d f359 013d 9bbf df3c
000002b0: 19d0 0c3b bea8 3abb ccfe 16b5 61f7 013b
000002c0: 72a0 0bb7 1883 f9b6 cbba bf3c 1c33 70b6
000002d0: c279 e73d 459b bbbc b991 ca3d be33 203d
000002e0: 5510 573c 5ae5 703c 5873 c53c b261 303d
000002f0: 14e9 f0bd 3e5f f53d 68d2 0cbe b162 bb3d
00000300: 2073 c63d 1898 6a3d 44cf c93d 0dac d03d
00000310: 4c01 be3c eb50 07be 0be1 98b8 ffe2 56b7
00000320: dedb ba3b 536b fdbc bdc3 93bb a29c 17b6
00000330: bfa6 13bc 8e58 00bb daf3 1cb4 9cb1 f73d
00000340: 80c9 6fbc e846 f23d ef3b 863c d4f7 513d
00000350: 5aa7 113e 5fef e73d b21a 1f3d 95aa 0ebb
00000360: 6855 71b5 f18a 86b7 0a53 0937 801e 933b
00000370: e8fd 3436 c873 27b7 dcdc 2039 cbb1 cebb
00000380: 0b28 ec3c 5dc9 cb3d 3fb8 023e f5e4 f73d
00000390: 2338 e93d b73a b3bd 73f3 d5bc 421e 103e
000003a0: 7e5e 313e c559 bebd a6d8 b53d 1f91 b03d
000003b0: fc59 0b3d a91d d73c 396e f9bd a81d 75bd
000003c0: 9298 453d ed9b d6bd f419 3ebd fa63 94bc
000003d0: a61c 4d36 9c62 503c 7c91 0a35 f9b0 7abc
000003e0: 720a 12bb 9cd0 cbb5 990e c3bb ce77 8d3a
000003f0: afa1 a43c 500b 523d 6be8 713c 29c8 063d

conv1.bias f4 [32]
0.098654315 0.03008018 -0.01555502 0.10821707 -0.064542495 -0.15588796 0.009836757 0.08582256
0.06374228 -0.09056453 0.1867415 -0.044200655 0.15036201 0.1410021 -0.05959436 -0.049518913
-0.03036213 -0.08456526 -0.057203263 0.15087932 -0.049995374 0.053450372 0.022187948 -0.06271057
-0.118828 0.0840699 -0.11954108 0.13439642 0.1395051 -0.08621319 -0.09449213 0.11012439
00000000: 460b ca3d b66a f63c 7cda 7ebc e9a0 dd3d
00000010: db2e 84bd 18a1 1fbe 592a 213c bdc3 af3d
00000020: 508b 823d e579 b9bd 2a39 3f3e bf0b 35bd
00000030: 80f8 193e db62 103e 3719 74bd 58d4 4abd
00000040: 00ba f8bc 8d30 adbd f84d 6abd 1c80 1a3e
00000050: f3c7 4cbd c7ee 5a3d 80c3 b53c 666e 80bd
00000060: 185c f3bd d72c ac3d f4d1 f4bd 379f 093e
00000070: 6dda 0e3e 8a90 b0bd 1785 c1bd e588 e13d

conv2.weight f4 [64, 32, 3, 3]
-0.023189988 0.040307727 0.007843748 0.019580638 -0.043649256 -0.054143276 -0.044306636 0.028780237
-0.017510265 -0.035200205 -0.042888887 -0.021010824 0.038122453 0.043693528 0.053143635 0.04896363
0.019916715 0.041306466 -0.06252391 -0.019528205 -0.019356871 0.013404988 0.018926442 0.006909514
0.0070847017 -0.001251065 -0.036957532 -0.06624282 -0.006035871 0.032539826 0.0017701543 -0.0076856823
-0.0030947498 0.044067565 0.026920872 0.07513413 -0.0006498706 0.050979134 -0.03780036 0.017656922
0.047532722 -0.016399605 0.0046373494 0.0121934265 -0.014192451 -0.048636205 0.0026101465 0.0074697807
-0.034937963 -0.01981658 0.010774675 -0.01090581 0.068713054 0.03749406 -0.01807169 -0.019675203
-0.06701084 -0.0044212765 0.02285907 -0.00391445 0.02133006 -0.027614765 -0.0099102445 0.006671105
-0.039765112 0.03166369 -0.041443564 0.08306049 0.033916693 0.047459316 -0.020548416 -0.009909946
-0.080680765 -0.016544597 0.0039270143 -0.059552085 0.035401214 -0.061022382 -0.023832394 0.03614955
0.046410963 0.021305503 -0.03969932 -0.033056047 0.021041434 -0.07735984 -0.0363481 0.04696287
0.03994898 0.013853584 -0.044883773 0.022888519 -0.06825073 -0.06671911 -0.065113485 -0.08675471
-0.035437543 -0.025563633 -0.032976683 0.0033283702 0.058133937 -0.0028727683 -0.065662086 0.01719966
0.040399566 0.00984951 0.043226093 -0.04290185 -0.079717696 -0.035528425 -0.080077946 -0.008568287
0.052539065 -0.08635117 -0.044829298 -0.029739046 0.0024561866 -0.05993026 -0.05361173 0.016201055
-0.06046608 0.031532876 -0.0114134755 -0.045489445 0.013591198 0.0018721288 -0.021372266 0.015897114
-0.053520683 -0.053995214 -0.020514347 0.014920206 -0.05216536 0.0046715206 0.03646691 -0.0340778
-0.018869743 -0.021988016 -0.057397686 -0.008725223 -0.024299944 0.0031679138 -0.034068473 -0.033727102
0.05832596 -0.04660873 -0.059796944 -0.03316664 -0.05897875 -0.033401717 0.013372358 0.034926675
-0.027792588 -0.023119258 0.03936956 0.006304413 -0.048207194 -0.023771623 0.07155468 0.008826656
0.05732754 -0.032995507 -0.011889136 0.0043705236 0.033132724 -0.00919908 -0.060383614 0.006395057
0.03463848 -0.008167859 0.0476811 0.023768572 -0.055631734 -0.048703104 0.0019338189 0.04022487
-0.041311864 0.00011561752 -0.059145816 -0.07407719 -0.04418076 0.04028895 0.004030795 -0.0043956186
0.044990275 0.0123651745 0.018426055 0.028195068 -0.0072930525 0.008299891 0.0012176336 -0.05737948
-0.025706353 0.04399833 0.002066242 -0.015703889 -0.068779945 -0.065731145 0.04404217 0.003772357
0.0007260025 -0.057716824 -0.028012814 -0.0068458915 -0.061044604 0.0038357838 -0.046536572 0.047583144
-0.047821585 -0.04208757 -0.0028955115 0.01183628 -0.042881276 0.012695307 0.07561051 0.0631849
-0.010910566 0.017785328 0.03406381 -0.0074419947 0.013632694 -0.0839805 0.060064074 -0.017161427
-0.019392721 0.0054287887 0.041024316 0.017261019 -0.029008701 -0.028863302 -0.055473257 0.030730763
-0.0012541311 0.017430572 0.005386362 0.034589346 0.02012971 0.028091721 -0.001529243 0.0690359
0.06032216 0.0068981512 -0.003371246 0.009036597 -0.066766724 -0.016666977 0.019855287 -0.043189533
-0.021056836 -0.043940954 -0.05003288 -0.05259277 -0.028516037 0.036050875 0.039813396 0.021468213
00000000: eef8 bdbc b719 253d 1083 003c 9367 a03c
00000010: 90c9 32bd 57c5 5dbd e07a 35bd 88c4 eb3c
00000020: b071 8fbc 172e 10bd 42ac 2fbd e41e acbc
00000030: 4a26 1c3d fcf7 323d 24ad 593d 168e 483d
00000040: 6128 a33c f830 293d 890c 80bd 9df9 9fbc
00000050: 4d92 9ebc 98a0 5b3c a00b 9b3c 3469 e23b
00000060: c926 e83b c7fa a3ba c860 17bd 51aa 87bd
00000070: 8ec8 c5bb 7b48 053d 8604 e83a 2dd8 fbbb
00000080: 49d1 4abb 3180 343d 2989 dc3c ecdf 993d
00000090: 145c 2aba 7fcf 503d 8dd4 1abd 40a5 903c
000000a0: acb1 423d 7758 86bc e8f4 973b f0c6 473c
000000b0: 7487 68bc c236 47bd fe0e 2b3b 10c5 f43b
000000c0: 1c1b 0fbd 6156 a2bc 4388 303c 48ae 32bc
000000d0: 6eb9 8c3d 5f93 193d 150b 94bc e42d a1bc
000000e0: fb3c 89bd 5be0 90bb f242 bb3c c944 80bb
000000f0: 61bc ae3c 5c38 e2bc 945e 22bc 4999 da3b
00000100: bee0 22bd c9b1 013d bac0 29bd 9e1b aa3d
00000110: 3bec 0a3d b364 423d 2755 a8bc 535d 22bc
00000120: f53b a5bd 8988 87bc 2fae 803b e3ec 73bd
00000130: dd00 113d 9bf2 79bd 273c c3bc 8d11 143d
00000140: 6c19 3e3d e188 ae3c c19b 22bd c765 07bd
00000150: 165f ac3c d66e 9ebd bfe1 14bd 235c 403d
00000160: 8ba1 233d 25fa 623c 0cd8 37bd b480 bb3c
00000170: 0ac7 8bbd 07a4 88bd 385a 85bd 74ac b1bd
00000180: f526 11bd d36a d1bc 8f12 07bd c920 5a3b
00000190: da1d 6e3d 0e45 3cbb d879 86bd 4de6 8c3c
000001a0: 047a 253d d75f 213c d80d 313d dab9 2fbd
000001b0: 0843 a3bd 4186 11bd e8ff a3bd 0062 0cbc
000001c0: 3433 573d e2d8 b0bd ed9e 37bd 4d9f f3bc
000001d0: f9f7 203b 6f79 75bd f997 5bbd 13b8 843c
000001e0: 48ab 77bd 9e28 013d 96ff 3abc 2453 3abd
000001f0: 9ead 5e3c 3862 f53a e414 afbc aa3a 823c
00000200: 8138 5bbd 162a 5dbd b40d a8bc e173 743c
00000210: 58ab 55bd 8e13 993b 545e 153d 2a95 0bbd
00000220: b894 9abc 3620 b4bc d619 6bbd 3df4 0ebc
00000230: ad10 c7bc c69c 4f3b 628b 0bbd 6e25 0abd
00000240: 34e7 6e3d cce8 3ebd a4ed 74bd bed9 07bd
00000250: b493 71bd 3dd0 08bd bc17 5b3c 460f 0f3d
00000260: 48ad e3bc 9964 bdbc fa41 213d 4095 ce3b
00000270: e874 45bd b5bc c2bc 438b 923d ae9d 103c
00000280: 48d0 6a3d 4c26 07bd a7ca 42bc 9c36 8f3b
00000290: 2eb6 073d bdb7 16bc cf54 77bd a08d d13b
000002a0: 14e1 0d3d 7cd2 05bc 424d 433d 4fb6 c23c
000002b0: 1ade 63bd e87c 47bd 3278 fd3a d5c2 243d
000002c0: a136 29bd af77 f238 e242 72bd c8b5 97bd
000002d0: e2f6 34bd 0706 253d c214 843b 1f09 90bb
000002e0: b947 383d 4d97 4a3c 3df2 963c 58f9 e63c
000002f0: 8ffa eebb 44fc 073c 0199 9f3a bf06 6bbd
00000300: 2196 d2bc 9837 343d ca69 073b 71a5 80bc
00000310: 80dc 8cbd 0d9e 86bd 9065 343d a639 773b
00000320: 3451 3e3a 7a68 6cbd 217b e5bc 8053 e0bb
00000330: e809 7abd c661 7b3b 229d 3ebd 8be6 423d
00000340: 91e0 43bd 0464 2cbd 9fc2 3dbb f5ec 413c
00000350: 47a4 2fbd faff 4f3c afd9 9a3d 1667 813d
00000360: 3bc2 32bc 89b2 913c 7e86 0b3d fadb f3bb
00000370: aa5b 5f3c f8fd abbd bf05 763d 1f96 8cbc
00000380: 7cdd 9ebc fbe3 b13b 1d09 283d fb66 8d3c
00000390: a8a3 edbc bb72 ecbc ed37 63bd 15bf fb3c
000003a0: a861 a4ba 8fca 8e3c 1480 b03b 8fad 0d3d
000003b0: 10e7 a43c 9c20 e63c e170 c8ba b262 8d3d
000003c0: 5f14 773d e309 e23b 1ff0 5cbb 3c0e 143c
000003d0: febc 88bd 2f89 88bc 8ea7 a23c 82e7 30bd
000003e0: 637f acbc 6efb 33bd 47ef 4cbd 846b 57bd
000003f0: 779a e9bc 15aa 133d 5f13 233d 1bde af3c

conv2.bias f4 [64]
0.02214243 0.024431996 -0.07005459 -0.039709907 -0.020549009 0.06275185 0.045157965 0.026316594
-0.023730824 0.057394758 -0.03671017 -0.03535318 0.050952654 -0.036640715 0.026868701 -0.024652192
-0.003488761 0.075849235 0.017503012 0.059109174 -0.0058226692 -0.02461438 0.067695096 0.05058475
0.026588565 0.09123561 0.004558756 0.052867632 -0.05658956 -0.03013934 0.054121073 0.048615325
0.0035528038 0.023549525 0.01783439 0.07640669 0.020922769 -0.033921283 0.021650273 0.06201662
0.028377935 -0.012110743 -0.065543614 -0.03648095 -0.00753312 0.046551507 -0.04203286 0.060719073
0.055654492 -0.049091898 0.045966007 0.057922486 0.0828768 0.0013299248 0.058857344 0.07491734
-0.007213904 0.041016538 -0.017529825 -0.009191473 0.0137726115 -0.025024394 -0.046883497 -0.0124139665
00000000: 0b64 b53c 9c25 c83c c878 8fbd dba6 22bd
00000010: 6556 a8bc 0b84 803d 8ff7 383d e695 d73c
00000020: 2567 c2bc c416 6b3d 675d 16bd 7fce 10bd
00000030: bbb3 503d 9314 16bd c01b dc3c 65f3 c9bc
00000040: b2a3 64bb d856 9b3d 7a62 8f3c 761c 723d
00000050: 17cc bebb 19a4 c9bc baa3 8a3d f431 4f3d
00000060: 43d0 d93c bcd9 ba3d 9e61 953b bb8b 583d
00000070: 74ca 67bd c7e6 f6bc 0fae 5d3d dd20 473d
00000080: 28d6 683b efea c03c 6d19 923c 1c7b 9c3d
00000090: 3a66 ab3c 0bf1 0abd ea5b b13c 2405 7e3d
000000a0: d878 e83c 236c 46bc bb3b 86bd 0c6d 15bd
000000b0: 64d8 f6bb cbac 3e3d a62a 2cbd 90b4 783d
000000c0: f7f5 633d 9614 49bd da46 3c3d 2140 6d3d
000000d0: 50bb a93d df50 ae3a 6614 713d 436e 993d
000000e0: 9d62 ecbb f500 283d b59a 8fbc d597 16bc
000000f0: 85a6 613c f5ff ccbc e908 40bd f363 4bbc

conv3.weight f4 [128, 64, 3, 3]
0.023140496 0.04169648 -0.010524237 -0.027221095 -0.023006512 -0.023771139 0.003254611 -0.00760841
0.011747846 0.032430332 0.033826947 0.0403351 -0.03652017 0.040193457 -0.00960901 -0.00713154
-0.003597545 -0.005808613 0.063643 -0.032261185 -0.012739111 0.02594339 -0.007935924 0.027101088
-0.05114768 -0.035902757 0.029056164 0.013964959 -0.013934098 0.081542924 -0.03025722 0.018458763
0.081431694 0.016051564 0.047854546 -0.05359879 0.00919216 0.0007064834 -0.048513204 -0.020615563
-0.042488866 -0.027818747 -0.03920113 -0.0069017676 0.03585609 0.031280197 0.005020524 -0.028719412
0.06616065 0.01234446 -0.035686795 0.03436039 -0.055620767 0.013637267 0.02263109 -0.0010807224
-0.025458962 -0.027084969 -0.029880537 -0.010426449 0.015396218 -0.025292821 -0.013100588 0.006530412
-0.008876484 0.039518632 -0.025608161 0.03021976 -0.0054581547 0.025686989 -0.0060828165 0.00053389533
0.0060666883 0.014331616 -0.036700547 0.028623817 0.014993722 -0.007956715 0.032052908 -0.044281848
-0.023727965 -0.02339646 -0.025029255 -0.055884436 -0.04303583 -0.056506444 0.032819316 -0.03574811
0.035951067 -0.025524205 0.0220829 0.015993796 -0.0135428915 0.0016217163 0.019184925 -0.01708155
0.029990327 0.014645048 -0.053837568 -0.04470751 0.054963533 0.017302398 0.038689256 0.0390867
-0.019740509 0.02387722 -0.056638084 0.05841078 -0.03619751 0.040740788 -0.020146789 0.015920497
0.020280458 -0.025593553 0.008928396 -0.001402111 0.07803973 -0.010053358 -0.025112169 -0.03984741
0.009293307 0.015923966 -0.0005400247 0.05448633 0.015425508 -0.0346306 -0.05952523 0.018709976
-0.017114032 -0.06364437 -0.023286164 0.009011453 0.029016377 0.010440617 0.023212288 -0.0034958466
-0.008342123 -0.027606133 0.038838163 -0.077321276 -0.049200743 0.012022842 0.007343486 -0.018931387
0.0068779197 -0.01786256 -0.008272714 -0.005562814 -0.0101437075 -0.03881135 0.014862642 -0.0071845558
0.03718496 -0.015319048 0.030474035 -0.0020944884 0.05100987 0.051621575 -0.021893214 0.033346094
0.007891654 0.009677873 0.027959105 -0.04975877 0.029818103 -0.018472325 0.007119938 0.04076202
-0.05862213 0.01984074 0.006539042 -0.0055873394 0.053190544 0.06398705 0.010741354 -0.029153448
-0.017547267 0.0538113 0.027629012 -0.015222973 -0.0018840878 0.031595144 0.007901103 -0.02131641
-0.02262006 0.0022595886 -0.0130462935 0.030651398 0.056274794 -0.014198172 0.04839005 0.023065707
-0.040337082 0.037255947 -0.006265759 -0.054693416 -0.04764835 -0.06078456 0.0065281685 0.03214237
-0.09048527 0.0065553114 -0.04669292 -0.05958704 0.030381447 -0.036464237 0.07711552 -0.039084338
-0.011874282 0.050597783 -0.038259834 0.041353058 -0.034669124 -0.04702095 0.028454795 0.025754454
0.016240414 0.0049284785 0.01309101 0.050307564 -0.024334071 -0.0071581663 -0.0052272817 -0.026449353
-0.029190058 -0.063462995 0.034756336 0.030822001 0.026488263 0.013992599 -0.05403095 0.029023517
-0.002157663 0.035795048 0.0021944342 -0.0017207264 -0.039052054 0.0013866674 -0.040127523 0.0039423117
-0.040796362 -0.07570915 0.029220104 0.013917351 -0.0021880262 -0.035416167 -0.018268444 0.017577553
-0.016310047 -0.0114953015 -0.011705094 -0.008766957 -0.04546417 0.00069958816 0.020551087 0.044570122
00000000: 2391 bd3c eec9 2a3d d96d 2cbc c6fe debc
00000010: 2778 bcbc b1bb c2bc 504b 553b f84f f9bb
00000020: 0a7a 403c abd5 043d 208e 0a3d 6b36 253d
00000030: 2c96 15bd e5a1 243d 1c6f 1dbc b2af e9bb
00000040: cac4 6bbb 2d56 bebb 4357 823d 4e24 04bd
00000050: b4b7 50bc 3b87 d43c ae05 02bc 1a03 de3c
00000060: 3b80 51bd c50e 13bd 3107 ee3c 49cd 643c
00000070: d84b 64bc faff a63d fddd f7bc d536 973c
00000080: a9c5 a63d 927e 833c 2103 443d 688a 5bbd
00000090: b79a 163c 4c33 393a c8b5 46bd f8e1 a8bc
000000a0: ce08 2ebd 24e4 e3bc 5d91 20bd 3928 e2bb
000000b0: d6dd 123d aa1f 003d 3583 a43b f944 ebbc
000000c0: 3c7f 873d 6b40 4a3c 512c 12bd 7bbd 0c3d
000000d0: 9ad2 63bd d86e 5f3c d664 b93c 07a7 8dba
000000e0: 508f d0bc 4ce1 ddbc 07c8 f4bc b2d3 2abc
000000f0: 6b40 7c3c e432 cfbc d9a3 56bc 11fd d53b
00000100: ac6e 11bc 4ade 213d 35c8 d1bc 6e8f f73c
00000110: 52da b2bb 856d d23c 5d52 c7bb 1cf5 0b3a
00000120: 12cb c63b 28cf 6a3c 5053 16bd 7f7c ea3c
00000130: 3aa8 753c e25c 02bc e949 033d e260 35bd
00000140: 2661 c2bc efa9 bfbc 270a cdbc 14e7 64bd
00000150: 5746 30bd 4d73 67bd 8c6d 063d 9c6c 12bd
00000160: 6d41 133d 2318 d1bc 33e7 b43c 6c05 833c
00000170: 01e3 5dbc c58f d43a b429 9d3c 9bee 8bbc
00000180: 46ae f53c c9f1 6f3c c884 5cbd 391f 37bd
00000190: 7121 613d c2bd 8d3c a078 1e3d 6019 203d
000001a0: d9b6 a1bc 299a c33c 56fd 67bd 2440 6f3d
000001b0: d743 14bd d0df 263d e10a a5bc b46b 823c
000001c0: 3423 a63c 92a9 d1bc 6848 123c 0ac7 b7ba
000001d0: 4bd3 9f3d d7b6 24bc 09b8 cdbc 0a37 23bd
000001e0: f442 183c fa72 823c 7290 0dba 0f2d 5f3d
000001f0: 45bb 7c3c d1d8 0dbd bad0 73bd aa45 993c
00000200: ba32 8cbc fb57 82bd a0c2 bebc c6a4 133c
00000210: c1b3 ed3c 1f0f 2b3c b227 be3c 931a 65bb
00000220: 66ad 08bc 4226 e2bc c414 1f3d 9e5a 9ebd
00000230: b886 49bd 74fb 443c a0a1 f03b ff15 9bbc
00000240: 2c60 e13b 8154 92bc 478a 07bc 4448 b6bb
00000250: cb31 26bc a6f8 1ebd 7082 733c 6c6c ebbb
00000260: 424f 183d bffc 7abc afa4 f93c af43 09bb
00000270: baef 503d 2571 533d 6659 b3bc ea95 083d
00000280: ff4b 013c f18f 1e3c 7e0a e53c dacf 4bbd
00000290: 1845 f43c 4653 97bc 5e4e e93b 13f6 263d
000002a0: c21d 70bd 0c89 a23c 7645 d63b 0016 b7bb
000002b0: 54de 593d a40b 833d 81fc 2f3c 36d3 eebc
000002c0: 49bf 8fbc 3d69 5c3d 3d56 e23c c769 79bc
000002d0: 7ff3 f6ba e969 013d a173 013c c09f aebc
000002e0: b44d b9bc 9b15 143b 1fc0 55bc a418 fb3c
000002f0: 6680 663d 739f 68bc a534 463d 4bf4 bc3c
00000300: 7f38 25bd b199 183d ff50 cdbb 3406 60bd
00000310: eb2a 43bd 3bf9 78bd 3fea d53b b8a7 033d
00000320: 5750 b9bd f0cd d63b 1341 3fbd 8a11 74bd
00000330: 83e2 f83c 865b 15bd beee 9d3d e616 20bd
00000340: 598c 42bc 9f3f 4f3d 58b6 1cbd d361 293d
00000350: 3601 0ebd 0a99 40bd 081a e93c 01fb d23c
00000360: 9e0a 853c 137f a13b ad7b 563c 4e0f 4e3d
00000370: 3f58 c7bc 0d8f eabb 9e49 abbb 50ac d8bc
00000380: fd1f efbc e3f8 81bd a95c 0e3d 6c7e fc3c
00000390: eafd d83c 3741 653c 8f4f 5dbd bac2 ed3c
000003a0: 9467 0dbb d49d 123d 7fd0 0f3b ff89 e1ba
000003b0: 0cf5 1fbd d6c0 b53a c25c 24bd 822e 813b
000003c0: 161a 27bd 660d 9bbd 005f ef3c 9a05 643c
000003d0: fd64 0fbb 8b10 11bd b4a7 95bc cdfe 8f3c
000003e0: a69c 85bc ca56 3cbc b9c6 3fbc 48a3 0fbc
000003f0: a338 3abd 9164 373a c15a a83c 298f 363d

conv3.bias f4 [128]
-0.005303402 -0.037437707 -0.023982773 0.026349267 -0.031303857 0.00801208 -0.015599849 0.04410177
-0.01722666 0.017540773 -0.0044581597 -0.02410563 0.04323219 -0.015108273 0.014253799 0.029489493
0.035256922 0.048682276 0.023926359 0.009776279 0.03461379 0.027455552 0.05027341 0.030181851
-0.019395445 0.017930485 0.048972126 -0.01850461 -0.0009107439 -0.056452874 -0.048951972 0.023392469
-0.037621763 0.03621163 0.0072616157 -0.03849603 0.033830725 -0.03827502 -0.0008253774 -0.004914317
0.044929456 -0.012360767 0.017994849 -0.021803394 0.030413333 0.06690646 0.00940527 0.0043618116
0.02600237 0.0008632787 -0.031580288 -0.0143694235 -0.036636148 0.034440428 -0.006318761 0.026956623
-0.014390975 0.03433637 -0.008042846 0.038915075 0.03396345 0.030335331 0.010357901 -0.016219687
-0.022683794 0.037477713 0.025615234 0.015415438 0.018801883 0.0138902245 0.016704258 0.007414696
-0.02585198 -0.010325914 0.014723101 0.053993896 0.050339464 0.05280831 0.01355775 0.014564738
-0.044471603 0.02457563 -0.01065405 -0.03607923 0.007384415 -0.0095600495 0.031113155 -0.009702692
0.0042747455 0.020882403 -0.03024535 0.05443997 -0.01316348 0.024571702 0.0103680035 -0.0027474668
0.001173029 0.022880906 -0.02008959 0.020603452 0.021535467 0.047241706 -0.015234619 -0.012802309
0.027590483 0.049777403 -0.012654769 0.012820073 -0.027760012 0.012718191 -0.011144855 0.016866848
-0.041033063 -0.00580694 0.0056739473 0.050021823 -0.001588826 -0.006058467 -0.015516516 0.006658094
-0.013617258 -0.002647372 -0.027833676 0.010547838 -0.026956186 -0.036610093 -0.025070917 0.052858345
00000000: 29c8 adbb 4858 19bd 8577 c4bc 6bda d73c
00000010: 7938 00bd 1945 033c 8296 7fbc 0fa4 343d
00000020: ed1e 8dbc abb1 8f3c c115 92bb 2c79 c5bc
00000030: 3d14 313d b188 77bc c488 693c f393 f13c
00000040: 9069 103d 1167 473d 3601 c43c b02c 203c
00000050: 31c7 0d3d 77ea e03c 7eeb 4d3d ee3f f73c
00000060: 32e3 9ebc f4e2 923c ff96 483d fb96 97bc
00000070: fdbe 6eba 213b 67bd dd81 48bd 90a1 bf3c
00000080: 4719 1abd a552 143d d9f2 ed3b 03ae 1dbd
00000090: 1692 0a3d 44c6 1cbd 245e 58ba 4708 a1bb
000000a0: f307 383d d184 4abc ef69 933c 089d b2bc
000000b0: 6225 f93c 4106 893d 9018 1a3c 87ed 8e3b
000000c0: ec02 d53c a74d 623a 555a 01bd bb6d 6bbc
000000d0: c90f 16bd 6811 0d3d 9c0d cfbb 23d4 dc3c
000000e0: 20c8 6bbc 4ba4 0c3d 24c6 03bc 6a65 1f3d
000000f0: 421d 0b3d cd81 f83c 30b4 293c 26df 84bc
00000100: 5dd3 b9bc 3b82 193d 0ad7 d13c 0991 7c3c
00000110: 6806 9a3c d393 633c 5ed7 883c faf6 f23b
00000120: 88c7 d3bc 062e 29bc 2939 713c b428 5d3d
00000130: c130 4e3d 874d 583d 5321 5e3c f0a0 6e3c
00000140: db27 36bd d552 c93c 538e 2ebc d1c7 13bd
00000150: f6f8 f13b c1a1 1cbc 04e1 fe3c 0af8 1ebc
00000160: 2a13 8c3b 9311 ab3c 19c5 f7bc 72fc 5e3d
00000170: a3ab 57bc 984a c93c 8fde 293c d80e 34bb
00000180: 52c0 993a bd70 bb3c ed92 a4bc 92c8 a83c
00000190: 266b b03c 8580 413d a09a 79bc c7c0 51bc
000001a0: 7005 e23c 64e3 4b3d f355 4fbc 490b 523c
000001b0: f768 e3bc f65f 503c e998 36bc 582c 8a3c
000001c0: 4912 28bd 2548 bebb 85ec b93b afe3 4c3d
000001d0: 2740 d0ba 1b86 c6bb fc38 7ebc 242c da3b
000001e0: eb1a 5fbc 887f 2dbb 7303 e4bc d7d0 2c3c
000001f0: 38d3 dcbc 77f4 15bd 8661 cdbc fe81 583d

act_conv1.weight f4 [4, 128, 1, 1]
0.0055335704 1.8777846e-06 0.03618565 -0.04580047 0.011059765 0.017500537 0.050102033 0.020813905
0.070770204 -0.10593626 2.5487516e-06 0.024488444 -0.12382449 0.010991872 0.02996609 -0.04893393
0.017187664 -0.049680684 0.028418636 0.008737866 -0.012545089 0.0241215 -0.09222676 0.0064672194
0.01658748 0.036470115 -0.0036914223 -0.037386127 0.009235834 -0.04311844 -0.02319044 0.04107466
8.309615e-06 0.010896818 -0.02651078 0.057102572 -0.06636103 -0.027019318 -0.00030439626 -9.2739305e-05
-0.034051206 -0.038429137 -0.035833716 -0.044046488 0.0029772867 -0.08124062 -0.0010218626 -0.08437715
0.018382473 -0.031829327 0.037551038 0.03263105 0.0025172727 -0.03685779 -0.04819125 0.05899738
-6.388431e-07 -0.104058996 -0.07427953 -0.020043133 -0.07855609 0.029035224 0.04057034 -6.5797336e-05
0.06029148 -0.05080377 0.04762117 -0.0085046645 -0.021964893 -0.005232565 0.037710577 0.009969003
-0.03492359 0.07487156 0.05292068 -0.05598756 0.00064963294 0.0050312527 -0.0625453 -0.022208175
0.012726614 0.039571147 0.009066054 -5.6559216e-05 -0.022696458 3.7610833e-05 -0.07982712 0.07366618
0.04141008 0.006376712 0.011052472 -0.07083612 0.023600426 0.057042774 -0.03142554 0.037932627
-0.036466885 0.054419506 -0.029815119 0.06703866 0.010017087 0.024909293 0.011590367 -0.07267363
-0.00086904934 0.006637243 0.004847472 -0.08584293 0.0279084 0.0628949 -0.026750412 0.018847188
-8.717649e-06 0.0025565005 -0.03556538 -0.00495317 -0.041808926 0.04102754 0.042942684 0.004488366
0.078827694 -0.016778814 -0.014559945 -0.086933434 -0.00086596876 0.046480767 2.892364e-06 -0.0030320527
0.0005461843 0.06368719 -0.055650074 -0.004497527 0.07015009 -0.082127586 -0.05872471 0.06923288
0.07697646 -0.06865262 -0.008242366 -0.1030124 0.0036413353 0.026878659 0.087824985 0.10653771
-0.11534416 -0.04923968 0.008530325 0.013877556 0.03424772 -0.06975165 0.0062723374 -0.026131462
0.055906385 -0.007687693 -0.017105518 0.10107574 0.030268157 -0.08305954 -0.0035331193 -0.043088235
-0.0798614 0.024341736 0.0129629215 -0.009480316 0.06754426 0.05137498 0.010911923 -0.014870631
0.030945504 -0.0014991447 -0.024500443 0.0583607 -0.07748881 0.016002294 -0.049038082 -0.0139740035
-0.11650842 -0.018002342 0.0523516 0.01194231 -0.12264305 0.07558517 0.035285167 -0.051600676
-0.0013863178 0.06146213 0.014665998 0.06865597 0.07091063 0.012462821 -0.025446778 -1.0131418e-05
0.006195946 0.059071645 0.06649895 0.05902861 0.06353495 -0.054724 -0.06586728 0.07171641
0.096654475 0.07453071 0.057521287 -0.06874009 -0.016865328 0.017925534 0.08000006 0.10812491
-0.03854545 -0.023244578 -0.023548849 -0.030215979 0.064182825 0.00017384483 0.07973638 -0.06551435
0.06944651 0.0063546547 0.0081826355 0.029793536 -0.031732365 -0.082532145 0.06406274 0.04931345
0.07624115 0.024347851 -0.06539603 0.021393852 0.09546264 0.062477253 -0.09954406 0.10820552
0.06865712 -0.03246434 -0.035579294 0.12842289 -0.079237014 -0.006596764 0.07735031 -0.038040526
-0.0080578625 0.04714548 0.1370823 -0.12580809 0.016933775 -0.09414454 0.0011401611 0.04434745
-0.010869948 0.022945574 0.08429225 0.006527493 0.032373674 0.023143968 0.018549029 0.022151444
00000000: f452 b53b 3008 fc35 6737 143d 4699 3bbd
00000010: 0434 353c 495d 8f3c ca37 4d3d ec81 aa3c
00000020: f8ef 903d 1cf5 d8bd 380b 2b36 fd9b c83c
00000030: b297 fdbd 4117 343c 727b f53c f26e 48bd
00000040: 25cd 8c3c f97d 4bbd 33ce e83c 4429 0f3c
00000050: eb89 4dbc 749a c53c 62e1 bcbd f8ea d33b
00000060: 78e2 873c b061 153d caeb 71bb 3222 19bd
00000070: e551 173c f69c 30bd e1f9 bdbc e73d 283d
00000080: 8669 0b37 9188 323c 232d d9bc 63e4 693d
00000090: 4be8 87bd 9e57 ddbc 6097 9fb9 097d c2b8
000000a0: 4779 0bbd df67 1dbd 60c6 12bd 176a 34bd
000000b0: 951e 433b 7b61 a6bd 05f0 85ba edcd acbd
000000c0: d796 963c 785f 02bd 1ecf 193d 23a8 053d
000000d0: d4f8 243b 32f8 16bd 3064 45bd 3da7 713d
000000e0: f77c 2bb5 e21c d5bd de1f 98bd 7f31 a4bc
000000f0: 04e2 a0bd 47db ed3c 162d 263d adfc 89b8
00000100: 33f4 763d 9d17 50bd 6a0e 433d 2657 0bbc
00000110: b8ef b3bc f075 abbb 6876 1a3d 0755 233c
00000120: 0a0c 0fbd 4356 993d 5bc3 583d 3653 65bd
00000130: 214c 2a3a 35dd a43b c017 80bd ebed b5bc
00000140: 4a83 503c 5b15 223d c989 143c ff39 6db8
00000150: eced b9bc 53c0 1d38 677c a3bd 4bde 963d
00000160: 9e9d 293d bdf3 d03b 6d15 353c 8712 91bd
00000170: ae55 c13c afa5 693d 11b8 00bd 3e5f 1b3d
00000180: 4d5e 15bd fde6 5e3d d63e f4bc 914b 893d
00000190: b51e 243c 930e cc3c 86e5 3d3c ead5 94bd
000001a0: ead0 63ba 3b7d d93b 8bd7 9e3b 6bce afbd
000001b0: 28a0 e43c 0bcf 803d ae23 dbbc 6b65 9a3c
000001c0: 0442 12b7 f68a 273b 01ad 11bd 344e a2bb
000001d0: d63f 2bbd 7e0c 283d abe4 2f3d 2513 933b
000001e0: 6a70 a13d b973 89bc d68c 6ebc 280a b2bd
000001f0: 2e02 63ba 9e62 3e3d 6f1a 4236 67b5 46bb
00000200: cf2d 0f3a 6e6e 823d 55f1 63bd fe5f 93bb
00000210: daaa 8f3d 8232 a8bd 5289 70bd f8c9 8d3d
00000220: d6a5 9d3d bf99 8cbd fd0a 07bc 2af8 d2bd
00000230: 78a3 6e3b a230 dc3c 96dd b33d 7130 da3d
00000240: 8f39 ecbd 8caf 49bd c7c2 0b3c b05e 633c
00000250: 5647 0c3d f4d9 8ebd 2e88 cd3b a611 d6bc
00000260: 18fe 643d 0be9 fbbb df20 8cbc cc00 cf3d
00000270: edf4 f73c 1f1b aabd e88b 67bb 4a7d 30bd
00000280: 608e a3bd 5268 c73c 6f62 543c 5453 1bbc
00000290: a554 8a3d 926e 523d ecc7 323c f2a3 73bc
000002a0: 6d81 fd3c f37e c4ba 27b5 c8bc a10b 6f3d
000002b0: 74b2 9ebd 3e17 833c 28dc 48bd 38f3 64bc
000002c0: f79b eebd a679 93bc a26e 563d aea9 433c
000002d0: 482c fbbd 66cc 9a3d 2e87 103d 3b5b 53bd
000002e0: 1bb5 b5ba b7bf 7b3d a749 703c 809b 8c3d
000002f0: 9839 913d dc30 4c3c c375 d0bc 1cfa 29b7
00000300: 5d07 cb3b 1cf5 713d 9a30 883d fcc7 713d
00000310: 9d1e 823d 4626 60bd 6de5 86bd 0ee0 923d
00000320: c8f2 c53d 8fa3 983d 719b 6b3d 9bc7 8cbd
00000330: 2829 8abc 92d8 923c 12d7 a33d 9870 dd3d
00000340: d5e1 1dbd 6a6b bebc 84e9 c0bc 8087 f7bc
00000350: 4972 833d 1e4a 3639 d44c a33d 632c 86bd
00000360: f939 8e3d b53a d03b 7610 063c 9311 f43c
00000370: ccf9 01bd 9d06 a9bd 5333 833d e6fc 493d
00000380: 5224 9c3d 2575 c73c 5bee 85bd 2942 af3c
00000390: eb81 c33d 26e8 7f3d c2dd cbbd db9a dd3d
000003a0: 1b9c 8c3d 54f9 04bd 98bb 11bd 4a81 033e
000003b0: 0447 a2bd ab29 d8bb d769 9e3d 62d0 1bbd
000003c0: 2005 04bc 9e1b 413d 4d5f 0c3e d6d3 00be
000003d0: b3b8 8a3c dace c0bd 7571 953a aca5 353d
000003e0: de17 32bc 5bf8 bb3c 6aa1 ac3d 94e4 d53b
000003f0: 429a 043d 6b98 bd3c 22f4 973c f276 b53c

act_conv1.bias f4 [4]
-0.017059477 0.04455567 0.07512259 -0.07041034
00000000: 51c0 8bbc 0280 363d dfd9 993d 4c33 90bd

act_fc1.weight f4 [36, 144]
-0.036633488 -0.06059723 -0.09034601 -0.024181725 -0.034242697 -0.0672649 -0.03397198 -0.072233625
-0.090357326 -0.09896787 -0.039106004 -0.07090191 -0.1207447 -0.0842418 -0.100971475 -0.042693
-0.03669225 -0.02753126 -0.047226187 -0.034857552 -0.04473967 -0.03162198 0.011822443 -0.0040844297
-0.012284859 -0.024146704 -0.08671864 -0.0061542015 0.011390858 0.01891572 -0.01340821 -0.023553241
-0.014744596 -0.023867643 -0.03337889 -0.03242552 0.06702529 0.07569869 -0.002194162 0.038930696
0.014526919 0.017254755 0.019495932 -0.027478123 0.030183053 0.06772126 0.053043798 -0.027177421
0.059513815 0.06389241 0.06412799 -0.024070486 -0.07557816 0.05197447 -0.030308139 -0.10628119
0.06563148 0.08773773 0.048029326 0.05638941 -0.06460944 0.08231908 0.053090133 -0.08100775
0.0030310582 -0.035554215 0.048362806 -0.12471246 0.062035203 0.0031561037 -0.0868952 0.0030170581
0.049119372 -0.032626428 -0.040299237 -0.0007154279 0.0770134 0.0047442243 -0.02095439 -0.098018214
-0.07559924 -0.08971292 -0.06380289 0.025367396 -0.0473358 -0.064099774 -0.017070083 -0.05351072
-0.018021 -0.10597799 0.008216579 -0.0873777 -0.085049376 -0.07278955 -0.06171433 -0.023695525
-0.07284238 -0.038839277 0.026900187 -0.1329835 0.007235331 0.0019092169 -0.012812951 -0.07127923
-0.03214948 -0.10507709 -0.056669313 -0.058632184 -0.06733075 -0.055869024 -0.02934451 -0.08953704
-0.12053885 0.017451884 0.0316942 -0.008217799 0.01979301 -0.06862366 -0.04501981 0.043035273
-0.025749626 -0.038031712 -0.0061117616 0.051180672 -0.027084284 -0.068143226 -0.0036350065 0.052572135
-0.0021621224 -0.014995442 0.017415786 0.051100675 0.029015845 0.020155188 0.030978449 -0.02509659
-0.082836546 -0.000277652 0.067641534 0.020300752 -0.04718952 0.032225147 0.00047020442 -0.0047668675
-0.030121602 -0.01793774 0.022270616 -0.036959916 -0.028683027 -0.026416043 -0.023847807 -0.02600024
-0.013462947 -0.0156262 -0.023043348 -0.02883094 -0.013117516 -0.0092117945 -0.073223375 -0.02362168
0.01558205 0.001590004 -0.046535186 -0.018464416 0.021273028 -0.004961571 -0.060380656 -0.059375077
0.015841477 -0.041381106 0.014848133 0.017380545 -0.0079393415 -0.050931234 -0.010710622 0.020952515
0.02283194 -0.02567161 0.0027600634 -0.03703679 -0.15787822 -0.032386295 -0.016364276 0.12644784
0.022585431 0.07663455 -0.06713597 0.10041686 -0.07784504 -0.04671369 -0.07231342 0.055239283
-0.056736093 -0.010340645 -0.029060304 -0.09776712 -0.027799815 -0.09850469 -0.042301178 0.024282726
-0.074053034 -0.08260383 -0.07539269 -0.02723497 -0.01734082 -0.101801634 -0.009071395 0.015650745
-0.0050008497 -0.11433762 0.023509184 -0.013145839 -0.16560647 0.022372529 -0.09041225 -0.021591717
0.14217235 0.12309976 0.06635294 0.09401856 0.07320397 0.11315579 -0.018560741 0.02735857
0.07533302 0.066758305 0.042770065 0.0037698783 0.059138812 0.05505592 -0.018076425 0.05667707
-0.0116256755 -0.048341475 0.048879266 0.065799914 -0.04119162 -0.026486581 0.0354194 -0.019170327
0.08772366 0.07854559 0.031385045 0.0718437 -2.2867185e-05 -0.03704302 0.059244037 -0.00028379943
-0.07703875 -0.025110407 0.05074517 -0.086282186 0.0067866826 -0.04938308 -0.026521815 -0.06298096
00000000: ff0c 16bd cd34 78bd 5407 b9bd c118 c6bc
00000010: 1242 0cbd 2ec2 89bd 3426 0bbd 39ef 93bd
00000020: 430d b9bd abaf cabd 9e2d 20bd 0535 91bd
00000030: ff48 f7bd f786 acbd 22ca cebd dbde 2ebd
00000040: 9d4a 16bd 3d89 e1bc 3f70 41bd cbc6 0ebd
00000050: f240 37bd 0d86 01bd ecb2 413c aed6 85bb
00000060: 6f46 49bc 4fcf c5bc 8b99 b1bd 2fa9 c9bb
00000070: b9a0 3a3c 24f5 9a3c 1cae 5bbc baf2 c0bc
00000080: 5193 71bc 1386 c3bc 4eb8 08bd 9fd0 04bd
00000090: 8e44 893d ea07 9b3d eecb 0fbb cb75 1f3d
000000a0: 5102 6e3c d859 8d3c efb5 9f3c cd19 e1bc
000000b0: 7342 f73c 72b1 8a3d 7444 593d 2fa3 debc
000000c0: c2c4 733d 06da 823d 8955 833d 782f c5bc
000000d0: b9c8 9abd 2fe3 543d c648 f8bc f4a9 d9bd
000000e0: cc69 863d d7af b33d 66ba 443d 95f8 663d
000000f0: f451 84bd e896 a83d 0a75 593d 64e7 a5bd
00000100: b8a4 463b 4ca1 11bd 1418 463d 3f69 ffbd
00000110: a018 7e3d a2d6 4e3b 1cf6 b1bd d6b9 453b
00000120: 6531 493d 4aa3 05bd d010 25bd 8e8b 3bba
00000130: 34b9 9d3d 7075 9b3b 8aa8 abbc c6bd c8bd
00000140: c6d3 9abd 68bb b7bd 17ab 82bd 49cf cf3c
00000150: 2fe3 41bd be46 83bd 8fd6 8bbc 0f2e 5bbd
00000160: c7a0 93bc fd0a d9bd d59e 063c 14f3 b2bd
00000170: 5e2e aebd b012 95bd 2ac8 7cbd 1e1d c2bc
00000180: 632e 95bd ef15 1fbd c85d dc3c d42c 08be
00000190: 5b16 ed3b b03e fa3a 69ed 51bc d8fa 91bd
000001a0: 2caf 03bd a832 d7bd 151e 68bd 4d28 70bd
000001b0: b4e4 89bd ebd6 64bd e663 f0bc 325f b7bd
000001c0: 13dd f6bd 41f7 8e3c c7d1 013d f2a3 06bc
000001d0: f324 a23c 908a 8cbd b166 38bd c145 303d
000001e0: e1f0 d2bc 24c7 1bbd 2c45 c8bb d3a2 513d
000001f0: dcdf ddbc ad8e 8bbd 4a39 6ebb e155 573d
00000200: 65b2 0dbb 71af 75bc 8dab 8e3c f14e 513d
00000210: a3b2 ed3c 7e1c a53c 84c6 fd3c 5d97 cdbc
00000220: 35a6 a9bd d291 91b9 a587 8a3d c34d a63c
00000230: cc49 41bd 84fe 033d c585 f639 6233 9cbb
00000240: 94c1 f6bc 2bf2 92bc de70 b63c 4863 17bd
00000250: abf8 eabc 7566 d8bc 7a5c c3bc 75fe d4bc
00000260: b193 5cbc 8402 80bc 67c5 bcbc dd2e ecbc
00000270: daea 56bc 11ed 16bc 23f6 95bd 4182 c1bc
00000280: db4b 7f3c ae67 d03a ae9b 3ebd b042 97bc
00000290: c644 ae3c ad94 a2bb b551 77bd 4833 73bd
000002a0: fcc5 813c 3c7f 29bd 9545 733c a561 8e3c
000002b0: 0314 02bc 459d 50bd 9b7b 2fbc 9ca4 ab3c
000002c0: 0c0a bb3c 454d d2bc 2ee2 343b e4b3 17bd
000002d0: d4aa 21be 7ea7 04bd 600e 86bc 8b7b 013e
000002e0: 1505 b93c 93f2 9c3d 957e 89bd 5ba7 cd3d
000002f0: 386d 9fbd db56 3fbd 0f19 94bd 9642 623d
00000300: 1b64 68bd cf6b 29bc e00f eebc 213a c8bd
00000310: 70bc e3bc d4bc c9bd 0044 2dbd 91ec c63c
00000320: 1ea9 97bd 322c a9bd 7c67 9abd df1b dfbc
00000330: 560e 8ebc 607d d0bd 30a0 14bc fe35 803c
00000340: 2bde a3bb d829 eabd 5596 c03c a561 57bc
00000350: be94 29be 9846 b73c 0f2a b9bd 1de1 b0bc
00000360: a195 113e ba1b fc3d 0de4 873d ce8c c03d
00000370: f7eb 953d 39be e73d b20c 98bc 141f e03c
00000380: 3348 9a3d 94b8 883d aa2f 2f3d 1010 773b
00000390: 8a3b 723d 5182 613d 0315 94bc 3726 683d
000003a0: 9e79 3ebc b601 46bd a035 483d 1bc2 863d
000003b0: 8bb8 28bd 63fa d8bc ef13 113d 170b 9dbc
000003c0: 76a8 b33d 83dc a03d 9b8d 003d ca22 933d
000003d0: e8d2 bfb7 6cba 17bd e0a9 723d eaca 94b9
000003e0: 7ec6 9dbd 57b4 cdbc 2bda 4f3d b7b4 b0bd
000003f0: d262 de3b ea45 4abd 4744 d9bc 29fc 80bd

act_fc1.bias f4 [36]
-0.026095003 0.043414883 6.8244175e-05 -0.06535223 0.007984123 -0.063124925 -0.1147803 0.010327538
0.046017054 -0.0757695 -0.06539051 0.029706787 0.08124758 0.06505484 0.022261793 -0.03422139
0.037715614 0.089731544 0.049351197 0.036206257 -0.059880793 0.04482249 0.014869943 0.0602291
-0.058272444 -0.039375696 0.0848978 -0.03683618 0.06215824 -0.04610434 -0.103665166 0.0029942319
0.01295938 0.02825441 0.022727018 0.017949937
00000000: 30c5 d5bc ced3 313d 501e 8f38 64d7 85bd
00000010: d7cf 023c a447 81bd ef11 ebbd d534 293c
00000020: 617c 3c3d 0a2d 9bbd 76eb 85bd a65b f33c
00000030: 2265 a63d 793b 853d 5d5e b63c ba2b 0cbd
00000040: b07b 1a3d 2cc5 b73d 7b24 4a3d 034d 143d
00000050: 9045 75bd ca97 373d 10a1 733c cab2 763d
00000060: 16af 6ebd 6948 21bd e6de ad3d 89e1 16bd
00000070: a399 7e3d e8d7 3cbd 674e d4bd e03a 443b
00000080: 9453 543c cb75 e73c 032e ba3c bf0b 933c

val_conv1.weight f4 [2, 128, 1, 1]
-0.08799754 -0.010822004 0.10733359 -0.022651667 0.06902442 -0.09696899 0.06577812 0.018976705
0.061877787 0.017470904 6.7224714e-06 -0.017156688 0.020911379 0.086885974 0.107957214 -0.079789154
0.07870768 -0.061736308 0.050272234 0.04529259 -0.06424398 0.022462426 0.0181031 0.066755764
0.041295163 0.03226446 -0.07781408 0.008719784 -0.045767963 0.083557785 0.033901043 0.03778322
-0.023295617 0.041556023 -0.036721718 -0.057007283 0.06748069 0.10258965 0.08382612 0.085292496
-0.10069869 -0.015869677 0.018325983 0.024206838 -0.11747246 0.017968958 -0.026836663 0.035668805
-0.122817874 -0.013874262 -0.01753414 0.044716265 0.013640035 0.07706737 0.036015622 0.08387851
-6.2538975e-06 0.032079842 0.06531738 0.060391553 -0.0043391227 0.064756334 0.087378904 -0.035352536
-0.015796097 0.009030544 0.06994355 0.02951728 -0.11674082 0.0013658262 0.016525883 0.07087372
0.057972543 0.10133212 0.058343515 -0.03938371 -0.050389063 -0.124629766 -0.018557308 0.11181742
-0.050984044 -0.0053120614 -0.13545308 -0.018251454 -0.06611239 1.6983713e-05 -0.10092979 0.10953
0.10836028 -0.10629023 0.037505277 0.0011590294 -0.015359142 0.071925335 -0.05088288 0.010793382
0.011063554 -0.11595983 0.04637268 0.0037050936 -0.0515146 -0.08178016 0.03191188 -0.051971484
-0.030338118 -0.0074294447 0.06390668 0.014543682 0.055400375 -0.035279337 0.076935716 0.0655853
0.00045177867 0.048775777 0.0888309 -0.14481124 0.080595605 0.008760986 0.010070254 -0.028027715
0.04821477 -0.10331536 0.030690784 0.043539125 0.038840063 0.04354329 -0.020151407 0.004525033
0.017783016 0.03171434 -0.09391519 -0.056732178 -0.060145553 0.05862536 0.040226012 0.068591714
0.04026112 0.007234808 -0.008731745 0.0615926 -0.032444477 -0.004961675 -0.07206458 -0.11873641
-0.041954078 0.029243935 0.022074353 -0.045285113 0.026434854 0.022985129 0.023390317 0.053668395
-0.002554775 -0.01317775 -0.028265042 -0.08898278 -0.06113894 -0.012879359 0.01920369 0.031031182
0.0014259866 0.07322765 0.025064822 -0.011901126 0.014061476 -0.0007037074 -0.07637634 -0.06531371
0.030502824 0.04017839 0.053443804 0.013988784 0.048642933 0.0075959438 0.077846415 0.028813114
0.029122807 -0.0022282985 -0.0721252 -0.07002285 0.04841024 -0.009694038 0.03646253 -0.0016061706
-0.0024967953 -0.042006515 0.0033874342 0.073206924 0.038311657 0.0069191703 -0.05386231 0.0077932924
0.020166071 0.046644278 -0.08641753 -0.064439446 0.034307864 -0.04507768 -0.06268008 -0.04766676
-0.046822432 -0.098219015 -0.00020378939 0.008406433 0.046368767 -0.021557605 0.061352264 -0.06559802
-0.008766437 -0.069039464 -0.04429397 -0.009664301 0.042338498 -0.0013160767 0.0065019745 -0.078544274
-0.065554656 0.062326197 -0.061735053 -0.0417532 0.0007804929 -0.0037149051 0.06707513 0.022562722
-0.06908327 -0.025222527 0.03916875 -0.078607395 -0.08328957 0.062668346 0.07664757 0.08893356
-0.009681797 -0.061327603 0.07761353 0.030637648 0.06823298 0.0048028105 -0.119278416 -0.014826152
-0.029468749 -0.0845296 -0.05967055 -0.056520656 0.079779215 -0.043224566 -0.0062306444 -0.10800112
-0.024007322 -0.027389677 0.014008166 0.048558082 -0.046314903 -0.054070324 0.0012463067 0.0021720342
00000000: 0e38 b4bd c64e 31bc b7d1 db3d fd8f b9bc
00000010: ad5c 8d3d ae97 c6bd aeb6 863d 0975 9b3c
00000020: 9073 7d3d 241f 8f3c 9791 e136 2f8c 8cbc
00000030: 574e ab3c 46f1 b13d ac18 dd3d 7f68 a3bd
00000040: 7e31 a13d 36df 7cbd 42ea 4d3d b984 393d
00000050: 5992 83bd 1f03 b83c f44c 943c 3fb7 883d
00000060: 1e25 293d bd27 043d fd5c 9fbd 6ddd 0e3c
00000070: 3077 3bbd 5820 ab3d d2db 0a3d 94c2 1a3d
00000080: 73d6 bebc a636 2a3d 8369 16bd 7880 69bd
00000090: 5133 8a3d 861a d23d 07ad ab3d d5ad ae3d
000000a0: 1d3b cebd 2001 82bc 5f20 963c 6b4d c63c
000000b0: 6795 f0bd a333 933c 90d8 dbbc 7419 123d
000000c0: f087 fbbd df50 63bc c2a3 8fbc 6728 373d
000000d0: 747a 5f3c 7fd5 9d3d 1e85 133d 7fc8 ab3d
000000e0: 92d8 d1b6 2766 033d 1ec5 853d 225d 773d
000000f0: 332f 8ebb f89e 843d b6f3 b23d d2cd 10bd
00000100: d166 81bc d9f4 133c 903e 8f3d 39ce f13c
00000110: d015 efbd 8605 b33a 4a61 873c 3e26 913d
00000120: 9e74 6d3d 3787 cf3d 9cf9 6e3d d050 21bd
00000130: c364 4ebd e43d ffbd 7f05 98bc 8800 e53d
00000140: a5d4 50bd cd10 aebb 36b4 0abe 1384 95bc
00000150: ef65 87bd 3f78 8e37 47b4 cebd 4451 e03d
00000160: ffeb dd3d b1ae d9bd 229f 193d 93ea 973a
00000170: e9a4 7bbc 974d 933d 916a 50bd bad6 303c
00000180: e943 353c 597c edbd 48f1 3d3d 28d1 723b
00000190: f900 53bd 5b7c a7bd 08b6 023d 0de0 54bd
000001a0: a587 f8bc b372 f3bb 81e1 823d a048 6e3c
000001b0: 81eb 623d 1181 10bd 7990 9d3d 9651 863d
000001c0: b5dc ec39 1cc9 473d faec b53d 6649 14be
000001d0: 4f0f a53d 3d8a 0f3c b5fd 243c 619a e5bc
000001e0: da7c 453d 0197 d3bd 3d6b fb3c 1556 323d
000001f0: c216 1f3d 735a 323d 9014 a5bc ba46 943b
00000200: b0ad 913c e5e6 013d 9b56 c0bd 0060 68bd
00000210: 2f5b 76bd 2521 703d 08c4 243d d079 8c3d
00000220: d8e8 243d f811 ed3b 980f 0fbc 8648 7c3d
00000230: 80e4 04bd 8c95 a2bb 9896 93bd 132c f3bd
00000240: 0ad8 2bbd fa90 ef3c 46d5 b43c e27c 39bd
00000250: e88d d83c 4f4b bc3c 0d9d bf3c 64d3 5b3d
00000260: 036e 27bb 7de7 57bc 178c e7bc 9b3c b6bd
00000270: d36c 7abd f203 53bc 0f51 9d3c 1b35 fe3c
00000280: 2ce8 ba3a 61f8 953d be54 cd3c f1fc 42bc
00000290: 1b62 663c 0179 38ba 336b 9cbd 32c3 85bd
000002a0: 0fe1 f93c 1892 243d e4e7 5a3d 3631 653c
000002b0: d03d 473d 65e7 f83b f16d 9f3d 7b09 ec3c
000002c0: f492 ee3c a508 12bb 60b6 93bd 2468 8fbd
000002d0: d149 463d bed3 1ebc bc59 153d 2486 d2ba
000002e0: 46a1 23bb 060f 2cbd b7ff 5d3b 83ed 953d
000002f0: afec 1c3d 35ba e23b ba9e 5cbd e05e ff3b
00000300: 5133 a53c 120e 3f3d adfb b0bd d4f8 83bd
00000310: 6786 0c3d 60a3 38bd 6a5e 80bd 383e 43bd
00000320: e1c8 3fbd 0d27 c9bd 4cb0 55b9 23bb 093c
00000330: 2ded 3d3d 9399 b0bc 834c 7b3d 4158 86bd
00000340: 1aa1 0fbc 9064 8dbd 986d 35bd 0457 1ebc
00000350: 226b 2d3d 3580 acba 840e d53b d2db a0bd
00000360: 8541 86bd c149 7f3d e5dd 7cbd 6705 2bbd
00000370: fe99 4c3a c475 73bb b05e 893d 75d5 b83c
00000380: 887b 8dbd 799f cebc 696f 203d eafc a0bd
00000390: b993 aabd 4358 803d 67f9 9c3d cc22 b63d
000003a0: 66a0 1ebc a732 7bbd d8f3 9e3d cefb fa3c
000003b0: bcbd 8b3d e560 9d3b 3e48 f4bd 63e9 72bc
000003c0: 7268 f1bc db1d adbd 1b69 74bd 3482 67bd
000003d0: 4963 a33d 3e0c 31bd 6f2a ccbb b12f ddbd
000003e0: 01ab c4bc 5160 e0bc 8282 653c d7e4 463d
000003f0: b2b4 3dbd d878 5dbd 1d5b a33a b058 0e3b

val_conv1.bias f4 [2]
0.047223195 0.081808396
00000000: 1c6d 413d 298b a73d
