models/Training/AC_nmcts20/train_026.pth (torch, 424031 bytes, 15 tensors)

conv1.weight f4 [32, 5, 3, 3]
0	0x3d9153bd	0.0709605
1	0xbe08d61a	-0.13362923
2	0xbd19ff40	-0.03759694
3	0x3e04ad1c	0.12956661
4	0xbe420ec2	-0.18950942
5	0xbb45aee8	-0.0030164067
6	0x3da52380	0.08063412
7	0xbdd65d82	-0.10467054
8	0x3caa48dc	0.020786695
9	0xbb6d2fce	-0.0036191824
10	0xbc20f239	-0.009823375
11	0x3e1880a5	0.14892824
12	0x3d859b75	0.06523792
13	0xbdf70f2a	-0.12063439
14	0x3e02e780	0.12783623
15	0x3c5e5303	0.013569596
16	0xbca93825	-0.020656655
17	0x3dfe21a9	0.12408764
18	0xb7134c32	-8.779623e-06
19	0x32843614	1.5391414e-08
20	0xb2a1c20a	-1.8831106e-08
21	0x3426c77e	1.553253e-07
22	0x34daf23d	4.0781916e-07
23	0xb8ca610c	-9.650187e-05
24	0xb94a31f6	-0.00019282833
25	0x33b7cacc	8.55849e-08
26	0x3220cf8b	9.3604156e-09
27	0x3df8f637	0.12156337
28	0x3d3d417e	0.046205036
29	0xbd74939e	-0.05971109
30	0xbe144dd0	-0.14482808
31	0xbdbba1ce	-0.09161721
32	0x3c2c2971	0.010507927
33	0x3d3c578a	0.04598192
34	0xbdf81e9e	-0.12115215
35	0x3dcc1d32	0.09966506
36	0xb3110242	-3.3762497e-08
37	0x35a6bd85	1.2423121e-06
38	0xb49e9475	-2.953781e-07
39	0xb39596b2	-6.9657645e-08
40	0xba4aa2aa	-0.00077299273
41	0x34232910	1.5195496e-07
42	0x333fa108	4.461711e-08
43	0xb484a11e	-2.4704144e-07
44	0xb9036ee8	-0.0001253445
45	0xbd14f1fa	-0.03636358
46	0x3e2d7861	0.16940452
47	0x3da15579	0.07877631
48	0xbd559bab	-0.05215041
49	0x3d2d5d99	0.04232559
50	0xbd000be5	-0.031261344
51	0x3dd34d4e	0.10317479
52	0x3da8fed1	0.08251727
53	0x3e0d7dbf	0.138175
54	0x3d83ed1f	0.06441712
55	0xbe2b9c0b	-0.16758744
56	0x3a00ef24	0.0004918447
57	0x3d2b696a	0.041848578
58	0x3d8a7274	0.067601115
59	0x3cf94c7d	0.03043198
60	0xbd781b0a	-0.06057266
61	0xbd76565f	-0.060140964
62	0x3dc14716	0.09437387
63	0x37161628	8.945855e-06
64	0x351f721a	5.9398155e-07
65	0xb2da2c97	-2.5398817e-08
66	0xbb51532f	-0.003194045
67	0x33917b8e	6.774563e-08
68	0x3421d08c	1.5070162e-07
69	0xbb4c3f10	-0.0031165518
70	0x34a7dacb	3.1265367e-07
71	0x36bab4d7	5.5642845e-06
72	0xbdf2b806	-0.11851506
73	0x3e1175ac	0.14205045
74	0xbdb553ef	-0.088539
75	0xbccb4f17	-0.024817986
76	0xbdea3f1d	-0.11437819
77	0xbdc45c40	-0.09587908
78	0xbdc3f999	-0.09569091
79	0x3db8983f	0.09013414
80	0xbb98afe2	-0.0046596387
81	0x35133d7b	5.4851233e-07
82	0x3c287774	0.010282386
83	0xb5f65444	-1.8352953e-06
84	0x34418a78	1.80249e-07
85	0xb712d414	-8.751656e-06
86	0xbbb4d368	-0.0055183657
87	0xb6693d99	-3.475556e-06
88	0x3b2790ae	0.0025568414
89	0xb4bc76d4	-3.5104188e-07
90	0xbdcff61b	-0.10154363
91	0x3d325fc9	0.04354838
92	0x3de9f70c	0.114240736
93	0xbc76b75f	-0.0150583675
94	0x3d3e4103	0.04644872
95	0x3e2f4b2c	0.1711852
96	0xbdeb1f6d	-0.11480603
97	0xbde5e9c5	-0.112262286
98	0x3c7e9110	0.015537515
99	0xbd84f262	-0.06491543
100	0xbc074ea9	-0.0082585
101	0xbd87e1f8	-0.06634897
102	0x3c5bfd0b	0.013427029
103	0xbd3ca804	-0.04605867
104	0x3db27beb	0.08715042
105	0x3e291050	0.16510129
106	0xbc2f6b54	-0.010706741
107	0x3d906fcc	0.070525736
108	0xb99809a2	-0.00028998876
109	0x380ed412	3.4052944e-05
110	0x353919ad	6.8955234e-07
111	0xb2535f48	-1.2303481e-08
112	0x3acec1df	0.0015774331
113	0xbc1d50f9	-0.009601825
114	0x35336f58	6.684472e-07
115	0x353ec323	7.1064477e-07
116	0xb48d7a74	-2.6352393e-07
117	0x3d46bc9a	0.04851971
118	0xbae130a2	-0.0017180631
119	0xbdf7ddcc	-0.12102851
120	0xbda7e529	-0.08198006
121	0xbcfdfb6d	-0.031003678
122	0x3db3ff72	0.08788957
123	0x3d6cc48f	0.05780464
124	0x37dc7d60	2.6284426e-05
125	0x3d282a13	0.04105575
126	0xb87b9d65	-5.998965e-05
127	0x3b6a75fc	0.003577589
128	0x35ef7c45	1.7843055e-06
129	0xbc19e6c9	-0.009393402
130	0xb0f2e717	-1.7673497e-09
131	0xbc0a1ef5	-0.008430232
132	0xbaf559ed	-0.0018718817
133	0xb337625c	-4.2697465e-08
134	0xb4c0e34e	-3.5928173e-07
135	0x3db9c1bf	0.09070157
136	0xbe064785	-0.1311322
137	0xbd160017	-0.03662118
138	0x3d10d310	0.035357535
139	0x3d2ccec9	0.042189393
140	0xbb1df5c1	-0.002410278
141	0x3e0f68d3	0.14004831
142	0x3e37ba35	0.17942126
143	0x3e17f38e	0.14839002
144	0x3d2ec97c	0.04267262
145	0x3d5430df	0.05180442
146	0xbdb5df83	-0.08880522
147	0xbc039e39	-0.008033329
148	0xbe33bbe6	-0.17552146
149	0xbe013a05	-0.12619789
150	0x3dbbc87d	0.091690995
151	0x3d27a198	0.040925592
152	0xbde146f1	-0.10999859
153	0xb9a1988c	-0.0003082197
154	0x337a2f9d	5.8250965e-08
155	0x37168424	8.971463e-06
156	0xb3c73f4c	-9.278173e-08
157	0xb8a4e171	-7.862121e-05
158	0x35ada5dd	1.2937777e-06
159	0x351a7876	5.7544764e-07
160	0x35e7f8b6	1.7283226e-06
161	0xbb0746f7	-0.0020641664
162	0x3d6230b9	0.055222247
163	0x3e0da1c9	0.13831247
164	0x3dc16ea1	0.09444929
165	0xbe31f171	-0.17377259
166	0x3de8ff5f	0.11376833
167	0x3cfca820	0.030841887
168	0x3d77a2ef	0.06045812
169	0x3d5f72fb	0.054553013
170	0x3ca4d398	0.020120427
171	0x3c0b5260	0.008503526
172	0x38547bc0	5.065999e-05
173	0xb8e58f86	-0.00010946304
174	0x32f52772	2.8539691e-08
175	0x382551e2	3.9415325e-05
176	0xb541df9f	-7.2223514e-07
177	0xb4307307	-1.6433124e-07
178	0x3bd8565c	0.0066020917
179	0xb399ac62	-7.155974e-08
180	0x3e0253fe	0.12727353
181	0xbccd1048	-0.025032178
182	0x3df09b34	0.11748353
183	0x3d4b5542	0.049641855
184	0x3bc9a53e	0.0061537316
185	0x3d1aa750	0.037757218
186	0x3d30b6f9	0.043143246
187	0x3d085c82	0.033291347
188	0xbddddcf9	-0.10833163
189	0x3e03efd0	0.1288445
190	0xbe0024c0	-0.12514019
191	0x3dc0105e	0.09378122
192	0x3da7927d	0.08182237
193	0x3d5a599a	0.053308107
194	0x3ddf6cae	0.10909401
195	0x3dc6f62a	0.09714921
196	0x3cdd71b7	0.027031763
197	0xbdf61ee0	-0.12017608
198	0x35bb2779	1.3944074e-06
199	0xb48805e6	-2.5336266e-07
200	0x3a0615a0	0.0005114917
201	0xbc2a4ddf	-0.0103945425
202	0xb9a4e170	-0.00031448482
203	0x33ae71c6	8.123202e-08
204	0xbaa29226	-0.0012403175
205	0xb81ea909	-3.782756e-05
206	0x32052eaa	7.752229e-09
207	0x3e08abb8	0.13346756
208	0xbc1aaf6e	-0.00944124
209	0x3e05cbfd	0.13066097
210	0x3c48f1ad	0.012264651
211	0x3d3a03c3	0.045413744
212	0x3e2556e1	0.16146423
213	0x3df3ddff	0.11907577
214	0x3d0f9fe0	0.035064578
215	0x3c232d59	0.009959542
216	0xb3e1f06d	-1.0521112e-07
217	0xb52c7aa3	-6.4253453e-07
218	0xb30da8d8	-3.2982683e-08
219	0x39a35924	0.00031156198
220	0xb3806c23	-5.9801344e-08
221	0xb3470131	-4.633438e-08
222	0xb6905bf5	-4.3022396e-06
223	0xba24068f	-0.0006257081
224	0x3c180b83	0.009280088
225	0x3daf1a97	0.085499935
226	0x3e0e4c75	0.13896354
227	0x3e011eff	0.1260948
228	0x3e136888	0.14395344
229	0xbdab08d3	-0.083512925
230	0xbcb9a076	-0.022659522
231	0x3e034929	0.12820877
232	0x3e312c5d	0.1730208
233	0xbdbe4a8f	-0.09291565
234	0x3dd9ae41	0.106289394
235	0x3dd04775	0.10169879
236	0x3d092c09	0.03348926
237	0x3d398ee7	0.045302298
238	0xbdfa44d8	-0.12220162
239	0xbd6534da	-0.055958606
240	0x3d5d8a40	0.054086924
241	0xbdc7f480	-0.097634315
242	0xbcb3041a	-0.021852542
243	0xbb8cba3e	-0.0042946627
244	0x334f9008	4.832694e-08
245	0x3b1822b8	0.0023214053
246	0xb2c9c82e	-2.349051e-08
247	0xbb528785	-0.0032124233
248	0xb86ccabe	-5.6455603e-05
249	0x3448a65a	1.868697e-07
250	0xba122aa7	-0.00055758137
251	0xb60cd9a2	-2.0988305e-06
252	0x3cc2edd7	0.023795052
253	0x3d870503	0.06592753
254	0x3c9242ec	0.017854176
255	0x3d81458f	0.063120954

conv1.bias f4 [32]
0	0x3dd2a857	0.102860145
1	0x3ccf801d	0.025329644
2	0xbcc9b339	-0.024621593
3	0x3dd66247	0.10467964
4	0xbd8aa022	-0.06768824
5	0xbe166a00	-0.14688873
6	0x3a0e2652	0.000542258
7	0x3dac724c	0.08420238
8	0x3d76088c	0.060066745
9	0xbdb31a91	-0.087453015
10	0x3e350cee	0.17680714
11	0xbd5e9dac	-0.054349586
12	0x3e180299	0.14844741
13	0x3e08c89e	0.1335778
14	0xbd7696b9	-0.060202334
15	0xbd5502a1	-0.05200446
16	0xbd1253be	-0.035724394
17	0xbda820b4	-0.082093626
18	0xbd11beda	-0.0355824
19	0x3e178871	0.14798142
20	0xbd42cf66	-0.04756107
21	0x3d58c13a	0.05291865
22	0x3bc0c020	0.005882278
23	0xbd86f793	-0.0659019
24	0xbdc78faf	-0.09744202
25	0x3d8cf95c	0.06883499
26	0xbdf53556	-0.11973064
27	0x3e0cecf4	0.13762265
28	0x3dff5b28	0.124685585
29	0xbda539b2	-0.08067645
30	0xbdb898d0	-0.09013522
31	0x3dc0e4d1	0.09418643

conv2.weight f4 [64, 32, 3, 3]
0	0xbcf0032c	-0.029298387
1	0x3d2c178d	0.042014647
2	0x3c0d1926	0.008611953
3	0x3cc1f722	0.023677412
4	0xbd3e5791	-0.04647023
5	0xbd61be1a	-0.055112936
6	0xbd2eb45f	-0.042652484
7	0x3ce00108	0.027344242
8	0xbc9581de	-0.018250402
9	0xbd192738	-0.037390918
10	0xbd4488e4	-0.04798211
11	0xbccb41bd	-0.02481162
12	0x3d2a5d27	0.041592743
13	0x3d2fbe14	0.042905882
14	0x3d4fb749	0.050711904
15	0x3d0f5795	0.034995634
16	0x3c6f3ac4	0.014601413
17	0x3d561e11	0.052274767
18	0xbd66d110	-0.05635172
19	0xbca23d94	-0.019804753
20	0xbd04cbde	-0.032420985
21	0x3c86f748	0.016475335
22	0x3ce808d3	0.02832452
23	0x3bdf5e71	0.006816678
24	0x3c88d1cc	0.016701601
25	0x3c22e5ce	0.009942485
26	0xbd1a74b0	-0.037708938
27	0xbd8889b2	-0.06666888
28	0xbbc53cd2	-0.0060192132
29	0x3cfe74cc	0.031061552
30	0x3bdaf667	0.0066822055
31	0xbb4b3d4d	-0.003101188
32	0xba7d6b47	-0.00096671697
33	0x3d2a5d8f	0.04159313
34	0x3cb2652f	0.021776764
35	0x3d8af0ac	0.06784186
36	0x3b8d4241	0.0043108766
37	0x3d582778	0.052772015
38	0xbd0ee8a9	-0.03488985
39	0x3ce45f29	0.027877407
40	0x3d722ab9	0.059122775
41	0xbc5711d5	-0.01312681
42	0x3bcceca9	0.006253798
43	0x3c06cd6b	0.008227686
44	0xbcb12b24	-0.021627016
45	0xbd3f66cb	-0.04672889
46	0x3c00830d	0.007843745
47	0x3c0103c9	0.007874438
48	0xbd025b67	-0.03182545
49	0xbc69b5c6	-0.01426453
50	0x3c5a7728	0.013334073
51	0xbc8c1b61	-0.017102899
52	0x3d85db3f	0.065359585
53	0x3cf6baa3	0.030118292
54	0xbcb64038	-0.022247419
55	0xbcdaaf0c	-0.026694797
56	0xbd84ea5a	-0.064900115
57	0xb9213cc4	-0.00015376793
58	0x3cf1ae06	0.029501926
59	0xbb39cb44	-0.0028349916
60	0x3d01ff0c	0.031737372
61	0xbceda7b8	-0.029010639
62	0xbce66185	-0.028122673
63	0x3c6742f0	0.01411508
64	0xbd1f4fc4	-0.03889443
65	0x3ceb5333	0.028726196
66	0xbd21a38f	-0.039462622
67	0x3dacf730	0.08445585
68	0x3d0ab032	0.03385944
69	0x3d3e67b6	0.046485625
70	0xbc76c368	-0.015061237
71	0xbb486054	-0.0030574994
72	0xbd9a84dc	-0.07544872
73	0xbc91c4bb	-0.017794004
74	0xbc18fe54	-0.00933798
75	0xbd6660f2	-0.056244798
76	0x3d2a8392	0.04162938
77	0xbd8b124a	-0.06790598
78	0xbcd1c3ea	-0.025606114
79	0x3cdc8f34	0.026923753
80	0x3d32e9a2	0.04367984
81	0x3c8355b1	0.016032072
82	0xbd345249	-0.044023786
83	0xbd144cc3	-0.03620602
84	0x3d13fee8	0.03613177
85	0xbd7702a4	-0.060305253
86	0xbcf940b0	-0.030426353
87	0x3d664abc	0.056223616
88	0x3d1c7ab6	0.038202964
89	0xba455606	-0.0007527772
90	0xbd54655e	-0.051854484
91	0x3c8e52a1	0.017373385
92	0xbd88326e	-0.06650244
93	0xbd6bac67	-0.057537463
94	0xbd806e81	-0.06271077
95	0xbdba2f48	-0.090910494
96	0xbd255830	-0.040367305
97	0xbcc5086e	-0.024051871
98	0xbce17fed	-0.02752682
99	0x3ca43021	0.02004248
100	0x3d83fb27	0.06444388
101	0xbbc5b639	-0.0060336855
102	0xbd73fd02	-0.05956746
103	0x3caba512	0.020952735
104	0x3d4df93f	0.050286528
105	0x3c287c37	0.010283521
106	0x3d16fac6	0.03686025
107	0xbd3948be	-0.045235388
108	0xbdbdfd00	-0.092767715
109	0xbd2b332e	-0.041796856
110	0xbdb027ad	-0.086013176
111	0xbb899e65	-0.0041997903
112	0x3d74d562	0.05977381
113	0xbdb33f18	-0.087522686
114	0xbd3cad0d	-0.04606347
115	0xbd291011	-0.041275088
116	0xbb14de3d	-0.0022715472
117	0xbd99c9c5	-0.075091876
118	0xbd5a19d8	-0.053247303
119	0x3cbc4fac	0.02298721
120	0xbd812fd5	-0.06307951
121	0x3cf94e5f	0.030432878
122	0xbc8af27e	-0.016961332
123	0xbd5a7988	-0.053338557
124	0x3be448d4	0.0069666896
125	0xbc206e4a	-0.00979192
126	0xbc73175d	-0.014837113
127	0x3c260834	0.010133792
128	0xbd4b74f7	-0.049672093
129	0xbd3c149a	-0.045918085
130	0xbcff405e	-0.031158622
131	0x3b5203f1	0.0032045806
132	0xbd98e5b0	-0.074656844
133	0xbb9372a0	-0.0044997483
134	0x3d36a14a	0.04458741
135	0xbd1f7dde	-0.038938396
136	0xbc87071e	-0.016482886
137	0xbcfaa6fa	-0.030597199
138	0xbd332935	-0.04374047
139	0xb9ca4156	-0.0003857712
140	0xbcc09b38	-0.023511514
141	0xbba08814	-0.0048990343
142	0xbd307569	-0.04308072
143	0xbd3dc49c	-0.04633008
144	0x3d73d30d	0.059527446
145	0xbd36899f	-0.04456484
146	0xbd610d24	-0.054944173
147	0xbcdd8f5a	-0.027045894
148	0xbd76b446	-0.060230516
149	0xbd1be3cc	-0.03805904
150	0xbb3c8c8c	-0.0028770296
151	0x3ceb0d1e	0.028692778
152	0xbcae3040	-0.021263242
153	0xbc9f7667	-0.019465638
154	0x3d25026f	0.040285524
155	0x3c15caa0	0.009142548
156	0xbd36e0f3	-0.044648122
157	0xbc5f4e92	-0.0136295725
158	0x3d9536a4	0.072858125
159	0x3c067371	0.008206234
160	0x3d43ab71	0.04777092
161	0xbd0ac4a2	-0.03387893
162	0xbcd5c9da	-0.026097227
163	0x3bdba81f	0.006703391
164	0x3d5f063c	0.054449305
165	0x3ab4c69a	0.0013792098
166	0xbd62eb21	-0.055400018
167	0x3c566a3b	0.013086851
168	0x3d1ddf6b	0.038543146
169	0xbcf6a392	-0.030107293
170	0x3cfe60e7	0.031052066
171	0x3c7c2d7d	0.015391705
172	0xbd7ea150	-0.06216556
173	0xbd3e0bed	-0.046398092
174	0xbbfb073c	-0.0076607745
175	0x3d287a41	0.041132215
176	0xbd29b360	-0.04143083
177	0x3ba3ccaa	0.004998763
178	0xbd5b583d	-0.053550947
179	0xbdc4cb33	-0.0960907
180	0xbd51a335	-0.051181037
181	0x3d1f03ab	0.038821857
182	0x3ac22556	0.0014812152
183	0xbaae1d7d	-0.0013283935
184	0x3d5e3878	0.05425307
185	0x3c9a033f	0.018800376
186	0x3bf2ab62	0.0074056843
187	0x3c8fb8b6	0.017544132
188	0xbb09472c	-0.0020946963
189	0xb926f18d	-0.00015920978
190	0x3b2423c7	0.002504574
191	0xbd56ff91	-0.05248982
192	0xbcabeedb	-0.020987919
193	0x3d3ac169	0.045594607
194	0xbc36f8c2	-0.011167707
195	0xbca960a7	-0.02067597
196	0xbd90ba46	-0.07066779
197	0xbd9597a5	-0.073043145
198	0x3d7526ba	0.059851386
199	0x3b135e75	0.002248672
200	0xbbe7e643	-0.00707701
201	0xbd31f1d3	-0.043443512
202	0xbcaf3185	-0.021385917
203	0xbb2c6e80	-0.002631098
204	0xbd5180e9	-0.05114833
205	0x3bad8155	0.0052949586
206	0xbd513569	-0.051076327
207	0x3d8322c4	0.064031154
208	0xbd105a62	-0.035242446
209	0xbd3bbcb8	-0.045834273
210	0x3c517a6c	0.012785535
211	0x3c89a706	0.016803276
212	0xbd0ce4ce	-0.034397893
213	0x3cb924a8	0.022600487
214	0x3da3d2e9	0.07999212
215	0x3dae211d	0.085024096
216	0x3b62577b	0.0034537006
217	0x3ca3a512	0.019976173
218	0x3d163ee6	0.03668108
219	0xbc8c8943	-0.017155295
220	0x3c47a640	0.012185633
221	0xbd9148d9	-0.07093973
222	0x3d72b1d9	0.05925164
223	0xbc99ed10	-0.018789798
224	0xbcd5c5b0	-0.026095241
225	0x3c8ccdbb	0.017187944
226	0x3d3ceda7	0.04612508
227	0x3c8ba132	0.017044637
228	0xbc92ca46	-0.017918717
229	0xbcdedae8	-0.027203992
230	0xbd53c003	-0.05169679
231	0x3d15cfa7	0.036574986
232	0x3bc16194	0.005901525
233	0x3cdffa1e	0.027340945
234	0x3cb58fef	0.02216336
235	0x3d2f0404	0.04272844
236	0x3c91b564	0.01778669
237	0x3d2ca189	0.04214624
238	0xba98b54c	-0.001165071
239	0x3d8cf680	0.06882954
240	0x3d6f78aa	0.058464684
241	0x3c430988	0.011904128
242	0x3bd07f82	0.0063628564
243	0x3b6ab1dd	0.0035811581
244	0xbd8c8693	-0.068616055
245	0xbc7fd821	-0.015615494
246	0x3c7a76c2	0.015287103
247	0xbd4c7d1d	-0.049924005
248	0xbcbd16d3	-0.023082172
249	0xbd50ca85	-0.050974388
250	0xbd344cb8	-0.044018477
251	0xbd4cc264	-0.049990073
252	0xbcbf54e8	-0.023355916
253	0x3d2bcc50	0.041942894
254	0x3d2b0c59	0.041759823
255	0x3cb5f581	0.022211792

conv2.bias f4 [64]
0	0x3cc4bf17	0.0240169
1	0x3c959bcf	0.018262772
2	0xbd8f69bf	-0.07002591
3	0xbd219bb7	-0.039455142
4	0xbc9cf6f6	-0.019160729
5	0x3d792c82	0.06083346
6	0x3d473b38	0.04864046
7	0x3cf61a1d	0.030041749
8	0xbc9164fa	-0.017748345
9	0x3d873745	0.06602339
10	0xbd2a2387	-0.041537788
11	0xbcbd6b36	-0.023122411
12	0x3d4aef0b	0.049544375
13	0xbd103ce3	-0.035214316
14	0x3c055870	0.008138761
15	0xbca3edb1	-0.020010801
16	0x3bbf7bec	0.00584363
17	0x3da3a159	0.07989759
18	0x3d056851	0.032570187
19	0x3d490170	0.049073637
20	0x3baa96ea	0.0052059786
21	0xbcae9f79	-0.021316277
22	0x3d8c34a8	0.06845981
23	0x3d7aa498	0.061192125
24	0x3cd86a7d	0.026417965
25	0x3db87b68	0.09007913
26	0xba9836b5	-0.0011612984
27	0x3d480891	0.048836295
28	0xbd59582e	-0.05306261
29	0xbcf4d681	-0.02988744
30	0x3d8c6465	0.06855086
31	0x3d65d3bb	0.056110125
32	0x3c0ecde4	0.00871608
33	0x3cb87686	0.022517454
34	0x3c7b9594	0.015355486
35	0x3daee40f	0.085395925
36	0x3d003a4a	0.03130559
37	0xbd0058f3	-0.03133483
38	0x3a1f70e6	0.0006082192
39	0x3d96088d	0.0732585
40	0x3d06f726	0.032950543
41	0xbcb60516	-0.022219222
42	0xbd865fa2	-0.06561209
43	0xbd04a6b9	-0.03238556
44	0xbb85d754	-0.004084507
45	0x3d549bc9	0.05190638
46	0xbd200a54	-0.03907235
47	0x3d853c18	0.065056026
48	0x3d53e328	0.051730305
49	0xbd47e3c3	-0.048801195
50	0x3d320dda	0.04347024
51	0x3d7722bb	0.060335856
52	0x3da90506	0.08252911
53	0xb906b7f9	-0.00012847771
54	0x3d1bc662	0.03803099
55	0x3da165b6	0.07880728
56	0xbc2a601e	-0.010398893
57	0x3d2f701e	0.042831533
58	0xbd1f287c	-0.03885697
59	0xbc15f923	-0.009153637
60	0x3bb7c2ac	0.0056079235
61	0xbcdd67e3	-0.027027076
62	0xbd197167	-0.037461665
63	0xbc51e354	-0.012810547

conv3.weight f4 [128, 64, 3, 3]
0	0x3cb3a4ad	0.02192911
1	0x3d1e7d22	0.038693555
2	0xbc47f39c	-0.012204077
3	0xbcdbe2e2	-0.026841585
4	0xbcc0221b	-0.023453763
5	0xbcc1d70f	-0.023662118
6	0x3b48cf33	0.0030641078
7	0xbc1eb664	-0.00968704
8	0x3c2984dd	0.0103466185
9	0x3ceda381	0.029008629
10	0x3d0343e5	0.03204717
11	0x3d2a60f0	0.041596353
12	0xbd184b34	-0.037181094
13	0x3d0bf987	0.034173515
14	0xbb81018e	-0.003936953
15	0xbc350186	-0.0110477265
16	0xbb97215c	-0.004612131
17	0xbc10a692	-0.008828776
18	0x3d7d45c2	0.061834104
19	0xbd01669e	-0.031592004
20	0xbc4a50b5	-0.012348344
21	0x3ccdf7a5	0.0251425
22	0xbc01f171	-0.007931099
23	0x3cd5e495	0.026109973
24	0xbd4ddbc5	-0.050258417
25	0xbd118d6b	-0.035535257
26	0x3ce5fde5	0.028075168
27	0x3c71704d	0.014736247
28	0xbc76e9d9	-0.015070402
29	0x3dabda1d	0.08391211
30	0xbcfd0919	-0.030888127
31	0x3c612fbc	0.013744291
32	0x3da67bc6	0.08129077
33	0x3c807fe3	0.015685981
34	0x3d394067	0.045227434
35	0xbd546ca3	-0.051861417
36	0x3c014822	0.007890733
37	0xbb7a2977	-0.0038171688
38	0xbd56c97d	-0.052438248
39	0xbcae6244	-0.021287091
40	0xbd39f508	-0.045399696
41	0xbcfebc86	-0.031095754
42	0xbd2151ad	-0.039384533
43	0xbc153d78	-0.009108894
44	0x3d10a934	0.035317615
45	0x3cfd176e	0.030894961
46	0x3b82467c	0.0039756875
47	0xbcf3c917	-0.029758973
48	0x3d812d3e	0.063074574
49	0x3c3f9625	0.011693512
50	0xbd0d73cb	-0.034534257
51	0x3d03e1af	0.03219765
52	0xbd650405	-0.055912036
53	0x3c5053b2	0.012715267
54	0x3cb31a3e	0.0218631
55	0xba3ff45f	-0.0007322486
56	0xbcc4a89c	-0.02400618
57	0xbcd60e83	-0.026129967
58	0xbce1987b	-0.027538529
59	0xbc29507a	-0.0103341285
60	0x3c75484f	0.014970853
61	0xbcc7e147	-0.024399413
62	0xbc513642	-0.012769284
63	0x3bcad6dc	0.006190164
64	0xbc0adf10	-0.008476034
65	0x3d1a9d2c	0.037747547
66	0xbcc8a023	-0.024490422
67	0x3cee1247	0.02906145
68	0xbbad9c07	-0.005298141
69	0x3cc86df6	0.024466496
70	0xbbbc3c50	-0.0057444945
71	0x39e01499	0.00042739956
72	0x3bb0f31c	0.0054000746
73	0x3c63764a	0.013883183
74	0xbd14c30e	-0.03631883
75	0x3ce1b832	0.027553651
76	0x3c67ae83	0.014140728
77	0xbc09b660	-0.008405298
78	0x3cfb737a	0.030694712
79	0xbd3056b2	-0.04305143
80	0xbcc26f1e	-0.023734625
81	0xbcc7d00e	-0.0243912
82	0xbcc8a2fb	-0.024491778
83	0xbd62778b	-0.055289786
84	0xbd2e6a37	-0.042581763
85	0xbd695194	-0.056962565
86	0x3d0292df	0.03187835
87	0xbd1170e1	-0.03550804
88	0x3d1b3eaa	0.037901558
89	0xbcc94d7d	-0.024573082
90	0x3cb54731	0.022128673
91	0x3c6f9e24	0.014625106
92	0xbc648925	-0.013948713
93	0x3ace3a75	0.0015733974
94	0x3c9cd2eb	0.019143542
95	0xbc8742f5	-0.01651142
96	0x3cf9073d	0.03039896
97	0x3c73c1b2	0.0148777235
98	0xbd573bf0	-0.052547395
99	0xbd33afa0	-0.04386866
100	0x3d619880	0.055077076
101	0x3c8d11c1	0.01722038
102	0x3d18dab8	0.03731796
103	0x3d19749f	0.037464734
104	0xbc97f127	-0.018547608
105	0x3cb7bee6	0.022429895
106	0xbd6209d9	-0.055185173
107	0x3d6c0994	0.057626322
108	0xbd13d4fe	-0.036091797
109	0x3d253a65	0.040338892
110	0xbcb7e8e5	-0.02244992
111	0x3c4c62d8	0.012474738
112	0x3ca0f195	0.019646445
113	0xbce49013	-0.027900731
114	0x3bc4faf9	0.0060113636
115	0xbb26247a	-0.0025351332
116	0x3da36b19	0.07979412
117	0xbc0c3fe0	-0.008560151
118	0xbcb55634	-0.022135831
119	0xbd03966b	-0.03212587
120	0x3c062721	0.00818804
121	0x3c82fa09	0.015988367
122	0x3ade8c61	0.0016979092
123	0x3d44b25a	0.04802165
124	0x3c805338	0.015664682
125	0xbcdb3899	-0.026760386
126	0xbd7be2d5	-0.06149562
127	0x3c784014	0.015151996
128	0xbcb6d64c	-0.022318982
129	0xbd8cc4fd	-0.0687351
130	0xbcc9bbc4	-0.024625666
131	0x3bcedf2f	0.0063132267
132	0x3cd563b8	0.026048526
133	0x3bddfdcb	0.0067746392
134	0x3c91670f	0.017749337
135	0x394e1c57	0.00019656248
136	0xbc37fc90	-0.011229649
137	0xbccc3faf	-0.02493271
138	0x3d15b6e7	0.036551382
139	0xbd929334	-0.07156983
140	0xbd39f991	-0.04540402
141	0x3c55f775	0.013059487
142	0x3c00e0fb	0.0078661395
143	0xbc17d7ca	-0.009267757
144	0x3b8ad9ea	0.004237403
145	0xbca61cd9	-0.020277428
146	0xbb07b3ba	-0.002070649
147	0xbbd5e2fc	-0.006527303
148	0xbc6029cb	-0.013681839
149	0xbd14d067	-0.03633156
150	0x3c57878c	0.0131548755
151	0xbbdb209b	-0.0066872365
152	0x3d2e2023	0.042511117
153	0xbc8e9b5e	-0.01740807
154	0x3cea738c	0.02861955
155	0xbb36d968	-0.002790058
156	0x3d2d2dd5	0.042280037
157	0x3d4e8336	0.0504181
158	0xbc92f4d9	-0.017939018
159	0x3cd10862	0.025516693
160	0x3b8b0e9a	0.004243684
161	0x3c010707	0.007875211
162	0x3cdd6760	0.027026832
163	0xbd3d94a7	-0.046284344
164	0x3cc5f353	0.024163878
165	0xbc90e16f	-0.01768562
166	0x3be20523	0.006897585
167	0x3d245b43	0.040126096
168	0xbd6069aa	-0.05478827
169	0x3cd26d3e	0.025686856
170	0x3c0f70e6	0.008754944
171	0xbbda19a1	-0.0066558872
172	0x3d558499	0.052128408
173	0x3d7ca6ef	0.061682638
174	0x3bda1d99	0.0066563603
175	0xbce12ba2	-0.027486626
176	0xbc9d57aa	-0.01920684
177	0x3d530eb9	0.051527712
178	0x3ccd3266	0.025048446
179	0xbc6eba15	-0.014570733
180	0xbb70ad0b	-0.0036724235
181	0x3d05669c	0.03256856
182	0x3c123616	0.008924028
183	0xbcb64d15	-0.022253552
184	0xbcc23d51	-0.023710879
185	0x3b0d3ef9	0.0021552427
186	0xbc62262e	-0.013803048
187	0x3ceec9ef	0.029149024
188	0x3d712219	0.05887041
189	0xbc65a4bd	-0.014016327
190	0x3d4277ec	0.047477648
191	0x3ca6a592	0.020342622
192	0xbd2b115a	-0.041764595
193	0x3d140011	0.036132876
194	0xbbefd0dc	-0.007318599
195	0xbd616446	-0.05502727
196	0xbd3df55a	-0.046376564
197	0xbd7230af	-0.05912846
198	0x3c0019f6	0.00781869
199	0x3cf19b48	0.02949299
200	0xbdbe624a	-0.09296091
201	0x3adb1c38	0.0016716784
202	0xbd2e6bd3	-0.042583298
203	0xbd8229c7	-0.06355625
204	0x3cf9e458	0.03050439
205	0xbd1be641	-0.038061384
206	0x3da42186	0.080142066
207	0xbd27a51a	-0.040928937
208	0xbc4aad54	-0.012370426
209	0x3d32a7c7	0.043617036
210	0xbd2d7b34	-0.042353824
211	0x3d2a509d	0.041580785
212	0xbd144731	-0.036200706
213	0xbd55ef4b	-0.05223016
214	0x3ceb198a	0.028698701
215	0x3ca9f6f0	0.020747632
216	0x3c7fcd75	0.01561295
217	0x3b9afe52	0.0047300244
218	0x3c49da41	0.012320102
219	0x3d439f91	0.047759596
220	0xbcbea61c	-0.023272566
221	0xbbe2b3f9	-0.006918427
222	0xbba0f237	-0.0049116868
223	0xbccef930	-0.025265306
224	0xbce2e5e0	-0.027697504
225	0xbd869bd9	-0.06572694
226	0x3d09db67	0.033656504
227	0x3cf57f95	0.029968062
228	0x3c9b2e81	0.018943073
229	0x3c4c6d01	0.01247716
230	0xbd568a97	-0.052378263
231	0x3cb5721e	0.022149142
232	0xbbbe368f	-0.0058048437
233	0x3ce22029	0.027603226
234	0x3ab39b6d	0.0013702937
235	0xbbc80f13	-0.0061053126
236	0xbd50ba28	-0.050958782
237	0xbb85e5ad	-0.0040862174
238	0xbd35be12	-0.04437072
239	0xbc0cbc8c	-0.008589875
240	0xbd28e1c2	-0.041230924
241	0xbda89fbd	-0.08233593
242	0x3c9b50ac	0.018959366
243	0x3c5686fa	0.013093704
244	0xbb12d4d7	-0.0022404694
245	0xbd0abf3d	-0.033873785
246	0xbc926282	-0.017869238
247	0x3c8f79e2	0.017514173
248	0xbc806983	-0.015675312
249	0xbc3fd39a	-0.011708165
250	0xbc2aa075	-0.0104142325
251	0xbc0385ff	-0.008027553
252	0xbd338dfc	-0.04383658
253	0x3a5c12ea	0.00083951524
254	0x3ca1ca31	0.019749733
255	0x3d307178	0.043076962

conv3.bias f4 [128]
0	0xbbbc724d	-0.0057509304
1	0xbd0eacff	-0.03483295
2	0xbca4442b	-0.020052036
3	0x3cd9a6b7	0.026568754
4	0xbcfcff98	-0.030883595
5	0x3c6a83db	0.014313663
6	0xbc7fa635	-0.015603592
7	0x3d36d54c	0.04463701
8	0xbc980833	-0.018558597
9	0x3cac1743	0.021007186
10	0xbaaa4e18	-0.0012993244
11	0xbc28f15d	-0.010311452
12	0x3d2ef5fb	0.042715054
13	0xbc79f85b	-0.015256966
14	0x3c4da7af	0.012552186
15	0x3ce17b5e	0.027524646
16	0x3d15bbc2	0.036556013
17	0x3d47f3d8	0.048816532
18	0x3cc3039c	0.023805432
19	0x3c1b2a11	0.009470479
20	0x3d0b9d19	0.034085367
21	0x3cde4d71	0.027136536
22	0x3d71a353	0.05899365
23	0x3cf61ea0	0.0300439
24	0xbc9fa242	-0.01948655
25	0x3c940d79	0.01807283
26	0x3d44894a	0.04798249
27	0xbccdcae4	-0.02512116
28	0xb6fe09c0	-7.570925e-06
29	0xbd650367	-0.055911448
30	0xbd48c94f	-0.049020108
31	0x3cd923e3	0.02650637
32	0xbd1409b2	-0.03614206
33	0x3d3433f4	0.04399486
34	0x3c190f46	0.00934202
35	0xbd1f1afe	-0.0388441
36	0x3d18bf6a	0.03729192
37	0xbd2aef19	-0.041731928
38	0x39091e60	0.00013076654
39	0xbbb5e653	-0.0055511384
40	0x3d33cca5	0.043896336
41	0xbc49214a	-0.012276003
42	0x3ca08b28	0.019597605
43	0xbca953cb	-0.020669838
44	0x3cef114a	0.029183049
45	0x3d935109	0.071931906
46	0x3c846be2	0.016164724
47	0x3c3c6616	0.011498949
48	0x3cbf79af	0.023373453
49	0x3b2d83ff	0.002647638
50	0xbd0239fd	-0.031793583
51	0xbc6d284a	-0.014474938
52	0xbd0d3f93	-0.034484457
53	0x3d21e58b	0.03952555
54	0xbb315b85	-0.0027062607
55	0x3cdae410	0.026720077
56	0xbc0dadd3	-0.0086474
57	0x3d2ece0a	0.042676963
58	0xbbee7c6f	-0.0072780172
59	0x3cffa0d6	0.031204622
60	0x3d0f4ace	0.03498345
61	0x3cf6cf0e	0.030128028
62	0x3c26ec09	0.010188111
63	0xbc5e6a00	-0.013575077
64	0xbcb8c72b	-0.022555908
65	0x3d3d5eed	0.046233106
66	0x3cda065f	0.026614366
67	0x3c32df5f	0.010917514
68	0x3c9314ed	0.017954314
69	0x3c6158fb	0.013754125
70	0x3c58d2e5	0.013233875
71	0x3c277a32	0.010222005
72	0xbccec4bd	-0.025240296
73	0xba706519	-0.0009170338
74	0x3c8e4f6a	0.017371852
75	0x3d6780b1	0.056519214
76	0x3d52528e	0.05134826
77	0x3d49200d	0.04910283
78	0x3c8561a3	0.016281908
79	0x3c92dd94	0.017927922
80	0xbd2d0c81	-0.042248253
81	0x3d0259b7	0.03182384
82	0xbc83224b	-0.016007563
83	0xbd0d3435	-0.034473617
84	0x3be1018f	0.006866641
85	0xbb7dca4e	-0.003872532
86	0x3cfae059	0.030624555
87	0xbc1fc17c	-0.00975072
88	0x3b8db44c	0.0043244716
89	0x3caf3d61	0.021391572
90	0xbcf80e7a	-0.03028034
91	0x3d82548a	0.06363781
92	0xbbc481f0	-0.005996935
93	0x3cc870fd	0.02446794
94	0x3c76e2f1	0.0150687555
95	0x3aab99eb	0.0013092136
96	0xbbfa57fc	-0.007639883
97	0x3c9d176d	0.01917621
98	0xbc3ed572	-0.011647569
99	0x3c8780ec	0.016540967
100	0x3c85801a	0.016296435
101	0x3d4610c3	0.04835583
102	0xbc073bff	-0.00825405
103	0xbc22977d	-0.009923813
104	0x3cd93676	0.026515227
105	0x3d59421f	0.053041574
106	0x3c2e04d1	0.0106212655
107	0x3cc411e3	0.02393431
108	0xbcd1822a	-0.025574762
109	0x3c4aca9c	0.012377407
110	0xbb70506e	-0.0036669034
111	0x3c965717	0.018352075
112	0xbd13026f	-0.035890993
113	0xbc127ffe	-0.0089416485
114	0x3ca1fe2e	0.019774523
115	0x3d325866	0.043541335
116	0xbb119dc8	-0.002221929
117	0xbbd0d30a	-0.006372814
118	0xbc78ceac	-0.015185993
119	0x3bc79387	0.0060905847
120	0xbc3e8a34	-0.01162963
121	0xbb843888	-0.0040350594
122	0xbcd5d254	-0.026101269
123	0x3c5bbce5	0.013411735
124	0xbcd6c5ac	-0.026217304
125	0xbd07ad6d	-0.033124376
126	0xbcc466a0	-0.023974717
127	0x3d707d57	0.058713283

act_conv1.weight f4 [4, 128, 1, 1]
0	0x3bb250ef	0.005441777
1	0x345f7785	2.0811974e-07
2	0x3c2091e9	0.009800413
3	0xbd2bac2e	-0.04191225
4	0x3c348828	0.01101879
5	0x3c86e788	0.016467825
6	0x3d4cb388	0.0499759
7	0x3ca796a2	0.02045757
8	0x3d909cbe	0.07061146
9	0xbdd84ca2	-0.105614915
10	0xbccd9cfe	-0.025099274
11	0x3cc5a168	0.024124816
12	0xbdff444a	-0.12464197
13	0x3c3221b6	0.010872295
14	0x3cf4c917	0.029881043
15	0xbd4b19f8	-0.049585313
16	0x3c8be849	0.017078536
17	0xbd4d8087	-0.0501714
18	0x3ce81693	0.028331077
19	0x3c0e6c60	0.008692831
20	0xbc54ad0c	-0.012980711
21	0x3cc53904	0.024075039
22	0xbdbc3e26	-0.091915414
23	0x3bd0dfd6	0.0063743396
24	0x3c872035	0.01649485
25	0x3d14bf7f	0.036315437
26	0xbb8d8906	-0.004319313
27	0xbd1cb28c	-0.038256213
28	0x3c14805a	0.0090638045
29	0xbd2fc2cd	-0.042910386
30	0xbcbd920b	-0.023140928
31	0x3d268a4e	0.04065924
32	0xb30b3fa0	-3.2421326e-08
33	0x3c34e2df	0.011040418
34	0xbcd88bfe	-0.026433941
35	0x3d692553	0.05692036
36	0xbd878a5d	-0.066181876
37	0xbccb478e	-0.024814393
38	0xb9b13f45	-0.0003380721
39	0xb90f4b67	-0.00013665632
40	0xbd0eb231	-0.034837905
41	0xbd003fab	-0.03131072
42	0xbd12f386	-0.035876773
43	0xbd335357	-0.04378065
44	0x3b18a258	0.0023290124
45	0xbda60917	-0.081072025
46	0xba849f7e	-0.0010118333
47	0xbdabab70	-0.083823085
48	0x3c8da0a3	0.017288512
49	0xbd01f42f	-0.031727012
50	0x3d181788	0.037131816
51	0x3d055706	0.032553695
52	0x3aade0e7	0.0013265879
53	0xbd16d594	-0.036824778
54	0xbd47ef62	-0.048812278
55	0x3d7121ba	0.058870055
56	0x327ec74e	1.48300625e-08
57	0xbdd5749f	-0.10422634
58	0xbd96d82f	-0.073654525
59	0xbca0cd81	-0.019629242
60	0xbda0aeac	-0.07845816
61	0x3ceca13a	0.028885473
62	0x3d25b6db	0.040457588
63	0x3607baeb	2.0225368e-06
64	0x3d76b130	0.060227573
65	0xbd4f3887	-0.050591018
66	0x3d411da0	0.047147393
67	0xbc373847	-0.011182851
68	0xbcc9ad5d	-0.024618799
69	0xbba9e8db	-0.0051852292
70	0x3d183ab7	0.03716537
71	0x3c22530f	0.009907498
72	0xbd0f0e46	-0.03492572
73	0x3d9926b5	0.07478086
74	0x3d5823d7	0.052768555
75	0xbd65bc3a	-0.05608771
76	0x39959240	0.0002852846
77	0x3b87f88b	0.0041495017
78	0xbd7fd4f6	-0.062458955
79	0xbcb60c17	-0.022222562
80	0x3c48fc19	0.012267136
81	0x3d207cdd	0.03918158
82	0x3c04cec7	0.00810594
83	0x350a8cba	5.161379e-07
84	0xbcbde776	-0.023181658
85	0x34372d3a	1.7059656e-07
86	0xbda8171b	-0.08207532
87	0x3d96b8fb	0.07359501
88	0x3d28edf9	0.041242573
89	0x3bb8aad9	0.005635601
90	0x3c346ec0	0.011012733
91	0xbd90937c	-0.070593804
92	0x3cbc7bc5	0.023008237
93	0x3d68f1e2	0.056871302
94	0xbcfea61d	-0.031085068
95	0x3d1a1ad9	0.03762326
96	0xbd198030	-0.037475765
97	0x3d5cb34b	0.053881925
98	0xbce7bdca	-0.02828874
99	0x3d87d2c2	0.06631996
100	0x3c11b986	0.00889433
101	0x3cc9ad66	0.024618816
102	0x3c38029d	0.011231092
103	0xbd947fd3	-0.07250943
104	0xbac0d6c8	-0.0014712447
105	0x3bd2b069	0.006429721
106	0xbac120a0	-0.0014734454
107	0xbdaf505a	-0.08560248
108	0x3ce3f8d3	0.02782861
109	0x3d807021	0.06271387
110	0xbce38938	-0.027775392
111	0x3c9a1c9b	0.018812468
112	0xb54121ae	-7.1947113e-07
113	0x3b241389	0.0025036058
114	0xbd0996f0	-0.03359121
115	0xbbee3a36	-0.007270123
116	0xbd2a9d09	-0.041653667
117	0x3d27980c	0.040916488
118	0x3d2439f0	0.040094316
119	0x3b8bfcb5	0.0042720684
120	0x3da11a89	0.07866389
121	0xbc8f921e	-0.017525729
122	0xbc7ab631	-0.015302227
123	0xbdb151f2	-0.08658208
124	0x36d9bf9b	6.4894098e-06
125	0x3d3e1e2f	0.046415504
126	0x34563758	1.9950437e-07
127	0xbb44bef0	-0.0030021034
128	0xbb9391c8	-0.0045034625
129	0x3d678edf	0.056532737
130	0xbd5c714e	-0.053818993
131	0x3c5ee54a	0.013604471
132	0x3d8f3e80	0.06994343
133	0xbdafbef4	-0.08581343
134	0xbd6f5514	-0.058430746
135	0x3d9d49fe	0.076801285
136	0x3d9af17e	0.07565592
137	0xbd921ef2	-0.071348086
138	0x3c94303e	0.01808941
139	0xbe0291bc	-0.12750906
140	0x3c6e80d0	0.0145570785
141	0x3cda9443	0.026682025
142	0x3db5ee55	0.08883349
143	0x3deaafff	0.1145935
144	0xbdebe009	-0.11517341
145	0xbd30d962	-0.043176062
146	0x3c0be243	0.008537832
147	0x3c644250	0.013931826
148	0x3d159f6e	0.036528997
149	0xbd8c9cbe	-0.06865834
150	0x3ca63e36	0.020293336
151	0xbcd54f49	-0.026038783
152	0x3d61c825	0.055122513
153	0xbbf52063	-0.0074806674
154	0xbc199565	-0.009373997
155	0x3df1f212	0.118137494
156	0x3d5e1a61	0.054224376
157	0xbda95ed9	-0.08270044
158	0xbb657490	-0.0035012104
159	0xbd568a35	-0.0523779
160	0xbd972517	-0.07380121
161	0x3d2ab7ad	0.041679073
162	0x3ca3ec88	0.020010248
163	0xbba4c91b	-0.0050288565
164	0x3dc46ea5	0.09591416
165	0x3db3a31e	0.087713465
166	0x3c2e263b	0.010629232
167	0xbc7b3602	-0.015332701
168	0x3d037af0	0.032099664
169	0xbac1cad8	-0.0014785184
170	0xbcd8f3d2	-0.02648345
171	0x3d7cd2fb	0.061724644
172	0xbdaa4520	-0.08313966
173	0x3d0db90d	0.034600306
174	0xbd2f0902	-0.0427332
175	0x3b174a2e	0.0023084986
176	0xbdf16e9a	-0.11788674
177	0xbc482bbc	-0.012217458
178	0x3d6704b8	0.056400985
179	0x3c41d19c	0.01182976
180	0xbe1c544f	-0.15266536
181	0x3dd25db9	0.102717824
182	0x3d206d61	0.03916681
183	0xbd51f63e	-0.051260225
184	0xb6fdf6df	-7.568727e-06
185	0x3d9a9ecd	0.0754982
186	0x3c712f5b	0.014720763
187	0x3da6aab3	0.08138027
188	0x3da71306	0.08157925
189	0x3c4b35ba	0.012402946
190	0xbcd120ec	-0.025528394
191	0xb4743fc7	-2.2747473e-07
192	0x3bca7111	0.0061780293
193	0x3db13509	0.08652694
194	0x3db7be6f	0.08971869
195	0x3da269c4	0.079303294
196	0x3d8d55de	0.069011435
197	0xbd499e0c	-0.04922299
198	0xbd67e33a	-0.056613185
199	0x3d931964	0.07182577
200	0x3dcb1783	0.09916594
201	0x3d8f8420	0.07007623
202	0x3d82114f	0.063509576
203	0xbda291fd	-0.07938001
204	0xbc49539f	-0.012288003
205	0x3ca2ca3a	0.01987182
206	0x3db77ba6	0.08959131
207	0x3ddf5b26	0.10906057
208	0xbd34a24b	-0.044100087
209	0xbc0b9be6	-0.008521056
210	0xbcc40500	-0.023928165
211	0xbcd1867a	-0.025576819
212	0x3d87eef8	0.066373765
213	0xb6a009df	-4.7695207e-06
214	0x3db9bdde	0.090694174
215	0xbd85a606	-0.06525807
216	0x3d925522	0.07145144
217	0x3bd200d2	0.006408789
218	0x3c03fd87	0.008056051
219	0x3d595bad	0.053065944
220	0xbd0d31ef	-0.03447145
221	0xbda7b789	-0.081893034
222	0x3d4304d6	0.047612034
223	0x3d556966	0.05210247
224	0x3dbfa9ba	0.09358545
225	0x3cb4ff60	0.022094429
226	0xbd66fcb6	-0.056393348
227	0x3d1a573e	0.037680857
228	0x3dec7920	0.1154654
229	0x3d861177	0.065463
230	0xbde5b4ff	-0.11216163
231	0x3dffe0a0	0.12494016
232	0x3da570d4	0.08078161
233	0xbcadf7f2	-0.021236394
234	0xbcb109e9	-0.02161117
235	0x3e1e985b	0.15487806
236	0xbda45a84	-0.08025077
237	0xbbafbbbd	-0.0053629563
238	0x3dbf2b17	0.093343906
239	0xbd1a2447	-0.037632253
240	0xbb8f29bf	-0.00436899
241	0x3d489570	0.04897064
242	0x3e27ed39	0.16399087
243	0xbe075647	-0.13216506
244	0x3c897ee9	0.016784148
245	0xbdbe3613	-0.092876576
246	0x3a0d0432	0.00053793483
247	0x3d812371	0.06305588
248	0xbcbc0398	-0.022950932
249	0x3d00fc14	0.0314904
250	0x3dd44995	0.10365597
251	0x3c92ffe4	0.017944284
252	0x3c61bd7b	0.013778086
253	0x3ca136db	0.019679477
254	0x3c107271	0.008816347
255	0x3d30b756	0.043143593

act_conv1.bias f4 [4]
0	0xbc8d863d	-0.017275924
1	0x3d3f7d3d	0.046750296
2	0x3d9d4232	0.076786414
3	0xbd90ecc5	-0.0707641

act_fc1.weight f4 [36, 144]
0	0xbd11884c	-0.035530373
1	0xbd70a12b	-0.05874745
2	0xbdb2836f	-0.08716475
3	0xbcb9d93c	-0.022686593
4	0xbd09b05a	-0.033615448
5	0xbd87d0f2	-0.0663165
6	0xbd093e2c	-0.033506557
7	0xbd8f331a	-0.06992169
8	0xbdb53b2b	-0.08849176
9	0xbdc79790	-0.09745705
10	0xbd1d7ecb	-0.038450997
11	0xbd8d0fce	-0.0688778
12	0xbdf400ef	-0.119142406
13	0xbdaaf036	-0.08346598
14	0xbdcc3954	-0.09971872
15	0xbd2af460	-0.04173696
16	0xbd133476	-0.035938703
17	0xbcddc5c7	-0.027071847
18	0xbd3e2ed2	-0.04643137
19	0xbd0b1166	-0.03395214
20	0xbd34b70f	-0.04411989
21	0xbcfece33	-0.031104183
22	0x3c42d7b1	0.011892245
23	0xbb7ecb13	-0.0038878366
24	0xbc44df5c	-0.012016144
25	0xbcbee7d3	-0.023303902
26	0xbdaec082	-0.08532812
27	0xbbc19ac4	-0.005908342
28	0x3c3d64ff	0.011559724
29	0x3c9af9ef	0.018918006
30	0xbc5b306a	-0.013378242
31	0xbcc99625	-0.024607727
32	0xbc62a97c	-0.013834354
33	0xbcba76e4	-0.02276177
34	0xbd046bf2	-0.032329507
35	0xbd089d49	-0.033353124
36	0x3dab8933	0.08375778
37	0x3db67c34	0.089104086
38	0x3cfe0eeb	0.031012973
39	0x3d7d505b	0.06184421
40	0x3d3ac65a	0.04559932
41	0x3c6cfea9	0.014465013
42	0x3c25b961	0.010114999
43	0xbd4cf45a	-0.05003772
44	0x3cf3a9e5	0.029744098
45	0x3da7b418	0.08188647
46	0x3d822be0	0.06356025
47	0xbc06a298	-0.008217476
48	0x3d8d7374	0.069067866
49	0x3d021471	0.031757776
50	0x3d53dec8	0.051726133
51	0xbd137af6	-0.036005937
52	0xbd62263a	-0.055212237
53	0x3d907708	0.070539534
54	0xbbd4b3b6	-0.00649115
55	0xbdf47b00	-0.11937523
56	0x3d70940f	0.05873495
57	0x3dac763d	0.0842099
58	0x3c801f3b	0.015639892
59	0x3d346db5	0.044049937
60	0xbd7da96c	-0.06192915
61	0x3d80b0dc	0.06283733
62	0x3d3b04a1	0.04565871
63	0xbdd3361f	-0.10313057
64	0x3cb41508	0.021982685
65	0xbcc6c920	-0.024265826
66	0x3d9019d4	0.07036176
67	0xbe01b06c	-0.12664956
68	0x3d791379	0.060809586
69	0xbd55856d	-0.052129198
70	0xbe075411	-0.13215663
71	0xbd167d78	-0.03674075
72	0xbb4fc6fc	-0.0031704297
73	0xbd937db5	-0.07201711
74	0xbd557a8f	-0.052118834
75	0xbbbce23a	-0.005764273
76	0x3ce2af3b	0.027671447
77	0xbcebaba8	-0.028768376
78	0xbd2c5d34	-0.042081073
79	0xbdd0d5bd	-0.10197017
80	0xbdf10447	-0.11768394
81	0xbdd2289e	-0.10261653
82	0xbd0ea86e	-0.034828596
83	0x3cc430fb	0.023949137
84	0xbde315f3	-0.11088171
85	0xbdd250d6	-0.102693245
86	0xbba76397	-0.0051083076
87	0xbd9757aa	-0.073897675
88	0xbd1d824b	-0.038454335
89	0xbdb1fb32	-0.0869049
90	0x3cd70b87	0.026250614
91	0xbdff8785	-0.1247702
92	0xbdb415f2	-0.08793248
93	0xbd15bf97	-0.036559667
94	0xbd4d1cd8	-0.050076336
95	0xbcfee4cb	-0.031114956
96	0xbd6fa156	-0.05850347
97	0xbbe13400	-0.006872654
98	0x3bf8e620	0.0075957924
99	0xbe2033fc	-0.1564483
100	0x3beb1abe	0.007174819
101	0x3c307724	0.010770593
102	0x3c817c6d	0.015806401
103	0xbd338e66	-0.043836974
104	0xbd4b686a	-0.049660124
105	0xbe00f460	-0.12593222
106	0xbd8ce25a	-0.06879111
107	0xbd150b9f	-0.036388036
108	0xbd7b833b	-0.061404448
109	0xbd5f1927	-0.054467347
110	0xbce7e342	-0.028306607
111	0xbdb26f1c	-0.08712599
112	0xbdf03ed7	-0.11730736
113	0x3c90d702	0.017680649
114	0x3d05b8fa	0.03264711
115	0xbbcf48fb	-0.0063258386
116	0x3c9df84e	0.01928344
117	0xbd8ae7aa	-0.06782468
118	0xbd336310	-0.043795645
119	0x3d369d9e	0.04458391
120	0xbccd620c	-0.025071166
121	0xbd1abcc3	-0.037777673
122	0xbbbdae46	-0.0057885973
123	0x3d53d601	0.051717762
124	0xbcd86361	-0.026414575
125	0xbd8bbc77	-0.06823056
126	0xbb7b59d9	-0.0038353114
127	0x3d55e0a3	0.052216183
128	0xbb0e06f2	-0.002167162
129	0xbc77b187	-0.015118009
130	0x3c8d05a3	0.017214602
131	0x3d4fd1df	0.050737258
132	0x3ce6acc0	0.028158545
133	0x3ca44aa8	0.02005513
134	0x3cfd0e37	0.030890567
135	0xbcca36b0	-0.02468428
136	0xbda404e9	-0.08008749
137	0xb8422d95	-4.6295656e-05
138	0x3d8b2e13	0.06795897
139	0x3ca86eaa	0.020560581
140	0xbd321596	-0.043477617
141	0x3d047462	0.032337554
142	0x3a516271	0.0007987386
143	0xbb90d096	-0.0044193966
144	0xbcf55bb9	-0.029950963
145	0xbc924f2f	-0.017860023
146	0x3cb57819	0.022151994
147	0xbd1617d8	-0.036643833
148	0xbcea1d55	-0.02857844
149	0xbcd7cc8f	-0.026342658
150	0xbcc2bd4e	-0.023771908
151	0xbcd37c03	-0.02581597
152	0xbc5bf041	-0.01342398
153	0xbc7f87f4	-0.015596379
154	0xbcbc495d	-0.022984201
155	0xbceae6c5	-0.028674493
156	0xbc566cee	-0.013087494
157	0xbc16b15a	-0.009197557
158	0xbd958c5c	-0.07302162
159	0xbcc07251	-0.02349201
160	0x3c7e6a7a	0.015528316
161	0x3acef68f	0.0015790033
162	0xbd3e1c2a	-0.046413578
163	0xbc967dfb	-0.018370619
164	0x3cadbe33	0.021208858
165	0xbba27033	-0.004957223
166	0xbd768cba	-0.0601928
167	0xbd71b088	-0.059006244
168	0x3c81431b	0.015779069
169	0xbd290b4f	-0.04127055
170	0x3c725df4	0.014792908
171	0x3c8d51ad	0.01725086
172	0xbc019775	-0.007909645
173	0xbd4fde55	-0.05074914
174	0xbc2ee9a9	-0.010675826
175	0x3ca85e6c	0.020552836
176	0x3cb857f8	0.022502884
177	0xbccfe787	-0.025378956
178	0x3b3088f0	0.002693709
179	0xbd1681ba	-0.03674481
180	0xbe8a26c5	-0.26982704
181	0xbcba4c87	-0.02274157
182	0xbdc9d9ea	-0.09856017
183	0x3e10721b	0.14106028
184	0x3d8c2374	0.068427
185	0x3e34850d	0.1762888
186	0xbd2f0d71	-0.042737428
187	0x3e0bd7d2	0.13656548
188	0xbde92e05	-0.11385731
189	0xbd3fc704	-0.046820655
190	0xbda41313	-0.080114506
191	0x3d028b7e	0.03187131
192	0xbda870c4	-0.08224633
193	0xbd164a35	-0.036691863
194	0xbd063415	-0.032764513
195	0xbdf6d8f3	-0.120530985
196	0xbca39648	-0.01996912
197	0xbda0b2d9	-0.078466125
198	0xbbf00a52	-0.007325449
199	0x3cf22460	0.02955836
200	0xbd87d6fd	-0.06632803
201	0xbda8e91b	-0.08247586
202	0xbd8da5e8	-0.0691641
203	0xbd1baac1	-0.03800464
204	0xbc835d9c	-0.016035847
205	0xbdfa19ec	-0.122119755
206	0xbcc9c62f	-0.024630634
207	0x3b747338	0.003730012
208	0xbc690490	-0.014222279
209	0xbde5360d	-0.1119195
210	0x3cf28c3b	0.029607883
211	0xbba81eba	-0.005130616
212	0xbe2fefb9	-0.1718129
213	0x3cb42a8f	0.02199295
214	0xbdc5db65	-0.09660987
215	0xbcca540f	-0.024698285
216	0x3e2a60fe	0.16638562
217	0x3e3ab92c	0.182347
218	0x3d7437b9	0.059623454
219	0x3d993b3a	0.07482
220	0x3dc8be50	0.09801924
221	0x3e18a4e9	0.14906658
222	0xbd1d79a4	-0.038446084
223	0xbc8b7f04	-0.01702834
224	0x3da91ed6	0.082578346
225	0x3dd869f6	0.105670854
226	0x3d5417ba	0.05178044
227	0xbc6c63c5	-0.014428084
228	0x3d8fd596	0.0702316
229	0x3d5d83b6	0.054080687
230	0xbc75d116	-0.015003463
231	0x3cdba714	0.026813067
232	0x3bbbf583	0.0057360544
233	0xbd400a30	-0.046884716
234	0x3d391cf1	0.045193616
235	0x3d55783f	0.05211663
236	0xbcf7ebe4	-0.030263849
237	0xbcf18e2c	-0.029486738
238	0x3cf16e23	0.029471463
239	0xbceadf2a	-0.028670866
240	0x3daff687	0.08591943
241	0x3d8d0d36	0.068872854
242	0x3ca95fae	0.020675506
243	0x3d81bad9	0.063344665
244	0x3b2490f8	0.0025110822
245	0xbd0c6c82	-0.03428317
246	0x3d77e3ad	0.060519863
247	0xbbe0a5e7	-0.0068557146
248	0xbd95ac1c	-0.07308218
249	0xbca1d2fe	-0.01975393
250	0x3d5dc4f6	0.054142915
251	0xbda5db26	-0.0809844
252	0x3bd90696	0.0066230996
253	0xbd48a578	-0.04898593
254	0xbcda6db0	-0.026663631
255	0xbd7fabc2	-0.06241966

act_fc1.bias f4 [36]
0	0xbca659b0	-0.020306438
1	0x3d1be5d0	0.038060963
2	0xbc63cb09	-0.013903388
3	0xbd9299ee	-0.07158266
4	0x3c56cc28	0.013110198
5	0xbd8573b8	-0.06516212
6	0xbdac65d3	-0.08417859
7	0xbbe40b0b	-0.0069593242
8	0x3d0a28b4	0.033730224
9	0xbd4ba51d	-0.04971801
10	0xbd2d583d	-0.04232048
11	0x3cbf145b	0.023325136
12	0x3d9cfde8	0.07665616
13	0x3d180f0f	0.037123736
14	0x3c7ebdd9	0.015548193
15	0xbc3d01a2	-0.011536034
16	0x3ce2d902	0.027691368
17	0x3d88f5d6	0.066875145
18	0x3d2894d4	0.04115756
19	0x3d25c85e	0.04047429
20	0xbd4222d6	-0.047396503
21	0x3d28a7fa	0.04117582
22	0x3be548c6	0.0069972007
23	0x3d8e7325	0.06955556
24	0xbd6aac20	-0.057293057
25	0xbd2cd4fe	-0.042195313
26	0x3dea9455	0.11454073
27	0xbd4e0e17	-0.050306406
28	0x3d3fbd7d	0.04681157
29	0x3a82c202	0.0009976032
30	0xbde6c2ee	-0.11267649
31	0x3c9b923c	0.018990628
32	0x3bd2ee33	0.006437087
33	0x3b3ab4b7	0.0028489062
34	0x3bbefbf2	0.005828374
35	0x3d228749	0.0396798

val_conv1.weight f4 [2, 128, 1, 1]
0	0xbdb3ee96	-0.08785741
1	0xbc23ba79	-0.009993189
2	0x3dda6a44	0.106648
3	0xbcfc4cea	-0.030798394
4	0x3d8c27b0	0.06843507
5	0xbdc5f74f	-0.09666311
6	0x3d868412	0.06568159
7	0x3c9bdd68	0.019026473
8	0x3d7c3fa4	0.06158413
9	0x3c8df899	0.017330455
10	0x3d531575	0.051534135
11	0xbc899767	-0.016795827
12	0x3ca61554	0.020273842
13	0x3db12491	0.086495526
14	0x3ddbf240	0.10739565
15	0xbda61d05	-0.08111004
16	0x3da0a2cd	0.07843552
17	0xbd7df814	-0.062004164
18	0x3d4daa09	0.050210986
19	0x3d385693	0.04500444
20	0xbd85e467	-0.06537705
21	0x3cb78bb5	0.022405485
22	0x3c90b993	0.017666614
23	0x3d883b14	0.06651893
24	0x3d280da3	0.04102863
25	0x3cf81fed	0.03028866
26	0xbda09079	-0.07840056
27	0x3bf1cbc2	0.007379026
28	0xbd44f548	-0.04808548
29	0x3daa79b7	0.083239965
30	0x3d09acfd	0.03361224
31	0x3d1a25c3	0.03763367
32	0xbca1f94d	-0.019772196
33	0x3d29900c	0.04139714
34	0xbd1941e9	-0.037416372
35	0xbd68e95e	-0.05686318
36	0x3d88e859	0.06684942
37	0x3dd13f50	0.10217154
38	0x3daaeca7	0.08345919
39	0x3dade247	0.084904246
40	0xbdd06be4	-0.101768285
41	0xbc810026	-0.015747141
42	0x3c94a682	0.018145803
43	0x3cc3d0af	0.023903219
44	0xbdf09988	-0.11748034
45	0x3c8e8788	0.01739861
46	0xbcde12dc	-0.027108602
47	0x3d106bbc	0.035258994
48	0xbdfb065b	-0.122570716
49	0xbc670ced	-0.014102203
50	0xbc8dc7fd	-0.017307276
51	0x3d35b048	0.044357568
52	0x3c5efb79	0.01360976
53	0x3d9c29ad	0.076251365
54	0x3d129fb8	0.03579685
55	0x3dab43dd	0.08362553
56	0xb4b5b8cc	-3.3848335e-07
57	0x3cff9e78	0.031203493
58	0x3d852f89	0.06503207
59	0x3d76d90d	0.06026559
60	0xbba70f7d	-0.005098282
61	0x3d841c48	0.06450707
62	0x3db25513	0.08707633
63	0xbca883fc	-0.020570748
64	0xbc80e162	-0.01573247
65	0x3c09f7a9	0.008420863
66	0x3d8c493a	0.06849904
67	0x3cea74cb	0.028620144
68	0xbdf120ac	-0.1177381
69	0x3ab10790	0.0013506282
70	0x3c867166	0.016411494
71	0x3d8f84da	0.07007761
72	0x3d6a6871	0.05722851
73	0x3dcd99e5	0.10039119
74	0x3d6eb116	0.05827435
75	0xbd2126f0	-0.039343774
76	0xbd51611e	-0.05111801
77	0xbe004cba	-0.12529269
78	0xbc9dacd2	-0.019247446
79	0x3de36135	0.11102525
80	0xbd5160d2	-0.051117726
81	0xbbcb735f	-0.0062088217
82	0xbe0b3273	-0.13593464
83	0xbc5b1127	-0.013370789
84	0xbd8b655b	-0.068064414
85	0xb4512afa	-1.9480277e-07
86	0xbdd4c56f	-0.1038922
87	0x3ddfcd75	0.1092786
88	0x3ddd872b	0.10816797
89	0xbddb1e2c	-0.10699114
90	0x3d185839	0.03719351
91	0x39da7612	0.0004166817
92	0xbc7eb81d	-0.015546826
93	0x3d930643	0.07178929
94	0xbd51a345	-0.051181097
95	0x3c30b811	0.010786072
96	0x3c252130	0.010078713
97	0xbdee6d07	-0.11641889
98	0x3d3e3c9f	0.04644453
99	0x3b3da91c	0.0028939908
100	0xbd679df9	-0.05654714
101	0xbda7f533	-0.08201065
102	0x3d03d972	0.032189794
103	0xbd59a74f	-0.053138074
104	0xbd030ccf	-0.031994637
105	0xbc0388de	-0.008028237
106	0x3d817cb8	0.06322616
107	0x3c63920c	0.013889801
108	0x3d627996	0.055291735
109	0xbd0f5f0a	-0.035002746
110	0x3d9b4801	0.07582093
111	0x3d860403	0.06543734
112	0x378b0a22	1.657481e-05
113	0x3d44f08d	0.04808097
114	0x3db3531f	0.087560885
115	0xbe14acf6	-0.14519104
116	0x3da4cac1	0.08046485
117	0x3c0cabd3	0.008585888
118	0x3c207cc3	0.0097953705
119	0xbceda028	-0.029007033
120	0x3d43ae45	0.04777362
121	0xbdd72958	-0.105059326
122	0x3cf12963	0.02943868
123	0x3d2fe8f1	0.04294676
124	0x3c9edf75	0.019393662
125	0x3d2f8f96	0.042861544
126	0xbbecb0a9	-0.007223208
127	0x3b82e60f	0.0039947103
128	0x3c98d42e	0.018655863
129	0x3cf538f3	0.029934382
130	0xbd7e31d7	-0.06205925
131	0xbd680f35	-0.056655128
132	0xbd7bbdb2	-0.061460204
133	0x3d7e6021	0.062103394
134	0x3d2478d4	0.040154293
135	0x3d9173d4	0.071021706
136	0x3d15b1d3	0.03654654
137	0x3c433067	0.0119133955
138	0x3a4f6fa3	0.00079130585
139	0x3d744dac	0.059644386
140	0xbd0b5247	-0.034014013
141	0xbba21a3b	-0.0049469746
142	0xbd950edd	-0.072782256
143	0xbdf08dd6	-0.11745803
144	0xbd32d4d3	-0.043659996
145	0x3d16ad59	0.03678641
146	0x3cb4904b	0.02204146
147	0xbd394196	-0.045228563
148	0x3cf0346c	0.029321872
149	0x3cbba556	0.022905987
150	0x3ca637ac	0.020290218
151	0x3d5b5e5b	0.05355678
152	0xbb26e97a	-0.0025468753
153	0xbc5297c4	-0.012853567
154	0xbcb1b4bd	-0.021692628
155	0xbdcec70c	-0.10096559
156	0xbd54e4e3	-0.051976096
157	0xbc237707	-0.009977109
158	0x3c9ce289	0.01915099
159	0x3d1366d3	0.035986733
160	0x3ab11f53	0.0013513364
161	0x3d606434	0.05478306
162	0x3cc91051	0.024543913
163	0x3abb769c	0.0014302316
164	0x3c87d7d2	0.016582403
165	0xb9930ce0	-0.00028047618
166	0xbd9d5171	-0.07681549
167	0xbd86408e	-0.065552816
168	0x3ceeb91e	0.029141005
169	0x3d23e231	0.040010635
170	0x3d5d90cd	0.05409317
171	0x3c485099	0.012226247
172	0x3d5c3928	0.053765446
173	0x3b830989	0.0039989394
174	0x3da5afcf	0.080901735
175	0x3cd3835b	0.025819471
176	0x3d15f2cf	0.036608513
177	0x3b07c637	0.002071751
178	0xbd969699	-0.07352943
179	0xbd8ecee7	-0.06973057
180	0x3d7350d9	0.059403274
181	0xbc8513ab	-0.01624473
182	0x3d0bfcb1	0.034176532
183	0xbad48e53	-0.0016216732
184	0xb9474f2a	-0.0001900761
185	0xbd55db73	-0.052211236
186	0x3b9ffed4	0.004882673
187	0x3d689054	0.056778267
188	0x3d14b79a	0.03630791
189	0x3be202d6	0.0068973107
190	0xbd5c1220	-0.053728223
191	0x3b520f17	0.0032052451
192	0x3ca4b1eb	0.02010437
193	0x3d22ff88	0.039794475
194	0xbde40f3d	-0.11135719
195	0xbdbaf91e	-0.091295466
196	0x3d172a6f	0.036905702
197	0xbd367168	-0.044541746
198	0xbd11e4a5	-0.035618443
199	0xbd54c334	-0.051943973
200	0xbd5435c1	-0.051809076
201	0xbdfaf6da	-0.122541144
202	0x3a9b279f	0.001183737
203	0x3c7cded4	0.015433986
204	0x3d4ec1fc	0.050477967
205	0xbc82199a	-0.015881348
206	0x3d6ccb26	0.057810925
207	0xbd8b208b	-0.067933165
208	0xbb8b1ea3	-0.0042455955
209	0xbd626aa7	-0.055277493
210	0xbd049758	-0.032370895
211	0xbc0be376	-0.008538118
212	0x3d1a2196	0.037629686
213	0xb6bdd0bb	-5.6569384e-06
214	0x3ba93157	0.0051633525
215	0xbda03d87	-0.078242354
216	0xbd772c81	-0.060345177
217	0x3d82a0c0	0.06378317
218	0xbd7c2b65	-0.06156482
219	0xbd2d0bb2	-0.04224748
220	0x3c26e3a5	0.010186111
221	0xbb72ab2b	-0.0037028294
222	0x3dac3a24	0.08409527
223	0x3d04abb4	0.03239031
224	0xbdbb4ad5	-0.091451325
225	0xbcb8a76d	-0.022540772
226	0x3d230967	0.03980389
227	0xbdc092af	-0.09402978
228	0xbdba16cd	-0.0908638
229	0x3d938be8	0.072044194
230	0x3d988f36	0.0744919
231	0x3dc60db8	0.096705854
232	0xbbe3bc7a	-0.0069499584
233	0xbd756de5	-0.059919257
234	0x3db36655	0.08759753
235	0x3ce673b9	0.028131353
236	0x3d8ebcbc	0.06969592
237	0x3b9cdd77	0.004787143
238	0xbe0d2157	-0.1378225
239	0xbc98494c	-0.018589638
240	0xbc84134d	-0.016122485
241	0xbdace8c8	-0.08442837
242	0xbd7d8b27	-0.061900284
243	0xbd389fb4	-0.04507418
244	0x3da304a6	0.07959871
245	0xbd2ffb79	-0.042964432
246	0xbbc40199	-0.005981636
247	0xbd6edde6	-0.058317088
248	0xbd67215e	-0.056428306
249	0xbcb674b6	-0.022272449
250	0x3bc3a409	0.0059704822
251	0x3d3b519f	0.045732137
252	0xbcf164cd	-0.02946701
253	0xbd82bb52	-0.06383385
254	0x39a536e0	0.00031512138
255	0xbb38249f	-0.0028098

val_conv1.bias f4 [2]
0	0x3d3f7ce3	0.04674996
1	0x3dac72cf	0.084203355
