models/Training/AC_nmcts20/train_047.pth (torch, 424031 bytes, 15 tensors)

conv1.weight f4 [32, 5, 3, 3]
0.05977581 -0.15487255 -0.023661595 0.1625364 -0.21231283 0.007994377 0.10188263 -0.1394686
0.032622878 0.014436372 -0.017064745 0.16384947 0.050319135 -0.15153156 0.13142528 0.0023100486
-0.005290894 0.114432134 9.41499e-10 -2.4322447e-11 7.387373e-11 2.1808328e-09 -1.8218174e-10 6.593845e-08
2.1636434e-07 2.4023822e-10 1.901062e-11 0.12393757 0.031376418 -0.0428581 -0.13377512 -0.12654379
0.017432485 0.051708464 -0.12921149 0.099209994 -2.9901176e-10 8.429671e-11 5.6744415e-10 -2.5192348e-12
-1.4645144e-06 4.0115877e-10 -1.651488e-12 1.3594383e-09 1.1466318e-07 -0.01115601 0.18486618 0.10719579
0.020011103 0.022590615 -0.027936475 0.098675214 0.11528345 0.14256062 0.03938545 -0.20022273
-0.005537171 -0.0009654688 0.037024103 0.031651583 -0.067984425 -0.060946934 0.10788227 4.0256687e-09
2.7173543e-09 5.0408823e-11 -7.5603966e-05 1.2853111e-11 1.1204804e-10 -7.1554525e-05 -5.393581e-10 7.234593e-09
-0.1263481 0.1379143 -0.06943165 -0.02525283 -0.1467699 -0.09374219 -0.10281994 0.11203184
0.0066586216 -5.229873e-10 0.0008549968 -2.0647366e-09 -1.2257281e-10 -5.9574963e-09 -0.0002450939 2.0639773e-08
4.5519915e-05 -3.6288952e-10 -0.060239207 0.04419242 0.14396209 0.040315073 0.037555918 0.17103773
-0.067127265 -0.12755041 0.011226094 -0.031643186 -0.040644556 -0.098957606 -0.031613823 -0.043727975
0.08900017 0.15898201 -0.005167843 0.066886485 2.907081e-07 2.3314417e-08 -8.63416e-10 6.61103e-11
1.3877654e-05 -0.0007480301 -5.65594e-10 -7.3142764e-10 -1.6659885e-10 0.088895366 -0.017893428 -0.11236625
-0.07937654 -0.03633204 0.08969699 0.06479847 -0.0057865046 0.03270901 7.958654e-09 9.721418e-05
2.4620073e-09 -0.0007165342 1.3528186e-12 -0.00057882804 -2.1496857e-05 -2.8697938e-11 -4.1229561e-10 0.061352022
-0.13795398 -0.063672714 0.03287111 0.033059027 -0.026920212 0.1328574 0.20759404 0.1561604
0.045895025 0.0077715493 -0.09199346 -0.02593912 -0.1784416 -0.14635234 0.081786446 0.04270451
-0.15694316 2.9198145e-07 9.889818e-12 2.5835878e-09 2.2994881e-10 3.6426446e-08 -2.462294e-08 -2.5151345e-10
3.693505e-10 -2.7356522e-05 0.03790044 0.105445504 0.0768223 -0.1864327 0.104660064 0.0055876086
0.04992501 0.07316936 -0.006902004 0.0005888472 4.7606825e-09 8.785938e-08 2.2133795e-11 1.8027354e-08
7.827293e-10 -2.1284363e-10 0.00035427487 -2.7917661e-11 0.14299932 -0.048842415 0.12392977 0.046304338
-0.008805279 0.037301 0.02396887 0.029041009 -0.16403401 0.11846147 -0.13290662 0.09067675
0.055880737 0.056790438 0.11764451 0.098857105 0.042359985 -0.12166205 -8.1528795e-10 -1.1789067e-10
2.7648367e-08 -0.0008732217 2.9138891e-07 -1.1682816e-10 -7.1793406e-06 -1.9672136e-08 -8.213201e-12 0.13550521
-0.027669355 0.13245077 -0.0058487235 0.039679293 0.16618247 0.110883705 0.041054823 -0.021524515
-3.3588113e-10 4.727886e-10 -2.9957117e-10 -2.9173265e-07 -4.167467e-11 3.1003922e-10 -5.4871316e-09 -5.057258e-07
0.00069966103 0.086820364 0.1484119 0.13957469 0.15809092 -0.07349627 -0.021722723 0.12701137
0.17824459 -0.08411686 0.089128576 0.103222206 0.037488516 0.023395497 -0.13158244 -0.067503594
0.06539214 -0.09197198 -0.0035141567 -0.00014448431 -1.892231e-09 3.6278387e-05 1.7394556e-11 -7.657997e-05
2.9887284e-09 -1.6849718e-09 -1.9336665e-07 2.3281045e-08 0.014964265 0.07206991 0.028194737 0.060483657
00000000: 7bd7 743d e996 1ebe f6d5 c1bc f16f 263e
00000010: 8968 59be d9fa 023c d7a7 d03d dbd0 0ebe
00000020: 919f 053d 8886 6c3c 5dcb 8bbc 28c8 273e
00000030: 701b 4e3d 172b 1bbe 5994 063e 2f64 173b
00000040: 3c5f adbb 655b ea3d 0d66 8130 48f1 d5ad
00000050: 3673 a22e 9edd 1531 9a4f 48af 0c9a 8d33
00000060: c751 6834 8612 842f 1c38 a72d fbd2 fd3d
00000070: 8f84 003d fa8b 2fbd 58fc 08be b294 01be
00000080: 92ce 8e3c 41cc 533d 0450 04be 9c2e cb3d
00000090: 2a62 a4af d45e b92e 55fa 1b30 8046 31ac
000000a0: 5590 c4b5 148a dc2f 206d e8ab fcd6 ba30
000000b0: c03c f633 b3c7 36bc 8f4d 3d3e 7789 db3d
000000c0: 53ee a33c f40f b93c 09db e4bc 3b16 ca3d
000000d0: bb19 ec3d 69fb 113e a352 213d 3007 4dbe
000000e0: 2871 b5bb 8417 7dba 96a6 173d 17a5 013d
000000f0: 6b3b 8bbd 7ea3 79bd 61f1 dc3d 2852 8a31
00000100: 34bc 3a31 4ab3 5d2e 928d 9eb8 441d 622d
00000110: 7065 f62e 8b0f 96b8 f441 14b0 2794 f831
00000120: 6561 01be 6839 0d3e 2e32 8ebd 06df cebc
00000130: d94a 16be e8fb bfbd 4393 d2bd f370 e53d
00000140: 9130 da3b f6c1 0fb0 dd21 603a 3be3 0db1
00000150: 2ec5 06af b1b2 ccb1 f27f 80b9 574b b132
00000160: a3ec 3e38 2980 c7af 63bd 76bd 1c03 353d
00000170: cc6a 133e 6b21 253d 3cd4 193d 8424 2f3e
00000180: 057a 89bd 939c 02be a7ed 373c 499c 01bd
00000190: e87a 26bd 49aa cabd 7f7d 01bd 1b1c 33bd
000001a0: b945 b63d 2ecc 223e 0257 a9bb c8fb 883d
000001b0: 9e12 9c34 f244 c832 8055 6db0 ca60 912e
000001c0: 12d4 6837 7317 44ba 2478 1bb0 a50d 49b0
000001d0: 682d 37af c60e b63d 3d95 92bc 4720 e6bd
000001e0: 2b90 a2bd e8d0 14bd 0eb3 b73d 0fb5 843d
000001f0: b89c bdbb e2f9 053d 88ba 0832 77df cb38
00000200: 1730 2931 ccd5 3bba 6d64 be2b 7ebc 17ba
00000210: 2654 b4b7 036e fcad 73a9 e2af 424c 7b3d
00000220: cf43 0dbe d766 82bd dba3 063d e768 073d
00000230: c787 dcbc c50b 083e 8893 543e 83e8 1f3e
00000240: 6cfc 3b3d 7ba8 fe3b 1167 bcbd 477e d4bc
00000250: 65b9 36be 63dd 15be a77f a73d edea 2e3d
00000260: b5b5 20be a0c1 9c34 c8fb 2d2d f58a 3131
00000270: d6d4 7c2f 4d73 1c33 6b82 d3b2 5f45 8aaf
00000280: 760d cb2f af7b e5b7 7e3d 1b3d d0f3 d73d
00000290: 0355 9d3d 37e8 3ebe 0458 d63d 4218 b73b
000002a0: 2b7e 4c3d d1d9 953d 352a e2bb de5c 1a3a
000002b0: 6893 a331 34ad bc33 e0b0 c22d 92da 9a32
000002c0: ae27 5730 2806 6aaf f8bd b939 fc90 f5ad
000002d0: 6a6e 123e fc0e 48bd e4ce fd3d 9ea9 3d3d
000002e0: 0444 10bc efc8 183d 5d5a c43c 69e7 ed3c
000002f0: 88f8 27be ed9b f23d ac18 08be bbb4 b93d
00000300: 33e3 643d 179d 683d 9bef f03d 9875 ca3d
00000310: aa81 2d3d f429 f9bd ca1a 60b0 469f 01af
00000320: 677f ed32 ebe8 64ba 3070 9c34 3474 00af
00000330: 11e6 f0b6 7cfb a8b2 f87c 10ad e1c1 0a3e
00000340: d8aa e2bc 2da1 073e a6a6 bfbb c186 223d
00000350: bd2b 2a3e ff16 e33d 1a29 283d 2e54 b0bc
00000360: 11a7 b8af 8af5 0130 e5b0 a4af 6e9f 9cb4
00000370: 8249 37ae 2472 aa2f 5289 bcb1 36c1 07b5
00000380: 7569 373a e0ce b13d 4af9 173e abec 0e3e
00000390: 96e2 213e 3685 96bd daf3 b1bc 450f 023e
000003a0: c085 363e 7645 acbd 0b89 b63d 2a66 d33d
000003b0: 8f8d 193d eaa7 bf3c 8cbd 06be 533f 8abd
000003c0: 50ec 853d ce5b bcbd c44d 66bb b680 17b9
000003d0: 7b08 02b1 9f29 1838 0f01 992d 8f99 a0b8
000003e0: 4462 4d31 ad94 e7b0 38a0 4fb4 8ffb c732
000003f0: ad2c 753c 6499 933d a6f8 e63c b6bd 773d

conv1.bias f4 [32]
0.122103766 0.015720943 -0.03326482 0.09600516 -0.07431605 -0.14535622 -0.020308789 0.09678853
0.06987649 -0.11211187 0.18339981 -0.052095436 0.1630801 0.1441297 -0.09518467 -0.04229073
-0.038844727 -0.071494125 -0.039570462 0.16534027 -0.0543868 0.066969626 0.00035542744 -0.07407413
-0.07778455 0.07729512 -0.12091117 0.16046803 0.12618889 -0.070009805 -0.10468894 0.104268804
00000000: 8a11 fa3d 35c9 803c b140 08bd 5a9e c43d
00000010: 0333 98bd 43d8 14be 9e5e a6bc 1139 c63d
00000020: 681b 8f3d e89a e5bd 29cd 3b3e 0662 55bd
00000030: 78fe 263e bc96 133e 2ef0 c2bd 0b39 2dbd
00000040: a61b 1fbd 836b 92bd a314 22bd f64e 293e
00000050: b1c4 5ebd 5f27 893d aa58 ba39 2db4 97bd
00000060: 824d 9fbd e74c 9e3d 47a0 f7bd bb51 243e
00000070: a937 013e 4d61 8fbd 2867 d6bd e28a d53d

conv2.weight f4 [64, 32, 3, 3]
-0.026875138 0.030812524 -0.003810896 0.033986047 -0.053818073 -0.055162866 -0.052423943 0.014606034
-0.01874322 -0.04807691 -0.041484006 -0.037083577 0.027734052 0.03179612 0.036439512 0.02512583
0.02016904 0.066498026 -0.05864513 -0.04866194 -0.04021971 0.014240712 0.04646196 -0.0005532599
0.002932327 0.008419175 -0.05526739 -0.08092588 -0.013419809 0.029498983 -0.0028384568 -0.0025395667
-8.717599e-05 0.03178112 0.020398537 0.049366485 -0.0031298818 0.034256425 -0.05024954 0.020143017
0.05098518 -0.028026346 -0.0018971909 -0.00023613394 -0.032394927 -0.055108853 -0.017096283 -0.0032843116
-0.052600197 -0.034244314 -0.0024173127 -0.03165549 0.059509613 0.026260834 -0.014425201 -0.048025496
-0.07271904 -0.0046818564 0.024650918 -0.007123634 0.024435366 -0.026075099 -0.034318797 0.019265773
-0.028578948 0.027968245 -0.040150736 0.08885082 0.038437445 0.04800759 -0.0087339105 -0.0050342544
-0.088947855 -0.016283453 0.006969807 -0.06605202 0.05928069 -0.07512459 -0.03688234 0.034143906
0.041226953 -0.004545495 -0.064028114 -0.025847996 0.028031904 -0.07085793 -0.041490808 0.039752934
0.0442439 -0.013536295 -0.06089487 0.024499154 -0.061612207 -0.059364732 -0.061206184 -0.086621225
-0.045823626 -0.023892509 -0.025047487 0.0050447728 0.047289513 -0.025744423 -0.06939168 0.014901879
0.043353584 -0.025179788 0.026825197 -0.055778258 -0.095286936 -0.035638623 -0.079373725 0.0045771594
0.063516684 -0.09151632 -0.04635073 -0.0510757 -0.00070859503 -0.075241365 -0.05769847 0.03710016
-0.07270001 0.032281294 -0.017965917 -0.045332666 0.005980462 -0.012150455 -0.027284466 0.009399951
-0.056470323 -0.06897976 -0.03143195 0.006251059 -0.08082656 -0.018000757 0.009711085 -0.04752099
-0.03659646 -0.036439024 -0.047568895 -0.013780599 -0.03855929 -0.024138875 -0.05211023 -0.060179044
0.048661493 -0.042834584 -0.06814072 -0.044974428 -0.060032837 -0.029743308 -0.012112344 0.012941633
-0.021584675 -0.0497664 0.023289515 -0.0003037209 -0.06761659 -0.004846782 0.06616202 0.00078821904
0.04480745 -0.061237384 -0.03492339 0.0089941425 0.05304783 -0.01169505 -0.057533156 0.008196507
0.051577836 -0.028605817 0.0138715785 0.025819032 -0.075505264 -0.051143818 -0.015251119 0.046128027
-0.026919777 -0.0061967475 -0.042858157 -0.09518665 -0.066250965 0.027921317 -0.00039500557 -0.024175663
0.056990035 0.008408806 0.0002537327 -0.0001200398 -0.026011046 -0.0048897243 0.010133183 -0.048672702
-0.015593 0.06911459 -0.01579413 -0.016619043 -0.07237844 -0.0765539 0.042168166 -0.010028428
-0.012435523 -0.056599744 -0.033065695 -0.013682881 -0.07305234 0.008344678 -0.054740757 0.039647475
-0.030778306 -0.061489087 0.022326136 0.005673402 -0.055131145 0.013601245 0.06173571 0.08382016
0.017651217 -0.0077389106 0.017198186 -0.046820484 0.020253127 -0.04489603 0.008737745 -0.025174133
-0.03264649 0.007465903 0.047680788 -0.00048833893 -0.009773899 -0.03603166 -0.05491667 0.026224855
0.00016244347 0.023621826 0.0036294467 0.040487207 -0.013344221 0.03960761 -0.0227975 0.05236815
0.040602226 -0.019042525 -0.012473481 -0.0039499854 -0.06374059 -0.02386602 0.011062065 -0.04710664
-0.0063983332 -0.054924753 -0.03153093 -0.04619234 -0.03538046 0.03018165 0.050654296 0.017359834
00000000: 4029 dcbc 8c6a fc3c 3ac0 79bb f434 0b3d
00000010: 5770 5cbd 75f2 61bd 7dba 56bd 264e 6f3c
00000020: 628b 99bc 4bec 44bd 22eb 29bd f3e4 17bd
00000030: 8632 e33c a63c 023d 9941 153d afd4 cd3c
00000040: 8b39 a53c 1e30 883d e035 70bd be51 47bd
00000050: 6cbd 24bd e051 693c e54e 3e3d a508 11ba
00000060: 492c 403b 94f0 093c 0f60 62bd 78bc a5bd
00000070: c2de 5bbc daa7 f13c 6705 3abb dc6e 26bb
00000080: 41d2 b6b8 eb2c 023d d51a a73c 8334 4a3d
00000090: b41e 4dbb 7750 0c3d 76d2 4dbd f802 a53c
000000a0: d6d5 503d 8297 e5bc 2aab f8ba b99a 77b9
000000b0: 8bb0 04bd d2b9 61bd 810d 8cbc 9b3d 57bb
000000c0: 4e73 57bd c443 0cbd c76b 1ebb 30a9 01bd
000000d0: 5ac0 733d f620 d73c ae57 6cbc 62b6 44bd
000000e0: b8ed 94bd 426a 99bb b9f0 c93c 606d e9bb
000000f0: ad2c c83c 729b d5bc de91 0cbd 41d3 9d3c
00000100: 661e eabc a91d e53c 1975 24bd 6bf7 b53d
00000110: 9570 1d3d 9ba3 443d ad18 0fbc 63f6 a4bb
00000120: 4b2a b6bd e064 85bc fb62 e43b 4846 87bd
00000130: 4fd0 723d ecda 99bd f011 17bd 7bda 0b3d
00000140: 98dd 283d 60f2 94bb 2c21 83bd 2dbf d3bc
00000150: 2aa3 e53c f61d 91bd 44f2 29bd f9d3 223d
00000160: 1739 353d 56c7 5dbc e66c 79bd 73b2 c83c
00000170: 155d 7cbd 6f28 73bd 56b3 7abd 7866 b1bd
00000180: 8eb1 3bbd 39ba c3bc 6330 cdbc 9f4e a53b
00000190: a6b2 413d f8e5 d2bc 3a1d 8ebd 0327 743c
000001a0: 8793 313d d845 cebc 84c0 db3c be77 64bd
000001b0: cc25 c3bd cef9 11bd b18e a2bd fffb 953b
000001c0: 0915 823d e96c bbbd 43da 3dbd c134 51bd
000001d0: 02c1 39ba 2518 9abd 3b55 6cbd 56f6 173d
000001e0: bee3 94bd 6439 043d 422d 93bc bfae 39bd
000001f0: c0f7 c33b b412 47bc ac83 dfbc 4102 1a3c
00000200: 6d4d 67bd 4345 8dbd cabe 00bd afd5 cc3b
00000210: 6588 a5bd 5376 93bc 3e1b 1f3c 5fa5 42bd
00000220: 2be6 15bd 1641 15bd 9ad7 42bd 06c8 61bc
00000230: 59f0 1dbd e4be c5bc 8971 55bd 4d7e 76bd
00000240: 4651 473d 5173 2fbd 5d8d 8bbd 1b37 38bd
00000250: fee4 75bd 3da8 f3bc da72 46bc 2509 543c
00000260: 58d2 b0bc dad7 4bbd a7c9 be3c bb3c 9fb9
00000270: 917a 8abd c1d1 9ebb f47f 873d 7ca0 4e3a
00000280: 0488 373d 0dd4 7abd d40b 0fbd 2b5c 133c
00000290: ae48 593d 989c 3fbc e3a7 6bbd a44a 063c
000002a0: 4843 533d bf56 eabc 9e45 633c 6f82 d33c
000002b0: 81a2 9abd 2e7c 51bd d4df 79bc bef0 3c3d
000002c0: dd86 dcbc 160e cbbb 098c 2fbd 38f1 c2bd
000002d0: 96ae 87bd 3fbb e43c c018 cfb9 0a0c c6bc
000002e0: 626e 693d 17c5 093c 6d07 8539 e0bd fbb8
000002f0: 1e15 d5bc fb39 a0bb a605 263c 075d 47bd
00000300: c879 7fbc f38b 8d3d b162 81bc a924 88bc
00000310: 263b 94bd 4bc8 9cbd 87b8 2c3d 474e 24bc
00000320: 5dbe 4bbc 22d5 67bd e56f 07bd 2a2e 60bc
00000330: 779c 95bd 1eb8 083c d837 60bd 6465 223d
00000340: c922 fcbc fbdb 7bbd 4de5 b63c f2e7 b93b
00000350: 32d1 61bd c2d7 5e3c 95de 7c3d e7a9 ab3d
00000360: 4999 903c b096 fdbb 36e3 8c3c d6c6 3fbd
00000370: e3e9 a53c e6e4 37bd c228 0f3c fc39 cebc
00000380: 53b8 05bd 89a4 f43b ee4c 433d df03 00ba
00000390: b422 20bc ef95 13bd 4df0 60bd 82d5 d63c
000003a0: 9655 2a39 8f82 c13c 03dc 6d3b ead5 253d
000003b0: b8a1 5abc 973b 223d d3c1 babc fc7f 563d
000003c0: 854e 263d 12ff 9bbc 925d 4cbc e16e 81bb
000003d0: 6d8a 82bd ac82 c3bc aa3d 353c e4f2 40bd
000003e0: 1ca9 d1bb c7f8 60bd 9426 01bd 2e34 3dbd
000003f0: 1aeb 10bd 823f f73c e17a 4f3d 3636 8e3c

conv2.bias f4 [64]
0.0249806 0.0082546985 -0.07108795 -0.054843664 -0.012642768 0.06921618 0.05352542 0.022078779
-0.02306467 0.08120661 -0.027453026 -0.03495247 0.050027996 -0.041533597 0.0017094949 0.008665748
0.06679597 0.080508985 0.030963693 0.044301305 0.012092084 -0.030222151 0.06887304 0.050443593
0.026565706 0.095954135 -0.0023040401 0.051147282 -0.052419487 -0.026889423 0.0717331 0.062486757
0.0010926157 0.020585187 0.007916404 0.08674194 0.027823208 -0.03668528 0.0015267809 0.077342175
0.040280905 -0.030457338 -0.058559585 -0.030037502 -0.009604255 0.056403935 -0.037536703 0.07871946
0.056114938 -0.047570348 0.043891113 0.06228838 0.08084793 0.0011179361 0.034087967 0.07205978
-0.018755058 0.04497985 -0.035569206 -0.0079195965 0.019448074 -0.022500608 -0.03611323 0.0034827786
00000000: 1ea4 cc3c b73e 073c 8f96 91bd c0a3 60bd
00000010: 9d23 4fbc 36c1 8d3d 793d 5b3d 8ede b43c
00000020: 1ef2 bcbc a74f a63d 2be5 e0bc 522a 0fbd
00000030: 28ea 4c3d 221f 2abd 2111 e03a c8fa 0d3c
00000040: 53cc 883d e5e1 a43d 92a7 fd3c 4975 353d
00000050: e01d 463c 7294 f7bc 4f0d 8d3d f19d 4e3d
00000060: 53a0 d93c 9a83 c43d 61ff 16bb d07f 513d
00000070: d1b5 56bd 3547 dcbc cee8 923d 1df2 7f3d
00000080: 1936 8f3a 44a2 a83c ceb3 013c c2a5 b13d
00000090: 7fed e33c 4e43 16bd 441e c83a 9365 9e3d
000000a0: 97fd 243d ab81 f9bc 2ddc 6fbd 3511 f6bc
000000b0: 2a5b 1dbc d007 673d 16c0 19bd ab37 a13d
000000c0: c7d8 653d 20d9 42bd 2bc7 333d 1a22 7f3d
000000d0: 9993 a53d b687 923a d39f 0b3d 1494 933d
000000e0: 35a4 99bc cb3c 383d 04b1 11bd 32c1 01bc
000000f0: 9151 9f3c 3253 b8bc 77eb 13bd 543f 643b

conv3.weight f4 [128, 64, 3, 3]
0.024178956 0.043611858 -0.002352234 -0.022457503 -0.021994425 -0.021450123 0.0018155685 -0.009479384
0.0059772627 0.01839907 0.0062436764 0.028184073 -0.038897347 0.020846326 -0.01454073 -0.011136462
-0.00869027 -0.0050168964 0.058529653 -0.026868815 -0.009777274 0.023271628 -0.0067258934 0.024545234
-0.048497647 -0.033575576 0.026191095 0.0071665086 -0.013057375 0.08068778 -0.019859083 0.014767463
0.104045816 0.008956093 0.046716914 -0.052330796 0.009705042 -0.009489176 -0.04525919 -0.027498866
-0.052068446 -0.042759262 -0.04632227 -0.021071184 0.016602103 0.040039226 -0.00899859 -0.026140144
0.05003935 0.0070540886 -0.053019375 0.021549216 -0.055166118 -0.0032690896 0.02084186 -0.030445803
-0.0056014843 -0.047619916 -0.0463969 -0.023646994 0.0019876498 -0.026461404 -0.006007463 0.0052763536
-0.007203087 0.033411473 -0.02228917 0.025688859 -0.008454633 0.021065017 -0.0054848758 -0.0019267941
0.0058623934 0.010985213 -0.033909056 0.030429622 0.014852168 -0.0018686904 0.034689784 -0.03704552
-0.024214692 -0.020003492 -0.036252394 -0.06022273 -0.04304573 -0.058386754 0.023164855 -0.028653916
0.03513902 -0.01081462 0.032053314 0.018826598 -0.013585199 0.004685977 0.015325463 -0.0151047185
0.032195013 0.0191179 -0.042023994 -0.05014285 0.043835904 0.03057678 0.03849547 0.050523072
-0.0087594325 0.028757364 -0.05481502 0.0701864 -0.02775625 0.039060857 -0.025454378 0.0033429835
0.0046074875 -0.039432175 -0.0020602965 -0.006157307 0.08657605 -0.006314954 -0.017426878 -0.023961568
0.0072550518 0.016878061 0.004041227 0.038041137 0.014025219 -0.019762918 -0.05253726 0.0170857
-0.015299801 -0.06916225 -0.027328132 0.0008872063 0.02742512 0.013070823 0.026139563 -0.007635813
-0.010813616 -0.05467229 0.03916973 -0.07953918 -0.058542732 -0.0028264888 -0.021430455 -0.03481871
0.0066118124 -0.038295146 -0.062579066 0.008613281 -0.02379828 -0.058931142 0.013497511 -0.008940753
0.023644034 -0.004206101 0.027726892 0.004107616 0.028099699 0.035692908 -0.011128344 0.009637043
0.004392353 0.03000595 0.02090131 -0.057170555 0.02996459 -0.023122525 -0.013342953 0.035032816
-0.04843187 0.011678391 0.024171088 -0.007522829 0.050370492 0.0752678 -0.0035897354 -0.039704755
-0.0338117 0.052581288 0.019465638 -0.010185213 -0.0040805363 0.028364368 0.0040286467 -0.029330641
-0.029996188 -0.018527538 -0.011772411 0.014552736 0.060129583 -0.027962489 0.032632977 0.03394986
-0.04533479 0.03381775 0.0006822376 -0.053209115 -0.048180986 -0.05480952 0.012411203 0.020907318
-0.09601541 -0.008487981 -0.053752393 -0.08297447 0.017879598 -0.05247437 0.071366236 -0.01568216
-0.03501476 0.04491052 -0.051566757 0.02677928 -0.019292373 -0.07724526 0.024110615 0.07019595
0.014401616 0.0040378417 0.010808251 0.042651735 -0.021291256 -0.0055163642 -0.0042933207 -0.02297481
-0.024321916 -0.03919895 0.03843996 0.030608976 0.014557181 0.008784338 -0.05459566 0.0197015
0.011244073 0.05343627 0.0047945133 -0.017357538 -0.03640216 -0.010051697 -0.038452685 -0.02098081
-0.008420972 -0.07378248 0.03445256 0.010748852 -0.0037755792 -0.030369056 -0.01904016 0.0117398705
-0.0157333 -0.013721361 -0.011442612 -0.008909226 -0.040687777 0.0037571732 0.015720692 0.041600276
00000000: f212 c63c 59a2 323d f027 1abb ccf8 b7bc
00000010: a72d b4bc 2bb8 afbc 5ff8 ed3a 6b4f 1bbc
00000020: eadc c33b a5b9 963c c197 cc3b 49e2 e63c
00000030: d352 1fbd eac5 aa3c 3e3c 6ebc b575 36bc
00000040: a261 0ebc c764 a4bb cabc 6f3d fd1b dcbc
00000050: dc30 20bc 24a4 be3c e264 dcbb 1613 c93c
00000060: 78a5 46bd 8b86 09bd b58e d63c 08d5 ea3b
00000070: 9aee 55bc a33f a53d 84af a2bc 3bf3 713c
00000080: f915 d53d 94bc 123c 3c5a 3f3d d158 56bd
00000090: e501 1f3c 7d78 1bbc b361 39bd 4d45 e1bc
000000a0: b945 55bd 5624 2fbd 6cbc 3dbd 7a9d acbc
000000b0: 2201 883c 2c00 243d d26e 13bc db23 d6bc
000000c0: 10f6 4c3d fc25 e73b d82a 59bd fb87 b03c
000000d0: def5 61bd 393e 56bb 8cbc aa3c 7a69 f9bc
000000e0: a88c b7bb 1a0d 43bd ad0a 3ebd 57b7 c1bc
000000f0: 3b43 023b 96c5 d8bc 41da c4bb 43e5 ac3b
00000100: e007 ecbb 78da 083d c797 b6bc 7171 d23c
00000110: 4d85 0abc 8b90 ac3c 79ba b3bb 7b8c fcba
00000120: 5219 c03b 53fb 333c 39e4 0abd 8b47 f93c
00000130: 8256 733c d8ee f4ba e016 0e3d 0bbd 17bd
00000140: e45d c6bc 5dde a3bc 647d 14bd 1cac 76bd
00000150: b850 30bd f326 6fbd 39c4 bd3c 9ebb eabc
00000160: efed 0f3d ce2f 31bc 564a 033d 3d3a 9a3c
00000170: 7494 5ebc d38c 993b a717 7b3c c879 77bc
00000180: ebde 033d 249d 9c3c 5a21 2cbd 9762 4dbd
00000190: 478d 333d 287c fa3c 6dad 1d3d 48f1 4e3d
000001a0: b983 0fbc 9094 eb3c b785 60bd e3bd 8f3d
000001b0: 1361 e3bc 47fe 1f3d b385 d0bc f515 5b3b
000001c0: 68fa 963b a283 21bd 0a06 07bb 3cc3 c9bb
000001d0: c94e b13d aced cebb d0c2 8ebc 0d4b c4bc
000001e0: c9bb ed3b dc43 8a3c 456c 843b 06d1 1b3d
000001f0: 08ca 653c d8e5 a1bc 4f31 57bd 4ff7 8b3c
00000200: 04ac 7abc f0a4 8dbd 3fdf dfbc 6893 683a
00000210: a5aa e03c 0127 563c a322 d63c d835 fabb
00000220: 982b 31bc 0df0 5fbd 7070 203d 70e5 a2bd
00000230: 81ca 6fbd 9d3c 39bb ec8e afbc 109e 0ebd
00000240: e7a7 d83b 5fdb 1cbd 7429 80bd b81e 0d3c
00000250: 9cf4 c2bc c861 71bd aa24 5d3c 3c7c 12bc
00000260: 22b1 c13c 55d3 89bb 8223 e33c 2e99 863b
00000270: 5731 e63c ba32 123d a853 36bc b0e4 1d3c
00000280: baed 8f3b 0acf f53c 3939 ab3c ac2b 6abd
00000290: 4d78 f53c 736b bdbc 679c 5abc 927e 0f3d
000002a0: 7f60 46bd b956 3f3c 7202 c63c 1082 f6bb
000002b0: 4a51 4e3d 0126 9a3d c441 6bbb 74a1 22bd
000002c0: 237e 0abd 7a5f 573d 6776 9f3c e1df 26bc
000002d0: 05b6 85bb 645c e83c bd02 843b d046 f0bc
000002e0: 91ba f5bc 10c7 97bc 12e1 40bc 996e 6e3c
000002f0: 704a 763d 9711 e5bc 28aa 053d 020f 0b3d
00000300: f9b0 39bd 7b84 0a3d 31d8 323a cdf1 59bd
00000310: 6d59 45bd f27f 60bd 5c58 4b3c d345 ab3c
00000320: baa3 c4bd 2c11 0bbc 782b 5cbd 85ee a9bd
00000330: 3c78 923c 5def 56bd 7628 923d e077 80bc
00000340: a36b 0fbd 18f4 373d aa37 53bd 3860 db3c
00000350: 0a0b 9ebc c332 9ebd a083 c53c e5c2 8f3d
00000360: c1f4 6b3c df4f 843b 1715 313c 96b3 2e3d
00000370: 006b aebc 9ec2 b4bb fcae 8cbb ab35 bcbc
00000380: c13e c7bc 148f 20bd 3873 1d3d adbf fa3c
00000390: 3e81 6e3c 2fec 0f3c b39f 5fbd 0a65 a13c
000003a0: 0f39 383c fedf 5a3d 4b1b 9d3b 6531 8ebc
000003b0: 6e1a 15bd dfaf 24bc 9080 1dbd f3df abbc
000003c0: 1ef8 09bc 451b 97bd 211e 0d3d f41b 303c
000003d0: b56f 77bb 87c8 f8bc 1cfa 9bbc 9658 403c
000003e0: 1fe3 80bc 8fcf 60bc cb79 3bbc 01f8 11bc
000003f0: 3aa8 26bd e83a 763b aec8 803c 0d65 2a3d

conv3.bias f4 [128]
-0.01619979 -0.029790219 -0.020761058 0.09782229 -0.023869194 0.005266678 -0.016204512 0.034167998
-0.020245472 0.014001411 -0.018863454 -0.017333422 0.048377376 -0.01484006 0.017452117 0.03256201
0.054198734 0.041364867 0.023725485 0.009428476 0.031224972 0.026776452 0.05437544 0.030730095
-0.0193168 0.022187082 0.053656433 -0.010437537 0.023367926 -0.047526464 -0.0494588 0.02125696
-0.032877214 0.031056195 0.0083711995 -0.025995005 0.04522875 -0.02855705 0.009757259 0.0038041337
0.031005511 -0.01209452 0.011074995 -0.015992904 0.019701224 0.075569995 0.005324573 0.009185451
0.021013593 0.0036675967 -0.02385424 0.0117304195 -0.0361184 0.05802843 -0.00885182 0.027449043
-0.0028103162 0.066325404 -0.015621465 0.03028727 0.035067245 0.031627443 0.014079183 -0.009214089
-0.022175752 0.042470325 0.045549624 0.026416752 0.017598955 0.012768483 0.013384509 0.020177694
-0.012039809 0.018315736 0.025828771 0.053467263 0.038377196 0.049818777 0.013343971 0.02350204
-0.033911653 0.04133229 0.009599384 -0.03123526 0.0072210575 -0.00050399743 0.041082513 -0.007237981
0.009246745 0.013989054 -0.024483344 0.081626184 -0.0073129795 0.024072073 -0.02078379 0.00024761038
0.003760938 0.023246158 -0.023453912 0.043410096 0.035922673 0.04165962 -0.016741453 -0.029538149
0.039818477 0.06133448 -0.0053779 0.038928185 -0.045492195 0.012267313 0.02333853 0.029322859
-0.026835565 -0.0064515867 0.048673812 0.053187132 0.0031682085 -0.0077341734 -0.014493993 0.036448587
-0.007925049 0.012440963 -0.019679526 0.0053498796 -0.021574413 -0.023666795 -0.021309778 0.06831456
00000000: 6cb5 84bc 9e0a f4bc 1813 aabc 0e57 c83d
00000010: 5489 c3bc 1994 ac3b 53bf 84bc bef3 0b3d
00000020: d5d9 a5bc 2d66 653c 8887 9abc d2fe 8dbc
00000030: 5b27 463d b923 73bc bef7 8e3c be5f 053d
00000040: 7eff 5d3d 356e 293d f35b c23c e579 1a3c
00000050: 83cb ff3c 4a5a db3c c8b8 5e3d aebd fb3c
00000060: 443e 9ebc afc1 b53c d9c6 5b3d 3402 2bbc
00000070: 186e bf3c 1cab 42bd 5095 4abd 1423 ae3c
00000080: 42aa 06bd 9069 fe3c 5b27 093c 7af3 d4bc
00000090: c841 393d 79f0 e9bc e9dc 1f3c c64e 793b
000000a0: 45ff fd3c 1828 46bc e573 353c 8d03 83bc
000000b0: 7664 a13c 71c4 9a3d c179 ae3b 937e 163c
000000c0: b324 ac3c 105c 703b f869 c3bc f230 403c
000000d0: e3f0 13bd 38af 6d3d 3907 11bc d1dc e03c
000000e0: 482d 38bb 9dd5 873d 2cf1 7fbc 021d f83c
000000f0: aca2 0f3d c78b 013d 60ac 663c b1f6 16bc
00000100: eca9 b5bc 5df5 2d3d 3e92 3a3d f267 d83c
00000110: af2b 903c e632 513c b34a 5b3c b14b a53c
00000120: 9e42 45bc e20a 963c dc96 d33c 7d00 5b3d
00000130: 6831 1d3d c60e 4c3d aca0 5a3c 5a87 c03c
00000140: f2e6 0abd 0c4c 293d bc46 1d3c 17e1 ffbc
00000150: 9f9e ec3b b21e 04ba 2346 283d 962c edbb
00000160: a97f 173c 5832 653c 4b91 c8bc a12b a73d
00000170: b8a1 efbb cc32 c53c c442 aabc b4d1 8139
00000180: 127a 763b ba6e be3c 6b22 c0bc c9ce 313d
00000190: a723 133d 47a3 2a3d 5f25 89bc fdf9 f1bc
000001a0: b318 233d dd39 7b3d 1839 b0bb 2973 1f3d
000001b0: 0656 3abd d7fc 483c 7230 bf3c 7e36 f03c
000001c0: 42d6 dbbc d567 d3bb 315e 473d c0da 593d
000001d0: b8a1 4f3b f36e fdbb 3678 6dbc 1d4b 153d
000001e0: 11d8 01bc 2ed5 4b3c f536 a1bc 0b4e af3b
000001f0: d3bc b0bc dee0 c1bc d891 aebc 81e8 8b3d

act_conv1.weight f4 [4, 128, 1, 1]
0.0057270033 -2.5347632e-10 0.005282254 -0.119328424 0.010874542 0.00018704869 0.049744595 0.015575204
0.069564775 -0.10473941 -0.017369356 0.018087493 -0.13017935 0.010748862 0.029682852 -0.047295928
0.0070607504 -0.06104519 0.028123979 0.008671369 -0.020697398 0.02399151 -0.09444258 0.0061427657
0.01635174 0.035896793 -0.013276657 -0.039179936 -0.0009213337 -0.042459723 -0.023037793 0.03607069
1.6990821e-10 -0.0016453027 -0.026424665 0.05011507 -0.068231195 -0.020629449 -0.0012614987 -8.8731125e-05
-0.040923636 -0.020050919 -0.038102243 -0.055708732 -0.00746676 -0.08190997 -0.008135911 -0.08220345
-0.0021379318 -0.031646475 0.031221412 0.02664288 -0.010072552 -0.037240937 -0.06416203 0.058716543
7.402542e-12 -0.107224144 -0.072278924 -0.018757325 -0.079143755 0.028708903 0.032678075 1.4048911e-09
0.06009548 -0.0497168 0.041140113 -0.024256147 -0.051865842 -0.005084647 0.038346156 0.007815375
-0.03576307 0.07258625 0.049847744 -0.06005135 -0.0066338247 -0.0049346387 -0.063321896 -0.023560328
0.006980968 0.033879615 -0.0025081781 -1.5399647e-09 -0.02856829 7.5313644e-10 -0.10660385 0.07289161
0.043114014 -0.0052927225 0.010891533 -0.08309225 0.01683909 0.056513626 -0.029969664 0.051653042
-0.04132033 0.04922497 -0.036214463 0.055163354 -0.007946175 0.022988124 -0.0069616325 -0.08012687
-0.008533341 0.0017671116 -0.0051532676 -0.0900663 0.023919102 0.062368136 -0.029984398 -0.0013692871
7.7011214e-10 0.002416963 -0.029333785 -0.02440546 -0.042431753 0.04067345 0.03455114 -0.012662508
0.07256558 -0.029086227 -0.02060517 -0.09638574 -1.2531167e-08 0.04061025 -2.6787156e-10 -0.012262322
-0.0049439664 0.04366202 -0.05116669 0.037641827 0.085463576 -0.094302356 -0.05708094 0.078952916
0.06784574 -0.08171538 0.009168787 -0.13414448 0.022972304 0.025961945 0.10607695 0.12315557
-0.1583544 -0.043381598 0.008697722 0.013948947 0.03756715 -0.06681153 0.023340415 -0.025037697
0.05368137 0.00040415488 -0.002334776 0.12918858 0.07374923 -0.11443491 -0.0062423907 -0.068240866
-0.062220115 0.04842126 0.017973844 0.0037837245 0.11611559 0.09858762 0.01573533 -0.013421885
0.03113808 -0.0014348334 -0.04756614 0.074080735 -0.09254074 0.039006144 -0.044063874 -4.3570806e-05
-0.12856548 -0.022101019 0.030757451 0.014671151 -0.15549459 0.11713522 0.02975763 -0.052561995
-3.319451e-08 0.08744174 0.0053302 0.08143611 0.08698573 0.011878303 -0.022836244 -5.829351e-12
0.0060543395 0.08398635 0.0906042 0.077828996 0.069199085 -0.03921349 -0.05607741 0.09797143
0.11212157 0.08364019 0.07852968 -0.098687455 -0.009843019 0.018070046 0.092173025 0.1336764
-0.05368681 0.007956633 -0.025789248 -0.017799621 0.07217149 -6.187493e-09 0.09732827 -0.066257514
0.08636312 0.00016977992 0.013753382 0.06628619 -0.042890064 -0.08041512 0.05615979 0.07386399
0.09477214 0.01738139 -0.059848808 0.030007314 0.116531715 0.06258927 -0.12015902 0.13519092
0.0875397 -0.015446204 -0.022382956 0.16700013 -0.10338867 -0.005104618 0.10322246 -0.02587984
-0.0011231354 0.052226447 0.18572463 -0.1349376 0.010241219 -0.08965219 0.0001002251 0.08280035
-0.039575744 0.0410506 0.10675934 0.02306216 0.0020415883 0.029962314 0.001712103 0.055212613
00000000: 96a9 bb3b 9f59 8baf c216 ad3b 7662 f4bd
00000010: 232b 323c 8022 4439 fdc0 4b3d 242f 7f3c
00000020: fa77 8e3d 9e81 d6bd 2e4a 8ebc 392c 943c
00000030: bc4d 05be ff1b 303c 7429 f33c 60b9 41bd
00000040: de5d e73b 850a 7abd 4264 e63c 5c12 0e3c
00000050: 978d a9bc d889 c43c 1d6b c1bd 4149 c93b
00000060: 16f4 853c 8408 133d 5686 59bc 247b 20bd
00000070: a885 71ba 3fea 2dbd c1b9 bcbc dcbe 133d
00000080: e9d0 3a2f 33a7 d7ba 8a78 d8bc 7645 4d3d
00000090: ccbc 8bbd 17ff a8bc df58 a5ba 2915 bab8
000000a0: 8b9f 27bd d341 a4bc 1911 1cbd d72e 64bd
000000b0: b9ab f4bb 6ac0 a7bd 7c4c 05bc 485a a8bd
000000c0: 8b1c 0cbb bc9f 01bd 0cc4 ff3c 2b42 da3c
000000d0: 5807 25bc f489 18bd 6267 83bd c280 703d
000000e0: 163a 022d 5598 dbbd f906 94bd f6a8 99bc
000000f0: 1f16 a2bd ef2e eb3c 72d9 053d 3616 c130
00000100: ae26 763d d8a3 4bbd 8982 283d d4b4 c6bc
00000110: 4771 54bd 1c9d a6bb dc10 1d3d 0f0c 003c
00000120: 4c7c 12bd 1aa8 943d 262d 4c3d 68f8 75bd
00000130: 8e60 d9bb c0b2 a1bb e9ae 81bd 9701 c1bc
00000140: 9bc0 e43b 5ac5 0a3d 3f60 24bb b1a6 d3b0
00000150: 0c08 eabc 4405 4f30 1f53 dabd 3248 953d
00000160: 5298 303d 936e adbb 6772 323c 452c aabd
00000170: 22f2 893c d57a 673d f182 f5bc 2492 533d
00000180: 823f 29bd 1fa0 493d 9e55 14bd f8f2 613d
00000190: ac30 02bc 9751 bc3c 681e e4bb 8e19 a4bd
000001a0: 6dcf 0bbc 6d9e e73a bedc a8bb ae74 b8bd
000001b0: fef1 c33c bb75 7f3d d7a1 f5bc a779 b3ba
000001c0: d3af 5330 e965 1e3b 684d f0bc f6ed c7bc
000001d0: ebcc 2dbd 3499 263d 7f85 0d3d 6876 4fbc
000001e0: 439d 943d 3d46 eebc 2ccc a8bc e365 c5bd
000001f0: a848 57b2 ef56 263d 9243 93af e8e7 48bc
00000200: ff00 a2bb f2d6 323d 2a94 51bd 512e 1a3d
00000210: 8707 af3d 9821 c1bd b4cd 69bd 11b2 a13d
00000220: b5f2 8a3d 655a a7bd ae38 163c 2c5d 09be
00000230: 6a30 bc3c 25ae d43c df3e d93d fd38 fc3d
00000240: a827 22be e7b0 31bd e480 0e3c 208a 643c
00000250: 03e0 193d 7cd4 88bd 6634 bf3c db1b cdbc
00000260: ffe0 5b3d c0e4 d339 0b03 19bb 034a 043e
00000270: d609 973d da5c eabd f88c ccbb dec1 8bbd
00000280: 85da 7ebd 5f55 463d e23d 933c 5df8 773b
00000290: 03ce ed3d 4ee8 c93d 61e7 803c 77e7 5bbc
000002a0: 4915 ff3c 0511 bcba b6d4 42bd a4b7 973d
000002b0: 0086 bdbd e8c4 1f3d 527c 34bd ccbf 36b8
000002c0: aba6 03be 320d b5bc 0df7 fb3c 445f 703c
000002d0: f939 1fbe 97e4 ef3d 46c6 f33c 3f4b 57bd
000002e0: c091 0eb3 a814 b33d f5a8 ae3b fac7 a63d
000002f0: 9325 b23d 379d 423c 1313 bbbc 201a cdac
00000300: 7b63 c63b 0901 ac3d b28e b93d cf64 9f3d
00000310: 40b8 8d3d 539e 20bd 6db1 65bd 3fa5 c83d
00000320: fe9f e53d 8c4b ab3d 2bd4 a03d a61c cabd
00000330: 9d44 21bc a207 943c 36c5 bc3d 77e2 083e
00000340: b3e6 5bbd 8a5c 023c f943 d3bc 83d0 91bc
00000350: a5ce 933d c499 d4b1 0b54 c73d 05b2 87bd
00000360: 26df b03d f306 3239 dd55 613c 0ec1 873d
00000370: 7ead 2fbd afb0 a4bd cf07 663d 0146 973d
00000380: e517 c23d 6b63 8e3c 0624 75bd e6d1 f53c
00000390: 2ea8 ee3d ce2e 803d ef15 f6bd 7d6f 0a3e
000003a0: 0448 b33d 1312 7dbc 765c b7bc 1502 2b3e
000003b0: 70bd d3bd a444 a7bb 4c66 d33d f501 d4bc
000003c0: 2c36 93ba 66eb 553d 992e 3e3e 152d 0abe
000003d0: c9ca 273c 919b b7bd f12f d238 3b93 a93d
000003e0: 2d1a 22bd ad24 283d a4a4 da3d dbec bc3c
000003f0: 2bcc 053b 8773 f53c a568 e03a 9f26 623d

act_conv1.bias f4 [4]
-0.01881585 0.057551734 0.07863524 -0.0691987
00000000: b323 9abc 5ebb 6b3d 830b a13d 0cb8 8dbd

act_fc1.weight f4 [36, 144]
-0.03592956 -0.055170745 -0.08171434 -0.028805524 -0.037641063 -0.07021086 -0.032576475 -0.067649305
-0.06360151 -0.10604494 -0.036083624 -0.111586146 -0.1186381 -0.08411032 -0.094748855 -0.049979035
-0.046814654 -0.014865637 -0.035147015 -0.041790597 -0.023285892 -0.033201676 0.008892203 -0.022421641
0.0028626465 -0.023874998 -0.08078667 -0.025034804 0.02124072 0.010187225 -0.017022021 -0.037801344
-0.010477567 -0.02054193 -0.03162078 -0.053296283 0.06954581 0.077720806 0.014758847 0.063066036
0.06464088 0.02244012 -0.012180905 -0.049637094 -0.02437508 0.07768924 0.04997689 0.0017612223
0.048853114 0.01851562 -0.0115304915 -0.050183084 -0.062411666 0.043502 -0.0015708606 -0.11721885
0.036277186 0.061342675 -0.007826686 0.02334459 -0.070655435 0.059557147 -0.0053237714 -0.062055733
0.0062429956 -0.029245462 0.032765463 -0.079679154 0.0584994 -0.049844027 -0.13723636 0.011314788
-0.009954554 -0.053956423 -0.036534242 -0.011326713 0.057130396 -0.0014244701 -0.036557112 -0.09960632
-0.088659026 -0.06837947 0.01989728 0.023105942 -0.10510854 -0.06889748 -0.0050857645 -0.081948034
-0.018885883 -0.077973224 0.04752344 -0.11571776 -0.0778647 -0.0395055 -0.039795373 -0.026213516
-0.0599541 0.0072445394 -0.0020672756 -0.13809755 0.012770208 0.033416823 0.017416 -0.004994346
-0.04858329 -0.095553204 -0.063058436 0.00056705065 -0.050291147 -0.050856378 -0.027326254 -0.08553439
-0.11056051 0.01732774 0.032284006 -0.006258082 0.018212166 -0.06630536 -0.04323687 0.04178601
-0.023643868 -0.03699073 -0.0057419827 0.05146739 -0.024886403 -0.06712825 -0.0038133054 0.051440056
-0.0020563072 -0.015009792 0.017138472 0.05362052 0.026519477 0.019868616 0.03071426 -0.025164658
-0.0743275 -4.5714158e-05 0.06760173 0.02019652 -0.036391854 0.031903926 0.0007916293 -0.0077357087
-0.029962711 -0.017679803 0.02188654 -0.03645542 -0.028421078 -0.026391985 -0.023599325 -0.025543982
-0.013996695 -0.01587281 -0.023017695 -0.03079055 -0.012864394 -0.009195932 -0.072564624 -0.02455511
0.015169474 0.001855306 -0.045687124 -0.01875183 0.020757288 -0.005117911 -0.06019286 -0.06066382
0.015720746 -0.041191697 0.0150349215 0.014896733 -0.007823128 -0.050885744 -0.010683953 0.018675884
0.021784768 -0.024743054 0.0025404822 -0.03853775 -0.4044734 -0.014513671 -0.17096585 0.14849025
0.10028354 0.24184813 -0.053676404 0.15051404 -0.18048668 -0.07499223 -0.11120351 0.0138352625
-0.08941734 -0.04973842 -0.039016087 -0.12972645 -0.03830432 -0.094525956 -0.013451166 0.019927138
-0.04230796 -0.08983186 -0.071287386 -0.04984278 -0.034266494 -0.15849736 -0.04008285 -0.00031925135
-0.015537067 -0.11494837 0.0058379434 -0.009335684 -0.16363914 0.0120235495 -0.09740604 -0.018221332
0.15674514 0.2113542 0.05922248 0.057989206 0.09931319 0.16793793 -0.05186789 -0.044579454
0.060879488 0.118905954 0.0576952 -0.008468367 0.059061036 0.042509858 -0.0092743365 0.016555203
0.0059632724 -0.035213493 0.05197321 0.056304596 -0.024921918 -0.03097949 0.02736064 -0.039796658
0.08051452 0.06211296 0.014584752 0.06342627 0.00896187 -0.032468293 0.05320036 -0.018416917
-0.06198332 -0.014531044 0.054228988 -0.07284073 0.0062840874 -0.047591396 -0.025818452 -0.060368843
00000000: e02a 13bd b8fa 61bd d959 a7bd 90f9 ebbc
00000010: 842d 1abd b6ca 8fbd e96e 05bd b88b 8abd
00000020: 8241 82bd 172e d9bd 6ccc 13bd 4787 e4bd
00000030: 88f8 f2bd 0842 acbd b00b c2bd d1b6 4cbd
00000040: b9c0 3fbd 008f 73bc 51f6 0fbd 9e2c 2bbd
00000050: 0ec2 bebc 7bfe 07bd 9ab0 113c 97ad b7bc
00000060: 3d9b 3b3b 8095 c3bc 7b73 a5bd ca15 cdbc
00000070: 0501 ae3c 52e8 263c c471 8bbc 95d5 1abd
00000080: 1aaa 2bbc 8d47 a8bc ca84 01bd 344d 5abd
00000090: 096e 8e3d 162c 9f3d 17cf 713c c428 813d
000000a0: 7062 843d 58d4 b73c 6b92 47bc 4450 4bbd
000000b0: 3fae c7bc 891b 9f3d 91b4 4c3d d0d8 e63a
000000c0: 341a 483d 12ae 973c 63ea 3cbc c78c 4dbd
000000d0: 60a3 7fbd 272f 323d 56e5 cdba 7010 f0bd
000000e0: 6397 143d 7542 7b3d 803b 00bc 273d bf3c
000000f0: ccb3 90bd 32f2 733d 0873 aebb 272e 7ebd
00000100: 0b92 cc3b 2e94 efbc 1435 063d d32e a3bd
00000110: 119d 6f3d 4029 4cbd b087 0cbe a961 393c
00000120: 6d18 23bc 6901 5dbd eea4 15bd ad93 39bc
00000130: 9001 6a3d 49b5 baba e9bc 15bd 66fe cbbd
00000140: dd92 b5bd 890a 8cbd 9fff a23c ac48 bd3c
00000150: 2543 d7bd 1f1a 8dbd 7ca6 a6bb 5fd4 a7bd
00000160: 91b6 9abc 6db0 9fbd f0a7 423d 6ffd ecbd
00000170: 8777 9fbd 85d0 21bd 7900 23bd babd d6bc
00000180: 6e92 75bd 9a63 ed3b 217b 07bb 7269 0dbe
00000190: 223a 513c 14e0 083d 00ac 8e3c 9ca7 a3bb
000001a0: 46ff 46bd 66b1 c3bd c824 81bd 20a6 143a
000001b0: 17fe 4dbd c74e 50bd 4fdb dfbc a72c afbd
000001c0: 8c6d e2bd e8f2 8d3c 3c3c 043d 9910 cdbb
000001d0: ae31 953c 1bcb 87bd 2519 31bd cf27 2b3d
000001e0: c9b0 c1bc 9783 17bd 3e27 bcbb 78cf 523d
000001f0: 92de cbbc 897a 89bd a6e8 79bb cfb2 523d
00000200: 1cc3 06bb a1eb 75bc fb65 8c3c 31a1 5b3d
00000210: 603f d93c 82c3 a23c 799c fb3c 1d26 cebc
00000220: 0439 98bd 34bd 3fb8 c772 8a3d 2c73 a53c
00000230: a00f 15bd b1ad 023d 5885 4f3a d47b fdbb
00000240: 5c74 f5bc 3cd5 90bc 674b b33c 4752 15bd
00000250: 52d3 e8bc 0134 d8bc 5f53 c1bc 9d41 d1bc
00000260: 6552 65bc b207 82bc 9b8f bcbc 773c fcbc
00000270: 2ec5 52bc 89aa 16bc c39c 94bd cc27 c9bc
00000280: 6389 783c bd2d f33a 6c22 3bbd 709d 99bc
00000290: 300b aa3c 26b4 a7bb ca8c 76bd a07a 78bd
000002a0: cbc8 803c a0b8 28bd 0855 763c 6d11 743c
000002b0: 942c 00bc 926d 50bd bf0b 2fbc 2bfe 983c
000002c0: f875 b23c f2b1 cabc 387e 263b c2d9 1dbd
000002d0: 2317 cfbe c0ca 6dbc ac11 2fbe d40d 183e
000002e0: 7561 cd3d 09a7 773e cadb 5bbd 5a20 1a3e
000002f0: 80d1 38be 8795 99bd aabe e3bd 4cad 623c
00000300: 7020 b7bd 83ba 4bbd 55cf 1fbd 03d7 04be
00000310: fee4 1cbd d396 c1bd 4862 5cbc 3d3e a33c
00000320: 1d4b 2dbd c4f9 b7bd 1fff 91bd f127 4cbd
00000330: 065b 0cbd 224d 22be ea2d 24bd 3161 a7b9
00000340: 2f8f 7ebc 0d6a ebbd 384c bf3b b2f4 18bc
00000350: 0591 27be 6cfe 443c d17c c7bd e744 95bc
00000360: cc81 203e 3c6d 583e 4593 723d 1786 6d3d
00000370: b764 cb3d ecf7 2b3e 6d73 54bd f298 36bd
00000380: c55c 793d f784 f33d cd51 6c3d e8be 0abc
00000390: fce9 713d d11e 2e3d 63f3 17bc c79e 873c
000003a0: 8e67 c33b 063c 10bd dce1 543d a69f 663d
000003b0: 0d29 ccbc b3c8 fdbc 6c23 e03c d201 23bd
000003c0: cce4 a43d 296a 7e3d e2f4 6e3c a2e5 813d
000003d0: cfd4 123c 79fd 04bd 9fe8 593d 13df 96bc
000003e0: 39e2 7dbd 9e13 6ebc 371f 5e3d 852d 95bd
000003f0: bfea cd3b 32ef 42bd 3881 d3bc 5245 77bd

act_fc1.bias f4 [36]
-0.03273828 0.028893871 -0.02565321 -0.050249666 -0.012786558 -0.07677015 -0.10497492 -0.010515015
0.027307251 -0.033014994 -0.025234817 0.035811435 0.094979115 0.033008374 0.02054888 -0.0060468614
0.025041254 0.050412145 0.026894437 0.045417346 -0.037964933 0.04278692 0.009461048 0.0774114
-0.03551661 -0.03790458 0.10137928 -0.052996617 0.03648405 -0.012137191 -0.10445406 0.016830899
0.012740468 -0.00892355 -0.007398193 0.05751034
00000000: 9318 06bd d7b2 ec3c ae26 d2bc 98d2 4dbd
00000010: b67e 51bc ab39 9dbd 17fd d6bd 2b47 2cbc
00000020: 75b3 df3c bb3a 07bd 3fb9 cebc 03af 123d
00000030: 6984 c23d ca33 073d 2056 a83c c024 c6bb
00000040: 5123 cd3c f77c 4e3d b951 dc3c 8a07 3a3d
00000050: 1e81 1bbd 5641 2f3d 8302 1b3c de89 9e3d
00000060: dd79 11bd d541 1bbd f19f cf3d fb12 59bd
00000070: 4d70 153d 12db 46bc 03ec d5bd f4e0 893c
00000080: 65bd 503c 1534 12bc 8a6c f2bb f68f 6b3d

val_conv1.weight f4 [2, 128, 1, 1]
-0.08902176 -0.008406625 0.05672336 -0.088299714 0.05738438 -0.1188725 0.06584673 0.014449029
0.058935568 0.0012569603 0.037726816 -0.038553566 0.002651107 0.08633405 0.1021851 -0.09450522
0.060228165 -0.07366851 0.050097086 0.04488547 -0.07807008 0.022290757 0.006523608 0.06660134
0.040892974 0.029683175 -0.09717655 -0.0014015858 -0.08281035 0.06769856 0.03335322 0.04829497
-0.013839581 0.027162116 -0.044968937 -0.113500364 0.05303757 0.11394264 0.06847491 0.073940605
-0.09865872 -0.015485146 0.015405917 0.02522626 -0.1284283 0.0025646328 -0.04122298 0.017975733
-0.13746855 -0.027304454 -0.03718339 0.015888212 0.00851561 0.058237847 0.036752153 0.0836518
3.509566e-10 0.013820216 0.06261237 0.060354404 -0.013812794 0.064800434 0.075897135 -0.0062512476
-0.015567793 -0.004398029 0.056098066 0.010236121 -0.11402625 0.0013189088 0.014094448 0.062638804
0.057223734 0.084883854 0.03888505 -0.06204538 -0.06664315 -0.15045382 -0.029932037 0.10175771
-0.06533195 -0.03371525 -0.17607488 -0.006769243 -0.06332156 -9.666856e-11 -0.10711715 0.11096736
0.09888418 -0.120528884 0.03555315 -0.01882124 -0.021988176 0.07149406 -0.07546788 -0.013499141
-0.0024703264 -0.14108677 0.02604877 -0.01982053 -0.08364056 -0.08630891 0.011595522 -0.03495827
-0.047641583 -0.031363305 0.054880492 -0.0002762299 0.062468395 -0.034351207 0.055846978 0.045804437
-1.2088667e-08 0.043357603 0.06275606 -0.14566828 0.08084708 0.008221028 0.009225578 -0.06982138
0.032265786 -0.13596696 0.025347728 0.03017339 0.0041765696 0.027199436 -0.0007034538 -0.014383539
0.010405199 0.026411276 -0.062096998 -0.113047704 -0.07977766 0.04964122 0.040173784 0.058560148
0.038050618 0.0025169046 -0.0033025541 0.05093539 -0.038822494 -0.004918305 -0.105842024 -0.10394605
-0.08706073 0.026682483 0.021969613 -0.044995904 0.021468656 0.02278274 0.0075688506 0.053383417
-0.0025260854 -0.029212147 -0.029155051 -0.10071561 -0.047823068 -0.026945869 0.019334285 0.02946704
0.0012026432 0.04260204 0.015213606 -0.027624087 0.020821314 -0.013646457 -0.10471649 -0.07801625
0.027395623 0.039649997 0.035145238 0.032645296 0.044426735 -0.0035725434 0.06688542 0.015181209
0.017874422 -0.0059462464 -0.08322586 -0.1221594 0.052685894 -0.012605691 0.024797486 -0.000453267
1.3386831e-07 -0.051472638 0.0033393446 0.05555546 0.025232444 0.0069333883 -0.018274724 0.0004323767
0.019982828 0.028806167 -0.13173884 -0.098139435 0.026301404 -0.04317393 -0.024625026 -0.07259116
-0.03615845 -0.16682327 0.013876399 0.0026127852 0.037015162 -0.02232586 0.045202587 -0.10648626
-0.008868448 -0.070769995 -0.03613407 -0.0065226834 0.035380714 -3.169466e-08 0.0027841788 -0.0772318
-0.058772556 0.05667493 -0.060601804 -0.04756537 -0.0017091474 -0.003677271 0.051925495 0.0365969
-0.09194358 -0.026880149 0.02739773 -0.10807114 -0.10774968 0.06725654 0.056893952 0.090976834
-0.013352671 -0.07378429 0.08134956 0.022042101 0.06962181 0.00473559 -0.13062851 -0.045162708
-0.0042535583 -0.08156362 -0.061780166 -0.05133719 0.097209625 -0.042386062 -0.0054755732 -0.053081863
-0.05844635 -0.026408305 0.016358174 0.026119998 -0.011012329 -0.06777085 8.247938e-05 -0.008934689
00000000: 0a51 b6bd f1bb 09bc c156 683d 7bd6 b4bd
00000010: e20b 6b3d 6d73 f3bd a6da 863d 9fbb 6c3c
00000020: 6c66 713d 97c0 a43a 6f87 1a3d 58ea 1dbd
00000030: 32be 2d3b e8cf b03d 6c46 d13d f48b c1bd
00000040: cfb1 763d 84df 96bd 9a32 4d3d d4d9 373d
00000050: 35e3 9fbd 1b9b b63c fec3 d53b 4966 883d
00000060: 647f 273d 212a f33c 8004 c7bd 6ab5 b7ba
00000070: 7998 a9bd 8ba5 8a3d 639d 083d f2d0 453d
00000080: 69bf 62bc 1683 de3c 5931 38bd e172 e8bd
00000090: ec3d 593d c25a e93d 933c 8c3d 2c6e 973d
000000a0: 950d cabd 69b5 7dbc 1969 7c3c 4da7 ce3c
000000b0: b582 03be 6613 283b 6dd9 28bd d841 933c
000000c0: 8ec4 0cbe 97ad dfbc 9c4d 18bd ff27 823c
000000d0: 0f85 0b3c cf8a 6e3d 6d89 163d a351 ab3d
000000e0: c0f0 c02f 306e 623c ea3a 803d 2e36 773d
000000f0: 0f4f 62bc 17b6 843d f56f 9b3d 44d7 ccbb
00000100: 0e10 7fbc 571d 90bb 16c7 653d 67b5 273c
00000110: 9886 e9bd 3cdf ac3a 66ec 663c c648 803d
00000120: 6f63 6a3d 96d7 ad3d ee45 1f3d 4c23 7ebd
00000130: 347c 88bd 9110 1abe 0834 f5bc 5966 d03d
00000140: c2cc 85bd 0119 0abd f94c 34be 87d0 ddbb
00000150: bcae 81bd 9093 d4ae 3d60 dbbd db42 e33d
00000160: ca83 ca3d d9d7 f6bd 2ea0 113d 002f 9abc
00000170: 8c20 b4bc 7a6b 923d e78e 9abd 802b 5dbc
00000180: 33e5 21bb 0d79 10be 3b64 d53c aa5e a2bc
00000190: be4b abbd bac2 b0bd 25fb 3d3c 6730 0fbd
000001a0: d223 43bd cf76 00bd 5eca 603d f3d2 90b9
000001b0: dcde 7f3d dab3 0cbd cdbf 643d 6f9d 3b3d
000001c0: 85ae 4fb2 be97 313d 4086 803d 112a 15be
000001d0: 2793 a53d 7eb1 063c e126 173c 83fe 8ebd
000001e0: 2129 043d ec3a 0bbe 0aa6 cf3c 2f2e f73c
000001f0: 9bdb 883b 5ad1 de3c fc67 38ba efa8 6bbc
00000200: 917a 2a3c 765c d83c 6c59 7ebd 8e85 e7bd
00000210: 7862 a3bd 9854 4b3d 448d 243d c4dc 6f3d
00000220: f7da 1b3d a7f2 243b aa6f 58bb a1a1 503d
00000230: 5604 1fbd bc29 a1bb b4c3 d8bd abe1 d4bd
00000240: e54c b2bd 3995 da3c 9ef9 b33c a04d 38bd
00000250: 09df af3c dea2 ba3c 1f04 f83b 92a8 5a3d
00000260: ae8c 25bb 504e efbc 93d6 eebc fc43 cebd
00000270: 1fe2 43bd 95bd dcbc ef62 9e3c dd64 f13c
00000280: 02a2 9d3a 7a7f 2e3d 7d42 793c e94b e2bc
00000290: 7691 aa3c 6495 5fbc 9975 d6bd fcc6 9fbd
000002a0: c96c e03c 0968 223d 74f4 0f3d 13b7 053d
000002b0: cff8 353d 5521 6abb 39fb 883d 9bba 783c
000002c0: 616d 923c bbd8 c2bb 5272 aabd b52e fabd
000002d0: 2acd 573d 1a88 4ebc 1924 cb3c 78a4 edb9
000002e0: 71bd 0f34 f9d4 52bd e8d8 5a3b 1f8e 633d
000002f0: 45b4 ce3c 7a31 e33b e0b4 95bc 9eb0 e239
00000300: 07b3 a33c e9fa eb3c 8ce6 06be 54fd c8bd
00000310: 0b76 d73c 26d7 30bd 6cba c9bc adaa 94bd
00000320: e21a 14bd b8d3 2abe d659 633c 433b 2b3b
00000330: 369d 173d b9e4 b6bc 5926 393d 7815 dabd
00000340: f84c 11bc dcef 90bd 5201 14bd 3cbc d5bb
00000350: 5eeb 103d a620 08b3 c576 363b b52b 9ebd
00000360: 7ebb 70bd f923 683d 9939 78bd e8d3 42bd
00000370: 7805 e0ba 5ffe 70bb d4af 543d a2e6 153d
00000380: ea4c bcbd c233 dcbc 3471 e03c 6754 ddbd
00000390: ddab dcbd ccbd 893d a209 693d 1052 ba3d
000003a0: 29c5 5abc 381c 97bd 999a a63d a391 b43c
000003b0: e195 8e3d 022d 9b3b 7bc3 05be 88fc 38bd
000003c0: 6f61 8bbb d40a a7bd 330d 7dbd f246 52bd
000003d0: d715 c73d 029d 2dbd 706c b3bb 5e6c 59bd
000003e0: 7165 6fbd 3b56 d8bc 9401 863c 9bf9 d53c
000003f0: 0e6d 34bc 72cb 8abd c8f8 ac38 cd62 12bc

val_conv1.bias f4 [2]
0.035853434 0.066285394
00000000: 0ddb 123d a3c0 873d
