models/Training/AC_nmcts20/train_019.pth (torch, 424031 bytes, 15 tensors)

conv1.weight f4 [32, 5, 3, 3]
00000000: ff11 6a3d 5a23 0dbe 2320 1abd a0d7 de3d
00000010: 9cac 32be d0fc 5c3b 2cd6 b73d ef89 88bd
00000020: 7d4f 7b3c c107 343c 4a44 a7bc c91c fa3d
00000030: 08b9 913d aa4d f6bd 4a0e f43d 40b1 d3bb
00000040: 4fdf 2fbc 9751 fb3d 662e d738 348c a332
00000050: b855 8eb2 264a 0fb8 8ed9 a8b6 a1ed 7cba
00000060: d6ad baba c1d1 2b36 8772 8bb3 185c fe3d
00000070: ed88 193d 19f1 a0bd c4a4 1bbe c1de a6bd
00000080: 258c 0c3c 2297 203d 3722 bebd 24fd c43d
00000090: 13b8 37b6 ade4 0a38 2808 f435 c8b4 22b6
000000a0: 446a 5fbb ef0d 82b6 b43a e2b4 3bf2 69b6
000000b0: 5cd9 91ba 035d 0fbd c20b 1e3e 3567 943d
000000c0: 65ba 25bd 9522 1b3d a38e 2cbd b23c fe3d
000000d0: 1860 a83d 9edc 123e adcc 203d b43c 38be
000000e0: 61cd 45bc 9b07 3f3d 433d a03d a6a0 363d
000000f0: 533a bbbd 888d 69bd bafb ea3d b1ae 8eb8
00000100: 9fac 0cb8 d8ab 1335 4a3d 14bc c69e 8ab4
00000110: 06f5 a435 5dac 11bc 9d03 08b6 4b97 1e37
00000120: dc96 0cbe fcc8 fe3d 8e00 d1bd 102c 79bc
00000130: f87b dcbd fe30 babd 3028 bfbd 8686 ba3d
00000140: 6f3c 3a3c e695 d6b6 4ad8 ad3c 62b3 be37
00000150: e80c 2cb6 4f8c 5838 deb6 5bbc b8e9 7039
00000160: 1d45 fd3b dc39 0037 49af cabd ab7b 403d
00000170: 1ab1 f23d cea1 4a3b 040b 5d3d 774b 273e
00000180: be2f f3bd 6f24 05be 6bac e63c 42db 81bd
00000190: 1d03 3bbc 5f56 3ebd b7af 3c3c e73c 87bd
000001a0: 9153 ca3d 1730 343e fc50 383b 616f 893d
000001b0: f5a5 eeba da68 193a 4e2e 05b7 38e8 1e35
000001c0: cae7 b43b 5d2f a5bc b85e 19b7 ec6f 1ab7
000001d0: 56f2 f135 9fef 513d 0007 f1ba 4bda dabd
000001e0: 15fd 8cbd 9c67 13bd 840f b93d 5c81 863d
000001f0: 5410 0c3b 178e 403d 8f61 46ba 79b9 203c
00000200: 8406 d0b7 d881 a2bc d100 1032 26f6 95bc
00000210: fba2 cbbb 3432 e6b4 83bd 9636 7367 b83d
00000220: 84ef 09be 89ae 37bd 6438 133d bbbd e13c
00000230: ef55 f23b 1011 153e babe 3a3e 9f4a 273e
00000240: 09e7 063d ee2d 063d b932 bebd 3d42 96bb
00000250: f5bb 21be fdb4 eabd 5dfd bf3d 0469 313d
00000260: 0644 d0bd d6c8 f7ba 7860 55b5 253c a5b8
00000270: a43b 07b6 c328 63ba 0e10 89b9 6ccc 13b7
00000280: f07c 78b7 93fa d9bb ebe7 4a3d 0339 003e
00000290: 5a00 b43d 52f3 2fbe c86f ea3d 97f8 2d3d
000002a0: 8ff2 853d 56c5 6c3d ea0c 0c3d 38ed 963c
000002b0: ea00 373a b05c 87ba 1999 75b4 e255 233a
000002c0: e74a 1a37 fcdf cab5 2d78 7a3c 26c4 aa34
000002d0: 6776 e93d 7830 c0bc 6937 de3d 637c 1d3d
000002e0: 7070 433b bde5 f53c 0803 fe3c 290f 413d
000002f0: c4e3 dbbd a685 fe3d 4b90 0ebe 9a6b b93d
00000300: 564a c43d 09e4 633d 74da d33d 0749 d73d
00000310: a790 013d 046e 07be a722 0fb7 ded4 0336
00000320: fb95 2a3b ae42 afbc 42e3 faba 20ec a135
00000330: a273 99bb 0170 20ba ece7 89b2 58c6 fd3d
00000340: 47d4 82bc 5940 fd3d 4f77 7e3c 6fa8 383d
00000350: 12a7 1d3e 95b6 f23d 4408 3b3d 8524 7f3b
00000360: 2497 7336 e71b 1837 79d9 37b6 4171 f93a
00000370: c86f 3635 daaa 3e36 ff37 a5b7 ec69 42bb
00000380: cc0b a13c 25ee bc3d 7c9e 063e 3939 f83d
00000390: f08d e93d e093 cabd c85b cabc f601 123e
000003a0: 8406 3a3e 2630 c4bd dc52 b83d 9754 ae3d
000003b0: 0406 2b3d 90f3 233d 0cb7 f3bd ea25 79bd
000003c0: ab40 6d3d dbb3 dcbd c035 15bd b73c 37bc
000003d0: 97b8 0f38 a2a4 ec3b 027c 4634 7fd8 14bc
000003e0: d4a4 40ba 41c6 0f38 5c5d 34bb 8b2f 8339
000003f0: 3a51 8d3c e7b4 593d e59e 943c 61cb 283d
0.05714607 -0.13783017 -0.037628304 0.10880971 -0.17448658 0.0033720024 0.08976397 -0.06666934
0.015338776 0.010988177 -0.020418305 0.122125216 0.0711537 -0.12026532 0.11916788 -0.006460339
-0.010734393 0.122714214 0.00010260641 1.9039454e-08 -1.6569956e-08 -3.4162913e-05 -5.032117e-06 -0.00096484466
-0.0014242481 2.5603078e-06 -6.493524e-08 0.12419909 0.0374841 -0.07858486 -0.15199572 -0.08147956
0.008578335 0.03920663 -0.0928387 0.09618595 -2.737627e-06 3.3114735e-05 1.818179e-06 -2.424511e-06
-0.003409044 -3.875924e-06 -4.2138493e-07 -3.4860702e-06 -0.00111274 -0.035000812 0.15434173 0.07246248
-0.040460963 0.037874777 -0.042128216 0.124139205 0.082214534 0.14341971 0.039257694 -0.17991906
-0.012072892 0.046638113 0.07824185 0.0445868 -0.09141984 -0.05701974 0.11473794 -6.8036265e-05
-3.3539367e-05 5.5011833e-07 -0.009047816 -2.5820026e-07 1.2290263e-06 -0.008891192 -2.0267682e-06 9.4527595e-06
-0.13729423 0.124406785 -0.10205184 -0.015208259 -0.10765833 -0.09091376 -0.09333837 0.091076896
0.011366948 -6.3951475e-06 0.021221299 2.2733297e-05 -2.563751e-06 5.1629086e-05 -0.013410298 0.0002297525
0.007729186 7.642866e-06 -0.09896714 0.04699294 0.11850186 0.0030919197 0.053965583 0.16337381
-0.118743405 -0.1300218 0.028158387 -0.06340648 -0.0114143165 -0.04646909 0.011516503 -0.06603413
0.0987922 0.1759647 0.0028124442 0.06710697 -0.0018207418 0.0005852111 -7.938199e-06 5.919751e-07
0.0055207955 -0.020164186 -9.141564e-06 -9.205174e-06 1.8026428e-06 0.05125391 -0.0018388927 -0.10686167
-0.06884209 -0.03598748 0.090361625 0.06567642 0.0021372037 0.047010507 -0.0007567638 0.009809845
-2.4798566e-05 -0.019837305 8.382089e-09 -0.01830585 -0.006214497 -4.2877366e-07 4.4924104e-06 0.090041064
-0.13470274 -0.044844184 0.03594245 0.02755629 0.007395498 0.1455729 0.18236819 0.1633706
0.032935176 0.032758646 -0.09287018 -0.004585533 -0.15794356 -0.11460302 0.09374497 0.04331304
-0.101692244 -0.0018904458 -7.9489064e-07 -7.879016e-05 -2.0151283e-06 -0.0008665437 -0.00026142638 -8.8094785e-06
-1.4811041e-05 -0.006652185 0.04953758 0.12521748 0.087891296 -0.17182663 0.11447102 0.042473402
0.06540405 0.05780538 0.034192003 0.018423662 0.0006981032 -0.0010327306 -2.28731e-07 0.0006230754
9.196555e-06 -1.5115361e-06 0.015287441 3.1807684e-07 0.113995366 -0.023460612 0.108504124 0.038448703
0.0029821657 0.030016774 0.031007305 0.0471336 -0.10736802 0.12427835 -0.13922231 0.090537265
0.09584491 0.055637393 0.10344401 0.10511976 0.03163209 -0.13225561 -8.531532e-06 1.9644426e-06
0.0026029337 -0.0213941 -0.0019141214 1.2064156e-06 -0.004682974 -0.00061202055 -1.6054365e-08 0.12391347
-0.015970362 0.12365789 0.015531375 0.045082506 0.15395764 0.11851231 0.04566218 0.003893168
3.6297797e-06 9.0664025e-06 -2.739571e-06 0.0019030945 6.7962947e-07 2.8411655e-06 -1.9695608e-05 -0.0029665185
0.019658946 0.0922511 0.13146394 0.12120289 0.114040256 -0.09891486 -0.024701968 0.1425856
0.18166548 -0.09579496 0.09000179 0.08512228 0.041753784 0.0400272 -0.11900148 -0.060827173
0.057923 -0.10776492 -0.036428213 -0.011183909 3.426577e-05 0.007221774 1.8485301e-07 -0.00908482
-0.000734878 3.4278495e-05 -0.0027521467 0.0002502169 0.017250646 0.053151038 0.018142173 0.041209582

conv1.bias f4 [32]
00000000: 29c0 d53d 6968 013d de99 95bc 1316 e33d
00000010: e4be 86bd 316d 1abe fde8 1a3c 2e57 b53d
00000020: b344 823d a5fb abbd 9457 3c3e 2103 45bd
00000030: 4d0b 193e fddd 103e 99dc 7ebd 3655 1bbd
00000040: b589 e7bc 2edf a8bd 3f7f 37bd aac6 1b3e
00000050: d087 39bd af8a 593d da41 923c ef3c 88bd
00000060: e530 e6bd 1d22 983d 49d5 f9bd 2f70 083e
00000070: 824f 0d3e 2f2f a9bd 445a b1bd b2e1 d83d
0.10437042 0.031593714 -0.018261846 0.11088195 -0.06579378 -0.15080716 0.009454963 0.08854519
0.063607596 -0.08397607 0.18392783 -0.048098687 0.14945717 0.14147182 -0.062222097 -0.03792306
-0.028263906 -0.08245693 -0.044799086 0.15212503 -0.045295537 0.053110775 0.017853666 -0.06652247
-0.11239795 0.074283816 -0.12198884 0.13324045 0.13799861 -0.08260953 -0.08659795 0.10589923

conv2.weight f4 [64, 32, 3, 3]
00000000: 876b d0bc c3f3 2a3d 1290 413c 0e33 a53c
00000010: 8c79 32bd 774a 56bd 24bd 38bd 97c1 e33c
00000020: 4898 67bc 3519 0abd 6539 2abd 774c 96bc
00000030: a424 1b3d 686c 2e3d 44f5 593d 6bcd 483d
00000040: 7a38 c13c a44d 483d 7e79 6fbd 4187 6fbc
00000050: b8a3 6bbc d49d a13c a914 0d3d a106 8b3c
00000060: 7402 533c 904b d73b 23b9 e7bc e8d1 88bd
00000070: eacd 96bb 496a 0e3d 5357 8d3b 769e 66bb
00000080: c350 3c3a 7fd5 3d3d eaf1 f63c cc4a a13d
00000090: ac7c dd39 67ec 563d 7f27 0ebd 9340 b13c
000000a0: 3206 5b3d 187d 35bc 2753 013c 93ac 8e3c
000000b0: 9a90 14bc 929e 4dbd 96ef 833b 682e 0f3c
000000c0: d473 12bd 76ec a7bc 893a 383c 6086 3abc
000000d0: f716 933d 01d0 343d b10c 92bc 060c a6bc
000000e0: 2024 83bd 8104 bfba 5fac da3c 9e34 74bb
000000f0: f70e f63c a69d a7bc 01e1 0bbc df97 3e3c
00000100: e681 1abd 5af2 f93c e20b 22bd 3de4 b53d
00000110: f01e 2c3d bfd8 3c3d 8d32 92bc 72f8 b6bb
00000120: cb73 9fbd 3088 70bc e72a 833b 167c 64bd
00000130: 0a41 233d 838f 79bd 3238 bcbc 3dfc 1d3d
00000140: 5540 533d a6fb 943c 57f1 20bd 0b03 08bd
00000150: 0bd3 ed3c c874 92bd b4db 18bd 0c9f 533d
00000160: 0598 3f3d 6ac3 b43c 0184 38bd 034a c83c
00000170: e708 82bd 161f 6dbd 9891 82bd 02c4 b1bd
00000180: 053e fcbc f76f 99bc 7c87 eebc f556 043c
00000190: 267d 793d bc41 c739 92b7 81bd 6673 bf3c
000001a0: 7973 4f3d ccac 643c c10f 363d 08af 29bd
000001b0: ead7 a7bd fd04 0fbd 444b 9fbd 0c96 3dbb
000001c0: 9dce 7d3d 9173 a6bd 4d3d 41bd d96a dbbc
000001d0: f793 b73b edb1 80bd 5de6 52bd b6b6 b23c
000001e0: e45c 6cbd d9ef f23c b2b9 56bc f98b 25bd
000001f0: 6542 843c 6c45 76ba 56d8 97bc fac5 783c
00000200: a2f9 49bd 5b7c 5abd 850c c7bc 1365 483c
00000210: b5f4 44bd 9ddd 073c 7727 0a3d 76c9 09bd
00000220: 3809 84bc e98f a2bc 39b6 5dbd 6dbf 99bb
00000230: 3c23 a9bc a680 713b 5486 f2bc bb25 e7bc
00000240: fb91 793d 9702 2ebd d149 60bd db46 06bd
00000250: e0e5 70bd 2162 ebbc b6e0 933c d5f1 193d
00000260: 25b9 d8bc a8b1 b8bc 8e1b 263d a031 293c
00000270: 0371 39bd 38b7 8bbc 0748 a13d 7c2b 563c
00000280: 58d9 793d 3355 e0bc 90ee 54bc 3e4e 1d3c
00000290: c57b 293d 08c7 3dbb 0859 77bd f656 063c
000002a0: 7ae4 4e3d 260b 2abb 8509 423d 7bd9 bf3c
000002b0: f6f4 61bd b8cd 3fbd 5bd1 333b b20a 393d
000002c0: c1e6 24bd 42d7 823b f415 54bd f59e 9bbd
000002d0: c328 4bbd b4aa 263d 6f30 183c 54d4 3ebb
000002e0: 3251 4c3d 07d4 983c 71a1 a03c 40a7 fe3c
000002f0: 4c3e 323b 0e3a e23b 3ef3 b53b 2666 6abd
00000300: 5dd3 b6bc d2bd 533d 7cad 323b 1da9 63bc
00000310: 64a2 81bd 848b 87bd f5b8 433d 0f7b 993b
00000320: 112d fd3a 8314 4ebd b10a c3bc 03f3 3cbb
00000330: e2e1 5abd 3a2c 4b3c fe54 17bd 3d1c 4b3d
00000340: 5323 39bd c9b3 30bd b9ae 143b 1a2d 423c
00000350: 4437 2abd b193 4a3c ec19 9d3d e2f3 923d
00000360: 2cfa 69bb a9d9 a43c edaf 173d 1c1d 11bc
00000370: 820a 3c3c 625b a4bd 2ac8 7b3d cce2 93bc
00000380: 4853 a4bc 065a 083c 27c0 353d 484b 9c3c
00000390: b320 c3bc 9260 d8bc 1f50 4dbd 6529 f93c
000003a0: d687 3dba f464 ba3c 8e65 193c d025 213d
000003b0: c85e c33c d08c 0d3d 99c9 2d3b b200 9e3d
000003c0: c79c 7d3d 3c7d 5b3c c14b 333b eb08 e63b
000003d0: 55df 86bd b077 53bc ea88 883c 3af0 32bd
000003e0: 94fc 8ebc e04f 3abd 8ad1 46bd 4ba5 59bd
000003f0: 3d63 e1bc 1eb2 173d c536 2b3d 74b5 c53c
-0.025441898 0.041736376 0.011814134 0.020165946 -0.043572947 -0.05231711 -0.045102254 0.027802272
-0.014135428 -0.033715446 -0.041558642 -0.018347008 0.03787674 0.042583853 0.05321242 0.049024027
0.0235865 0.04890217 -0.058465473 -0.014619649 -0.014382295 0.019728579 0.03444353 0.016970934
0.012879003 0.006570287 -0.028286522 -0.066806614 -0.0046021836 0.03476933 0.0043133884 -0.0035189665
0.00071836653 0.046346184 0.03014465 0.078755945 0.00042245293 0.052471545 -0.034705635 0.021637237
0.053472705 -0.011077188 0.00789336 0.017416274 -0.009067679 -0.050200053 0.0040263636 0.008739091
-0.035754994 -0.020498496 0.011244425 -0.011384577 0.071821146 0.04414368 -0.017828317 -0.020269405
-0.06403375 -0.0014573486 0.026693521 -0.0037262808 0.030036433 -0.020460915 -0.008537532 0.011632889
-0.037721537 0.03051107 -0.039562114 0.088814236 0.04202169 0.046105143 -0.01784637 -0.005583816
-0.07785758 -0.014680907 0.004002917 -0.0557824 0.039856948 -0.06092788 -0.022976015 0.03857063
0.051575024 0.018186402 -0.03929266 -0.033206027 0.029031297 -0.071511805 -0.0373189 0.05166535
0.046775836 0.022065837 -0.045047764 0.024449354 -0.06349354 -0.057890974 -0.06375426 -0.08679964
-0.030791292 -0.018730147 -0.029117338 0.008077373 0.060910366 0.00038005214 -0.063338414 0.023370456
0.050647233 0.013957214 0.044448618 -0.04142669 -0.08195479 -0.034916867 -0.07778028 -0.0028928546
0.06196462 -0.08127511 -0.0471776 -0.026784347 0.0056023556 -0.06283937 -0.051489223 0.021815639
-0.057705775 0.029655384 -0.013105797 -0.04041669 0.01614494 -0.00093945 -0.018535774 0.01518392
-0.049310334 -0.05334125 -0.024297962 0.012231129 -0.048084933 0.008292583 0.033729043 -0.033639394
-0.016117677 -0.019844012 -0.05412886 -0.004692009 -0.020646684 0.0036850362 -0.029605068 -0.028216233
0.060930233 -0.04248294 -0.054757897 -0.032782417 -0.058812976 -0.028733315 0.018051486 0.037584145
-0.026455471 -0.02254565 0.040553622 0.010326773 -0.045273792 -0.017055139 0.07875066 0.013071891
0.06099829 -0.027384376 -0.012996331 0.009601174 0.0413778 -0.0028957743 -0.06038764 0.008199444
0.05051086 -0.0025946586 0.04737236 0.023419132 -0.055165254 -0.046827048 0.0027438018 0.045176215
-0.040259127 0.003992946 -0.05177875 -0.07598678 -0.04959942 0.04069014 0.009288891 -0.0029118257
0.04988212 0.01865579 0.019608231 0.03108561 0.0027197776 0.0069038933 0.0055526784 -0.057226323
-0.022317583 0.0516947 0.002726405 -0.0138953 -0.06329802 -0.06618407 0.04778381 0.004683859
0.0019315799 -0.05031253 -0.023808809 -0.002883137 -0.053438075 0.012400681 -0.03694629 0.049587477
-0.045199703 -0.043140206 0.002268715 0.011851573 -0.04155661 0.012364314 0.0767096 0.07175423
-0.0035702093 0.02012332 0.03703301 -0.008857038 0.011477115 -0.080252424 0.06147019 -0.018052481
-0.020059243 0.0083222445 0.044372704 0.019078866 -0.023819303 -0.026413236 -0.050125238 0.030415246
-0.0007230019 0.022753216 0.009362591 0.0393427 0.023848906 0.034558117 0.0026517867 0.07714976
0.061917093 0.013396557 0.0027358385 0.007020106 -0.06585566 -0.012906954 0.016666848 -0.04368613
-0.017454423 -0.04548633 -0.048539676 -0.05313615 -0.02751314 0.0370351 0.04180028 0.024134375

conv2.bias f4 [64]
00000000: ae13 d13c 8fc1 ec3c 2e1c 8fbd de5d 29bd
00000010: 6240 99bc 925f 763d facf 3e3d 6f7e cf3c
00000020: bfb4 c2bc b36c 6e3d f9ec 1dbd ccdf 08bd
00000030: eb9f 4e3d dd66 19bd 7532 d03c a78d c3bc
00000040: b3e3 97bb 1cf3 9f3d a5d5 a33c 65cd 7a3d
00000050: 86a5 55ba 4d15 adbc 9121 8a3d 3d65 513d
00000060: 551d d93c 4425 c03d 6489 193b e21e 463d
00000070: 5aec 66bd 14f4 ebbc 2ceb 6a3d 62db 513d
00000080: cfbe f03b 7356 e83c 0611 bd3c 97ed a03d
00000090: cdd8 b43c e8fd 01bd ffca 973c 17c8 733d
000000a0: e993 033d daa4 78bc 1a4c 83bd c545 15bd
000000b0: 33a3 e2bb 6662 4c3d 724c 2dbd 9040 833d
000000c0: b049 7a3d 6628 49bd e553 303d c0dc 7a3d
000000d0: def4 b13d 5b09 a53a 984b 713d 4ed2 9d3d
000000e0: 6d14 10bc 4165 293d 0667 a9bc 1af6 1fbc
000000f0: 97f7 503c 1988 dabc 6732 35bd 8a95 79bc
0.02552208 0.02890089 -0.06987797 -0.041349284 -0.018707458 0.060149737 0.04658506 0.025328843
-0.023767827 0.058209132 -0.038556073 -0.033416554 0.05044548 -0.037451614 0.025414685 -0.023871256
-0.004635298 0.07810041 0.019999335 0.061231036 -0.000814997 -0.021128321 0.067446835 0.05112194
0.026503244 0.09382108 0.0023427838 0.048369296 -0.056377746 -0.028802909 0.057353184 0.05123461
0.007346965 0.028361535 0.023079406 0.07857817 0.022076035 -0.031736284 0.018529413 0.059516992
0.03212348 -0.015176022 -0.064109996 -0.03644349 -0.0069164275 0.049898528 -0.042309232 0.06408799
0.06110543 -0.049110793 0.043048758 0.06124568 0.08689283 0.0012591289 0.058909982 0.07706128
-0.008793932 0.04135633 -0.020679008 -0.009763265 0.0127543425 -0.026676225 -0.04423752 -0.015233407

conv3.weight f4 [128, 64, 3, 3]
00000000: 144b b83c 0d02 273d c17e 37bc a0ce debc
00000010: 7e20 c0bc cd52 c4bc cfa0 403b 7b76 05bc
00000020: 10ec 373c f663 ed3c d5d9 013d 0164 113d
00000030: 6179 1dbd 4a80 0f3d d8c3 1dbc 64c5 1cbc
00000040: 921b c0bb 7065 1dbc b0b3 803d f39c 03bd
00000050: 8d38 50bc f710 d13c fb20 03bc f5df da3c
00000060: eb4c 51bd da0a 13bd ce90 ea3c 8f3f 4f3c
00000070: 893f 67bc 7516 a33d 253c 02bd dc0d 7c3c
00000080: ca52 a43d bf97 803c 9e8a 393d 5331 5ebd
00000090: 5959 ff3b 63ba cdba 25cf 47bd 939e acbc
000000a0: 53af 36bd 9d09 f3bc 916f 24bd 0df3 12bc
000000b0: 8e71 093d df76 fb3c 5903 8c3b 645d fdbc
000000c0: ca08 853d a01e 263c e4dc 0ebd 3545 063d
000000d0: 19f9 67bd 3185 613c 3ab3 b53c 2770 a2ba
000000e0: 48b4 cfbc fa51 dabc f6dd f2bc 94b4 2bbc
000000f0: d36c 783c 8918 cdbc 008b 56bc 0d21 d23b
00000100: 3235 0fbc 095c 1f3d 109a cebc b938 f43c
00000110: ea19 b4bb 1200 cf3c 2b2e c5bb 3cd5 e839
00000120: 81d4 ba3b 0bbd 633c 1aa3 16bd 4c0c e63c
00000130: bd21 6d3c 07f6 0bbc 87e7 ff3c fcb5 34bd
00000140: 2bd3 c3bc ddf3 c7bc 6b58 d0bc 668c 66bd
00000150: e4a3 31bd eaef 68bd 8221 033d d860 15bd
00000160: 9fbc 123d cba4 d2bc 5a3a b63c 46cc 7b3c
00000170: c36d 63bc 56ec c63a a1c4 9d3c 4ee3 8bbc
00000180: 24d8 fc3c beb5 753c 0818 59bd 2907 38bd
00000190: dd6f 5a3d a9d4 833c e191 1b3d a48d 1a3d
000001a0: eac6 a0bc 9001 bb3c 83e5 67bd 3915 6b3d
000001b0: 57cf 18bd f6ae 1e3d dc47 babc 26d6 4e3c
000001c0: 95fa 943c b08a e8bc 6cb3 c63b 8b4a 90bb
000001d0: 07a1 9e3d ae35 1ebc 6671 c5bc c073 17bd
000001e0: 8025 0f3c 6298 833c 6477 a9b9 7180 543d
000001f0: 347a 773c 5c2c 03bd 7385 7ebd 4e58 5f3c
00000200: 472d c2bc 01f3 8abd a3ed f2bc 68f0 e23a
00000210: 790c d73c 2cca 043c 06cc 9b3c f7ef 10bb
00000220: a2d2 25bc a60b e7bc 6d70 1c3d b419 9cbd
00000230: 62c5 4abd 0f89 413c ae73 053c 9180 a4bc
00000240: 1c61 b23b f830 a3bc 251d 19bc d547 d6bb
00000250: 8a5d 50bc 76db 22bd 871d 573c cbb5 d3bb
00000260: 3858 083d 0dfd 91bc ffc6 d93c fc7e e5bb
00000270: f21a 363d 36a4 3c3d 958c c4bc fce9 db3c
00000280: 95f0 913b 4874 0a3c 443f d33c 86b3 4cbd
00000290: 8131 d63c df82 a0bc 1d69 a63b f4cf 1d3d
000002a0: 380a 6fbd 4860 a33c 59a6 c23b dcab 00bc
000002b0: 8780 493d db48 753d c583 f93b 8101 0abd
000002c0: 3ac7 b3bc 0b43 533d 6fb6 c63c 7087 89bc
000002d0: 010f 69bb 63e3 f83c 3153 db3b 4cc2 b8bc
000002e0: 72b3 c7bc fbd6 3a3a d484 6dbc 3f29 e93c
000002f0: 511f 5d3d 620d 7ebc da4d 403d 1abc b23c
00000300: 2b83 2cbd 21a3 113d 872a edbb a385 62bd
00000310: b1e0 44bd 40b8 77bd e815 c63b cae2 f73c
00000320: 907e c0bd c043 d63a 2166 40bd 2f10 7fbd
00000330: b7e9 e53c 38b4 1ebd a546 a03d 9cb7 32bd
00000340: 4fad 8fbc de5a 263d d022 31bd 913f 083d
00000350: bacd 23bd 4487 5abd 8979 b53c 6a4f be3c
00000360: 5e21 833c 0a32 9f3b 56dc 513c 975f 4a3d
00000370: 2d76 c4bc 86a3 e9bb d6ab a7bb fb43 d5bc
00000380: b786 eabc af8b 87bd aab0 fb3c 5c85 bb3c
00000390: a69f ae3c 4410 f63b 1459 72bd cd18 c63c
000003a0: 98e0 a3bb 3aa3 fa3c e65e ab3a c2bf a9bb
000003b0: d095 51bd 7bfd 9abb 5db1 2fbd 095e 63bb
000003c0: 4cf1 36bd e470 aabd 3583 a43c 3db9 5b3c
000003d0: da0e 10bb 4244 0fbd af04 97bc 05f7 8f3c
000003e0: aec1 83bc ed19 44bc 4b35 32bc 124f 08bc
000003f0: 97e8 37bd 100c 4e3a cdd5 a63c 8749 343d
0.022496738 0.04077344 -0.011199654 -0.027198136 -0.023452993 -0.023965264 0.0029392724 -0.008145924
0.011225715 0.02897833 0.03170188 0.03549576 -0.038445834 0.035034455 -0.009629212 -0.009568546
-0.0058626616 -0.009606704 0.06284273 -0.0321321 -0.012708795 0.025520785 -0.008003469 0.02671812
-0.051098745 -0.03589902 0.028633501 0.012649431 -0.014114269 0.07963268 -0.03179564 0.015384164
0.08023603 0.015697358 0.04529821 -0.054246258 0.0077926335 -0.0015695806 -0.048781533 -0.021071708
-0.044600796 -0.02966767 -0.04014546 -0.008969081 0.03355556 0.03069633 0.00427286 -0.030928321
0.06495817 0.0101391375 -0.034878626 0.032780845 -0.056634042 0.013764665 0.022180188 -0.0012393043
-0.02535452 -0.026650418 -0.029646855 -0.010480065 0.015162664 -0.025036113 -0.013094664 0.0064126314
-0.00874071 0.03890613 -0.025219947 0.029812204 -0.0054962533 0.025268588 -0.0060174665 0.0004440936
0.005701602 0.013900052 -0.03677664 0.028082035 0.014473376 -0.008542544 0.03123833 -0.044118866
-0.023904404 -0.024408275 -0.025432786 -0.056286238 -0.04336919 -0.056869425 0.032014377 -0.03646931
0.035824414 -0.025713345 0.022244621 0.015368527 -0.01388115 0.0015176635 0.019258799 -0.01707616
0.030864783 0.014996944 -0.053001434 -0.044928703 0.053329337 0.016092615 0.037980918 0.037732735
-0.0196261 0.022827893 -0.056615364 0.057393286 -0.03730711 0.038741075 -0.022739343 0.012624299
0.018185893 -0.028386444 0.006063869 -0.0044034175 0.07745557 -0.009656353 -0.024101924 -0.036975622
0.008736968 0.016063873 -0.00032323145 0.051880304 0.015104819 -0.032024726 -0.062138986 0.013631893
-0.02370323 -0.067846306 -0.02965433 0.0017314078 0.026251065 0.008104842 0.019018184 -0.0022115686
-0.01012102 -0.028203797 0.038193155 -0.0762209 -0.049504645 0.0118124625 0.008145256 -0.020080836
0.0054437052 -0.019920811 -0.0093453275 -0.0065393248 -0.012717614 -0.039760076 0.013129598 -0.0064608804
0.033287257 -0.01782086 0.026584147 -0.007003663 0.04445929 0.04605504 -0.023992816 0.02684497
0.0044537284 0.008450575 0.025787003 -0.049975894 0.026146652 -0.019593654 0.0050784484 0.038528398
-0.058359355 0.019943371 0.0059402403 -0.0078534745 0.04919484 0.059883934 0.007614585 -0.03369284
-0.021945585 0.05157761 0.024256913 -0.016788214 -0.0035561922 0.030381864 0.006693267 -0.022553585
-0.024377558 0.00071273715 -0.014497001 0.02846205 0.053984944 -0.01550612 0.046949245 0.02181821
-0.04211728 0.035555962 -0.0072377357 -0.055303227 -0.048065845 -0.06047845 0.006045092 0.030259509
-0.0939914 0.0016347095 -0.046972398 -0.062271293 0.028065545 -0.03874609 0.078259744 -0.043632135
-0.017538695 0.040614 -0.04324609 0.033263747 -0.039991118 -0.053351656 0.022152679 0.023231227
0.016007122 0.00485826 0.01280888 0.049407568 -0.023982132 -0.007130089 -0.00511692 -0.026033392
-0.02862869 -0.066184394 0.030723888 0.02289074 0.02131636 0.007509263 -0.059166983 0.024181748
-0.005001139 0.03059541 0.0013074547 -0.00518033 -0.051168263 -0.0047299243 -0.042893756 -0.00346935
-0.044663712 -0.083223134 0.020082096 0.0134108635 -0.0021981508 -0.034977205 -0.01843485 0.017573843
-0.016083565 -0.011969072 -0.010876964 -0.008319633 -0.04489955 0.0007860074 0.02036562 0.044015434

conv3.bias f4 [128]
00000000: 0782 f2bb 03a0 15bd 44c2 70bc c4ca d63c
00000010: d657 01bd 3e60 2a3c 4cdd 7fbc c79c 453d
00000020: 36e0 85bc 7e0e 7b3c e8da 253c ffbd 87bc
00000030: d031 243d e229 7abc 02cc 5c3c e71a 093d
00000040: 6b94 0c3d 0f02 3c3d 0c54 c33c f8bf 1b3c
00000050: 5d01 113d 40dd de3c 17fd 4a3d b260 f63c
00000060: 06f9 9fbc 6758 923c eb93 3e3d 0532 92bc
00000070: 9cca 2bbb 8a13 6abd d239 49bd 25be ce3c
00000080: 5afb 17bd 72c1 153d b0d7 c13b b6ee 1dbd
00000090: 85bc 0c3d 2aed 1ebd 2c00 97ba d6f4 a7bb
000000a0: 3457 413d 6d0b 4abc 3bae 963c 13e2 afbc
000000b0: 995b 013d bb89 853d 3f7f e83b 9da4 a83b
000000c0: 6862 ce3c 5c84 26bb 899b 04bd 5892 6ebc
000000d0: 33b9 dfbc c536 0c3d 023f 89bb e948 db3c
000000e0: b261 46bc 1643 193d a75e 08bc 84c4 253d
000000f0: 6353 0f3d be4f f73c a01f 273c 5b21 7abc
00000100: e785 b9bc 869b 1b3d 933e 093d 5b1b 6c3c
00000110: a68c ba3c 6ed0 623c ef6d b33c 38c2 eb3b
00000120: 25f2 cfbc 0ff5 01bc 0421 753c 165c 5c3d
00000130: 338a 483d 6577 5f3d 3958 7b3c 7a65 683c
00000140: 6e9d 2abd 3919 d13c cf3e 2cbc c481 11bd
00000150: 73dc 223c 67f2 e6bb 515d 083d 0865 20bc
00000160: 22fd 823b b10d c03c 3b1f f9bc ce37 653d
00000170: 0516 0ebc 72d0 c83c 1554 323c 9e84 8cbb
00000180: c691 87bb 9c6a c93c 95d2 8ebc 688b 983c
00000190: e566 b73c 92b6 433d 58e9 3ebc 1204 a0bb
000001a0: 5ebd de3c 730f 533d fabc ebbb 24e2 673c
000001b0: d2cf e0bc c1a0 4b3c b603 44bb ac82 833c
000001c0: 3b95 20bd b6cd c3bb da4d c63b 2fc6 573d
000001d0: ee56 d3ba b5a2 c6bb 9e5d 7cbc 7fa2 283b
000001e0: 2e18 61bc 1fce 86bb e6d4 c3bc 305d 0a3c
000001f0: b9c7 dfbc fb35 13bd 1f7b cabc f4c3 573d
-0.0074007544 -0.036529552 -0.014694754 0.026219733 -0.031577908 0.0103989225 -0.015616726 0.048245218
-0.016342264 0.015323279 0.010122992 -0.01657009 0.040086567 -0.015268775 0.013476374 0.03347292
0.03432123 0.0459004 0.023843788 0.009506218 0.03540169 0.02720511 0.04955777 0.030075405
-0.019527923 0.01786442 0.046527784 -0.017846117 -0.0026213294 -0.05714754 -0.049127407 0.025237152
-0.037104942 0.036561437 0.0059156045 -0.03855773 0.034359474 -0.038800396 -0.0011520437 -0.0051256223
0.047202304 -0.012331826 0.018393626 -0.021470105 0.031581495 0.065204106 0.007095247 0.0051465766
0.025193408 -0.0025408482 -0.032374892 -0.014561258 -0.02730999 0.03423192 -0.0041884193 0.026768165
-0.012108253 0.037417494 -0.008323348 0.040470615 0.034991633 0.030189391 0.010200411 -0.015266742
-0.022646857 0.037990116 0.03350694 0.014410819 0.022772145 0.013843639 0.021903006 0.0071947835
-0.025384018 -0.007931962 0.014961485 0.053798757 0.048959922 0.054557223 0.015340858 0.01418435
-0.041654043 0.025524722 -0.010513022 -0.035524145 0.0099402545 -0.0070479396 0.03329212 -0.009789713
0.003997461 0.023444029 -0.0304104 0.055961423 -0.008672242 0.024513457 0.0108843045 -0.00428827
-0.0041372506 0.024586968 -0.017434398 0.018621162 0.022387931 0.047781534 -0.011652313 -0.0048832977
0.027189907 0.051528405 -0.0071941586 0.014153037 -0.027442846 0.012428463 -0.0029909438 0.01605352
-0.039204817 -0.0059754504 0.006051761 0.052679237 -0.001612393 -0.0060618767 -0.015403179 0.002573162
-0.013738675 -0.004113927 -0.023905229 0.008445069 -0.027316915 -0.03594015 -0.024716912 0.05267711

act_conv1.weight f4 [4, 128, 1, 1]
00000000: 9598 b23b 76fc 1835 7e49 f73c 1b06 36bd
00000010: 3bb6 343c 3b3b 8c3c 9008 4d3d 5329 a93c
00000020: 05c9 903d 3ccd d8bd 22c1 a6bb 7bbc c73c
00000030: 00f3 fdbd dfd0 323c e306 f53c c187 49bd
00000040: 6753 8c3c ce39 4cbd b471 e83c dc95 0e3c
00000050: ce8f 51bc cc6f c53c f8b5 bcbd de44 d23b
00000060: 957f 873c 3829 153d b702 7ebb 7c49 1abd
00000070: 00bd 163c 7d76 30bd 0803 bebc fd81 273d
00000080: 498e f8b5 41dc 313c 40fa d8bc 93b0 693d
00000090: 2ce5 87bd c704 d7bc 9853 b0b9 c88f 0cb9
000000a0: 410c 0dbd 92ce 12bd fa17 13bd 6a2f 34bd
000000b0: 9e90 333b 3b4e a6bd 982a 87ba 4c6c acbd
000000c0: bc50 933c 903b 02bd d135 193d 5277 053d
000000d0: c631 153b 320c 17bd a30f 45bd e36b 713d
000000e0: 5aef 1234 7f4d d5bd 55e6 97bd ae0a a3bc
000000f0: 64d6 a0bd 754c ed3c e9f1 253d 0e58 0338
00000100: 18dc 763d 1dce 4fbd 01a7 423d f726 16bc
00000110: aa49 bfbc 42ed aabb e7cd 193d a58f 223c
00000120: 9f32 0fbd 653e 993d d178 583d ee6c 65bd
00000130: 624b 003a 74ef 9a3b f10a 80bd 333d b6bc
00000140: 5d80 4d3c 4ed3 213d 541b 0f3c aa59 a535
00000150: b1c2 bcbc 94ba dab6 0de8 a5bd dacf 963d
00000160: 1e3d 293d a4da c63b 6ca2 343c 4eea 90bd
00000170: d985 bf3c fa68 693d e94c 00bd c76b 1a3d
00000180: 2e0f 17bd b608 5e3d aa54 f4bc 07da 883d
00000190: a56b 1e3c fd8a ca3c 7ee7 3a3c 60dc 94bd
000001a0: 7e90 8eba 7b29 d83b 724b 683b 01a6 afbd
000001b0: 797b e43c 3da8 803d 7311 dcbc f742 9a3c
000001c0: b05b 1a37 7b7c 243b d571 0fbd e317 babb
000001d0: 090e 2bbd d7e3 273d 5ad4 2b3d d9de 923b
000001e0: 2651 a13d 8086 8bbc cae2 73bc 4ae1 b1bd
000001f0: 97ee 36b9 ef3c 3e3d bbec 8834 b989 45bb
00000200: b921 3abb f27c 7a3d 23b6 88bd 8c4b 8ebb
00000210: aa76 8f3d ad8b aabd b619 70bd f05a a43d
00000220: 58f1 9e3d 8571 95bd 8c0c 563a cdf1 f8bd
00000230: ebf7 8c3b 4d45 db3c 5cbd b43d 6991 d33d
00000240: 0219 ecbd 8450 44bd a022 0c3c f8af 643c
00000250: d273 153d 97b1 8dbd 2641 433c a0e6 d5bc
00000260: 50a3 633d 6e54 fabb df7f 8ebc e3e5 d93d
00000270: dd6c 153d 90f1 a9bd 645f 65bb 7509 45bd
00000280: 1238 9fbd e904 063d c8c0 673c 0e35 17bc
00000290: a07d aa3d 0908 983d 442a 323c 80b3 73bc
000002a0: 138d fd3c 1592 c3ba 0aed cbbc e287 713d
000002b0: 4f3b a7bd 896a bf3c dfb1 37bd a0e9 1dbc
000002c0: 67c7 f1bd 5f8b a5bc 8650 4f3d 18bb 413c
000002d0: 9e51 1ebe c9d4 b43d 7fe7 063d 04b1 52bd
000002e0: 3760 c0b9 02aa 823d c55b 703c 1024 973d
000002f0: 6589 9e3d fec8 4b3c 30a6 d1bc 63f5 0536
00000300: 1bf1 ca3b d317 943d e58f a53d 75f4 903d
00000310: 96fb 893d 2c35 58bd 3083 96bd deb5 923d
00000320: 8c9d c63d 1be9 9c3d 6f70 6e3d ee7a a4bd
00000330: f3a5 50bc ee6f 8c3c 59b8 af3d be20 de3d
00000340: a926 3ebd e22a c8bc 3012 eebc 4ee1 e9bc
00000350: d8d8 8a3d 2cda 8bb7 06e7 ae3d 82ff 85bd
00000360: d4eb 8d3d f147 103c 7197 033c a977 153d
00000370: 2fb2 10bd 788f a8bd f6ce 823d 8006 4e3d
00000380: 2657 ab3d c4db ac3c 167f 83bd 65eb 013d
00000390: 37dd d93d 6e5b 8c3d 647a e8bd 1b9d 013e
000003a0: 485e 9a3d 78c7 0fbd 841d bdbc 9422 103e
000003b0: 0521 a3bd db73 b4bb 0ac5 a03d 981e 1abd
000003c0: 519d d6bb 8b4b 433d 9199 193e 6fef 0cbe
000003d0: 89c9 8a3c fef3 bfbd fce1 673a 76cb 303d
000003e0: 23ad c4bb 2127 c33c 04ad cb3d 63bd 733c
000003f0: 0c87 c63c 3336 e33c 1600 6c3c 8bbb f43c
0.005450318 5.699179e-07 0.030186411 -0.044439416 0.011029775 0.017118087 0.050056994 0.020649588
0.070695914 -0.1058602 -0.005088941 0.024381867 -0.12399864 0.010914057 0.02991051 -0.04920173
0.017129613 -0.049859814 0.02837453 0.008702721 -0.012790633 0.02410116 -0.09214395 0.006416901
0.016540328 0.036416262 -0.0038758942 -0.037667736 0.009200335 -0.04308175 -0.023194805 0.04089545
-1.851885e-06 0.010855735 -0.026486516 0.05705316 -0.06635508 -0.026247395 -0.00033631618 -0.00013405003
-0.034435514 -0.035841532 -0.035911538 -0.04399053 0.002739943 -0.0812039 -0.0010312377 -0.084190935
0.017982833 -0.031795084 0.03740484 0.032584496 0.0022765263 -0.036876865 -0.048110615 0.05894078
1.3684385e-07 -0.10415172 -0.07416979 -0.019902553 -0.07853392 0.028967122 0.040513907 3.131484e-05
0.06026849 -0.050733674 0.04752255 -0.009164563 -0.023350555 -0.0052162716 0.03754988 0.009921943
-0.034960385 0.07482604 0.052849595 -0.056012087 0.00048940454 0.004728252 -0.06252087 -0.022245979
0.012542811 0.039508156 0.008734543 1.2319554e-06 -0.023042055 -6.518627e-06 -0.08100901 0.07363863
0.04131805 0.0060685445 0.0110250525 -0.0707594 0.023379253 0.05698488 -0.031323347 0.03770044
-0.03687971 0.054207526 -0.029825527 0.066822104 0.009669219 0.024724478 0.011407731 -0.07268596
-0.0010876802 0.0065967417 0.003544536 -0.085765846 0.027890908 0.06282089 -0.02686379 0.01883076
9.200463e-06 0.002509861 -0.035020668 -0.005679117 -0.04176143 0.04098877 0.04195056 0.004482132
0.07876806 -0.017031908 -0.014885614 -0.086855486 -0.00017445754 0.04644483 2.5504218e-07 -0.0030141904
-0.0028401448 0.061154313 -0.06675365 -0.004342502 0.07005055 -0.08327422 -0.05861827 0.080251575
0.077608764 -0.07297043 0.0008165322 -0.12155495 0.004302015 0.026766444 0.0882518 0.10330469
-0.11528207 -0.04792835 0.008553177 0.01395797 0.036487408 -0.06918638 0.011917388 -0.026110947
0.05557567 -0.0076394593 -0.017394958 0.106395505 0.036480773 -0.082980275 -0.0034999484 -0.048104722
-0.077743664 0.032719526 0.014145084 -0.009228958 0.08324742 0.074234076 0.010874335 -0.014874339
0.030951058 -0.0014920855 -0.024893302 0.05896748 -0.08165609 0.02336623 -0.044847365 -0.00963822
-0.11805611 -0.020208059 0.050613903 0.011824392 -0.15460822 0.08829648 0.032935616 -0.051438347
-0.0003669278 0.06380083 0.014670317 0.07379925 0.0774105 0.012438057 -0.02559194 1.9961378e-06
0.006193293 0.072311066 0.08084086 0.070778765 0.06737439 -0.052785084 -0.07349241 0.07163595
0.096980184 0.07661649 0.058212694 -0.080312595 -0.012734878 0.017143216 0.085800834 0.10846089
-0.046423588 -0.02443451 -0.029061407 -0.028549816 0.06779641 -1.6671685e-05 0.08540158 -0.06542875
0.06929746 0.008806215 0.008031712 0.03649107 -0.03532618 -0.082304895 0.06387131 0.050299168
0.083662316 0.021100886 -0.06420724 0.03171863 0.106378965 0.06853376 -0.11351469 0.12657587
0.07537514 -0.035102338 -0.023085363 0.1407569 -0.07965282 -0.005506975 0.07850082 -0.037626833
-0.0065495153 0.047679465 0.14999987 -0.13763212 0.016941803 -0.0937271 0.0008845625 0.043162785
-0.006002085 0.023822369 0.099451095 0.014876696 0.024234317 0.027735805 0.014404317 0.029874584

act_conv1.bias f4 [4]
00000000: 686c 8cbc 35ff 3e3d 4eca 943d f4e8 90bd
-0.017141536 0.046630103 0.07265149 -0.07075682

act_fc1.weight f4 [36, 144]
00000000: 339d 14bd de9e 75bd b8ce b6bd 4bd6 c1bc
00000010: 8c6b 0bbd ea1c 89bd e79a 0abd 6c50 92bd
00000020: 3bc2 b7bd 3ca8 c9bd 6848 1fbd 47d3 8fbd
00000030: f22c f6bd 71fd abbd 1aed cdbd 92a6 2dbd
00000040: 8cf1 14bd 8ddc dfbc 255a 40bd 8dd8 0cbd
00000050: 68d5 35bd de2a 00bd 1508 443c 42a4 79bb
00000060: 04b9 47bc 9c4a c4bc 5d9b b0bd 1e9b c1bb
00000070: a859 3e3c 0702 9c3c 910a 5abc 00cf bdbc
00000080: 9175 6cbc 2969 c0bc d29f 06bd 2fe5 01bd
00000090: 4fd5 963d bcb1 a73d 6bf4 0e3c ac58 543d
000000a0: 79f8 fe3c 9f81 063d 1f12 db3c 6732 8fbc
000000b0: 423b f93c d0fa a43d 44db 4f3d c8d7 51bc
000000c0: f387 873d c611 973d a11f 433d c2f8 ab3b
000000d0: d63a 91bd 8b1f 863d 22f3 38bd 807f b2bd
000000e0: ea79 8c3d 9d08 d53d 929a 133d 572f a03d
000000f0: f932 7dbd c6ad 8c3d 25df 083d d377 c8bd
00000100: 1ba9 263c a4e4 a1bc d0d9 7b3d 85b6 d8bd
00000110: 68a5 7d3d c6d1 8cbc 9323 c6bd df29 723c
00000120: b7b0 233d 7abe 2ebd a769 38bd 8b14 b8bb
00000130: 0ee4 8c3d 2e10 faba 69f3 dbbc 216e d7bd
00000140: 6be2 a6bd da58 ccbd 4fc6 92bd a965 653c
00000150: ac34 96bd 84ef 99bd ea48 e8bc d5a0 6fbd
00000160: cddc 14bd deba ebbd becd fdba 9e45 d5bd
00000170: 2f43 c6bd 4d86 99bd 4c1b 8bbd d9e2 20bd
00000180: f1ad abbd 429a 24bd 65aa 833c 5fe5 fbbd
00000190: 5dd2 963b 9ae1 f13b 576f 5e3c a4a2 37bd
000001a0: 20cd 2dbd 9d88 c3bd 87c6 e0bc 05be a3bc
000001b0: f3a1 85bd 29b7 63bd 61af eabc 0fa7 b3bd
000001c0: c79d f4bd a687 913c 3ce4 053d 51c7 d3bb
000001d0: 5dbd a03c b3e0 8bbd 4056 34bd 07e0 363d
000001e0: 7a13 d1bc 05b4 1bbd 22c4 bebb e013 543d
000001f0: b150 dcbc ad5a 8cbd 0fee 7abb c455 563d
00000200: 5b13 10bb 250f 78bc 2a4c 8d3c 8e3b 503d
00000210: a2f5 ea3c 47c4 a43c 1480 fd3c c8cf cabc
00000220: 13c8 a7bd 2589 7fb8 8257 8b3d d89e a83c
00000230: 90fb 3bbd 76eb 043d 4a84 4c3a 0221 92bb
00000240: ce60 f6bc 0dc3 92bc 6d14 b63c 04f8 16bd
00000250: d5b8 eabc e93b d8bc 5a30 c3bc fc81 d4bc
00000260: 0f70 5cbc 1ef0 7fbc 96a2 bcbc 5fc8 ebbc
00000270: b2d5 56bc 44e7 16bc f7d3 95bd 5a35 c1bc
00000280: 70e4 7e3c ef4d cf3a fa74 3ebd d20a 97bc
00000290: b708 ae3c 18ab a2bb d013 77bd a5b8 72bd
000002a0: 3a8f 813c 3f5b 29bd 4be5 723c 0afc 8d3c
000002b0: cd07 02bc fb60 50bd fb53 2fbc a50b ab3c
000002c0: 4415 ba3c f983 d1bc 12a4 333b daab 16bd
000002d0: 8659 45be a71a 02bd b89b 39bd 98ac 063e
000002e0: 37bd 1d3d 36c4 f23d 7828 3bbd 0132 ef3d
000002f0: 6e17 b0bd 9c47 31bd e280 91bd d134 243d
00000300: d282 6cbd 1d61 b3bc b8a6 eebc 10ca e9bd
00000310: dea0 c2bc 3b43 b6bd 5c71 61bc 31dc c83c
00000320: 767e 7abd d95d 9bbd 1c91 95bd 6849 0abd
00000330: 0434 a4bc 5070 efbd 25e7 87bc 23a6 e43b
00000340: bf17 c8ba 78dd d8bd 7a87 0e3d 8e82 0ebb
00000350: 76fa 2dbe 075a e83c 38a8 bfbd 69fe eebc
00000360: 3684 1b3e 9527 133e 3a4a 833d fcda af3d
00000370: b829 a93d 6a82 fd3d c2ba b6bc 9c72 593c
00000380: d017 9f3d 0b06 a03d f2a4 333d 47be d1bb
00000390: dc9c 883d feba 533d 3ed7 95bc d098 2c3d
000003a0: bd53 aebb 4682 3fbd ec3d 4c3d fd6e 783d
000003b0: effd 1bbd 8c10 fabc ddde 0c3d 3a9d b1bc
000003c0: e7a2 a83d afc9 9c3d b336 073d 6797 973d
000003d0: 0040 9f37 0a23 16bd 6871 803d e86d 0c3a
000003e0: ffcd 97bd 8ee1 95bc b7b3 623d 73bb a2bd
000003f0: ff86 dc3b 225a 4abd ad4d dcbc 1217 81bd
-0.03628273 -0.05996596 -0.08926147 -0.023661753 -0.03403811 -0.06694968 -0.033839133 -0.071442455
-0.089725934 -0.09846541 -0.03888741 -0.0702272 -0.120202914 -0.083979495 -0.10054989 -0.042395182
-0.03636317 -0.027326846 -0.04696097 -0.034386206 -0.044392973 -0.03129088 0.0119648175 -0.003809229
-0.012190107 -0.023961358 -0.08623383 -0.005908384 0.011618055 0.019043935 -0.013308183 -0.023169994
-0.014432327 -0.023487644 -0.03286726 -0.031712707 0.07364904 0.08188197 0.008725266 0.051842377
0.03112434 0.03283846 0.02674204 -0.017480088 0.030423764 0.08055651 0.050746217 -0.012807794
0.06617727 0.07376437 0.047637586 0.00524816 -0.070913 0.06548985 -0.045153745 -0.08715725
0.06859191 0.104020335 0.03603608 0.07821529 -0.06181619 0.06869082 0.033415932 -0.0978848
0.010172154 -0.019762345 0.06148702 -0.10581688 0.06192532 -0.017189872 -0.09674754 0.014780491
0.03996345 -0.04266212 -0.045022633 -0.0056176833 0.068794355 -0.0019078308 -0.026849465 -0.10519052
-0.081486546 -0.099778846 -0.071667306 0.014001288 -0.07334265 -0.07516387 -0.02835508 -0.05850299
-0.036343385 -0.115102515 -0.0019363684 -0.10413669 -0.09680783 -0.07496319 -0.06792316 -0.03927884
-0.08382786 -0.040186174 0.016072461 -0.122996084 0.004602714 0.00738163 0.01357635 -0.04483284
-0.04243195 -0.09547541 -0.027438415 -0.01998807 -0.0652503 -0.055594597 -0.02864808 -0.08772098
-0.11944156 0.017764878 0.032688364 -0.0064629694 0.019621545 -0.06829967 -0.044027567 0.044647243
-0.025521982 -0.038013477 -0.0058217207 0.051776767 -0.026893945 -0.068532325 -0.0038288867 0.052327886
-0.0021984193 -0.0151403295 0.017248232 0.050838046 0.02868158 0.020113124 0.030944861 -0.024757281
-0.08192458 -6.0924463e-05 0.068038 0.020583555 -0.045894206 0.032451116 0.0007801695 -0.0044595012
-0.030075457 -0.017915273 0.022226537 -0.03685762 -0.028652588 -0.026395755 -0.023826767 -0.025940888
-0.013454451 -0.015621213 -0.023026746 -0.028782068 -0.013112472 -0.009210411 -0.0731582 -0.02358501
0.015557393 0.0015816073 -0.046498276 -0.018437777 0.02124439 -0.0049642436 -0.06032163 -0.059258122
0.015815366 -0.041346785 0.0148251755 0.017332096 -0.00793643 -0.050873738 -0.010701175 0.020879576
0.022715218 -0.025575625 0.0027411026 -0.036784984 -0.19272432 -0.0317637 -0.04531452 0.13151777
0.038510527 0.118538305 -0.04569289 0.11679459 -0.08598219 -0.043281183 -0.071046606 0.040089432
-0.057741947 -0.021896893 -0.029132232 -0.114154935 -0.023758348 -0.08899542 -0.013759937 0.024519058
-0.06115576 -0.075862594 -0.07303068 -0.033761412 -0.020044334 -0.11691344 -0.01658971 0.006977813
-0.0015265866 -0.10589117 0.03479717 -0.0021745297 -0.16990075 0.02836324 -0.09358257 -0.029174047
0.15187153 0.14370568 0.06410642 0.0858669 0.0825991 0.1237839 -0.02230585 0.013271954
0.07768214 0.078136526 0.043858476 -0.0064008567 0.066705436 0.051692 -0.018291112 0.04213792
-0.005320041 -0.046755098 0.04986374 0.06065272 -0.038083967 -0.030525468 0.034392226 -0.021681417
0.08234196 0.076556556 0.03301115 0.074019246 1.898408e-05 -0.03665451 0.062716305 0.00053569535
-0.074123375 -0.01829603 0.05534717 -0.07945909 0.00672996 -0.049402364 -0.026892507 -0.063032284

act_fc1.bias f4 [36]
00000000: 4879 9cbc 0a60 2f3d 8118 89bb 0d57 8dbd
00000010: c71d eb3b 0562 68bd 4d03 ebbd 0fac bbbb
00000020: fb3c 7f3d 9ea8 8fbd c6c0 62bd 095f f23c
00000030: 99d3 ad3d c44b 4e3d 923c 633c 38e3 ddbc
00000040: 1509 be3c 1509 933d 9bda 353d 0c9c 723d
00000050: a308 3ebd cddd 3f3d 3edb 683c 0b5d 913d
00000060: 2a20 49bd e480 27bd 2f67 cc3d 013d 57bd
00000070: c628 613d 7da0 33bd 9b8c dbbd b94f a4bb
00000080: cbfc 313c 0e1e 5f3c 7207 373c e4b3 b13c
-0.0191008 0.0428162 -0.0041838293 -0.06901369 0.0071751806 -0.056734104 -0.11475239 -0.005727298
0.062314015 -0.07014583 -0.055359624 0.029586332 0.08487625 0.050365224 0.013869422 -0.027085885
0.02319769 0.07179467 0.04439793 0.05923085 -0.046394955 0.046842385 0.014212428 0.07097825
-0.04910294 -0.040894404 0.09980618 -0.052548412 0.054970525 -0.043854225 -0.10720178 -0.0050143865
0.010863493 0.013618005 0.011171209 0.021692224

val_conv1.weight f4 [2, 128, 1, 1]
00000000: ef27 b4bd f68f 2cbc c8b8 da3d 8cd0 b7bc
00000010: bf9e 8c3d 7e15 c7bd d4a4 863d b582 9a3c
00000020: aa89 7c3d 4789 8b3c 68b9 2bb6 efbb 8cbc
00000030: 2e95 a73c 0357 b13d eb45 dc3d 1734 a4bd
00000040: 4778 a03d 948f 7ebd 54d1 4d3d e38c 383d
00000050: 0514 84bd c0d5 b73c 208b 903c c065 883d
00000060: 6846 283d ef92 023d 4031 a0bd a78b 073c
00000070: 3d05 3cbd 173f aa3d c5e2 093d cb58 1a3d
00000080: 227b b4bc 1dd5 293d 1705 18bd 8c3a 69bd
00000090: bb61 893d b8cf d13d 65e0 aa3d 54f1 ad3d
000000a0: 415b cfbd 5aa9 81bc 69df 943c 181f c43c
000000b0: 8724 f1bd c06f 8f3c 2e80 debc a3ab 103d
000000c0: e380 fcbd a902 69bc 8062 8fbc 45e4 353d
000000d0: 487d 5f3c 24f6 9c3d 8169 123d 1b71 ab3d
000000e0: 42d7 9436 a775 013d 8904 853d db00 773d
000000f0: 58e4 9cbb c141 843d 9b77 b23d a9f0 f0bc
00000100: 1c3c 81bc a3ce 0e3c bc93 8e3d 6b21 ef3c
00000110: 016e f0bd 6751 b23a 5a99 863c 0d6d 903d
00000120: 410a 6c3d 6ed2 ce3d 6110 6e3d 92a9 22bd
00000130: 74cd 4fbd d4b9 ffbd b1cb 9abc b32b e43d
00000140: 5170 51bd 30d2 b6bb a113 0bbe 8883 86bc
00000150: 1501 88bd 3011 3536 2628 d0bd 9a11 e03d
00000160: 464e dd3d ff0a dabd 4186 183d 3d30 4a3a
00000170: 4e8e 7ebc 6b35 933d ca12 50bd ba1e 303c
00000180: 638c 2e3c 9ef1 edbd fc69 3c3d 920f 5d3b
00000190: 75e7 52bd f5d9 a7bd 0949 023d c0a1 55bd
000001a0: eb51 fcbc 1e21 00bc fa0e 823d 59ab 683c
000001b0: f5c0 623d d72f 10bd f2b7 9c3d 251d 863d
000001c0: e9ec 2939 d23f 463d d806 b53d cbcc 14be
000001d0: 35f7 a43d 788b 0e3c 3971 233c 8c7b e8bc
000001e0: 26ba 443d 956f d4bd 80f0 f73c 4b79 303d
000001f0: 484a fb3c 9d52 313d 6092 69bc d632 8f3b
00000200: c962 953c 41be fe3c 5878 d2bd 4163 66bd
00000210: 9413 76bd 20c5 7d3d e4a9 243d 3203 9c3d
00000220: f538 1e3d 87b0 673c b22a a0bc 7269 773d
00000230: 22dc eebc 8464 a2bb f2ce 91bd c0a1 00be
00000240: fec5 27bd 413b 173d 0ab4 b43c cb88 39bd
00000250: e000 f33c 38f7 bb3c 0c2b ec3c ba9c 5b3d
00000260: 7652 27bb 440e 56bc a2dc bbbc 4785 d4bd
00000270: 945a 75bd 053a 3dbc eb3f 9d3c 8eea e13c
00000280: 0c84 b73a 8b58 8e3d 2277 fb3c 21dd 4fbc
00000290: 86c5 af3c ab56 95b9 8551 9cbd 8da8 85bd
000002a0: c4c5 fd3c 1356 243d bdf0 593d f4b5 643c
000002b0: a544 4c3d d4e8 573c 2dcc b13d db0f 0e3d
000002c0: 647a 1f3d f70b 913b 3dc0 92bd 452f 8fbd
000002d0: 4ea9 463d 5735 d6bb 87c7 1f3d 6ec9 d4ba
000002e0: 2979 8eba 6003 2abd 18d7 603b 4aca 9b3d
000002f0: 59dd 333d 3a4d e23b d86f 5cbd 543b bd3b
00000300: 300d a53c 54ab 563d bf66 dabd fa58 abbd
00000310: 2e13 233d 24e3 37bd 3f7c 83bd 7e28 43bd
00000320: 73b6 3fbd 7161 cabd f7a9 69b7 7e6a 933c
00000330: 0467 503d b785 bbbc 6eab 863d dc4d 85bd
00000340: cc4a 37bc 541e 70bd 7251 3bbd 4ccd 17bc
00000350: 9366 283d a460 b3b9 f078 f93b 84a5 a0bd
00000360: e32f 85bd 42fb 773d 5ea7 7cbd 95a9 10bd
00000370: 64ec 2bba 1f23 73bb 84c6 893d 23ec b73c
00000380: 2816 9ebd 8dfb e7bc 11d9 2f3d 01ba adbd
00000390: 4f7c bebd a72a 843d 1d45 9a3d 14fc ce3d
000003a0: c586 00bc ba7d 6dbd a8ec 8b3d a315 133d
000003b0: 529a 8b3d c15d 9d3b d10f 07be d5b5 71bc
000003c0: c4ba c4bc ca98 acbd 9cb1 48bd 6562 6abd
000003d0: 954e a33d 03a8 30bd ac59 c9bb 13da b5bd
000003e0: 99d3 cbbc 269a dbbc e47c fa3b a0df 6c3d
000003f0: d38c 22bd 6d4c 5bbd 795f f839 f813 393b
-0.08796679 -0.01053237 0.106797755 -0.02243831 0.06866216 -0.09720896 0.06574407 0.018861154
0.061654724 0.017033232 -2.5588906e-06 -0.017179457 0.020456877 0.08659174 0.10755523 -0.08017748
0.07835441 -0.062148646 0.05024846 0.045056235 -0.06449131 0.022440791 0.017644465 0.06660032
0.04108277 0.031878408 -0.07821894 0.008273042 -0.045903433 0.08312815 0.03366353 0.037682336
-0.02203137 0.041463006 -0.03711423 -0.0569406 0.06708094 0.10244697 0.08343581 0.08493295
-0.10124827 -0.015827823 0.018172937 0.023940608 -0.11774545 0.017509341 -0.02716073 0.035319936
-0.12329271 -0.014221826 -0.017503023 0.044407148 0.013640709 0.07664135 0.035745148 0.083711825
4.435803e-06 0.031606343 0.06495006 0.06030355 -0.004787963 0.06457854 0.08714219 -0.02941163
-0.015775733 0.008716258 0.06961772 0.02919074 -0.117397316 0.0013604582 0.016430546 0.0705205
0.057626966 0.1009873 0.05812109 -0.039712496 -0.050733045 -0.12486616 -0.018895956 0.111411475
-0.051132504 -0.0055792555 -0.13581707 -0.01642014 -0.066408314 2.6981106e-06 -0.10163908 0.10940857
0.10805945 -0.106466286 0.03723741 0.00077128765 -0.015536858 0.07187923 -0.05079917 0.010749513
0.010653588 -0.116183504 0.045999512 0.0033731204 -0.051490266 -0.08195869 0.031807933 -0.05215621
-0.03080078 -0.007820396 0.06350513 0.014201009 0.0553598 -0.035201874 0.07652272 0.06548528
0.00016205352 0.048400708 0.08839196 -0.14531247 0.080549635 0.008700244 0.009975725 -0.028379224
0.048029087 -0.10372845 0.030266047 0.043084424 0.030675068 0.043291677 -0.01425609 0.004370074
0.018235581 0.03109658 -0.1027686 -0.056247 -0.060077265 0.06195557 0.040201083 0.07617797
0.038628537 0.0141412085 -0.019551609 0.060403295 -0.029157702 -0.00495583 -0.0711955 -0.12561703
-0.040960304 0.036921743 0.022058506 -0.04529647 0.029663503 0.022945032 0.02882912 0.053616263
-0.0025531328 -0.013064925 -0.022932354 -0.10376983 -0.059900835 -0.011549477 0.019195518 0.027577665
0.0014001145 0.06950482 0.030696455 -0.012686999 0.021456491 -0.00028484067 -0.07632736 -0.06526289
0.030978091 0.04012115 0.0532081 0.013959397 0.049870152 0.013178069 0.086815216 0.03468309
0.03893508 0.004426475 -0.07165573 -0.06991438 0.048501305 -0.0065371203 0.039008643 -0.0016234347
-0.0010869849 -0.041507125 0.0034307893 0.07606943 0.043912265 0.006906179 -0.0538176 0.0057748947
0.02014789 0.052409485 -0.106641285 -0.0836658 0.039813213 -0.044894353 -0.064201824 -0.04764604
-0.046804857 -0.09881867 -1.3927455e-05 0.017995115 0.050879493 -0.022890909 0.06575666 -0.06508991
-0.011187267 -0.058622673 -0.04573197 -0.009265255 0.041113447 -0.00034213543 0.007613294 -0.078440696
-0.06503274 0.060542352 -0.06168305 -0.035317976 -0.0006558357 -0.0037099791 0.06727317 0.022451466
-0.0771907 -0.028318191 0.04293162 -0.08482743 -0.09301054 0.06453448 0.075327136 0.10106674
-0.007844632 -0.05798123 0.06832248 0.035909306 0.06816544 0.004802436 -0.13189627 -0.014752825
-0.024014838 -0.0842758 -0.048997506 -0.057222743 0.07973973 -0.04312898 -0.006144723 -0.08879485
-0.024881171 -0.026806902 0.0076442827 0.057830453 -0.03968508 -0.053539682 0.0004737338 0.0028240662

val_conv1.bias f4 [2]
00000000: 2856 403d fca9 a93d
0.046957165 0.08284375
