models/Training/AC_nmcts20/train_083.pth (torch, 424031 bytes, 15 tensors)

conv1.weight f4 [32, 5, 3, 3]
0.021904644 -0.1819514 -0.040271226 0.13685171 -0.26195452 -0.03956411 0.119499505 -0.14106843
0.025634669 0.018413488 -0.014530569 0.1540853 0.10179395 -0.1795909 0.14618517 -0.029156122
-0.009078896 0.1077698 5.983373e-13 7.3693645e-16 -5.701673e-15 6.457706e-14 -4.4906516e-14 -5.999811e-12
4.6874414e-12 1.893169e-14 1.0614242e-15 0.10299781 0.018756537 -0.056993842 -0.12678248 -0.17872252
-0.00041539152 0.04571128 -0.13280626 0.09057296 -1.2250423e-14 1.8378327e-13 3.9611614e-14 -2.486547e-14
-1.0973393e-10 -1.0120182e-14 -1.821297e-15 -7.279979e-14 -4.7191855e-12 -0.047455907 0.23656484 0.08215621
0.1373988 -0.056063667 0.005575557 0.018234184 0.15463476 0.117862485 0.082638755 -0.15964665
-0.048172977 -0.016528135 0.031776465 0.015456547 -0.030422527 -0.073515005 0.07671914 -7.595886e-13
1.3821713e-13 -3.5260605e-15 -1.3957475e-09 6.7716002e-15 -1.3419922e-14 -2.6772234e-10 -3.96217e-14 1.6877464e-13
-0.1151525 0.19576812 -0.111060336 0.03561034 -0.19533695 -0.084957965 -0.13408686 0.13529839
-0.026309028 -2.0002205e-14 5.095342e-06 -5.6684343e-14 2.1698267e-14 7.2067325e-13 -2.5361823e-07 -1.1049193e-12
-2.9297837e-09 5.679038e-14 -0.10622024 0.04035324 0.069019936 0.061326943 0.028860515 0.16187778
-0.1502101 -0.19403972 -0.012986457 -0.029637573 -0.047012772 -0.08563388 -0.016322482 -0.017607782
0.116887026 0.18154562 -0.011047509 0.11849477 2.1024227e-11 9.32666e-13 3.1158297e-14 -4.60709e-15
-4.3381052e-10 -3.78949e-06 3.4834274e-14 5.1612984e-14 -2.8814346e-16 0.068110794 -0.026734963 -0.16791666
-0.05557841 -0.027815307 0.10165485 0.049823105 -0.045980085 0.05552547 -4.2119724e-12 1.0716132e-08
1.07462365e-13 -3.441884e-06 4.6009903e-18 -2.1200005e-06 1.2786602e-09 5.6969985e-16 -3.2872512e-14 0.030150916
-0.11073894 -0.10884502 0.019398924 0.017136255 -0.041650224 0.18408573 0.22206524 0.17972434
0.07939724 0.022633823 -0.1043321 -0.03665298 -0.1845643 -0.15126789 0.05779642 0.03424764
-0.16305633 2.314606e-11 -4.277573e-15 -7.412764e-13 -9.8999474e-15 -5.614347e-12 1.464916e-12 1.0283971e-15
-1.00782345e-13 1.916626e-09 0.03875682 0.12761387 0.041411925 -0.20562778 0.08867991 -0.009533847
0.07777334 0.077088885 0.0060060294 2.2052811e-06 3.1654369e-12 -5.698142e-12 -1.0278419e-15 1.6839526e-12
-5.619724e-14 -6.542362e-15 6.5725663e-07 -6.9932213e-15 0.10632958 -0.08170701 0.10272916 0.039444707
-0.0070758997 0.03961995 0.027826063 0.021567693 -0.1441557 0.14436048 -0.16908883 0.114689305
0.069257565 0.047691345 0.13815944 0.09120136 0.043431845 -0.1525642 -1.2078561e-13 -5.635609e-15
-4.7938953e-12 -5.3370636e-06 2.3761097e-11 -5.480755e-15 -1.0169346e-10 -1.4627845e-12 1.0167309e-15 0.12957656
-0.068278976 0.1354517 -0.000637542 0.03538797 0.17971084 0.10835694 0.03696049 -0.030447697
1.88467e-14 -2.4881318e-14 -1.211063e-14 -2.3481819e-11 2.419827e-15 -4.7140975e-15 -3.3177508e-13 -3.8527733e-11
3.2625812e-06 0.07816064 0.1506317 0.14834231 0.1561118 -0.079818696 -0.098057866 0.10305894
0.16054699 -0.10642248 0.07714879 0.120250344 0.05203193 0.042165443 -0.14299293 -0.09709949
0.05992439 -0.10931557 0.0016200915 -5.2690414e-08 -2.7405842e-14 -2.65614e-09 2.896789e-17 -1.6956431e-09
-3.8394158e-12 -1.722843e-15 -1.0432982e-11 -1.3479167e-12 0.0027562734 0.08231675 0.041089386 0.06833035
00000000: 5e71 b33c 7851 3abe 71f3 24bd db22 0c3e
00000010: e71e 86be fa0d 22bd 28bc f43d 3e74 10be
00000020: ccff d13c e2d7 963c a011 6ebc 89c8 1d3e
00000030: 5979 d03d ade6 37be 91b1 153e d2d8 eebc
00000040: a6bf 14bc 6ab6 dc3d bf6a 282b 5068 5426
00000050: a76c cda7 246a 9129 b03d 4aa9 7e19 d3ac
00000060: b8ec a42c 8185 aa28 a4f7 9826 84f0 d23d
00000070: 4fa7 993c 6072 69bd 44d3 01be 0903 37be
00000080: e8c8 d9b9 c03b 3b3d 5dfe 07be 517e b93d
00000090: 1baf 5ca8 eceb 4e2a 1565 3229 dff7 dfa8
000000a0: b64e f1ae 1a4f 36a8 003d 03a7 39ee a3a9
000000b0: a50a a6ac 2061 42bd 0e3e 723e 8441 a83d
000000c0: 45b2 0c3e 04a3 65bd 29b3 b63b db5f 953c
000000d0: 9358 1e3e e361 f13d 823e a93d 697a 23be
000000e0: 0751 45bd 0366 87bc 0a28 023d 753d 7d3c
000000f0: aa38 f9bc 098f 96bd ed1e 9d3d 21ce 55ab
00000100: 609e 1b2a 5614 7ea7 80d4 bfb0 fdf8 f327
00000110: 77c0 71a8 922e 93af b670 32a9 fa05 3e2a
00000120: 13d5 ebbd 7077 483e 9a73 e3bd 26dc 113d
00000130: 6906 48be 71fe adbd 114e 09be a98b 0a3e
00000140: 0886 d7bc f229 b4a8 a8f8 aa36 9948 7fa9
00000150: cc70 c328 fbd9 4a2b 0629 88b4 ea80 9bab
00000160: 4d55 49b1 dac2 7f29 ff89 d9bd 7049 253d
00000170: 535a 8d3d f631 7b3d e36c ec3c 4ac3 253e
00000180: add0 19be 59b2 46be 26c5 54bc 7fca f2bc
00000190: 7790 40bd d160 afbd bab6 85bc 323e 90bc
000001a0: 7762 ef3d 18e7 393e 9c00 35bc 63ad f23d
000001b0: 5aee b82d d642 832b 1253 0c29 e8fc a5a7
000001c0: 677d eeaf f14e 7eb6 2fe1 1c29 b871 6829
000001d0: 781a a6a5 ac7d 8b3d 4803 dbbc 58f2 2bbe
000001e0: 30a6 63bd eddc e3bc 6b30 d03d 5013 4c3d
000001f0: 9d55 3cbd ad6e 633d 1332 94ac 0c1a 3832
00000200: d6fb f129 1efb 66b6 20bf a922 5545 0eb6
00000210: dbbc af30 6e34 2426 6d0b 14a9 0eff f63c
00000220: 19cb e2bd 23ea debd 7eea 9e3c 5561 8c3c
00000230: 6d99 2abd f880 3c3e 1265 633e a809 383e
00000240: 059b a23d 916a b93c 11ac d5bd 6f21 16bd
00000250: 6dfe 3cbe f8e5 1abe f0bb 6c3d 4147 0c3d
00000260: 3df8 26be 4b98 cb2d a61d 9aa7 98a6 50ab
00000270: 7357 32a8 8b89 c5ac 292b ce2b 2835 9426
00000280: 11f1 e2a9 a4b5 0331 79bf 1e3d 36ad 023e
00000290: 8d9f 293d 1790 52be d09d b53d da33 1cbc
000002a0: a147 9f3d c7e0 9d3d 3ace c43b 71fe 1336
000002b0: 71bf 5e2c 4d7c c8ac ac20 94a6 c9fe ec2b
000002c0: 0217 7da9 a4b6 eba7 556e 3035 15f5 fba7
000002d0: 53c3 d93d 0156 a7bd aa63 d23d c690 213d
000002e0: f3dc e7bb 8748 223d 7cf3 e33c bbae b03c
000002f0: 8d9d 13be 3cd3 133e 9f25 2dbe 3ae2 ea3d
00000300: e9d6 8d3d 0058 433d ab79 0d3e c7c7 ba3d
00000310: 97e5 313d ca39 1cbe 15fe 07aa 520b cba7
00000320: 92ab a8ac 0715 b3b6 3c01 d12d 0b77 c5a7
00000330: 54a0 dfae 5ede cdab c086 9226 b8af 043e
00000340: d9d5 8bbd dab3 0a3e b820 27ba faf2 103d
00000350: 1e06 383e 3eea dd3d e263 173d 736d f9bc
00000360: 88c1 a928 6a1c e0a8 6c2a 5aa8 5b8c cead
00000370: ee5d 2e27 e0d7 a9a7 d4c5 baaa 5f72 29ae
00000380: b8f2 5a36 b012 a03d 323f 1a3e 0ce7 173e
00000390: c6db 1f3e fc77 a3bd 90d2 c8bd 9110 d33d
000003a0: 6e66 243e 07f4 d9bd 2f00 9e3d d045 f63d
000003b0: 6f1f 553d acb5 2c3d bd6c 12be 19dc c6bd
000003c0: 4773 753d d7e0 dfbd 4059 d43a b94d 62b3
000003d0: 92d9 f6a8 4f87 36b1 4097 0524 230c e9b0
000003e0: 6216 87ac b049 f8a6 f989 37ad d1b3 bdab
000003f0: 98a2 343b af95 a83d 584d 283d c8f0 8b3d

conv1.bias f4 [32]
0.1265123 0.000982366 -0.041354023 0.08088365 -0.075628355 -0.13990575 -0.0392551 0.113480985
0.0748774 -0.087628 0.19029161 -0.042433325 0.178358 0.15260407 -0.11102388 -0.029817313
-0.030246066 -0.06538116 -0.027127529 0.170872 -0.06317352 0.08851634 0.003588004 -0.07427988
-0.0826043 0.08030581 -0.11717806 0.17397879 0.13117592 -0.08074408 -0.11053654 0.1304853
00000000: 718c 013e bcc2 803a d662 29bd 54a6 a53d
00000010: 0ae3 9abd 7443 0fbe f5c9 20bd b868 e83d
00000020: 5359 993d 4f76 b3bd cedb 423e 91ce 2dbd
00000030: 7ba3 363e 3e44 1c3e 7d60 e3bd 7043 f4bc
00000040: 99c6 f7bc 8fe6 85bd 8d3a debc 12f9 2e3e
00000050: 1e61 81bd 0e48 b53d b824 6b3b 0d20 98bd
00000060: 712c a9bd 5f77 a43d 0dfb efbd 7f27 323e
00000070: fb52 063e 275d a5bd fb60 e2bd f09d 053e

conv2.weight f4 [64, 32, 3, 3]
-0.021997733 0.029953176 -0.009491886 0.0329895 -0.054649763 -0.053379104 -0.05084976 0.010607052
-0.018908966 -0.0470991 -0.03384432 -0.045068 0.025472566 0.026676258 0.037413426 0.024169628
0.02182615 0.059546493 -0.05485352 -0.041045934 -0.037016846 0.012113505 0.04022335 -0.001592259
0.002245991 0.003867892 -0.05269809 -0.07954928 -0.014837836 0.031661738 -0.0029951057 -0.0047970666
-0.0024673112 0.03191965 0.021179043 0.046602186 -0.0031166575 0.035028454 -0.043443013 0.020005262
0.054573223 -0.035333432 -0.0031598206 -0.0020446077 -0.032039423 -0.04993152 -0.021734044 -0.01063055
-0.053270046 -0.031765603 0.002605618 -0.027247075 0.058301173 0.022930536 -0.012911885 -0.046731133
-0.06652228 -0.0039211675 0.0275949 -0.007882183 0.024694791 -0.027465304 -0.03542142 0.018510254
-0.025231872 0.023670875 -0.040561013 0.084383205 0.032807376 0.04410637 -0.01619899 -0.0043723905
-0.08599395 -0.010410646 9.931374e-05 -0.06275479 0.0390829 -0.062346887 -0.03906011 0.035388246
0.038930338 -0.003053504 -0.06080275 -0.024585243 0.029661149 -0.07131438 -0.040268995 0.039820712
0.04253132 -0.01278952 -0.059024513 0.026464231 -0.06867495 -0.061736766 -0.058689106 -0.084369205
-0.04745316 -0.022937534 -0.02440128 0.006608364 0.048223756 -0.022616373 -0.069200136 0.011663674
0.04372698 -0.02625721 0.024831427 -0.058810208 -0.08980474 -0.032599796 -0.07560239 0.0027116043
0.061256405 -0.09240953 -0.048679944 -0.05293443 -0.00046407589 -0.069817446 -0.055309698 0.034005377
-0.0697396 0.031365033 -0.016249055 -0.045134883 0.008502097 -0.012436864 -0.027391661 -0.0015752416
-0.055683263 -0.064868614 -0.032003023 0.013301772 -0.07611869 -0.016550153 0.007387414 -0.043854095
-0.035778757 -0.030811964 -0.04303375 -0.016598275 -0.035105184 -0.01995856 -0.05090998 -0.06384173
0.054605186 -0.037364386 -0.07946199 -0.04340914 -0.058010064 -0.034325607 -0.009105448 0.0056385593
-0.029457038 -0.04939961 0.027283328 0.0059502413 -0.06730078 -0.006266341 0.061089043 -0.001314
0.043778293 -0.06563511 -0.03230687 0.0107693365 0.044865195 -0.009018514 -0.051217545 0.004269303
0.04868462 -0.03312219 0.013544741 0.027768895 -0.07291749 -0.047930725 -0.017820884 0.04563844
-0.02898748 -0.0093364995 -0.04475881 -0.091223516 -0.06301188 0.02872065 -0.003051613 -0.024673324
0.057373963 0.000938307 0.001670022 -0.00040727286 -0.03198722 -0.002935461 0.012028254 -0.047080606
-0.017565731 0.05985502 -0.025996566 -0.019865697 -0.08234569 -0.07138595 0.041265268 -0.01055569
-0.012728466 -0.055956747 -0.03577174 -0.0045612925 -0.07174516 0.0077809016 -0.056489725 0.036924955
-0.031131895 -0.058005966 0.0209189 -0.00038900168 -0.05123085 0.013271496 0.057590608 0.07979631
0.017609546 -0.019576669 0.029406969 -0.04587183 0.022821628 -0.04077068 0.02026526 -0.02820835
-0.03181373 0.008268058 0.044237915 -0.0089695295 -0.010324577 -0.03312596 -0.05399147 0.024583831
-0.0025286733 0.021709295 0.005066644 0.038136292 -0.013031007 0.03918644 -0.02270282 0.05375261
0.042944435 -0.021182273 -0.017768102 -0.0026532486 -0.067226134 -0.023043634 0.00936396 -0.04610499
-0.0067219 -0.05639838 -0.032312665 -0.045183655 -0.03186711 0.02548134 0.04296583 0.019181827
00000000: 9734 b4bc 5d60 f53c db83 1bbc ff1f 073d
00000010: 6ed8 5fbd 0ca4 5abd d747 50bd 33c9 2d3c
00000020: fae6 9abc fcea 40bd 57a0 0abd 3999 38bd
00000030: d8ab d03c 2b88 da3c d23e 193d 62ff c53c
00000040: c1cc b23c 06e7 733d 16ae 60bd c81f 28bd
00000050: fa9e 17bd b977 463c 3dc1 243d 59b3 d0ba
00000060: 7a31 133b 767c 7d3b f4d9 57bd bcea a2bd
00000070: 651a 73bc bdaf 013d 8949 44bb b630 9dbb
00000080: 9db2 21bb 2ebe 023d ac7f ad3c efe1 3e3d
00000090: d640 4cbb ff79 0f3d 4df1 31bd 13e2 a33c
000000a0: 2c88 5f3d cab9 10bd fe14 4fbb d3fe 05bb
000000b0: c53b 03bd fe84 4cbd 980b b2bc c22b 2ebc
000000c0: b131 5abd a61c 02bd 04c3 2a3b 4235 dfbc
000000d0: 36cd 6e3d d2d8 bb3c 5f8c 53bc 2569 3fbd
000000e0: d53c 88bd 237d 80bb b30e e23c 4624 01bc
000000f0: bb4c ca3c ebfe e0bc 0d16 11bd d1a2 973c
00000100: 12b3 cebc 6ce9 c13c 4e23 26bd 1ad1 ac3d
00000110: 0761 063d e2a8 343d bfb3 84bc 4546 8fbb
00000120: 991d b0bd 6a91 2abc a846 d038 9585 80bd
00000130: 6415 203d 735f 7fbd 7efd 1fbd 44f3 103d
00000140: 6b75 1f3d 4c1d 48bb 4e0c 79bd fe66 c9bc
00000150: f0fb f23c 460d 92bd 1af1 24bd 0b1b 233d
00000160: 5235 2e3d 238b 51bc b0c3 71bd 84cb d83c
00000170: 74a5 8cbd b1df 7cbd fd63 70bd c3c9 acbd
00000180: 3f5e 42bd 7fe7 bbbc 31e5 c7bc fa8a d83b
00000190: 4686 453d f945 b9bc cdb8 8dbd ff18 3f3c
000001a0: 101b 333d 5c19 d7bc 476b cb3c f9e2 70bd
000001b0: 8ceb b7bd 5d87 05bd 6dd5 9abd 2cb5 313b
000001c0: ffe7 7a3d 3541 bdbd 9f64 47bd c6d1 58bd
000001d0: 364f f3b9 73fc 8ebd 6c8c 62bd 3949 0b3d
000001e0: a3d3 8ebd 9f78 003d bd1c 85bc 5bdf 38bd
000001f0: 614c 0b3c fdc3 4bbc 7a64 e0bc 5678 ceba
00000200: 2214 64bd d6d9 84bd 9a15 03bd adef 593c
00000210: 1ee4 9bbd 3094 87bc 1f12 f23b 5aa0 33bd
00000220: bf8c 12bd 5f69 fcbc 2844 30bd 1bf9 87bc
00000230: 74ca 0fbd 2280 a3bc fc86 50bd 74bf 82bd
00000240: b0a9 5f3d 660b 19bd f8bc a2bd c8cd 31bd
00000250: f69b 6dbd 0299 0cbd 042f 15bc aac3 b83b
00000260: e34f f1bc 3f57 4abd 4981 df3c 3efa c23b
00000270: fed4 89bd e155 cdbb 8138 7a3d 863a acba
00000280: de50 333d b36b 86bd 3554 04bd df71 303c
00000290: 91c4 373d 64c2 13bc 7dc9 51bd 82e5 8b3b
000002a0: 8669 473d 22ab 07bd c3ea 5d3c 987b e33c
000002b0: c455 95bd 0253 44bd 1afd 91bc 5fef 3a3d
000002c0: 2777 edbc 1ef8 18bc 0455 37bd 65d3 babd
000002d0: 5f0c 81bd 9247 eb3c 92fd 47bb b61f cabc
000002e0: f600 6b3d b8f8 753a a4e4 da3a 3d87 d5b9
000002f0: 0805 03bd dd60 40bb 2712 453c 98d7 40bd
00000300: 02e6 8fbc 8a2a 753d c0f6 d4bc 63bd a2bc
00000310: dba4 a8bd cc32 92bd c505 293d c6f1 2cbc
00000320: 0e8b 50bc e732 65bd 6385 12bd e576 95bb
00000330: 20ef 92bd eff6 fe3b c561 67bd 9f3e 173d
00000340: 5108 ffbc aa97 6dbd 1d5e ab3c ecf2 cbb9
00000350: 71d7 51bd b070 593c 21e4 6b3d 3f6c a33d
00000360: e541 903c 405f a0bc e2e6 f03c 1ae4 3bbd
00000370: 6cf4 ba3c 28ff 26bd 5503 a63c 3315 e7bc
00000380: 1d4f 02bd c076 073c d132 353d eff4 12bc
00000390: 6a28 29bc 16af 07bd 2926 5dbd 0864 c93c
000003a0: 19b8 25bb b1d7 b13c 1706 a63b cd34 1c3d
000003b0: 0180 55bc f681 203d 44fb b9bc b22b 5c3d
000003c0: 81e6 2f3d 7286 adbc 698e 91bc 20e2 2dbb
000003d0: dbad 89bd 01c6 bcbc 4b6b 193c 96d8 3cbd
000003e0: 6243 dcbb fd01 67bd 495a 04bd 7f12 39bd
000003f0: 1687 02bd 3ebe d03c f0fc 2f3d 3523 9d3c

conv2.bias f4 [64]
0.023766708 0.007983879 -0.07246524 -0.050888643 -0.01505764 0.07108204 0.066101104 0.022489507
-0.03978246 0.08292975 -0.033253904 -0.032736883 0.058532402 -0.04903738 -0.015235177 0.0023811976
0.083396114 0.08487264 0.027973773 0.051243022 0.018102333 -0.02528027 0.07892855 0.038608417
0.025845585 0.10207043 -0.01428162 0.068125255 -0.0435252 -0.019566484 0.07582732 0.07217374
0.019015238 -0.027499327 0.007875566 0.08841627 0.030037403 -0.029003225 -0.0018181307 0.0876081
0.04547182 -0.013632073 -0.05953064 -0.008949591 -0.02236387 0.060760252 -0.04216937 0.094016865
0.04196848 -0.06096201 0.0448304 0.07324905 0.06527266 -0.03503014 0.031716794 0.073812716
-0.00573141 0.0071340753 -0.03165586 -0.01202436 0.016023079 -0.021657085 -0.05076583 -0.0014633876
00000000: 66b2 c23c d1ce 023c a868 94bd 9c70 50bd
00000010: 52b4 76bc 7693 913d 0460 873d ea3b b83c
00000020: eff2 22bd 13d7 a93d 3f35 08bd 1c17 06bd
00000030: acbf 6f3d 6bdb 48bd f79c 79bc de0d 1c3b
00000040: 95cb aa3d b5d1 ad3d 4129 e53c 34e4 513d
00000050: 584b 943c 9218 cfbc 4ba5 a13d dc23 1e3d
00000060: 1fba d33c 4d0a d13d 75fd 69bc 4185 8b3d
00000070: 7b47 32bd e449 a0bc 5b4b 9b3d d3cf 933d
00000080: d8c5 9b3c 4546 e1bc 8508 013c 9713 b53d
00000090: 0011 f63c 2c98 edbc 584e eeba e06b b33d
000000a0: a940 3a3d 0f59 5fbc 66d6 73bd 4ea1 12bc
000000b0: 6f34 b7bc bedf 783d cab9 2cbd ea8b c03d
000000c0: 24e7 2b3d 4db3 79bd 15a0 373d 9903 963d
000000d0: acad 853d c47b 0fbd 78e9 013d 1f2b 973d
000000e0: 8dce bbbb f6c4 e93b 93a9 01bd d201 45bc
000000f0: d542 833c 336a b1bc d5ef 4fbd 24cf bfba

conv3.weight f4 [128, 64, 3, 3]
0.022264764 0.041469626 -0.00013243544 -0.021351619 -0.020209419 -0.01943302 0.0019161083 -0.008119671
0.0055855825 0.009289532 0.011331801 0.024277432 -0.036287658 0.016104225 -0.008788292 -0.03746664
-0.01079874 0.006717935 0.051590282 -0.024539907 -0.010465018 0.021197563 -0.0058840467 0.01971485
-0.043965966 -0.029918976 0.022514543 0.009145703 -0.012407035 0.080390215 -0.015563817 0.016246354
0.085581206 0.010547761 0.03494027 -0.045657333 0.00979069 -0.009928817 -0.043736175 -0.028840343
-0.052456304 -0.03018105 -0.03636833 -0.015266217 0.019566115 0.02940134 -0.01748207 -0.03507328
0.052464493 -0.008941334 -0.051461942 0.03420863 -0.047177125 -0.003335242 0.006031597 -0.025874432
-0.013995001 -0.06244768 -0.04576811 -0.022587532 -0.014520302 -0.024590936 -0.015861355 0.004247577
-0.005980535 0.02771036 -0.018615039 0.021982221 -0.0069267238 0.017272187 -0.004478012 -0.0016539398
0.0078024096 0.016426923 -0.01860592 0.02939643 0.0130468365 0.00049949175 0.035213012 -0.027874582
-0.010968861 -0.017025584 -0.031741235 -0.05584329 -0.03728197 -0.055864774 0.013037625 -0.02813682
0.036175985 -0.011102917 0.050676633 0.033392806 -0.00825395 0.013089488 0.021768343 -0.008234203
0.045037992 0.022111315 -0.030031908 -0.050513238 0.051708512 0.035778273 0.030207373 0.03915054
-0.007319346 0.011442337 -0.044821475 0.065150335 -0.025428073 0.041369643 -0.028414026 -0.0020529118
0.008442355 -0.039853744 -0.008798277 -0.007868815 0.06887928 -0.0040263045 -0.011127367 -0.012807771
0.0038944378 0.008217726 0.0022561895 0.023642788 0.0052516023 -0.008252214 -0.05815099 0.022708682
-0.004395237 -0.069612235 -0.020366568 0.013617919 0.012751489 0.009471138 0.02577836 0.016455721
0.013419159 -0.044326734 0.065883376 -0.058928184 -0.053331614 0.009374488 -0.010077615 -0.011065957
0.007832071 -0.009788767 -0.069057785 0.010579054 -0.01674973 -0.061065614 5.236364e-05 -0.0036141016
0.010164827 -0.0034014352 0.035290368 0.0021105565 0.025631635 0.042916942 -0.008478291 -0.00080991304
0.0048325784 0.024798734 0.010901141 -0.033051282 0.03386331 -0.034520943 -0.0004742779 0.04326132
-0.05884493 0.0211208 0.028982975 -0.0027436598 0.046950426 0.086118564 -0.012298488 -0.04268626
-0.004701794 0.038560856 0.012811541 0.0053642704 -0.0059139603 0.04469121 0.0087042805 -0.032101363
-0.016345575 -0.016970022 -0.015840873 0.024783136 0.056721285 -0.033421192 0.033220287 0.039088104
-0.05695577 0.028406791 0.001325099 -0.058789305 -0.04392233 -0.04156049 0.008896438 0.018673794
-0.09192672 -0.019370418 -0.04590324 -0.08476511 0.018767906 -0.05184027 0.058452036 0.0015186352
-0.028977456 0.052247427 -0.055049397 0.01983505 -0.0004500177 -0.088427916 0.015055297 0.07725552
0.0123741375 0.0033662366 0.008162297 0.03464407 -0.017785726 -0.0051344745 -0.003338606 -0.019065568
-0.019919856 -0.034641854 0.052817218 0.02595904 0.011430904 0.01843768 -0.05339504 0.0006866264
0.009607828 0.036338013 -0.00834616 -0.02484844 -0.0331408 0.01856396 -0.03904013 -0.02634554
0.03800172 -0.06294396 0.02224506 0.010382782 -0.0007362606 -0.025878033 -0.015057318 0.01027249
-0.0142002 -0.011435801 -0.008634466 -0.0066091823 -0.040264152 0.01120892 0.008795265 0.035594657
00000000: 9864 b63c 0edc 293d 5ede 0ab9 97e9 aebc
00000010: 398e a5bc ff31 9fbc ed25 fb3a 5e08 05bc
00000020: 4307 b73b 1f33 183c 05a9 393c 77e1 c63c
00000030: 5ea2 14bd 02ed 833c c5fc 0fbc 9f76 19bd
00000040: 33ed 30bc 2022 dc3b 5550 533d ea07 c9bc
00000050: 7875 2bbc 83a6 ad3c f6ce c0bb 0981 a13c
00000060: a815 34bd a418 f5bc 6b70 b83c dcd7 153c
00000070: e046 4bbc a0a3 a43d 61ff 7ebc 1317 853c
00000080: 3345 af3d 84d0 2c3c 871d 0f3d 2f03 3bbd
00000090: 2169 203c 7aac 22bc b424 33bd 9542 ecbc
000000a0: 6cdc 56bd 403e f7bc f5f6 14bd 281f 7abc
000000b0: 1e49 a03c 14db f03c 8f36 8fbc 00a9 0fbd
000000c0: 02e5 563d ac7e 12bc c2c9 52bd 591e 0c3d
000000d0: cd3c 41bd 1394 5abb b4a4 c53b 9ef6 d3bc
000000e0: 4a4b 65bc 23c9 7fbd 5777 3bbd 7d09 b9bc
000000f0: 90e6 6dbc ee72 c9bc acef 81bc 422f 8b3b
00000100: 5df8 c3bb d600 e33c 917e 98bc 0f14 b43c
00000110: 92f9 e2bb 677e 8d3c 4abc 92bb 03c9 d8ba
00000120: 5bab ff3b c191 863c 716b 98bc c8d0 f03c
00000130: 66c2 553c 53f0 023a 853b 103d 3c59 e4bc
00000140: bdb6 33bc 3d79 8bbc 1903 02bd efbb 64bd
00000150: fbb4 18bd 76d2 64bd c39b 553c 307f e6bc
00000160: 452d 143d 02e9 35bc 4d92 4f3d e5c6 083d
00000170: 933b 07bc 4b75 563c 8653 b23c c0e8 06bc
00000180: c279 383d ca22 b53c 7a05 f6bc f8e6 4ebd
00000190: 4ecc 533d 3d8c 123d 7475 f73c 515c 203d
000001a0: 20d7 efbb a478 3b3c b996 37bd 8a6d 853d
000001b0: 894e d0bc 3773 293d 88c4 e8bc 258a 06bb
000001c0: ce51 0a3c ae3d 23bd a626 10bc 34ec 00bc
000001d0: 9410 8d3d 17ef 83bb 8f4f 36bc afd7 51bc
000001e0: d339 7f3b a4a3 063c 94dc 133b 85ae c13c
000001f0: a215 ac3b 4b34 07bc bc2f 6ebd 8f07 ba3c
00000200: ec05 90bb dc90 8ebd cad7 a6bc b11d 5f3c
00000210: 9feb 503c d52c 1b3c 242d d33c 26ce 863c
00000220: 08dc 5b3c f38f 35bd dded 863d ae5e 71bd
00000230: 4072 5abd 7497 193c 951c 25bc fd4d 35bc
00000240: 1652 003c 1161 20bc 2b6e 8dbd c553 2d3c
00000250: bb36 89bc f01f 7abd 08a1 5b38 90da 6cbb
00000260: 608a 263c 9dea 5ebb a28c 103d 4351 0a3b
00000270: 6ff9 d13c adc9 2f3d 88e8 0abc 5850 54ba
00000280: 9b5a 9e3b b726 cb3c b39a 323c c860 07bd
00000290: 41b4 0a3d d565 0dbd 81a8 f8b9 c832 313d
000002a0: 6207 71bd 8705 ad3c b46d ed3c f9ce 33bb
000002b0: 174f 403d ee5e b03d 997f 49bc cad7 2ebd
000002c0: 8211 9abb fdf1 1d3d 7fe7 513c c3c6 af3b
000002d0: e5c9 c1bb 210e 373d 669c 0e3c b87c 03bd
000002e0: 28e7 85bc b704 8bbc b8c4 81bc 0106 cb3c
000002f0: 9454 683d a9e4 08bd ff11 083d d91a 203d
00000300: 744a 69bd 5cb5 e83c f2ae ad3a 0ecd 70bd
00000310: e7e7 33bd 553b 2abd 5ec2 113c c9f9 983c
00000320: 1444 bcbd b6ae 9ebc 0905 3cbd 5499 adbd
00000330: 27bf 993c 7756 54bd 676b 6f3d f10c c73a
00000340: 2162 edbc 6601 563d 7a7b 61bd 1d7d a23c
00000350: 5af0 ebb9 b219 b5bd 7eaa 763c 2438 9e3d
00000360: e5bc 4a3c 149c 5c3b 28bb 053c f1e6 0d3d
00000370: 5fb3 91bc 183f a8bb 84cc 5abb 652f 9cbc
00000380: f72e a3bc 9ee4 0dbd de56 583d 0da8 d43c
00000390: b048 3b3c 9e0a 973c c2b4 5abd b8fe 333a
000003a0: 276a 1d3c 2bd7 143d 55be 08bc f58e cbbc
000003b0: a6be 07bd 7213 983c 8be8 1fbd 9ad2 d7bc
000003c0: b1a7 1b3d c3e8 80bd 463b b63c 8b1c 2a3c
000003d0: 9d01 41ba 2bfe d3bc f8b2 76bc f24d 283c
000003e0: f5a7 68bc 3a5d 3bbc 9377 0dbc d791 d8bb
000003f0: 06ec 24bd 9ea5 373c 041a 103c b4cb 113d

conv3.bias f4 [128]
-0.014645831 -0.022239044 -0.01893093 0.05897764 -0.020484375 0.0060763415 -0.01754139 0.05007179
-0.020187212 0.014651492 -0.018287368 -0.011351768 0.040919464 -0.014825685 0.017112296 0.030030528
0.06083997 0.03859229 0.024481952 0.009316681 0.037891127 0.026578613 0.05457823 0.035032652
-0.019004153 0.010240538 0.04700705 0.0031344253 0.020514255 -0.036838237 -0.047220908 0.014074237
-0.027951915 0.036471676 0.010657105 -0.035162974 0.052347235 -0.039512593 0.0065976013 0.003573959
0.04346386 -0.012135205 0.01775487 -0.02360802 0.020781182 0.07467085 0.005251389 0.008567077
0.019651446 0.0063423603 -0.019368308 0.0062184357 -0.034070496 0.06520326 0.001705635 0.02582906
-0.0003244891 0.06183985 -0.01345999 0.029755075 0.0439452 0.031426854 0.0032406386 -0.004447075
-0.022299102 0.0455685 0.044626016 0.03118359 0.024832359 0.012200184 0.001331127 0.02944665
-0.0123196095 0.008148469 0.03153038 0.05955897 0.039609127 0.052311823 0.022876093 0.029863229
-0.03936163 0.034336016 -0.00059347297 -0.025980398 0.01832617 -8.54053e-06 0.04741378 -0.0032059944
0.01470543 0.029817255 -0.026759384 0.07849731 -0.0097414 0.023813244 -0.008957641 -0.0024679794
0.008930102 0.028926253 -0.018391354 0.04093602 0.037232473 0.04463715 -0.01377909 -0.0068432717
0.04383513 0.053834684 0.015460774 0.048713468 -0.032996126 0.0120698465 0.018901408 0.005102521
-0.015562867 0.00027727173 0.049280807 0.04731026 0.02051259 -0.0076032546 -0.013286225 0.03487183
-0.021329025 0.0087940125 -0.008763222 0.009401348 -0.014976729 -0.016166486 -0.017067146 0.0671479
00000000: 11f5 6fbc a82e b6bc 0a15 9bbc 8a92 713d
00000010: d9ce a7bc 0c1c c73b f6b2 8fbc 1418 4d3d
00000020: a75f a5bc d00c 703c 64cf 95bc c4fc 39bc
00000030: 2b9b 273d 6ee7 72bc 162f 8c3c 9502 f63c
00000040: 5533 793d f312 1e3d 608e c83c fea4 183c
00000050: ba33 1b3d 64bb d93c 6c8d 5f3d 667e 0f3d
00000060: 99ae 9bbc eec7 273c 778a 403d ee6a 4d3b
00000070: 830d a83c b1e3 16bd b66a 41bd a197 663c
00000080: 6afb e4bc 5363 153d 239b 2e3c 0d07 10bd
00000090: 0e6a 563d f5d7 21bd b130 d83b 1539 6a3b
000000a0: 2907 323d bdd2 46bc a972 913c 9b65 c1bc
000000b0: 4c3d aa3c 08ed 983d d813 ac3b ed5c 0c3c
000000c0: 12fc a03c 93d3 cf3b 49aa 9ebc 05c4 cb3b
000000d0: 818d 0bbd 4989 853d 9d8f df3a 7797 d33c
000000e0: 3120 aab9 c84b 7d3d 4a87 5cbc eac0 f33c
000000f0: e2ff 333d 72b9 003d e560 543b c5b8 91bb
00000100: 9bac b6bc 09a6 3a3d c5c9 363d ba74 ff3c
00000110: 3b6d cb3c 48e3 473c 3679 ae3a 1a3a f13c
00000120: 30d8 49bc 2881 053c 0026 013d 1bf4 733d
00000130: 2e3d 223d ec44 563d a566 bb3c bba3 f43c
00000140: a939 21bd eca3 0c3d 4c93 1bba d8d4 d4bc
00000150: c420 963c 4c49 0fb7 f434 423d a91b 52bb
00000160: 0bef 703c 5143 f43c 7f36 dbbc 33c3 a03d
00000170: 659a 1fbc fe13 c33c 12c3 12bc d3bd 21bb
00000180: 904f 123c c0f6 ec3c 77a9 96bc 87ac 273d
00000190: 1481 183d 72d5 363d b1c1 61bc 863d e0bb
000001a0: 778c 333d c281 5c3d 304f 7d3c c687 473d
000001b0: f226 07bd 9bc0 453c 20d7 9a3c 0c33 a73b
000001c0: 65fb 7ebc c85e 9139 acda 493d 67c8 413d
000001d0: 050a a83c b924 f9bb 77ae 59bc c4d5 0e3d
000001e0: 35ba aebc c314 103c 9e93 0fbc 1d08 1a3c
000001f0: f460 75bc 946f 84bc 66d0 8bbc d784 893d

act_conv1.weight f4 [4, 128, 1, 1]
0.0057085445 -1.7777067e-14 0.0043640872 -0.11873937 0.010820017 -1.5974576e-05 0.049254917 0.015355265
0.06906511 -0.10355744 -0.00881886 0.017919384 -0.12933683 0.010522576 0.029527763 -0.047147967
0.006930602 -0.060838252 0.027871324 0.008623818 -0.020670665 0.02383574 -0.09299199 0.005908587
0.01608832 0.035294335 -0.013294305 -0.039047845 -0.0010009633 -0.04141557 -0.022699038 0.035856783
4.434217e-15 -0.001593821 -0.02610436 0.049920406 -0.06723508 -0.014602265 -0.0012550154 -6.158061e-05
-0.04085075 -0.008672868 -0.03792148 -0.054253682 -0.0075689494 -0.081079766 -0.008106245 -0.08002936
-0.0023288114 -0.03128342 0.029788993 0.026437769 -0.010230012 -0.036900368 -0.06265021 0.058295537
-3.599711e-15 -0.10667516 -0.06919722 -0.017232995 -0.07867232 0.028228367 0.032272443 2.8361493e-13
0.05984709 -0.048865814 0.040971387 -0.02430105 -0.05151535 -0.0049022986 0.038183566 0.0077665746
-0.035528395 0.07230565 0.049316064 -0.059574343 -0.006649661 -0.0050471104 -0.06293699 -0.023379102
0.006889995 0.033591837 -0.0026871637 3.5351076e-14 -0.028342957 -8.0348177e-14 -0.10545097 0.07263904
0.042678416 -0.005393016 0.010825668 -0.08202405 0.01669747 0.05582765 -0.02882154 0.048396274
-0.041185457 0.049069475 -0.034607854 0.05487322 -0.008094785 0.022928065 -0.0069770045 -0.07857518
-0.008567107 0.0017175811 -0.0053345626 -0.089041196 0.023670156 0.061728846 -0.029867226 -0.0016105515
-5.511447e-14 0.0023977705 -0.028409934 -0.024566155 -0.041851733 0.040224146 0.02616363 -0.012620651
0.0722563 -0.029083965 -0.02043275 -0.09456469 3.2888454e-13 0.040413603 -1.610041e-14 -0.012123473
-0.003141849 0.026933037 -0.05745792 0.044352204 0.11114835 -0.10125652 -0.061166465 0.10375755
0.06711903 -0.09828161 0.009115608 -0.14532326 0.026982881 0.02524039 0.12660363 0.12645431
-0.18207732 -0.04338489 0.009540173 0.013745755 0.05020712 -0.06386459 0.0384217 -0.030753352
0.0510941 0.0067883036 0.000149566 0.14021109 0.07969568 -0.1293597 -0.006412395 -0.07615925
-0.045236997 0.07684811 0.029852651 0.0064835474 0.15102237 0.12970923 0.012904329 -0.024135219
0.034999885 -0.0011518005 -0.030425707 0.09208655 -0.09723683 0.050979037 -0.04182722 0.0040630046
-0.13901025 -0.034884155 -0.00046993472 0.0036209347 -0.16157489 0.13473172 0.027700147 -0.0497246
1.8970361e-12 0.095511265 0.006347682 0.08081523 0.1082393 0.011860121 -0.027608652 -5.615183e-15
0.0055516018 0.10566047 0.097778946 0.08027564 0.07785944 -0.025520854 -0.04696343 0.11479344
0.13578856 0.091282204 0.08960118 -0.124539815 -0.0026945658 0.018283375 0.11527821 0.15932997
-0.061298825 0.004785301 -0.028648222 -0.009011084 0.09021198 -2.9291332e-13 0.1092101 -0.07444751
0.092712335 0.003798376 0.0049946257 0.0716055 -0.049569856 -0.07798886 0.07644596 0.08831884
0.10334663 0.015237047 -0.05169366 0.02871565 0.12467221 0.06748967 -0.1226101 0.1539241
0.09827766 -0.021398459 -0.018828366 0.18786813 -0.09820839 -0.004695325 0.10668608 -0.028454594
-8.0811245e-05 0.06280672 0.19953841 -0.15365568 0.03504487 -0.08501192 3.6976182e-06 0.09092391
-0.041911215 0.04867259 0.12626126 0.045915253 4.6181995e-05 0.022286965 6.918996e-05 0.07388296
00000000: be0e bb3b 201f a0a8 9e00 8f3b a02d f3bd
00000010: 7146 313c 2401 86b7 86bf 493d a694 7b3c
00000020: 0272 8d3d ec15 d4bd fb7c 10bc accb 923c
00000030: e070 04be e266 2c3c 35e4 f13c 3a1e 41bd
00000040: 1a1a e33b 8831 79bd 6752 e43c ea4a 0d3c
00000050: 8755 a9bc 2b43 c33c 9672 bebd d29c c13b
00000060: a7cb 833c cb90 103d 5bd0 59bc a2f0 1fbd
00000070: c132 83ba 5fa3 29bd 55f3 b9bc 90de 123d
00000080: 6fc2 9f27 c2e7 d0ba d0d8 d5bc 5779 4c3d
00000090: 8cb2 89bd 573e 6fbc 547f a4ba d724 81b8
000000a0: 1e53 27bd a518 0ebc 8e53 1bbd 1c39 5ebd
000000b0: f304 f8bb 260d a6bd 0ed0 04bc 6fe6 a3bd
000000c0: f99e 18bb 0b23 00bd 0c08 f43c 0594 d83c
000000d0: c89b 27bc d724 17bd c14e 80bd 4dc7 6e3d
000000e0: 79b1 81a7 8278 dabd 46b7 8dbd 362c 8dbc
000000f0: f41e a1bd 2d3f e73c 1c30 043d 38a9 9f2a
00000100: 3922 753d 8527 48bd 9dd1 273d ff12 c7bc
00000110: c201 53bd 76a3 a0bb 5f66 1c3d c07e fe3b
00000120: 3986 11bd fc14 943d a4ff 493d 3a04 74bd
00000130: 66e5 d9bb 3b62 a5bb 1ce5 80bd 8885 bfbc
00000140: 78c5 e13b 9897 093d 201b 30bb 0435 1f29
00000150: 7d2f e8bc 92ed b4a9 aef6 d7bd c7c3 943d
00000160: 90cf 2e3d e6b7 b0bb 255e 313c 3afc a7bd
00000170: 22c9 883c 89ab 643d 261b ecbc 2c3b 463d
00000180: 15b2 28bd 13fd 483d f7c0 0dbd bec2 603d
00000190: fd9f 04bc a3d3 bb3c 5b9f e4bb 06ec a0bd
000001a0: 0d5d 0cbc 7520 e13a 8ecd aebb 3b5b b6bd
000001b0: eae7 c13c 63d7 7c3d 1dac f4bc 2419 d3ba
000001c0: a836 78a9 ea23 1d3b f3bb e8bc f63e c9bc
000001d0: b96c 2bbd 13c2 243d 1c55 d63c d9c6 4ebc
000001e0: 1cfb 933d 7f41 eebc 9562 a7bc 22ab c1bd
000001f0: 4225 b92a bc88 253d 0505 91a8 88a1 46bc
00000200: 7be7 4dbb aca2 dc3c ff58 6bbd a8aa 353d
00000210: bfa1 e33d 945f cfbd b089 7abd d77e d43d
00000220: b475 893d de47 c9bd a259 153c 9fcf 14be
00000230: 340b dd3c efc4 ce3c 62a4 013e 3d7d 013e
00000240: 7a72 3abe 5bb4 31bd 634e 1c3c e035 613c
00000250: fba5 4d3d 70cb 82bd 1360 1d3d 74ee fbbc
00000260: 0c48 513d 6b70 de3b d1d4 1c39 7f93 0f3e
00000270: 7d37 a33d df76 04be 111f d2bb 62f9 9bbd
00000280: 6e4a 39bd 8b62 9d3d 8c8d f43c f073 d43b
00000290: 9ca5 1a3e 7fd2 043e ae6c 533c 39b7 c5bc
000002a0: 0a5c 0f3d 03f8 96ba 553f f9bc e097 bc3d
000002b0: 1a24 c7bd 65cf 503d 0553 2bbd f422 853b
000002c0: b458 0ebe b0e2 0ebd 9261 f6b9 344d 6d3b
000002d0: e373 25be 1df7 093e 6beb e23c 06ac 4bbd
000002e0: f77d 052c 699b c33d 3700 d03b 7582 a53d
000002f0: 91ac dd3d f450 423c 8a2b e2bc ec4e caa7
00000300: 36ea b53b 8464 d83d 5440 c83d 8e67 a43d
00000310: c574 9f3d 1c11 d1bc ba5c 40bd d318 eb3d
00000320: 280c 0b3e 2af2 ba3d d380 b73d bb0e ffbd
00000330: 5097 30bb 04c7 953c fb16 ec3d 6527 233e
00000340: 7a14 7bbd 04ce 9c3b adaf eabc 3aa3 13bc
00000350: 0fc1 b83d 42e5 a4aa 8ba9 df3d f077 98bd
00000360: f7df bd3d 2dee 783b f5a9 a33b e8a5 923d
00000370: c309 4bbd a0b8 9fbd b38f 9c3d 82e0 b43d
00000380: 66a7 d33d cfa4 793c bbbc 53bd 153d eb3c
00000390: 2554 ff3d 0638 8a3d 011b fbbd 479e 1d3e
000003a0: cc45 c93d d24b afbc f23d 9abc 8160 403e
000003b0: 7b21 c9bd 3edb 99bb 3b7e da3d 9c19 e9bc
000003c0: 3579 a9b8 cfa0 803d cc53 4c3e ea57 1dbe
000003d0: 368b 0f3d bb1a aebd 9924 7836 5136 ba3d
000003e0: 18ab 2bbd e95c 473d a24a 013e a211 3c3d
000003f0: 8ab3 4138 2793 b63c 141a 9138 f34f 973d

act_conv1.bias f4 [4]
-0.018833956 0.06468836 0.07637941 -0.072663106
00000000: ab49 9abc 557b 843d cf6c 9c3d 65d0 94bd

act_fc1.weight f4 [36, 144]
-0.031616505 -0.04864561 -0.07064604 -0.022291971 -0.034887698 -0.06630601 -0.030649774 -0.059295494
-0.0601419 -0.099642016 -0.03369545 -0.10281102 -0.112389915 -0.081023544 -0.09012119 -0.04581381
-0.043713294 -0.014001655 -0.03320421 -0.03859476 -0.022435902 -0.032114077 0.008496162 -0.021297224
0.0027422458 -0.022477321 -0.07574098 -0.02303536 0.020514878 0.009720833 -0.015935512 -0.03478044
-0.008077218 -0.016940353 -0.02643073 -0.04506223 0.020311598 0.082859114 0.0005529013 0.05487753
0.10317985 0.054915007 -0.044448316 -0.024069464 -0.059617817 0.10507785 0.020707335 0.006181577
-0.003192371 0.01974826 -0.03198521 -0.033318203 -0.08889117 0.016120782 -0.0008694547 -0.13962176
-0.00969435 0.05235 0.019882187 0.021236097 -0.03560014 0.07687184 -0.0039742636 -0.05049864
-0.038376052 -0.050446697 -0.008503652 -0.060004484 0.044738043 -0.016961602 -0.1264735 0.027378697
-0.10281216 -0.06332706 -0.09865186 -0.07868398 0.034268055 -0.046791147 -0.10913689 -0.16992727
-0.12254317 -0.04259127 -0.051252455 -0.03401841 -0.16353823 -0.10166468 -0.0075333174 -0.0907059
-0.08328231 -0.14053205 0.034011967 -0.13525362 -0.10177523 -0.05059745 -0.053497788 -0.12980455
-0.09393272 -0.021033896 -0.0335102 -0.17250332 -0.057170637 -0.0033589238 -0.03693939 -0.0099640535
-0.067086175 -0.07078087 -0.07602331 -0.03670735 -0.03463267 -0.04474596 -0.025783904 -0.08345128
-0.099000275 0.017247526 0.030916436 -0.008646455 0.016365374 -0.06356293 -0.042215075 0.02383628
-0.021194294 -0.035894275 -0.005916657 0.047880284 -0.022267245 -0.0670945 -0.0027241278 0.045132224
-0.0018643679 -0.015230696 0.016036343 0.052478872 0.023715632 0.019486792 0.030477837 -0.029488944
-0.064666286 -5.2876945e-05 0.06669562 0.019045833 -0.025646225 0.031110749 0.0006718138 -0.01629324
-0.029209204 -0.017346267 0.021443272 -0.035177562 -0.027971234 -0.026066232 -0.02326582 -0.024798209
-0.013804732 -0.015716402 -0.02275713 -0.030092627 -0.012712011 -0.009113785 -0.071738414 -0.023997264
0.014999822 0.0018375814 -0.04517719 -0.018321257 0.02054857 -0.00507152 -0.05940909 -0.05908031
0.015504342 -0.04072171 0.014839671 0.014503427 -0.0076590856 -0.05012611 -0.01048471 0.018018644
0.020569632 -0.023598475 0.0024169174 -0.03545263 -0.46843836 -0.04307171 -0.19451196 0.16558747
0.11801968 0.2470528 -0.09718577 0.16903815 -0.18556492 -0.11290595 -0.14001687 0.05072197
-0.101186134 -0.04523358 -0.074029215 -0.12280432 -0.04145422 -0.08718385 -0.055030264 0.029176084
-0.04792209 -0.11354721 -0.0677404 -0.054951865 -0.04595379 -0.18856077 -0.048105147 -0.016810143
-0.017702078 -0.117691964 -0.0027310457 -0.024460763 -0.17893666 -0.021245016 -0.10421689 -0.031654365
0.17670281 0.23025607 0.08482141 0.091182865 0.12358057 0.19501959 -0.041508798 -0.012572017
0.06594013 0.12583776 0.06705769 0.032121252 0.056601644 0.04318073 -0.010497194 0.026961999
0.006362974 -0.02483286 0.04897924 0.06745481 -0.02731861 -0.031873405 0.031220866 -0.033842478
0.08129127 0.050456453 0.016123002 0.06578103 0.015237589 -0.024178453 0.055113025 -0.014612386
-0.05070533 -0.012407431 0.07001412 -0.05795237 0.005697277 -0.045095883 -0.024377855 -0.057171013
00000000: 4f80 01bd 9f40 47bd dfae 90bd a79d b6bc
00000010: 67e6 0ebd 72cb 87bd 3c15 fbbc d5df 72bd
00000020: 5a57 76bd 1d11 ccbd 3d04 0abd 968e d2bd
00000030: af2c e6bd acef a5bd 7591 b8bd 43a7 3bbd
00000040: b60c 33bd 3367 65bc 2301 08bd 8a15 1ebd
00000050: 7fcb b7bc 0d8a 03bd 7c33 0b3c 8477 aebc
00000060: 40b7 333b 5c22 b8bc 161e 9bbd a7b4 bcbc
00000070: d10e a83c 2144 1f3c 318b 82bc ef75 0ebd
00000080: 4f56 04bc 7fc6 8abc 4285 d8bc 2c93 38bd
00000090: 8264 a63c 0ab2 a93d 94f0 103a 43c7 603d
000000a0: f54f d33d 8fee 603d 700f 36bd 532d c5bc
000000b0: d031 74bd 0e33 d73d 6ea2 a93c d48e ca3b
000000c0: 1937 51bb 1ac7 a13c ec02 03bd ab78 08bd
000000d0: 930c b6bd bb0f 843c 1eec 63ba 02f9 0ebe
000000e0: 0dd5 1ebc f46c 563d f8df a23c 53f7 ad3c
000000f0: 74d1 11bd fc6e 9d3d 8a3a 82bb a9d7 4ebd
00000100: 3530 1dbd 32a1 4ebd e752 0bbc 43c7 75bd
00000110: 3d3f 373d 0ff3 8abc 4582 01be 4a49 e03c
00000120: 2f8f d2bd 9eb1 81bd fd09 cabd 1125 a1bd
00000130: a95c 0c3d 13a8 3fbd 2983 dfbd 6a01 2ebe
00000140: eaf7 fabd 2f74 2ebd 18ee 51bd e356 0bbd
00000150: 9176 27be 9235 d0bd 0cda f6bb 04c4 b9bd
00000160: ea8f aabd a2e7 0fbe 2250 0b3d ed7f 0abe
00000170: 886f d0bd 463f 4fbd 7f20 5bbd 7ceb 04be
00000180: cc5f c0bd 474f acbc fe41 09bd b6a4 30be
00000190: c22b 6abd 6421 5cbb c24d 17bd 4540 23bc
000001a0: 7a64 89bd 90f5 90bd 1cb2 9bbd 725a 16bd
000001b0: fdda 0dbd 8a47 37bd c438 d3bc 81e8 aabd
000001c0: a8c0 cabd af4a 8d3c 7744 fd3c dca9 0dbc
000001d0: ad10 863c 482d 82bd b7e9 2cbd 4d44 c33c
000001e0: a89f adbc e005 13bd 84e0 c1bb 1e1e 443d
000001f0: cc69 b6bc d768 89bd 4887 32bb 91dc 383d
00000200: ce5d f4ba 2b8a 79bc a65e 833c 16f4 563d
00000210: 4947 c23c c4a2 9f3c a8ac f93c cc92 f1bc
00000220: c26f 84bd 30c8 5db8 b797 883d 0206 9c3c
00000230: 0818 d2bc f8db fe3c a91c 303a 6779 85bc
00000240: 2448 efbc c219 8ebc cda9 af3c 5916 10bd
00000250: ee23 e5bc da88 d5bc f697 bebc 9d25 cbbc
00000260: 3e2d 62bc afbf 80bc 296d babc d084 f6bc
00000270: 0a46 50bc fc51 15bc 97eb 92bd e995 c4bc
00000280: d0c1 753c 00db f03a b80b 39bd 7616 96bc
00000290: 7a55 a83c fe2e a6bb f256 73bd 32fe 71bd
000002a0: ec05 7e3c cfcb 26bd 1722 733c c89f 6d3c
000002b0: 11f9 fabb 0951 4dbd 10c8 2bbc d69b 933c
000002c0: a581 a83c 9751 c1bc 2565 1e3b c736 11bd
000002d0: 27d7 efbe f66b 30bd 252e 47be c38f 293e
000002e0: 4db4 f13d 69fb 7c3e 5509 c7bd 5618 2d3e
000002f0: bb04 3ebe 3c3b e7bd 9560 0fbe d7c1 4f3d
00000300: ad3a cfbd d946 39bd a19c 97bd d580 fbbd
00000310: e6cb 29bd 728d b2bd 6a67 61bd af02 ef3c
00000320: f449 44bd 718b e8bd 7bbb 8abd 3515 61bd
00000330: 0b3a 3cbd 1316 41be e709 45bd 6db5 89bc
00000340: f303 91bc 7c08 f1bd 58fb 32bb f061 c8bc
00000350: 2c3b 37be 070a aebc aa6f d5bd 02a8 01bd
00000360: 95f1 343e 3fc8 6b3e d9b6 ad3d 15be ba3d
00000370: cf17 fd3d 37b3 473e 2105 2abd dcfa 4dbc
00000380: 9e0b 873d 9ddb 003e 8b55 893d 9391 033d
00000390: 20d7 673d 47de 303d 6cfc 2bbc 69df dc3c
000003a0: 7f80 d03b 486e cbbc 759e 483d bf25 8a3d
000003b0: 47cb dfbc b08d 02bd e7c2 ff3c 699e 0abd
000003c0: 0a7c a63d 6dab 4e3d 6314 843c 34b8 863d
000003d0: 15a7 793c e411 c6bc 32be 613d ca68 6fbc
000003e0: 64b0 4fbd 8a48 4bbc 9063 8f3d 775f 6dbd
000003f0: 39b0 ba3b 76b6 38bd 11b4 c7bc 272c 6abd

act_fc1.bias f4 [36]
-0.029920364 0.020581802 -0.035219446 -0.050477315 -0.015274105 -0.078481615 -0.10908807 -0.016196897
0.040519122 -0.018497191 -0.0083703725 0.037853044 0.088725924 0.034389094 0.0010911964 -0.008631516
0.024584178 0.04398977 0.03127024 0.023721434 -0.035613183 0.03635513 0.006225546 0.081890315
-0.02683006 -0.030494483 0.12948804 -0.057407185 0.046035144 -0.015292734 -0.10871722 0.016141787
0.018172596 -0.016172621 -0.015753653 0.04336501
00000000: 8d1b f5bc 2b9b a83c 4442 10bd 4dc1 4ebd
00000010: 3d40 7abc f8ba a0bd 9169 dfbd 5baf 84bc
00000020: 61f7 253d 6c87 97bc e323 09bc cb0b 1b3d
00000030: f0b5 b53d 94db 0c3d 7a06 8f3a 346b 0dbc
00000040: c264 c93c 9e2e 343d 3915 003d 7453 c23c
00000050: 21df 11bd 1ee9 143d aaff cb3b 1cb6 a73d
00000060: b7ca dbbc 91cf f9bc 8398 043e cc23 6bbd
00000070: 598f 3c3d 608e 7abc 22a7 debd c83b 843c
00000080: b2de 943c 727c 84bc ce0d 81bc 829f 313d

val_conv1.weight f4 [2, 128, 1, 1]
-0.08837146 -0.00608363 0.05599414 -0.08920913 0.056786243 -0.118297994 0.065551326 0.0143313
0.058576494 0.0013630942 0.037465546 -0.03848172 0.002417123 0.085781045 0.10212622 -0.09477699
0.0600751 -0.073565 0.049870867 0.044658594 -0.07847321 0.022078471 0.006380899 0.06603978
0.04064151 0.026677622 -0.09716099 -0.0020859654 -0.0826525 0.06802034 0.033131298 0.04711568
-0.007081756 0.026825842 -0.044775724 -0.1135749 0.05274736 0.11059208 0.06809024 0.07370633
-0.09844059 -0.015008277 0.013387444 0.024971902 -0.12805493 0.0022533757 -0.041083775 0.017808093
-0.13728732 -0.02696875 -0.029076237 0.015887247 0.00637509 0.05808992 0.0364337 0.08317041
-2.59278e-14 0.013362007 0.062252376 0.05999759 -0.013992517 0.06450645 0.07469091 -0.0006326989
-0.015307588 -0.004696948 0.055499036 0.009382555 -0.113750726 0.0012617394 0.014046621 0.062499505
0.056950927 0.08509289 0.03835731 -0.061906345 -0.066636 -0.14994736 -0.030033296 0.10149989
-0.06544477 -0.03402736 -0.17639759 -0.001864536 -0.06293186 3.740341e-14 -0.10714738 0.110842325
0.0982393 -0.12004583 0.0348977 -0.018962447 -0.0219067 0.07094836 -0.07498747 -0.0131041845
-0.0029976275 -0.14044158 0.026319787 -0.020180069 -0.08419538 -0.08588889 0.011387743 -0.03533547
-0.047958028 -0.031346537 0.054185916 -0.00059429876 0.062368482 -0.03316864 0.055075776 0.04495107
9.746248e-13 0.043424096 0.06247355 -0.14501196 0.07867407 0.0075813457 0.008249462 -0.070886075
0.032645956 -0.13610676 0.02486594 0.029907884 0.00020955582 0.02697463 -6.131826e-06 -0.014919408
0.009223453 0.020901866 -0.051238656 -0.06899272 -0.083991975 0.05332426 0.04172028 0.07904265
0.037699837 -0.011462195 -0.0032934833 0.04203148 -0.03291022 -0.0057649408 -0.123658665 -0.09495866
-0.10389533 0.031529058 0.022915866 -0.04456541 0.037851688 0.022790885 0.020552501 0.06568955
-0.0024877836 -0.07276962 -0.016829746 -0.049822398 -0.043399036 -0.030602403 0.018733824 0.021828221
0.0009672643 0.05783572 0.030658003 -0.013079162 0.03372453 0.08438156 -0.10301448 -0.072934665
0.038156874 0.03896727 0.035808336 0.06746994 0.04707852 0.007871655 0.07348156 0.026155815
0.015854567 -0.01576852 -0.05879569 -0.09103572 0.033140544 -0.0006203698 0.040634774 -0.0020492752
1.3447022e-11 -0.03551644 0.003848763 0.055441897 0.040596575 0.007426505 0.0045532146 7.93437e-06
0.019739622 0.047110144 -0.12645394 -0.0931593 0.040125504 -0.04111691 -0.015872909 -0.065636985
-0.004247973 -0.16085817 0.012469718 -0.0130145075 0.044934914 -0.009177714 0.059287507 -0.099799864
-0.011126874 -0.08836336 -0.02337718 -0.0039371634 0.041131373 1.882284e-12 0.029026521 -0.07115071
-0.073213205 0.07240402 -0.060352914 -0.03390901 0.0033693789 -0.0036346265 0.061716177 0.046336934
-0.07130199 -0.0076686116 0.033878636 -0.09889302 -0.08445784 0.07016744 0.058242574 0.09150032
0.011776778 -0.089573696 0.09529729 0.043616403 0.054030642 0.0046409597 -0.1430692 -0.054852962
-0.00032331294 -0.077944234 -0.029277755 -0.0677921 0.11094983 -0.041410293 -0.004642437 -0.052984618
-0.06676199 0.0015224635 0.045323104 0.0390343 -0.0016845693 -0.12508653 5.5939713e-06 0.0034130602
00000000: 19fc b4bd 3059 c7bb 1d5a 653d 47b3 b6bd
00000010: b198 683d 3846 f2bd c63f 863d d4cd 6a3c
00000020: e8ed 6f3d daa9 b23a 7975 193d 029f 1dbd
00000030: 9868 1e3b f9ad af3d 8d27 d13d 701a c2bd
00000040: 4f11 763d 3fa9 96bd 6545 4c3d eeeb 363d
00000050: 90b6 a0bd e9dd b43c dc16 d13b dd3f 873d
00000060: b677 263d 078b da3c 57fc c6bd b1b4 08bb
00000070: b745 a9bd 3f4e 8b3d afb4 073d 5ffc 403d
00000080: 130e e8bb dec1 db3c c066 37bd f599 e8bd
00000090: 9e0d 583d 1a7e e23d e572 8b3d 58f3 963d
000000a0: 389b c9bd 47e5 75bc 0357 5b3c e091 cc3c
000000b0: d520 03be 5fad 133b 7647 28bd 47e2 913c
000000c0: 0c95 0cbe 91ed dcbc 4a31 eebc f925 823c
000000d0: 22e6 d03b b2ef 6d3d 813b 153d 3f55 aa3d
000000e0: 7089 e9a8 52ec 5a3c 59fc 7e3d 08c0 753d
000000f0: df40 65bc f51b 843d 8cf7 983d b4db 25ba
00000100: adcc 7abc dbe8 99bb f552 633d 4ab9 193c
00000110: 24f6 e8bd f360 a53a cc23 663c 7bff 7f3d
00000120: 6045 693d 2e45 ae3d 8e1c 1d3d 8291 7dbd
00000130: 7578 88bd cd8b 19be 6308 f6bc 2ddf cf3d
00000140: e807 86bd 4660 0bbd 92a1 34be 7263 f4ba
00000150: 6be2 80bd 3273 2829 1670 dbbd 4d01 e33d
00000160: b031 c93d 97da f5bd e4f0 0e3d 2257 9bbc
00000170: ae75 b3bc 604d 913d 0893 99bd efb2 56bc
00000180: d873 44bb ebcf 0fbe 989c d73c ac50 a5bc
00000190: a16e acbd 84e6 afbd a893 3a3c edbb 10bd
000001a0: a36f 44bd 3a65 00bd 0df2 5d3d b7ca 1bba
000001b0: 1876 7f3d d7db 07bd 2397 613d 9d1e 383d
000001c0: 8f2a 892b 77dd 313d 44e4 7f3d 047e 14be
000001d0: df1f a13d f06c f83b c028 073c b82c 91bd
000001e0: c4b7 053d 925f 0bbe a8b3 cb3c 6101 f53c
000001f0: 36bc 5b39 e6f9 dc3c fcbf cdb6 8870 74bc
00000200: f71d 173c 643a ab3c a0df 51bd 0e4c 8dbd
00000210: fc03 acbd 8a6a 5a3d e2e2 2a3d 1de1 a13d
00000220: 256b 1a3d eecb 3bbc 7bd7 57bb 3429 2c3d
00000230: decc 06bd d4e7 bcbb c140 fdbd b079 c2bd
00000240: 13c7 d4bd 9d24 013d 0eba bb3c 388a 36bd
00000250: 5f0a 1b3d f3b3 ba3c b85d a83c 3e88 863d
00000260: 150a 23bb 3d08 95bd 89de 89bc 9212 4cbd
00000270: 30c3 31bd e4b1 fabc ad77 993c 19d1 b23c
00000280: 0290 7d3a 26e5 6c3d 7e26 fb3c fb49 56bc
00000290: bc22 0a3d 3dd0 ac3d 41f9 d2bd c55e 95bd
000002a0: 624a 1c3d 259c 1f3d c3ab 123d ae2d 8a3d
000002b0: 68d5 403d 1df8 003c 807d 963d b844 d63c
000002c0: 70e1 813c fc2c 81bc c0d3 70bd f070 babd
000002d0: 61be 073d 50a0 22ba a670 263d 224d 06bb
000002e0: 0190 6c2d b079 11bd 873b 7c3b 0b17 633d
000002f0: 9848 263d 0a5a f33b 2233 953b dc1d 0537
00000300: fdb4 a13c 91f6 403d 247d 01be 4eca bebd
00000310: a45a 243d 346a 28bd e707 82bc af6c 86bd
00000320: 9532 8bbb 01b8 24be ca4d 4c3c cd3a 55bc
00000330: ac0d 383d 1f5e 16bc 75d7 723d df63 ccbd
00000340: 7e4d 36bc d9f7 b4bd 8081 bfbc 5203 81bb
00000350: 5f79 283d 3774 042c 07c9 ed3c 77b7 91bd
00000360: cef0 95bd 8f48 943d 9e34 77bd 2de4 0abd
00000370: ccd0 5c3b ea32 6ebb 1aca 7c3d cccb 3d3d
00000380: c706 92bd fa48 fbbb 53c4 0a3d 6c88 cabd
00000390: 3bf8 acbd f2b3 8f3d c48f 6e3d 8564 bb3d
000003a0: 63f3 403c 6a72 b7bd 3a2b c33d 1da7 323d
000003b0: 3c4f 5d3d 3113 983b bb80 12be 80ad 60bd
000003c0: 5482 a9b9 3aa1 9fbd e7d7 efbc 96d6 8abd
000003d0: aa39 e33d d79d 29bd 961f 98bb 6606 59bd
000003e0: 83ba 88bd 668d c73a b8a4 393d 6ee2 1f3d
000003f0: c4cc dcba af16 00be d9b3 bb36 a6ad 5f3b

val_conv1.bias f4 [2]
0.035574887 0.08093654
00000000: f9b6 113d 0fc2 a53d
