models/Training/AC_nmcts20/train_070.pth (torch, 424031 bytes, 15 tensors)

conv1.weight f4 [32, 5, 3, 3]
000000 c0 79 29 3d d1 c8 4b be bc 13 31 bd e0 f9 1a 3e
       0.041375875 -0.19900824 -0.04323171 0.15134382
000010 be 53 76 be 5f 7a d7 bc 8e b1 e0 3d 6f 66 15 be
       -0.24055383 -0.026303468 0.10971366 -0.14589857
000020 ec 0e 33 3d 43 99 9f 3c 6c 2e 23 bc ee 45 1e 3e
       0.043715402 0.01948226 -0.009959798 0.15456364
000030 c2 b0 94 3d 7a b9 2a be bc 14 16 3e 45 97 13 bd
       0.072602764 -0.16672316 0.14656347 -0.036032934
000040 ed bd ba bc 0f b8 e7 3d f6 c1 30 2b 04 85 62 28
       -0.022795642 0.11314403 6.2796936e-13 1.2574363e-14
000050 78 c4 81 a9 7f f5 fa 2c 1e 57 ba ab 73 d8 4c 2f
       -5.762833e-14 7.132683e-12 -1.3240275e-12 1.863059e-10
000060 56 4a 84 ae ae 53 25 ab a7 0a 3f a9 bf 43 ed 3d
       -6.01587e-11 -5.8735905e-13 -4.241976e-14 0.11585187
000070 a6 ac 67 3c 9c 24 6e bd 49 d0 06 be 11 ed 21 be
       0.014140284 -0.058140382 -0.13165392 -0.1581309
000080 1b 46 f6 3b 5b ee 12 3d cd 48 14 be a0 a0 d4 3d
       0.0075156814 0.035871845 -0.14480896 0.10382199
000090 4e 35 22 2b 01 ee 10 ad 67 e1 87 2b ee 31 02 ab
       5.7627937e-13 -8.2383e-12 9.654889e-13 -4.625457e-13
0000a0 de 2e d4 30 29 68 43 2b e2 34 06 aa 67 d6 43 ac
       1.5438351e-09 6.942247e-13 -1.1919938e-13 -2.7830184e-12
0000b0 14 07 34 2f 95 6a d3 bc 94 8a 69 3e 14 f9 ce 3d
       1.6373419e-10 -0.025807658 0.2280677 0.10106102
0000c0 32 cf b0 3d 15 e7 db bc 7c a5 02 bd 1c 9f 70 3d
       0.08633269 -0.026843587 -0.0318961 0.05874549
0000d0 52 a0 f2 3d a6 28 f1 3d 21 2f 76 3d ed 5f 33 be
       0.11846985 0.11775331 0.06010354 -0.17517062
0000e0 92 d9 aa bc 3a d6 62 bd e3 67 08 3d b5 db 10 3d
       -0.020855699 -0.055380084 0.0333022 0.03536578
0000f0 4a 20 63 bd 62 2f 09 bd 8e 38 cc 3d a1 90 4b 2d
       -0.055450715 -0.033492453 0.099717245 1.1571328e-11
000100 14 40 c2 2c 30 46 5c a8 83 b7 d7 b4 e5 64 66 aa
       5.5209257e-12 -1.2227673e-14 -4.0180393e-07 -2.0463108e-13
000110 78 f6 a6 28 54 e6 bd b4 3f ce 91 ab 20 f0 20 2d
       1.8536591e-14 -3.537158e-07 -1.0360114e-12 9.1482655e-12
000120 a0 3c f6 bd 9f 32 3b 3e a9 f4 a5 bd 15 90 e0 bc
       -0.12023282 0.18281029 -0.08103306 -0.027412454
000130 78 fb 35 be 2d c4 bd bd 92 32 fa bd 22 36 05 3e
       -0.17771709 -0.09265933 -0.12216677 0.13008931
000140 21 92 4d bc 55 f4 3d ab 72 28 24 38 ae 84 95 2c
       -0.012547047 -6.748537e-13 3.9138315e-05 4.249565e-12
000150 a6 8a 0a ab d5 5e 8a ad ff 0d 92 b6 90 ec 3f 2e
       -4.921986e-13 -1.5730897e-11 -4.3527684e-06 4.363848e-11
000160 62 ce eb 33 89 3d fa 2a 97 e7 c5 bd 5a 9d 94 3d
       1.0980581e-07 4.445162e-13 -0.09663313 0.07256575
000170 34 ef d6 3d 46 a5 a0 3d a5 25 db 3c 58 3a 31 3e
       0.10494843 0.078440234 0.026751349 0.17307413
000180 61 6b 02 be 35 c5 3b be fa 5a 31 3c 45 d4 0c bd
       -0.12736274 -0.18336947 0.010824913 -0.034382124
000190 a7 86 9b bd e8 ad be bd 7e 9c a9 bc c5 58 ea bc
       -0.07594042 -0.09310514 -0.020704504 -0.028606782
0001a0 d6 19 cd 3d 1f 27 41 3e 98 97 12 3c 95 6f a4 3d
       0.100146934 0.1886258 0.008947276 0.08029095
0001b0 4e 57 1d b0 60 15 54 ae 51 5f 3e 2b aa bf c7 a9
       -5.7240335e-10 -4.8222204e-11 6.763384e-13 -8.870624e-14
0001c0 84 e3 6d b2 4d f5 02 b8 ef ab f3 2b 47 ee 08 2c
       -1.3846947e-08 -3.122287e-05 1.731391e-12 1.9459033e-12
0001d0 45 9a 31 2b 42 dd 8c 3d 08 79 96 bc ff 36 10 be
       6.3097124e-13 0.06878139 -0.01836826 -0.1408348
0001e0 0b 38 30 bd fd 43 14 bd 11 2c c8 3d da b8 8a 3d
       -0.043022197 -0.03619765 0.0977403 0.06773539
0001f0 23 d7 c1 bc 8b 18 2b 3d da fe 13 2f 5e 2e 3c 35
       -0.023662155 0.041771453 1.3460114e-10 7.010293e-07
000200 ee 0f 78 ac 6a 74 f3 b7 80 1e ae 24 ea ea a8 b7
       -3.5251762e-12 -2.9022067e-05 7.551214e-17 -2.0136551e-05
000210 51 c3 77 31 3f 4a 46 a9 be cb 30 ab b5 04 ec 3c
       3.6054255e-09 -4.402923e-14 -6.281051e-13 0.028810838
000220 30 fd f4 bd 8e 33 02 be 84 fe 34 3d 0c ff ae 3c
       -0.11962354 -0.12714979 0.044188038 0.02136185
000230 10 5a 32 bd fd cc 2b 3e 5f 9d 5b 3e f8 ad 1f 3e
       -0.04354292 0.16777416 0.21446751 0.15593708
000240 a7 25 69 3d 88 89 61 3c b6 64 d0 bd 7c ca 54 bd
       0.056920674 0.0137657 -0.10175459 -0.051950917
000250 34 a1 47 be e9 67 19 be 7e 5a 6d 3d 4f 21 2b 3d
       -0.19495088 -0.14981045 0.05794763 0.041779812
000260 74 db 18 be d5 5d 37 b0 e8 e6 bd a7 c8 6a 0f 2d
       -0.14927465 -6.6708356e-10 -5.2708387e-15 8.152319e-12
000270 54 98 b5 a8 a3 97 3d 2f 30 0c 55 ae 99 fd 9a 2b
       -2.0161099e-14 1.7243322e-10 -4.8441418e-11 1.1012746e-12
000280 27 17 86 ac 38 88 61 b2 18 69 a7 3c 6c ed ef 3d
       -3.8110795e-12 -1.3127696e-08 0.020435855 0.117152065
000290 f4 24 02 3d a1 d7 48 be 00 da ae 3d e6 75 1c bc
       0.031773522 -0.19613506 0.08537674 -0.009549594
0002a0 60 97 83 3d b9 e7 9d 3d 86 ec 0f bb dd fc ad 37
       0.06425357 0.07710213 -0.0021961047 2.0740956e-05
0002b0 17 fd eb ae 15 f1 48 2f 24 fc a7 a9 60 73 96 ae
       -1.07315205e-10 1.8275544e-10 -7.460029e-14 -6.841705e-11
0002c0 d7 37 0b ac f9 63 5c ab d7 bc 0e 37 7f 35 6d 2a
       -1.9784085e-12 -7.829844e-13 8.507827e-06 2.1068389e-13
0002d0 2d 40 f3 3d cf c7 78 bd be 06 ef 3d d6 70 1b 3d
       0.11877475 -0.060737427 0.11671208 0.037949406
0002e0 a6 bb 3f bc df 4d 26 3d 51 d8 f6 3c df c8 bd 3c
       -0.011702454 0.040601607 0.030132445 0.023167072
0002f0 a3 f0 1a be 20 71 0a 3e e3 78 27 be 42 2a dc 3d
       -0.15130858 0.13519716 -0.16354708 0.107502475
000300 cf 0e 96 3d 45 af 57 3d b5 06 09 3e 29 f8 da 3d
       0.07327043 0.052657384 0.13381465 0.10691864
000310 f6 20 2e 3d c4 39 18 be 70 01 9b ab b9 89 3d 2b
       0.042511903 -0.14865786 -1.1013811e-12 6.7337417e-13
000320 1a 13 8c 30 24 17 2a b8 88 fb 3f b0 b2 f0 07 29
       1.019177e-09 -4.055271e-05 -6.984284e-10 3.018479e-14
000330 50 b0 45 32 f4 7a 89 2e b9 3d 04 29 22 6a 06 3e
       1.1506998e-08 6.2518796e-11 2.9363424e-14 0.13126424
000340 e2 4b 4f bd d3 a9 0d 3e 6b fa 89 3a f0 2e 13 3d
       -0.050609477 0.13834314 0.0010526901 0.035933435
000350 1a f9 35 3e 56 c4 f3 3d d0 04 19 3d ad b8 01 bd
       0.17770806 0.119026825 0.037358105 -0.03167026
000360 7d 9a 07 ab 92 86 dc ab e4 d0 21 2b 95 fc 3b 30
       -4.817603e-13 -1.5669291e-12 5.7488584e-13 6.8389144e-10
000370 45 5a 55 a9 e0 a6 a2 aa 52 3f 2f ac 8d aa bf af
       -4.7373797e-14 -2.8892774e-13 -2.4904146e-12 -3.486388e-10
000380 53 c6 e9 37 d2 21 ad 3d 9d 5f 18 3e a6 79 12 3e
       2.7868116e-05 0.08453716 0.14880224 0.14304218
000390 b2 10 1f 3e db 0d 89 bd a0 fc 8b bd ab cd f2 3d
       0.15533713 -0.06692096 -0.06835294 0.11855634
0003a0 67 25 27 3e 49 47 cb bd 5f c6 b9 3d 71 09 ff 3d
       0.16322862 -0.09925706 0.090710394 0.12452973
0003b0 7c a7 75 3d 34 dd 01 3d a0 44 df bd 0c 4f b6 bd
       0.05997418 0.031705096 -0.10901761 -0.08901796
0003c0 42 63 5d 3d 07 b4 eb bd 23 80 70 bc 4a 96 d4 b5
       0.054049738 -0.11508947 -0.014678988 -1.5838971e-06
0003d0 a2 90 06 ad 72 5e 61 33 5e 51 00 2a fc 25 de b4
       -7.649133e-12 5.2472792e-08 1.1396914e-13 -4.137836e-07
0003e0 a2 4b 09 2f 8b 64 0b ad 87 48 65 b0 e4 1d 4f 2e
       1.2486948e-10 -7.92356e-12 -8.341278e-10 4.70929e-11
0003f0 96 94 6e 3c b0 7f ab 3d 23 df 29 3d f5 51 80 3d
       0.014561793 0.08373964 0.041472565 0.06265632

conv1.bias f4 [32]
000000 5f c4 f2 3d 28 81 ba 3b 9a 0c 01 bd f7 2a a3 3d
       0.11853861 0.005691666 -0.03150616 0.07967179
000010 84 7f 95 bd 1f 06 0d be b1 e6 ce bc 4c 5b c1 3d
       -0.07299712 -0.13771866 -0.025256487 0.094412416
000020 0e 2f 7e 3d d0 7e ca bd 02 76 3c 3e 38 d2 31 bd
       0.062056594 -0.09887469 0.18404391 -0.04341337
000030 37 bb 2b 3e 9a 75 18 3e 83 89 e1 bd 1a 9d 02 bd
       0.16770636 0.14888611 -0.110125564 -0.031888105
000040 a6 be 69 bc a9 32 80 bd 66 17 20 bd 8f 22 2b 3e
       -0.014266646 -0.06259663 -0.039084814 0.16712402
000050 6e 87 86 bd ec 44 8b 3d 1f cd 8d 3b 7c 68 9d bd
       -0.065688 0.06800255 0.004327431 -0.076859444
000060 e5 4d ae bd 3b d7 8d 3d b5 26 ee bd eb fe 26 3e
       -0.08510951 0.069258176 -0.116284765 0.16308181
000070 86 09 02 3e c8 32 98 bd 7d a0 cb bd 69 9d e9 3d
       0.12698945 -0.07431561 -0.0994272 0.11406977

conv2.weight f4 [64, 32, 3, 3]
000000 12 7b c8 bc af ac 01 3d 97 44 04 bc 7e 99 0c 3d
       -0.024472747 0.031658825 -0.008072994 0.03432607
000010 86 d0 55 bd ae 08 5d bd fb 5f 56 bd a1 cf 4b 3c
       -0.052200817 -0.053963356 -0.052337628 0.012439639
000020 de dc ab bc 82 e0 3f bd e8 fd 1b bd 61 e7 26 bd
       -0.020979341 -0.046844967 -0.03808394 -0.040748004
000030 9e ac d8 3c c4 8c f7 3c c6 59 1a 3d 60 c1 c6 3c
       0.026449498 0.03021849 0.03768327 0.02426213
000040 51 39 aa 3c 35 25 88 3d 11 11 6a bd 00 64 2e bd
       0.020779284 0.06647722 -0.057145182 -0.042575836
000050 0b 0e 27 bd 9e 15 33 3c 51 18 2d 3d 56 34 eb bb
       -0.040784877 0.010930447 0.042259518 -0.00717787
000060 7b 78 31 3b fb f8 9f 3b a1 3e 55 bd bb 17 a2 bd
       0.0027079869 0.0048819757 -0.05206168 -0.079146825
000070 ec 95 7a bc 20 a3 f8 3c f2 1d f6 ba d8 2b 5a bb
       -0.015294533 0.030351222 -0.0018777235 -0.0033290293
000080 78 7e 77 ba 43 49 04 3d 74 98 ac 3c c9 52 43 3d
       -0.00094411476 0.03229643 0.021068789 0.047686372
000090 5b 66 61 bb 83 32 0f 3d ab f0 3e bd 91 ec 97 3c
       -0.0034393284 0.03496028 -0.046616238 0.01854542
0000a0 7d de 55 3d c2 db 09 bd fc 50 1e bb c8 61 0e b8
       0.052214134 -0.033656843 -0.0024157157 -3.3946504e-05
0000b0 38 f3 04 bd 4d ee 55 bd 8f 2a 93 bc af 7e 1d bc
       -0.032458514 -0.052229214 -0.01796463 -0.009612723
0000c0 e8 24 56 bd 19 b6 05 bd 61 3a ea 39 ff fa f9 bc
       -0.05228129 -0.032644365 0.00044675454 -0.030515192
0000d0 f2 04 70 3d e9 cd c2 3c d6 aa 6b bc 71 02 3f bd
       0.058598466 0.023779826 -0.014383992 -0.046633188
0000e0 95 e5 90 bd f6 cb a5 bb ff 2d ce 3c cd 25 c7 bb
       -0.07075039 -0.0050597144 0.025168417 -0.0060775043
0000f0 fb eb c0 3c 91 5e d6 bc f4 de 0f bd d5 80 9a 3c
       0.023550024 -0.02616814 -0.035124734 0.01886026
000100 73 cb d1 bc a1 50 e4 3c c5 12 2c bd a7 00 b1 3d
       -0.025609707 0.027870478 -0.042010088 0.086427025
000110 bd a6 03 3d af 44 42 3d 1e b2 37 bc 02 1d 7f bb
       0.032141436 0.047428783 -0.0112119 -0.0038927202
000120 d2 c2 a9 bd 59 3c 85 bc 94 3b 1c 3c 90 e4 82 bd
       -0.08289112 -0.016264128 0.009535689 -0.06391251
000130 ff 96 4c 3d 8d 4a 88 bd 22 28 13 bd e6 21 07 3d
       0.04994869 -0.066548444 -0.035926946 0.032991312
000140 78 97 3f 3d 87 31 49 bb 50 86 76 bd 75 e3 c1 bc
       0.04677531 -0.0030699687 -0.060186684 -0.02366803
000150 ac df e1 3c 52 e8 95 bd b2 ed 24 bd 3f f8 1e 3d
       0.027572475 -0.07319702 -0.040265746 0.038810965
000160 61 00 2d 3d cc 09 4b bc ab b0 73 bd 46 1f ca 3c
       0.04223669 -0.0123924725 -0.059494656 0.024673115
000170 b1 a8 88 bd e8 4e 6f bd 78 7e 75 bd ad 91 ae bd
       -0.066728 -0.05842486 -0.059935063 -0.08523879
000180 2e 57 42 bd a8 fe ba bc c7 bd bb bc 18 62 d2 3b
       -0.047446422 -0.022826508 -0.022917641 0.006420385
000190 7e 87 3a 3d b0 6a c6 bc 41 b4 8d bd 69 e0 46 3c
       0.04553937 -0.024220794 -0.06919146 0.0121384645
0001a0 18 25 24 3d 1f d7 cd bc fd 50 d1 3c ec f8 65 bd
       0.040074438 -0.025126992 0.025551314 -0.056145594
0001b0 12 d9 bf bd 39 56 06 bd 64 ee 9c bd 96 5c 4f 3b
       -0.09367575 -0.032797072 -0.07662657 0.003164088
0001c0 27 b3 84 3d 88 c3 c0 bd fe 9e 42 bd a0 08 47 bd
       0.06479483 -0.094122946 -0.047514908 -0.04859221
0001d0 87 89 33 ba b1 dd 92 bd fe e5 61 bd 18 35 06 3d
       -0.0006848801 -0.071711905 -0.05515098 0.032765478
0001e0 6f 8d 8e bd fd 1e 02 3d 20 6b 82 bc 83 45 39 bd
       -0.0696057 0.031767834 -0.015920222 -0.045232307
0001f0 0e 8f 1c 3c 62 9a 4d bc 1e 6b e0 bc 8c 7a 88 3a
       0.009555591 -0.012549015 -0.027394827 0.0010412498
000200 cd f1 74 bd fc 4b 87 bd 24 b7 f7 bc 36 e6 12 3c
       -0.05980091 -0.0660629 -0.030238695 0.008966019
000210 01 d3 a2 bd 9a bd 88 bc bc bd f1 3b 92 d3 35 bd
       -0.07950402 -0.016691972 0.0073773544 -0.044391222
000220 82 8d 1a bd e9 6b 09 bd e8 75 35 bd d9 a4 7b bc
       -0.03773261 -0.033550177 -0.044301897 -0.015359127
000230 c0 95 11 bd b3 99 a4 bc 19 70 4b bd fd 46 7b bd
       -0.035543203 -0.02009282 -0.04966745 -0.061346997
000240 03 3b 4c 3d e6 e0 1d bd c5 17 a6 bd 7f aa 2e bd
       0.049860965 -0.038544558 -0.081100024 -0.042643066
000250 bd a4 6c bd b6 b2 08 bd d5 e2 3f bc 10 a3 1d 3c
       -0.057774294 -0.033373557 -0.011711796 0.009621397
000260 1e 97 c5 bc f9 d4 4b bd 96 f7 c6 3c 94 a0 84 3b
       -0.02411991 -0.049763653 0.02428798 0.0040474627
000270 df 90 8b bd dc 5c d5 bb 7b 93 7d 3d d8 df 9e 3a
       -0.06814741 -0.006511314 0.061908226 0.0012121154
000280 7f 2a 38 3d f3 73 7e bd ea 19 0c bd a1 7c 46 3c
       0.044962402 -0.062122297 -0.0342044 0.012114675
000290 e2 ac 4a 3d 6e 96 38 bc 1a 82 65 bd 1b 5e f2 3b
       0.04948128 -0.011266334 -0.056032278 0.007396472
0002a0 7f 19 49 3d a7 2f ec bc 11 23 73 3c f2 82 d2 3c
       0.04909658 -0.028831316 0.014839903 0.025697205
0002b0 b8 a0 94 bd 29 00 4b bd 0c ac 74 bc c4 57 3d 3d
       -0.07257217 -0.0495607 -0.014933597 0.046226278
0002c0 2c 99 e5 bc f9 26 e9 bb 8c d9 26 bd 81 d3 be bd
       -0.02802714 -0.0071152416 -0.040734813 -0.09317685
0002d0 3e 79 87 bd 48 1e f9 3c 4c 66 00 bc 3f 44 bc bc
       -0.06614922 0.030409947 -0.0078368895 -0.022981761
0002e0 3a 42 6e 3d 8f 12 2d 3b 82 c6 f7 39 83 75 bb 39
       0.058168627 0.0026408767 0.0004725941 0.00035754972
0002f0 1d 2b f5 bc c1 ef ac bb 8f 92 20 3c 32 4c 38 bd
       -0.029927785 -0.0052776043 0.009800567 -0.04499454
000300 44 cd 90 bc b9 46 81 3d 2e 3b b5 bc 91 9f 78 bc
       -0.017676003 0.063123174 -0.022122946 -0.015174762
000310 e3 99 9e bd a1 67 94 bd 86 9a 33 3d 93 08 38 bc
       -0.07744195 -0.07246328 0.043848537 -0.011232513
000320 6b 20 5a bc 0e f4 64 bd 07 af 0b bd b0 fe 0a bc
       -0.013313393 -0.05589681 -0.034102466 -0.008483574
000330 98 9c 97 bd e5 4f d3 3b e1 fb 61 bd b7 51 23 3d
       -0.07402915 0.006448733 -0.05517185 0.03987285
000340 23 a4 f7 bc 0d 87 6d bd 67 f7 b0 3c 0d 9b 20 3b
       -0.030229634 -0.057990123 0.021602346 0.002450648
000350 7d c1 4e bd 22 3e 4f 3c 75 63 6e 3d 64 94 a6 3d
       -0.050477494 0.012649091 0.05820032 0.08133772
000360 9f 20 8d 3c 20 40 89 bc 77 c4 b5 3c ee 4b 39 bd
       0.017227469 -0.01675421 0.022188408 -0.045238428
000370 db 41 af 3c 1b 18 21 bd b1 2b 77 3c df 19 aa bc
       0.021393707 -0.03932963 0.0150861 -0.02076429
000380 cf fb 05 bd 65 3f 06 3c 6e 94 3f 3d 51 f1 f8 bb
       -0.032710847 0.008193825 0.046772413 -0.0075971265
000390 30 66 1a bc ab 0c 07 bd 26 26 5e bd 3b bf c9 3c
       -0.009423777 -0.032971065 -0.0542356 0.024627319
0003a0 21 d5 9b ba 79 67 9b 3c f9 a2 72 3b c8 b6 1a 3d
       -0.0011889079 0.018970238 0.0037023409 0.03777197
0003b0 0c fc 66 bc a2 c5 25 3d 22 1f c0 bc ac 5b 5c 3d
       -0.014098179 0.04047168 -0.023452345 0.053798363
0003c0 e1 cb 28 3d b1 54 a2 bc 9b 03 97 bc 6d 85 90 bb
       0.04121006 -0.019815775 -0.018434336 -0.004410437
0003d0 e2 6c 86 bd 2b d5 ca bc f0 ea 41 3c d6 3f 3e bd
       -0.065637365 -0.02475985 0.011835799 -0.046447597
0003e0 b5 49 ca ba a6 e3 65 bd 7a 54 dd bc 08 a7 36 bd
       -0.0015433343 -0.056125306 -0.02701782 -0.044592887
0003f0 75 d1 01 bd a7 e8 dd 3c ab bc 36 3d d7 67 9b 3c
       -0.031693894 0.027088476 0.04461352 0.018970413

conv2.bias f4 [64]
000000 4f 4d c7 3c e5 c6 2f 3c c2 77 89 bd f8 54 45 bd
       0.024328856 0.0107285725 -0.06712295 -0.048176736
000010 fe 3c 75 bc e3 b0 93 3d a1 9d 73 3d e5 84 b8 3c
       -0.014968155 0.07211473 0.0594765 0.022524307
000020 44 1f 19 bd cb d4 a5 3d c1 1b 52 bd f7 5c 09 bd
       -0.037383333 0.08097228 -0.051296 -0.033535924
000030 a4 5c 6e 3d d5 e0 49 bd d7 4d e5 bb 6b 46 c3 ba
       0.058193818 -0.049286682 -0.0069978046 -0.0014898306
000040 0c 66 8a 3d a7 a3 a6 3d f3 46 d3 3c b6 1e 54 3d
       0.06757745 0.08136683 0.025790667 0.0517871
000050 72 f8 29 3c 88 3e cf bc fd 44 97 3d f2 61 16 3d
       0.010374175 -0.025298372 0.07386205 0.0367145
000060 f3 59 d8 3c 7b d3 c4 3d af bf 24 bc 73 21 60 3d
       0.026410079 0.09610649 -0.010055467 0.0547194
000070 a8 84 43 bd 6e 68 c7 bc 8d bc 91 3d e7 01 88 3d
       -0.047733933 -0.024341788 0.07116041 0.06640988
000080 47 6a ad 3b c7 89 72 bc f8 1b 0c 3c fd 19 b2 3d
       0.0052922103 -0.0148033565 0.00855159 0.08696363
000090 82 36 e7 3c af 5a d1 bc fc 3b ec 3b 83 b5 a3 3d
       0.028224234 -0.025555937 0.007209299 0.07993605
0000a0 0f eb 31 3d 65 45 2e bc b6 89 77 bd 0c c6 b4 bc
       0.04343706 -0.010636662 -0.060434066 -0.022067092
0000b0 e1 dd 8e bc 6b a8 79 3d a5 f6 28 bd bb 0e af 3d
       -0.017439784 0.06095163 -0.041250844 0.085477315
0000c0 e4 9b 3c 3d ba 5a 77 bd c7 8d 36 3d f2 6a 91 3d
       0.046047106 -0.060389258 0.044568803 0.07100476
0000d0 0a eb 83 3d 1b 10 00 bd 29 2b 13 3d 23 9e 91 3d
       0.064413145 -0.03126536 0.035929833 0.0711024
0000e0 8d e0 e2 bb 5b ac 07 3d f2 a1 f0 bc 0c 11 3d bc
       -0.006923741 0.033123355 -0.029374097 -0.011539709
0000f0 f0 59 b9 3c 41 69 d3 bc 14 af 40 bd 67 f2 db bb
       0.022625893 -0.025807025 -0.047041968 -0.006712246

conv3.weight f4 [128, 64, 3, 3]
000000 21 c7 bd 3c e6 52 30 3d 26 6f 12 ba 31 4b b4 bc
       0.023166241 0.043047808 -0.00055860204 -0.02200851
000010 f5 1c ab bc da 9c a5 bc 57 93 f9 3a 61 c6 13 bc
       -0.020887831 -0.020216394 0.0019041103 -0.009019465
000020 76 50 b8 3b 3d b5 95 3c 73 04 23 3c 7f ba b4 3c
       0.005624826 0.018274898 0.009949791 0.022061585
000030 9d d0 16 bd 7a 15 b0 3c e6 1e 74 bb 97 e6 d7 bc
       -0.036820043 0.021494616 -0.0037249862 -0.026355071
000040 a6 a9 1b bc f1 81 5d bb 82 58 62 3d 5c 0e ce bc
       -0.009500897 -0.0033799375 0.05526019 -0.025153331
000050 0f c2 17 bc 4e 70 b6 3c d1 3c df bb f8 e1 b6 3c
       -0.009262576 0.022270348 -0.00681267 0.022324547
000060 f3 74 39 bd 4d 3f 01 bd ca 2f c7 3c 5d e0 1a 3c
       -0.045277547 -0.03155451 0.02431478 0.009452906
000070 61 51 12 bc a9 da a9 3d 4b 53 a4 bc f9 57 68 3c
       -0.008930535 0.08293659 -0.020059248 0.014181131
000080 74 8b cb 3d 52 05 29 3c 6d 06 2b 3d 9a 2e 49 bd
       0.09938708 0.01031621 0.041754175 -0.04911671
000090 53 57 41 3c d1 6d de bb 22 5f 13 bd b6 85 c9 bc
       0.011800605 -0.0067879935 -0.035979398 -0.024599891
0000a0 cb e1 43 bd 8d 7a 1b bd fe da 15 bd 1a 2a 98 bc
       -0.047822755 -0.03795867 -0.0365858 -0.018574763
0000b0 0a 6a a3 3c 1a 1f 59 3d 87 5c 89 bc cf 84 fe bc
       0.019948024 0.053008176 -0.016767753 -0.031069187
0000c0 5e 7e 4b 3d 10 62 d2 3b e6 b2 44 bd 81 fc ce 3c
       0.04968106 0.0064203814 -0.048022173 0.025266888
0000d0 d4 cc 36 bd c5 22 8f bb 28 fa 7a 3c 82 f8 cf bc
       -0.044628933 -0.0043681585 0.015318431 -0.025387052
0000e0 2b 99 8e bc af 70 6d bd 7c 0b 17 bd 3f 4c a1 bc
       -0.01740702 -0.05796879 -0.036876187 -0.019689677
0000f0 cd 2b d8 bb 1d 67 a8 bc bc 06 dd ba 34 38 97 3b
       -0.0065970183 -0.02055698 -0.0016862969 0.004614854
000100 96 6a d2 bb 1c d6 f3 3c d7 5d a3 bc 97 21 bf 3c
       -0.0064213974 0.029765181 -0.019942207 0.023331447
000110 f9 c8 f3 bb 97 a6 98 3c 23 95 9e bb cf db e5 ba
       -0.0074397293 0.018634124 -0.004839556 -0.0017536822
000120 61 bf 04 3c 3a 50 89 3c 09 bf 9f bc b8 e5 fb 3c
       0.008102269 0.016761888 -0.019500272 0.030749187
000130 ad 79 61 3c ea 87 14 3a 62 fb 17 3d 65 5d f4 bc
       0.01376192 0.0005666005 0.03710497 -0.02982969
000140 12 61 41 bc 91 b8 a7 bc 3c 3b 03 bd fa 60 6d bd
       -0.0118029285 -0.02047375 -0.032038912 -0.057953812
000150 a0 f0 27 bd 50 e1 65 bd f6 8b 9a 3c bb 3e ef bc
       -0.041000962 -0.056123078 0.018865567 -0.029204717
000160 0b 9e 1b 3d 98 ef 03 bc d6 14 4c 3d 21 07 04 3d
       0.03799252 -0.008052729 0.04982456 0.03223336
000170 39 af cf bb 06 96 92 3c 1e 2d ac 3c 4a 8b 46 bb
       -0.006338027 0.017893802 0.021017607 -0.0030295425
000180 75 65 35 3d e7 1f c5 3c 3e a6 fe bc bb 76 33 bd
       0.04428621 0.024063064 -0.03108513 -0.043814402
000190 d2 c3 60 3d 00 68 01 3d 77 07 09 3d 41 11 48 3d
       0.05487425 0.031593323 0.033454385 0.04884458
0001a0 be 75 ca 3a 62 3c a5 3c 06 38 5f bd 10 03 88 3d
       0.0015446467 0.020170394 -0.054496787 0.06641209
0001b0 39 f9 dd bc 04 85 25 3d 23 30 b9 bc cb 30 02 ba
       -0.027096378 0.040410057 -0.022605961 -0.0004966377
0001c0 54 12 e3 3b dd b4 15 bd f9 e3 c1 bb 0c 63 03 bc
       0.006929675 -0.036549438 -0.005917069 -0.00801922
0001d0 39 16 a8 3d 72 da 9c bb 28 f1 55 bc 17 59 85 bc
       0.08207364 -0.004786783 -0.013057984 -0.016277833
0001e0 7a db 98 3b d9 20 2c 3c 7d 2e 39 3b 62 b3 e8 3c
       0.0046648355 0.010505878 0.002825647 0.028405849
0001f0 c8 95 de 3b b1 d0 3d bc 37 35 54 bd 0b 52 a3 3c
       0.0067927577 -0.0115854 -0.051808562 0.019936582
000200 78 f9 09 bc 70 22 8c bd ac 4f a8 bc 98 09 31 3c
       -0.008421294 -0.06842506 -0.020545803 0.01080551
000210 6b 8a a6 3c 7e ed 37 3c d2 6e df 3c f0 75 14 3c
       0.020329675 0.011226056 0.027274523 0.009061322
000220 60 81 7c 3c 8a a9 20 bd 6c 13 8d 3d 70 bf 6c bd
       0.015411705 -0.039224185 0.0688847 -0.057799757
000230 b1 c7 41 bd eb db 5e 3c ec ab 4d bc 3e df e5 bb
       -0.04730958 0.013602237 -0.012553196 -0.007015138
000240 c0 0c 5b 3c 27 a0 3c bc ce 90 57 bd b2 a9 8a 3c
       0.013369739 -0.011512793 -0.05262833 0.01692662
000250 df 6d 1d bc fc fd 42 bd 09 ca 49 3c 01 54 06 bb
       -0.009608715 -0.0476055 0.012316235 -0.0020496848
000260 a3 17 c6 3c b4 db bd bb ee 51 e4 3c c0 8e 61 3b
       0.024181193 -0.005794013 0.027871098 0.003441736
000270 92 f5 c4 3c 2f 8b 1c 3d 70 59 d5 bb 1c 7b e6 39
       0.024042878 0.038218673 -0.006510906 0.00043960742
000280 ed b0 85 3b 2e 28 ef 3c 2b d4 62 3c 78 95 2a bd
       0.004079929 0.029193964 0.01384453 -0.04164645
000290 01 d8 e7 3c d4 6e fc bc 7d c2 bf ba 55 9d 35 3d
       0.02830124 -0.030814566 -0.0014630106 0.044339497
0002a0 2f e6 61 bd 40 b3 cc 3c 4c eb 01 3d 83 3d 95 3b
       -0.05515116 0.024987817 0.031718537 0.004554452
0002b0 8d 77 5d 3d 98 cb b8 3d 0e fe 62 bb e9 ce 12 bd
       0.05406909 0.090232074 -0.0034636292 -0.035841856
0002c0 0d c1 9c bc 1c 29 4d 3d 18 e8 a2 3c eb 2a f1 3b
       -0.019135023 0.050088033 0.019886062 0.0073598525
0002d0 3c f3 b7 bb 4c b5 0a 3d 92 54 d6 3b d7 58 fb bc
       -0.0056137126 0.033864304 0.0065408433 -0.03068201
0002e0 4d 49 ec bc 82 bf 99 bc 14 08 56 bc 18 12 bd 3c
       -0.028843546 -0.018768076 -0.013063449 0.023079917
0002f0 56 de 81 3d 27 67 d8 bc 9e 8a 08 3d 3e ca 0d 3d
       0.06341235 -0.026416374 0.03333532 0.0346167
000300 6c 40 40 bd e2 ae 12 3d 21 ee 94 3b 31 72 62 bd
       -0.046936437 0.035811312 0.0045449887 -0.055284683
000310 6d f7 36 bd 29 d8 36 bd 95 cf 1b 3c 76 da a0 3c
       -0.044669557 -0.04463974 0.009509941 0.01963542
000320 25 50 bc bd b4 3d 5e bc 35 e3 3f bd e0 04 a3 bd
       -0.09194974 -0.013564516 -0.04684754 -0.07959914
000330 b9 63 93 3c b9 cc 4e bd 07 73 93 3d 55 78 c1 3b
       0.017991887 -0.050488207 0.07199674 0.0059042373
000340 87 74 01 bd eb ba 4f 3d 54 47 4f bd 21 0f cd 3c
       -0.03160527 0.05071537 -0.050605133 0.025031628
000350 47 e3 be bb 0e b1 a4 bd 34 d3 9c 3c 8e e1 a0 3d
       -0.0058254334 -0.08041583 0.019143678 0.07855521
000360 13 d0 56 3c fb bc 6d 3b fd 90 18 3c f0 a4 19 3d
       0.013111132 0.0036275971 0.009311912 0.037510812
000370 5e 9c 9b bc 67 6a ad bb 05 e4 70 bb 8c d5 a6 bc
       -0.01899546 -0.005292225 -0.0036757004 -0.020365499
000380 f0 06 b1 bc c6 6e 1e bd 92 71 30 3d 95 d4 04 3d
       -0.021609753 -0.03867986 0.04307706 0.032429297
000390 85 81 22 3c 34 0f 58 3c e0 57 4a bd 50 25 cc 3b
       0.009918575 0.013187218 -0.04940021 0.006230034
0003a0 6a 5e 1d 3c df 1b 3a 3d eb 79 65 3c 46 fc 35 bc
       0.00960503 0.045436736 0.014006118 -0.01110751
0003b0 53 7c 10 bd 5a fa 3f 3c a3 32 c2 bc 9e b8 9c bc
       -0.035274815 0.011717403 -0.023705786 -0.019131001
0003c0 d1 a8 7d 3c 22 a6 6b bd 07 b8 0d 3d 3f b4 1a 3c
       0.0154821435 -0.057531483 0.03459933 0.009442388
0003d0 86 0c 2c bb 29 34 dc bc a1 0c 8d bc e9 95 3a 3c
       -0.0026252582 -0.02688034 -0.017217936 0.01138828
0003e0 86 28 6a bc 1b d2 48 bc 32 53 23 bc ea 98 fc bb
       -0.014291888 -0.012257124 -0.009968566 -0.0077086585
0003f0 66 f3 19 bd d4 4a 0e 3c 62 70 a2 3c 23 b9 1e 3d
       -0.03758564 0.008684833 0.019828979 0.03875078

conv3.bias f4 [128]
000000 35 19 58 bc f3 bb cb bc 3b b0 c7 bc ac f0 5e 3d
       -0.013189604 -0.024869895 -0.024376025 0.05442874
000010 31 ae df bc 72 df 0a 3b 3e d6 8f bc e9 17 36 3d
       -0.02730474 0.0021190313 -0.017558213 0.044456396
000020 09 ec a5 bc 27 be 51 3c a9 ae 97 bc cb df 60 bc
       -0.020254152 0.0128016835 -0.018515902 -0.013725231
000030 8a 76 2a 3d 72 2a 70 bc 77 1b 5b 3c 10 96 e3 3c
       0.041616954 -0.014658557 0.013373247 0.027781516
000040 08 cc 5d 3d fc ea 1d 3d e8 93 c7 3c 05 56 19 3c
       0.054149657 0.038554177 0.02436252 0.009358888
000050 05 fc 1e 3d d0 b0 da 3c 74 c2 5c 3d ba d9 fb 3c
       0.038814563 0.026695639 0.053896382 0.030743469
000060 dc a7 9c bc bc c1 9c 3c 08 01 48 3d cd 15 a0 3b
       -0.01912301 0.019135348 0.04882911 0.0048854114
000070 03 7d 0c 3c ab 63 1c bd e2 fc 45 bd 6e 98 8f 3c
       0.008574727 -0.03818099 -0.04833687 0.017528739
000080 95 fd f4 bc 81 ff 21 3d 89 90 17 3c 53 78 11 bd
       -0.029906074 0.03955031 0.009250768 -0.03551514
000090 9f 5d 60 3d e5 4c 0f bd 30 0f 02 3c 9c 4e 5c 3b
       0.054776784 -0.03498544 0.007938191 0.003361619
0000a0 1e 9a 21 3d 21 d8 48 bc 1e 19 e7 3b 77 57 c2 bc
       0.03945362 -0.01225856 0.0070525547 -0.023723347
0000b0 40 73 a1 3c 46 e6 97 3d 8d 85 9e 3b 43 58 08 3c
       0.019708276 0.07416968 0.004837698 0.0083218245
0000c0 76 66 91 3c fc e9 46 3b 6a 37 16 bc 31 f2 54 3c
       0.017749052 0.0030351868 -0.009168485 0.012997196
0000d0 8f 04 27 bd d2 b0 86 3d a0 b7 79 bb 62 44 d4 3c
       -0.04077583 0.065766945 -0.0038103834 0.025911514
0000e0 88 d2 43 ba 49 4b 58 3d 59 8f 6d bc 04 54 f4 3c
       -0.0007470031 0.052806173 -0.014499509 0.029825218
0000f0 30 fc 38 3d c9 2d 01 3d 82 cd bd 3b b3 a6 c0 bb
       0.04516238 0.031537805 0.0057923207 -0.005879247
000100 9c 65 b8 bc 95 ce 31 3d d1 50 2c 3d 42 c6 eb 3c
       -0.022509389 0.043409903 0.04206926 0.02878106
000110 eb 06 c6 3c 81 f1 4a 3c f7 35 e2 3a 41 df ba 3c
       0.02417322 0.012386681 0.0017258514 0.022811534
000120 ad 21 99 bb 0a 97 fe 3b 5f ff ea 3c a8 1c 6b 3d
       -0.004673204 0.00776947 0.028686224 0.057400376
000130 e8 95 20 3d 8a cc 57 3d 23 d9 ba 3c 6b 60 ee 3c
       0.03920546 0.052685298 0.022808617 0.02909871
000140 a0 44 1c bd f2 6f 08 3d 66 6f 14 3b 60 5c e4 bc
       -0.038151383 0.033309884 0.0022649406 -0.02787608
000150 c2 7f 5a 3c 62 8e 31 b8 d1 52 43 3d 9b ef 5d bb
       0.013336124 -4.2332693e-05 0.0476864 -0.003386474
000160 99 1f 46 3c ec 36 cc 3c e3 d5 cb bc 03 d3 a2 3d
       0.012092494 0.024928533 -0.024882263 0.079504035
000170 18 26 ec bb f7 e1 c3 3c c0 76 8d bc 24 ab 0e bb
       -0.0072066896 0.02391146 -0.017268538 -0.0021769488
000180 0a 89 0f 3c e0 45 e7 3c 70 84 a2 bc fb be 12 3d
       0.0087607 0.028231561 -0.019838542 0.035826664
000190 bf 55 15 3d 89 5b 4d 3d 6e dd 80 bc 18 1a 5b bc
       0.036458727 0.050136123 -0.015730586 -0.01337292
0001a0 4b f1 3c 3d 52 f7 5b 3d e7 d6 eb 3b 04 4b 43 3d
       0.046128552 0.05370266 0.007197249 0.047678962
0001b0 73 80 2f bd 0b fb 46 3c 66 f8 f0 3b 73 5a 02 3c
       -0.042847108 0.012144814 0.00735383 0.007956135
0001c0 60 0f 9d bc 21 19 8e bb 73 de 40 3d f1 0f 3e 3d
       -0.01917237 -0.0043364917 0.047087144 0.04640192
0001d0 16 d1 89 3c fd 5e fb bb be 0a 61 bc e3 42 b8 3c
       0.016823333 -0.0076712356 -0.013735471 0.022492832
0001e0 2f b8 b7 bc a2 6d 38 3c 2b 88 3a bc dc 63 01 3c
       -0.022426693 0.011256607 -0.011385004 0.0078973435
0001f0 d8 13 8d bc 58 57 bf bc ba 33 98 bc 84 ad 81 3d
       -0.017221376 -0.023357078 -0.018579353 0.063319236

act_conv1.weight f4 [4, 128, 1, 1]
000000 3a 48 bb 3b 6a 08 17 2b b2 d6 99 3b f7 11 f4 bd
       0.005715397 5.3657653e-13 0.004694783 -0.11917489
000010 2c 98 31 3c 5a 22 7f b8 20 83 4a 3d 76 f3 7c 3c
       0.010839503 -6.082873e-05 0.049441457 0.015438905
000020 c4 d4 8d 3d 8b 01 d5 bd 85 54 3b bc da 0d 93 3c
       0.069253474 -0.10400685 -0.011433725 0.01795094
000030 30 d0 04 be 29 cf 2d 3c 36 51 f2 3c ea 5d 41 bd
       -0.12970042 0.010608473 0.02957974 -0.047208704
000040 7f 13 e2 3b a8 ad 79 bd 34 1b e5 3c fc 96 0d 3c
       0.006899297 -0.060956627 0.027967073 0.0086419545
000050 8b 93 a9 bc bb bf c3 3c ee 9a bf bd 7b 82 c4 3b
       -0.020700237 0.023895135 -0.09355722 0.005997
000060 aa 9d 84 3c 2e 81 11 3d 5f 33 5a bc 5a 43 20 bd
       0.016188461 0.035523586 -0.013317912 -0.03912673
000070 af 88 83 ba 8c 42 2b bd 98 01 bb bc 2d 01 13 3d
       -0.0010035242 -0.04181151 -0.022827908 0.035889793
000080 c0 c6 cf aa 63 ec d3 ba ab d8 d6 bc dc b0 4c 3d
       -3.6908497e-13 -0.0016168471 -0.026226362 0.049973354
000090 07 7a 8a bd 38 87 88 bc d1 f0 a4 ba 0f ae b9 b8
       -0.06761556 -0.01666604 -0.0012583976 -8.8539084e-05
0000a0 d6 93 27 bd 13 ef 43 bc e7 cf 1b bd dd ae 60 bd
       -0.04091247 -0.011958855 -0.038040068 -0.054854263
0000b0 68 e4 f8 bb 58 b8 a6 bd 95 27 05 bc 27 96 a5 bd
       -0.0075955875 -0.081406295 -0.008127113 -0.0808528
0000c0 a5 65 1d bb 03 b4 00 bd 49 47 f8 3c 68 05 d9 3c
       -0.0024016884 -0.031421673 0.030307429 0.026491836
0000d0 0a 5d 29 bc 92 bc 17 bd 45 8c 81 bd bb 6f 6f 3d
       -0.010337124 -0.03704507 -0.063255824 0.058456164
0000e0 ae 5b dd 29 a1 f0 da bd 6d 18 90 bd 1d d2 91 bc
       9.8302754e-14 -0.106904276 -0.07035909 -0.017800385
0000f0 88 7d a1 bd 88 be e8 3c 53 89 04 3d 22 b3 fb ac
       -0.07885271 0.028411165 0.032357525 -7.153737e-12
000100 99 85 75 3d 89 7a 49 bd a3 d1 27 3d 80 82 c8 bc
       0.05994186 -0.049189124 0.04097141 -0.02447629
000110 73 0a 54 bd 64 e5 a2 bb 64 90 1c 3d cd c4 fe 3b
       -0.051767778 -0.004971193 0.03822364 0.0077749253
000120 0c e6 11 bd 44 3f 94 3d c9 cd 4a 3d 30 cf 74 bd
       -0.03561978 0.072386295 0.04951266 -0.059767902
000130 b3 68 da bb 3e 1e a6 bb 40 32 81 bd be 2c c0 bc
       -0.006665313 -0.005069523 -0.063084126 -0.023458835
000140 c9 32 e1 3b 33 f0 09 3d 12 72 31 bb 10 76 46 2c
       0.006872509 0.033676337 -0.0027076048 2.820303e-12
000150 c3 ed e8 bc 8a 5b ce ab bb 05 d9 bd 9b f2 94 3d
       -0.028433686 -1.4662588e-12 -0.10596796 0.07272836
000160 56 72 2f 3d 0c fa b1 bb f2 c6 31 3c 71 e5 a8 bd
       0.04283365 -0.0054314192 0.010850655 -0.082468875
000170 52 b4 88 3c 55 bd 65 3d 19 a6 ef bc bc 3b 4b 3d
       0.016687546 0.056088764 -0.029254006 0.049617514
000180 af 26 29 bd a7 13 49 3d 4c 59 10 bd 1a c0 60 3d
       -0.041296657 0.049091008 -0.03524141 0.054870702
000190 cc 51 05 bc 12 03 bc 3c a4 a6 e8 bb b5 21 a2 bd
       -0.008137178 0.022950683 -0.0070999432 -0.07916585
0001a0 62 89 0c bc 82 93 e1 3a f4 e1 b1 bb 30 2b b7 bd
       -0.0085776765 0.0017210098 -0.005428547 -0.08943784
0001b0 8f 4a c2 3c b1 d6 7d 3d c6 c6 f5 bc 04 26 d6 ba
       0.023717193 0.061972324 -0.03000201 -0.0016338234
0001c0 50 cf 0a ac 30 9e 1d 3b 92 83 ec bc a1 75 ca bc
       -1.972606e-12 0.0024050586 -0.028871331 -0.024714293
0001d0 68 ce 2c bd 78 75 25 3d ba 61 ee 3c 49 b1 4f bc
       -0.04218903 0.04039523 0.029099334 -0.012676545
0001e0 ab 13 94 3d c6 94 ee bc 0f 11 a8 bc 0e 23 c3 bd
       0.07230314 -0.029123675 -0.020515947 -0.095281705
0001f0 4e d1 fa ad de 9f 25 3d 01 3d 0b 2b 65 c1 47 bc
       -2.851466e-11 0.040435664 4.946738e-13 -0.012192105
000200 5e b1 b7 bb 32 b7 04 3d c1 5a 66 bd 1d 60 31 3d
       -0.0056058606 0.03240127 -0.056238893 0.04330455
000210 d6 fc d2 3d d5 92 bc bd 5f 55 7c bd 3b d9 d0 3d
       0.10302131 -0.092076935 -0.061604854 0.101976834
000220 64 fc 89 3d 5f d5 be bd 15 ac 15 3c 5f 12 0a be
       0.06737593 -0.09318041 0.009135266 -0.1348357
000230 f9 3f d1 3c 5e 00 d0 3c fb cd ed 3d eb 69 fc 3d
       0.0255432 0.0253908 0.11611553 0.1232489
000240 48 b4 30 be 15 61 25 bd 5e e7 1b 3c 36 72 62 3c
       -0.17256272 -0.040375788 0.009515611 0.013821175
000250 fe 61 43 3d a1 11 85 bd a3 8e 17 3d 22 ca bd bc
       0.047700875 -0.06497503 0.037001263 -0.023167673
000260 fc 44 55 3d ea 4a 97 bb 0d 43 a0 b7 74 af 0a 3e
       0.05206774 -0.0046170847 -1.910471e-05 0.13543493
000270 a6 c4 9d 3d d2 5b ee bd 39 eb c9 bb 9d d2 8f bd
       0.07703523 -0.11638607 -0.006162074 -0.07022593
000280 ac 4b 51 bd 8d b7 93 3d 79 c1 e4 3c df 9c d4 3b
       -0.051097557 0.07212744 0.027924286 0.006488427
000290 7c e2 0f 3e 60 29 03 3e 78 e8 72 3c b7 91 8a bc
       0.1405124 0.12808752 0.014825933 -0.016915185
0002a0 ef ae 13 3d 54 5b 9a ba 00 0d cb bc 6d f2 b2 3d
       0.0360555 -0.0011776485 -0.024786472 0.08737645
0002b0 65 55 b8 bd 57 02 43 3d 5d 4c 20 bd 59 02 8c 3b
       -0.09000663 0.047609653 -0.039135326 0.004272741
0002c0 5a e6 04 be 46 7a 04 bd 55 fa 47 3c 20 68 3d b8
       -0.12978497 -0.03234317 0.01220568 -4.5158085e-05
0002d0 4f 1a 16 be 53 29 03 3e a2 c0 f4 3c 60 4b 4d bd
       -0.14658473 0.12808733 0.02987701 -0.05012071
0002e0 33 6f 3f ae cb 42 ba 3d ea 5d dc 3b 6c f6 a5 3d
       -4.3527137e-11 0.09094771 0.0067250626 0.08103642
0002f0 78 b5 d1 3d e7 46 41 3c 23 ca e7 bc d0 37 a5 2a
       0.102396905 0.01179669 -0.028294628 2.9348616e-13
000300 3c fe b6 3b ef f1 cd 3d 4e b2 c4 3d 07 f6 a4 3d
       0.0055845063 0.10055911 0.096043214 0.080547385
000310 4c 54 9c 3d ca 6e f6 bc 5f 26 38 bd cf 05 d5 3d
       0.07633266 -0.030082125 -0.04495847 0.104014985
000320 f7 41 fa 3d 26 da b8 3d 58 9d ac 3d c2 ac ec bd
       0.12219613 0.090259835 0.084284484 -0.115563884
000330 03 c7 9b ba ed e8 a4 3c cd 4b e0 3d 65 6f 19 3e
       -0.0011884872 0.020130599 0.10951958 0.149839
000340 4a 6d 60 bd ec d0 b8 3b 91 c3 d0 bc 7d a0 3f bc
       -0.054791726 0.00564014 -0.025483878 -0.011695978
000350 56 5c ad 3d 08 43 a8 ac 9b 35 d8 3d a0 89 aa bd
       0.08464877 -4.782289e-12 0.105570994 -0.08327031
000360 1d 82 b4 3d 06 58 dc 3b 3f 71 f8 3b bd 70 8d 3d
       0.0881388 0.0067243604 0.0075818594 0.06906269
000370 9a 0e 2b bd fa 99 a1 bd 8e 47 7c 3d 9c a9 a1 3d
       -0.041761972 -0.07890697 0.061591677 0.078936785
000380 91 fd cd 3d b4 2f 92 3c 2d fc 39 bd 5a ea fc 3c
       0.100581296 0.017845012 -0.04540651 0.030873466
000390 ac 57 f9 3d 90 d7 7d 3d 58 69 e3 bd c4 c2 15 3e
       0.12174925 0.061973155 -0.11104077 0.14625078
0003a0 d6 da c1 3d 07 51 a1 bc 53 4d 77 bc f2 3f 39 3e
       0.09465568 -0.019691957 -0.015094119 0.180908
0003b0 5b ba b2 bd 31 d3 9e bb 05 44 d4 3d 87 70 e9 bc
       -0.08726951 -0.0048469533 0.10364536 -0.02849604
0003c0 97 f1 6a b9 95 cd 5f 3d 4c 29 45 3e c7 2a 13 be
       -0.00022405978 0.054639418 0.19254035 -0.14371787
0003d0 83 dd 19 3d d8 a7 b1 bd 70 57 60 37 d5 61 af 3d
       0.037564766 -0.08674592 1.3371799e-05 0.08563582
0003e0 79 c5 22 bd a5 8b 3c 3d 91 eb f6 3d aa 90 32 3d
       -0.039739106 0.046031613 0.120566495 0.043594994
0003f0 ee 53 55 39 f0 48 ca 3c 14 f8 7c 39 1a d2 88 3d
       0.00020344529 0.024692982 0.00024125009 0.06680699

act_conv1.bias f4 [4]
000000 a7 7e 9a bc 1c 34 83 3d 8a e9 9c 3d dc 5f 90 bd
       -0.01885922 0.064064234 0.076617315 -0.07049534

act_fc1.weight f4 [36, 144]
000000 80 06 08 bd c6 12 51 bd 24 f7 98 bd c4 7d c9 bc
       -0.033209324 -0.051043294 -0.07469013 -0.024596103
000010 36 24 13 bd f3 cd 8a bd 7c 80 00 bd b3 6c 7f bd
       -0.035923205 -0.06777563 -0.031372532 -0.062359523
000020 ce 50 7b bd 60 01 d1 bd 76 ad 0d bd 12 31 d9 bd
       -0.06135636 -0.102053404 -0.034589253 -0.106050625
000030 1a fe ea bd 6b 50 a8 bd 0f 25 bc bd 8c e1 41 bd
       -0.11474247 -0.082184635 -0.09186756 -0.04733424
000040 10 e6 37 bd bd b0 69 bc ba 01 0b bd ca f8 22 bd
       -0.04489714 -0.014263329 -0.033937193 -0.039788045
000050 ae da b9 bc c9 3a 05 bd c6 87 0d 3c ea 0b b2 bc
       -0.022687282 -0.032526765 0.008638328 -0.021734197
000060 73 2b 39 3b a2 6e bc bc 67 fc 9e bd da e6 c2 bc
       0.0028254658 -0.023001973 -0.07762986 -0.02379172
000070 25 8a aa 3c e5 02 22 3c 45 e4 85 bc 0c 16 13 bd
       0.020817826 0.009888385 -0.016344199 -0.035909697
000080 4c 2b 12 bc ec 63 95 bc ee e7 e7 bc ec e5 44 bd
       -0.008921456 -0.018236123 -0.028308835 -0.048070833
000090 f5 a1 2c 3d 2d d3 90 3d f0 9a 03 bc 4e 9d 35 3d
       0.04214664 0.070715286 -0.008032545 0.04433947
0000a0 c5 18 c5 3d 46 ac 2c 3d 12 95 f9 bc bc 6d a4 bc
       0.09623865 0.04215648 -0.03046659 -0.020071857
0000b0 1f 32 83 bd e5 58 b7 3d 7a 9d 8b bb 53 ca c3 3b
       -0.06406044 0.08952502 -0.004260716 0.0059750467
0000c0 46 2c 5e 3c 86 ac 32 3d 9c bc 5a bd ec c9 c9 bc
       0.01356036 0.043621562 -0.05340253 -0.024632417
0000d0 d6 97 c0 bd 34 bb 56 3c 92 59 97 bc 1a 3b e7 bd
       -0.094039604 0.013106156 -0.018475328 -0.112905696
0000e0 6a 96 c5 3c 49 df 5e 3d 7e 9c 34 bb 73 ca 65 3c
       0.024119575 0.05441216 -0.0027559097 0.014025318
0000f0 6c f7 83 bd 8c 42 5f 3d 44 7c 07 bd a8 4c 28 bd
       -0.06443676 0.054506823 -0.033077493 -0.04108873
000100 e9 1a da bc 46 78 e3 bc b7 e8 f3 3b 5a 52 4b bd
       -0.02662416 -0.027767312 0.0074435133 -0.049639083
000110 93 bd bc 3c ad cf e3 bc b4 92 3d be 93 07 e4 3b
       0.023039615 -0.027808988 -0.18512994 0.0069589107
000120 15 7f 39 bd af c5 1d bd d1 86 a5 bd 25 f1 8d bd
       -0.04528721 -0.038518604 -0.08082355 -0.0693076
000130 35 a4 82 3d 41 d6 43 bc 7d 52 76 bd 2f b6 07 be
       0.06378976 -0.011952938 -0.06013726 -0.13253091
000140 92 10 d1 bd 64 07 0d bd cd 33 fa bc 71 f6 70 bc
       -0.10208239 -0.034430876 -0.030542279 -0.014707194
000150 b5 c3 0e be 78 bd b3 bd 6d 04 15 bd 57 5d c7 bd
       -0.13941844 -0.08776373 -0.036381174 -0.097346
000160 7b 26 80 bd 6d 02 c2 bd 3e 1b 91 3c ea 5e e0 bd
       -0.062573396 -0.09473119 0.017713185 -0.109556034
000170 d2 73 9d bd c4 e4 31 bd 6f 67 53 bd 9c ba 8a bd
       -0.076881066 -0.04343106 -0.051612314 -0.06773874
000180 1c 2f c6 bd 67 cb 81 bc ae 7a a5 bc 10 ba 13 be
       -0.09676954 -0.01584406 -0.0202001 -0.14426446
000190 0c 1b 14 bd 23 7d 9a 3c 70 f2 bb bb 16 03 67 ba
       -0.036158606 0.018858498 -0.005735688 -0.00088124105
0001a0 ac 90 c3 bd 56 f7 8b bd 8d 16 cf bd 19 7b 10 bc
       -0.09549078 -0.06834285 -0.10111723 -0.008818411
0001b0 9e 9b 23 bd 48 78 40 bd b1 97 d8 bc 37 2a ad bd
       -0.03994333 -0.04698971 -0.02643952 -0.084553175
0001c0 fb 7d d3 bd fb 56 8f 3c 98 4c ff 3c 07 ad 0e bc
       -0.10326763 0.01749753 0.031164452 -0.008708245
0001d0 ac a4 8b 3c 8d 4b 84 bd 16 80 2e bd fe 4a c5 3c
       0.017046295 -0.06459723 -0.04260262 0.02408361
0001e0 31 09 b5 bc a2 3e 15 bd 2a f7 c2 bb 3f 0b 45 3d
       -0.02209911 -0.036436684 -0.0059498744 0.04810643
0001f0 85 55 be bc cd fe 8a bd c5 33 33 bb f3 ad 39 3d
       -0.023234138 -0.06786881 -0.002734409 0.045331907
000200 40 b1 fd ba 92 cd 7a bc 2a cb 83 3c 34 dc 57 3d
       -0.0019355193 -0.015307801 0.016088087 0.052700236
000210 c1 c4 ca 3c e3 b3 a0 3c 13 b3 fa 3c 5d 0a 06 bd
       0.024752023 0.019617027 0.030602967 -0.032724727
000220 ec ac 8b bd a8 58 5f b8 7d 1b 89 3d ed 2e 9d 3c
       -0.068200916 -5.324991e-05 0.06694696 0.019187415
000230 2e 9a ee bc 52 a9 00 3d 4c 5d 31 3a cb 03 ec bc
       -0.029126253 0.031411476 0.00067659165 -0.028810402
000240 36 a3 f1 bc 74 23 8f bc 9e 0a b1 3c 0d 11 12 bd
       -0.02949677 -0.01747296 0.021611508 -0.035660792
000250 ff 8a e6 bc 2e 8d d6 bc 0d a2 bf bc ce 75 cd bc
       -0.02814245 -0.026190367 -0.023392702 -0.025080588
000260 b9 62 63 bc 2f 3d 81 bc bc 3d bb bc 28 b2 f8 bc
       -0.013878518 -0.015776245 -0.022856586 -0.030358389
000270 68 39 51 bc 7e d2 15 bc bf 90 93 bd 8a 52 c6 bc
       -0.012770034 -0.0091444235 -0.072053425 -0.02420928
000280 3f cf 76 3c 46 9c f1 3a 25 d7 39 bd 35 6d 97 bc
       0.01506406 0.0018433414 -0.045371193 -0.018484691
000290 0a fb a8 3c bc c4 a6 bb 4e 90 74 bd 42 76 74 bd
       0.020627517 -0.0050893705 -0.059707932 -0.059683092
0002a0 55 5f 7f 3c 87 87 27 bd a2 5b 74 3c cd 0b 70 3c
       0.015586694 -0.040900733 0.014914425 0.014651251
0002b0 62 05 fd bb 63 80 4e bd f1 05 2d bc e9 a3 95 3c
       -0.007721589 -0.050415408 -0.010560499 0.018266635
0002c0 35 3e ac 3c 77 d9 c4 bc 3d 6f 21 3b f6 ec 15 bd
       0.021025756 -0.024029477 0.0024632954 -0.036602937
0002d0 ff 3f eb be d4 19 3f bd 82 2e 45 be 52 2b 17 3e
       -0.45947263 -0.04665549 -0.19256023 0.14762619
0002e0 a4 2a f2 3d 3a 86 7d 3e eb 7a 9d bd 08 06 21 3e
       0.11824539 0.24758235 -0.0768946 0.15724957
0002f0 9d c5 43 be 70 bb e3 bd 8a 0d 02 be 22 1d f0 3c
       -0.19118352 -0.11119735 -0.12700477 0.029310767
000300 55 28 c6 bd 06 0d 52 bd 4b 77 89 bd fc 22 fa bd
       -0.096756615 -0.05128195 -0.067122065 -0.12213704
000310 9e c7 53 bd ef 32 a9 bd 1f 1f 45 bd a7 fa 02 3d
       -0.05170404 -0.08261668 -0.048125383 0.031977322
000320 20 ac 47 bd d1 88 be bd 65 16 95 bd 02 a2 39 bd
       -0.048748136 -0.093034394 -0.07279662 -0.04532052
000330 c2 c6 30 bd 18 af 3a be 34 56 43 bd a5 00 0e bc
       -0.0431583 -0.18230855 -0.04768963 -0.008667146
000340 2f d8 ac bc dc ce f4 bd a8 2d 1c bb 1a be a5 bc
       -0.021099178 -0.11953518 -0.0023830924 -0.020232249
000350 fe 97 2d be 9e db 9a bc c3 c7 ca bd 3e c7 f4 bc
       -0.16952512 -0.01890355 -0.09901383 -0.029880162
000360 6d 1c 32 3e e0 31 68 3e 4a 48 a8 3d 10 30 a6 3d
       0.17393656 0.22675276 0.08216913 0.08114636
000370 62 5b f6 3d db 67 43 3e 5b f1 20 bd e4 5c c6 bc
       0.12029149 0.19082586 -0.039292675 -0.024214216
000380 6b 1b 85 3d 4c bc 00 3e cc c2 8e 3d e3 9b bf 3c
       0.0649937 0.1257183 0.06970748 0.023389762
000390 a3 be 75 3d bc 3d 36 3d d6 ef 05 bc 0e fc ba 3c
       0.05999626 0.04449247 -0.008174857 0.022825267
0003a0 6d ca b3 3b 41 14 e2 bc 89 5c 49 3d 2c 39 89 3d
       0.0054867775 -0.027597548 0.049160514 0.06700358
0003b0 b2 47 c8 bc ec ad e0 bc 1d 45 cb 3c 8a 06 10 bd
       -0.02444825 -0.027426682 0.02481323 -0.035162486
0003c0 3e d6 a6 3d bc a3 5e 3d 6b 50 72 3c f3 e4 8d 3d
       0.08146332 0.054355368 0.014789681 0.06928434
0003d0 1e 4c 26 3c 80 06 ea bc 17 27 60 3d d6 c7 53 bc
       0.010149984 -0.028567553 0.05472478 -0.012926063
0003e0 7a a0 64 bd 31 bf 9c bc ff 33 88 3d 70 04 74 bd
       -0.055817105 -0.019134136 0.066505425 -0.059574544
0003f0 f6 d0 c1 3b d6 8d 3c bd 9d 57 cc bc 64 d0 6f bd
       0.0059148027 -0.046033703 -0.024944121 -0.058548346

act_fc1.bias f4 [36]
000000 82 27 20 bd 32 94 ac 3c e2 e3 01 bd 98 f4 73 bd
       -0.039100178 0.021066759 -0.031711467 -0.059559435
000010 fa 38 4a bc 4c 8d a0 bd 3d 7e de bd b1 36 0b bc
       -0.012342686 -0.0783945 -0.10863922 -0.008496926
000020 82 83 2a 3d 48 b5 92 bc 47 71 a1 bc 24 4d 2d 3d
       0.041629322 -0.017908707 -0.019707335 0.042309895
000030 44 61 b8 3d 25 b8 08 3d bd 83 44 3c f9 98 c1 bb
       0.09002927 0.03337874 0.0119942995 -0.0059081283
000040 a7 01 88 3c 98 79 33 3d e6 c6 df 3c 8f 82 c4 3c
       0.01660235 0.043817133 0.027316522 0.023988036
000050 0b 9a 0d bd 54 c9 38 3d 40 91 21 3c 12 7f 99 3d
       -0.034570735 0.045113876 0.00986129 0.0749494
000060 35 3a f6 bc 92 34 16 bd 5a 59 02 3e 43 6a 48 bd
       -0.030057052 -0.03667123 0.12729397 -0.048929464
000070 ef 92 2c 3d 22 da 71 bc 26 bf dd bd c0 ad 70 3c
       0.042132314 -0.01476148 -0.10827474 0.014689863
000080 25 e3 ca 3b 29 ea 4e bc ad 25 30 bc 8a 68 7d 3d
       0.0061916285 -0.01262907 -0.01075117 0.061867274
