models/Training/AC_nmcts20/train_058.pth (torch, 424031 bytes, 15 tensors)

conv1.weight f4 [32, 5, 3, 3]
0.051568083 -0.20492621 -0.030403389 0.17960247 -0.23415582 -0.010314115 0.11385038 -0.14534594
0.031957746 0.02145786 0.0031951063 0.14622203 0.06821287 -0.1476729 0.14107291 -0.01868887
-0.02555081 0.11278159 1.4089153e-10 -6.037068e-13 -1.0214998e-12 -9.762857e-11 -7.291888e-12 -2.2720013e-09
-4.376309e-09 -7.79674e-12 -5.3951044e-13 0.12286445 0.01973142 -0.057765517 -0.11366976 -0.13676336
0.013103255 0.047242623 -0.14579538 0.09820222 7.174019e-12 1.0558865e-10 1.1590984e-11 -1.0502102e-11
4.4773998e-08 -4.2929852e-14 -1.0003825e-12 2.9131024e-11 -3.348438e-09 -0.013710492 0.21805343 0.09251079
0.08659487 -0.004403214 -0.03755204 0.07441687 0.07963343 0.112082876 0.042846583 -0.19157957
-0.04279446 -0.042938855 0.046917688 0.06813956 -0.09584581 -0.03678894 0.110137835 -2.3927765e-10
-8.1481696e-11 1.8218714e-12 -4.6288546e-06 -5.442017e-13 -5.373112e-12 -4.2471374e-06 -1.0310961e-11 -9.8210384e-11
-0.12532681 0.16727631 -0.099558905 -0.01784609 -0.1551633 -0.069026895 -0.13401353 0.09901203
-0.010029218 -1.6773246e-11 0.00015321518 -3.919102e-11 -5.573121e-12 2.61035e-10 -2.6669664e-05 -4.343688e-10
2.0491868e-06 -2.8143219e-11 -0.0707415 0.042200018 0.12187457 0.08066136 0.023402618 0.16345651
-0.118363276 -0.17093436 0.021607196 -0.043293986 -0.03382016 -0.1003427 -0.027743401 -0.04627871
0.101207145 0.1735434 0.001584278 0.07267887 -1.6189329e-09 -4.3525855e-10 -2.2860621e-11 1.6062244e-12
2.0205547e-07 -0.00012754754 2.3703622e-12 -4.873044e-12 8.997082e-12 0.074868806 -0.015864315 -0.13063806
-0.04776378 -0.049097348 0.09251753 0.058151703 -0.022945208 0.042970207 -6.2537414e-10 6.818287e-06
2.631375e-11 -0.00012021913 3.2480054e-14 -8.952542e-05 -5.320225e-07 3.8472226e-13 -1.281037e-11 0.050366245
-0.093425445 -0.11008029 0.06452991 0.05553082 -0.034991834 0.1513751 0.20427337 0.14861904
0.091792144 -0.00843817 -0.07134693 -0.0651106 -0.19296852 -0.12590668 0.0559993 0.041282184
-0.14222345 -5.752928e-10 1.3621194e-12 -2.1524912e-10 -5.406534e-12 -1.4821402e-09 5.6469857e-10 1.3391932e-11
5.5426913e-11 -8.435882e-07 0.061041042 0.11867016 0.061228994 -0.18913591 0.1111549 0.013199545
0.050062794 0.07021608 -0.002045385 9.1679896e-05 2.1097404e-10 -2.7928704e-09 -7.546485e-13 -2.4514224e-10
7.446824e-12 -9.7732005e-12 4.505648e-05 1.0117622e-12 0.1451612 -0.068350084 0.11877666 0.040586915
-0.016359502 0.042290077 0.01770717 0.030001918 -0.1412102 0.1176033 -0.13715006 0.10471942
0.07892329 0.050941113 0.12623799 0.11189658 0.045507055 -0.12381728 3.7250696e-11 9.055436e-12
-1.8630088e-08 -0.0001577025 -1.8211996e-10 -1.2027358e-12 -6.0328498e-09 3.0369202e-10 -4.0270847e-13 0.13613316
-0.041744567 0.1376573 0.0059324955 0.0324353 0.17405061 0.115782104 0.042906772 -0.0110903075
3.0989655e-12 -5.92994e-12 7.1527966e-12 3.6771708e-10 6.197417e-13 -3.6171747e-12 1.7581303e-11 3.162661e-08
0.00011633826 0.09347975 0.14740668 0.13844906 0.17057785 -0.05706518 -0.04439588 0.1079185
0.1692674 -0.09527119 0.09066573 0.12333309 0.04426435 0.022847107 -0.09588369 -0.063831985
0.061865788 -0.101199105 -0.0066941087 -1.2354482e-05 1.02557254e-10 1.3953075e-06 -1.6171581e-12 -4.7222916e-06
-4.659097e-10 1.05080826e-10 2.3944196e-08 -5.205961e-10 0.019506931 0.082377866 0.030771699 0.068507835
00000000: 0e39 533d 2dd8 51be 8710 f9bc b6e9 373e
00000010: 8bc6 6fbe 89fc 28bc 632a e93d 91d5 14be
00000020: 20e6 023d 65c8 af3c fd64 513b 3abb 153e
00000030: 30b3 8b3d 9137 17be 6b75 103e 6719 99bc
00000040: ef4f d1bc 09fa e63d 71e9 1a2f a9ed 29ab
00000050: 69c3 8fab 00b0 d6ae be47 00ad 7821 1cb1
00000060: 6c5e 96b1 6529 09ad d3db 17ab 5ba0 fb3d
00000070: c9a3 a13c 899b 6cbd b1cb e8bd b20b 0cbe
00000080: 09af 563c 7b81 413d 624b 15be 3f1e c93d
00000090: d269 fc2c 2031 e82e 27e9 4b2d 43c1 38ad
000000a0: 884d 4033 c056 41a9 94ca 8cab 9e1e 002e
000000b0: 581a 66b1 f9a1 60bc 6649 5f3e 4c76 bd3d
000000c0: a758 b13d d648 90bb 2bd0 19bd df67 983d
000000d0: da16 a33d b58b e53d e67f 2f3d 6f2d 44be
000000e0: 3e49 2fbd a7e0 2fbd c32c 403d c18c 8b3d
000000f0: cf4a c4bd 00b0 16bd f28f e13d 568b 83af
00000100: 1e2e b3ae eb33 002c 8f51 9bb6 dd2d 19ab
00000110: b10c bdac a282 8eb6 7164 35ad 88f7 d7ae
00000120: ac55 00be 7b4a 2b3e 8ae5 cbbd f731 92bc
00000130: 21e3 1ebe f95d 8dbd d83a 09be d2c6 ca3d
00000140: 9751 24bc fe89 93ad 63a8 2039 2a5d 2cae
00000150: 3616 c4ac 6981 8f2f abb8 dfb7 f9cb eeaf
00000160: c384 0936 e58c f7ad ebe0 90bd edd9 2c3d
00000170: 6099 f93d c831 a53d d9b6 bf3c 2561 273e
00000180: 7268 f2bd 6b09 2fbe 9301 b13c 0955 31bd
00000190: 0287 0abd 7980 cdbd 2146 e3bc bf8e 3dbd
000001a0: b145 cf3d 5cb5 313e 8ca7 cf3a a9d8 943d
000001b0: 2381 deb0 3249 efaf 8b15 c9ad 550e e22b
000001c0: 96f4 5834 48be 05b9 a6cc 262c 7a74 abac
000001d0: 4147 1e2d d154 993d e1f5 81bc fcc5 05be
000001e0: f4a3 43bd 4d1a 49bd d579 bd3d 7b30 6e3d
000001f0: 97f7 bbbc 8701 303d cbe6 2bb0 a4c8 e436
00000200: 4c75 e72d 271e fcb8 f446 1229 98bf bbb8
00000210: 4fd0 0eb5 5294 d82a c75c 61ad d64c 4e3d
00000220: d755 bfbd c671 e1bd 4228 843d 4974 633d
00000230: 9953 0fbd 1302 1b3e 0a2d 513e 972f 183e
00000240: 85fd bb3d 4040 0abc 571e 92bd b558 85bd
00000250: 8a99 45be aeed 00be 865f 653d 8217 293d
00000260: 06a3 11be a222 1eb0 86b3 bf2b 3eab 6caf
00000270: bb39 beac 2cb4 cbb0 2139 1b30 e697 6b2d
00000280: 28c5 732e f172 62b5 2c06 7a3d 5709 f33d
00000290: 41cb 7a3d d8ac 41be 2ea5 e33d e842 583c
000002a0: a50e 4d3d 73cd 8f3d de0b 06bb 4544 c038
000002b0: eaf7 672f b2ec 3fb1 286a 54ab b4c4 86af
000002c0: 8401 032d 95ee 2bad 07fb 3c38 9364 8e2b
000002d0: 23a5 143e 21fb 8bbd 2d41 f33d 773e 263d
000002e0: 5d04 86bc 5c38 2d3d a10e 913c 95c6 f53c
000002f0: 6899 10be 00da f03d 1171 0cbe 2377 d63d
00000300: 89a2 a13d a1a7 503d 8844 013e 092a e53d
00000310: 9b65 3a3d ea93 fdbd 8ed4 232e 0f4e 1f2d
00000320: ff07 a0b2 f15c 25b9 363e 48af 2045 a9ab
00000330: 8249 cfb1 daf4 a62f 68b4 e2aa 7e66 0b3e
00000340: 5afc 2abd 09f6 0c3e 6165 c23b e1da 043d
00000350: 533a 323e 2b1f ed3d 03bf 2f3d 1fb4 35bc
00000360: 0012 5a2c 27a4 d0ac aaaa fb2c 9427 ca2f
00000370: 1971 2e2b 3a89 7eac 93a5 9a2d d3d5 0733
00000380: a1fa f338 5072 bf3d c7f1 163e 97c5 0d3e
00000390: f6ab 2e3e 2ebd 69bd 74d8 35bd 6004 dd3d
000003a0: 6f54 2d3e 8b1d c3bd f4ae b93d 0f96 fc3d
000003b0: 894e 353d db29 bb3c ab5e c4bd 58ba 82bd
000003c0: fb66 7d3d 7a41 cfbd 415a dbbb 1946 4fb7
000003d0: 9a86 e12e 6746 bb35 4398 e3ab 2d74 9eb6
000003e0: 7b11 00b0 3f13 e72e d8ad cd32 b219 0fb0
000003f0: 00cd 9f3c bab5 a83d ee14 fc3c d64d 8c3d

conv1.bias f4 [32]
0.11661321 0.0069887238 -0.034883987 0.09180719 -0.07497097 -0.1405297 -0.028012663 0.10078204
0.06928349 -0.112635255 0.1809094 -0.0513152 0.16670392 0.15042655 -0.104953505 -0.025814619
-0.040261216 -0.06805525 -0.034790397 0.16583833 -0.052547205 0.06901652 -0.0063939546 -0.06655317
-0.0793558 0.066047825 -0.121361084 0.15994367 0.12594196 -0.07447884 -0.110053785 0.12471118
00000000: e8d2 ee3d aa01 e53b 83e2 0ebd 6805 bc3d
00000010: 618a 99bd 05e7 0fbe d07a e5bc d066 ce3d
00000020: 81e4 8d3d 50ad e6bd 5040 393e e32f 52bd
00000030: 6fb4 2a3e 6b09 1a3e ddf1 d6bd 2e79 d3bc
00000040: f2e8 24bd 8d60 8bbd 6080 0ebd 86d1 293e
00000050: bd3b 57bd 8958 8d3d 6184 d1bb 074d 88bd
00000060: 4b85 a2bd 1544 873d 298c f8bd 46c8 233e
00000070: eef6 003e 5d88 98bd e163 e1bd 9368 ff3d

conv2.weight f4 [64, 32, 3, 3]
-0.025245765 0.031156383 -0.008699289 0.033091966 -0.053304657 -0.0543235 -0.05268547 0.012701741
-0.021112815 -0.0470823 -0.041987233 -0.042890754 0.026730157 0.03044565 0.036754653 0.02398819
0.017869107 0.06759728 -0.057974488 -0.044824056 -0.04312454 0.009694377 0.040918052 -0.007769577
0.003775291 0.0047478303 -0.054928053 -0.07966506 -0.01659507 0.027741492 -0.0025253552 -0.0035929012
-0.0010104621 0.031211888 0.02017631 0.047598444 -0.003056117 0.034521267 -0.05004959 0.01797522
0.050967995 -0.033466816 -0.0030086683 6.476993e-05 -0.033953473 -0.052931543 -0.019680176 -0.012057066
-0.05259635 -0.033123996 -0.0016186875 -0.031957168 0.05573222 0.024067292 -0.013810928 -0.04718877
-0.072542675 -0.004528115 0.024094613 -0.007377928 0.02295349 -0.02559344 -0.03627309 0.018820366
-0.02681806 0.027125686 -0.043953877 0.08376787 0.02810849 0.046885815 -0.011061361 -0.0040483507
-0.08647414 -0.021288032 0.0064349016 -0.06809477 0.05041304 -0.070903875 -0.035680007 0.029661126
0.046483055 -0.0043388004 -0.06297855 -0.02740939 0.028208477 -0.073231496 -0.042476118 0.038557526
0.041049954 -0.01631163 -0.061478388 0.021655194 -0.0672189 -0.05869505 -0.06050212 -0.08549834
-0.04720077 -0.024046551 -0.022347657 0.0042990022 0.04356827 -0.025547184 -0.07075166 0.011025199
0.039941415 -0.025227766 0.02521461 -0.05535783 -0.09321375 -0.03425316 -0.08012406 0.0024559838
0.06477886 -0.09416966 -0.0476637 -0.0495926 -0.0020925293 -0.07413737 -0.057402503 0.03180126
-0.07045545 0.03132913 -0.0156064555 -0.045073576 0.008452462 -0.013213638 -0.02869847 0.0011000541
-0.060266703 -0.06687145 -0.031117007 0.009822558 -0.080802806 -0.017108588 0.00870725 -0.044451978
-0.04095865 -0.040177386 -0.045190636 -0.017069 -0.038693342 -0.02170308 -0.052408427 -0.06273349
0.047699686 -0.041915003 -0.08185744 -0.042511903 -0.059462585 -0.034839522 -0.013222063 0.011603689
-0.022821901 -0.04998162 0.021747561 0.00052497594 -0.069746256 -0.00818898 0.060674243 -5.71073e-05
0.043934688 -0.062599726 -0.034504075 0.009781109 0.046283096 -0.01249431 -0.05529202 0.006597755
0.047867402 -0.028994592 0.012467396 0.027271353 -0.073877394 -0.050617363 -0.015742334 0.04443044
-0.027610013 -0.006000324 -0.040355362 -0.09428349 -0.066596635 0.02873513 -0.011341256 -0.024314528
0.057993364 0.0036249713 -0.0016052087 -0.0006473838 -0.029064447 -0.0046774824 0.008757747 -0.04998493
-0.019732654 0.06177972 -0.026068617 -0.015921237 -0.07605786 -0.07391479 0.041327838 -0.014145044
-0.014411915 -0.057527605 -0.034829527 -0.009321285 -0.07439623 0.0051523666 -0.055487465 0.039249722
-0.03283448 -0.062023617 0.021600857 0.0022269438 -0.051718302 0.012500624 0.05748354 0.08133611
0.01617814 -0.016851846 0.018725248 -0.045055438 0.017923767 -0.039408945 0.015209353 -0.02345076
-0.033721182 0.007418481 0.04539742 -0.0070837997 -0.010894253 -0.033576936 -0.0545398 0.024691686
-0.0011464858 0.020541362 0.0032968437 0.036228556 -0.017241161 0.040679257 -0.024091167 0.05220349
0.04015056 -0.019070057 -0.017507045 -0.0038967049 -0.067346066 -0.026302489 0.011753923 -0.047089897
-0.0044181123 -0.05716418 -0.026060052 -0.045763373 -0.034437593 0.026055092 0.044709075 0.01861345
00000000: 35d0 cebc ac3b ff3c 7687 0ebc 718b 073d
00000010: fc55 5abd 5182 5ebd b8cc 57bd f71a 503c
00000020: c8f4 acbc 5fd9 40bd cefa 2bbd 37ae 2fbd
00000030: 34f9 da3c 2869 f93c 0c8c 163d e182 c43c
00000040: 3c62 923c 7170 8a3d a876 6dbd 6e99 37bd
00000050: 5ca3 30bd 2ad5 1e3c b099 273d f097 febb
00000060: df6a 773b b093 9b3b 3dfc 60bd 6f27 a3bd
00000070: 62f2 87bc 2042 e33c 6e80 25bb e176 6bbb
00000080: 7b71 84ba 13b0 ff3c ca48 a53c 96f6 423d
00000090: 2349 48bb 2c66 0d3d cd00 4dbd c540 933c
000000a0: d1c3 503d 8014 09bd 142d 45bb 17d5 8738
000000b0: cc12 0bbd bfce 58bd 5238 a1bc 008b 45bc
000000c0: 456f 57bd 07ad 07bd 242a d4ba 85e5 02bd
000000d0: 7847 643d c528 c53c 3b47 62bc 0349 41bd
000000e0: 4191 94bd 9560 94bb 1162 c53c 8cc2 f1bb
000000f0: f508 bc3c 55a9 d1bc 1793 14bd 2b2d 9a3c
00000100: 8cb1 dbbc b036 de3c fb08 34bd 7d8e ab3d
00000110: c743 e63c 570b 403d b63a 35bc 07a8 84bb
00000120: 5b19 b1bd 3d64 aebc dedb d23b 4575 8bbd
00000130: e77d 4e3d 0d36 91bd 3325 12bd e4fb f23c
00000140: 0465 3e3d 7f2c 8ebb e6fa 80bd a889 e0bc
00000150: 7715 e73c 65fa 95bd 70fb 2dbd 7fee 1d3d
00000160: ff23 283d f89f 85bc c3d0 7bbd 3c66 b13c
00000170: 10aa 89bd 396a 70bd 12d1 77bd c119 afbd
00000180: 9855 41bd 46fd c4bc 6f12 b7bc a5de 8c3b
00000190: a474 323d 5448 d1bc 3fe6 90bd 09a3 343c
000001a0: 9c99 233d 76aa cebc df8e ce3c e4be 62bd
000001b0: dae6 bebd 0b4d 0cbd 1518 a4bd 92f4 203b
000001c0: c7aa 843d 06dc c0bd 033b 43bd 9c21 4bbd
000001d0: d122 09bb 55d5 97bd e31e 6bbd 0a42 023d
000001e0: f24a 90bd f952 003d 38b2 7fbc 129f 38bd
000001f0: 327c 0a3c 047e 58bc 0e19 ebbc b12f 903a
00000200: 38da 76bd e6f3 88bd 18e9 febc cbee 203c
00000210: f17b a5bd 4f27 8cbc daa8 0e3c 4713 36bd
00000220: 42c4 27bd 0b91 24bd d119 39bd 4ad4 8bbc
00000230: e97c 1ebd a8ca b1bc 38aa 56bd 6a7a 80bd
00000240: bf60 433d 11af 2bbd e0a4 a7bd f620 2ebd
00000250: 0a8f 73bd e3b3 0ebd 5aa1 58bc 661d 3e3c
00000260: fff4 babc 87b9 4cbd f127 b23c 8a9e 093a
00000270: 20d7 8ebd 122b 06bc 8e85 783d 7f86 6fb8
00000280: dcf4 333d 4934 80bd 2554 0dbd f240 203c
00000290: 5893 3d3d efb4 4cbc e379 62bd fb31 d83b
000002a0: 9c10 443d 1186 edbc 0d44 4c3c 2c68 df3c
000002b0: 084d 97bd 2754 4fbd 11f6 80bc b1fc 353d
000002c0: 652e e2bc 5e9e c4bb aa4b 25bd b417 c1bd
000002d0: d163 88bd ef65 eb3c add0 39bc 432f c7bc
000002e0: 738a 6d3d ed90 6d3b de65 d2ba 31b5 29ba
000002f0: 9018 eebc 9145 99bb a77c 0f3c ffbc 4cbd
00000300: 60a6 a1bc bb0c 7d3d da8d d5bc 416d 82bc
00000310: 39c4 9bbd a360 97bd 6147 293d 9dc0 67bc
00000320: f41f 6cbc 11a2 6bbd 68a9 0ebd 4eb8 18bc
00000330: 0d5d 98bd 2fd5 a83b d346 63bd 51c4 203d
00000340: 737d 06bd 7a0c 7ebd 48f4 b03c ebf1 113b
00000350: 92d6 53bd 6bcf 4c3c dc73 6b3d 8c93 a63d
00000360: 0588 843c e20c 8abc b165 993c 0d8c 38bd
00000370: ddd4 923c 466b 21bd a630 793c cf1b c0bc
00000380: 391f 0abd bb16 f33b a5f2 393d 381f e8bb
00000390: cf7d 32bc f887 09bd 2065 5fbd 3846 ca3c
000003a0: ae45 96ba 5c46 a83c dc0f 583b 6564 143d
000003b0: 563d 8dbc 4b9f 263d d75a c5bc 54d3 553d
000003c0: ea74 243d cf38 9cbc ef6a 8fbc dc5f 7fbb
000003d0: bcec 89bd 5178 d7bc 8793 403c 56e1 40bd
000003e0: d0c5 90bb fd24 6abd e47b d5bc 6072 3bbd
000003f0: 6f0e 0dbd 7d71 d53c dd20 373d 3c7b 983c

conv2.bias f4 [64]
0.02301349 0.0030192393 -0.06885892 -0.05209209 -0.015231993 0.066803925 0.06327007 0.022293558
-0.014536296 0.071267694 -0.038035695 -0.03718867 0.05284529 -0.048483048 0.0019707775 0.0024083732
0.05612871 0.08465349 0.0476243 0.051179074 0.009362738 -0.03102647 0.06396557 0.05111468
0.027971538 0.099700436 -0.015094856 0.05041547 -0.051800493 -0.0260389 0.07354777 0.06017403
0.015246991 -0.0073528066 0.00932142 0.083905645 0.026828919 -0.02752095 0.0020860254 0.08754554
0.047469888 -0.02060288 -0.056872074 -0.022484683 -0.001789692 0.065687165 -0.042103346 0.08603327
0.045642897 -0.038568255 0.043184876 0.06166578 0.071034245 -0.0059628887 0.029384442 0.083267175
-0.0072419266 0.035270803 -0.03295368 -0.009222501 0.02274138 -0.022776626 -0.035693742 -0.01513491
00000000: c986 bc3c 6ede 453b e805 8dbd 845e 55bd
00000010: 9c8f 79bc 7fd0 883d bd93 813d fba0 b63c
00000020: a529 6ebc ccf4 913d 51cb 1bbd 2653 18bd
00000030: 4e74 583d 2996 46bd 2928 013b ccd5 1d3b
00000040: 38e7 653d cf5e ad3d b311 433d 26a1 513d
00000050: 2b66 193c 392b febc 6100 833d a05d 513d
00000060: 9124 e53c be2f cc3d 6a50 77bc 7480 4e3d
00000070: c12c 54bd 884f d5bc 37a0 963d 0b79 763d
00000080: 84ce 793c d0ef f0bb dfb8 183c b9d6 ab3d
00000090: 52c8 db3c 9e73 e1bc b3b5 083b 134b b33d
000000a0: c96f 423d 5fc7 a8bc b1f2 68bd cc31 b8bc
000000b0: 1994 eaba fe86 863d 8f74 2cbd 3632 b03d
000000c0: 0cf4 3a3d bff9 1dbd a0e2 303d 4295 7c3d
000000d0: 677a 913d 5664 c3bb a4b7 f03c fb87 aa3d
000000e0: af4d edbb 1e78 103d 70fa 06bd f919 17bc
000000f0: 214c ba3c 0c96 babc 9a33 12bd 6af8 77bc

conv3.weight f4 [128, 64, 3, 3]
0.023647232 0.043761145 -0.00096728373 -0.021899596 -0.021307144 -0.02074064 0.0017823364 -0.009375784
0.005791842 0.022617284 0.008895224 0.01893899 -0.03862572 0.02438525 -0.00882816 -0.016535606
-0.009819945 -0.0073593208 0.056622308 -0.025676612 -0.009295681 0.022528308 -0.0064997044 0.023387907
-0.04678876 -0.03237028 0.025201866 0.0071542445 -0.012429183 0.07995582 -0.019213412 0.014496621
0.10039522 0.00871783 0.045113847 -0.050776143 0.010565876 -0.008334761 -0.040465448 -0.027648127
-0.05317062 -0.04192007 -0.04494086 -0.024651298 0.013777639 0.05193447 -0.011123374 -0.02565469
0.04925469 0.0032269945 -0.04829948 0.02254519 -0.055326514 -0.008006253 0.022936352 -0.02887698
-0.011262586 -0.047729712 -0.042691953 -0.021146554 0.004219753 -0.02520085 -0.0077406773 0.004890384
-0.0067488826 0.031292204 -0.020926245 0.024324078 -0.0078920545 0.019649874 -0.005109586 -0.0018269987
0.0060274694 0.0121825235 -0.029739976 0.029666563 0.015088342 -0.0043848716 0.03277358 -0.034684435
-0.01888086 -0.020991445 -0.034076437 -0.05846592 -0.042475644 -0.057226166 0.02205087 -0.029240517
0.03712071 -0.008558986 0.036119822 0.024832185 -0.010552627 0.0035852876 0.013810131 -0.008466549
0.027469156 0.016005302 -0.036893476 -0.047745265 0.046626735 0.025270648 0.03681641 0.048979025
-0.007149592 0.023856547 -0.054195754 0.06524917 -0.028623417 0.038616527 -0.023352416 0.0014796386
0.004548288 -0.03800738 -0.0038209292 -0.0060293768 0.088185355 -0.0053996528 -0.014635132 -0.0192445
0.005331924 0.0125211375 0.0033055884 0.032285977 0.00864213 -0.014655955 -0.05289302 0.016051788
-0.015905412 -0.068905786 -0.026693705 0.0041378606 0.0270856 0.0117084775 0.029336302 -0.0034082246
0.002555301 -0.046857025 0.038448296 -0.065592475 -0.051014643 -0.0039134836 -0.022134885 -0.023901323
0.0066728066 -0.024812507 -0.059729468 -0.002627912 -0.01588967 -0.051221773 0.0052773384 -0.010008007
0.025705488 -0.005404251 0.025706483 0.0030098022 0.024667408 0.036635436 -0.008723145 0.0053636534
0.0067494106 0.031396013 0.0155242765 -0.054713115 0.026135784 -0.024402628 -0.011187094 0.040530212
-0.04972214 0.016911346 0.028821515 -0.004185896 0.04920122 0.07825772 -0.0032332642 -0.040989596
-0.033060316 0.051957786 0.017129984 -0.005963285 -0.004972342 0.029206045 0.004108328 -0.0288955
-0.03172007 -0.018922651 -0.01341576 0.017846033 0.0634591 -0.026975922 0.03161329 0.030406142
-0.04376494 0.033369314 0.001497047 -0.051458843 -0.046449095 -0.050503872 0.012775426 0.01974661
-0.09306454 -0.0065160645 -0.05204404 -0.08111082 0.019031573 -0.05030383 0.073438846 -0.009579047
-0.03655776 0.045710523 -0.053041786 0.022374341 -0.012705342 -0.073390774 0.017905043 0.0728144
0.013654027 0.0038265397 0.009946811 0.039655577 -0.019956656 -0.005627085 -0.0039313994 -0.021516211
-0.022648644 -0.03989857 0.038689036 0.030568456 0.010090288 0.0116006415 -0.0524114 0.01323181
0.014381941 0.051283848 0.013189038 -0.017462185 -0.035936434 0.0017127031 -0.03699652 -0.021508312
-0.009345648 -0.07310949 0.031427972 0.009909568 -0.0035987126 -0.028329367 -0.018254606 0.01158175
-0.014889095 -0.012910762 -0.0105945915 -0.0082456805 -0.03842382 0.0015665307 0.017177666 0.040316697
00000000: d7b7 c13c e33e 333d 5091 7dba c866 b3bc
00000010: 528c aebc 46e8 a9bc 499d e93a e39c 19bc
00000020: 7ec9 bd3b e247 b93c 46bd 113c f125 9b3c
00000030: 0136 1ebd 93c3 c73c fda3 10bc ae75 87bc
00000040: d6e3 20bc 7526 f1bb cbec 673d c257 d2bc
00000050: e94c 18bc 498d b83c 79fb d4bb ff97 bf3c
00000060: 92a5 3fbd b396 04bd 2574 ce3c 276e ea3b
00000070: c6a3 4bbc e1bf a33d 7265 9dbc 3c83 6d3c
00000080: 029c cd3d 3bd5 0e3c 4cc9 383d a5fa 4fbd
00000090: 7f1c 2d3c 858e 08bc 19bf 25bd 537e e2bc
000000a0: 70c9 59bd 61b4 2bbd e813 38bd 85f1 c9bc
000000b0: 9bbb 613c 3db9 543d d03e 36bc c929 d2bc
000000c0: 49bf 493d fc7b 533b add5 45bd b1b0 b83c
000000d0: 0e9e 62bd a92c 03bc 04e5 bb3c 6b8f ecbc
000000e0: b686 38bc 3b80 43bd c2dd 2ebd 8a3b adbc
000000f0: db45 8a3b 0372 cebc 82a5 fdbb 843f a03b
00000100: bb25 ddbb 412c 003d 846d abbc 4a43 c73c
00000110: ad4d 01bc c6f8 a03c 506e a7bb e777 efba
00000120: 1482 c53b 3599 473c 40a1 f3bc 4b07 f33c
00000130: 1835 773c f8ae 8fbb 973d 063d 4411 0ebd
00000140: 09ac 9abc 40f6 abbc bc93 0bbd f679 6fbd
00000150: f1fa 2dbd fc65 6abd 07a4 b43c cf89 efbc
00000160: e30b 183d fd3a 0cbc 61f2 133d de6c cb3c
00000170: ede4 2cbc 25f7 6a3b e343 623c 48b7 0abc
00000180: ff06 e13c 8d1d 833c 9d1d 17bd 8a90 43bd
00000190: adfb 3e3d 6404 cf3c cecc 163d 3b9e 483d
000001a0: 2047 eabb ce6e c33c 5efc 5dbd 5ba1 853d
000001b0: a87b eabc 5d2c 1e3d 914d bfbc 6ff0 c13a
000001c0: ce09 953b a0ad 1bbd 8e68 7abb 1492 c5bb
000001d0: 869a b43d 92ef b0bb 31c8 6fbc a4a6 9dbc
000001e0: 6cb7 ae3b 7525 4d3c 92a2 583b 4d3e 043d
000001f0: b897 0d3c 881f 70bc 5aa6 58bd 0a7f 833c
00000200: 114c 82bc 7a1e 8dbd c2ac dabc e496 873b
00000210: 9fe2 dd3c ead4 3f3c af52 f03c 855c 5fbb
00000220: d676 273b 27ed 3fbd f67b 1d3d 5955 86bd
00000230: bbf4 50bd ae3c 80bb 3854 b5bc b5cc c3bc
00000240: 8fa7 da3b 9943 cbbc e3a6 74bd 0c39 2cbb
00000250: 0e2b 82bc eccd 51bd 86ed ac3b a0f8 23bc
00000260: 5194 d23c 2516 b1bb 6796 d23c 1a40 453b
00000270: 4e13 ca3c 0a0f 163d 86eb 0ebc 96c1 af3b
00000280: 292a dd3b 1b99 003d 8959 7e3c dc1a 60bd
00000290: b61a d63c 05e8 c7bc 134a 37bc 0203 263d
000002a0: 71a9 4bbd aa89 8a3c 191b ec3c d729 89bb
000002b0: 3887 493d 9545 a03d 2ce5 53bb b5e4 27bd
000002c0: 416a 07bd b0d1 543d 2e54 8c3c a967 c3bb
000002d0: 07ef a2bb 8441 ef3c 279f 863b 41b6 ecbc
000002e0: e7ec 01bd ad03 9bbc c7cd 5bbc d831 923c
000002f0: d8f6 813d 9cfc dcbc f07c 013d 4d16 f93c
00000300: de42 33bd 43ae 083d 9038 c43a 82c6 52bd
00000310: 6841 3ebd 26dd 4ebd 0550 513c a5c3 a13c
00000320: 9f98 bebd b684 d5bb 222c 55bd 6e1d a6bd
00000330: 1ae8 9b3c 640b 4ebd 1b67 963d 6ff1 1cbc
00000340: 97bd 15bd f53a 3b3d 5842 59bd 654a b73c
00000350: 112a 50bc e74d 96bd 99ad 923c b71f 953d
00000360: 24b5 5f3c afc6 7a3b f3f7 223c e36d 223d
00000370: 247c a3bc 6963 b8bb f8d2 80bb c442 b0bc
00000380: a689 b9bc af6c 23bd 6578 1e3d b36a fa3c
00000390: bc51 253c 9e10 3e3c 56ad 56bd 3cca 583c
000003a0: 3ca2 6b3c 030f 523d d616 583c db0c 8fbc
000003b0: 1532 13bd c87c e03a aa89 17bd 3332 b0bc
000003c0: 7d1e 19bc 6eba 95bd 9eba 003d be5b 223c
000003d0: 61d8 6bbb fd12 e8bc af8a 95bc 61c1 3d3c
000003e0: 64f1 73bc a987 53bc f094 2dbc e418 07bc
000003f0: 4c62 1dbd 0c54 cd3a 2db8 8c3c 1f23 253d

conv3.bias f4 [128]
-0.015272886 -0.02689191 -0.022024628 0.065097935 -0.017030684 0.0031419992 -0.016062291 0.039218288
-0.020301048 0.0122941965 -0.018650142 -0.015121696 0.04588462 -0.014664728 0.01975658 0.03311653
0.05430756 0.03970264 0.023753723 0.009388539 0.03339527 0.026664214 0.05515247 0.031028286
-0.019206632 0.015788497 0.05185647 0.00157049 0.021678787 -0.03725475 -0.049235135 0.024724282
-0.031352654 0.037933867 0.007957696 -0.030084401 0.04710274 -0.035281584 0.008726289 0.0052104695
0.033816006 -0.011973059 0.011185941 -0.027539164 0.01832071 0.075080186 0.0042958437 0.009701313
0.017288497 0.0033712236 0.007395736 0.022491187 -0.03455944 0.059734035 -0.0076018954 0.026164548
-0.0013302722 0.065158896 -0.015486342 0.029970022 0.041293852 0.031565998 0.007654243 -0.007143581
-0.022644948 0.041868012 0.043267872 0.028586818 0.020162737 0.0125189265 0.0034409666 0.028374223
-0.0069609946 0.021956325 0.02485503 0.05715829 0.03706647 0.051426493 0.018686771 0.031310137
-0.03454716 0.03767123 0.007409976 -0.029283514 0.010136001 -0.00012572747 0.04391711 -0.0053514764
0.012533736 0.017562732 -0.025691675 0.0826027 -0.007548536 0.02398045 -0.01985228 -0.0067155054
0.00995624 0.024661016 -0.01882472 0.037793465 0.036448304 0.046616156 -0.016675835 -0.021359248
0.04345244 0.06027302 -0.002020584 0.043886166 -0.042814232 0.012197557 0.023726037 0.0070262593
-0.02217912 -0.005405736 0.04715796 0.050838355 0.006004583 -0.0077191377 -0.014058778 0.031169292
-0.021840777 0.011872397 -0.015819201 0.006213642 -0.018986959 -0.030761428 -0.019715708 0.06469991
00000000: 203b 7abc 6c4c dcbc fe6c b4bc 1152 853d
00000010: ef83 8bbc 00ea 4d3b 1195 83bc 5ba3 203d
00000020: 624e a6bc 996d 493c 2fc8 98bc fdc0 77bc
00000030: 83f1 3b3d 5444 70bc 8dd8 a13c 33a5 073d
00000040: 9b71 5e3d 3c9f 223d 2b97 c23c 63d2 193c
00000050: 7bc9 083d e96e da3c 8ee7 613d 082f fe3c
00000060: 3a57 9dbc e156 813c 7367 543d e6d8 cd3a
00000070: b697 b13c 7098 18bd c8aa 49bd 948a ca3c
00000080: a46b 00bd 8b60 1b3d ff60 023c 9073 f6bc
00000090: cdee 403d 6c83 10bd b5f8 0e3c 96bc aa3b
000000a0: a782 0a3d a62a 44bc 3d45 373c d099 e1bc
000000b0: 5015 963c a4c3 993d 26c4 8c3b 42f2 1e3c
000000c0: 9ba0 8d3c bfef 5c3b ee57 f23b 703f b83c
000000d0: 338e 0dbd adab 743d 5219 f9bb 0957 d63c
000000e0: 875c aeba 0772 853d 6dba 7dbc b183 f53c
000000f0: be23 293d 594b 013d 72d0 fa3b b314 eabb
00000100: e681 b9bc cb7d 2b3d a739 313d e72e ea3c
00000110: 532c a53c 2f1c 4d3c d781 613b 0f71 e83c
00000120: 0e19 e4bb c0dd b33c c79c cb3c d01e 6a3d
00000130: 03d3 173d 96a4 523d 0015 993c 0f3f 003d
00000140: 5381 0dbd 264d 1a3d 62cf f23b fbe3 efbc
00000150: 7811 263c b6d5 03b9 6de2 333d 705b afbb
00000160: 4d5a 4d3c b8df 8f3c 5977 d2bc 9b2b a93d
00000170: b659 f7bb a672 c43c 40a1 a2bc be0d dcbb
00000180: 7f1f 233c e605 ca3c 4d36 9abc 52cd 1a3d
00000190: d14a 153d 95f0 3e3d c39b 88bc 97f9 aebc
000001a0: 30fb 313d d8e0 763d c66b 04bb fbc1 333d
000001b0: fa5d 2fbd 43d8 473c 1b5d c23c 893c e63b
000001c0: fcb0 b5bc 9a22 b1bb b428 413d e13b 503d
000001d0: 18c2 c43b d2f0 fcbb ca56 66bc be56 ff3c
000001e0: 6eeb b2bc 7184 423c 4597 81bc cf9b cb3b
000001f0: 8a8a 9bbc 64ff fbbc d682 a1bc 6381 843d

act_conv1.weight f4 [4, 128, 1, 1]
0.005720198 5.9891445e-12 0.004940828 -0.119444154 0.010854485 -6.0716335e-05 0.049572423 0.015497711
0.06938561 -0.104322515 -0.013705569 0.01797312 -0.12994784 0.010669 0.029622942 -0.04725125
0.0069309664 -0.061027832 0.02803486 0.008654671 -0.020720925 0.023936793 -0.093941405 0.0060596517
0.016258921 0.03568491 -0.013332523 -0.039176475 -0.001005261 -0.042090837 -0.02291853 0.035923567
-5.851501e-12 -0.0016331507 -0.02631208 0.050010484 -0.06788313 -0.01827929 -0.0012607685 -8.870674e-05
-0.04095541 -0.014962522 -0.03810118 -0.055278406 -0.0075988118 -0.081626534 -0.008141734 -0.08143409
-0.002403801 -0.031518806 0.030675601 0.026529783 -0.010358357 -0.03713541 -0.06368303 0.05856884
-7.1468536e-13 -0.10706487 -0.07118371 -0.01820843 -0.07897921 0.028539794 0.032426726 9.253478e-11
0.060008284 -0.049416654 0.040999904 -0.024528818 -0.05191563 -0.0050199786 0.038251743 0.007789949
-0.03568387 0.07245498 0.049650688 -0.059903696 -0.0066709435 -0.0050724535 -0.0631873 -0.023505231
0.0068755224 0.033735644 -0.0027094746 -1.8696818e-11 -0.028497353 3.3006105e-11 -0.10632054 0.07279833
0.042955525 -0.005434968 0.010868171 -0.08277803 0.016698135 0.05627223 -0.029560488 0.050490282
-0.041353613 0.049113464 -0.03569156 0.05491275 -0.008152528 0.022966525 -0.007124696 -0.07958186
-0.008585038 0.0017234414 -0.0054451646 -0.0897164 0.023761548 0.0621433 -0.030072462 -0.0016359251
6.7935744e-12 0.0024101725 -0.029186709 -0.024751892 -0.042368375 0.04051539 0.031345468 -0.012715737
0.07236694 -0.029151427 -0.020566832 -0.0957622 1.7906446e-10 0.04047489 6.7545353e-12 -0.012240337
-0.0051906477 0.036869135 -0.056200135 0.042486507 0.0962255 -0.09154084 -0.06136322 0.08636654
0.06755634 -0.08854026 0.009151859 -0.13964447 0.025269039 0.025634743 0.114353575 0.12669712
-0.16486394 -0.042081557 0.008640021 0.013874209 0.04327595 -0.06576354 0.02801174 -0.024923269
0.052760046 -0.0017441255 0.0007129684 0.13372734 0.07798425 -0.111924656 -0.00622158 -0.06463577
-0.055641904 0.052988525 0.021083971 0.008286305 0.12942952 0.1257725 0.016417986 -0.017294243
0.033995852 -0.0013473111 -0.04361354 0.061311938 -0.09099147 0.043577664 -0.0420702 -0.00084822427
-0.1273908 -0.026451914 0.025751727 0.015489277 -0.15327951 0.12614617 0.02730776 -0.050491344
8.40299e-10 0.09200885 0.0055194683 0.08120158 0.09468388 0.011755 -0.030914795 -4.7233684e-12
0.0056114686 0.08983481 0.09680752 0.082039796 0.074541874 -0.033745676 -0.050461564 0.10335681
0.12019341 0.09388694 0.08036166 -0.11020354 -0.0071675195 0.02097346 0.09964276 0.14212148
-0.05131398 0.009681936 -0.022412702 -0.014030831 0.07464736 4.4545194e-11 0.10380388 -0.07663611
0.08742696 0.0037663386 0.011203968 0.07009751 -0.04033024 -0.07955592 0.054318007 0.07653744
0.10008928 0.020165728 -0.058409594 0.034088306 0.12264216 0.06849552 -0.11913455 0.14278823
0.092221126 -0.014871511 -0.02385678 0.1746338 -0.1027866 -0.0049559423 0.1066971 -0.02874092
-0.00045272478 0.05247187 0.1909883 -0.136874 0.014160019 -0.08798032 3.2288004e-05 0.086074814
-0.03759407 0.045580316 0.113311015 0.027269525 0.0005595776 0.025116762 0.0005685533 0.061684005
00000000: 8070 bb3b 6bb9 d22c abe6 a13b 239f f4bd
00000010: 03d7 313c aba9 7eb8 740c 4b3d 1cea 7d3c
00000020: 0b1a 8e3d 0ba7 d5bd 538d 60bc 5d3c 933c
00000030: 0c11 05be 08cd 2e3c d0ab f23c 878a 41bd
00000040: 291d e33b 52f8 79bd 5da9 e53c 52cc 0d3c
00000050: eebe a9bc 1817 c43c 5a64 c0bd 0b90 c63b
00000060: 6e31 853c 572a 123d a870 5abc 8377 20bd
00000070: f6c2 83ba 7167 2cbd a4bf bbbc 9724 133d
00000080: a3e1 cdac 720f d6ba 6e8c d7bc cbd7 4c3d
00000090: 4f06 8bbd 73be 95bc 5f40 a5ba 1208 bab8
000000a0: dcc0 27bd 5e25 75bc fc0f 1cbd 9c6b 62bd
000000b0: 74ff f8bb d02b a7bd e864 05bc ebc6 a6bd
000000c0: 1789 1dbb dd19 01bd 664b fb3c fd54 d93c
000000d0: 19b6 29bc 4d1b 18bd 406c 82bd e1e5 6f3d
000000e0: 822a 49ab d444 dbbd c4c8 91bd d829 95bc
000000f0: dabf a1bd 49cc e93c e3d1 043d 737c cb2e
00000100: 3fcb 753d 1e69 4abd 84ef 273d a9f0 c8bc
00000110: 7ca5 54bd a27e a4bb dcad 1c3d d442 ff3b
00000120: 4029 12bd 4763 943d 855e 4b3d 945d 75bd
00000130: ee97 dabb d336 a6bb 5868 81bd 0b8e c0bc
00000140: 104c e13b 632e 0a3d 7191 31bb 7e75 a4ad
00000150: 4873 e9bc 9229 112e 95be d9bd 4a17 953d
00000160: 22f2 2f3d d117 b2bb 6a10 323c 8787 a9bd
00000170: 87ca 883c b67d 663d d628 f2bc e6ce 4e3d
00000180: 6862 29bd 332b 493d 5031 12bd 31ec 603d
00000190: 2e92 05bc 4b24 bc3c 4876 e9bb d0fb a2bd
000001a0: 42a8 0cbc 19e5 e13a 5a6d b2bb 3bbd b7bd
000001b0: 94a7 c23c f989 7e3d 865a f6bc 8a6c d6ba
000001c0: 1407 ef2c fcf3 1d3b f718 efbc 7bc4 cabc
000001d0: 768a 2dbd 77f3 253d 1b64 003d ab55 50bc
000001e0: 1e35 943d f9ce eebc c67b a8bc f91e c4bd
000001f0: 2ae2 442f 00c9 253d 72a7 ed2c b28b 48bc
00000200: 4f16 aabb 1704 173d 1d32 66bd 5506 2e3d
00000210: e011 c53d c479 bbbd 0058 7bbd f1e0 b03d
00000220: fa5a 8a3d 9954 b5bd aef1 153c f6fe 0ebe
00000230: 0401 cf3c f4ff d13c 3532 ea3d e4bc 013e
00000240: 18d2 28be b65d 2cbd e08e 0d3c a650 633c
00000250: 1f42 313d 09af 86bd e078 e53c e22b ccbc
00000260: eb1a 583d 249b e4ba 80e6 3a3a d2ef 083e
00000270: 35b6 9f3d c138 e5bd 65de cbbb c25f 84bd
00000280: c4e8 63bd 7f0a 593d 4bb8 ac3c 48c3 073c
00000290: 2c89 043e 82ca 003e 037f 863c a8ac 8dbc
000002a0: 3c3f 0b3d 4298 b0ba 1ca4 32bd 3a22 7b3d
000002b0: bc59 babd 7e7e 323d cd51 2cbd 5e5b 5eba
000002c0: bc72 02be afb1 d8bc 49f5 d23c bdc6 7d3c
000002d0: 4ef5 1cbe 762c 013e 86b4 df3c 03d0 4ebd
000002e0: c9fa 6630 236f bc3d a8dc b43b 044d a63d
000002f0: 9fe9 c13d 0b98 403c 0641 fdbc 5230 a6ac
00000300: 69e0 b73b 50fb b73d 0543 c63d 7b04 a83d
00000310: 69a9 983d e838 0abd c9b0 4ebd bcac d33d
00000320: f627 f63d cc47 c03d a794 a43d 65b2 e1bd
00000330: 83dd eabb 89d0 ab3c 8111 cc3d 4b88 113e
00000340: 9c2e 52bd fca0 1e3c d89a b7bc 92e1 65bc
00000350: b7e0 983d 6ee9 432e 2197 d43d 65f3 9cbd
00000360: e80c b33d add4 763b d990 373c 498f 8f3d
00000370: 5231 25bd 37ee a2bd 8f7c 5e3d a9bf 9c3d
00000380: 9cfb cc3d 9932 a53c e63e 6fbd 2ea0 0b3d
00000390: d02b fb3d 6147 8c3d d1fc f3bd 1437 123e
000003a0: 6ede bc3d a3a7 73bc 4b6f c3bc 34d3 323e
000003b0: c881 d2bd 7565 a2bb 0284 da3d 1472 ebbc
000003c0: b15b edb9 beec 563d 7092 433e b328 0cbe
000003d0: 6dff 673c 072f b4bd fb6c 0738 fe47 b03d
000003e0: 3dfc 19bd 6db2 3a3d 9b0f e83d 5764 df3c
000003f0: 9eb0 123a abc1 cd3c f70a 153a 5ea8 7c3d

act_conv1.bias f4 [4]
-0.018865122 0.060821578 0.07721862 -0.06925777
00000000: 078b 9abc 0c20 793d cc24 9e3d 05d7 8dbd

act_fc1.weight f4 [36, 144]
-0.03437103 -0.052790597 -0.07765647 -0.026347188 -0.036665898 -0.06882328 -0.031888377 -0.06459681
-0.062224746 -0.103775434 -0.035228703 -0.10837816 -0.11641799 -0.08300704 -0.09310969 -0.048427977
-0.045744427 -0.014449451 -0.034459677 -0.04064481 -0.022865 -0.03281871 0.008739233 -0.022045258
0.0028851149 -0.023376334 -0.0789795 -0.024335591 0.021032425 0.01000736 -0.016636372 -0.036721505
-0.009563573 -0.019200774 -0.029701145 -0.05029392 0.042239837 0.06631729 -0.0018871846 0.054957405
0.08351051 0.030614296 -0.028326027 -0.03252382 -0.0407731 0.07501485 0.023074532 0.0052736495
0.017860917 0.037620444 -0.035472013 -0.035496566 -0.077217795 0.031348746 -0.019652026 -0.1143005
0.028664622 0.058550216 0.0026085973 0.007866063 -0.076681346 0.05189532 -0.02110378 -0.058910273
-0.019389315 -0.014406883 0.010481037 -0.06636404 0.021644486 -0.039227877 -0.17474398 0.0058614
-0.025988888 -0.04550006 -0.05490726 -0.044264846 0.06751651 -0.0028789327 -0.059155047 -0.10560095
-0.084856465 -0.041012898 -0.004746587 0.0042790133 -0.12760933 -0.06972003 -0.0140549885 -0.112070054
-0.050383765 -0.086788386 0.039135225 -0.12335714 -0.10304428 -0.0402973 -0.0423315 -0.043756764
-0.09683339 -0.028731762 -0.0069590765 -0.14077947 -0.018302206 0.031295598 -0.0030277637 -0.0069224024
-0.099085785 -0.07345529 -0.08842797 0.0016963976 -0.044132885 -0.048625916 -0.026885936 -0.085219696
-0.106362775 0.017739508 0.031400733 -0.008150091 0.017539518 -0.06533099 -0.04287594 0.02787396
-0.022754952 -0.036820374 -0.0058375318 0.048978895 -0.023935407 -0.067442395 -0.002588244 0.04573387
-0.0019869036 -0.015188269 0.016299035 0.053796593 0.025501903 0.01972953 0.030794984 -0.03179451
-0.070788056 -5.199735e-05 0.06718156 0.019428018 -0.032085754 0.03162365 0.0007420295 -0.024072267
-0.02969969 -0.017562173 0.021730026 -0.036002893 -0.028262896 -0.026277594 -0.02348191 -0.025280097
-0.013930936 -0.01581826 -0.022926407 -0.030545766 -0.012810799 -0.009165928 -0.0722747 -0.024358757
0.015109181 0.0018473848 -0.045507465 -0.018599927 0.020682951 -0.0051019005 -0.059917968 -0.060108572
0.015644588 -0.041026484 0.014966961 0.014755595 -0.0077656326 -0.05061886 -0.010613864 0.018442199
0.021350915 -0.02433574 0.0024962754 -0.03742986 -0.4445464 -0.045728907 -0.19155303 0.13237144
0.1201069 0.25832638 -0.048958607 0.15459456 -0.19423279 -0.097662345 -0.12714812 0.015874375
-0.10224707 -0.047367655 -0.059948523 -0.1214381 -0.04655461 -0.07312992 -0.03378023 0.030674106
-0.053984284 -0.08836345 -0.07673438 -0.047097642 -0.040130503 -0.16634439 -0.04023356 0.00067055394
-0.017395046 -0.115671195 0.004503761 -0.013738426 -0.17065427 -0.01319238 -0.096045345 -0.025704866
0.16795065 0.22497739 0.07912 0.07317137 0.114033155 0.18833736 -0.034446903 -0.03306689
0.06444339 0.12796299 0.0695895 0.012505073 0.055940144 0.045228757 -0.010735432 0.01496109
0.007204878 -0.024146676 0.0459125 0.056833386 -0.027554352 -0.024406118 0.022923844 -0.038759965
0.075767346 0.053715713 0.01517501 0.068323985 0.00020632648 -0.035796467 0.054289147 -0.008243252
-0.067431405 -0.023923282 0.06383557 -0.061417416 0.0060719 -0.046701483 -0.025345173 -0.05949194
00000000: a3c8 0cbd f43a 58bd 5b0a 9fbd 0fd6 d7bc
00000010: fb2e 16bd 38f3 8cbd 639d 02bd 554b 84bd
00000020: 60df 7ebd 3788 d4bd f94b 10bd 5ef5 ddbd
00000030: 8e6c eebd 98ff a9bd 4bb0 bebd 6a5c 46bd
00000040: 825e 3bbd 64bd 6cbc 9725 0dbd 2c7b 26bd
00000050: 614f bbbc e96c 06bd 002f 0f3c 4298 b4bc
00000060: 3214 3d3b ba7f bfbc 01c0 a1bd 6f5b c7bc
00000070: 314c ac3c e9f5 233c 0049 88bc 4a69 16bd
00000080: 88b0 1cbc f14a 9dbc d14f f3bc ff00 4ebd
00000090: ae03 2d3d 5cd1 873d 685b f7ba 041b 613d
000000a0: 8f07 ab3d d5ca fa3c fc0b e8bc b237 05bd
000000b0: b201 27bd 63a1 993d cd06 bd3c 94ce ac3b
000000c0: 0f51 923c e517 1a3d 1a4b 11bd d964 11bd
000000d0: 5d24 9ebd 8b67 003d 49fd a0bc 6116 eabd
000000e0: 12d2 ea3c 5ad2 6f3d 00f5 2a3b a9e0 003c
000000f0: 1c0b 9dbd 3090 543d d6e1 acbc e64b 71bd
00000100: 57d6 9ebc d90a 6cbc a8b8 2b3c dfe9 87bd
00000110: c74f b13c 69ad 20bd 16f0 32be fd10 c03b
00000120: a6e6 d4bc 455e 3abd 6fe6 60bd 0e4f 35bd
00000130: 1946 8a3d 7aac 3cbb 904c 72bd 5045 d8bd
00000140: 3ac9 adbd 24fd 27bd 4289 9bbb f736 8c3b
00000150: 05ac 02be 60c9 8ebd e546 66bc fc84 e5bd
00000160: 355f 4ebd 1cbe b1bd 424c 203d aba2 fcbd
00000170: e108 d3bd c80e 25bd cc63 2dbd 4b3a 33bd
00000180: 9650 c6bd df5e ebbc f708 e4bb 7e28 10be
00000190: 82ee 95bc d02f 003d 726d 46bb 52d5 e2bb
000001a0: 7ded cabd ba6f 96bd b919 b5bd a859 de3a
000001b0: afc4 34bd f82b 47bd e53f dcbc aa87 aebd
000001c0: bad4 d9bd 7252 913c 0e9e 003d f687 05bc
000001d0: 09af 8f3c 41cc 85bd af9e 2fbd ee57 e43c
000001e0: 9868 babc f6d0 16bd c448 bfbb 189e 483d
000001f0: 3014 c4bc 3d1f 8abd 879f 29bb 7053 3b3d
00000200: b636 02bb 38d8 78bc 8e85 853c d159 5c3d
00000210: 5ee9 d03c d39f a13c c345 fc3c f63a 02bd
00000220: 54f9 90bd bb17 5ab8 7c96 893d 8227 9f3c
00000230: 5a6c 03bd cd87 013d c284 423a 3433 c5bc
00000240: c44c f3bc 8cde 8fbc 2b03 b23c c577 13bd
00000250: 9787 e7bc 1c44 d7bc 225d c0bc 3518 cfbc
00000260: 953e 64bc 4c95 81bc 29d0 bbbc 1d3b fabc
00000270: 63e4 51bc b02c 16bc c204 94bd 048c c7bc
00000280: 808c 773c f323 f23a 0966 3abd e05e 98bc
00000290: 4b6f a93c d82d a7bb 8b6c 75bd 6834 76bd
000002a0: 1429 803c 630b 28bd fc37 753c 73c1 713c
000002b0: d976 febb b955 4fbd c6e5 2dbc 1814 973c
000002c0: 1de8 ae3c bf5b c7bc 8d98 233b 0e50 19bd
000002d0: 969b e3be 3c4e 3bbd 7a26 44be 618c 073e
000002e0: 9bfa f53d 5b43 843e d288 48bd 094e 1e3e
000002f0: f6e4 46be 3203 c8bd 1e33 02be fa0a 823c
00000300: e966 d1bd 9604 42bd 958c 75bd 8ab4 f8bd
00000310: 0cb0 3ebd 24c5 95bd 235d 0abd 4348 fb3c
00000320: a01e 5dbd e5f7 b4bd ea26 9dbd 75e9 40bd
00000330: e25f 24bd 2f56 2abe f2cb 24bd 1dc8 2f3a
00000340: 0e80 8ebc 05e5 ecbd 4994 933b 2317 61bc
00000350: febf 2ebe da24 58bc 6cb3 c4bd 0393 d2bc
00000360: 41fb 2b3e 7960 663e ab09 a23d dfda 953d
00000370: 378a e93d 82db 403e 3218 0dbd 2671 07bd
00000380: e5fa 833d bb08 033e f184 8e3d 14e2 4c3c
00000390: 7e21 653d ca41 393d aae3 2fbc 5c1f 753c
000003a0: e616 ec3b 40cf c5bc bf0e 3c3d 20ca 683d
000003b0: aab9 e1bc 57ef c7bc c9ca bb3c c5c2 1ebd
000003c0: e92b 9b3d 0205 5c3d 9ba0 783c 72ed 8b3d
000003d0: 5859 5839 519f 12bd 4c5e 5e3d b40e 07bc
000003e0: 7a19 8abd c2fa c3bc 39bc 823d d490 7bbd
000003f0: caf6 c63b 0e4a 3fbd aea0 cfbc d2ad 73bd

act_fc1.bias f4 [36]
-0.042457078 0.025377296 -0.030663518 -0.059358124 -0.008960791 -0.077946246 -0.10749366 -0.013261906
0.03411619 -0.022107234 -0.024172027 0.0358791 0.09805149 0.034734607 0.011237247 -0.0066700005
0.018919948 0.05137519 0.03155703 0.02739122 -0.03430473 0.04040221 0.010719302 0.07726385
-0.025247185 -0.037612457 0.121700205 -0.060989365 0.039670214 -0.013863825 -0.10681272 0.017231388
0.025773156 -0.011578406 -0.008441481 0.049383495
00000000: 79e7 2dbd 0ce4 cf3c 0f32 fbbc 8121 73bd
00000010: 48d0 12bc 48a2 9fbd a325 dcbd 7748 59bc
00000020: 6bbd 0b3d 3b1a b5bc 6a04 c6bc f7f5 123d
00000030: 38cf c83d e045 0e3d 6e1c 383c 0590 dabb
00000040: 02fe 9a3c cb6e 523d f241 013d 8d63 e03c
00000050: 1e83 0cbd ca7c 253d 03a0 2f3c 823c 9e3d
00000060: 2fd3 cebc 850f 1abd f53d f93d fccf 79bd
00000070: 3c7d 223d 1925 63bc a1c0 dabd d728 8d3c
00000080: 3a22 d33c 5bb3 3dbc 234e 0abc 5946 4a3d

val_conv1.weight f4 [2, 128, 1, 1]
-0.08879414 -0.007506812 0.056062974 -0.08930035 0.05658536 -0.11859076 0.06578082 0.013479607
0.058793318 0.0011558123 0.037634782 -0.038527176 0.002148497 0.08616518 0.10167157 -0.09452133
0.060062744 -0.07404821 0.050017674 0.044805814 -0.07877841 0.022216113 0.0059715067 0.06644379
0.04080464 0.029467253 -0.097659715 -0.002204859 -0.083415054 0.06743399 0.03327524 0.04810925
-0.010950253 0.02654675 -0.04551851 -0.11357394 0.052126523 0.113314696 0.068397544 0.07392206
-0.09846433 -0.015316309 0.015270406 0.025178151 -0.12825826 0.0019291055 -0.041417345 0.017474145
-0.13748398 -0.02751142 -0.039464567 0.015560059 0.008398889 0.057473473 0.036847413 0.083487734
2.2982655e-12 0.013075887 0.06254721 0.060229093 -0.014632812 0.06466776 0.07564005 -0.0028289421
-0.015476092 -0.0050819525 0.05551228 0.009716256 -0.11464746 0.001298584 0.014077505 0.061995875
0.05608472 0.08428101 0.038395565 -0.062036082 -0.067052215 -0.15023193 -0.030619139 0.101307094
-0.06546068 -0.03426815 -0.1762876 -0.004319915 -0.0643449 -1.419443e-12 -0.107883 0.110695116
0.09807663 -0.120408565 0.03550642 -0.019589338 -0.021906149 0.0713023 -0.07529049 -0.01369297
-0.002866884 -0.14089422 0.025897345 -0.020284167 -0.08402255 -0.08616811 0.011419741 -0.03558965
-0.048598185 -0.03166335 0.054957137 -0.0011318862 0.062513806 -0.03393202 0.05502934 0.0453874
4.038491e-10 0.04328591 0.061837673 -0.14547004 0.08045917 0.007990954 0.008871093 -0.07063875
0.032184787 -0.13660903 0.024564795 0.029536612 0.0014909821 0.026972413 -0.00014189324 -0.015319771
0.009242616 0.024333656 -0.064057164 -0.075697966 -0.10882441 0.059437104 0.041775573 0.07087101
0.037927296 -0.013597676 -0.0032993772 0.045260713 -0.043590724 -0.004899665 -0.10673392 -0.10520904
-0.110725634 0.024418738 0.021928485 -0.044844538 0.026909618 0.022702591 0.0039442517 0.053341422
-0.0025125935 -0.040063478 -0.031009337 -0.08667831 -0.05340177 -0.04776377 0.019209314 0.04283247
0.0011143219 0.042806372 0.017522689 -0.021526996 0.005148051 0.05068893 -0.10393465 -0.07794496
0.03350921 0.03941613 0.05565528 0.05964991 0.05168631 -0.007485087 0.06988928 0.009233823
0.022233557 -0.022320615 -0.12732786 -0.12204558 0.056007378 -0.025906786 0.03116445 -0.0020620525
2.0874613e-09 -0.051168367 0.0034613002 0.05551563 0.026474983 0.0073568565 0.012741665 0.00011068751
0.019914897 0.025471587 -0.120028846 -0.0934111 0.035629645 -0.04242648 -0.015061906 -0.075786486
-0.054140102 -0.1773437 0.02551731 -0.01902234 0.039543483 -0.014924478 0.04794566 -0.111773446
-0.0050953664 -0.0819834 -0.03337447 -0.005466974 0.03360352 7.9731005e-10 0.012051175 -0.076892294
-0.056573357 0.07033681 -0.06035421 -0.053447768 0.00905002 -0.0036622651 0.052953627 0.029351963
-0.083790675 -0.0171908 0.017953334 -0.09648356 -0.0851198 0.07670655 0.059905306 0.085152
-0.008269549 -0.085621804 0.09593153 0.021198252 0.061474856 0.004702204 -0.14082387 -0.031500835
-0.0017466315 -0.081119664 -0.054435585 -0.0616986 0.12557244 -0.042041466 -0.0051679704 -0.057867493
-0.06469665 -0.018222505 0.032543033 0.03160749 -0.005738436 -0.06588701 3.2589378e-05 -0.01092593
00000000: b4d9 b5bd b4fb f5bb 4aa2 653d 1ae3 b6bd
00000010: 0dc6 673d b6df f2bd 18b8 863d 92d9 5c3c
00000020: 43d1 703d a07e 973a ee26 1a3d acce 1dbd
00000030: cccd 0c3b 5f77 b03d 2f39 d03d 6694 c1bd
00000040: 5a04 763d 97a6 97bd 55df 4c3d 4d86 373d
00000050: 9356 a1bd 91fe b53c a1ac c33b af13 883d
00000060: c422 273d 4f65 f13c d101 c8bd 657f 10bb
00000070: 83d5 aabd d51a 8a3d 9e4b 083d 340e 453d
00000080: b168 33bc 9278 d93c 9e71 3abd 7499 e8bd
00000090: 9f82 553d 8911 e83d 0314 8c3d 7364 973d
000000a0: aba7 c9bd 42f1 7abc ba30 7a3c 6942 ce3c
000000b0: 2256 03be 0ada fc3a 3ca5 29bd f025 8f3c
000000c0: 9ac8 0cbe a15f e1bc 99a5 21bd 9eef 7e3c
000000d0: 7e9b 093c 4e69 6b3d 50ed 163d 9efb aa3d
000000e0: dfb9 212c 3f3c 563c c018 803d c8b2 763d
000000f0: 76be 6fbc 8870 843d 2ce9 9a3d c665 39bb
00000100: 6f8f 7dbc 8286 a6bb d860 633d ee30 1f3c
00000110: 4acc eabd 4035 aa3a 56a5 663c 63ef 7d3d
00000120: 17b9 653d 869b ac3d ab44 1d3d 8c19 7ebd
00000130: ac52 89bd 66d6 19be fdd4 fabc 187a cf3d
00000140: 4010 86bd c25c 0cbd bd84 34be 138e 8dbb
00000150: 42c7 83bd d3c4 c7ab c3f1 dcbd 1fb4 e23d
00000160: 66dc c83d c498 f6bd 2e6f 113d d279 a0bc
00000170: 8674 b3bc f106 923d e731 9abd 7b58 60bc
00000180: 55e2 3bbb 9346 10be ab26 d43c fb2a a6bc
00000190: 0414 acbd e878 b0bd de19 3b3c 74c6 11bd
000001a0: e40e 47bd 6eb1 01bd bc1a 613d cc5b 94ba
000001b0: 3d07 803d 4dfc 0abd 7266 613d 23e8 393d
000001c0: b504 de2f 914c 313d 8049 7d3d 19f6 14be
000001d0: c7c7 a43d 7eec 023c 1058 113c 0dab 90bd
000001e0: 32d4 033d 3de3 0bbe 1c3c c93c c4f6 f13c
000001f0: 0f6d c33a 40f5 dc3c 2dc9 14b9 c7ff 7abc
00000200: 576e 173c 6057 c73c 6730 83bd 8907 9bbd
00000210: 55df debd 5274 733d dd1c 2b3d d224 913d
00000220: a759 1b3d c9c8 5ebc 5d3a 58bb 4c63 393d
00000230: 308c 32bd 5e8d a0bb 5097 dabd d677 d7bd
00000240: 1fc4 e2bd ce09 c83c 5ea3 b33c e8ae 37bd
00000250: 8f71 dc3c c9fa b93c c83e 813b 897c 5a3d
00000260: 53aa 24bb 9a19 24bd 4b07 febc 6684 b1bd
00000270: d0bb 5abd f1a3 43bd da5c 9d3c 1a71 2f3d
00000280: 700e 923a bc55 2f3d be8b 8f3c 6259 b0bc
00000290: fbb0 a83b 329f 4f3d b1db d4bd 9ba1 9fbd
000002a0: f440 093d cf72 213d caf6 633d 7753 743d
000002b0: 06b5 533d 7645 f5bb 1c22 8f3d 7649 173c
000002c0: 2623 b63c b9d9 b6bc 3c62 02be 08f3 f9bd
000002d0: fe67 653d 783a d4bc 974c ff3c 8023 07bb
000002e0: 0273 0f31 ec95 51bd fbd6 623b 5b64 633d
000002f0: 10e2 d83c c911 f13b 6bc2 503c e820 e838
00000300: 9124 a33c caa9 d03c afd1 f5bd 524e bfbd
00000310: 64f0 113d 64c7 2dbd 36c6 76bc f235 9bbd
00000320: 03c2 5dbd 9699 35be ad09 d13c bdd4 9bbc
00000330: 59f8 213d cc85 74bc ab62 443d 7ae9 e4bd
00000340: 08f7 a6bb eae6 a7bd abb3 08bd 4d24 b3bb
00000350: d8a3 093d b529 5b30 4b72 453c b579 9dbd
00000360: 77b9 67bd bf0c 903d fa35 77bd 0cec 5abd
00000370: 8946 143c 9d02 70bb e7e5 583d 8773 f03c
00000380: 729a abbd b8d3 8cbc df12 933c 2c99 c5bd
00000390: 4a53 aebd 5318 9d3d 445f 753d 2c64 ae3d
000003a0: 017d 07bc 7c5a afbd c077 c43d f5a7 ad3c
000003b0: 0fcd 7b3d f214 9a3b 2234 10be 0507 01bd
000003c0: 3aef e4ba 1122 a6bd d9f7 5ebd acb7 7cbd
000003d0: 1096 003e ac33 2cbd 1458 a9bb 7706 6dbd
000003e0: ad7f 84bd 5d47 95bc d84b 053d db76 013d
000003f0: 7d09 bcbb c5ef 86bd 94b0 0838 ac02 33bc

val_conv1.bias f4 [2]
0.035474718 0.06969865
00000000: f04d 113d 2abe 8e3d
