models/Training/AC_nmcts20/train_057.pth (torch, 424031 bytes, 15 tensors)

conv1.weight f4 [32, 5, 3, 3]
0	0x3d445e34	0.0479414
1	0xbe514d76	-0.20439705
2	0xbcfc1180	-0.030770063
3	0x3e353a4c	0.1769802
4	0xbe6c8861	-0.230989
5	0xbc442c10	-0.011973396
6	0x3ded33d1	0.11582149
7	0xbe125c04	-0.14292914
8	0x3cf97f3c	0.030456178
9	0x3c78dee4	0.01518986
10	0x3a7a4c61	0.00095481245
11	0x3e179b4b	0.14805333
12	0x3d842402	0.064521804
13	0xbe1c0220	-0.15235186
14	0x3e11a903	0.14224629
15	0xbc999cfe	-0.018751618
16	0xbceb56ad	-0.028727854
17	0x3de21944	0.11039975
18	0x2e149234	3.378116e-11
19	0x2b28cac2	5.9966973e-13
20	0xac46c58c	-2.8247153e-12
21	0xaf157895	-1.359431e-10
22	0xadbfcf2a	-2.1806185e-11
23	0xb171d4c3	-3.5191057e-09
24	0xb1a867a5	-4.9012265e-09
25	0xad08f853	-7.785844e-12
26	0x2b46991a	7.05562e-13
27	0x3df00eeb	0.117215954
28	0x3c97de76	0.018538695
29	0xbd686a1a	-0.05674181
30	0xbdf02380	-0.11725521
31	0xbe0da106	-0.13830957
32	0x3c52ea11	0.012873189
33	0x3d4664f3	0.048436116
34	0xbe162314	-0.14661819
35	0x3dc4a319	0.09601421
36	0x2c85a2be	3.7981554e-12
37	0x2ee9af0f	1.062671e-10
38	0x2dbb92b1	2.1324583e-11
39	0xad199b51	-8.73153e-12
40	0x336e5632	5.5492087e-08
41	0x2d2b118b	9.72412e-12
42	0x2c21e4d3	2.30065e-12
43	0x2dbf8991	2.1775278e-11
44	0xb19f3f5f	-4.6347135e-09
45	0xbc94c2dc	-0.018159322
46	0x3e591daf	0.2120273
47	0x3dbea086	0.09307961
48	0x3dabf19a	0.08395691
49	0xb9dcfc7a	-0.0004214978
50	0xbd161cc3	-0.036648523
51	0x3d958250	0.07300246
52	0x3d979dcb	0.074031435
53	0x3de94d9e	0.113917574
54	0x3d3371b7	0.04380962
55	0xbe473f22	-0.19457677
56	0xbd30d9bd	-0.0431764
57	0xbd360416	-0.04443749
58	0x3d354df5	0.0442638
59	0x3d880800	0.06642151
60	0xbdc460cc	-0.09588775
61	0xbd1849cd	-0.037179757
62	0x3ddecde0	0.10879111
63	0xaf705352	-2.1857474e-10
64	0xaf0c7202	-1.277343e-10
65	0xab0d106b	-5.011605e-13
66	0xb6cabce2	-6.042058e-06
67	0xac839af4	-3.740447e-12
68	0xacb7e99d	-5.227109e-12
69	0xb6baaa35	-5.5630467e-06
70	0xadb5d81d	-2.0673291e-11
71	0xaf5d0eca	-2.0105087e-10
72	0xbe01e392	-0.12684467
73	0x3e252151	0.1612599
74	0xbdcb8032	-0.09936561
75	0xbcaa86c2	-0.02081621
76	0xbe1e6a51	-0.15470244
77	0xbd8f31ae	-0.069918975
78	0xbe0a53bf	-0.13508509
79	0x3dc1bdfa	0.09460063
80	0xbc1f8834	-0.009737063
81	0xadfda14f	-2.8834405e-11
82	0x393c19a1	0.00017938625
83	0xadad6b34	-1.971543e-11
84	0xad4efb88	-1.17655954e-11
85	0x2f9aa3fd	2.8128957e-10
86	0xb80978f5	-3.2775995e-05
87	0xb048883f	-7.2953193e-10
88	0x363a0b8f	2.7722888e-06
89	0xae3d3815	-4.3023436e-11
90	0xbd8d2d51	-0.06893409
91	0x3d3221d0	0.043489277
92	0x3e031b24	0.12803322
93	0x3d9bc43e	0.076057896
94	0x3cc6763c	0.0242263
95	0x3e262922	0.16226628
96	0xbdf176b1	-0.11790217
97	0xbe2afcb9	-0.16697969
98	0x3cb550e8	0.022133306
99	0xbd3536de	-0.04424178
100	0xbcf0bd69	-0.029387193
101	0xbdd21fcf	-0.10259973
102	0xbca94428	-0.020662382
103	0xbd3af8a9	-0.045647297
104	0x3dcfbde5	0.101436414
105	0x3e32361a	0.1740345
106	0x3ba0a60d	0.0049026073
107	0x3d9bdfdb	0.076110564
108	0x2ff22faa	4.405341e-10
109	0xaec56628	-8.9766694e-11
110	0xade44d34	-2.5954884e-11
111	0x2b5bd3ac	7.8098183e-13
112	0x34b03bd8	3.2826097e-07
113	0xb91d54c2	-0.00015004262
114	0x2db7a2d8	2.0877008e-11
115	0x2d4a3e91	1.1496263e-11
116	0x2d09a398	7.8238735e-12
117	0x3d99b9d4	0.07506147
118	0xbc500c04	-0.012698177
119	0xbe019ed8	-0.1265825
120	0xbd3ecab9	-0.04658005
121	0xbd44e9ea	-0.04807464
122	0x3dbc3bf9	0.091911264
123	0x3d70d915	0.058800776
124	0xbc962cc6	-0.018331897
125	0x3d3c485a	0.045967437
126	0xb0ca3729	-1.4713112e-09
127	0x37131ca7	8.768554e-06
128	0xac1c599c	-2.2218677e-12
129	0xb914852f	-0.00014163995
130	0xa8ac72fe	-1.9145706e-14
131	0xb8deeee4	-0.00010630282
132	0xb551fae4	-7.822366e-07
133	0xac0fd9ef	-2.04425e-12
134	0xad8ca20e	-1.5988124e-11
135	0x3d56d550	0.052449524
136	0xbdc9f562	-0.09861256
137	0xbde04ecb	-0.109525286
138	0x3d863777	0.06553548
139	0x3d5aa408	0.05337909
140	0xbd0d710a	-0.03453163
141	0x3e1ac24c	0.15113181
142	0x3e4ff502	0.20308307
143	0x3e1f9dbd	0.15587516
144	0x3dbcbdac	0.092158645
145	0xbc3e9066	-0.011631107
146	0xbd9669c9	-0.07344396
147	0xbd81c86c	-0.063370556
148	0xbe3ec293	-0.18628912
149	0xbe049f8f	-0.12951492
150	0x3d5141db	0.051088195
151	0x3d1e5335	0.03865357
152	0xbe1abac9	-0.15110315
153	0x310f7ac4	2.0879023e-09
154	0xac38913e	-2.6228598e-12
155	0xaf37d80b	-1.6720507e-10
156	0xad0237ab	-7.402005e-12
157	0xb1316bb5	-2.5818114e-09
158	0x306d9ba2	8.6441265e-10
159	0x2e105947	3.2821103e-11
160	0x2e959a45	6.803139e-11
161	0xb5a1051c	-1.1996922e-06
162	0x3d807650	0.06272566
163	0x3de91a10	0.11381924
164	0x3d76bd06	0.06023886
165	0xbe3fd825	-0.18734796
166	0x3de908ae	0.11378609
167	0x3c352a80	0.011057496
168	0x3d4071a4	0.046983376
169	0x3d8b1776	0.06791584
170	0xbb4e72cd	-0.0031501532
171	0x38e4272a	0.00010879182
172	0x3075c073	8.940397e-10
173	0xb18c712f	-4.0874037e-09
174	0x2bbeafe8	1.3549136e-12
175	0x2f6c25d6	2.1477517e-10
176	0xad09cae0	-7.832596e-12
177	0xad71f70e	-1.3754121e-11
178	0x3864b258	5.452553e-05
179	0x2c8210c9	3.6966858e-12
180	0x3e1310ab	0.14361827
181	0xbd862790	-0.06550515
182	0x3defc185	0.11706833
183	0x3d058344	0.032595888
184	0xbc570ccb	-0.013125609
185	0x3d2e066c	0.042486593
186	0x3c3cd7e6	0.011526084
187	0x3d0066c5	0.03134801
188	0xbe0f1f63	-0.13976817
189	0x3df2d5b1	0.11857165
190	0xbe0a0672	-0.13479021
191	0x3ddebe50	0.10876143
192	0x3da2d590	0.0795089
193	0x3d434de8	0.04768172
194	0x3e048ee4	0.12945133
195	0x3de17980	0.110095024
196	0x3d3ad138	0.045609683
197	0xbdfd30b6	-0.123628065
198	0x2e8dfa0f	6.456357e-11
199	0x2d240dad	9.325357e-12
200	0xb2f164c9	-2.8101924e-08
201	0xb9417756	-0.0001845037
202	0x31391c0c	2.6936986e-09
203	0xacb03554	-5.0081415e-12
204	0xb336a0d6	-4.2521457e-08
205	0xaf07002d	-1.2278241e-10
206	0x2b16b32f	5.353937e-13
207	0x3e0b1275	0.1358126
208	0xbd1e9952	-0.038720436
209	0x3e0e4b5d	0.13895936
210	0x3ad3f28c	0.0016170307
211	0x3d03f16b	0.032212656
212	0x3e344af1	0.17606713
213	0x3de49a7c	0.11162278
214	0x3d332000	0.04373169
215	0xbc263d38	-0.010146432
216	0xacd0dfce	-5.936563e-12
217	0xaddc3c4e	-2.5037885e-11
218	0x2c834b64	3.731614e-12
219	0xb12584b1	-2.4086086e-09
220	0x2c42d912	2.7689556e-12
221	0x2c68f1f2	3.310349e-12
222	0x2ede711a	1.0115482e-10
223	0x3339e5ba	4.3282604e-08
224	0x390fd965	0.00013718528
225	0x3dbe2a1f	0.09285378
226	0x3e17ad0c	0.14812106
227	0x3e106a89	0.1410314
228	0x3e2e37cc	0.17013472
229	0xbd65e689	-0.05612806
230	0xbd2d8237	-0.04236051
231	0x3dd7ecd5	0.10543219
232	0x3e2f3447	0.17109786
233	0xbdbb93ca	-0.09159048
234	0x3db8c3d9	0.0902173
235	0x3dfecc50	0.12441313
236	0x3d3781fc	0.044801697
237	0x3cc60d0a	0.02417614
238	0xbdcbd86d	-0.09953389
239	0xbd70508e	-0.058670573
240	0x3d7e0e0e	0.062025122
241	0xbdcc07dc	-0.099624366
242	0xbbe4841a	-0.0069737555
243	0xb78285c7	-1.5559503e-05
244	0x2f15d6ba	1.3627757e-10
245	0x36013738	1.925464e-06
246	0x2ab0bf2e	3.1396538e-13
247	0xb6ceaa69	-6.1591168e-06
248	0xb0ac2e41	-1.2527793e-09
249	0x2f14e838	1.3543022e-10
250	0x331454a1	3.4535905e-08
251	0xb06192ed	-8.206332e-10
252	0x3c9ad0cb	0.018898388
253	0x3daaa8fd	0.08333013
254	0x3d058099	0.032593343
255	0x3d8cfc67	0.068840794

conv1.bias f4 [32]
0	0x3dec4c52	0.115379944
1	0x3c0316d6	0.00800105
2	0xbd0876c2	-0.03331638
3	0x3db82ccd	0.0899292
4	0xbd994c70	-0.074852824
5	0xbe10a7ba	-0.14126483
6	0xbced4d81	-0.02896762
7	0x3dcafdf7	0.09911721
8	0x3d88912c	0.06668314
9	0xbde7ed26	-0.11324529
10	0x3e39b5f2	0.18135813
11	0xbd4ad659	-0.049520824
12	0x3e2a74b6	0.16646084
13	0x3e19af03	0.15008168
14	0xbdc661fa	-0.09686656
15	0xbcca57cf	-0.024700074
16	0xbd29221f	-0.041292306
17	0xbd8d7eeb	-0.06908973
18	0xbd0e2267	-0.034700777
19	0x3e28c0db	0.16479819
20	0xbd556515	-0.052098352
21	0x3d8a118f	0.0674163
22	0xbb88de32	-0.0041768784
23	0xbd85dae6	-0.06535892
24	0xbda5dd4c	-0.0809885
25	0x3d885727	0.06657248
26	0xbdf9597e	-0.121752724
27	0x3e21ffc8	0.15820229
28	0x3dff4586	0.124644324
29	0xbd998a93	-0.07497134
30	0xbddf24a8	-0.108956635
31	0x3dfe3875	0.12413112

conv2.weight f4 [64, 32, 3, 3]
0	0xbcce8f46	-0.025214802
1	0x3d01590a	0.031579055
2	0xbc0ba8bf	-0.008524119
3	0x3d084a67	0.03327408
4	0xbd59de50	-0.05319053
5	0xbd5eae0d	-0.054365207
6	0xbd57c809	-0.052681003
7	0x3c544284	0.012955312
8	0xbcac6769	-0.021045404
9	0xbd4102d7	-0.04712185
10	0xbd2b55c1	-0.04182983
11	0xbd2d8987	-0.042367484
12	0x3cdab208	0.02669622
13	0x3cfa6b27	0.030568672
14	0x3d177c0c	0.036983535
15	0x3cc4b1a4	0.024010487
16	0x3c909126	0.017647337
17	0x3d8abb47	0.067740016
18	0xbd6ddbcb	-0.05807094
19	0xbd371540	-0.044698
20	0xbd30743b	-0.043079596
21	0x3c1e14b1	0.009648488
22	0x3d284045	0.041076917
23	0xbbf285fd	-0.0074012266
24	0x3b78a5d9	0.003794065
25	0x3ba0f5c8	0.004912112
26	0xbd5fa9ba	-0.054605223
27	0xbda33b60	-0.07970309
28	0xbc866789	-0.016406791
29	0x3ce59e1d	0.028029496
30	0xbb27e570	-0.0025618933
31	0xbb67b8ca	-0.0035357946
32	0xba3d7e08	-0.0007228558
33	0x3cff8344	0.031190522
34	0x3ca61187	0.02027203
35	0x3d4373de	0.04771792
36	0xbb4a7e66	-0.0030898093
37	0x3d0d80ba	0.03454659
38	0xbd4db1e8	-0.050218493
39	0x3c9344ba	0.017977107
40	0x3d515929	0.05111042
41	0xbd07d5ff	-0.033163067
42	0xbb4a6379	-0.0030882044
43	0x39110af5	0.0001383236
44	0xbd0abe77	-0.033873048
45	0xbd597089	-0.053085838
46	0xbca1bea6	-0.019744229
47	0xbc42c5b6	-0.011887958
48	0xbd57c6fc	-0.05268
49	0xbd07cc96	-0.033154093
50	0xbad34210	-0.0016117711
51	0xbd0354ae	-0.03206318
52	0x3d643821	0.05571759
53	0x3cc89a39	0.024487602
54	0xbc62ee0b	-0.013850699
55	0xbd417d6f	-0.047238763
56	0xbd94d551	-0.072672494
57	0xbb95136c	-0.0045494344
58	0x3cc4e0cc	0.024032973
59	0xbbf4d5e4	-0.007471787
60	0x3cb9fb9a	0.02270298
61	0xbcd0b73c	-0.025477998
62	0xbd14c23c	-0.03631805
63	0x3c9a9ced	0.018873656
64	0xbcdab69f	-0.026698409
65	0x3cdd4630	0.027011007
66	0xbd343fa2	-0.044005997
67	0x3dacaeb9	0.08431763
68	0x3ceb420e	0.02871802
69	0x3d3fcef8	0.04682824
70	0xbc3019a2	-0.010748299
71	0xbb6bcc03	-0.0035979755
72	0xbdb12b1e	-0.08650802
73	0xbcad7c1f	-0.02117735
74	0x3be75103	0.007059218
75	0xbd8c3b9f	-0.06847309
76	0x3d51eaa4	0.05124916
77	0xbd915abe	-0.07097386
78	0xbd1248d5	-0.03571399
79	0x3cf3d4b7	0.029764516
80	0x3d3e2978	0.046426266
81	0xbb902570	-0.004398994
82	0xbd813071	-0.063080676
83	0xbce15a68	-0.02750893
84	0x3ce743df	0.028230606
85	0xbd95f1ce	-0.07321511
86	0xbd2e3524	-0.042531148
87	0x3d1d7646	0.038442872
88	0x3d28942b	0.04115693
89	0xbc86a49a	-0.01643591
90	0xbd7b76d4	-0.06139262
91	0x3cb4540d	0.022012735
92	0xbd884332	-0.066534415
93	0xbd70a6fd	-0.058753002
94	0xbd784599	-0.06061325
95	0xbdaf272b	-0.085523926
96	0xbd419e55	-0.047270138
97	0xbcc60d97	-0.024176402
98	0xbcb779a1	-0.022396864
99	0x3b8d5d7d	0.004314123
100	0x3d33a865	0.043861765
101	0xbcd0555d	-0.02543133
102	0xbd9101d0	-0.07080424
103	0x3c3784b4	0.0112010725
104	0x3d266c4b	0.04063062
105	0xbcce9508	-0.025217548
106	0x3ccfa0f0	0.025345296
107	0xbd614e04	-0.055006042
108	0xbdbed872	-0.093186274
109	0xbd0b3568	-0.03398648
110	0xbda3ce7d	-0.07998369
111	0x3b22beaf	0.0024832895
112	0x3d85256f	0.065012805
113	0xbdc0ba6d	-0.09410558
114	0xbd43532d	-0.047686744
115	0xbd4b4f79	-0.049636338
116	0xbb15143f	-0.0022747663
117	0xbd97a6da	-0.07404871
118	0xbd6a1f8c	-0.05715899
119	0x3d04e00d	0.032440234
120	0xbd905d52	-0.070490494
121	0x3d00b67e	0.031424038
122	0xbc807ebe	-0.015685435
123	0xbd3a04b9	-0.04541466
124	0x3c086111	0.008323924
125	0xbc5b2cae	-0.013377352
126	0xbceb1898	-0.02869825
127	0x3ac15e7e	0.0014752892
128	0xbd76eb88	-0.060283214
129	0xbd892154	-0.0669581
130	0xbcfeefa1	-0.031120123
131	0x3c24d3bf	0.01006025
132	0xbda5d28a	-0.08096798
133	0xbc8c090a	-0.017094154
134	0x3c10ce45	0.008838241
135	0xbd367e6b	-0.044554155
136	0xbd26eb26	-0.0407516
137	0xbd23e43f	-0.040012594
138	0xbd398621	-0.04529393
139	0xbc8bdbbd	-0.017072553
140	0xbd1cef14	-0.03831394
141	0xbcb2f202	-0.021843914
142	0xbd573a74	-0.05254598
143	0xbd7ff883	-0.06249286
144	0x3d4392a2	0.04774726
145	0xbd29f771	-0.041495744
146	0xbda5991d	-0.08085845
147	0xbd2ea3df	-0.04263675
148	0xbd736579	-0.059422944
149	0xbd0df8e2	-0.03466118
150	0xbc596536	-0.0132687595
151	0x3c416e22	0.011806043
152	0xbcba7b5e	-0.022763904
153	0xbd4ceb46	-0.05002906
154	0x3cb337d5	0.021877209
155	0x3a60c025	0.00085735536
156	0xbd8f506b	-0.069977604
157	0xbc0213da	-0.007939303
158	0x3d7b3fc8	0.061340123
159	0xb86e618a	-5.6834462e-05
160	0x3d34aa7a	0.04410789
161	0xbd7f58a3	-0.06234039
162	0xbd0db469	-0.03459588
163	0x3c20f05d	0.009822932
164	0x3d3f2d3c	0.046674
165	0xbc5051e7	-0.01271484
166	0xbd6181d2	-0.055055447
167	0x3bd7d8f2	0.006587141
168	0x3d43a4e9	0.047764692
169	0xbced0e2e	-0.028937425
170	0x3c4c9983	0.012487772
171	0x3ce1172e	0.027476873
172	0xbd96749c	-0.0734646
173	0xbd4f90a9	-0.050675068
174	0xbc8074c6	-0.015680682
175	0x3d3646d1	0.04450113
176	0xbcdf86d0	-0.027285963
177	0xbbc765ab	-0.006085118
178	0xbd25bb3e	-0.04046177
179	0xbdc161eb	-0.094425045
180	0xbd889787	-0.066695265
181	0x3cec22c2	0.028825168
182	0xbc2d3660	-0.010572046
183	0xbcc7fcec	-0.024412595
184	0x3d6e6c19	0.05820856
185	0x3b840596	0.004028986
186	0xbacba2ba	-0.0015536167
187	0xb9fc5090	-0.0004812521
188	0xbcec196e	-0.02882072
189	0xbb96c021	-0.0046005403
190	0x3c1d0c1b	0.009585406
191	0xbd4b403a	-0.049621798
192	0xbca2e58d	-0.019884849
193	0x3d805ac5	0.06267313
194	0xbcd2bb4c	-0.025724076
195	0xbc830141	-0.015991809
196	0xbd9ba4a2	-0.075997606
197	0xbd97832a	-0.073980644
198	0x3d29270a	0.041296996
199	0xbc675208	-0.014118679
200	0xbc6abd82	-0.014327409
201	0xbd6bd59b	-0.057576757
202	0xbd0ec125	-0.034852166
203	0xbc183302	-0.009289505
204	0xbd9891fa	-0.07449718
205	0x3bab8346	0.005234155
206	0xbd6298e5	-0.055321593
207	0x3d212f4b	0.039351743
208	0xbd06f4fa	-0.03294847
209	0xbd7e6dda	-0.06211648
210	0x3cb0f187	0.021599544
211	0x3b12913f	0.0022364405
212	0xbd550d0b	-0.052014392
213	0x3c4dc126	0.012558257
214	0x3d6c9524	0.05775942
215	0x3da76e44	0.081753284
216	0x3c84afc0	0.016197085
217	0xbc87763f	-0.016535876
218	0x3c9ad72b	0.018901428
219	0xbd38ebf1	-0.045146886
220	0x3c90195d	0.01759022
221	0xbd1effce	-0.038818173
222	0x3c763e5d	0.015029517
223	0xbcc11500	-0.023569584
224	0xbd09c5dd	-0.033635963
225	0x3bf45980	0.0074569583
226	0x3d3b46bb	0.04572175
227	0xbbe3e5d0	-0.006954886
228	0xbc3008ae	-0.010744257
229	0xbd099937	-0.033593383
230	0xbd5f6e89	-0.054548774
231	0x3ccaa3fd	0.024736399
232	0xba85af00	-0.0010199249
233	0x3cac0678	0.020999178
234	0x3b574019	0.0032844602
235	0x3d15b97a	0.036553837
236	0xbc8d2706	-0.017230522
237	0x3d269c79	0.040676568
238	0xbcc46b3a	-0.02397691
239	0x3d5687f8	0.052375764
240	0x3d248e3a	0.0401747
241	0xbc9bcb90	-0.019017965
242	0xbc8a4169	-0.016876893
243	0xbb78ee42	-0.003798381
244	0xbd885348	-0.0665651
245	0xbcd288ad	-0.025699938
246	0x3c4276e7	0.011869169
247	0xbd410ecc	-0.047133252
248	0xbb90fb46	-0.0044244854
249	0xbd6a6db8	-0.057233542
250	0xbcd5c810	-0.026096374
251	0xbd3b5ced	-0.045742918
252	0xbd0cddde	-0.034391277
253	0x3cd6ad8e	0.026205804
254	0x3d3904c0	0.045170546
255	0x3c97f870	0.018551081

conv2.bias f4 [64]
0	0x3cbe5b9e	0.023237046
1	0x3bd7158b	0.0065638474
2	0xbd8d0b18	-0.068868816
3	0xbd57c006	-0.052673362
4	0xbc803a81	-0.015652897
5	0x3d896155	0.06708018
6	0x3d7fb89b	0.062431913
7	0x3cb52e3a	0.02211677
8	0xbc2f91c6	-0.010715907
9	0x3d8edbc7	0.06975513
10	0xbd045712	-0.0323096
11	0xbd0f12ce	-0.034930043
12	0x3d59fe9f	0.05322134
13	0xbd4310c0	-0.047623396
14	0x3ad9b686	0.0016610182
15	0x3bc44ddf	0.0059907283
16	0x3d661bf9	0.05617902
17	0x3dacb222	0.08432414
18	0x3d3189b6	0.043344222
19	0x3d54c166	0.05194225
20	0x3c0c3897	0.008558414
21	0xbcf1008e	-0.02941921
22	0x3d7f1f65	0.0622858
23	0x3d4c3f9f	0.04986536
24	0x3ce41839	0.027843582
25	0x3dcdb975	0.10045139
26	0xbc3ce50b	-0.0115292175
27	0x3d4cf70a	0.050040282
28	0xbd58b07c	-0.052902684
29	0xbcdeb116	-0.02718405
30	0x3d95672c	0.07295069
31	0x3d73f73f	0.059561964
32	0x3c4b5698	0.012410782
33	0x3acd8545	0.0015679976
34	0x3c11db5a	0.008902395
35	0x3daac362	0.083380476
36	0x3cddf00e	0.027092006
37	0xbcdaa8b6	-0.026691776
38	0x3ada39f0	0.0016649347
39	0x3db0259c	0.086009234
40	0x3d4302c7	0.04761007
41	0xbc9453c1	-0.018106343
42	0xbd6886a8	-0.056769043
43	0xbcc6c2a1	-0.024262728
44	0xbb382150	-0.0028096028
45	0x3d828e69	0.06374819
46	0xbd2b2ca2	-0.041790612
47	0x3daedc19	0.08538074
48	0x3d397d9e	0.045285814
49	0xbd2e4478	-0.042545766
50	0x3d3139bf	0.04326796
51	0x3d83e31b	0.06439801
52	0x3d91c9f4	0.071185976
53	0x3bb2a53a	0.0054518254
54	0x3cff898c	0.031193517
55	0x3db165f7	0.086620264
56	0xbbe8d710	-0.0071057156
57	0x3d0fe1fb	0.03512762
58	0xbcfd3169	-0.03090735
59	0xbc132ffb	-0.008983607
60	0x3cbd9d06	0.023146164
61	0xbcba76d7	-0.022761745
62	0xbd07d65f	-0.033163425
63	0xbc37bec1	-0.011214913

conv3.weight f4 [128, 64, 3, 3]
0	0x3cc225cf	0.02369967
1	0x3d33788c	0.043816134
2	0xba753263	-0.00093535165
3	0xbcb3b731	-0.021937938
4	0xbcaf02d3	-0.021363651
5	0xbcaa6c20	-0.020803511
6	0x3ae8e02f	0.0017767007
7	0xbc19487e	-0.009355662
8	0x3bbdfbe7	0.0057978514
9	0x3cb9664e	0.02263179
10	0x3c0222ca	0.007942865
11	0x3c9dc04d	0.019256735
12	0xbd1eccc3	-0.038769495
13	0x3cc2395e	0.023708995
14	0xbc02ee5c	-0.0079914
15	0xbc701d61	-0.014655442
16	0xbc22557b	-0.009908075
17	0xbbe4ca3a	-0.006982115
18	0x3d68b24d	0.056810666
19	0xbcd32a32	-0.025776956
20	0xbc18fe2f	-0.009337946
21	0x3cb97472	0.022638533
22	0xbbd5aaa0	-0.006520584
23	0x3cc06d79	0.0234897
24	0xbd401b0d	-0.046900798
25	0xbd051661	-0.032492045
26	0x3ccf1ccc	0.025282286
27	0x3be37b36	0.006942178
28	0xbc4453db	-0.011982883
29	0x3da2abdb	0.07942935
30	0xbc9e133f	-0.019296287
31	0x3c6d3b24	0.014479432
32	0x3dce2437	0.10065501
33	0x3c082894	0.008310456
34	0x3d390357	0.0451692
35	0xbd50ea08	-0.05100444
36	0x3c2f988b	0.010717521
37	0xbc12f8cd	-0.008970452
38	0xbd2603ef	-0.040531095
39	0xbcdb1126	-0.026741575
40	0xbd57e207	-0.05270579
41	0xbd2bf374	-0.041980222
42	0xbd37508a	-0.044754542
43	0xbccb5b5e	-0.02482384
44	0x3c5d1e22	0.013495954
45	0x3d4fc8fa	0.050728776
46	0xbc329733	-0.0109003065
47	0xbcd0c5a4	-0.025484867
48	0x3d4d61ed	0.050142217
49	0x3b86b178	0.0041105114
50	0xbd44e079	-0.048065636
51	0x3cc3d813	0.023906743
52	0xbd60bfff	-0.0548706
53	0xbc02470a	-0.007951507
54	0x3cbabeb5	0.022796014
55	0xbcf63646	-0.030055176
56	0xbc2ca276	-0.010536781
57	0xbd3ee653	-0.046606373
58	0xbd2fe780	-0.042945385
59	0xbcb060fc	-0.02153062
60	0x3bbca414	0.0057568643
61	0xbcd558fe	-0.026043411
62	0xbbf85988	-0.0075790323
63	0x3ba158ac	0.0049239006
64	0xbbde7267	-0.00678854
65	0x3d00ee31	0.031477157
66	0xbcac6736	-0.021045309
67	0x3cc83e34	0.024443723
68	0xbc0255cb	-0.007955025
69	0x3ca1fb35	0.019773105
70	0xbba8814b	-0.005142366
71	0xbaf0a05c	-0.0018358338
72	0x3bc2ba90	0.00594265
73	0x3c44f425	0.012021099
74	0xbcf7fd1b	-0.030272057
75	0x3d027a42	0.031854875
76	0x3c80726a	0.015679557
77	0xbba24bb6	-0.004952873
78	0x3d0c0fa0	0.03419459
79	0xbd0e6cd0	-0.03477174
80	0xbca4bade	-0.020108636
81	0xbcaad910	-0.020855457
82	0xbd0befb7	-0.034164157
83	0xbd70a625	-0.058752198
84	0xbd2e1124	-0.042496815
85	0xbd6b2623	-0.057409417
86	0x3cb45d59	0.022017168
87	0xbcef8fdd	-0.029243404
88	0x3d166cd5	0.036724884
89	0xbc0f942f	-0.008763357
90	0x3d10abb9	0.035320017
91	0x3cc79650	0.024363667
92	0xbc2d7eea	-0.010589341
93	0x3b975ed8	0.0046194606
94	0x3c6d72d4	0.014492709
95	0xbc07a9b7	-0.008280209
96	0x3ceba0d3	0.02876321
97	0x3c944d2b	0.018103203
98	0xbd19218c	-0.03738551
99	0xbd3eb1d4	-0.04655631
100	0x3d3ce72e	0.046118908
101	0x3cd111ef	0.025521247
102	0x3d162538	0.03665659
103	0x3d4b7434	0.049671367
104	0xbbd47f3c	-0.006484894
105	0x3ccbe83a	0.024891008
106	0xbd5e4ebd	-0.05427431
107	0x3d859813	0.065231465
108	0xbcea747c	-0.028619997
109	0x3d1f2169	0.03885022
110	0xbcc214e8	-0.02369161
111	0x3b11cbc4	0.0022246698
112	0x3b89cc86	0.0042052893
113	0xbd1db1d3	-0.038499665
114	0xbb627c2b	-0.0034558873
115	0xbbc87380	-0.0061172843
116	0x3db44d88	0.088038504
117	0xbbb36a38	-0.0054753087
118	0xbc73538b	-0.014851461
119	0xbca0cabf	-0.019627927
120	0x3bb26d8f	0.0054451893
121	0x3c52004d	0.0128174545
122	0x3b5ca27a	0.003366618
123	0x3d063b76	0.03277155
124	0x3c17799a	0.009245301
125	0xbc769dea	-0.015052298
126	0xbd5544f8	-0.052067727
127	0x3c7b2e15	0.015330811
128	0xbc8a60a0	-0.016891778
129	0xbd8c7c3f	-0.068596356
130	0xbcdef94f	-0.027218489
131	0x3b22cf5f	0.002484284
132	0x3cdf9fa7	0.027297808
133	0x3c3c950a	0.011510143
134	0x3ce9fcb6	0.028562885
135	0xbb859800	-0.0040769577
136	0xba9943e0	-0.0011693202
137	0xbd450b58	-0.04810652
138	0x3d2332a6	0.039843224
139	0xbd88d730	-0.06681669
140	0xbd5159e5	-0.05111112
141	0xbad23147	-0.0016036414
142	0xbcac4429	-0.021028595
143	0xbcce55f4	-0.02518747
144	0x3be00b75	0.0068373033
145	0xbcdb7c0a	-0.026792545
146	0xbd735b42	-0.059413202
147	0xba4e01e3	-0.00078585575
148	0xbc88306a	-0.016624648
149	0xbd533655	-0.051565487
150	0x3be26a5e	0.0069096526
151	0xbc16d0dd	-0.00920507
152	0x3cd0bc39	0.025480377
153	0xbba14041	-0.0049209897
154	0x3cd3f7e5	0.025875041
155	0x3b38c5a7	0.0028193982
156	0x3ccd1ca2	0.025038067
157	0x3d14ba3e	0.036310427
158	0xbc1a11d4	-0.009403665
159	0x3bc5f511	0.006041177
160	0x3bcccf20	0.006250277
161	0x3cff244d	0.03114524
162	0x3c8d21d8	0.017228052
163	0xbd646a1c	-0.055765256
164	0x3cc7c37b	0.024385205
165	0xbcc610fd	-0.024178023
166	0xbc4be374	-0.012444366
167	0x3d1cec69	0.038311396
168	0xbd476922	-0.048684247
169	0x3c7d6e1a	0.015468145
170	0x3cdac683	0.026705986
171	0xbb734efc	-0.0037125936
172	0x3d480474	0.04883237
173	0x3d9d5264	0.076817304
174	0xbadb719b	-0.0016742231
175	0xbd258804	-0.040412918
176	0xbd0e5da9	-0.03475729
177	0x3d56e839	0.05246756
178	0x3c87fd74	0.016600348
179	0xbbf96f72	-0.0076121623
180	0xbba5479d	-0.0050439374
181	0x3cec3947	0.028835906
182	0x3b81fbe2	0.0039667943
183	0xbcec7ba9	-0.02886756
184	0xbd0239a4	-0.03179325
185	0xbc9cf610	-0.0191603
186	0xbc5872c1	-0.013210953
187	0x3c8af948	0.01696457
188	0x3d807948	0.062731326
189	0xbcdb6861	-0.02678317
190	0x3cfe7bc1	0.03106487
191	0x3cfa8258	0.03057973
192	0xbd32bbb7	-0.04363605
193	0x3d08d34f	0.033404645
194	0x3ad01284	0.0015874659
195	0xbd52e116	-0.05148419
196	0xbd3e943e	-0.046528094
197	0xbd51113f	-0.051041838
198	0x3c4a6515	0.012353201
199	0x3ca19e12	0.019728694
200	0xbdbf7456	-0.09348361
201	0xbbc35736	-0.005961324
202	0xbd57acf9	-0.052655194
203	0xbda71d24	-0.08159855
204	0x3c9c9cde	0.019117769
205	0xbd4e2ae2	-0.050333865
206	0x3d96de5d	0.07366631
207	0xbc1c6f5e	-0.009548036
208	0xbd11f8c5	-0.035637636
209	0x3d350920	0.044198155
210	0xbd56f778	-0.0524821
211	0x3cbbb149	0.022911685
212	0xbc703cc8	-0.014662929
213	0xbd9448fe	-0.07240485
214	0x3c94a97c	0.018147223
215	0x3d92b3a5	0.07163171
216	0x3c60c84e	0.013719631
217	0x3b7c143f	0.0038464216
218	0x3c2421d8	0.010017835
219	0x3d237f1f	0.039916154
220	0xbca47071	-0.020073147
221	0xbbb82a1a	-0.0056202533
222	0xbb81d936	-0.003962661
223	0xbcb16a11	-0.021657022
224	0xbcbaba0a	-0.022793788
225	0xbd2158c8	-0.03939131
226	0x3d1c984f	0.03823119
227	0x3cf9be45	0.030486235
228	0x3c2b1b05	0.010443454
229	0x3c3bc0e6	0.011459565
230	0xbd585995	-0.052819807
231	0x3c64ae14	0.013957519
232	0x3c6399da	0.013891662
233	0x3d530fa8	0.051528603
234	0x3c776c35	0.015101482
235	0xbc875ac7	-0.016522778
236	0xbd14eeea	-0.03636066
237	0x3a91581f	0.0011088884
238	0xbd1558db	-0.036461692
239	0xbcb3f767	-0.021968557
240	0xbbee19c9	-0.0072662574
241	0xbd946112	-0.07245077
242	0x3d01ebcf	0.031719025
243	0x3c240c90	0.010012761
244	0xbb6b6a3b	-0.0035921473
245	0xbce98769	-0.028506951
246	0xbc95cfd7	-0.018287582
247	0x3c3d9a79	0.011572474
248	0xbc75279b	-0.014963056
249	0xbc54b224	-0.012981925
250	0xbc304287	-0.010758049
251	0xbc08a9ff	-0.0083413115
252	0xbd1df007	-0.038558986
253	0x3ad68c5f	0.0016368738
254	0x3c89894a	0.016789097
255	0x3d253e57	0.040342655

conv3.bias f4 [128]
0	0xbc7ba3cf	-0.015358879
1	0xbcde55fe	-0.027140614
2	0xbcbd04e1	-0.023073616
3	0x3d857ea6	0.06518297
4	0xbc96150f	-0.018320588
5	0x3bcd5025	0.0062656575
6	0xbc7ca027	-0.015419043
7	0x3d257206	0.040391944
8	0xbca659dc	-0.02030652
9	0x3c5581ea	0.013031462
10	0xbc98f04f	-0.018669276
11	0xbc4b4ba5	-0.012408172
12	0x3d37ddf1	0.044889394
13	0xbc703c79	-0.014662855
14	0x3c9c5a54	0.01908604
15	0x3d08f60d	0.033437777
16	0x3d598219	0.053102586
17	0x3d257a05	0.04039957
18	0x3cc268a9	0.023731546
19	0x3c19e112	0.00939204
20	0x3d0c826d	0.03430407
21	0x3cda8438	0.026674375
22	0x3d614927	0.055001404
23	0x3cfd7131	0.030937763
24	0xbc9d6bf1	-0.01921651
25	0x3c8d9933	0.017284965
26	0x3d50e947	0.05100372
27	0xba4df0d4	-0.00078560156
28	0x3c9bdd35	0.019026378
29	0xbd22f67f	-0.03978586
30	0xbd49c618	-0.049261183
31	0x3cde5a11	0.027142556
32	0xbd012272	-0.03152699
33	0x3d1fcc77	0.039013352
34	0x3c0c5a7c	0.008566495
35	0xbd01b9fb	-0.031671505
36	0x3d3cdaef	0.04610723
37	0xbd182329	-0.037142906
38	0x3c14ce20	0.009082347
39	0x3ba51c93	0.0050388067
40	0x3d0eaea4	0.03483452
41	0xbc4468cc	-0.011987876
42	0x3c7314e3	0.014836523
43	0xbce19ac0	-0.02753961
44	0x3cadf605	0.021235475
45	0x3d98cc47	0.07460838
46	0x3bcbcc14	0.0062193964
47	0x3c24d543	0.010060611
48	0x3c9bf587	0.019037975
49	0x3b6e58c8	0.0036368836
50	0xbb3c03e0	-0.0028688833
51	0x3c93fb64	0.018064208
52	0xbcfb1f44	-0.030654557
53	0x3d6d139c	0.05788003
54	0xbbeb5e6e	-0.0071828878
55	0x3cd66f6c	0.026176177
56	0xbaba8fd8	-0.0014233543
57	0x3d830b6d	0.06398664
58	0xbc80fe0a	-0.015746135
59	0x3cf5d1de	0.030007299
60	0x3d26aa48	0.040689737
61	0x3d017626	0.031606816
62	0x3bf6bb17	0.007529627
63	0xbbef81dc	-0.0073091816
64	0xbcb98d18	-0.022650287
65	0x3d2b1508	0.041768104
66	0x3d29683f	0.041359182
67	0x3cdada25	0.026715348
68	0x3ca88104	0.020569332
69	0x3c4d5e18	0.012534641
70	0x3b670335	0.0035249714
71	0x3ce6703a	0.028129686
72	0xbbf4510a	-0.0074559497
73	0x3ca27ad7	0.019833965
74	0x3cc455d9	0.023966717
75	0x3d6e1029	0.05812088
76	0x3d1dbc3a	0.038509585
77	0x3d4f2ebd	0.050581682
78	0x3c9c45a8	0.019076183
79	0x3cf46f6e	0.02983829
80	0xbd05391f	-0.032525178
81	0x3d16b65c	0.036795005
82	0x3be2bda6	0.0069195805
83	0xbcf14953	-0.029453909
84	0x3c37adde	0.011210887
85	0xb915a018	-0.00014269387
86	0x3d313c75	0.043270547
87	0xbba25341	-0.0049537723
88	0x3c5e2807	0.013559348
89	0x3c978a15	0.01849846
90	0xbcd16108	-0.025558963
91	0x3da654f8	0.08121675
92	0xbbd9af86	-0.0066432385
93	0x3cc483b9	0.023988592
94	0xbca4cd73	-0.020117497
95	0xbc07f644	-0.00829846
96	0x3bffe900	0.007809758
97	0x3cc5959c	0.02411919
98	0xbc8fd4eb	-0.017557582
99	0x3d1035f7	0.035207715
100	0x3d0be7ae	0.034156494
101	0x3d434dfe	0.0476818
102	0xbc63b57f	-0.0138982525
103	0xbcaa4768	-0.020786002
104	0x3d26aae8	0.040690333
105	0x3d72e137	0.059296813
106	0x38d044e4	9.931045e-05
107	0x3d2df555	0.042470295
108	0xbd1d3ee1	-0.038390044
109	0x3c47f265	0.012203787
110	0x3cb4dd40	0.022078156
111	0x3bde6e23	0.0067880317
112	0xbcb8d583	-0.022562748
113	0xbbb97791	-0.0056600054
114	0x3d38b2fd	0.04509257
115	0x3d4f9f02	0.05068875
116	0x3c3ecfdf	0.01164624
117	0xbbfd201e	-0.007724776
118	0xbc66f8a2	-0.014097365
119	0x3cf5eaef	0.030019252
120	0xbcb13fde	-0.0216369
121	0x3c273859	0.010206305
122	0xbc83ef96	-0.016105454
123	0x3be3fbca	0.006957506
124	0xbc9d56cb	-0.019206425
125	0xbcfb7efd	-0.030700201
126	0xbca2a4f2	-0.019854043
127	0x3d81d7db	0.06339999

act_conv1.weight f4 [4, 128, 1, 1]
0	0x3bbb7540	0.0057207644
1	0x2c0e6404	2.0234934e-12
2	0x3ba2e0ca	0.0049706446
3	0xbdf4afaa	-0.11947568
4	0x3c31de6c	0.010856252
5	0xb87e1088	-6.0573715e-05
6	0x3d4b1ca9	0.04958788
7	0x3c7e073b	0.015504654
8	0x3d8e2237	0.0694012
9	0xbdd5ba94	-0.104359776
10	0xbc656476	-0.014001003
11	0x3c9341f1	0.01797578
12	0xbe0518b0	-0.12997699
13	0x3c2eeb0b	0.010676156
14	0x3cf2b680	0.029628038
15	0xbd418fc8	-0.04725626
16	0x3be33ced	0.006934753
17	0xbd7a0115	-0.06103619
18	0x3ce5ba22	0.028042857
19	0x3c0dd29c	0.00865617
20	0xbca9c3fd	-0.020723337
21	0x3cc42166	0.023941707
22	0xbdc07c23	-0.09398677
23	0x3bc6ce54	0.0060670767
24	0x3c8542e1	0.016267242
25	0x3d123e52	0.035703965
26	0xbc5a77b7	-0.013334206
27	0xbd207da1	-0.03918231
28	0xba83c853	-0.0010054208
29	0xbd2c8a15	-0.042123873
30	0xbcbbd616	-0.022929233
31	0x3d1328d1	0.035927597
32	0xac60e84c	-3.1961265e-12
33	0xbad65019	-0.0016350775
34	0xbcd7a1a6	-0.026322197
35	0x3d4cdc69	0.050014887
36	0xbd8b16de	-0.06791471
37	0xbc9761cd	-0.018479252
38	0xbaa549b6	-0.0012610469
39	0xb8ba12a1	-8.872641e-05
40	0xbd27c61f	-0.040960427
41	0xbc7bb1a6	-0.015362179
42	0xbd1c1780	-0.03810835
43	0xbd62a029	-0.055328522
44	0xbbf9020b	-0.0075991205
45	0xbda73970	-0.08165252
46	0xbc056c15	-0.008143445
47	0xbda6eaf7	-0.08150285
48	0xbb1d8aea	-0.0024039098
49	0xbd0125e3	-0.031530272
50	0x3cfba70c	0.030719303
51	0x3cd95e71	0.026534291
52	0xbc29bfea	-0.010360697
53	0xbd182679	-0.037146065
54	0xbd8286b8	-0.06373352
55	0x3d6ff3d1	0.05858213
56	0x2c06ef04	1.9175226e-12
57	0xbddb4ebe	-0.10708378
58	0xbd91fc0a	-0.07128151
59	0xbc958ff1	-0.018257113
60	0xbda1c7ac	-0.078994125
61	0x3ce9ec26	0.028554987
62	0x3d04da89	0.032434974
63	0x2e9d05bb	7.140551e-11
64	0x3d75d376	0.060016118
65	0xbd4a854e	-0.049443536
66	0x3d27f31a	0.041003324
67	0xbcc8fd48	-0.024534836
68	0xbd54b7a5	-0.05193295
69	0xbba4af1d	-0.005025758
70	0x3d1cb15e	0.038255088
71	0x3bff51b7	0.0077917236
72	0xbd12312c	-0.035691425
73	0x3d946788	0.072463095
74	0x3d4b6f9e	0.049666993
75	0xbd756e5c	-0.0599197
76	0xbbda9d4d	-0.0066715837
77	0xbba63919	-0.0050727245
78	0xbd816eb9	-0.06319947
79	0xbcc09984	-0.023510702
80	0x3be14f7d	0.006875931
81	0x3d0a35c2	0.033742674
82	0xbb31935a	-0.0027095885
83	0xac0996c2	-1.9552558e-12
84	0xbce98305	-0.028504858
85	0x2e37726e	4.1711017e-11
86	0xbdd9d45b	-0.10636207
87	0x3d951b9d	0.072806574
88	0x3d300137	0.04296991
89	0xbbb21aaf	-0.00543531
90	0x3c321913	0.010870236
91	0xbda99aa4	-0.082814485
92	0x3c88cd48	0.016699448
93	0x3d66946c	0.05629389
94	0xbcf27502	-0.02959681
95	0x3d4f3bc7	0.050594117
96	0xbd296964	-0.041360274
97	0x3d492e04	0.04911615
98	0xbd126947	-0.03574493
99	0x3d60f17f	0.05491781
100	0xbc059947	-0.00815422
101	0x3cbc2836	0.022968393
102	0xbbe98df0	-0.007127516
103	0xbda31595	-0.07963101
104	0xbc0cabc3	-0.008585873
105	0x3ae1ef6e	0.0017237493
106	0xbbb27c6d	-0.0054469616
107	0xbdb7ce78	-0.08974928
108	0x3cc2b2aa	0.023766834
109	0x3d7e9f22	0.06216348
110	0xbcf66bc0	-0.030080676
111	0xbad67021	-0.0016360321
112	0xad1a79eb	-8.780958e-12
113	0x3b1dfe1b	0.0024107757
114	0xbcef6711	-0.02922395
115	0xbccacd58	-0.024756119
116	0xbd2da094	-0.042389467
117	0x3d260256	0.04052957
118	0x3d018534	0.031621173
119	0xbc5068d8	-0.012720309
120	0x3d943918	0.07237452
121	0xbceed5ba	-0.029154647
122	0xbca88855	-0.02057282
123	0xbdc43cbc	-0.09581897
124	0x2fe981f2	4.2474785e-10
125	0x3d25cde6	0.040479563
126	0x2cac7976	4.902019e-12
127	0xbc48a37f	-0.012246012
128	0xbbb64e47	-0.0055635306
129	0x3d1954a4	0.037434235
130	0xbd67653f	-0.05649304
131	0x3d2d3901	0.04229069
132	0x3dc680b0	0.09692514
133	0xbdbefcd5	-0.09325568
134	0xbd79c5cd	-0.060979653
135	0x3da8d9f4	0.08244696
136	0x3d8a6627	0.06757765
137	0xbdb67c07	-0.08910375
138	0x3c15f87b	0.009153481
139	0xbe126b9a	-0.14298859
140	0x3cc687e6	0.024234723
141	0x3cd23829	0.025661545
142	0x3debe58b	0.11518391
143	0x3e010fa5	0.12603624
144	0xbe27d8dc	-0.16391319
145	0xbd3145c1	-0.043279413
146	0x3c0da1f5	0.008644571
147	0x3c636aec	0.013880473
148	0x3d2a36b0	0.04155606
149	0xbd86e014	-0.06585708
150	0x3cd67a76	0.02618144
151	0xbccc9467	-0.024973108
152	0x3d587114	0.052842215
153	0xbbae0cd8	-0.0053115897
154	0xb9f37856	-0.0004643823
155	0x3e07b197	0.13251339
156	0x3d9e4ccc	0.077294916
157	0xbde23442	-0.11045124
158	0xbbcbf8c4	-0.0062247235
159	0xbd8659e5	-0.06560115
160	0xbd663546	-0.05620315
161	0x3d46f1b7	0.04857036
162	0x3c9c9ba7	0.01911719
163	0x3bfa8ac1	0.0076459353
164	0x3e02dcab	0.1277949
165	0x3df87ee7	0.1213358
166	0x3c871e32	0.01649389
167	0xbc87e4ba	-0.016588558
168	0x3d040da5	0.032239575
169	0xbab8bdc9	-0.0014094646
170	0xbd4da6d4	-0.050207928
171	0x3d71e989	0.059060607
172	0xbdbd5a31	-0.09245718
173	0x3d2d1b1b	0.042262178
174	0xbd342530	-0.043980777
175	0xbb11cf2d	-0.002224873
176	0xbe0356c3	-0.12826066
177	0xbcdc2dfe	-0.0268774
178	0x3cd9ad5a	0.026571918
179	0x3c791734	0.015203286
180	0xbe212240	-0.15735722
181	0x3e001755	0.125089
182	0x3cce37f1	0.02517316
183	0xbd4ef7b3	-0.050529193
184	0x309081a5	1.0514226e-09
185	0x3dbaa918	0.09114283
186	0x3baf344e	0.0053468114
187	0x3da65852	0.081223145
188	0x3dbe31a1	0.0928681
189	0x3c34143c	0.010991152
190	0xbcfb9ed9	-0.030715393
191	0xab06ad04	-4.784647e-13
192	0x3bb81353	0.005617538
193	0x3db357bb	0.08756968
194	0x3dc510f2	0.09622373
195	0x3da69594	0.081339985
196	0x3d95bac2	0.07311012
197	0xbd0c1aff	-0.034205433
198	0xbd4db923	-0.05022539
199	0x3dd90e0e	0.10598384
200	0x3df5b4c6	0.119973704
201	0x3dc1cf13	0.094633244
202	0x3da299d9	0.079395
203	0xbde4f8e1	-0.111802824
204	0xbc08af46	-0.00834257
205	0x3ca2b49c	0.019861512
206	0x3dc78ca0	0.09743619
207	0x3e11d0c9	0.14239801
208	0xbd5680d3	-0.05236895
209	0x3c1cc26b	0.009567837
210	0xbcbf09e4	-0.023320146
211	0xbc6adb9b	-0.014334585
212	0x3d93f647	0.07224708
213	0x2f169aeb	1.3697458e-10
214	0x3dd19a34	0.1023449
215	0xbd9991e1	-0.07498527
216	0x3db3f4a6	0.08786897
217	0x3b181f91	0.0023212174
218	0x3c2a4d57	0.010394416
219	0x3d8cba7d	0.06871507
220	0xbd278f66	-0.04090824
221	0xbda3167d	-0.07963274
222	0x3d5d5620	0.054037213
223	0x3d9be51e	0.0761206
224	0x3dca825a	0.09888144
225	0x3c9b7bee	0.018979993
226	0xbd803f45	-0.06262068
227	0x3d0a3f57	0.03375181
228	0x3df929df	0.121661894
229	0x3d8c794f	0.06859075
230	0xbdfc2b97	-0.123130016
231	0x3e115e78	0.14196193
232	0x3dba6eef	0.0910319
233	0xbc8191f1	-0.01581666
234	0xbcd747f6	-0.02627943
235	0x3e30e7db	0.17275946
236	0xbddbe7c3	-0.107375644
237	0xbba2d286	-0.004968944
238	0x3dd97aa9	0.10619099
239	0xbceb72eb	-0.02874132
240	0xba00dc32	-0.0004915624
241	0x3d554720	0.052069783
242	0x3e426ec1	0.18987562
243	0xbe0cd72e	-0.1375396
244	0x3bf6394f	0.007514156
245	0xbdb47be4	-0.08812693
246	0x381619f0	3.5786943e-05
247	0x3daf27fd	0.08552549
248	0xbd1a6e04	-0.037702575
249	0x3d356f35	0.04429551
250	0x3de51ef4	0.111875445
251	0x3cd2696a	0.025685031
252	0x3a250899	0.00062955316
253	0x3ccc2cd5	0.024923721
254	0x3a24bb98	0.0006284057
255	0x3d77b23f	0.060472723

act_conv1.bias f4 [4]
0	0xbc9a8c6d	-0.018865788
1	0x3d74cb08	0.05976394
2	0x3d9e1c6c	0.07720265
3	0xbd8a70d1	-0.06759799

act_fc1.weight f4 [36, 144]
0	0xbd0d5ae6	-0.034510516
1	0xbd5916e3	-0.053000342
2	0xbd9fc599	-0.07801361
3	0xbcd99766	-0.02656145
4	0xbd168bc7	-0.036754396
5	0xbd8d347d	-0.06894777
6	0xbd02ddb1	-0.031949703
7	0xbd84d843	-0.06486561
8	0xbd7f4ba1	-0.062327985
9	0xbdd4f394	-0.10398021
10	0xbd109bc8	-0.035304815
11	0xbdde86ec	-0.10865578
12	0xbdeed4e5	-0.116617
13	0xbdaa32af	-0.083104484
14	0xbdbefd98	-0.09325713
15	0xbd46e550	-0.048558533
16	0xbd3bc83f	-0.045845266
17	0xbc6d1a69	-0.014471629
18	0xbd0d66af	-0.034521755
19	0xbd26e648	-0.040746957
20	0xbcbb7bb0	-0.022886127
21	0xbd069129	-0.03285328
22	0x3c0f613b	0.008751209
23	0xbcb4e5b1	-0.022082182
24	0x3b3d8a90	0.00289217
25	0xbcbfdd10	-0.02342084
26	0xbda2142f	-0.07914006
27	0xbcc7e37c	-0.024400465
28	0x3cac8171	0.021057816
29	0x3c243126	0.0100214835
30	0xbc8891e7	-0.016671134
31	0xbd16ced4	-0.03681834
32	0xbc1dfa39	-0.009642177
33	0xbc9e402a	-0.019317705
34	0xbcf4b112	-0.02986959
35	0xbd4f1a90	-0.05056244
36	0x3d3ccaf9	0.046092007
37	0x3d8e6df2	0.06954564
38	0x3a857210	0.0010181088
39	0x3d6644fc	0.056218132
40	0x3db046ba	0.0860724
41	0x3d0b0527	0.03394046
42	0xbcb12f43	-0.021628981
43	0xbd0370ad	-0.032089878
44	0xbd1e4fe0	-0.038650393
45	0x3d9ea684	0.07746604
46	0x3cde8544	0.027163155
47	0x3bd4ba00	0.0064918995
48	0x3cbc79af	0.023007242
49	0x3d257a51	0.040399853
50	0xbd045e73	-0.032316636
51	0xbd08a761	-0.03336275
52	0xbd951031	-0.07278479
53	0x3d0fb5bd	0.03508543
54	0xbc87e4dc	-0.01658862
55	0xbde43bfe	-0.11144255
56	0x3d03180c	0.032005355
57	0x3d7ad8b7	0.06124183
58	0x3b894136	0.004188682
59	0x3c2e9f4d	0.010658097
60	0xbd9a07f8	-0.07521051
61	0x3d5b8afe	0.05359935
62	0xbc97ef8f	-0.018546848
63	0xbd70ba73	-0.05877156
64	0xbc7f20d2	-0.01557179
65	0xbc39388a	-0.011304984
66	0x3c86d50c	0.01645901
67	0xbd874596	-0.06605069
68	0x3cccd79b	0.025005152
69	0xbd1a077f	-0.037604805
70	0xbe303ae2	-0.17209962
71	0x3bc46433	0.00599339
72	0xbca7ceed	-0.020484412
73	0xbd2d2164	-0.042268172
74	0xbd5987c6	-0.053108
75	0xbd340828	-0.04395309
76	0x3d8ef589	0.06980426
77	0xb9c06038	-0.00036692782
78	0xbd6485e3	-0.055791747
79	0xbdd4700e	-0.10372935
80	0xbda96a20	-0.08272195
81	0xbd24c5ca	-0.04022769
82	0xb9b40c78	-0.00034341565
83	0x3b9ee337	0.0048488635
84	0xbdff2d7b	-0.124598466
85	0xbd8a762d	-0.067608215
86	0xbc4bb6e0	-0.0124337375
87	0xbddba19d	-0.10724185
88	0xbd37b5b6	-0.044851027
89	0xbdb0572a	-0.08610375
90	0x3d2c704a	0.042099275
91	0xbdf486f5	-0.119398035
92	0xbdce1cff	-0.10064124
93	0xbd22e0ae	-0.039765052
94	0xbd281a4f	-0.041040715
95	0xbd214b96	-0.039378725
96	0xbdbe57cc	-0.0929409
97	0xbcd1a18d	-0.025589729
98	0xbba0408c	-0.004890507
99	0xbe0e0288	-0.13868153
100	0xbc7b03cb	-0.0153207285
101	0x3d0c40e1	0.03424156
102	0x3a9850e9	0.0011620793
103	0xbb9caad9	-0.004781109
104	0xbdc317ef	-0.09526049
105	0xbd947562	-0.072489515
106	0xbdad59d9	-0.08464403
107	0x3b1f8858	0.0024342742
108	0xbd36e785	-0.044654388
109	0xbd47f9fc	-0.048822388
110	0xbcdc8c44	-0.026922353
111	0xbdae85c8	-0.085216105
112	0xbdda971a	-0.106733516
113	0x3c91f523	0.017817086
114	0x3d00ea8f	0.031473693
115	0xbbfd287c	-0.0077257734
116	0x3c902aff	0.017598627
117	0xbd85f9de	-0.06541799
118	0xbd2fc093	-0.042908262
119	0x3cf69a4c	0.030102871
120	0xbcbb0d4a	-0.022833485
121	0xbd170012	-0.0368653
122	0xbbbbb3b2	-0.0057282085
123	0x3d4b11b0	0.049577415
124	0xbcc4c457	-0.024019403
125	0xbd88effa	-0.06686397
126	0xbb21b5b0	-0.0024674945
127	0x3d3d5fcf	0.04623395
128	0xbb029dc4	-0.0019930461
129	0xbc768e1b	-0.015048529
130	0x3c86c03e	0.01644909
131	0x3d5d8194	0.054078653
132	0x3cd1a2af	0.025590269
133	0x3ca1d9aa	0.01975711
134	0x3cfd226a	0.030900199
135	0xbcff4ae5	-0.031163642
136	0xbd919c7d	-0.07109926
137	0xb854ac3c	-5.0705145e-05
138	0x3d89bc07	0.067253165
139	0x3c9f7d9a	0.019469071
140	0xbd05ac31	-0.032634918
141	0x3d01a21c	0.03164874
142	0x3a4e57e2	0.0007871372
143	0xbca1d750	-0.01975599
144	0xbcf37f18	-0.029723689
145	0xbc8ff4a7	-0.017572714
146	0x3cb2208c	0.021744035
147	0xbd13a243	-0.036043417
148	0xbce7a56c	-0.028277121
149	0xbcd759b3	-0.02628789
150	0xbcc07339	-0.023492442
151	0xbccf49ba	-0.02530371
152	0xbc64588a	-0.013937125
153	0xbc819fb2	-0.015823219
154	0xbcbbe172	-0.02293465
155	0xbcfa6992	-0.030567918
156	0xbc51f892	-0.012815611
157	0xbc163756	-0.009168467
158	0xbd941273	-0.072300814
159	0xbcc7b114	-0.02437643
160	0x3c77a2d6	0.015114507
161	0x3af23401	0.0018478633
162	0xbd3a76e6	-0.045523547
163	0xbc987b73	-0.018613553
164	0x3ca97d03	0.020689493
165	0xbba73a3e	-0.0051033786
166	0xbd75868c	-0.059942767
167	0xbd76692d	-0.060158897
168	0x3c80376a	0.015651423
169	0xbd281af4	-0.04104133
170	0x3c755200	0.014973164
171	0x3c71f53a	0.014767939
172	0xbbfea283	-0.0077708378
173	0xbd4f6eeb	-0.05064289
174	0xbc2e0039	-0.01062017
175	0x3c973fb5	0.018462995
176	0x3caf3924	0.021389551
177	0xbcc7a7f5	-0.02437208
178	0x3b23da3b	0.0025001902
179	0xbd19b77d	-0.037528504
180	0xbee23073	-0.4417759
181	0xbd381189	-0.044938598
182	0xbe42ddd2	-0.1902993
183	0x3e073d34	0.13206941
184	0x3df552e9	0.119787045
185	0x3e84448f	0.25833556
186	0xbd3ba40f	-0.045810755
187	0x3e1efcd4	0.15526134
188	0xbe465f23	-0.1937223
189	0xbdca3b61	-0.09874607
190	0xbe02e379	-0.12782086
191	0x3c5b5786	0.013387566
192	0xbdcc0efe	-0.09963797
193	0xbd42031c	-0.047366247
194	0xbd5d28d6	-0.053994022
195	0xbdf8fdae	-0.121577606
196	0xbd3d8808	-0.046272308
197	0xbda5099e	-0.08058475
198	0xbd060cde	-0.032727115
199	0x3ce0fba2	0.027463738
200	0xbd5fb32d	-0.054614235
201	0xbdacd14d	-0.084383585
202	0xbd98d537	-0.074625425
203	0xbd3e0f8e	-0.046401553
204	0xbd272677	-0.040808167
205	0xbe286400	-0.16444397
206	0xbd2fad01	-0.0428896
207	0x3af13a0c	0.001840414
208	0xbc8f8c02	-0.017522816
209	0xbdea2155	-0.11432139
210	0x3aaf851e	0.0013391112
211	0xbc3c78e8	-0.011503436
212	0xbe30f6e5	-0.17281683
213	0xbc3710ff	-0.011173486
214	0xbdc0a661	-0.09406734
215	0xbcb94436	-0.022615533
216	0x3e2bdbad	0.16783018
217	0x3e65c866	0.22439727
218	0x3d9eedc1	0.07760192
219	0x3d930de6	0.07180385
220	0x3de864fe	0.11347388
221	0x3e3fb73d	0.18722244
222	0xbd0d1db0	-0.03445214
223	0xbd0a8efd	-0.03382777
224	0x3d832c87	0.06404977
225	0x3e02327d	0.12714572
226	0x3d8e05bb	0.06934687
227	0x3c49bd67	0.012313223
228	0x3d66e5c3	0.05637146
229	0x3d3a1ca7	0.04543748
230	0xbc17ac0e	-0.00925733
231	0x3c82daab	0.01597341
232	0x3c0c9cfe	0.008582352
233	0xbcd08c03	-0.025457388
234	0x3d44ed68	0.04807797
235	0x3d694845	0.056953687
236	0xbcd9634b	-0.026536604
237	0xbcb9ccd4	-0.022680677
238	0x3cc724f6	0.024309617
239	0xbd276304	-0.040865913
240	0x3d9c5ad9	0.07634515
241	0x3d61f15c	0.05516182
242	0x3c8000d8	0.015625402
243	0x3d902745	0.0703874
244	0x39b2c595	0.00034098016
245	0xbd0ab892	-0.033867426
246	0x3d5f55e8	0.054525286
247	0xbbc4756b	-0.0059954426
248	0xbd8aa449	-0.06769616
249	0xbcb6ad2c	-0.022299372
250	0x3d87b132	0.06625594
251	0xbd6e80e3	-0.058228385
252	0x3bc79454	0.00609068
253	0xbd3f9d39	-0.0467808
254	0xbccffffb	-0.025390616
255	0xbd740519	-0.059575174

act_fc1.bias f4 [36]
0	0xbd229708	-0.039694816
1	0x3cd1ed0e	0.025625732
2	0xbcfa7314	-0.030572452
3	0xbd706bcb	-0.05869655
4	0xbc5825f7	-0.013192645
5	0xbd9f86eb	-0.077894054
6	0xbddbc9d0	-0.10731852
7	0xbc355d31	-0.011069582
8	0x3d1196a3	0.03554405
9	0xbce75bbd	-0.028241986
10	0xbca267ce	-0.019824889
11	0x3d13be19	0.036069963
12	0x3dc40fa8	0.09573299
13	0x3d12a594	0.03580244
14	0x3c4db2e2	0.012554856
15	0xbbe7a03c	-0.007068662
16	0x3cae05be	0.021242972
17	0x3d4794eb	0.048726004
18	0x3cf5e1a4	0.03001482
19	0x3cd6968e	0.026194837
20	0xbd0e5a94	-0.03475435
21	0x3d20a174	0.039216474
22	0x3c4f7ee9	0.012664535
23	0x3d9bbe2b	0.07604631
24	0xbcc7c334	-0.024385072
25	0xbd1ce8ff	-0.03830814
26	0x3dfe9467	0.12430649
27	0xbd784563	-0.060613047
28	0x3d1f66b3	0.0389163
29	0xbc618540	-0.013764679
30	0xbdda4c57	-0.10659092
31	0x3c95348e	0.018213537
32	0x3cc6469f	0.024203597
33	0xbc55f0bc	-0.013057884
34	0xbc09d99e	-0.0084137
35	0x3d5929d4	0.053018406

val_conv1.weight f4 [2, 128, 1, 1]
0	0xbdb5e47b	-0.0888147
1	0xbbf88041	-0.0075836484
2	0x3d65e75e	0.056128852
3	0xbdb6beb5	-0.08923093
4	0x3d6816e7	0.056662466
5	0xbdf2f91b	-0.11863919
6	0x3d86b634	0.06577721
7	0x3c5e0d1d	0.013552931
8	0x3d70dc54	0.05880387
9	0x3a982760	0.0011608414
10	0x3d1a2f8f	0.03764301
11	0xbd1dd568	-0.0385336
12	0x3b0f72e1	0.0021888542
13	0x3db07f5a	0.086180404
14	0x3dd04af2	0.10170545
15	0xbdc198fe	-0.09453009
16	0x3d760d8c	0.060071513
17	0xbd9794a3	-0.07401397
18	0x3d4ce6cf	0.050024804
19	0x3d378dcd	0.044812966
20	0xbda13ac8	-0.0787254
21	0x3cb60c9e	0.022222813
22	0x3bc54112	0.00601972
23	0x3d881b1a	0.06645794
24	0x3d272b16	0.040812574
25	0x3cf18ccb	0.02948608
26	0xbdc7eb95	-0.097617306
27	0xbb0c904d	-0.0021448315
28	0xbdaabe07	-0.08337026
29	0x3d8a24ca	0.06745298
30	0x3d0852f4	0.033282235
31	0x3d45108a	0.048111476
32	0xbc373b31	-0.011183546
33	0x3cd9eb05	0.026601324
34	0xbd3a39ad	-0.04546516
35	0xbde89bdd	-0.113578536
36	0x3d55d2ad	0.05220287
37	0x3de82f45	0.11337141
38	0x3d8c163d	0.06840179
39	0x3d97608a	0.0739146
40	0xbdc9bc20	-0.09850335
41	0xbc7b3099	-0.015331411
42	0x3c79d7b8	0.015249185
43	0x3cce4b09	0.025182264
44	0xbe035ece	-0.12829134
45	0x3b021c7c	0.0019853404
46	0xbd29969c	-0.041403398
47	0x3c8f8378	0.017518744
48	0xbe0ccaa2	-0.13749173
49	0xbce13cf1	-0.02749488
50	0xbd20a8bf	-0.03922343
51	0x3c7f1d8a	0.0155710075
52	0x3c097aa2	0.008391054
53	0x3d6ba977	0.05753466
54	0x3d16c624	0.036810055
55	0x3dab0378	0.08350271
56	0xaccd52f6	-5.835661e-12
57	0x3c574337	0.013138584
58	0x3d801a7d	0.06255052
59	0x3d76be95	0.060240347
60	0xbc6e9f52	-0.014564352
61	0x3d8476c9	0.06467969
62	0x3d9ae344	0.07562879
63	0xbb472f19	-0.0030393063
64	0xbc7db1e9	-0.015484312
65	0xbba47b8e	-0.0050196117
66	0x3d638039	0.055542205
67	0x3c1fa756	0.009744486
68	0xbdeaba30	-0.11461294
69	0x3aaa7220	0.0013003983
70	0x3c66aba1	0.014079005
71	0x3d7e21f7	0.06204411
72	0x3d661a57	0.056177463
73	0x3dacae6c	0.08431706
74	0x3d1d68f9	0.038430188
75	0xbd7e1d19	-0.06203947
76	0xbd894277	-0.0670213
77	0xbe19e056	-0.15026984
78	0xbcfa61ad	-0.030564154
79	0x3dcf8d4e	0.101343736
80	0xbd861301	-0.065465935
81	0xbd0c2bca	-0.034221448
82	0xbe348323	-0.1762815
83	0xbb9367fc	-0.00449848
84	0xbd83a339	-0.064276166
85	0x2d1cc46e	8.9111895e-12
86	0xbddcd691	-0.10783113
87	0x3de2c13f	0.11072015
88	0x3dc8fae4	0.098134786
89	0xbdf6af92	-0.12045206
90	0x3d1173c4	0.035510793
91	0xbc9fecfc	-0.019522183
92	0xbcb3ad69	-0.021933274
93	0x3d920ff7	0.07131951
94	0xbd9a39df	-0.07530569
95	0xbc602bfa	-0.01368236
96	0xbb3a8c08	-0.0028464813
97	0xbe104dbf	-0.14092158
98	0x3cd4388d	0.025905872
99	0xbca60722	-0.020267073
100	0xbdac0ad1	-0.084005006
101	0xbdb07f8f	-0.0861808
102	0x3c3b25e7	0.011422611
103	0xbd117d93	-0.035520148
104	0xbd46c0f1	-0.048523847
105	0xbd019838	-0.031639308
106	0x3d60dc03	0.05489732
107	0xba8af8f6	-0.0010602761
108	0x3d7fed78	0.062482327
109	0xbd0b2398	-0.03396949
110	0x3d61a889	0.05509237
111	0x3d39eed0	0.045393765
112	0x3028358c	6.119414e-10
113	0x3d315047	0.04328945
114	0x3d7d97a0	0.06191218
115	0xbe14fb2c	-0.1454894
116	0x3da4b5a4	0.08042458
117	0x3c034221	0.008011372
118	0x3c11db5e	0.008902399
119	0xbd9086f5	-0.07056991
120	0x3d03d744	0.032187715
121	0xbe0bd582	-0.13655666
122	0x3cc9a485	0.024614582
123	0x3cf26228	0.02958782
124	0x3ad690df	0.0016370079
125	0x3cdcfbe1	0.026975574
126	0xb92c429a	-0.00016428009
127	0xbc7995f1	-0.015233503
128	0x3c24554d	0.010030103
129	0x3cc8d0c4	0.02451361
130	0xbd80ad4a	-0.06283052
131	0xbd9c1872	-0.0762185
132	0xbdca4fe9	-0.09878523
133	0x3d875714	0.06608406
134	0x3d2b1f82	0.041778095
135	0x3d9b4a64	0.07582548
136	0x3d1b6543	0.037938368
137	0xbc2fc132	-0.010727214
138	0xbb583f2a	-0.0032996633
139	0x3d55190c	0.05202584
140	0xbd27899c	-0.04090272
141	0xbba09b66	-0.0049013374
142	0xbdd6704e	-0.10470639
143	0xbdd8b315	-0.10581032
144	0xbdd808a1	-0.10548521
145	0x3ceaa278	0.028641924
146	0x3cb39225	0.021920273
147	0xbd37bd27	-0.044858124
148	0x3d021943	0.031762373
149	0x3cba09de	0.022709783
150	0x3bd566c8	0.0065124966
151	0x3d5a3b35	0.05327912
152	0xbb24be9f	-0.0025138033
153	0xbd2eb964	-0.04265727
154	0xbce08252	-0.027405892
155	0xbdb64414	-0.088997036
156	0xbd492dc8	-0.049115926
157	0xbd356cd3	-0.044293236
158	0x3c9d6c20	0.019216597
159	0x3d49ee33	0.04929943
160	0x3a930fcd	0.0011219919
161	0x3d3e4230	0.04644984
162	0x3ca7beeb	0.020476779
163	0xbc947691	-0.018122943
164	0x3bbe1c5f	0.005801722
165	0x3d4a3b6a	0.049373068
166	0xbdd519f8	-0.10405344
167	0xbda051d8	-0.078281105
168	0x3d1c4401	0.03815079
169	0x3d2188cb	0.039437097
170	0x3d7de851	0.061989132
171	0x3d773d9a	0.060361482
172	0x3d6ea9e6	0.058267497
173	0xbbb39033	-0.0054798364
174	0x3d98c320	0.07459092
175	0x3c4449c5	0.011980479
176	0x3ce9c362	0.028535549
177	0xbca37f3b	-0.01995813
178	0xbdf42948	-0.11921936
179	0xbde76f56	-0.113005325
180	0x3d834a5a	0.06410666
181	0xbcc959b7	-0.024578912
182	0x3d15ffa5	0.036620755
183	0xbb070cdc	-0.002060703
184	0x319d475b	4.5774136e-09
185	0xbd4de5d8	-0.050268024
186	0x3b60fe91	0.003433142
187	0x3d63681c	0.05551921
188	0x3cf51f3e	0.029922124
189	0x3bef4e50	0.0073030367
190	0x3c19de43	0.00939137
191	0x390368e2	0.00012532205
192	0x3ca34c08	0.019933715
193	0x3ce6defd	0.028182501
194	0xbdf9930c	-0.1218625
195	0xbdc040cc	-0.09387359
196	0x3d275140	0.04084897
197	0xbd2e0b1c	-0.042491063
198	0xbc6697e3	-0.014074299
199	0xbd96d658	-0.073651016
200	0xbd71d538	-0.059041232
201	0xbe31efb7	-0.173766
202	0x3cbeaf56	0.023276966
203	0xbc600005	-0.01367188
204	0x3d34f4a0	0.044178605
205	0xbc20180b	-0.009771357
206	0x3d54b511	0.05193049
207	0xbdde848c	-0.10865125
208	0x3b0f4890	0.002186332
209	0xbda1ebd5	-0.079063095
210	0xbcd6814a	-0.026184697
211	0xbbb602cc	-0.0055545326
212	0x3d222565	0.039586443
213	0x308dd8f2	1.032076e-09
214	0x3c8502d0	0.016236693
215	0xbd9e5768	-0.07731515
216	0xbd7cf3fa	-0.06175611
217	0x3d9b2ef5	0.07577316
218	0xbd774c1d	-0.06037532
219	0xbd50449e	-0.05084669
220	0x3c6b8fcb	0.014377545
221	0xbb701933	-0.0036636114
222	0x3d5ad108	0.053422004
223	0x3cf174e6	0.029474687
224	0xbdabf0bf	-0.08395528
225	0xbc3c486c	-0.011491876
226	0x3caee138	0.021347627
227	0xbdc09c90	-0.09404862
228	0xbdb13689	-0.0865298
229	0x3d9f6e3e	0.07784699
230	0x3d870381	0.06592465
231	0x3db816c6	0.08988719
232	0xbbc5e731	-0.006039523
233	0xbda754ea	-0.08170493
234	0x3dcfe46a	0.101509884
235	0x3cc29943	0.023754722
236	0x3d8c7ab2	0.0685934
237	0x3b9a2e0a	0.0047051953
238	0xbe0d78ca	-0.13815609
239	0xbd025dc1	-0.031827692
240	0xbaf826ef	-0.0018932502
241	0xbda636ee	-0.08115946
242	0xbd596575	-0.053075273
243	0xbd5917c8	-0.053001195
244	0x3e087a5f	0.13327931
245	0xbd2c5408	-0.042072326
246	0xbbaa3a0c	-0.005194908
247	0xbd626ac1	-0.05527759
248	0xbd8378c3	-0.06419518
249	0xbc7728bd	-0.015085396
250	0x3d115fb1	0.03549165
251	0x3d0b93d3	0.034076523
252	0xbbc770c1	-0.0060864394
253	0xbd88353a	-0.06650777
254	0x3814affe	3.5449855e-05
255	0xbc287696	-0.010282179

val_conv1.bias f4 [2]
0	0x3d116dec	0.03550522
1	0x3d959062	0.073029295
