models/Training/AC_nmcts20/train_065.pth (torch, 424031 bytes, 15 tensors)

conv1.weight f4 [32, 5, 3, 3]
0	0x3d65b107	0.05607703
1	0xbe43fbd4	-0.19139034
2	0xbd1a240f	-0.037632044
3	0x3e2d2fba	0.16912737
4	0xbe70246c	-0.23451394
5	0xbca35b44	-0.01994098
6	0x3dfbcb99	0.122946925
7	0xbe07635a	-0.13221493
8	0x3d3417bf	0.04396796
9	0x3cc5ad6f	0.024130551
10	0xbb559380	-0.0032589138
11	0x3e271535	0.16316684
12	0x3d82dded	0.06389985
13	0xbe0e24b1	-0.13881184
14	0x3e1ec93c	0.15506452
15	0xbcdd9958	-0.027050659
16	0xbcaafca4	-0.020872422
17	0x3df7b46a	0.12094958
18	0x2ea28ce5	7.391935e-11
19	0xa90e8bdc	-3.1651643e-14
20	0x2ab68704	3.242338e-13
21	0x2d539392	1.2026729e-11
22	0x2c66c3fc	3.279376e-12
23	0x2f247448	1.4957025e-10
24	0xb0836a84	-9.561778e-10
25	0x2bbc4e8d	1.3380006e-12
26	0x29b2da3a	7.942644e-14
27	0x3e022d00	0.12712479
28	0x3cb7a95c	0.022419624
29	0xbd4d0236	-0.050050937
30	0xbdfc5562	-0.12320973
31	0xbe06d5ca	-0.13167492
32	0x3c852b8a	0.016256113
33	0x3d47f07a	0.04881332
34	0xbe0aef6f	-0.13567899
35	0x3ddf663e	0.10908173
36	0xabf2044e	-1.7196329e-12
37	0x2cab7a7d	4.8737112e-12
38	0xac57cd13	-3.0667177e-12
39	0x2c266694	2.3646961e-12
40	0x3221cae1	9.417563e-09
41	0x29d5ab48	9.488813e-14
42	0xaa69cb52	-2.0765098e-13
43	0xab2dff4d	-6.181625e-13
44	0xaf142307	-1.3472966e-10
45	0xbc140b06	-0.009035831
46	0x3e6f2795	0.23354943
47	0x3ddf0d76	0.10891239
48	0x3da868b3	0.08223095
49	0xbcaf5147	-0.02140106
50	0xbd40769f	-0.046988126
51	0x3d8bbccb	0.06823119
52	0x3dd3e241	0.10345889
53	0x3df45f25	0.1193221
54	0x3d5a1f59	0.05325255
55	0xbe49d43c	-0.19709867
56	0xbceba749	-0.028766291
57	0xbd0f8fcc	-0.035049245
58	0x3d530a3f	0.051523443
59	0x3d2309d7	0.039804306
60	0xbd954d3b	-0.07290121
61	0xbd1d8d01	-0.03846455
62	0x3ddddd54	0.108332306
63	0xae3858b0	-4.1915527e-11
64	0x2d8be135	1.5902482e-11
65	0xaa528b42	-1.8700062e-13
66	0xb59c3b32	-1.1640134e-06
67	0x2a199a77	1.364272e-13
68	0x28993f38	1.7013829e-14
69	0xb58c6898	-1.0461254e-06
70	0x2c481f84	2.8439204e-12
71	0x2e24c557	3.7464556e-11
72	0xbdebdd99	-0.11516876
73	0x3e35a340	0.17738056
74	0xbda2a9e1	-0.07942558
75	0xbc7784fa	-0.015107388
76	0xbe252444	-0.16127115
77	0xbdc8c95f	-0.098040335
78	0xbe00a403	-0.12562566
79	0x3dee41f6	0.11633675
80	0xbbd80e4d	-0.0065935017
81	0x2ca15723	4.5855693e-12
82	0x3891b4c9	6.947813e-05
83	0xacd92196	-6.1712397e-12
84	0x2af29889	4.3093678e-13
85	0x2dcbbd22	2.316242e-11
86	0xb71d9089	-9.391581e-06
87	0x2ead993e	7.8943505e-11
88	0x34dcb6dc	4.111124e-07
89	0x2ce6c454	6.55879e-12
90	0xbdb39b7d	-0.087698914
91	0x3d56b4c0	0.05241847
92	0x3dcff8d9	0.10154886
93	0x3d9220df	0.07135176
94	0x3ceb87ec	0.028751336
95	0x3e2637f8	0.16232288
96	0xbe0849cf	-0.13309406
97	0xbe41196c	-0.18857354
98	0x3c80ef5c	0.015739135
99	0xbd0eed5c	-0.034894332
100	0xbd83666d	-0.064160205
101	0xbdccdbfd	-0.10002897
102	0xbced2a77	-0.028950913
103	0xbd58bae3	-0.052912604
104	0x3dc4072c	0.095716804
105	0x3e39449c	0.18092579
106	0x3bf2821f	0.0074007655
107	0x3d887736	0.06663363
108	0xb0faba4e	-1.8242845e-09
109	0xafa2bf87	-2.9603717e-10
110	0x2c8d51e7	4.016554e-12
111	0xaac2a3f5	-3.457509e-13
112	0xb1af2a24	-5.097961e-09
113	0xb86cc445	-5.6449575e-05
114	0xac933391	-4.1837163e-12
115	0xac3ce1de	-2.6841788e-12
116	0xac0999b5	-1.9554196e-12
117	0x3d950f14	0.072782665
118	0xbcd1e8bf	-0.025623677
119	0xbe166990	-0.14688706
120	0xbd6165e6	-0.05502882
121	0xbd43dea4	-0.04781975
122	0x3db55b3e	0.08855294
123	0x3d6f6468	0.058445364
124	0xbce3ad4c	-0.027792595
125	0x3d0da14d	0.034577657
126	0x2fbb5d06	3.40812e-10
127	0x35fafec8	1.8700603e-06
128	0x2d2cbd9e	9.8191715e-12
129	0xb85d6626	-5.278564e-05
130	0xa7f7a392	-6.8733615e-15
131	0xb81e5ebd	-3.7758367e-05
132	0xb359b37f	-5.06875e-08
133	0xa95df590	-4.928485e-14
134	0x2c471f65	2.8297028e-12
135	0x3d34bc4a	0.04412488
136	0xbdc4909f	-0.09597897
137	0xbdec1634	-0.115276724
138	0x3d47cfef	0.048782285
139	0x3d0e224e	0.034700684
140	0xbd012aae	-0.031534843
141	0x3e26262b	0.16225497
142	0x3e5c0d55	0.21489461
143	0x3e23a828	0.15982115
144	0x3d63cf40	0.05561757
145	0xbb2a7ecd	-0.002601552
146	0xbd9f8dc7	-0.07790714
147	0xbd5c5971	-0.053796235
148	0xbe4bffb8	-0.19921768
149	0xbe0e1ea2	-0.13878873
150	0x3d62dce2	0.05538643
151	0x3d19c8d3	0.037545037
152	0xbe114e5c	-0.14190048
153	0xb101efcf	-1.8908286e-09
154	0x2b166571	5.3431483e-13
155	0xae699fb6	-5.3119918e-11
156	0xa9aa1b72	-7.5542776e-14
157	0x2f9650d1	2.7342265e-10
158	0xae785ea0	-5.6472715e-11
159	0xacceac4d	-5.8740014e-12
160	0xacd3e1e1	-6.0220583e-12
161	0xb3f692e6	-1.1481988e-07
162	0x3cf18231	0.029481025
163	0x3df7a10a	0.12091263
164	0x3d5cc931	0.05390281
165	0xbe468986	-0.19388399
166	0x3dbdad41	0.09261561
167	0x3bc93efe	0.0061415425
168	0x3d6e36da	0.05815778
169	0x3d993a6f	0.074818484
170	0x3bcfc7b3	0.0063409447
171	0x3822b745	3.8794493e-05
172	0xafbdd48b	-3.452992e-10
173	0x2e0dbe30	3.222861e-11
174	0x299d35d3	6.9815376e-14
175	0xafb0300a	-3.2048347e-10
176	0x2c11d76c	2.0725322e-12
177	0x2c0902ac	1.9470354e-12
178	0x37906690	1.7213897e-05
179	0xa8ce5020	-2.2905343e-14
180	0x3e04799d	0.12937017
181	0xbd8a84bd	-0.06763599
182	0x3def840e	0.11695109
183	0x3d2f080a	0.042732276
184	0xbc484084	-0.012222413
185	0x3d402df4	0.046918824
186	0x3cea098e	0.02856901
187	0x3cdf10a1	0.027229609
188	0xbe120577	-0.14259897
189	0x3e043a68	0.12912905
190	0xbe165fda	-0.14685002
191	0x3dd77885	0.10521034
192	0x3da02245	0.078190364
193	0x3d4d5714	0.050131872
194	0x3dfefe69	0.12450869
195	0x3de66791	0.112502225
196	0x3d3049fc	0.043039307
197	0xbe10a213	-0.14124326
198	0xad348b89	-1.0262798e-11
199	0xac00437e	-1.822736e-12
200	0xaf4502d5	-1.7918052e-10
201	0xb8968aff	-7.1784474e-05
202	0xb102e997	-1.905027e-09
203	0xab375a88	-6.51403e-13
204	0x32c93c64	2.3426942e-08
205	0x2facb09e	3.1412112e-10
206	0x29903597	6.404181e-14
207	0x3e0900cb	0.13379209
208	0xbd3d17bb	-0.04616521
209	0x3e0c73a6	0.13715991
210	0x3be888d7	0.0070963907
211	0x3d0bf795	0.03417166
212	0x3e33dbb1	0.17564274
213	0x3df91d1d	0.12163756
214	0x3d238dc6	0.039930128
215	0xbcb8e6c8	-0.022570983
216	0xab6380c0	-8.0825277e-13
217	0x2ca93275	4.8088707e-12
218	0xabf25fcf	-1.7221726e-12
219	0x31027f0f	1.8989714e-09
220	0xaaef73d8	-4.253531e-13
221	0x2bd6fa90	1.527516e-12
222	0xae1b5ddc	-3.5326284e-11
223	0x3172e44d	3.5345409e-09
224	0x38554e8c	5.085631e-05
225	0x3daced7e	0.084437355
226	0x3e1e37ef	0.15451024
227	0x3e1c146f	0.1524217
228	0x3e204e21	0.15654804
229	0xbd785264	-0.06062545
230	0xbd6f8fb8	-0.05848667
231	0x3de5be24	0.11217907
232	0x3e2fe7a1	0.17178203
233	0xbdc9ef6d	-0.0986012
234	0x3dba1eb9	0.09087891
235	0x3df0badb	0.1175439
236	0x3d44b355	0.048022587
237	0x3d021f1b	0.031767946
238	0xbdd3c9a6	-0.10341196
239	0xbd9fce59	-0.078030296
240	0x3d5e9047	0.054336812
241	0xbdeca0be	-0.11554097
242	0xbbfe5b5d	-0.007762356
243	0xb67fb978	-3.8105918e-06
244	0xad2d8558	-9.86352e-12
245	0x348297e6	2.4324908e-07
246	0x2ab98842	3.295715e-13
247	0xb5a023fb	-1.1931401e-06
248	0x2fbdae5c	3.450279e-10
249	0xad11ffe4	-8.299115e-12
250	0x30bbe735	1.3671754e-09
251	0x2e8f7c16	6.524929e-11
252	0x3c6e470b	0.014543305
253	0x3daa27a1	0.0830834
254	0x3d28c7d6	0.041206203
255	0x3d820524	0.06348637

conv1.bias f4 [32]
0	0x3df429e7	0.11922055
1	0x3baec77a	0.005333838
2	0xbd16afe6	-0.036788844
3	0x3dac6dfa	0.08419414
4	0xbd989d71	-0.074519046
5	0xbe0daddd	-0.13835855
6	0xbcee23a4	-0.02906973
7	0x3dcb2945	0.09919981
8	0x3d82c066	0.06384353
9	0xbdd60334	-0.1044983
10	0x3e3cc674	0.18435079
11	0xbd475c53	-0.04867203
12	0x3e2b8309	0.16749205
13	0x3e1ba059	0.15197887
14	0xbde4f020	-0.11178613
15	0xbcfe9106	-0.031075012
16	0xbcc04da4	-0.023474522
17	0xbd8afeed	-0.067869045
18	0xbd29b2e0	-0.041430354
19	0x3e2bab44	0.16764551
20	0xbd75a01f	-0.059967156
21	0x3d8f6ee6	0.07003574
22	0x398a034b	0.00026323865
23	0xbda0cd88	-0.07851702
24	0xbda6ce61	-0.081448324
25	0x3d89a102	0.06720163
26	0xbdf5adb5	-0.119960226
27	0x3e26c7ea	0.16287199
28	0x3e038901	0.12845232
29	0xbd9dd177	-0.07705968
30	0xbdd6ecdc	-0.10494396
31	0x3de4584f	0.11149656

conv2.weight f4 [64, 32, 3, 3]
0	0xbcc7963a	-0.024363626
1	0x3d057a8d	0.032587577
2	0xbc02a29c	-0.007973339
3	0x3d0bdb7c	0.034144863
4	0xbd53b7b1	-0.051688854
5	0xbd5dff9d	-0.05419885
6	0xbd558f4f	-0.052138623
7	0x3c4feaa1	0.012690217
8	0xbcab6d8a	-0.020926256
9	0xbd3ffc95	-0.04687174
10	0xbd231efb	-0.039824467
11	0xbd2be674	-0.041967824
12	0x3cda874e	0.026675846
13	0x3cf691b5	0.030098775
14	0x3d1a75aa	0.03770987
15	0x3cc592c5	0.024117837
16	0x3c9f2278	0.019425616
17	0x3d8d1109	0.06888015
18	0xbd6b62e5	-0.05746736
19	0xbd2f609b	-0.04281674
20	0xbd28bf5f	-0.04119813
21	0x3c29f260	0.010372728
22	0x3d2d2322	0.042269833
23	0xbc040904	-0.00805879
24	0x3b5bd2f3	0.0033542484
25	0x3b9cf84c	0.0047903415
26	0xbd58fb47	-0.05297401
27	0xbda23a6d	-0.079213
28	0xbc80936d	-0.015695298
29	0x3cf68b1b	0.030095628
30	0xbb1dc503	-0.0024073727
31	0xbb766389	-0.0037595949
32	0xba97fa19	-0.0011594921
33	0x3d0209e2	0.031747706
34	0x3caaf6df	0.02086967
35	0x3d444aa1	0.047922734
36	0xbb4d23db	-0.003130189
37	0x3d0dfb13	0.03466327
38	0xbd41a60e	-0.047277503
39	0x3c95fbd1	0.018308552
40	0x3d53d961	0.05172098
41	0xbd092793	-0.033485007
42	0xbb2b609d	-0.0026150115
43	0x378a1bfe	1.6463917e-05
44	0xbd06cd79	-0.032910798
45	0xbd553c44	-0.052059427
46	0xbc93a380	-0.018022299
47	0xbc2c85c0	-0.010529935
48	0xbd5603df	-0.052249786
49	0xbd06b08c	-0.032883212
50	0x39c73d6f	0.0003800201
51	0xbd00e377	-0.031466927
52	0x3d6a81d8	0.057252735
53	0x3cc4d558	0.024027511
54	0xbc6211e1	-0.013798208
55	0xbd404a36	-0.046945773
56	0xbd928552	-0.07154335
57	0xbb9256d0	-0.0044659153
58	0x3ccbe253	0.024888193
59	0xbbdbeb08	-0.0067113675
60	0x3cbec1d0	0.023285776
61	0xbcce284d	-0.025165701
62	0xbd11e456	-0.03561815
63	0x3c9ad694	0.018901147
64	0xbcd48bb0	-0.025945514
65	0x3cee12d9	0.029061722
66	0xbd2ffb9e	-0.04296457
67	0x3db155c6	0.08658938
68	0x3d0369cc	0.032083318
69	0x3d4074c6	0.046986364
70	0xbc2f7d69	-0.010711052
71	0xbb866259	-0.0041010794
72	0xbdad787c	-0.08470246
73	0xbc9487b9	-0.018131124
74	0x3c34144a	0.010991165
75	0xbd874ea4	-0.066067964
76	0x3d524547	0.0513356
77	0xbd8bcb19	-0.06825847
78	0xbd1227f4	-0.035682634
79	0x3d0629c8	0.03275469
80	0x3d42ad65	0.047528643
81	0xbb7d7eae	-0.0038680243
82	0xbd7bcf11	-0.06147677
83	0xbcc99e2d	-0.024611557
84	0x3ce6f61a	0.028193522
85	0xbd94cdc8	-0.07265812
86	0xbd28e389	-0.04123262
87	0x3d1e9249	0.038713727
88	0x3d324174	0.043519452
89	0xbc63b1be	-0.0138973575
90	0xbd77facd	-0.060541917
91	0x3cc6270e	0.024188545
92	0xbd876ef5	-0.0661296
93	0xbd7142d5	-0.058901627
94	0xbd774bbf	-0.06037497
95	0xbdae5668	-0.085125744
96	0xbd40b2db	-0.04704557
97	0xbcb38d1d	-0.021917874
98	0xbcb41750	-0.021983773
99	0x3bba4deb	0.005685558
100	0x3d3aa907	0.045571353
101	0xbcc296d5	-0.023753563
102	0xbd8f1da6	-0.06988077
103	0x3c415b7a	0.011801595
104	0x3d21f72e	0.03954237
105	0xbccf7145	-0.025322566
106	0x3cd0cee6	0.025489282
107	0xbd621ea4	-0.055205002
108	0xbdbe679b	-0.09297105
109	0xbd07652a	-0.033055462
110	0xbd9f191a	-0.077684596
111	0x3b35a910	0.0027719177
112	0x3d853817	0.06504839
113	0xbdc0f9eb	-0.09422668
114	0xbd41116f	-0.047135767
115	0xbd441f69	-0.047881518
116	0xb9931849	-0.0002805612
117	0xbd94a2e1	-0.07257629
118	0xbd64bd16	-0.05584439
119	0x3d0498e6	0.032372378
120	0xbd8ff1c8	-0.07028538
121	0x3d00b7e1	0.03142536
122	0xbc812920	-0.01576668
123	0xbd37a0b7	-0.044831004
124	0x3c2989eb	0.010347824
125	0xbc553ffe	-0.013015745
126	0xbce508a6	-0.027958225
127	0x3abbf140	0.0014338866
128	0xbd72311e	-0.059128873
129	0xbd87f327	-0.066381745
130	0xbcfa3e1d	-0.030547196
131	0x3c149a48	0.009069987
132	0xbda4938d	-0.080359556
133	0xbc8c0eb6	-0.017096858
134	0x3bf863e9	0.0075802696
135	0xbd33a5f1	-0.043859426
136	0xbd203a1d	-0.03911792
137	0xbd1117d2	-0.035423107
138	0xbd364f20	-0.044509053
139	0xbc82ab25	-0.015950749
140	0xbd19da15	-0.037561495
141	0xbcaa0684	-0.02075506
142	0xbd4f6d8c	-0.05064158
143	0xbd7c2901	-0.061562542
144	0x3d4a416b	0.049378794
145	0xbd1e63e9	-0.0386695
146	0xbda76f5e	-0.081755385
147	0xbd2ea4f7	-0.04263779
148	0xbd713097	-0.05888423
149	0xbd07ceb6	-0.03315612
150	0xbc4f782a	-0.012662927
151	0x3c31aec5	0.010844891
152	0xbcba2fe7	-0.02272792
153	0xbd4b6beb	-0.049663465
154	0x3cc0d228	0.02353771
155	0x3b8218a8	0.0039702244
156	0xbd8e5617	-0.06950014
157	0xbbefc744	-0.0073174555
158	0x3d7dd8ea	0.061974443
159	0x3806c84c	3.213463e-05
160	0x3d35fd91	0.044431273
161	0xbd7e5741	-0.06209493
162	0xbd0c00b3	-0.034180354
163	0x3c2fdd09	0.010733851
164	0x3d482261	0.04886091
165	0xbc501fac	-0.012702864
166	0xbd66683a	-0.056251742
167	0x3c03f156	0.008053144
168	0x3d461b34	0.048365787
169	0xbcda649e	-0.026659306
170	0x3c63d3f2	0.013905512
171	0x3cdda46b	0.02705594
172	0xbd94dab0	-0.07268274
173	0xbd4c58c7	-0.049889352
174	0xbc7720fc	-0.015083548
175	0x3d3d29d9	0.046182487
176	0xbce57ec6	-0.028014552
177	0xbbd0ee72	-0.006376081
178	0xbd24b149	-0.040208135
179	0xbdbea8d1	-0.09309543
180	0xbd876ec6	-0.06612925
181	0x3cf6dc6a	0.030134398
182	0xbc07614c	-0.0082629435
183	0xbcc37ba7	-0.023862673
184	0x3d69399c	0.056939706
185	0x3b8bb663	0.0042636856
186	0xba0acda6	-0.0005294926
187	0x339d5400	7.326162e-08
188	0xbceb6cda	-0.028738428
189	0xbb9a5719	-0.00471009
190	0x3c2b8ad3	0.01047011
191	0xbd3b89a0	-0.045785546
192	0xbc9c9144	-0.019112237
193	0x3d83f483	0.06443121
194	0xbcba514e	-0.022743847
195	0xbc808d62	-0.015692417
196	0xbd99870a	-0.0749646
197	0xbd95dd37	-0.07317584
198	0x3d2ef6ed	0.042715956
199	0xbc3ba3f9	-0.011452668
200	0xbc4c9b4e	-0.012488199
201	0xbd66a4be	-0.056309454
202	0xbd0bd9b2	-0.034143157
203	0xbc0fbb51	-0.008772687
204	0xbd97f81d	-0.07420371
205	0x3bcf78a5	0.0063315206
206	0xbd5ec23b	-0.05438445
207	0x3d221b42	0.039576776
208	0xbcf957eb	-0.03043743
209	0xbd6f1273	-0.058367204
210	0x3cb60608	0.022219673
211	0x3b1aeda5	0.0023640182
212	0xbd4f9c76	-0.050686322
213	0x3c4fd093	0.012684005
214	0x3d6c114b	0.05763368
215	0x3da716b2	0.08158626
216	0x3c8e27e8	0.017353013
217	0xbc84085d	-0.01611727
218	0x3cacbe98	0.021086976
219	0xbd37d12a	-0.04487721
220	0x3ca682d7	0.020326061
221	0xbd219f2a	-0.03945843
222	0x3c6e81fd	0.014557359
223	0xbcbb1acb	-0.022839924
224	0xbd06d020	-0.032913327
225	0x3c01aa47	0.007914132
226	0x3d4111ed	0.047136236
227	0xbbd4f47d	-0.006498872
228	0xbc22eaaf	-0.009943648
229	0xbd072890	-0.032997668
230	0xbd5c9ebf	-0.05386233
231	0x3ccb69fc	0.02483081
232	0xb9be6b1a	-0.0003631942
233	0x3ca59ad3	0.020215428
234	0x3b799ba4	0.0038087154
235	0x3d1e4adc	0.03864561
236	0xbc73730e	-0.014858974
237	0x3d26a585	0.040685195
238	0xbcbf5d8f	-0.023360042
239	0x3d592846	0.053016923
240	0x3d27f8c9	0.041008744
241	0xbca2a6de	-0.01985496
242	0xbc96d9e6	-0.018414449
243	0xbb799669	-0.0038084036
244	0xbd851b85	-0.064993896
245	0xbcd1fe0c	-0.025633834
246	0x3c3d9db2	0.011573242
247	0xbd3f8e0b	-0.046766322
248	0xbb18f382	-0.0023338501
249	0xbd675a72	-0.05648274
250	0xbcd24d42	-0.025671605
251	0xbd374f73	-0.044753503
252	0xbd05d369	-0.03267232
253	0x3ce1e880	0.027576685
254	0x3d3c1efb	0.045927983
255	0x3c9cc06d	0.019134725

conv2.bias f4 [64]
0	0x3cc5c14d	0.024140025
1	0x3b9860a0	0.0046501905
2	0xbd8c9005	-0.06863407
3	0xbd4e034f	-0.050296124
4	0xbc755c33	-0.014975595
5	0x3d89f88d	0.067368604
6	0x3d6bc28b	0.057558578
7	0x3cb8712f	0.022514908
8	0xbcf5384e	-0.029934075
9	0x3d9aa9a8	0.075518906
10	0xbd320383	-0.04346038
11	0xbd2273a6	-0.039661072
12	0x3d5d527a	0.054033734
13	0xbd4a2904	-0.04935552
14	0xbc46d32d	-0.012135309
15	0xbb1e0c0c	-0.0024116067
16	0x3d83461c	0.06409857
17	0x3dac46fe	0.08411978
18	0x3d00c0c5	0.03143384
19	0x3d4368b1	0.047707263
20	0x3bd7d08b	0.0065861396
21	0xbcfbdc1f	-0.03074461
22	0x3d925e7d	0.071469285
23	0x3d2c4bfe	0.04206466
24	0x3cd9d1e6	0.026589345
25	0x3dca97a5	0.09892205
26	0xbc706dbb	-0.014674599
27	0x3d5436a2	0.051809914
28	0xbd4875e1	-0.048940543
29	0xbcbf609a	-0.023361493
30	0x3d95c44f	0.073128335
31	0x3d817475	0.063210405
32	0x3b5e0847	0.0033879445
33	0xbc511df2	-0.012763487
34	0x3c2c212a	0.010505954
35	0x3db0b53f	0.0862832
36	0x3cd8868e	0.026431348
37	0xbcecf5c5	-0.028925786
38	0x3996674a	0.00028687186
39	0x3dab5462	0.08365704
40	0x3d44dbf3	0.048061322
41	0xbca254bc	-0.019815795
42	0xbd791555	-0.06081136
43	0xbcaf2079	-0.021377789
44	0xbbbab4f8	-0.0056978427
45	0x3d85d0d2	0.0653397
46	0xbd1deffe	-0.038558953
47	0x3db01e49	0.085995264
48	0x3d3cf391	0.04613072
49	0xbd5f3ba8	-0.054500252
50	0x3d316f7b	0.043319207
51	0x3d80a1f3	0.06280889
52	0x3d8cea22	0.06880595
53	0xbc4e9987	-0.012609846
54	0x3d024dd2	0.031812496
55	0x3d91fcee	0.07128321
56	0xbc363fc1	-0.011123599
57	0x3d1aff65	0.03784122
58	0xbd0b95ba	-0.034078337
59	0xbc2d5239	-0.010578685
60	0x3cb16edc	0.021659307
61	0xbccc4f7a	-0.024940241
62	0xbd1c563f	-0.03816819
63	0xbc48bded	-0.012252313

conv3.weight f4 [128, 64, 3, 3]
0	0x3cbf4eea	0.023353059
1	0x3d2f9f86	0.042876743
2	0xba7c5a68	-0.00096265087
3	0xbcb377ff	-0.021907805
4	0xbcac4260	-0.021027744
5	0xbca75dee	-0.020430531
6	0x3aeffd6b	0.0018309777
7	0xbc1b0c0b	-0.0094633205
8	0x3bbbcd68	0.0057312734
9	0x3caff511	0.021479161
10	0x3c1c4841	0.009538711
11	0x3c9eb325	0.019372532
12	0xbd1abdb2	-0.037778564
13	0x3cb17e53	0.021666681
14	0xbbf00808	-0.007325176
15	0xbcac59d7	-0.021038933
16	0xbbf96071	-0.0076103737
17	0xbbeb16b1	-0.007174336
18	0x3d657d27	0.056027558
19	0xbccd49e6	-0.025059652
20	0xbc145302	-0.009052994
21	0x3cb7ab3b	0.022420516
22	0xbbcd0fc0	-0.006257981
23	0x3cbbe96d	0.022938455
24	0xbd3ba5a8	-0.04581228
25	0xbd02360f	-0.031789836
26	0x3ccb54d2	0.024820719
27	0x3c0cec00	0.008601189
28	0xbc2e0622	-0.010621579
29	0x3da5f9c4	0.0810428
30	0xbca91ee5	-0.020644614
31	0x3c647b70	0.013945445
32	0x3dcafce0	0.09911513
33	0x3c0d9d70	0.008643493
34	0x3d34fb85	0.04418518
35	0xbd4b89e7	-0.04969206
36	0x3c319076	0.010837665
37	0xbbbfd1fa	-0.0058538886
38	0xbd153b42	-0.036433466
39	0xbccbcdc9	-0.0248784
40	0xbd48444b	-0.048893254
41	0xbd21dd95	-0.039517958
42	0xbd219e74	-0.039457753
43	0xbcb429ab	-0.021992525
44	0x3ca045b0	0.01956448
45	0x3d5b5066	0.05354347
46	0xbc164429	-0.009171524
47	0xbcf0b68a	-0.029383916
48	0x3d469175	0.048478562
49	0x3c0a8acc	0.008455943
50	0xbd306dab	-0.043073338
51	0x3ce913f9	0.028451907
52	0xbd45371f	-0.04814827
53	0xbbb2380e	-0.005438811
54	0x3ca738ca	0.020412821
55	0xbccd3a91	-0.02505234
56	0xbc8bdad9	-0.017072128
57	0xbd5529c8	-0.0520418
58	0xbd2148a4	-0.039375916
59	0xbca3515a	-0.019936252
60	0x3ba0b51c	0.0049044024
61	0xbcb6f153	-0.02233187
62	0xbbadc042	-0.00530246
63	0x3b9aea3a	0.004727629
64	0xbbd6d1b5	-0.0065557607
65	0x3cf8f7e0	0.030391634
66	0xbca6acea	-0.020346124
67	0x3cc279fd	0.02373981
68	0xbbfa88fe	-0.0076457253
69	0x3c9c0fb7	0.019050462
70	0xbba23547	-0.004950199
71	0xbae9cfbe	-0.0017838401
72	0x3c034e35	0.0080142515
73	0x3c750124	0.014953885
74	0xbcaf6b7b	-0.021413555
75	0x3cf92103	0.030411249
76	0x3c705505	0.014668708
77	0x3a496f8e	0.00076841644
78	0x3d15eaad	0.036600757
79	0xbcf3f926	-0.02978189
80	0xbc5e9944	-0.013586346
81	0xbcac926b	-0.021065911
82	0xbd083624	-0.033254758
83	0xbd6c86fe	-0.057745926
84	0xbd2e8567	-0.04260769
85	0xbd67eb13	-0.05662067
86	0x3caaaadf	0.02083343
87	0xbcecb40c	-0.028894447
88	0x3d1b6692	0.037939616
89	0xbbfdca65	-0.0077450746
90	0x3d3b1808	0.045677215
91	0x3cee837f	0.029115437
92	0xbbc5095e	-0.0060130795
93	0x3c51979b	0.012792493
94	0x3c95b8d6	0.018276613
95	0xbb340bc8	-0.0027472842
96	0x3d111a1d	0.035425294
97	0x3caeefcb	0.021354577
98	0xbcfc0904	-0.030766018
99	0xbd325280	-0.04353571
100	0x3d50821e	0.05090534
101	0x3cebec35	0.028799156
102	0x3d134146	0.03595092
103	0x3d3a79b2	0.045526214
104	0xbb50e56d	-0.003187503
105	0x3cc4430a	0.023957748
106	0xbd58dbce	-0.052943997
107	0x3d8715e6	0.06595974
108	0xbcdbb020	-0.026817381
109	0x3d22d504	0.03975393
110	0xbcb584b1	-0.022157999
111	0x3b355a61	0.0027672278
112	0x3be84719	0.0070885536
113	0xbd1484da	-0.03625951
114	0xbb2443da	-0.0025064857
115	0xbbcdacd3	-0.006276706
116	0x3db0693c	0.08613822
117	0xbba4f25d	-0.0050337748
118	0xbc602ed2	-0.013683038
119	0xbc8ef9f5	-0.017453173
120	0x3ba127de	0.0049180826
121	0x3c38e86b	0.0112858815
122	0x3b45b3fd	0.0030167096
123	0x3cf57687	0.029963745
124	0x3bf0a178	0.0073434673
125	0xbc5175cf	-0.012784435
126	0xbd52b006	-0.0514374
127	0x3ca6526e	0.020302977
128	0xbc34dfdd	-0.011039701
129	0xbd8bdc15	-0.06829087
130	0xbcc1dd71	-0.023665162
131	0x3bf83ae4	0.0075753797
132	0x3cd02044	0.02540601
133	0x3c435d5e	0.011924116
134	0x3cd9840e	0.026552226
135	0x3c0286cf	0.007966711
136	0x3c273d26	0.01020745
137	0xbd1dd1fc	-0.038530335
138	0x3d6cccb2	0.0578124
139	0xbd6f1666	-0.05837097
140	0xbd2e1332	-0.042498775
141	0x3b92a98c	0.004475778
142	0xbc6ba0a7	-0.014381564
143	0xbbdddb1a	-0.0067705037
144	0x3c9945fe	0.018710133
145	0xbc80bd38	-0.015715227
146	0xbd59fa4b	-0.053217214
147	0x3c422e4e	0.01185186
148	0xbc1594c2	-0.009129705
149	0xbd36f5d1	-0.044668023
150	0x3c1c1faa	0.009529034
151	0xbb5ad9bf	-0.0033393947
152	0x3cf93fff	0.030426024
153	0xbbb4fff7	-0.0055236774
154	0x3cd3ecec	0.02586981
155	0x3b55566c	0.0032552732
156	0x3cc08422	0.023500506
157	0x3d155d07	0.03646567
158	0xbbee72cd	-0.007276869
159	0x3b45c92c	0.0030179722
160	0x3baba9d1	0.0052387496
161	0x3cf884fa	0.030336846
162	0x3c4e3468	0.012585737
163	0xbd40bab0	-0.04705304
164	0x3cd2726c	0.025689326
165	0xbcdb42d8	-0.026765272
166	0xbbb947ad	-0.0056542964
167	0x3d2fe967	0.0429472
168	0xbd4eeec1	-0.050520662
169	0x3cbe586f	0.023235528
170	0x3cf02bd5	0.029317776
171	0x3a09adeb	0.0005252051
172	0x3d5ee6c8	0.05441931
173	0x3db42436	0.08795969
174	0xbb046ec5	-0.0020207625
175	0xbd154f85	-0.03645279
176	0xbcc9eca8	-0.02464898
177	0x3d5b2376	0.053500615
178	0x3ca56453	0.02018944
179	0x3b0df6b8	0.0021661948
180	0xbb9f03ac	-0.0048527326
181	0x3d0082ce	0.031374745
182	0x3b9bb7c4	0.004752131
183	0xbceeb375	-0.029138306
184	0xbd0268c5	-0.031838197
185	0xbca09ed7	-0.01960699
186	0xbc524bc0	-0.012835443
187	0x3cba1a91	0.022717746
188	0x3d839339	0.06424565
189	0xbcd969d2	-0.026539717
190	0x3d033a26	0.032037877
191	0x3cff0fb3	0.031135416
192	0xbd35dee0	-0.044402003
193	0x3d07b0b7	0.033127513
194	0x3ae6b3c9	0.0017601188
195	0xbd54ac2a	-0.051922
196	0xbd3ab524	-0.045582905
197	0xbd470255	-0.04858621
198	0x3c45b6e6	0.012067532
199	0x3cac0403	0.020998007
200	0xbdbc3f45	-0.09191755
201	0xbbd43d2d	-0.0064770193
202	0xbd478f97	-0.048720922
203	0xbda0c94e	-0.07850896
204	0x3cc6d5a0	0.024271786
205	0xbd47a0d5	-0.048737366
206	0x3d96dd3b	0.07366415
207	0xba8b774c	-0.0010640412
208	0xbcfcf463	-0.030878251
209	0x3d42b4f8	0.047535866
210	0xbd517dec	-0.05114548
211	0x3ce1d10e	0.027565505
212	0xbc0f7bb0	-0.008757517
213	0xbd992288	-0.074772894
214	0x3c927796	0.017879289
215	0x3d988359	0.074469276
216	0x3c5a7977	0.013334624
217	0x3b74c7c6	0.003735052
218	0x3c1dc03e	0.009628354
219	0x3d1d3e0b	0.038389247
220	0xbc9ebed7	-0.019378109
221	0xbbaf6841	-0.005353004
222	0xbb77bb22	-0.0037800749
223	0xbcaa2fbd	-0.020774717
224	0xbcb4d292	-0.022073064
225	0xbd1b4dee	-0.037916116
226	0x3d22e811	0.039772097
227	0x3d01ab41	0.03165746
228	0x3c2ea773	0.01066004
229	0x3c46028d	0.012085569
230	0xbd4cfcf7	-0.050045934
231	0x3c37f7c4	0.0112285055
232	0x3c503517	0.01270797
233	0x3d4bc881	0.049751762
234	0x3c690655	0.014222701
235	0xbc09a525	-0.00840119
236	0xbd095c78	-0.03353545
237	0x3bbc9963	0.00575559
238	0xbcdfa49e	-0.027300175
239	0xbc8e07b2	-0.017337654
240	0x3b15828c	0.0022813408
241	0xbd890ed8	-0.06692284
242	0x3cfb583c	0.030681722
243	0x3c1c807b	0.0095521165
244	0xbb500515	-0.003174131
245	0xbce0f97a	-0.02746271
246	0xbc926e7e	-0.017874952
247	0x3c3bb9ba	0.011457855
248	0xbc6dfcff	-0.014525651
249	0xbc4de1f1	-0.012566076
250	0xbc27479a	-0.010209942
251	0xbc0202ae	-0.007935209
252	0xbd1bef09	-0.03806976
253	0x3b9d3675	0.0047977515
254	0x3c991d7a	0.018690813
255	0x3d21fa27	0.039545204

conv3.bias f4 [128]
0	0xbc5fa87f	-0.013651012
1	0xbcd2794f	-0.02569261
2	0xbcb7ce79	-0.022437321
3	0x3d85a687	0.06525903
4	0xbca71ecc	-0.020400427
5	0xb99f3c89	-0.00030371945
6	0xbc8def43	-0.017326003
7	0x3d243a39	0.040094588
8	0xbca61503	-0.020273691
9	0x3c5d58f9	0.013509982
10	0xbc9836e7	-0.018580867
11	0xbc7a28c9	-0.015268513
12	0x3d33ffc0	0.043945074
13	0xbc70750e	-0.0146763455
14	0x3c7955ac	0.01521818
15	0x3cf8b93e	0.030361768
16	0x3d71aceb	0.059002798
17	0x3d1b3cba	0.03789971
18	0x3cc8c9a8	0.02451022
19	0x3c1989bd	0.009371218
20	0x3d07d8f4	0.033165887
21	0x3cdaa2eb	0.026689013
22	0x3d5b44b5	0.05353232
23	0x3cfbce65	0.030738065
24	0xbc9cf0c3	-0.019157773
25	0x3c821573	0.015879368
26	0x3d4de29a	0.050264932
27	0x3bb81b97	0.0056185233
28	0x3c8dbc8d	0.017301822
29	0xbd0c5925	-0.034264702
30	0xbd471040	-0.04859948
31	0x3ca76ef3	0.020438647
32	0xbcf9dbc6	-0.030500304
33	0x3d12cce8	0.035839945
34	0x3be48cd2	0.006974795
35	0xbcff4212	-0.031159434
36	0x3d4fb52c	0.05070989
37	0xbd067179	-0.03282306
38	0x3c033992	0.008009331
39	0x3bf9ec97	0.0076270807
40	0x3d108f68	0.035293013
41	0xbc48c571	-0.012254105
42	0x3bf9668c	0.0076111015
43	0xbcb7967e	-0.022410627
44	0x3c769a25	0.015051399
45	0x3d97e0fb	0.074159585
46	0x3ab5ba72	0.0013864769
47	0x3c037bd5	0.008025129
48	0x3c84767e	0.016169783
49	0x3b897a30	0.004195474
50	0xba16c681	-0.0005751625
51	0x3cb06eb3	0.02153716
52	0xbd30e031	-0.043182556
53	0x3d830571	0.06397522
54	0xbbb35aa5	-0.005473452
55	0x3cd50a0e	0.026005771
56	0xba792799	-0.00095044967
57	0x3d7aca3d	0.061228026
58	0xbc7292d8	-0.014805518
59	0x3cf48b2d	0.02985152
60	0x3d2ae341	0.041720632
61	0x3d0057da	0.03133378
62	0x3bea9ecd	0.007160044
63	0xbbd0ef4e	-0.0063761836
64	0xbcb8e6d4	-0.022571005
65	0x3d280e88	0.041029483
66	0x3d35faf6	0.044428788
67	0x3cf37343	0.029718047
68	0x3cadb5ab	0.02120479
69	0x3c4bd799	0.012441539
70	0x3b2e7e5e	0.0026625614
71	0x3cd9eee5	0.026603172
72	0xbb372e7b	-0.0027951289
73	0x3c64617b	0.013939257
74	0x3cdbc389	0.026826637
75	0x3d700bdd	0.058605064
76	0x3d0ffb74	0.035151914
77	0x3d5876fb	0.052847844
78	0x3c985eb4	0.018599845
79	0x3d14601e	0.036224477
80	0xbd1936d8	-0.03740582
81	0x3d1bb67b	0.038015824
82	0x3bcb89a8	0.0062114783
83	0xbce91787	-0.028453602
84	0x3c28be27	0.010299242
85	0xb88c19b5	-6.6805085e-05
86	0x3d399b6f	0.04531425
87	0xbbba7915	-0.0056907036
88	0x3c28e695	0.010308881
89	0x3c9dad54	0.019247688
90	0xbccd089d	-0.025028521
91	0x3da6cefd	0.08144949
92	0xbc07c38a	-0.008286366
93	0x3cc41e24	0.023940153
94	0xbca577fb	-0.020198813
95	0xbb1a4d68	-0.0023544673
96	0x3c222747	0.00989706
97	0x3cdd01a7	0.026978327
98	0xbc9e5d42	-0.019331578
99	0x3d1b1c74	0.037868932
100	0x3d19cbda	0.037547924
101	0x3d459bde	0.04824435
102	0xbc959bf6	-0.018262845
103	0xbc9b7890	-0.018978387
104	0x3d3703fb	0.04468153
105	0x3d75df93	0.06002767
106	0xba83eb87	-0.00100647
107	0x3d35041b	0.04419337
108	0xbd391ec5	-0.04519536
109	0x3c475702	0.01216674
110	0x3c7e5a8d	0.015524519
111	0x3bf83994	0.007575223
112	0xbca6e23f	-0.020371554
113	0xbb8e7cf9	-0.004348394
114	0x3d426f8c	0.04746966
115	0x3d4a933a	0.049456812
116	0x3bd04142	0.0063554356
117	0xbbfc060d	-0.007691151
118	0xbc633b67	-0.013869143
119	0x3cd76591	0.026293548
120	0xbcb37619	-0.0219069
121	0x3c34cd96	0.011035344
122	0xbc71a5a1	-0.014748962
123	0x3b739e06	0.0037173047
124	0xbc92edd4	-0.01793567
125	0xbcf2932c	-0.029611193
126	0xbc9c02bb	-0.01904427
127	0x3d7fcbe6	0.062450312

act_conv1.weight f4 [4, 128, 1, 1]
0	0x3bbb58fc	0.005717395
1	0xabcce677	-1.4559039e-12
2	0x3b9d252f	0.0047956924
3	0xbdf44cc1	-0.11928702
4	0x3c31b251	0.010845737
5	0xb87f34ed	-6.084603e-05
6	0x3d4abc3e	0.049495928
7	0x3c7d5a04	0.015463356
8	0x3d8df196	0.069308445
9	0xbdd5465f	-0.10413813
10	0xbc4a04e6	-0.012330269
11	0x3c932128	0.017960146
12	0xbe04eb2d	-0.12980337
13	0x3c2e38a9	0.010633626
14	0x3cf276e8	0.029597715
15	0xbd41707c	-0.047226414
16	0x3be281be	0.006912439
17	0xbd79ccbf	-0.060986277
18	0x3ce55654	0.027995266
19	0x3c0dad2d	0.008647245
20	0xbca9a59f	-0.020708857
21	0x3cc3e414	0.023912467
22	0xbdbfeead	-0.09371696
23	0x3bc55c96	0.006023
24	0x3c84db1c	0.01621776
25	0x3d11c780	0.03559065
26	0xbc5a4cf6	-0.013324013
27	0xbd205912	-0.039147444
28	0xba83a1ad	-0.001004269
29	0xbd2bbc3a	-0.041927554
30	0xbcbb509c	-0.022865586
31	0x3d130fe2	0.03590382
32	0x2b81a9e8	9.21316e-13
33	0xbad4cf85	-0.0016236162
34	0xbcd7236c	-0.026262008
35	0x3d4cc10c	0.04998879
36	0xbd8ab45a	-0.067726806
37	0xbc8de211	-0.01731971
38	0xbaa511ef	-0.0012593846
39	0xb8b9d388	-8.860888e-05
40	0xbd27a699	-0.040930364
41	0xbc571ae6	-0.013128972
42	0xbd1bea96	-0.038065515
43	0xbd61679b	-0.055030446
44	0xbbf8eff5	-0.0075969645
45	0xbda6e85e	-0.08149789
46	0xbc05411f	-0.008133202
47	0xbda614c0	-0.081094265
48	0xbb1d758e	-0.0024026367
49	0xbd00de5f	-0.03146207
50	0x3cf98786	0.03046013
51	0x3cd9267c	0.026507609
52	0xbc29826d	-0.010346037
53	0xbd17e3fb	-0.037082653
54	0xbd81e956	-0.063433334
55	0x3d6fa0e1	0.058503035
56	0x2a5fc358	1.9874152e-13
57	0xbddb13ab	-0.10697111
58	0xbd90cbc7	-0.070701174
59	0xbc9333fb	-0.017969122
60	0xbda19920	-0.078905344
61	0x3ce92eab	0.028464636
62	0x3d04a778	0.032386273
63	0x2d75be91	1.3968952e-11
64	0x3d75a295	0.059969503
65	0xbd49ddb7	-0.04928371
66	0x3d27de0a	0.040983237
67	0xbcc8b082	-0.024498228
68	0xbd544afe	-0.05182933
69	0xbba38f42	-0.004991443
70	0x3d1c9ca4	0.03823532
71	0x3bfef938	0.007781174
72	0xbd120201	-0.035646442
73	0x3d944e3f	0.07241487
74	0x3d4b09fb	0.049570065
75	0xbd750a6e	-0.0598244
76	0xbbda7c73	-0.0066676675
77	0xbba628c7	-0.005070779
78	0xbd8148c2	-0.063127056
79	0xbcc05539	-0.023478137
80	0x3be13d17	0.0068737376
81	0x3d0a0a0e	0.033700995
82	0xbb318002	-0.0027084355
83	0xac5933ee	-3.0866381e-12
84	0xbce9254f	-0.028460173
85	0xacc0e3b1	-5.482247e-12
86	0xbdd952a0	-0.106114626
87	0x3d9501df	0.072757475
88	0x3d2fa77e	0.042884342
89	0xbbb206c2	-0.0054329345
90	0x3c31e582	0.010857942
91	0xbda928da	-0.08259745
92	0x3c88bd7d	0.016691918
93	0x3d660d55	0.05616506
94	0xbcf0b0d3	-0.029381191
95	0x3d4cb6c1	0.049978975
96	0xbd293f90	-0.041320384
97	0x3d491d6f	0.049100336
98	0xbd111d12	-0.035428114
99	0x3d60d264	0.054888144
100	0xbc056cd3	-0.0081436215
101	0x3cbc10e5	0.022957275
102	0xbbe8fd68	-0.0071102865
103	0xbda27c5b	-0.07933875
104	0xbc0c964c	-0.008580755
105	0x3ae1b51a	0.001722011
106	0xbbb21c9d	-0.00543554
107	0xbdb767ee	-0.0895537
108	0x3cc27134	0.02373562
109	0x3d7e2142	0.062043436
110	0xbcf60454	-0.03003136
111	0xbad645b3	-0.0016347676
112	0x2c1d111e	2.2320544e-12
113	0x3b1dc1e0	0.0024071857
114	0xbced9628	-0.029002264
115	0xbcca96a7	-0.02473004
116	0xbd2d1ca1	-0.04226363
117	0x3d25a9de	0.0404452
118	0x3cf5e074	0.030014254
119	0xbc4ff5c3	-0.0126928715
120	0x3d942192	0.072329655
121	0xbceead0d	-0.029135251
122	0xbca83d76	-0.02053712
123	0xbdc38bc3	-0.09548142
124	0xaed66a25	-9.7504484e-11
125	0x3d25b0f6	0.040451966
126	0xaba562dd	-1.1751395e-12
127	0xbc48158d	-0.012212169
128	0xbb34edc0	-0.002760753
129	0x3d0c0cb1	0.03419179
130	0xbd5e9a83	-0.054346573
131	0x3d3327b5	0.04373904
132	0x3dd8953b	0.105753385
133	0xbdbaffd9	-0.0913083
134	0xbd7c5e7f	-0.061613556
135	0x3dce677c	0.10078332
136	0x3d8a23b9	0.06745095
137	0xbdbe8059	-0.09301824
138	0x3c15c52c	0.009141248
139	0xbe0c65df	-0.13710736
140	0x3cd003ad	0.025392378
141	0x3cd10a9d	0.025517756
142	0x3deb2255	0.11481158
143	0x3dfda17b	0.123843156
144	0xbe33b6c7	-0.17550193
145	0xbd298e8d	-0.041395713
146	0x3c14aeb9	0.00907486
147	0x3c62ceb0	0.013843223
148	0x3d445821	0.04793561
149	0xbd85bd1b	-0.0653021
150	0x3d0e00c2	0.03466869
151	0xbcc372b2	-0.023858402
152	0x3d567200	0.052354813
153	0xbb20ee9b	-0.0024556282
154	0x39a4192f	0.0003129928
155	0x3e0b9464	0.13630825
156	0x3d9fa641	0.07795382
157	0xbdfb0421	-0.12256647
158	0xbbcacf38	-0.006189253
159	0xbd842ed3	-0.064542435
160	0xbd58da39	-0.05294249
161	0x3d8bb643	0.06821873
162	0x3cd08116	0.025452178
163	0x3bf32dda	0.0074212374
164	0x3e100361	0.14063789
165	0x3e04fbfa	0.12986746
166	0x3c747e6d	0.01492272
167	0xbcab7be6	-0.020933103
168	0x3d17b4e7	0.037037756
169	0xba9c3377	-0.0011917193
170	0xbcee1475	-0.029062489
171	0x3d94f8a1	0.07273985
172	0xbdb7ea34	-0.089802176
173	0x3d3d0d21	0.0461551
174	0xbd27436b	-0.04083578
175	0x3a891172	0.001045747
176	0xbe03f537	-0.12886511
177	0xbcfda4f0	-0.030962437
178	0x3c070edb	0.008243288
179	0x3b569a22	0.003274568
180	0xbe14c9c8	-0.14530098
181	0x3e0383c9	0.12843241
182	0x3cf21f1b	0.029555848
183	0xbd4dd9fc	-0.050256714
184	0x2e65816b	5.2183518e-11
185	0x3dbcb125	0.09213475
186	0x3bd48819	0.0064859507
187	0x3da61892	0.08110155
188	0x3dcfee8b	0.1015292
189	0x3c3c7547	0.0115025705
190	0xbcec70e9	-0.028862434
191	0x2b6a01c4	8.313595e-13
192	0x3bb75048	0.005594287
193	0x3dc7dc75	0.09758846
194	0x3dc8756d	0.09788022
195	0x3da8e4f1	0.08246792
196	0x3d9e69fe	0.0773506
197	0xbd01417e	-0.0315566
198	0xbd3f8420	-0.046756864
199	0x3dd4eb82	0.10396482
200	0x3e0068b7	0.12539946
201	0x3dba1964	0.09086874
202	0x3da7124c	0.08157787
203	0xbdece4a7	-0.115670495
204	0xbb4096a7	-0.002938667
205	0x3caec1c0	0.021332622
206	0x3ddca333	0.10773315
207	0x3e1ac359	0.15113582
208	0xbd5a609f	-0.0533148
209	0x3bed8f0a	0.0072497176
210	0xbcc98ea9	-0.024604158
211	0xbc4eb83f	-0.01261717
212	0x3dab1443	0.08353474
213	0xae23eb37	-3.7270822e-11
214	0x3dd92415	0.10602585
215	0xbda94ba5	-0.08266381
216	0x3da93719	0.08262462
217	0x3be3f0c6	0.0069561927
218	0x3c154f65	0.009113167
219	0x3d8ed2c5	0.06973795
220	0xbd241d6d	-0.040067125
221	0xbda22743	-0.07917645
222	0x3d6e8185	0.05822899
223	0x3d9e13d8	0.07718629
224	0x3dd07d57	0.10180157
225	0x3c9eb9de	0.019375738
226	0xbd4dceb7	-0.050245967
227	0x3d066af8	0.032816857
228	0x3dfe231d	0.12409041
229	0x3d86bfd8	0.0657956
230	0xbde4b181	-0.11166669
231	0x3e165ad9	0.14683093
232	0x3dc24767	0.09486275
233	0xbc94af70	-0.018150061
234	0xbc910ee7	-0.017707301
235	0x3e381652	0.17977265
236	0xbdb97a30	-0.090565085
237	0xbba04d4e	-0.004892028
238	0x3dd674ee	0.10471521
239	0xbceb709c	-0.02874022
240	0xb99d9821	-0.00030058718
241	0x3d5cd358	0.05391249
242	0x3e44eab7	0.19230162
243	0xbe11ea7d	-0.14249606
244	0x3d0b816f	0.034058984
245	0xbdb2b421	-0.08725763
246	0x37a230ea	1.9334682e-05
247	0x3db0f465	0.086403646
248	0xbd1c5b5f	-0.038173076
249	0x3d3f1367	0.046649363
250	0x3df51e8c	0.11968717
251	0x3d1bbb2e	0.038020305
252	0x39a2f18a	0.00031079008
253	0x3ccede7f	0.025252579
254	0x39b506b7	0.00034528013
255	0x3d87e1ae	0.06634842

act_conv1.bias f4 [4]
0	0xbc9a83d6	-0.018861692
1	0x3d80c16b	0.062868915
2	0x3d9c9551	0.07645667
3	0xbd8f8064	-0.070069104

act_fc1.weight f4 [36, 144]
0	0xbd09fc86	-0.03368809
1	0xbd540601	-0.05176354
2	0xbd9b772f	-0.07591092
3	0xbccf5816	-0.025310557
4	0xbd146678	-0.036230534
5	0xbd8bb191	-0.068209775
6	0xbd016091	-0.031586234
7	0xbd81999f	-0.06328129
8	0xbd7cca3c	-0.061716303
9	0xbdd2775c	-0.10276672
10	0xbd0ec315	-0.034854013
11	0xbddb29cd	-0.10701332
12	0xbdec6a37	-0.115436964
13	0xbda90360	-0.08252597
14	0xbdbd3315	-0.09238259
15	0xbd43bbc1	-0.047786478
16	0xbd3955e6	-0.045247935
17	0xbc6af449	-0.014340469
18	0xbd0be4c5	-0.03415372
19	0xbd246c70	-0.040142477
20	0xbcba755d	-0.022761041
21	0xbd05b9e3	-0.03264798
22	0x3c0e3755	0.008680184
23	0xbcb31a5b	-0.021863153
24	0x3b3ac9f3	0.0028501719
25	0xbcbdb3e8	-0.023157075
26	0xbda02178	-0.07818884
27	0xbcc4be89	-0.024016635
28	0x3cab44f6	0.020906907
29	0x3c22d1de	0.009937732
30	0xbc86e203	-0.016465193
31	0xbd147618	-0.036245435
32	0xbc1675ee	-0.00918339
33	0xbc98a17f	-0.018631695
34	0xbcec9684	-0.028880365
35	0xbd48a392	-0.048984118
36	0x3d48c1ac	0.049012825
37	0x3da24d90	0.0792495
38	0x3ab0e34d	0.0013495475
39	0x3d628c89	0.055309806
40	0x3dcec56d	0.1009625
41	0x3d40f816	0.047111593
42	0xbc9eacb3	-0.019369459
43	0xbc4c97bc	-0.012487348
44	0xbd4fc322	-0.050723203
45	0x3dc10416	0.094246075
46	0x3c2e6880	0.010645032
47	0x3c6eca04	0.0145745315
48	0x3cc75cf4	0.024336316
49	0x3d520825	0.0512773
50	0xbd0cee54	-0.034406975
51	0xbc90c734	-0.017673112
52	0xbda55e1e	-0.08074592
53	0x3cef0431	0.029176803
54	0xbc278db4	-0.010226656
55	0xbdd6f4ff	-0.10495948
56	0x3d0ff03d	0.03514122
57	0x3d7cde1d	0.06173526
58	0x3bb39274	0.005480105
59	0x3cb45f1e	0.022018012
60	0xbd76ce1f	-0.060255166
61	0x3d868095	0.06567494
62	0xbc9335ab	-0.017969927
63	0xbd14ff45	-0.036376256
64	0xbc77d7a6	-0.015127098
65	0xbc9871c1	-0.01860893
66	0x3c826480	0.015917063
67	0xbd3aa22f	-0.045564827
68	0x3ced371e	0.028956946
69	0xbca53b16	-0.020169776
70	0xbe2fb22e	-0.17157814
71	0x3c3db066	0.011577701
72	0xbd132ab2	-0.03592939
73	0xbcffb0ae	-0.031212177
74	0xbd856a03	-0.06514361
75	0xbd5d1388	-0.053973705
76	0x3d8e2bb7	0.06941932
77	0xbbe82764	-0.007084774
78	0xbd545350	-0.051837265
79	0xbdde623a	-0.10858579
80	0xbdbc0aa3	-0.09181716
81	0xbcd564f3	-0.026049113
82	0xbc93918b	-0.018013736
83	0xbb902b07	-0.0043996605
84	0xbe076c90	-0.13225007
85	0xbd9b4cdf	-0.075830214
86	0xbcc2dc6e	-0.02378675
87	0xbdbf7b38	-0.09349674
88	0xbd50e7ee	-0.051002435
89	0xbdb460a3	-0.088074945
90	0x3cf3efed	0.029777491
91	0xbdd90768	-0.10597116
92	0xbd9a4f96	-0.07534711
93	0xbd264dc7	-0.040601518
94	0xbd2faf46	-0.042891763
95	0xbd6610ad	-0.056168247
96	0xbdb7d98b	-0.0897704
97	0xbc38c89d	-0.011278299
98	0xbbd8f4a9	-0.0066209626
99	0xbe0e1173	-0.13873844
100	0xbcc3dae9	-0.023908095
101	0x3cc2a0f3	0.023758387
102	0xb98339bb	-0.0002502928
103	0x3bc800e6	0.0061036227
104	0xbdbe3f98	-0.09289473
105	0xbd779490	-0.060444415
106	0xbdc81d38	-0.09771198
107	0xbbcbf476	-0.0062242104
108	0xbd2a8b93	-0.041637015
109	0xbd433b60	-0.047664046
110	0xbcda2cbf	-0.026632665
111	0xbdadd174	-0.08487216
112	0xbdd61ba4	-0.10454491
113	0x3c8ff6d0	0.017573744
114	0x3cffea45	0.031239638
115	0xbc0e8d32	-0.008700656
116	0x3c8d4f9b	0.017249873
117	0xbd84eb29	-0.06490166
118	0xbd2ef72a	-0.042716183
119	0x3cc75e10	0.024336845
120	0xbcb740e0	-0.022369802
121	0xbd15e5e1	-0.036596183
122	0xbbc31940	-0.005953938
123	0x3d456fa7	0.048202183
124	0xbcc0b46e	-0.023523536
125	0xbd8b59c2	-0.06804229
126	0xbb32fb17	-0.0027310306
127	0x3d39ee59	0.04539332
128	0xbb003cc3	-0.0019567467
129	0xbc7b0dc4	-0.015323106
130	0x3c83fa82	0.016110662
131	0x3d584cc6	0.05280759
132	0x3ccd4f39	0.02506219
133	0x3ca1059d	0.019655997
134	0x3cfb08cc	0.030643843
135	0xbd05e7c1	-0.03269172
136	0xbd8ddb6e	-0.069266185
137	0xb85f8a1d	-5.329597e-05
138	0x3d89433e	0.067022786
139	0x3c9d85f0	0.019228905
140	0xbcf7b17f	-0.030236004
141	0x3d0105bf	0.03149962
142	0x3a326887	0.0006805737
143	0xbcec2043	-0.028823977
144	0xbcf253ff	-0.029581068
145	0xbc8f7138	-0.017510042
146	0x3cb171e9	0.021660762
147	0xbd12a5f4	-0.035802796
148	0xbce6f402	-0.028192524
149	0xbcd6d93f	-0.026226638
150	0xbcbfefd7	-0.023429794
151	0xbcce2390	-0.025163442
152	0xbc63be26	-0.013900315
153	0xbc8161d5	-0.01579372
154	0xbcbb7aa2	-0.022885624
155	0xbcf9556f	-0.030436246
156	0xbc518082	-0.012786986
157	0xbc15f802	-0.009153368
158	0xbd93c0fe	-0.07214545
159	0xbcc6d4c6	-0.02427138
160	0x3c771df4	0.015082825
161	0x3af1d4b0	0.0018450227
162	0xbd3a128f	-0.045427855
163	0xbc97d19f	-0.018532572
164	0x3ca92b64	0.020650573
165	0xbba6f075	-0.0050945827
166	0xbd74ebe2	-0.059795268
167	0xbd752f95	-0.05985983
168	0x3c7fc44d	0.015610767
169	0xbd27be5c	-0.040953025
170	0x3c74b745	0.014936273
171	0x3c70c198	0.014694594
172	0xbbfd9eec	-0.007739892
173	0xbd4ed916	-0.050499998
174	0xbc2d62f9	-0.010582679
175	0x3c963cbd	0.01833951
176	0x3cad58cb	0.021160504
177	0xbcc5e3d5	-0.02415649
178	0x3b2254ab	0.0024769704
179	0xbd17538e	-0.03694492
180	0xbee8d387	-0.45473883
181	0xbd359feb	-0.044341963
182	0xbe46948c	-0.19392604
183	0x3e101382	0.14069942
184	0x3df8eab4	0.12154141
185	0x3e82137b	0.25405487
186	0xbd81ccd8	-0.06337899
187	0x3e21a8c7	0.1578704
188	0xbe486244	-0.19568735
189	0xbddd6e10	-0.108120084
190	0xbe047711	-0.12936045
191	0x3cbd7879	0.023128735
192	0xbdc573ed	-0.09641252
193	0xbd370cfd	-0.04469012
194	0xbd81885d	-0.06324837
195	0xbdf485bf	-0.119395725
196	0xbd57e524	-0.05270876
197	0xbd9f5803	-0.07780459
198	0xbd1a6222	-0.037691243
199	0x3d02e3dd	0.03195559
200	0xbd2fa9b2	-0.042886443
201	0xbdbe55ef	-0.09293734
202	0xbd8fce90	-0.070218205
203	0xbd45c563	-0.048283946
204	0xbd1c249f	-0.038120862
205	0xbe3ab845	-0.18234356
206	0xbd31508c	-0.043289706
207	0xbbfd34ec	-0.007727256
208	0xbca71041	-0.020393493
209	0xbdf58d9b	-0.119899
210	0x3bd1bdce	0.0064008003
211	0xbc8b719c	-0.017021947
212	0xbe24aef8	-0.1608237
213	0xbc8345d6	-0.016024511
214	0xbdca4174	-0.098757654
215	0xbd022341	-0.031771902
216	0x3e2e9125	0.17047556
217	0x3e66f671	0.22554947
218	0x3da3d91c	0.08000395
219	0x3d9c8c9f	0.07644009
220	0x3df062f5	0.117376246
221	0x3e41de62	0.18932489
222	0xbd1eddb9	-0.03878567
223	0xbcee9065	-0.029121587
224	0x3d84770f	0.06468021
225	0x3e010dd5	0.12602933
226	0x3d89c4bc	0.06726977
227	0x3c8cae44	0.01717294
228	0x3d79f543	0.061024915
229	0x3d3e4842	0.04645563
230	0xbc214253	-0.009842473
231	0x3c87f4a0	0.016596138
232	0x3bd37f5e	0.0064543923
233	0xbcc69d29	-0.024244862
234	0x3d4e6a8f	0.05039459
235	0x3d8918a2	0.066941515
236	0xbcb6915c	-0.02228611
237	0xbcd6046b	-0.026125154
238	0x3cce3d1b	0.025175622
239	0xbd151819	-0.036399934
240	0x3da701d9	0.08154649
241	0x3d5c4d16	0.053784452
242	0x3c8bf3c0	0.017084002
243	0x3d8da021	0.06915308
244	0x3bd11844	0.0063810665
245	0xbd0acf7a	-0.03388927
246	0x3d5ff066	0.05467262
247	0xbc4b3068	-0.012401678
248	0xbd6da93b	-0.05802272
249	0xbcbdf652	-0.023188744
250	0x3d7b6f32	0.06138534
251	0xbd82585d	-0.0636451
252	0x3bc3f15c	0.0059797
253	0xbd3db017	-0.04631051
254	0xbccdb669	-0.025111394
255	0xbd7179ce	-0.058954053

act_fc1.bias f4 [36]
0	0xbd0a07d3	-0.033698868
1	0x3cbd95df	0.023142753
2	0xbd013028	-0.031540066
3	0xbd6c5bff	-0.05770492
4	0xbc32ef81	-0.01092136
5	0xbda068f3	-0.078325175
6	0xbdde1433	-0.108436964
7	0xbc520c44	-0.012820307
8	0x3d1db6a5	0.03850426
9	0xbcbad8d2	-0.022808466
10	0xbcb41080	-0.021980524
11	0x3d2bc9d5	0.04194053
12	0x3dc06f81	0.09396268
13	0x3d043a1a	0.032281972
14	0x3c2ea354	0.010659058
15	0xbbd98a4c	-0.0066388007
16	0x3c95f617	0.018305821
17	0x3d31bae3	0.04339112
18	0x3cef41ab	0.029206118
19	0x3cd4bf78	0.025970206
20	0xbd1ad02f	-0.037796196
21	0x3d34b3af	0.044116672
22	0x3c1be25a	0.009514416
23	0x3da316b5	0.079633154
24	0xbcbbf08f	-0.022941856
25	0xbd06abf0	-0.032878816
26	0x3dfbc9c5	0.12294344
27	0xbd6a41c2	-0.057191618
28	0x3d316e16	0.043317877
29	0xbc6e962c	-0.014562171
30	0xbddd2683	-0.10798361
31	0x3c68ab01	0.014200927
32	0x3c4217cd	0.011846495
33	0xbc321db1	-0.010871337
34	0xbc35aa36	-0.011087945
35	0x3d612824	0.05496992

val_conv1.weight f4 [2, 128, 1, 1]
0	0xbdb5a459	-0.088692375
1	0xbbe9e04e	-0.007137335
2	0x3d63ea38	0.05564329
3	0xbdb57462	-0.08860089
4	0x3d6aefda	0.057357647
5	0xbdf2a9cd	-0.11848793
6	0x3d86a1e1	0.06573845
7	0x3c5a2971	0.013315544
8	0x3d709a88	0.058741122
9	0x3aab89a3	0.0013087284
10	0x3d19fc32	0.037594028
11	0xbd1dc30a	-0.038516082
12	0x3b197ed1	0.0023421536
13	0x3db0450c	0.0860692
14	0x3dd16e8b	0.102261625
15	0xbdc0aeec	-0.09408364
16	0x3d76c431	0.060245696
17	0xbd9732ae	-0.07382713
18	0x3d4cba4b	0.04998235
19	0x3d376127	0.044770386
20	0xbda0ef31	-0.07858122
21	0x3cb5b907	0.022182954
22	0x3bcca9f9	0.0062458483
23	0x3d87eef3	0.06637373
24	0x3d26f998	0.040765375
25	0x3cea716f	0.028618542
26	0xbdc76d71	-0.09737671
27	0xbb0f1c8e	-0.0021837088
28	0xbda89f83	-0.082335494
29	0x3d8b5ce5	0.068048276
30	0x3d082748	0.033240587
31	0x3d42876f	0.04749244
32	0xbc219a3f	-0.009863435
33	0x3cda016a	0.026612002
34	0xbd38b848	-0.04509762
35	0xbde7ff3c	-0.11327979
36	0x3d56bf4d	0.052428532
37	0x3de5be33	0.11217918
38	0x3d8c10b7	0.068391256
39	0x3d97c293	0.07410159
40	0xbdc9daa3	-0.09856155
41	0xbc79b85e	-0.0152417105
42	0x3c640e4b	0.013919423
43	0x3ccd9e73	0.025099969
44	0xbe034228	-0.12818205
45	0x3b0dfeee	0.0021666843
46	0xbd28a416	-0.04117211
47	0x3c913618	0.01772599
48	0xbe0cbcf7	-0.1374396
49	0xbcde52ac	-0.02713903
50	0xbd031b39	-0.032008383
51	0x3c85328d	0.016259456
52	0x3be04d94	0.0068451855
53	0x3d6cecda	0.057843067
54	0x3d161a11	0.036645953
55	0x3daad32d	0.0834106
56	0x2bba83c2	1.3252665e-12
57	0x3c5b31d4	0.013378579
58	0x3d804997	0.06264036
59	0x3d76785b	0.060173374
60	0xbc69d8db	-0.014272894
61	0x3d845193	0.064608715
62	0x3d997261	0.07492519
63	0xbb01c854	-0.0019803243
64	0xbc7ce4df	-0.0154354265
65	0xbb9c3e5d	-0.0047681765
66	0x3d630819	0.055427644
67	0x3c17dea7	0.009269393
68	0xbde9f141	-0.11422969
69	0x3aa908e5	0.0012896328
70	0x3c66862d	0.014070076
71	0x3d808b38	0.06276554
72	0x3d67fdd5	0.056638557
73	0x3dae6918	0.08516139
74	0x3d1d18d6	0.038353764
75	0xbd7ddb28	-0.06197658
76	0xbd88d8c8	-0.06681973
77	0xbe19e7f4	-0.1502989
78	0xbcf7ea23	-0.030263012
79	0x3dd0a4a2	0.10187651
80	0xbd862e7d	-0.06551836
81	0xbd0b7d2d	-0.034054924
82	0xbe34e119	-0.17663993
83	0xbb678d86	-0.0035332157
84	0xbd81e41d	-0.06342337
85	0xab9ba2a2	-1.1058552e-12
86	0xbddb92a3	-0.10721328
87	0x3de2f46c	0.11081776
88	0x3dc957e6	0.098312184
89	0xbdf6bac8	-0.120473444
90	0x3d10bc4b	0.03533582
91	0xbc9d63cb	-0.019212624
92	0xbcb3b3c1	-0.0219363
93	0x3d91da41	0.07121707
94	0xbd9a0a76	-0.075215265
95	0xbc58e9d6	-0.013239345
96	0xbb4239f6	-0.0029636598
97	0xbe1040d3	-0.14087228
98	0x3cd706b4	0.026248313
99	0xbca8a8a8	-0.020588234
100	0xbdac8829	-0.08424408
101	0xbdb0560a	-0.08610161
102	0x3c3b2cb9	0.011424237
103	0xbd10065d	-0.03516232
104	0xbd458e58	-0.048231453
105	0xbd0026ba	-0.031286933
106	0x3d5e5bff	0.054286953
107	0xba552de8	-0.0008132146
108	0x3d7fd830	0.06246203
109	0xbd0a3a48	-0.033746988
110	0x3d621de0	0.055204272
111	0x3d397726	0.045279644
112	0xad9e8564	-1.8021758e-11
113	0x3d32102a	0.043472447
114	0x3d7f0c0f	0.06226736
115	0xbe14d968	-0.14536059
116	0x3da099b5	0.07841817
117	0x3c014764	0.007890556
118	0x3c0ed439	0.00871759
119	0xbd90b13a	-0.07065053
120	0x3d04a09c	0.03237973
121	0xbe0b9dfc	-0.13634485
122	0x3ccb7338	0.024835214
123	0x3cf30be2	0.029668752
124	0x3a756e10	0.0009362409
125	0x3cdafee8	0.026732877
126	0xb88ee5b2	-6.813872e-05
127	0xbc74fdb3	-0.014953065
128	0x3b92e3d9	0.004482728
129	0x3cc031af	0.023461191
130	0xbd851295	-0.06497685
131	0xbd982c40	-0.07430315
132	0xbde965b1	-0.11396349
133	0x3d6edd30	0.05831641
134	0x3d2c0606	0.041997932
135	0x3d92185c	0.071335524
136	0x3d1b2031	0.037872497
137	0xbc8d3fc9	-0.01724233
138	0xbb582295	-0.0032979597
139	0x3d2852d8	0.04109463
140	0xbd2618d3	-0.040551018
141	0xbbae9e3b	-0.005328921
142	0xbdd987b8	-0.106215894
143	0xbdc8985e	-0.09794687
144	0xbde8b7cf	-0.11363184
145	0x3ccdb06d	0.02510854
146	0x3cb14d2a	0.02164324
147	0xbd376866	-0.044777296
148	0x3cf4a350	0.02986303
149	0x3cbaf00a	0.022819538
150	0x3bf90aec	0.007600179
151	0x3d595f4d	0.0530694
152	0xbb2445ea	-0.0025066086
153	0xbcfe33b8	-0.03103052
154	0xbcd54d7a	-0.02603792
155	0xbd7cb590	-0.06169659
156	0xbd407516	-0.04698666
157	0xbd4f1c67	-0.050564196
158	0x3c9ef4a3	0.019403761
159	0x3d17d786	0.037070774
160	0x3a8d2cca	0.0010770794
161	0x3d3eb45d	0.046558727
162	0x3cbd31e9	0.023095088
163	0xbcaa994f	-0.020825056
164	0x3c44a351	0.012001828
165	0x3d986893	0.07441821
166	0xbdd47e6a	-0.10375674
167	0xbda4aaa0	-0.08040357
168	0x3d0e64fd	0.03476428
169	0x3d20f4be	0.039295904
170	0x3d5f611c	0.05453597
171	0x3d80e3b8	0.06293434
172	0x3d530aa6	0.051523827
173	0xbb9a5e54	-0.004710952
174	0x3d8c6cbd	0.06856678
175	0x3c46221c	0.012093093
176	0x3caebe32	0.021330927
177	0xbcc8ecbd	-0.024526948
178	0xbdc0925d	-0.094029166
179	0xbdfe7b23	-0.1242583
180	0x3d4f3977	0.050591912
181	0xbc96e592	-0.018420015
182	0x3cdb3f9f	0.026763735
183	0xbb070c99	-0.0020606874
184	0xb08024f7	-9.323732e-10
185	0xbd35e49f	-0.044407483
186	0x3b64c308	0.0034906287
187	0x3d6351c4	0.0554979
188	0x3cf6903e	0.030098077
189	0x3bfd00cc	0.0077210423
190	0x3c625059	0.013813102
191	0x3879b557	5.9535112e-05
192	0x3ca2b5c6	0.019862067
193	0x3cea60be	0.028610583
194	0xbdd0845f	-0.10181498
195	0xbda680aa	-0.081300095
196	0x3d16b34b	0.03679208
197	0xbd2c7972	-0.042108007
198	0xbc979c28	-0.018507078
199	0xbd9fb870	-0.077988505
200	0xbd39e8ad	-0.045387913
201	0xbe2d27a1	-0.16909648
202	0x3d15c09b	0.036560636
203	0xbca0fed9	-0.01965277
204	0x3d24b1af	0.040208515
205	0xbc3cee62	-0.011531444
206	0x3d552f6e	0.052047186
207	0xbdf504f4	-0.11963835
208	0xbbb54e7c	-0.0055330377
209	0xbdaa2f4d	-0.08309803
210	0xbcfa87b6	-0.03058229
211	0xbba59289	-0.0050528687
212	0x3d0253cf	0.031818207
213	0x2dfed8ea	2.8972786e-11
214	0x3c91a230	0.017777532
215	0xbd9b2bae	-0.075766906
216	0xbd5af912	-0.05346019
217	0x3d93b4cc	0.07212219
218	0xbd77968d	-0.06044631
219	0xbd3bbce9	-0.045834456
220	0x3bcebb04	0.006308915
221	0xbb6f92d8	-0.0036556032
222	0x3d4e3061	0.050339106
223	0x3d032feb	0.03202812
224	0xbd899382	-0.06717588
225	0xbc5b2ba8	-0.013377108
226	0x3c8adb20	0.01695019
227	0xbdb34d5a	-0.08754988
228	0xbd93b8b1	-0.072129615
229	0x3d889a49	0.066700526
230	0x3d6c95c7	0.057760026
231	0x3d9fecad	0.07808814
232	0xba1f9dde	-0.00060888927
233	0xbdb3a9f0	-0.087726474
234	0x3dc7e126	0.097597405
235	0x3ce6391c	0.028103404
236	0x3d6c7ada	0.057734348
237	0x3b9998dc	0.0046874117
238	0xbe05fd58	-0.13084924
239	0xbcfdcb80	-0.030980825
240	0xba994cb6	-0.0011695835
241	0xbda5badb	-0.080922805
242	0xbd3a5b6c	-0.045497343
243	0xbd7fb296	-0.062426172
244	0x3e064dfb	0.13115685
245	0xbd2b93b4	-0.041888908
246	0xbba50986	-0.0050365357
247	0xbd63d399	-0.055621717
248	0xbd7d41b1	-0.061830226
249	0xbc0a9582	-0.008458497
250	0x3d224a79	0.039621804
251	0x3d1036c3	0.035208475
252	0xbb8c5992	-0.0042831386
253	0xbd84ad4a	-0.06478365
254	0x37b3db67	2.144063e-05
255	0xbbf976f7	-0.0076130587

val_conv1.bias f4 [2]
0	0x3d1152ee	0.03547948
1	0x3d8e3532	0.0694374
