models/Training/AC_nmcts20/train_079.pth (torch, 424031 bytes, 15 tensors)

conv1.weight f4 [32, 5, 3, 3]
0	0x3cb5f582	0.022211794
1	0xbe3fe28f	-0.18738769
2	0xbd241494	-0.040058687
3	0x3e15abf6	0.14616379
4	0xbe859d00	-0.26096344
5	0xbd082840	-0.03324151
6	0x3df9e75e	0.12202333
7	0xbe159578	-0.14607799
8	0x3cdfd4fc	0.027323239
9	0x3c9c1422	0.019052569
10	0xbc89e0f8	-0.016830906
11	0x3e20d78b	0.15707223
12	0x3dbb2732	0.09138335
13	0xbe37d1e3	-0.17951159
14	0x3e16a3b7	0.1471089
15	0xbcfc170d	-0.03077271
16	0xbc1be8fc	-0.009515997
17	0x3dd6dec2	0.104917064
18	0xab4f719c	-7.369884e-13
19	0x274986f0	2.7967503e-15
20	0xa697ce40	-1.0533634e-15
21	0xab0ec885	-5.072681e-13
22	0x299e567f	7.031614e-14
23	0xaca93e75	-4.810203e-12
24	0x2dfe12c2	2.8884787e-11
25	0xa942a8d8	-4.3223102e-14
26	0xa76eeda7	-3.3157967e-15
27	0x3dd4115c	0.103548735
28	0x3c6e3bb3	0.014540601
29	0xbd60df14	-0.054900244
30	0xbe009f29	-0.12560715
31	0xbe3671de	-0.17816874
32	0x3b79913e	0.0038080956
33	0x3d3e35ff	0.046438213
34	0xbe0b2b68	-0.13590777
35	0x3db81aad	0.08989463
36	0x295c75d3	4.895201e-14
37	0x2b44c58f	6.9907356e-13
38	0xa91f6374	-3.5391354e-14
39	0x26fdf368	1.7621377e-15
40	0xaf96962c	-2.7391545e-10
41	0x29a46314	7.3002504e-14
42	0x280abddc	7.701708e-15
43	0x2a0701d5	1.1991044e-13
44	0x2c98f1a4	4.3469273e-12
45	0xbd714868	-0.058906943
46	0x3e6b5965	0.2298332
47	0x3db5e7d4	0.08882108
48	0x3dfe18fb	0.124071084
49	0xbd60bbd3	-0.054866623
50	0x3915662c	0.0001424781
51	0x3cf4a838	0.02986537
52	0x3e12d8f5	0.14340575
53	0x3df5cecb	0.12002333
54	0x3d8c6d45	0.06856779
55	0xbe1d172a	-0.15340868
56	0xbd243b3b	-0.04009555
57	0xbc91f856	-0.017818611
58	0x3d0043c7	0.031314638
59	0x3c131138	0.008976273
60	0xbcf12322	-0.029435698
61	0xbd853e1d	-0.06505988
62	0x3db03640	0.08604097
63	0xab04d990	-4.719775e-13
64	0xaabb2aa5	-3.3247463e-13
65	0xa83e8afb	-1.0577255e-14
66	0xb27acfec	-1.4599191e-08
67	0xa8569b6a	-1.1913086e-14
68	0x29177cc5	3.3636956e-14
69	0xb23c233f	-1.0951054e-08
70	0x28ce011c	2.2871075e-14
71	0xab5a6e10	-7.76019e-13
72	0xbe08960e	-0.13338491
73	0x3e468419	0.19386329
74	0xbdcf9e4a	-0.10137613
75	0x3cd0de95	0.02549676
76	0xbe4737b0	-0.19454837
77	0xbdc04fc3	-0.09390213
78	0xbe00d47d	-0.12581058
79	0x3e06877b	0.13137619
80	0xbc9cd889	-0.01914622
81	0x2a0d31b3	1.2540559e-13
82	0x3715b06c	8.9221685e-06
83	0xaae21641	-4.0161106e-13
84	0xa9390310	-4.1080908e-14
85	0x2b864fcd	9.543422e-13
86	0xb517ed24	-5.659697e-07
87	0xac6f6492	-3.401977e-12
88	0xb14f48a2	-3.0163751e-09
89	0x2a20cfbb	1.4282926e-13
90	0xbdd7c246	-0.105351016
91	0x3d2031b0	0.039109886
92	0x3d9cfe98	0.076657474
93	0x3d812423	0.06305721
94	0x3ca6aeff	0.020347117
95	0x3e263a95	0.16233285
96	0xbe22770c	-0.15865725
97	0xbe3b6a84	-0.18302351
98	0xbbb10a42	-0.005402834
99	0xbcdbf7de	-0.02685159
100	0xbd44d5e4	-0.048055544
101	0xbda1e7a9	-0.07905514
102	0x3afc1e76	0.0019235152
103	0xbcd274d3	-0.025690472
104	0x3de6bd59	0.11266584
105	0x3e4c92d2	0.19977883
106	0xbc2fb19b	-0.010723497
107	0x3dd310fd	0.10305975
108	0x2e3dbfaa	4.3143857e-11
109	0x2d06b077	7.656201e-12
110	0x2a010a6d	1.1461119e-13
111	0xa7ca0a44	-5.6077393e-15
112	0xb0ebb366	-1.7149488e-09
113	0xb6e3307a	-6.7707706e-06
114	0xaa242891	-1.45802e-13
115	0xa9ed33ce	-1.0533901e-13
116	0x294e31e3	4.578446e-14
117	0x3d91376f	0.07090651
118	0xbce723b1	-0.028215261
119	0xbe227278	-0.15863979
120	0xbd35b50d	-0.044362117
121	0xbd234b87	-0.03986695
122	0x3dcb1f17	0.09918039
123	0x3d81c681	0.0633669
124	0xbd221627	-0.039571907
125	0x3d47709b	0.048691373
126	0xad36394b	-1.0358224e-11
127	0x3330fdbc	4.1208963e-08
128	0x2adb7f07	3.8990358e-13
129	0xb6cfbb52	-6.1908877e-06
130	0xa3aad790	-1.8522731e-17
131	0xb68475d2	-3.9476226e-06
132	0x3162150c	3.2899292e-09
133	0x27cf50d4	5.7541676e-15
134	0x28c9d314	2.2407023e-14
135	0x3d1133f2	0.03544993
136	0xbdcdd0f3	-0.100496195
137	0xbe0026cb	-0.12514798
138	0x3ce64fef	0.028114287
139	0x3ca1823b	0.019715419
140	0xbd324d53	-0.043530773
141	0x3e3a1273	0.181711
142	0x3e67725a	0.22602215
143	0x3e2c45bf	0.16823481
144	0x3d89dbc3	0.06731369
145	0x3c975b7e	0.018476244
146	0xbdb7398a	-0.089465216
147	0xbd4cdfff	-0.050018307
148	0xbe4868d6	-0.19571242
149	0xbe17d2db	-0.14826529
150	0x3d589f7d	0.052886475
151	0x3d0dd540	0.0346272
152	0xbe1c9c54	-0.1529401
153	0x2e358898	4.1275955e-11
154	0xa806703e	-7.462833e-15
155	0xa9f91b0e	-1.10625146e-13
156	0x29183cc7	3.3803496e-14
157	0xad1837c4	-8.652582e-12
158	0x2c655822	3.259178e-12
159	0xaa488875	-1.7810911e-13
160	0x2a47366e	1.7693635e-13
161	0x318d18b5	4.106449e-09
162	0x3d061687	0.032736327
163	0x3e065c31	0.13121106
164	0x3d277cad	0.040890384
165	0xbe540291	-0.20704104
166	0x3daafa19	0.083484836
167	0xbc0baec5	-0.008525555
168	0x3d943ec2	0.072385326
169	0x3da3c855	0.07997195
170	0x3b91f665	0.0044544213
171	0x3689643e	4.094588e-06
172	0x2d320c67	1.0120882e-11
173	0xab91f4ba	-1.0370795e-12
174	0xa7cb8ab8	-5.6494218e-15
175	0x2d19d5d4	8.7445225e-12
176	0x29c46dc2	8.7231885e-14
177	0xa9539582	-4.698109e-14
178	0x35b42d64	1.3424255e-06
179	0x2820b253	8.920452e-15
180	0x3dd581a5	0.10425118
181	0xbda1c059	-0.078980155
182	0x3dd13c83	0.1021662
183	0x3cdf2a8b	0.027241966
184	0xbc0d48c5	-0.008623307
185	0x3d2b462b	0.041814964
186	0x3cef0f46	0.029182088
187	0x3c9e5c83	0.019331222
188	0xbe1ae160	-0.15125036
189	0x3e197ffb	0.14990227
190	0xbe29b2cd	-0.16572113
191	0x3de5f32f	0.11228024
192	0x3d987d75	0.07445804
193	0x3d4a43ae	0.04938095
194	0x3e0bb08e	0.13641569
195	0x3dc14bf0	0.09438312
196	0x3d3ecf5d	0.046584476
197	0xbe1db509	-0.1540109
198	0xa9eeee93	-1.0610709e-13
199	0x29687ff9	5.1625347e-14
200	0x2e9d3daa	7.150487e-11
201	0xb71c4dbf	-9.316426e-06
202	0x2e31219c	4.027499e-11
203	0x27c0558a	5.3383447e-15
204	0x2f95ad79	2.7226202e-10
205	0xad14acdd	-8.451209e-12
206	0xa7182125	-2.1112205e-15
207	0x3e06de28	0.13170683
208	0xbd84126b	-0.064488254
209	0x3e08ec03	0.13371281
210	0xbb60dfb9	-0.0034313037
211	0x3d11cab3	0.0355937
212	0x3e382e69	0.17986454
213	0x3de34389	0.11096866
214	0x3d19f162	0.037583716
215	0xbd0f5ad2	-0.034998722
216	0xa99cf06e	-6.9694996e-14
217	0x2a3462e2	1.6021518e-13
218	0x295c4570	4.891004e-14
219	0xae33494a	-4.076498e-11
220	0xa84a6d40	-1.1236942e-14
221	0xa9007177	-2.8520124e-14
222	0x2a5d8b3c	1.967705e-13
223	0xaf3de661	-1.7271297e-10
224	0x36c5a5da	5.890365e-06
225	0x3d9bed4b	0.076136194
226	0x3e1945d9	0.14968051
227	0x3e1304ea	0.14357343
228	0x3e200bf9	0.15629567
229	0xbd9e2ee8	-0.077237904
230	0xbdb314af	-0.087441795
231	0x3dd3857b	0.10328194
232	0x3e226c96	0.15861735
233	0xbdecdb11	-0.11565221
234	0x3da99356	0.08280055
235	0x3dfa852d	0.122324325
236	0x3d6bc80b	0.057563823
237	0x3d399448	0.045307428
238	0xbe0dcf05	-0.13848503
239	0xbdcc826e	-0.09985815
240	0x3d6f273a	0.05838702
241	0xbdea5f4b	-0.11443957
242	0xbbf3dfe9	-0.0074424637
243	0xb4199ee5	-1.4307041e-07
244	0x2b200c74	5.68607e-13
245	0xb19534f9	-4.342493e-09
246	0xa7f88ab8	-6.8984227e-15
247	0xb2857e57	-1.554069e-08
248	0xad36466c	-1.0361139e-11
249	0x2b29d747	6.033962e-13
250	0xaef64ef2	-1.1200808e-10
251	0xac6b88a7	-3.3471366e-12
252	0x3b9f3d08	0.0048595704
253	0x3da9edca	0.08297308
254	0x3d2705bb	0.04077695
255	0x3d8f5bb6	0.06999914

conv1.bias f4 [32]
0	0x3dfb511a	0.12271328
1	0x3c08072f	0.008302494
2	0xbd20d709	-0.039267574
3	0x3da89b29	0.082327195
4	0xbd9804d6	-0.074227974
5	0xbe0e6409	-0.13905348
6	0xbd11b925	-0.03557696
7	0x3dd92972	0.10603608
8	0x3d913e29	0.07091934
9	0xbdb5ba2c	-0.088734
10	0x3e3eba00	0.18625641
11	0xbd2dbd91	-0.042417113
12	0x3e3136cc	0.1730606
13	0x3e18bbfb	0.14915459
14	0xbde59eaa	-0.112119034
15	0xbcd842af	-0.026398985
16	0xbcdb023f	-0.02673447
17	0xbd846068	-0.064637005
18	0xbce8d913	-0.028423822
19	0x3e2c231d	0.1681027
20	0xbd78cca0	-0.06074202
21	0x3d9f63f1	0.07782734
22	0x3bec8881	0.007218421
23	0xbd966fbf	-0.073455326
24	0xbda36be1	-0.07979561
25	0x3d97f602	0.07419969
26	0xbdeecd30	-0.1166023
27	0x3e2c8029	0.16845764
28	0x3e00c14e	0.1257374
29	0xbd9af5f1	-0.07566441
30	0xbde41150	-0.111361146
31	0x3df5ba4c	0.11998424

conv2.weight f4 [64, 32, 3, 3]
0	0xbcb36c58	-0.021902248
1	0x3cfd8059	0.03094499
2	0xbc032c75	-0.008006205
3	0x3d0a4b12	0.033763
4	0xbd5978f3	-0.05309386
5	0xbd5c3b9a	-0.053767778
6	0xbd573b55	-0.052546818
7	0x3c3b7585	0.011441593
8	0xbca13abe	-0.01968133
9	0xbd3fc33a	-0.046817042
10	0xbd10a752	-0.03531582
11	0xbd31f091	-0.043442313
12	0x3cce45f1	0.025179835
13	0x3ce018fc	0.027355663
14	0x3d1a3243	0.03764559
15	0x3cc992cd	0.024606133
16	0x3cacecbb	0.021108976
17	0x3d6cefe5	0.05784597
18	0xbd60a942	-0.054848917
19	0xbd24b9e7	-0.040216353
20	0xbd13f8ab	-0.03612582
21	0x3c46feee	0.012145741
22	0x3d289d76	0.04116579
23	0xbb75490f	-0.003742758
24	0x3b035372	0.002003875
25	0x3b68bc7c	0.0035512736
26	0xbd5af67e	-0.05345773
27	0xbda290d0	-0.07937777
28	0xbc7660e7	-0.015037752
29	0x3cfdd343	0.030984527
30	0xbb2df715	-0.0026544977
31	0xbba289c1	-0.004960269
32	0xbb36daaa	-0.002790133
33	0x3d04150a	0.032246627
34	0x3cae9758	0.0213124
35	0x3d3f71ee	0.04673951
36	0xbb76de01	-0.0037668946
37	0x3d0e9423	0.034809243
38	0xbd32b270	-0.043627203
39	0x3ca8862e	0.020571794
40	0x3d5d543c	0.05403541
41	0xbd0bcea4	-0.034132615
42	0xbb426d10	-0.0029667057
43	0xbaf48951	-0.0018656646
44	0xbd091161	-0.03346384
45	0xbd4e9b91	-0.05044133
46	0xbca49085	-0.020088444
47	0xbc5c5802	-0.013448717
48	0xbd586901	-0.052834515
49	0xbd0304a8	-0.031986862
50	0x3a91968a	0.0011107486
51	0xbce336c6	-0.027736079
52	0x3d6e4142	0.058167703
53	0x3cba2def	0.022726981
54	0xbc5ff85a	-0.0136700515
55	0xbd3fadc5	-0.04679658
56	0xbd8b78fd	-0.06810186
57	0xbb7cb820	-0.0038561895
58	0x3cdef04d	0.027214194
59	0xbbe1d78f	-0.0068921517
60	0x3cc52b6b	0.024068555
61	0xbce58957	-0.02801959
62	0xbd10fd68	-0.035397917
63	0x3c9b6054	0.018966831
64	0xbccfbe74	-0.02535937
65	0x3ccd72c9	0.025079148
66	0xbd28fd7b	-0.041257363
67	0x3dad72ed	0.08469186
68	0x3d060228	0.0327169
69	0x3d3688c3	0.04456402
70	0xbc89f706	-0.016841423
71	0xbbb0758e	-0.0053851074
72	0xbdadee68	-0.08492738
73	0xbc522383	-0.0128258495
74	0x3a99768b	0.0011708302
75	0xbd819ec2	-0.06329109
76	0x3d20f0ec	0.03929226
77	0xbd7ea2c3	-0.06216694
78	0xbd1fc2ba	-0.039004065
79	0x3d116567	0.035497095
80	0x3d1ff501	0.039052013
81	0xbb676355	-0.003530701
82	0xbd78327d	-0.060595024
83	0xbce49807	-0.027904524
84	0x3cf5dd21	0.030012669
85	0xbd952ed1	-0.0728432
86	0xbd22d1e3	-0.039750945
87	0x3d1ff9e7	0.039056685
88	0x3d275521	0.04085267
89	0xbc52462d	-0.012834114
90	0xbd6c1ff2	-0.057647653
91	0x3cdfb39e	0.027307328
92	0xbd8bad16	-0.06820123
93	0xbd78c727	-0.0607368
94	0xbd719c9c	-0.058987245
95	0xbdad458c	-0.08460531
96	0xbd438440	-0.047733545
97	0xbcc43e1a	-0.023955394
98	0xbcc82406	-0.02443124
99	0x3bec5eaa	0.0072134333
100	0x3d436932	0.047707744
101	0xbcaf3b1c	-0.02139049
102	0xbd8db8c2	-0.069200054
103	0x3c513d1c	0.012770917
104	0x3d2a1dd2	0.041532345
105	0xbcd48d9e	-0.025946435
106	0x3cc9e06f	0.024643151
107	0xbd722572	-0.059117742
108	0xbdb973bd	-0.090552785
109	0xbd05481a	-0.032539465
110	0xbd987f8d	-0.074462034
111	0x3b570b34	0.0032813074
112	0x3d804d48	0.0626474
113	0xbdbe4396	-0.09290235
114	0xbd49c6a3	-0.0492617
115	0xbd5488dc	-0.05188833
116	0xbb0fff38	-0.002197219
117	0xbd8cea11	-0.06880582
118	0xbd5c957d	-0.0538535
119	0x3d050ff9	0.032485936
120	0xbd8da8a2	-0.0691693
121	0x3d02c808	0.031929046
122	0xbc825a43	-0.01591218
123	0xbd3afe69	-0.04565278
124	0x3c0b8843	0.008516374
125	0xbc4de9a9	-0.012567916
126	0xbce0eacf	-0.027455715
127	0xbad060f9	-0.0015898041
128	0xbd67bd24	-0.056576863
129	0xbd85c695	-0.06532017
130	0xbcfa19cf	-0.030529885
131	0x3c569eea	0.0130994115
132	0xbd9be4fa	-0.07612033
133	0xbc83e3e2	-0.016099874
134	0x3bf8e672	0.0075958306
135	0xbd344cba	-0.044018485
136	0xbd16512f	-0.036698516
137	0xbd0520d3	-0.032502007
138	0xbd3190ef	-0.04335111
139	0xbc8af852	-0.016964111
140	0xbd15ac7a	-0.03654144
141	0xbca6cc18	-0.020360991
142	0xbd4d0602	-0.050054558
143	0xbd843822	-0.06456019
144	0x3d623c57	0.055233326
145	0xbd11a492	-0.035557337
146	0xbda3fe46	-0.08007483
147	0xbd338d35	-0.043835837
148	0xbd70616d	-0.058686662
149	0xbd0e8278	-0.034792393
150	0xbc089ae1	-0.008337707
151	0x3b97d26e	0.0046332395
152	0xbcef4736	-0.02920876
153	0xbd4a6819	-0.04941568
154	0x3cdb761e	0.026789721
155	0x3bb8538a	0.005625193
156	0xbd89e884	-0.06733802
157	0xbc0089c8	-0.00784535
158	0x3d7b8fbc	0.061416373
159	0xb953c43f	-0.00020195635
160	0x3d33a533	0.043858718
161	0xbd865ffd	-0.06561277
162	0xbd065561	-0.032796267
163	0x3c457219	0.012051129
164	0x3d38dd87	0.04513314
165	0xbc17442a	-0.00923256
166	0xbd5dc5bf	-0.054143663
167	0x3badc7b1	0.005303346
168	0x3d486973	0.04892869
169	0xbd0900af	-0.033447918
170	0x3c5f8b01	0.013643981
171	0x3ce1e0c6	0.027573
172	0xbd951c48	-0.07280785
173	0xbd45b659	-0.048269603
174	0xbc898aa9	-0.016789751
175	0x3d3d8819	0.04627237
176	0xbceba0fd	-0.028763289
177	0xbc1b9324	-0.00949553
178	0xbd354eb3	-0.044264507
179	0xbdbc21bf	-0.09186124
180	0xbd839012	-0.064239636
181	0x3cef91f8	0.029244408
182	0xbbb0c46f	-0.0053945105
183	0xbcc3d60b	-0.023905775
184	0x3d692bb9	0.056926463
185	0x39766d9b	0.0002350122
186	0x3b060af6	0.002045331
187	0x37f9831e	2.974417e-05
188	0xbd0631c5	-0.032762308
189	0xbb486d03	-0.0030582554
190	0x3c49844c	0.012299608
191	0xbd3c573e	-0.045981638
192	0xbc9302c7	-0.01794566
193	0x3d71929d	0.058977712
194	0xbcc994d1	-0.024607094
195	0xbc9a88bf	-0.018864034
196	0xbdaa9d54	-0.08330789
197	0xbd917da5	-0.07104043
198	0x3d2d9108	0.04237464
199	0xbc3165dd	-0.010827509
200	0xbc650502	-0.013978245
201	0xbd63dfaa	-0.055633225
202	0xbd0cdd00	-0.03439045
203	0xbbb06e53	-0.0053842454
204	0xbd94be0a	-0.072628096
205	0x3bf05883	0.00733477
206	0xbd6af3c6	-0.057361387
207	0x3d1a5a7d	0.037683953
208	0xbd0227aa	-0.031776108
209	0xbd6a4c33	-0.057201575
210	0x3cac459d	0.021029288
211	0x3a3e4a52	0.00072589994
212	0xbd50e996	-0.051004015
213	0x3c57f6ff	0.013181447
214	0x3d6d5f1c	0.05795203
215	0x3da188d3	0.07887425
216	0x3c8951c6	0.016762625
217	0xbc9cdc21	-0.019147934
218	0x3ce57520	0.028009951
219	0xbd3c536b	-0.04597799
220	0x3cbbece4	0.022940107
221	0xbd248edb	-0.0401753
222	0x3c92ba2b	0.017911037
223	0xbcd535c4	-0.026026614
224	0xbd0200bf	-0.031738993
225	0x3c0f80b1	0.00875871
226	0x3d3800fe	0.04492282
227	0xbbed2822	-0.00723745
228	0xbc22e253	-0.009941655
229	0xbd044302	-0.032290466
230	0xbd5d88cb	-0.054085534
231	0x3cc4c9f5	0.024022082
232	0xbb1ea4b8	-0.0024207067
233	0x3ca7ba17	0.020474477
234	0x3baa5bae	0.0051989174
235	0x3d17acf6	0.037030183
236	0xbc470f38	-0.0121496245
237	0x3d20fa75	0.039301354
238	0xbcbe9299	-0.023263263
239	0x3d6053f8	0.05476758
240	0x3d3064ea	0.04306499
241	0xbcabbf4d	-0.020965243
242	0xbca39f9e	-0.019973572
243	0xbb43369e	-0.0029787193
244	0xbd873989	-0.06602771
245	0xbcbc4fd5	-0.022987286
246	0x3c288daa	0.010287682
247	0xbd3cb575	-0.04607149
248	0xbb9e6ef5	-0.0048350045
249	0xbd660016	-0.056152426
250	0xbd001335	-0.031268317
251	0xbd39503f	-0.045242544
252	0xbcfb9c73	-0.03071425
253	0x3cd977f0	0.026546448
254	0x3d2b683d	0.041847456
255	0x3c9ce94f	0.019154219

conv2.bias f4 [64]
0	0x3cc4cb89	0.024022834
1	0x3c26ed3f	0.0101884
2	0xbd92425a	-0.07141562
3	0xbd4820b6	-0.04885932
4	0xbc85c8ff	-0.016331194
5	0x3d90fdc2	0.070796505
6	0x3d85bae3	0.065297864
7	0x3cb7ee90	0.022452623
8	0xbd29860b	-0.0413876
9	0x3da5449f	0.08069729
10	0xbd1c852a	-0.038212933
11	0xbd0daf18	-0.03459081
12	0x3d5fedec	0.05467026
13	0xbd4921dd	-0.04910456
14	0xbc80fc53	-0.015745318
15	0xbb853e82	-0.0040662894
16	0x3dac46b7	0.08411925
17	0x3da64f72	0.08120622
18	0x3ce43905	0.02785922
19	0x3d597fb2	0.053100295
20	0x3c307205	0.010769372
21	0xbcd0407f	-0.02542138
22	0x3d96b08f	0.07357895
23	0x3d1d5603	0.038412105
24	0x3cd47f57	0.025939627
25	0x3dce884c	0.1008459
26	0xbc7e4a08	-0.01552058
27	0x3d76130f	0.06007677
28	0xbd329ab2	-0.04360456
29	0xbcaf2b0f	-0.021382837
30	0x3d959cfd	0.07305334
31	0x3d8e7db8	0.06957573
32	0x3c169df2	0.009192931
33	0xbcd41e3d	-0.025893325
34	0x3bd25227	0.0064184847
35	0x3dafcab2	0.08583583
36	0x3ce472d0	0.027886778
37	0xbcfc2504	-0.03077937
38	0x3b998818	0.004685413
39	0x3dae5f9d	0.085143305
40	0x3d374a57	0.04474863
41	0xbc5f1856	-0.013616642
42	0xbd6b142a	-0.057392277
43	0xbc3b45ab	-0.011430184
44	0xbcaa2ee9	-0.020774322
45	0x3d704733	0.05866165
46	0xbd2baae1	-0.04191101
47	0x3db673f8	0.08908838
48	0x3d2cc94e	0.042184167
49	0xbd79c134	-0.06097527
50	0x3d30d707	0.043173816
51	0x3d9d2281	0.07672597
52	0x3d8ac89f	0.06776547
53	0xbd0e668c	-0.034765765
54	0x3d02b401	0.031909946
55	0x3d9001ab	0.07031568
56	0xbbdbf6f7	-0.00671279
57	0x3cbe8c71	0.023260327
58	0xbd08b56c	-0.033376142
59	0xbc40be0b	-0.01176406
60	0x3c9fcecd	0.01950779
61	0xbcc680d3	-0.02423135
62	0xbd518e42	-0.05116106
63	0xbbf45518	-0.007456433

conv3.weight f4 [128, 64, 3, 3]
0	0x3cb7b2eb	0.022424182
1	0x3d2b1749	0.041770253
2	0xb9541cfe	-0.00020228696
3	0xbcb02642	-0.021502618
4	0xbca6b48a	-0.02034976
5	0xbca0c850	-0.019626766
6	0x3afe0fd8	0.0019383384
7	0xbc055bf4	-0.008139599
8	0x3bb568b4	0.005536163
9	0x3c176b0a	0.009241829
10	0x3c051c0b	0.008124362
11	0x3cbe02e1	0.023194732
12	0xbd127721	-0.03575814
13	0x3c8139f0	0.015774697
14	0xbc0ce32b	-0.008599083
15	0xbd105e2e	-0.035246067
16	0xbc29c06c	-0.010360818
17	0x3befe615	0.007321129
18	0x3d563d0d	0.052304316
19	0xbccb0f06	-0.024787437
20	0xbc2d8d6a	-0.010592798
21	0x3caf413b	0.021393409
22	0xbbc36a27	-0.005963582
23	0x3ca43e2d	0.020049179
24	0xbd361719	-0.04445562
25	0xbcf7b762	-0.03023881
26	0x3cba7ff5	0.022766093
27	0x3c109799	0.008825206
28	0xbc56ad33	-0.013102817
29	0x3da3b0c3	0.07992699
30	0xbc855e53	-0.016280329
31	0x3c79096d	0.015200001
32	0x3db2d2e7	0.08731633
33	0x3c2eb9ee	0.010664446
34	0x3d14bded	0.03631394
35	0xbd3c9497	-0.046040144
36	0x3c449c0b	0.012000094
37	0xbc0e9cc0	-0.008704364
38	0xbd36208e	-0.04446464
39	0xbce289ec	-0.027653657
40	0xbd4bcacc	-0.04975395
41	0xbcfd3bda	-0.030912329
42	0xbd1d7ee8	-0.038451105
43	0xbc865ff3	-0.016403174
44	0x3c829fc8	0.01594533
45	0x3d1fd8b1	0.039025012
46	0xbc8891e4	-0.016671129
47	0xbd10f89b	-0.03539334
48	0x3d59820e	0.053102545
49	0xbb1d9085	-0.002404244
50	0xbd50e0c6	-0.05099561
51	0x3d001a82	0.03127528
52	0xbd3ba75a	-0.045813896
53	0xbbd0cef2	-0.006372326
54	0x3c17dc52	0.009268837
55	0xbcce2400	-0.02516365
56	0xbc7183fc	-0.01474094
57	0xbd801cc2	-0.06255485
58	0xbd36eb47	-0.04465797
59	0xbcb4613c	-0.022019021
60	0xbc51a850	-0.0127964765
61	0xbcc8108a	-0.024421949
62	0xbc8047e4	-0.01565928
63	0x3b8e546f	0.0043435614
64	0xbbc7c30d	-0.00609625
65	0x3ce76bb6	0.028249603
66	0xbc9b59b3	-0.01896367
67	0x3cb6fdaf	0.022337763
68	0xbbe6d645	-0.007044586
69	0x3c906ac2	0.017629031
70	0xbb95d66f	-0.0045726816
71	0xbadc3b81	-0.0016802402
72	0x3c02ca28	0.007982768
73	0x3c88026d	0.01660272
74	0xbc9a1843	-0.018810397
75	0x3cf44eee	0.029822793
76	0x3c581623	0.013188872
77	0x3a04a0ce	0.0005059362
78	0x3d137060	0.03599584
79	0xbce7b9b0	-0.028286785
80	0xbc365224	-0.011127982
81	0xbc95c2fd	-0.018281454
82	0xbd033d49	-0.032040868
83	0xbd67db22	-0.056605466
84	0xbd1dedf5	-0.03855701
85	0xbd66a6bc	-0.056311354
86	0x3c59a59b	0.013284112
87	0xbcea3d01	-0.028593542
88	0x3d14580e	0.036216788
89	0xbc2f7c6c	-0.010710817
90	0x3d5763ef	0.05258554
91	0x3d0d0a74	0.034433797
92	0xbc08a6d0	-0.008340552
93	0x3c8ad2cf	0.016946224
94	0x3cbcde65	0.023055265
95	0xbc079cb5	-0.008277108
96	0x3d373025	0.04472365
97	0x3cbe5249	0.023232596
98	0xbcfbf097	-0.03075437
99	0xbd565da4	-0.052335396
100	0x3d4d07c8	0.05005625
101	0x3d0fde21	0.035123948
102	0x3cf7ddb1	0.030257078
103	0x3d1dfe6e	0.03857272
104	0xbc02224d	-0.007942748
105	0x3c4d8569	0.0125440145
106	0xbd3bb321	-0.045825128
107	0x3d866d1d	0.065637805
108	0xbce01765	-0.027354905
109	0x3d28a868	0.04117623
110	0xbce6bcc9	-0.028166192
111	0xbb391b61	-0.002824508
112	0x3bf196af	0.007372699
113	0xbd24c414	-0.040226057
114	0xbc242677	-0.010018936
115	0xbc1cf6f0	-0.009580359
116	0x3d8da9d0	0.06917155
117	0xbb8a3b95	-0.0042185285
118	0xbc3e57d0	-0.011617616
119	0xbc5fdb04	-0.013663057
120	0x3b85f948	0.0040885545
121	0x3c0fdb9c	0.008780386
122	0x3b1d1cb5	0.002397341
123	0x3ccb810a	0.024841804
124	0x3bb86c2e	0.0056281304
125	0xbc1429b2	-0.009043144
126	0xbd714a7b	-0.05890892
127	0x3cb4af54	0.02205626
128	0xbb99099e	-0.004670336
129	0xbd8e889f	-0.06959652
130	0xbca70d63	-0.020392125
131	0x3c59b64b	0.013288091
132	0x3c520169	0.012817719
133	0x3c0ca1a2	0.008583458
134	0x3ccb6f62	0.024833385
135	0x3c81f446	0.015863549
136	0x3c72ea92	0.014826434
137	0xbd371608	-0.044698745
138	0x3d8e387e	0.06944369
139	0xbd72bed6	-0.059264027
140	0xbd613349	-0.05498055
141	0x3c1828bc	0.009287056
142	0xbc3f4a19	-0.011675381
143	0xbc23d486	-0.0099994
144	0x3c4f8768	0.012666561
145	0xbc227f46	-0.00991804
146	0xbd90128e	-0.07034789
147	0x3c84f2ef	0.016229121
148	0xbc910e09	-0.017706888
149	0xbd834fe9	-0.06411726
150	0x3990b5e0	0.00027601328
151	0xbc014e1d	-0.007892159
152	0x3c190474	0.009339441
153	0xbb9a6948	-0.0047122575
154	0x3d09eef5	0.033675153
155	0x3b0d21a5	0.0021534946
156	0x3cd17449	0.025568144
157	0x3d2cf669	0.042227183
158	0xbc013098	-0.007885121
159	0xba92613c	-0.0011167894
160	0x3b88dd8a	0.0041768
161	0x3ccbdeab	0.02488645
162	0x3c345364	0.01100621
163	0xbd0e43ab	-0.034732502
164	0x3d048b0f	0.03235918
165	0xbd104318	-0.035220236
166	0xbaa8356b	-0.0012833303
167	0x3d2d10c6	0.042252325
168	0xbd719725	-0.058982033
169	0x3caf7cbd	0.021421785
170	0x3cebb00a	0.028770465
171	0xbb083d29	-0.0020788407
172	0x3d3ef60a	0.04662136
173	0x3dae7321	0.08518053
174	0xbc367d68	-0.011138298
175	0xbd2cffa0	-0.04223597
176	0xbbf623a4	-0.007511573
177	0x3d227844	0.039665475
178	0x3c2fb3f7	0.010724059
179	0x3a4b7669	0.000776148
180	0xbbcb28bd	-0.0061999247
181	0x3d2d7867	0.042351153
182	0x3c07ff93	0.00830068
183	0xbd02cc8b	-0.03193335
184	0xbc97c7ab	-0.018527826
185	0xbca09091	-0.019600185
186	0xbc82c0e4	-0.015961118
187	0x3cba6e19	0.022757577
188	0x3d6992d3	0.057024788
189	0xbd08edf4	-0.033430055
190	0x3d0623a1	0.032748822
191	0x3d1e4cee	0.038647585
192	0xbd6a79a5	-0.057244916
193	0x3cecd455	0.028909842
194	0x3a89a19c	0.0010500434
195	0xbd719749	-0.058982167
196	0xbd343257	-0.04399332
197	0xbd2c8520	-0.042119145
198	0x3bfc5322	0.00770034
199	0x3c9b3d77	0.018950207
200	0xbdbd4abc	-0.0924277
201	0xbca4e432	-0.020128343
202	0xbd3cec2a	-0.04612366
203	0xbdae915c	-0.08523819
204	0x3c651f9d	0.013984588
205	0xbd5eeb35	-0.05442353
206	0x3d6c7bb6	0.057735167
207	0x3a6291fb	0.00086429686
208	0xbd01ea48	-0.03171757
209	0x3d4d8c4d	0.05018263
210	0xbd6ca2d4	-0.057772473
211	0x3c9f5650	0.019450337
212	0xbb14c53e	-0.0022700573
213	0xbdb6bd63	-0.089228414
214	0x3c621982	0.013800027
215	0x3d9a8960	0.075457335
216	0x3c4df097	0.012569568
217	0x3b5ec889	0.003399404
218	0x3c096f11	0.008388297
219	0x3d10f97a	0.03539417
220	0xbc94795f	-0.01812428
221	0xbbac2d6b	-0.0052544377
222	0xbb608b56	-0.0034262738
223	0xbc9f1d43	-0.019423133
224	0xbca6a2b5	-0.020341257
225	0xbd14babf	-0.036310907
226	0x3d4f80b5	0.050659854
227	0x3cdaa208	0.02668859
228	0x3c360dff	0.011111735
229	0x3c8c161c	0.017100386
230	0xbd57e3b6	-0.052707396
231	0x3b1091c7	0.0022059546
232	0x3bf40ab8	0.007447567
233	0x3d149b2e	0.036280803
234	0x3b92afd2	0.004476526
235	0xbcb3c5d7	-0.021944923
236	0xbd0a20e9	-0.03372279
237	0x3c7929ca	0.015207717
238	0xbd11db1e	-0.035609357
239	0xbcddca18	-0.027073905
240	0x3d1b82ef	0.037966665
241	0xbd7ae29a	-0.06125126
242	0x3ca2f8ef	0.019894091
243	0x3c2509d7	0.010073147
244	0xba9e1384	-0.001206026
245	0xbccf15d8	-0.02527897
246	0xbc7cb2fa	-0.015423531
247	0x3c28d194	0.010303874
248	0xbc640de3	-0.0139193265
249	0xbc3f9615	-0.011693497
250	0xbc1609b3	-0.009157586
251	0xbbe6b871	-0.00704103
252	0xbd111199	-0.035417173
253	0x3c73b58b	0.014874826
254	0x3c235e46	0.009971207
255	0x3d1499e4	0.036279574

conv3.bias f4 [128]
0	0xbc74c549	-0.014939615
1	0xbcbbc13b	-0.022919288
2	0xbcc18f36	-0.023627859
3	0x3d5ec9e7	0.054391768
4	0xbcc3142c	-0.02381333
5	0x3bc206d6	0.005921225
6	0xbc8fcff1	-0.017555209
7	0x3d49f707	0.04930785
8	0xbca5856a	-0.020205218
9	0x3c4f9ec1	0.012672127
10	0xbc965016	-0.018348735
11	0xbc285cc6	-0.010276025
12	0x3d29a187	0.04141381
13	0xbc705df2	-0.014670836
14	0x3c8a4cc9	0.016882317
15	0x3cfdd90a	0.030987281
16	0x3d6b9029	0.05751053
17	0x3d1e41a0	0.038636804
18	0x3ccbd46d	0.024881566
19	0x3c18d499	0.009328031
20	0x3d2af763	0.041739833
21	0x3cda00bc	0.026611678
22	0x3d67c31c	0.056582555
23	0x3d0dc733	0.0346138
24	0xbc9bf196	-0.019036096
25	0x3c3c1657	0.011479936
26	0x3d4426ef	0.047888692
27	0x3b4c25ed	0.0031150535
28	0x3c9f056c	0.019411765
29	0xbd27d342	-0.040972956
30	0xbd43a667	-0.047766116
31	0x3c854730	0.016269296
32	0xbce93073	-0.028465485
33	0x3d29cde8	0.041456133
34	0x3c55cba0	0.013049036
35	0xbd0f3622	-0.034963734
36	0x3d6932f2	0.05693335
37	0xbd18c362	-0.037295707
38	0x3bd147cb	0.006386732
39	0x3b475205	0.0030413878
40	0x3d2bd36b	0.04194967
41	0xbc47643e	-0.012169896
42	0x3c7f18b1	0.015569852
43	0xbcf0b0a8	-0.029381111
44	0x3ca7e9e5	0.020497272
45	0x3d9c30c7	0.07626491
46	0x3b8f6704	0.004376294
47	0x3c1af9be	0.009458957
48	0x3c8dd4ad	0.017313326
49	0x3bb0d40a	0.005396371
50	0xbcbe966b	-0.023265084
51	0x3ac3481b	0.0014898808
52	0xbd157e5a	-0.03649745
53	0x3d8cfb70	0.068838954
54	0x382566cc	3.9434803e-05
55	0x3cd3c03a	0.025848497
56	0xb9d53058	-0.00040662545
57	0x3d7567d8	0.059913486
58	0xbc5e4708	-0.01356674
59	0x3cf3e807	0.029773725
60	0x3d496dd1	0.049176995
61	0x3d006f01	0.03135586
62	0x3b63da8e	0.003476772
63	0xbb9d1e11	-0.004794844
64	0xbcb6ccd3	-0.022314465
65	0x3d406d04	0.046978965
66	0x3d3bf484	0.045887485
67	0x3d0427fd	0.0322647
68	0x3cd4bdc1	0.025969388
69	0x3c48b4d3	0.012250143
70	0x3aaa354f	0.0012985858
71	0x3cd1f7b8	0.025630817
72	0xbc03472a	-0.008012572
73	0x3b9c94a3	0.004778461
74	0x3cf2cc7f	0.029638527
75	0x3d6eb29c	0.058275804
76	0x3d297244	0.041368738
77	0x3d52e9d9	0.051492546
78	0x3ce110c7	0.02747382
79	0x3cf233da	0.02956574
80	0xbd2efa62	-0.042719252
81	0x3d0f0590	0.034917414
82	0xbb1aa7eb	-0.0023598622
83	0xbcd8e88f	-0.02647808
84	0x3c93f43b	0.018060794
85	0xb75db70c	-1.3215245e-05
86	0x3d49550f	0.049153384
87	0xbb859302	-0.0040763626
88	0x3c36dc82	0.011160972
89	0x3ce6b52f	0.028162567
90	0xbcd3d3d6	-0.025857847
91	0x3da1ed1c	0.07906553
92	0xbc178156	-0.009247145
93	0x3cc34b63	0.023839658
94	0xbc3ad2b6	-0.011402776
95	0xbbce3fd4	-0.00629423
96	0x3c2c0777	0.010499827
97	0x3ce5f5bf	0.028071282
98	0xbca0895c	-0.019596748
99	0x3d1fd41b	0.03902064
100	0x3d1ea2c1	0.038729433
101	0x3d40e0b8	0.04708931
102	0xbc5b40cd	-0.013382149
103	0xbc1337e0	-0.00898549
104	0x3d41625c	0.047212943
105	0x3d5a9773	0.05336709
106	0x3c3fa090	0.011695996
107	0x3d571fff	0.05252075
108	0xbd0d5a4d	-0.034509946
109	0x3c46151c	0.012089994
110	0x3c8d7c2c	0.017271124
111	0x3bb284aa	0.0054479437
112	0xbc86dd80	-0.016463041
113	0xba5ae092	-0.00083495036
114	0x3d52812f	0.05139273
115	0x3d2bc8aa	0.041939415
116	0x3cbc2ce7	0.02297063
117	0xbbf9bdd4	-0.007621506
118	0xbc5ba3eb	-0.01340578
119	0x3d0f6c3c	0.03501533
120	0xbcc9e018	-0.024642989
121	0x3c335ea5	0.010947858
122	0xbc0ed1d7	-0.008717022
123	0x3c504217	0.01271107
124	0xbc7eca52	-0.015551167
125	0xbc9137fd	-0.017726893
126	0xbc8f0c96	-0.017462056
127	0x3d89df3b	0.06732031

act_conv1.weight f4 [4, 128, 1, 1]
0	0x3bbb1e38	0.0057103895
1	0x2920dabb	3.5716855e-14
2	0x3b91d83b	0.0044508255
3	0xbdf37ebf	-0.11889409
4	0x3c3156ab	0.010823886
5	0xb87ee0f4	-6.0767823e-05
6	0x3d49f424	0.049305096
7	0x3c7bf2f5	0.01537775
8	0x3d8d8c94	0.06911579
9	0xbdd4554b	-0.10367831
10	0xbc1af7f6	-0.009458533
11	0x3c92dd7d	0.01792788
12	0xbe048c98	-0.12944257
13	0x3c2cc7a3	0.010545644
14	0x3cf1f2c4	0.029534705
15	0xbd412f60	-0.04716432
16	0x3be0fff6	0.0068664504
17	0xbd795fbf	-0.060882326
18	0x3ce48726	0.027896475
19	0x3c0d5f63	0.008628699
20	0xbca96639	-0.020678626
21	0x3cc364b0	0.023851722
22	0xbdbec986	-0.09315781
23	0x3bc26385	0.005932274
24	0x3c840418	0.016115233
25	0x3d10d163	0.035355937
26	0xbc59f338	-0.013302617
27	0xbd200cec	-0.039074823
28	0xba8349e1	-0.0010016524
29	0xbd2a12d1	-0.04152185
30	0xbcba3bfb	-0.022733679
31	0x3d12dc53	0.03585465
32	0x27ff6f3a	7.089731e-15
33	0xbad1b6cb	-0.0015999911
34	0xbcd61d9d	-0.026137168
35	0x3d4c884a	0.049934663
36	0xbd89e82b	-0.06733736
37	0xbc77ebb8	-0.015131883
38	0xbaa49dde	-0.0012559255
39	0xb8b95034	-8.8364264e-05
40	0xbd2764d0	-0.040867627
41	0xbc1af5ab	-0.009457986
42	0xbd1b8d0b	-0.037976306
43	0xbd5ee20f	-0.054414805
44	0xbbf8c75f	-0.0075921263
45	0xbda6401e	-0.08117698
46	0xbc04e79c	-0.008111861
47	0xbda45a4a	-0.08025034
48	0xbb1d3d6f	-0.0023992916
49	0xbd004a06	-0.031320594
50	0x3cf52b13	0.029927766
51	0x3cd8b289	0.02645232
52	0xbc28ff51	-0.010314778
53	0xbd1759e7	-0.036950972
54	0xbd80a3fb	-0.06281277
55	0x3d6ef49f	0.058338758
56	0xa816ffa1	-8.382103e-15
57	0xbdda98d6	-0.106736824
58	0xbd8e5a5d	-0.06950829
59	0xbc8e68f8	-0.017384037
60	0xbda13869	-0.078720875
61	0x3ce7a631	0.028277488
62	0x3d043ddd	0.03228556
63	0x2b322fb3	6.33045e-13
64	0x3d753cf9	0.0598726
65	0xbd48829d	-0.048952688
66	0x3d27b28d	0.040941764
67	0xbcc80f3c	-0.024421327
68	0xbd5368df	-0.051613685
69	0xbba13e58	-0.004920762
70	0x3d1c71b0	0.03819436
71	0x3bfe4187	0.0077592763
72	0xbd11a002	-0.035552986
73	0x3d9419b8	0.07231468
74	0x3d4a3717	0.049368944
75	0xbd743adf	-0.059626456
76	0xbbda372b	-0.0066594086
77	0xbba603c0	-0.005066365
78	0xbd80f9df	-0.06297659
79	0xbcbfc75c	-0.023410492
80	0x3be11904	0.006869437
81	0x3d09af70	0.033614576
82	0xbb314ee4	-0.002705508
83	0xaa6e9d26	-2.1193168e-13
84	0xbce862ae	-0.028367367
85	0xa99de846	-7.0124936e-14
86	0xbdd84557	-0.105601005
87	0x3d94cc5b	0.0726554
88	0x3d2eed4e	0.04270678
89	0xbbb1da18	-0.00542761
90	0x3c317a5a	0.010832394
91	0xbda83cd6	-0.082147285
92	0x3c889d5a	0.016676594
93	0x3d64f528	0.05589786
94	0xbced0e20	-0.0289374
95	0x3d4790ff	0.048722263
96	0xbd28e855	-0.041237194
97	0x3d48fb24	0.04906763
98	0xbd0e72bc	-0.034777388
99	0x3d609244	0.05482699
100	0xbc050e08	-0.008121021
101	0x3cbbe068	0.022934154
102	0xbbe7cd74	-0.0070740525
103	0xbda13f37	-0.078733854
104	0xbc0c68fc	-0.008569952
105	0x3ae13f6c	0.0017185039
106	0xbbb14f00	-0.005411029
107	0xbdb69325	-0.08914784
108	0x3cc1e9c9	0.023671048
109	0x3d7d1c0f	0.061794337
110	0xbcf52c8e	-0.029928472
111	0xbad5d601	-0.0016314388
112	0x29cf3868	9.2024316e-14
113	0x3b1d44d0	0.0023997314
114	0xbce9d834	-0.028545476
115	0xbcca22d5	-0.024674812
116	0xbd2c0aca	-0.042002477
117	0x3d24f252	0.040270157
118	0x3cdc902e	0.026924219
119	0xbc4f05e5	-0.012635683
120	0x3d93f0d2	0.07223667
121	0xbcee57ea	-0.029094655
122	0xbca7a1e3	-0.020462936
123	0xbdc21d66	-0.094782636
124	0x2c47b66c	2.8380865e-12
125	0x3d257509	0.040394817
126	0x28c52f6b	2.1891958e-14
127	0xbc46eee9	-0.012141922
128	0xbb8dea10	-0.004330881
129	0x3ce7e7e3	0.028308814
130	0xbd68d1fe	-0.05684089
131	0x3d3499aa	0.044091858
132	0x3ddab4bf	0.10679006
133	0xbdcb2b45	-0.099203624
134	0xbd7b0a17	-0.06128892
135	0x3dd0874f	0.10182058
136	0x3d8999ef	0.06718814
137	0xbdc66d9a	-0.096888736
138	0x3c156fc8	0.009120889
139	0xbe1275cb	-0.14302747
140	0x3ce0220d	0.027359987
141	0x3cce016c	0.025147162
142	0x3dffe04b	0.12493952
143	0x3dfffc1f	0.1249926
144	0xbe3882e6	-0.18018684
145	0xbd2a1967	-0.04152813
146	0x3c1a07ce	0.009401275
147	0x3c618aea	0.01376603
148	0x3d47e4b9	0.04880211
149	0xbd836747	-0.06416183
150	0x3d1e6bad	0.038676906
151	0xbd06e14a	-0.032929696
152	0x3d52592a	0.051354565
153	0x3c17499c	0.009233858
154	0x3aa4f034	0.0012583793
155	0x3e0edc17	0.13951145
156	0x3da0ee11	0.078579076
157	0xbe05397f	-0.13010214
158	0xbbc96334	-0.006145859
159	0xbd9733ae	-0.07382904
160	0xbd3f7933	-0.046746444
161	0x3d9a3ac1	0.07530738
162	0x3cf53715	0.029933492
163	0x3bc2ddbd	0.0059468434
164	0x3e172b7b	0.1476268
165	0x3e03f7ae	0.12887451
166	0x3c4836ba	0.012220079
167	0xbcb5e5f9	-0.022204386
168	0x3d0c5ae0	0.034266353
169	0xba97d75c	-0.0011584568
170	0xbcf53389	-0.0299318
171	0x3db2a73f	0.08723306
172	0xbdc22ac6	-0.09480815
173	0x3d4ec2a8	0.050478607
174	0xbd2c8c92	-0.042126246
175	0x3b87496a	0.0041286247
176	0xbe0ab690	-0.13546205
177	0xbd0b2b5f	-0.03397691
178	0x39136dae	0.00014059871
179	0x3bb4caf7	0.0055173594
180	0xbe1f52dd	-0.15558954
181	0x3e080fd3	0.13287286
182	0x3cd26a64	0.025685497
183	0xbd4c1ac2	-0.049830206
184	0x2b805e8b	9.121188e-13
185	0x3dc08359	0.094000526
186	0x3bed7304	0.007246377
187	0x3da5a1a6	0.080874726
188	0x3ddac1f0	0.10681522
189	0x3c3d41ec	0.0115513615
190	0xbce2f579	-0.027704941
191	0x29578b34	4.786033e-14
192	0x3bb63459	0.0055604395
193	0x3dd25242	0.10269596
194	0x3dc951d0	0.098300576
195	0x3da4f8ee	0.08055292
196	0x3d9f6d97	0.077845745
197	0xbcda8a5d	-0.026677305
198	0xbd4074d2	-0.04698641
199	0x3de2282a	0.11042817
200	0x3e0863a1	0.13319255
201	0x3dbb2dd8	0.091396034
202	0x3db380a1	0.087647684
203	0xbdf8b3b2	-0.12143649
204	0xbab9d6f4	-0.0014178441
205	0x3c9c9758	0.019115135
206	0x3de92b8f	0.11385261
207	0x3e1f19d7	0.15537201
208	0xbd70bf1b	-0.058776002
209	0x3bb94b79	0.005654749
210	0xbcdef893	-0.027218139
211	0xbc1e64e1	-0.009667606
212	0x3db2e0f0	0.0873431
213	0x2ae04b0b	3.9842465e-13
214	0x3ddda394	0.10822216
215	0xbd967488	-0.07346445
216	0x3dc075b9	0.09397454
217	0x3b9f0554	0.00485293
218	0x3be395d1	0.0069453497
219	0x3d93171d	0.07182143
220	0xbd410d92	-0.047132082
221	0xbda039b8	-0.07823509
222	0x3d8dd9e1	0.06926323
223	0x3dafef88	0.08590609
224	0x3dd35f7e	0.10320948
225	0x3c80e699	0.015734958
226	0xbd4fb8fa	-0.050713517
227	0x3cf976ce	0.030452158
228	0x3dfe2617	0.12409609
229	0x3d872f5d	0.06600831
230	0xbdf229c6	-0.11824374
231	0x3e193778	0.14962566
232	0x3dc80e55	0.097683586
233	0xbca6d68a	-0.020365972
234	0xbc8e6df8	-0.017386422
235	0x3e3de839	0.18545617
236	0xbdc03d6b	-0.093867145
237	0xbb9b2dec	-0.004735699
238	0x3ddac69b	0.10682412
239	0xbce4e70b	-0.027942201
240	0xb8df6c70	-0.00010653667
241	0x3d7792a6	0.06044259
242	0x3e4a4399	0.19752349
243	0xbe1901d4	-0.14942104
244	0x3d135a85	0.035974998
245	0xbdaf0dd1	-0.08547557
246	0x36afee98	5.2431824e-06
247	0x3db74ebe	0.08950566
248	0xbd244e8f	-0.04011398
249	0x3d45adb6	0.048261367
250	0x3dfdb5c3	0.12388184
251	0x3d3d4294	0.046206072
252	0x38910767	6.9155176e-05
253	0x3cdcc37b	0.026948681
254	0x38cbb29f	9.713065e-05
255	0x3d8fd079	0.07022185

act_conv1.bias f4 [4]
0	0xbc9a71a7	-0.018853022
1	0x3d86b202	0.06576921
2	0x3d9e14a8	0.077187836
3	0xbd937504	-0.07200053

act_fc1.weight f4 [36, 144]
0	0xbd033a37	-0.03203794
1	0xbd49da12	-0.049280234
2	0xbd92de7a	-0.0717134
3	0xbcbb8549	-0.022890704
4	0xbd1007c9	-0.035163675
5	0xbd889958	-0.06669873
6	0xbcfcaa12	-0.030842815
7	0xbd76317d	-0.06010579
8	0xbd77a7c7	-0.06046274
9	0xbdcd62b3	-0.10028591
10	0xbd0afe50	-0.033933938
11	0xbdd452ed	-0.10367379
12	0xbde77669	-0.11301882
13	0xbda692cb	-0.08133467
14	0xbdb9865d	-0.09058831
15	0xbd3d4fa1	-0.04621852
16	0xbd3457da	-0.044029094
17	0xbc668cd9	-0.014071667
18	0xbd08ce88	-0.03340009
19	0xbd1f62dd	-0.038912643
20	0xbcb858ec	-0.022503339
21	0xbd03fe12	-0.032224722
22	0x3c0bd322	0.008534225
23	0xbcaf6c8c	-0.021414064
24	0x3b352b45	0.00276442
25	0xbcb94841	-0.022617461
26	0xbd9c2675	-0.076245226
27	0xbcbe5aec	-0.023236714
28	0x3ca8b908	0.020596042
29	0x3c200041	0.009765686
30	0xbc836ff1	-0.016044589
31	0xbd0fb135	-0.035081107
32	0xbc07ee1d	-0.008296517
33	0xbc8d8f11	-0.017280133
34	0xbcdc8ff8	-0.026924118
35	0xbd3bd121	-0.045853738
36	0x3cdb9313	0.026803529
37	0x3daea9ae	0.085284576
38	0xbb46da11	-0.003034238
39	0x3d6016ed	0.054709364
40	0x3dd2c6e8	0.102918446
41	0x3d76993a	0.060204722
42	0xbd1794a6	-0.037006997
43	0xbcbb883c	-0.02289211
44	0xbd7928c4	-0.060829893
45	0x3dd8a886	0.10579018
46	0x3cc2ac3e	0.023763772
47	0x3a753ea2	0.00093553413
48	0x3a4f08c4	0.00078977295
49	0x3cc81057	0.024421854
50	0xbcf831d5	-0.0302972
51	0xbd05640e	-0.032566123
52	0xbdac517e	-0.08413981
53	0x3c9eb61f	0.019373951
54	0x3b396fe4	0.0028295452
55	0xbe07319a	-0.13202515
56	0xbae5f267	-0.0017543555
57	0x3d705190	0.058671534
58	0x3ca326ea	0.019916017
59	0x3cb3e0c2	0.021957759
60	0xbd182be6	-0.03715124
61	0x3d9e66ad	0.077344276
62	0xbba625b5	-0.005070413
63	0xbd490b4d	-0.049083043
64	0xbd143f32	-0.03619308
65	0xbd331deb	-0.043729704
66	0x39ae027c	0.00033189717
67	0xbd74994b	-0.059716504
68	0x3d4cf7d8	0.05004105
69	0xbc8bc93a	-0.017063726
70	0xbe0280e4	-0.1274448
71	0x3cac340e	0.021020915
72	0xbdba7c22	-0.09105708
73	0xbd624c52	-0.055248566
74	0xbdcc8eba	-0.099881604
75	0xbda2b492	-0.07944597
76	0x3d1ba097	0.037994947
77	0xbd25b7aa	-0.04045836
78	0xbdca4b1a	-0.09877606
79	0xbe2d4fa9	-0.16924919
80	0xbdf2716a	-0.11838038
81	0xbd2511fb	-0.04030035
82	0xbd30d4ce	-0.043171696
83	0xbce4b191	-0.027916702
84	0xbe24bb2d	-0.16087027
85	0xbdcb2fea	-0.09921248
86	0xbbbb9326	-0.0057243286
87	0xbdc3f303	-0.09567835
88	0xbdacf8e5	-0.0844591
89	0xbe066439	-0.1312417
90	0x3d1deb4f	0.038554486
91	0xbe051c9a	-0.12999192
92	0xbdc8da95	-0.09807316
93	0xbd3eba61	-0.046564464
94	0xbd52d545	-0.05147292
95	0xbdfc99b8	-0.12334007
96	0xbdbfc1e9	-0.09363157
97	0xbc8a79e7	-0.01690383
98	0xbce474be	-0.027887698
99	0xbe2dad66	-0.16960678
100	0xbd55de99	-0.05221424
101	0xbb6b7cc4	-0.003593252
102	0xbd010dee	-0.031507425
103	0xbc47ebf0	-0.012202248
104	0xbd871640	-0.06596041
105	0xbd95004b	-0.072754465
106	0xbd9be5dd	-0.07612202
107	0xbd0c60ab	-0.034271877
108	0xbd136a44	-0.035990015
109	0xbd39b614	-0.04533966
110	0xbcd4a7d6	-0.025958937
111	0xbdab8379	-0.08374686
112	0xbdcd120f	-0.1001321
113	0x3c8dd6f2	0.017314408
114	0x3cfdcff3	0.030982947
115	0xbc0df3b2	-0.0086640585
116	0x3c878baa	0.01654609
117	0xbd82be7d	-0.06383989
118	0xbd2d56d0	-0.04231912
119	0x3cc3c3b8	0.023897037
120	0xbcaf9711	-0.021434339
121	0xbd139e3f	-0.036039587
122	0xbbc22d45	-0.0059258067
123	0x3d445cac	0.04793994
124	0xbcb8839d	-0.022523696
125	0xbd89d6f1	-0.0673045
126	0xbb32b9e1	-0.0027271437
127	0x3d3914bf	0.0451858
128	0xbaf6d834	-0.0018832744
129	0xbc79e24d	-0.015251708
130	0x3c837b3b	0.016049972
131	0x3d572f29	0.05253521
132	0x3cc487b4	0.02399049
133	0x3c9fec16	0.019521754
134	0x3cf9f2e1	0.030511321
135	0xbcf38bf7	-0.029729826
136	0xbd865950	-0.06560004
137	0xb85e366f	-5.297962e-05
138	0x3d88bb1c	0.06676313
139	0x3c9c4038	0.01907359
140	0xbcd96b6a	-0.026540477
141	0x3cff8541	0.03119147
142	0x3a306c08	0.0006729965
143	0xbc777ba8	-0.015105166
144	0xbcefea02	-0.029286388
145	0xbc8e6123	-0.017380303
146	0x3cb00891	0.02148846
147	0xbd109e26	-0.035307072
148	0xbce5846e	-0.028017249
149	0xbcd5ceda	-0.026099611
150	0xbcbedf7f	-0.02329993
151	0xbccbc477	-0.024873955
152	0xbc627e09	-0.013823994
153	0xbc80e171	-0.015732499
154	0xbcbaa542	-0.02278388
155	0xbcf71a75	-0.030163983
156	0xbc50877c	-0.0127276145
157	0xbc15748e	-0.009122027
158	0xbd931801	-0.07182313
159	0xbcc50d4a	-0.024054188
160	0x3c760a45	0.015017097
161	0x3af10f00	0.0018391311
162	0xbd39426d	-0.045229364
163	0xbc96727c	-0.018365137
164	0x3ca88202	0.020569805
165	0xbba65746	-0.005076322
166	0xbd73ab32	-0.059489436
167	0xbd72a7d2	-0.059242077
168	0x3c7e62c8	0.015526481
169	0xbd26fe4a	-0.040769853
170	0x3c737663	0.014859769
171	0x3c6e462d	0.014543098
172	0xbbfb85e0	-0.0076758713
173	0xbd4da293	-0.05020387
174	0xbc2c1d76	-0.010505071
175	0x3c94273b	0.018085113
176	0x3ca98143	0.02069152
177	0xbcc24376	-0.023713809
178	0x3b1f3549	0.0024293235
179	0xbd1277ed	-0.0357589
180	0xbeeefd6b	-0.46677718
181	0xbd3dbfc0	-0.046325445
182	0xbe4832aa	-0.19550577
183	0x3e2480db	0.1606478
184	0x3debbafc	0.11510274
185	0x3e780056	0.24218878
186	0xbdc8b0ed	-0.09799371
187	0x3e25d250	0.16193509
188	0xbe4312a4	-0.1905008
189	0xbdeb4326	-0.11487417
190	0xbe09bce1	-0.13450958
191	0x3d2e41f6	0.042543374
192	0xbdc7fcc2	-0.097650066
193	0xbd68db9d	-0.056850065
194	0xbd9fcd2a	-0.07802804
195	0xbe040d58	-0.12895715
196	0xbd47280b	-0.048622172
197	0xbda67562	-0.08127858
198	0xbd6a79e7	-0.05724516
199	0x3ce53a85	0.027982006
200	0xbd70ad40	-0.058758974
201	0xbde0a9ce	-0.10969888
202	0xbda3da76	-0.080006525
203	0xbd55c9f6	-0.052194558
204	0xbd4c4a05	-0.049875278
205	0xbe364ba3	-0.1780229
206	0xbd51d031	-0.051223937
207	0xbc895c83	-0.016767746
208	0xbcd83732	-0.026393507
209	0xbdf981ce	-0.121829614
210	0xbc07e448	-0.008294173
211	0xbcd9dd57	-0.0265948
212	0xbe3df092	-0.18548802
213	0xbca4806e	-0.020080771
214	0xbddb2f78	-0.10702413
215	0xbd0ce11b	-0.034394365
216	0x3e33cccd	0.17558594
217	0x3e6997fd	0.22811885
218	0x3da8baef	0.0823878
219	0x3db53430	0.088478446
220	0x3df9c7b7	0.12196296
221	0x3e44e635	0.19228442
222	0xbd2d8102	-0.04235936
223	0xbc7dc897	-0.015489719
224	0x3d80ac8a	0.06282909
225	0x3dfe2699	0.12409706
226	0x3d8ad464	0.067787915
227	0x3cfb19f8	0.030652031
228	0x3d6ca8ba	0.057778098
229	0x3d253479	0.040333245
230	0xbc281bbb	-0.010260518
231	0x3cd2b98c	0.025723241
232	0x3be63a64	0.0070260037
233	0xbcc42392	-0.023942742
234	0x3d4bf738	0.049796313
235	0x3d8265dd	0.06367085
236	0xbce4837b	-0.027894726
237	0xbced190d	-0.02894261
238	0x3ce66247	0.028123034
239	0xbd0b4f07	-0.034010913
240	0x3da534d3	0.08066716
241	0x3d65ae4d	0.05607443
242	0x3c516cb7	0.012782267
243	0x3d804dac	0.06264815
244	0x3c403a18	0.011732601
245	0xbcc731bd	-0.02431571
246	0x3d59ecf3	0.053204488
247	0xbc81ca0d	-0.015843416
248	0xbd66659c	-0.056249246
249	0xbc798e64	-0.0152317025
250	0x3d886a1f	0.06660866
251	0xbd809f36	-0.06280367
252	0x3bbc9517	0.0057550776
253	0xbd39bd5f	-0.045346614
254	0xbcc8f14a	-0.024529118
255	0xbd6bade3	-0.05753888

act_fc1.bias f4 [36]
0	0xbce2666c	-0.02763673
1	0x3c9c4328	0.019074991
2	0xbd112e1c	-0.035444364
3	0xbd5d2cdd	-0.053997863
4	0xbc80a265	-0.015702436
5	0xbda0bd8f	-0.078486554
6	0xbddf4a34	-0.10902825
7	0xbc66a5d9	-0.014077627
8	0x3d235fdb	0.039886337
9	0xbc634bae	-0.013873024
10	0xbc80cdd8	-0.015723154
11	0x3d389e3a	0.04507277
12	0x3db60ab9	0.08888764
13	0x3d0e69c1	0.034768824
14	0x3b8e6570	0.0043455884
15	0xbb9cdb58	-0.00478689
16	0x3cc533ed	0.024072612
17	0x3d2a0b6b	0.041514795
18	0x3cfcab59	0.030843424
19	0x3c906632	0.017626856
20	0xbd042b98	-0.032268137
21	0x3d1ef432	0.0388071
22	0x3bab9839	0.005236652
23	0x3da916a8	0.082562745
24	0xbcdc74c2	-0.026911143
25	0xbd103106	-0.035203002
26	0x3e034e02	0.12822726
27	0xbd5d2ce1	-0.053997878
28	0x3d34cc71	0.044140283
29	0xbc7942b0	-0.015213653
30	0xbdde8665	-0.108654775
31	0x3c755860	0.0149746835
32	0x3bf3d6f0	0.007441394
33	0xbc7f191a	-0.0155699495
34	0xbc6ed94d	-0.014578176
35	0x3d4829c9	0.048867974

val_conv1.weight f4 [2, 128, 1, 1]
0	0xbdb51f25	-0.08843831
1	0xbbce1b91	-0.0062899073
2	0x3d63180a	0.055442847
3	0xbdb6714e	-0.0890833
4	0x3d69f3d3	0.057117295
5	0xbdf25f87	-0.11834627
6	0x3d86544f	0.06559049
7	0x3c5dcc5c	0.013537493
8	0x3d7011e0	0.058610797
9	0x3ab1b363	0.001355749
10	0x3d19918c	0.03749232
11	0xbd1da86e	-0.038490705
12	0x3b15ac77	0.0022838393
13	0x3dafd7d5	0.085860886
14	0x3dd14e71	0.1022004
15	0xbdc12f50	-0.09432852
16	0x3d7694b8	0.060200423
17	0xbd96f633	-0.073711775
18	0x3d4c5dc1	0.0498941
19	0x3d37045b	0.044681888
20	0xbda13ca8	-0.078728974
21	0x3cb50b88	0.022100225
22	0x3bcc2099	0.006229472
23	0x3d87933b	0.06619879
24	0x3d2692c5	0.040667314
25	0x3cd297f9	0.025707232
26	0xbdc741d2	-0.09729351
27	0xbb28984d	-0.0025725544
28	0xbda90980	-0.08253765
29	0x3d8b7f59	0.06811399
30	0x3d07cc8e	0.033154063
31	0x3d4118ef	0.04714292
32	0xbbf8afd1	-0.0075893183
33	0x3cd882bf	0.026429532
34	0xbd382946	-0.044961236
35	0xbde89b8a	-0.11357792
36	0x3d5627f4	0.052284196
37	0x3de2d4ad	0.11075721
38	0x3d8b6e58	0.06808156
39	0x3d970eac	0.07375845
40	0xbdc99e54	-0.09844652
41	0xbc76b045	-0.015056674
42	0x3c5b8b65	0.013399933
43	0x3cccade9	0.02498527
44	0xbe032911	-0.12808634
45	0x3b098ea8	0.002098957
46	0xbd282549	-0.041051183
47	0x3c913959	0.01772754
48	0xbe0c9d44	-0.13731867
49	0xbcdcf4e7	-0.026972247
50	0xbce8e9c5	-0.028431782
51	0x3c81b3b7	0.015832765
52	0x3bd11d33	0.0063816546
53	0x3d6ca00d	0.057769824
54	0x3d161a22	0.036646016
55	0x3daa6ecc	0.08321914
56	0x29650396	5.0851325e-14
57	0x3c58db1e	0.013235835
58	0x3d7ff99a	0.062493898
59	0x3d75e670	0.060034215
60	0xbc69fa8d	-0.014280927
61	0x3d840442	0.064461246
62	0x3d98da1d	0.07463477
63	0xba52c87e	-0.000804074
64	0xbc7b3c28	-0.015334167
65	0xbb9e9542	-0.0048395703
66	0x3d60e0f0	0.054902017
67	0x3c105216	0.008808633
68	0xbde981f3	-0.11401739
69	0x3aa62283	0.001267508
70	0x3c66384e	0.01405151
71	0x3d800b2d	0.062521316
72	0x3d670871	0.056404535
73	0x3dae420c	0.08508691
74	0x3d1cecc4	0.038311735
75	0xbd7d9e8d	-0.061918784
76	0xbd88ce0a	-0.06679924
77	0xbe19ebcb	-0.15031354
78	0xbcf854e6	-0.03031392
79	0x3dd03060	0.10165477
80	0xbd860fc9	-0.065459795
81	0xbd0c05ad	-0.0341851
82	0xbe34ec19	-0.17668189
83	0xbb0bafc7	-0.0021314488
84	0xbd825c5b	-0.06365272
85	0xa77ef3b4	-3.5381693e-15
86	0xbddbfb86	-0.10741334
87	0x3de230f1	0.11044491
88	0x3dc94649	0.09827859
89	0xbdf6798a	-0.120349005
90	0x3d0e1523	0.034688126
91	0xbc9d5992	-0.01920775
92	0xbcb358e7	-0.021892978
93	0x3d916ab6	0.071004316
94	0xbd99a80a	-0.07502754
95	0xbc56c33d	-0.013108072
96	0xbb5dda5a	-0.0033852072
97	0xbe100f0f	-0.14068244
98	0x3cd7aa63	0.026326364
99	0xbcab4671	-0.020907613
100	0xbdae14d6	-0.08500068
101	0xbdaffd76	-0.08593266
102	0x3c3a89b9	0.011385375
103	0xbd0ffbe0	-0.035152316
104	0xbd464061	-0.04840124
105	0xbd005f72	-0.031341024
106	0x3d5cf8d2	0.05394823
107	0xba71f146	-0.0009229373
108	0x3d7f8528	0.062382847
109	0xbd08597a	-0.033288456
110	0x3d60c2b9	0.054873202
111	0x3d373092	0.044724055
112	0x2b2380be	5.80879e-13
113	0x3d312e56	0.04325708
114	0x3d7ea372	0.062167592
115	0xbe1499fc	-0.14511865
116	0x3d9f1a22	0.07768656
117	0x3bfa818e	0.0076448387
118	0x3c08b983	0.008345011
119	0xbd919f39	-0.071104474
120	0x3d0478cb	0.03234176
121	0xbe0bc5ae	-0.13649628
122	0x3cc9181b	0.024547627
123	0x3cf2c70d	0.02963593
124	0x39969ee0	0.000287286
125	0x3cd167ab	0.025562128
126	0xb72c0634	-1.0253443e-05
127	0xbc778d2b	-0.015109341
128	0x3bcabaf0	0.0061868355
129	0x3caf67ea	0.021411855
130	0xbd519582	-0.051167972
131	0xbd807e05	-0.06274036
132	0xbda3a50f	-0.07990467
133	0x3d62d9ac	0.05538337
134	0x3d2b0235	0.04175015
135	0x3d9131a8	0.07089549
136	0x3d1a90d8	0.03773579
137	0xbbc2f410	-0.0059495047
138	0xbb57e723	-0.0032944165
139	0x3d3504c0	0.044193983
140	0xbcf40a47	-0.029790057
141	0xbbbd1b02	-0.005771042
142	0xbdf5d2e0	-0.12003112
143	0xbdcb04fd	-0.09913061
144	0xbdb79177	-0.08963292
145	0x3d089a0b	0.03335003
146	0x3cbc18de	0.022961076
147	0xbd36b87a	-0.044609524
148	0x3d0015c8	0.031270772
149	0x3cbae549	0.02281441
150	0x3caf415b	0.021393469
151	0x3d8554da	0.06510325
152	0xbb234bc5	-0.0024916988
153	0xbd97f8f0	-0.07420528
154	0xbc784828	-0.015153922
155	0xbd6659a9	-0.05623785
156	0xbd3247fb	-0.043525677
157	0xbc60709a	-0.013698721
158	0x3c9f4d08	0.019445911
159	0x3ccb0dc6	0.024786841
160	0x3a81a89f	0.0009892172
161	0x3d553efc	0.05206202
162	0x3cfabc3d	0.030607337
163	0xbc0b2066	-0.008491611
164	0x3cd81c42	0.026380662
165	0x3d98a299	0.07452888
166	0xbdd30437	-0.10303538
167	0xbd95dcb6	-0.07317488
168	0x3d009a60	0.031397223
169	0x3d1fe32f	0.03903502
170	0x3d105b6a	0.03524343
171	0x3d7ecab2	0.062205024
172	0x3d486bdd	0.04893099
173	0x3c1afdfc	0.009459969
174	0x3d9aa583	0.075511
175	0x3ce27543	0.027643805
176	0x3cb1ee04	0.02171994
177	0xbc34d9e1	-0.0110382745
178	0xbd318f26	-0.043349408
179	0xbdaed4cb	-0.08536681
180	0x3d207918	0.039177984
181	0xbb4be842	-0.0031113778
182	0x3cff8931	0.031193348
183	0xbb067565	-0.002051675
184	0x2d50f4c5	1.1877781e-11
185	0xbd0e7a60	-0.034784675
186	0x3b7d4eda	0.0038651736
187	0x3d632349	0.055453572
188	0x3d19a5a4	0.037511483
189	0x3c00c4a4	0.007859383
190	0x3b83dfd5	0.0040244856
191	0x374c1d86	1.21662215e-05
192	0x3ca1e583	0.01976276
193	0x3d3468e2	0.044045337
194	0xbe001d63	-0.1251121
195	0xbdbbff83	-0.09179594
196	0x3d125a78	0.03573081
197	0xbd2940f6	-0.041321717
198	0xbc852fe9	-0.016258197
199	0xbd755e7b	-0.059904557
200	0xbc7517b5	-0.0149592655
201	0xbe1c6f60	-0.15276861
202	0x3c9a428e	0.018830564
203	0xbbfcb858	-0.007712405
204	0x3d336672	0.04379887
205	0xbc3e0b23	-0.011599335
206	0x3d66cf13	0.056349825
207	0xbdbf7def	-0.09350192
208	0xbba72bbb	-0.0051016486
209	0xbda24dc3	-0.07924988
210	0xbcab22af	-0.020890562
211	0xbb87e9d7	-0.004147749
212	0x3cfa661a	0.030566264
213	0x2bd2d818	1.4981376e-12
214	0x3cb3925e	0.02192038
215	0xbd9592c6	-0.073033854
216	0xbd8b727c	-0.068089455
217	0x3d8bc5a7	0.068248086
218	0xbd7993f9	-0.060932133
219	0xbd01a6af	-0.031653102
220	0x3bbf2f45	0.0058344924
221	0xbb6e7c27	-0.0036389919
222	0x3d6ffb70	0.0585894
223	0x3d1de350	0.03854686
224	0xbd99a072	-0.07501306
225	0xbc1f9b18	-0.009741567
226	0x3d1adbbb	0.037807208
227	0xbdc57acd	-0.09642563
228	0xbdb067e2	-0.08613564
229	0x3d97128d	0.07376585
230	0x3d78184b	0.060570043
231	0x3dad9b0f	0.08476841
232	0x3bcfe534	0.006344462
233	0xbda92c2e	-0.0826038
234	0x3db7f558	0.089823425
235	0x3d241c43	0.040066015
236	0x3d578a42	0.052622087
237	0x3b986428	0.0046506114
238	0xbe0ef5e4	-0.13960987
239	0xbd5eb40b	-0.05437092
240	0xb9de2667	-0.00042371752
241	0xbd9ef243	-0.077610515
242	0xbd053709	-0.03252319
243	0xbd75b9ee	-0.05999177
244	0x3dda07cd	0.10646019
245	0xbd2a060e	-0.04150968
246	0xbb9abb5e	-0.004722043
247	0xbd5e9543	-0.054341566
248	0xbd89b68c	-0.06724271
249	0xbacc9ab8	-0.0015610075
250	0x3d143174	0.036179975
251	0x3d1c5f28	0.038176686
252	0xbb064406	-0.0020487322
253	0xbe0d09eb	-0.13773315
254	0x36f90a6b	7.421991e-06
255	0x3b1461da	0.0022641332

val_conv1.bias f4 [2]
0	0x3d10b0c6	0.035324834
1	0x3dab55b0	0.08365953
