models/Training/AC_nmcts20/train_001.pth (torch, 424031 bytes, 15 tensors)

conv1.weight f4 [32, 5, 3, 3]
0.10116932 -0.07662151 -0.06379166 0.14231618 -0.13639933 0.022623148 0.082859695 -0.063933894
0.017393228 -0.011690797 0.0033361309 0.12502709 0.12228829 -0.044268608 0.081514254 0.044070132
0.016467573 0.122741655 0.06848228 -0.0019623959 0.0045000124 0.05837271 -0.040675778 -0.08059888
-0.0841677 0.024658276 0.0017220032 0.13622445 0.08207977 -0.08814037 -0.10813472 -0.01810783
-0.008438829 0.06607467 -0.072579384 0.097349636 -0.025056494 -0.059857074 -0.037055988 0.03090191
-0.0947028 0.032303058 0.0024711434 -0.048384942 -0.08183861 -0.0374605 0.09883452 0.07034671
-0.067073986 0.009088822 -0.06577567 0.15314938 0.11656541 0.14768767 0.11857556 -0.13679104
-0.05825371 0.10756947 0.09591644 0.053195648 -0.02328907 -0.052689686 0.13083287 -0.06736007
0.057792194 -0.0023130784 -0.11280406 -0.0067839925 -0.017804855 -0.112396464 0.0369208 -0.063399106
-0.0721974 0.109985396 -0.13145612 0.025012603 -0.108941376 -0.09733492 -0.049972355 0.121790946
0.027904874 -0.04144616 0.13838269 -0.0544931 -0.026665457 0.066744156 -0.123084664 0.07152288
0.109257974 0.046545047 -0.08663339 0.05571496 0.0970918 -0.0008435514 0.011814273 0.14614704
-0.11352657 -0.14555056 -0.02164534 -0.08499031 -0.030128323 -0.060433775 0.018532148 -0.038134575
0.039212048 0.13040683 0.0148484 0.073496014 -0.086740084 0.076792516 -0.04251375 -0.0022258474
0.10257071 -0.13646437 -0.044917617 -0.04449808 0.027640952 0.04862388 -0.015810689 -0.11990319
-0.08510596 -0.04459516 0.034539573 0.010977727 0.00719916 0.020748474 -0.078650154 0.11474158
0.054964818 -0.13586342 3.508583e-05 -0.13299434 -0.10479639 -0.00069711154 -0.033907842 0.10337004
-0.11192669 -0.050871134 0.051940788 0.018129136 0.020297011 0.11655101 0.13246886 0.10886909
0.076142564 0.057005253 -0.05741696 0.048330035 -0.114974074 -0.13394168 0.1284235 0.08212162
-0.05867748 -0.08715795 0.0057406076 -0.067731336 0.019618087 -0.0797124 -0.07212832 -0.04553831
0.052810043 -0.106136404 0.07900214 0.15058377 0.1066143 -0.1320195 0.13679782 0.042253558
0.07468713 0.05853819 0.03345712 0.13321836 0.07804545 -0.08118071 -0.0014479649 0.07722725
0.04433921 0.030209968 0.12703888 0.0068338597 0.099793896 -0.03729857 0.08198605 0.047897037
0.015023165 0.0053817136 0.04113724 0.010328226 -0.12773019 0.13395981 -0.12703909 0.11383971
0.098747104 0.043775406 0.0844778 0.10603194 0.021401046 -0.122133374 0.05148341 0.027472276
0.091005474 -0.13869272 -0.0872979 -0.011045534 -0.09968092 -0.07710195 0.00093858386 0.120024286
-0.016830023 0.12041447 0.020323722 0.04488872 0.12918821 0.12329857 0.021420864 0.0015526256
-0.032008167 0.045116875 -0.025062256 0.08723283 0.0037979456 0.025633 0.062406287 -0.09274136
0.1355339 0.0992067 0.109196916 0.115392394 0.10170185 -0.14489982 -0.057628673 0.109096535
0.14645427 -0.14346343 0.12575944 0.066934764 0.025558133 0.035046797 -0.054612298 -0.015828272
0.05583672 -0.11701422 -0.05580088 -0.11806642 -0.058617014 0.10781598 0.001332434 -0.1128999
-0.078427866 -0.058776215 -0.09173317 0.07191887 0.040022273 0.031885426 0.009817809 0.029777419
00000000: dc31 cf3d bdeb 9cbd 34a5 82bd 55bb 113e
00000010: 44ac 0bbe 2e54 b93c 58b2 a93d c6ef 82bd
00000020: 3e7c 8e3c c28a 3fbc fda2 5a3b 1a07 003e
00000030: 4872 fa3d 0053 35bd f2f0 a63d e282 343d
00000040: 01e7 863c fa5f fb3d 7040 8c3d 8a9b 00bb
00000050: d774 933b 3918 6f3d a59b 26bd 0711 a5bd
00000060: 1d60 acbd 2700 ca3c d7b4 e13a 6c7e 0b3e
00000070: 7019 a83d f082 b4bd bc75 ddbd df56 94bc
00000080: 0443 0abc 2852 873d 80a4 94bd 3f5f c73d
00000090: 4743 cdbc b12c 75bd 05c8 17bd 0126 fd3c
000000a0: 8bf3 c1bd 3650 043d e8f2 213b 4a2f 46bd
000000b0: 009b a7bd 2e70 19bd c169 ca3d f011 903d
000000c0: 165e 89bd 48e9 143c 65b5 86bd 31d3 1c3e
000000d0: d8b9 ee3d 703b 173e bed7 f23d f312 0cbe
000000e0: 719b 6ebd 624d dc3d d76f c43d aee3 593d
000000f0: b8c8 bebc 24d1 57bd 0df9 053e 14f4 89bd
00000100: 82b7 6c3d 0497 17bb d105 e7bd 414c debb
00000110: 7ddb 91bc 1e30 e6bd 443a 173d 64d7 81bd
00000120: 3bdc 93bd 0640 e13d 6f9c 06be 3be7 cc3c
00000130: a81c dfbd 8857 c7bd d0af 4cbd 886d f93d
00000140: c398 e43c 73c3 29bd 31b4 0d3e 2834 5fbd
00000150: 8471 dabc 29b1 883d d013 fcbd 967a 923d
00000160: a5c2 df3d 05a6 3e3d d96c b1bd 5f35 643d
00000170: 11d8 c63d c721 5dba a790 413c 92a7 153e
00000180: 9e80 e8bd 350b 15be 9151 b1bc 660f aebd
00000190: accf f6bc 6889 77bd bbd0 973c 0033 1cbd
000001a0: d09c 203d 5e89 053e b446 733c 1485 963d
000001b0: c9a4 b1bd 6545 9d3d e622 2ebd 86df 11bb
000001c0: 9810 d23d 51bd 0bbe 89fb 37bd 9e43 36bd
000001d0: 476f e23c d529 473d 6b85 81bc ce8f f5bd
000001e0: 094c aebd 6aa9 36bd 5e79 0d3d eddb 333c
000001f0: eee6 eb3b b4f8 a93c 5513 a1bd a2fd ea3d
00000200: ca22 613d c81f 0bbe 2029 1338 ab2f 08be
00000210: 7d9f d6bd 5dbe 36ba f3e2 0abd acb3 d33d
00000220: d239 e5bd 405e 50bd ddbf 543d 8e83 943c
00000230: eb45 a63c 4cb2 ee3d eba5 073e c2f6 de3d
00000240: a2f0 9b3d 577e 693d 0c2e 6bbd b7f5 453d
00000250: 8777 ebbd 0228 09be 7381 033e 612f a83d
00000260: cc57 70bd de7f b2bd b51b bc3b bab6 8abd
00000270: 1cb6 a03c 4140 a3bd 03b8 93bd 6186 3abd
00000280: 584f 583d 0b5e d9bd e0cb a13d a232 1a3e
00000290: 9958 da3d 1f30 07be ba14 0c3e 1112 2d3d
000002a0: 91f5 983d bec5 6f3d 550a 093d 656a 083e
000002b0: 4bd6 9f3d 1242 a6bd a4c9 bdba 5229 9e3d
000002c0: 089d 353d e57a f73c 7b16 023e 92ee df3b
000002d0: be60 cc3d 63c6 18bd 4de8 a73d af2f 443d
000002e0: b923 763c 1659 b03b 867f 283d b837 293c
000002f0: b4cb 02be c32c 093e 8916 02be cb24 e93d
00000300: ec3b ca3d d74d 333d b202 ad3d 4627 d93d
00000310: 3f51 af3c 1021 fabd 45e0 523d 8a0d e13c
00000320: 1461 ba3d 7705 0ebe 3ec9 b2bd 54f8 34bc
00000330: 8325 ccbd a1e7 9dbd 4c0b 763a 4bcf f53d
00000340: 1edf 89bc dd9b f63d ef7d a63c 3cdd 373d
00000350: ea49 043e f683 fc3d cf7a af3c 7881 cb3a
00000360: ff1a 03bd 79cc 383d 5c4f cdbc 20a7 b23d
00000370: f4e6 783b 4cfc d13c bc9d 7f3d 2fef bdbd
00000380: 66c9 0a3e e22c cb3d a2a2 df3d d952 ec3d
00000390: 0f49 d03d 9e60 14be 0b0c 6cbd 016e df3d
000003a0: 1cf8 153e 14e8 12be 15c7 003e 1815 893d
000003b0: 4a5f d13c 3b8d 0f3d 25b1 5fbd 4baa 81bc
000003c0: 0bb5 643d 27a5 efbd 778f 64bd cfcc f1bd
000003d0: 6518 70bd a0ce dc3d 11a5 ae3a 1038 e7bd
000003e0: ca9e a0bd 54bf 70bd 9ade bbbd 334a 933d
000003f0: 65ee 233d 4b9a 023d e0da 203c c6ef f33c

conv1.bias f4 [32]
0.09621859 0.040139243 -0.017724263 0.13698746 -0.052642424 -0.13991678 0.031428304 0.09732973
0.043517847 -0.085705064 0.14328963 -0.046004046 0.11044067 0.103526115 -0.0619333 -0.016371062
-0.01137572 -0.07647565 -0.07499307 0.11287288 -0.024936836 0.04058935 0.012981746 -0.05144808
-0.10978813 0.093148954 -0.110154085 0.1228493 0.14390223 -0.051420927 -0.08453315 0.08791198
00000000: 410e c53d 0c69 243d 7932 91bc 7146 0c3e
00000010: 959f 57bd 5846 0fbe f7ba 003d cf54 c73d
00000020: c53f 323d 2386 afbd 84ba 123e bd6e 3cbd
00000030: b82e e23d 8005 d43d c6ad 7dbd 9b1c 86bc
00000040: 3a61 3abc 449f 9cbd f795 99bd e629 e73d
00000050: 5648 ccbc 0541 263d 64b1 543c 39bb 52bd
00000060: 99d8 e0bd e1c4 be3d 7798 e1bd 6a98 fb3d
00000070: 1b5b 133e c09e 52bd b71f adbd 320b b43d

conv2.weight f4 [64, 32, 3, 3]
-0.020957215 0.04931273 0.026663829 0.028537968 -0.028590173 -0.024239283 -0.029290197 0.040140774
-0.0069676666 -0.014129166 -0.034404896 -0.017846411 0.064437985 0.056613125 0.06400184 0.046531867
0.026502453 0.050544564 -0.04537648 0.0020537074 0.003932593 0.011717679 0.014267796 0.023651782
0.027531067 -0.0054439674 -0.051302686 -0.04737208 0.00357645 0.032371435 0.015804926 0.0029423598
0.008008984 0.04132875 0.023605533 0.06750925 0.016610328 0.06764221 -0.030644786 0.010526311
0.044913396 -0.012209393 0.007898683 0.015795873 -0.010102186 -0.05094151 0.01696935 0.0061536455
-0.03701322 -0.0092165815 0.008880625 -0.014149671 0.05142715 0.007795125 0.00090846204 0.007841658
-0.055585198 -0.0035814694 0.029122328 0.017620072 0.03774817 -0.018492933 -0.0065079704 0.025056103
-0.021362608 0.061214365 -0.044722542 0.06633257 0.009523809 0.06400105 -0.009976117 0.012510662
-0.06440579 0.008309444 0.040002927 -0.050093926 0.05108252 -0.04794658 0.015014775 0.031916738
0.050270267 0.037505686 -0.016453866 0.0011059194 0.046276644 -0.05525042 -0.018753957 0.0661658
0.030809347 -0.023575658 -0.029624494 0.034521572 -0.04900788 -0.04254866 -0.017700085 -0.041480213
-0.019370472 -0.003900092 -0.011419124 0.009527369 0.061092224 -0.00980878 -0.04946481 0.014206536
0.04144406 0.033659413 0.055222753 -0.028952722 -0.052831117 -0.009545823 -0.05325901 -0.01752698
0.05949556 -0.04983043 -0.03242071 -0.008531309 0.027631717 -0.0434146 -0.030699216 0.039102983
-0.05196307 0.055156264 0.017656181 -0.033263188 0.038056288 0.031059965 -0.029904062 0.0072424123
-0.05631249 -0.021111237 0.0069074407 0.03956384 -0.0377659 0.020072943 0.059255652 -0.00439589
0.0038700374 -0.016475134 -0.054884043 0.00974078 0.0066207945 -0.016349172 -0.03407454 -0.04006713
0.05564146 -0.046907816 -0.040067893 -0.013642419 -0.04281739 -0.047931302 0.0047265696 0.052994467
0.0027915349 0.0073023937 0.054289863 -0.0037320144 -0.032297555 -0.015188597 0.05287084 0.026479127
0.06708979 -0.030490376 0.029031508 0.037302986 0.049025577 0.016479138 -0.027823787 0.02281818
0.048082743 0.0043076715 0.04761526 0.0430471 -0.026231226 -0.01667327 0.0066831955 0.043922417
-0.008704821 0.0013155764 -0.036117755 -0.025197897 -0.038450144 0.03562717 2.0429667e-05 0.00783214
0.06506913 0.024556018 -0.018977232 0.016705753 -0.020980807 0.036716096 0.008189246 -0.05015872
-0.010301225 0.037039164 -0.008989419 -0.0047817407 -0.0634083 -0.03354131 0.051424462 0.015565221
0.0117016295 -0.025013033 -0.0025419919 0.023768064 -0.04412117 0.003613641 -0.04538551 0.050345536
-0.048993938 -0.017945949 0.022284294 0.031561837 -0.031463373 0.026813136 0.065991394 0.06499258
0.0045181513 0.04856595 0.045684677 0.022408806 0.005603924 -0.054918867 0.044613134 0.041203912
0.021851221 0.008946733 0.041744303 0.03330715 -0.020362237 -0.019365106 -0.04595896 0.048433945
0.011063526 0.023551868 0.0071298536 0.023702038 0.010981453 0.048828375 0.00034564978 0.058223616
0.058960687 0.008001065 -0.0009093543 0.028398639 -0.051956534 -0.0007393873 0.043186743 -0.030448256
-0.01196989 -0.044936348 -0.03424255 -0.040971246 -0.023349533 0.044455122 0.060227513 0.037447836
00000000: 77ae abbc 25fc 493d 1a6e da3c 75c8 e93c
00000010: f035 eabc 7691 c6bc fff1 efbc a76a 243d
00000020: 0651 e4bb 047e 67bc 26ec 0cbd a332 92bc
00000030: 10f8 833d 2ae3 673d 6613 833d 3398 3e3d
00000040: ac1b d93c d107 4f3d b0dc 39bd 7e97 063b
00000050: fbdc 803b 82fb 3f3c 79c3 693c 62c1 c13c
00000060: d588 e13c 4f63 b2bb c422 52bd 3a09 42bd
00000070: e062 6a3b e997 043d 5579 813c 9bd4 403b
00000080: 1d38 033c 5648 293d 6460 c13c 4a42 8a3d
00000090: 6212 883c 0088 8a3d c60a fbbc 8c76 2c3c
000000a0: 1cf7 373d e809 48bc 7a69 013c 5966 813c
000000b0: a483 25bc 0ba8 50bd 4e03 8b3c 85a4 c93b
000000c0: 2d9b 17bd 2501 17bc 0a80 113c 06d4 67bc
000000d0: 46a5 523d 3f6e ff3b db25 6e3a 4c7a 003c
000000e0: 4ead 63bd 16b7 6abb f391 ee3c f857 903c
000000f0: d39d 1a3d 7e7e 97bc d040 d5bb 7542 cd3c
00000100: a300 afbc eabb 7a3d fc2e 37bd 5fd9 873d
00000110: c009 1c3c fc12 833d de72 23bc 85f9 4c3c
00000120: 2fe7 83bd 5624 083c 1cda 233d 4a2f 4dbd
00000130: e83b 513d a263 44bd 8800 763c 20bb 023d
00000140: 32e8 4d3d 909f 193d 42ca 86bc 7ff4 903a
00000150: 948c 3d3d 444e 62bd e6a1 99bc ef81 873d
00000160: e263 fc3c bd21 c1bc 11af f2bc 7e66 0d3d
00000170: 7dbc 48bd 8147 2ebd c5ff 90bc 28e7 29bd
00000180: d3ae 9ebc b098 7fbb 4717 3bbc af18 1c3c
00000190: d73b 7a3d 01b5 20bc 9d9b 4abd 88c2 683c
000001a0: 3fc1 293d 74de 093d 4131 623d 422e edbc
000001b0: 7165 58bd 1566 1cbc 1f26 5abd be94 8fbc
000001c0: 9eb1 733d fe1a 4cbd 94cb 04bd e7c6 0bbc
000001d0: e95b e23c 82d3 31bd ec7c fbbc 732a 203d
000001e0: 3ad7 54bd 89eb 613d b2a3 903c fb3e 08bd
000001f0: e9e0 1b3d 7871 fe3c 5df9 f4bc c251 ed3b
00000200: eda7 66bd 79f1 acbc d057 e23b b10d 223d
00000210: 6bb0 1abd 0370 a43c 0eb6 723d 660b 90bb
00000220: 74a0 7d3b dcf6 86bc 17ce 60bd cb97 1f3c
00000230: 40f3 d83b b3ee 85bc bf91 0bbd 6e1d 24bd
00000240: 4de8 633d 6922 40bd 3b1e 24bd 7484 5fbc
00000250: 4a61 2fbd 9d53 44bd 57e1 9a3b ba10 593d
00000260: 2ff2 363b eb48 ef3b 0c5f 5e3d d094 74bb
00000270: 714a 04bd 98d9 78bc 188f 583d c1ea d83c
00000280: 5f66 893d f4c6 f9bc 7cd3 ed3c 04cb 183d
00000290: 0bcf 483d 42ff 863c b6ee e3bc 31ed ba3c
000002a0: 69f2 443d 5e27 8d3b 3808 433d 2852 303d
000002b0: dee2 d6bc 6296 88bc b5fe da3b fee7 333d
000002c0: aa9e 0ebc 6b6f ac3a 36f0 13bd d26b cebc
000002d0: e67d 1dbd cced 113d 6060 ab37 6052 003c
000002e0: f742 853d b429 c93c 2476 9bbc 81da 883c
000002f0: f1df abbc 9e63 163d 302c 063c 3b73 4dbd
00000300: 78c6 28bc 61b6 173d 5b48 13bc 26b0 9cbb
00000310: 36dc 81bd 9d62 09bd 75a2 523d 4505 7f3c
00000320: 31b8 3f3c 22e8 ccbc 8c97 26bb 3eb5 c23c
00000330: 66b8 34bd d6d2 6c3b 28e6 39bd 1f37 4e3d
00000340: dead 48bd 6203 93bc 8d8d b63c fc46 013d
00000350: bddf 00bd 39a7 db3c 7f26 873d d41a 853d
00000360: 000d 943b 17ed 463d db1f 3b3d ac92 b73c
00000370: 1fa1 b73b 9bf2 60bd 43bc 363d 6fc5 283d
00000380: 5501 b33c 5195 123c 13fc 2a3d 146d 083d
00000390: b5ce a6bc 92a3 9ebc 763f 3cbd ac62 463d
000003a0: cb43 353c d9ef c03c 8ca1 e93b c72a c23c
000003b0: 8deb 333c 4300 483d 5438 b539 e37b 6e3d
000003c0: c380 713d e616 033c bc61 6eba 43a4 e83c
000003d0: 60d0 54bd 71d3 41ba 95e4 303d 9f6e f9bc
000003e0: 5c1d 44bc 2d0f 38bd eb41 0cbd 77d1 27bd
000003f0: 8547 bfbc 9316 363d 20b1 763d e762 193d

conv2.bias f4 [64]
0.03012822 0.008384418 -0.05391934 -0.024042467 -0.015875308 0.05449066 0.05217587 0.032576393
-0.014099714 0.041392438 -0.049321815 -0.020221073 0.028813202 -0.03111508 -0.027562128 -0.013474967
-0.013576478 0.058930214 0.0071456493 0.023726895 -0.022356141 -0.011788154 0.04513226 0.033410214
0.037585314 0.06356946 -0.005006936 0.046040107 -0.045317892 -0.022616636 0.024951167 0.03730554
0.005159497 0.014650746 0.020375837 0.05597951 0.037584584 -0.022916362 -0.011916737 0.04446234
0.0016465408 -0.019891188 -0.057258595 -0.025528902 0.0018762243 0.027212497 -0.027260749 0.039728653
0.034662206 -0.031140165 0.044350922 0.028373644 0.061491787 0.012420386 0.03237915 0.05942118
-0.0048394166 0.04961551 -0.03906068 0.013403897 -0.007943015 -0.013433432 -0.043846034 -0.012159697
00000000: 75cf f63c cc5e 093c 87da 5cbd b5f4 c4bc
00000010: ef0c 82bc 9931 5f3d 5db6 553d d36e 053d
00000020: 7d02 67bc 1e8b 293d ac05 4abd aaa6 a5bc
00000030: aa09 ec3c 0de5 febc f9c9 e1bc 1cc6 5cbc
00000040: e06f 5ebc cf60 713d 0d26 ea3b e85e c23c
00000050: 3a24 b7bc 1a23 41bc 9bdc 383d 26d9 083d
00000060: 0ff3 193d b430 823d 3911 a4bb 8d94 3c3d
00000070: 419f 39bd 8646 b9bc 6466 cc3c b2cd 183d
00000080: ff10 a93b af09 703c 3aeb a63c c54a 653d
00000090: 4bf2 193d 18bb bbbc 6b3e 43bc 251e 363d
000000a0: bed0 d73a d8f2 a2bc fd87 6abd fd21 d1bc
000000b0: a4eb f53a beec de3c ef51 dfbc 83ba 223d
000000c0: f5f9 0d3d a919 ffbc 50a9 353d d86f e83c
000000d0: d0de 7b3d e07e 4b3c 00a0 043d a063 733d
000000e0: f893 9ebb a239 4b3d 17fe 1fbd 059c 5b3c
000000f0: 6b23 02bc e617 5cbc e697 33bd 7739 47bc

conv3.weight f4 [128, 64, 3, 3]
0.018738892 0.03773833 -0.00054747437 -0.036807522 -0.024321558 0.009055986 -0.009875348 -0.0027221427
0.0034354997 0.012625985 0.040079378 0.024354773 -0.0356682 -0.0029990468 -0.030246548 -0.019677065
-0.025170222 0.029096102 0.04038506 -0.03236393 -0.012778204 -0.0015559132 -0.024091963 0.03557748
-0.019051505 -0.038758058 0.0047837426 0.0076893577 -0.033683784 0.013752795 -0.026008414 0.026118258
0.045566782 -0.0012248347 0.014685286 -0.03781979 0.0030974715 -0.0036344754 -0.038363256 -0.03585559
-0.032001328 0.01944937 -0.020056583 0.019624881 0.030310644 -0.0025157495 -0.036024008 0.005480705
0.041067168 0.018213704 0.031502336 0.01294858 -0.045278374 -0.0077554886 0.010062746 -0.0065246113
-0.01962284 -0.039485108 -0.039190933 0.017349629 0.013282392 -0.021183483 -0.0075393794 0.035374567
-0.015893035 0.03608309 -0.014458734 0.031450037 -0.011240101 0.020789266 -0.010657052 -0.0036824453
-0.008351313 -0.019160116 -0.03209999 -0.001926932 0.03739344 0.015875144 0.021510605 -0.02603221
-0.017564455 -0.002149925 0.010983127 -0.015277029 -0.029806163 -0.048292547 0.015309051 -0.0011922601
0.036102522 -0.0053338828 -0.010199872 -0.023285618 0.02363308 0.010124444 -0.0034257548 -0.022819892
-0.00024071604 -0.0021234797 -0.013620819 -0.03658354 0.03236559 0.016167227 0.036585696 0.015835444
-0.009553178 0.026158957 -0.022426026 0.04020154 -0.025631983 0.042605557 0.0071772286 0.033147667
0.024531461 -0.017752603 0.040143497 -0.01734842 0.049082477 -0.024212897 -0.030664248 -0.045495853
0.008638804 0.007142298 -0.00999123 0.031670988 0.03234109 -0.03525655 -0.029594284 -0.034349393
-0.010280315 -0.04823081 -0.010823759 0.0046406547 0.0027952432 0.035680834 -0.0007123379 -0.0070575094
-0.0119828 -0.01729045 0.03981807 -0.03922329 -0.03715448 0.032270856 0.00093126047 -0.04073446
0.025380082 -0.009182828 0.039760683 -0.029236136 0.021690084 -0.029513117 0.030310674 -0.023780975
0.031726643 -0.0036030137 0.03876763 0.0056769364 0.04977248 0.05135132 -0.0063095535 0.027304705
0.012796381 0.008189538 0.01963165 0.001495531 0.019770097 0.004226504 0.02646818 0.02834139
-0.030871194 -0.0028348414 0.027194707 -0.011243895 0.029791562 0.04269312 0.022891197 -0.0066801696
-0.00042698585 0.03836685 0.034759514 -0.022242542 -0.01392816 0.0066723395 0.02923481 0.00023147318
0.00831984 -0.0020963813 -0.019524483 0.027961267 0.026971646 -0.013286496 0.036689907 -0.009527204
-0.018148303 0.014934963 0.0210934 -0.048026953 -0.034271352 -0.020230483 0.01900132 0.045543373
-0.030921603 0.014095633 -0.028996568 -0.038682792 0.030136632 -0.018462034 0.04363274 -0.0004472406
-0.0034093158 0.046008896 -0.035580702 0.04276156 -0.036776397 -0.037589896 0.019874945 0.02887267
0.020587008 0.007999471 0.023931433 0.03750599 -0.03581533 -0.017919304 0.023050457 -0.02426273
-0.044668645 -0.03692808 0.037725776 0.034118436 0.023836035 0.037322074 -0.029751614 0.020288
0.0010869267 0.03145235 -0.021037076 0.014768804 -0.0137049565 -0.023864163 0.0066501913 0.03795015
-0.016885566 -0.019036574 0.024477346 0.024889467 0.007418406 -0.018940773 -0.01758111 0.02693607
-0.00094155734 0.006642219 0.0021144438 0.009286838 -0.04088998 -0.021554323 0.007202187 0.030464638
00000000: 4e82 993c 8293 1a3d 6284 0fba 7cc3 16bd
00000010: 013e c7bc 8f5f 143c 36cc 21bc fa65 32bb
00000020: 1f26 613b 38dd 4e3c 462a 243d a983 c73c
00000030: d218 12bd a88b 44bb 9cc7 f7bc cc31 a1bc
00000040: c831 cebc f35a ee3c ce6a 253d 0a90 04bd
00000050: ac5b 51bc c9ef cbba 825c c5bc b1b9 113d
00000060: e711 9cbc c5c0 1ebd f1c0 9c3b 02f7 fb3b
00000070: 02f8 09bd 6753 613c 990f d5bc f5f5 d53c
00000080: 3ca4 3a3d a28a a0ba 8e9a 703c ede8 1abd
00000090: f3fe 4a3b 6130 6ebb ca22 1dbd 50dd 12bd
000000a0: d313 03bd 4954 9f3c b44d a4bc 5cc4 a03c
000000b0: 074e f83c 46df 24bb e98d 13bd 7c97 b33b
000000c0: 0c36 283d e834 953c 9808 013d 4826 543c
000000d0: d175 39bd c121 febb 37de 243c 68cc d5bb
000000e0: 14c0 a0bc 23bb 21bd ac86 20bd cf20 8e3c
000000f0: 649e 593c fc88 adbc e60c f7bb ece4 103d
00000100: 1c32 82bc ddcb 133d 53e4 6cbc c1d1 003d
00000110: 6728 38bc 404e aa3c ea9a 2ebc 2e55 71bb
00000120: f2d3 08bc adf5 9cbc 477b 03bd 1c91 fcba
00000130: dd29 193d 970c 823c 0237 b03c 8041 d5bc
00000140: 55e3 8fbc c2e5 0cbb 93f2 333c 814c 7abc
00000150: 0e2c f4bc 68ce 45bd d0d2 7a3c 9c45 9cba
00000160: 3de0 133d dac7 aebb 5d1d 27bc 7bc1 bebc
00000170: 299a c13c ffe0 253c a182 60bb c8f0 babc
00000180: b868 7cb9 142a 0bbb db29 5fbc 9fd8 15bd
00000190: c891 043d 2271 843c e2da 153d 55b9 813c
000001a0: ef84 1cbc 4f4b d63c c9b6 b7bc 5faa 243d
000001b0: 2afa d1bc 2a83 2e3d f52e eb3b d9c5 073d
000001c0: 34f6 c83c e86d 91bc 826d 243d 461e 8ebc
000001d0: b50a 493d 205a c6bc 9733 fbbc dc59 3abd
000001e0: c589 0d3c f009 ea3b 42b2 23bc 70b9 013d
000001f0: 1778 043d 2c69 10bd b66f f2bc f3b1 0cbd
00000200: c46e 28bc ab8d 45bd 2356 31bc a210 983b
00000210: 6630 373b 1126 123d 30bc 3aba ae42 e7bb
00000220: 8253 44bc b4a4 8dbc 4618 233d 9aa8 20bd
00000230: 4c2f 18bd 722e 043d d51f 743a 2dd9 26bd
00000240: e4e9 cf3c 9273 16bc 19dc 223d 9f80 efbc
00000250: 67af b13c 7ec5 f1bc 174e f83c 52d0 c2bc
00000260: ccf3 013d 8a20 6cbb ceca 1e3d 9805 ba3b
00000270: 3ade 4b3d c355 523d 5fc0 cebb 1eae df3c
00000280: e9a7 513c 692d 063c 8ed2 a03c b105 c43a
00000290: e6f4 a13c 7c7e 8a3b ccd3 d83c 342c e83c
000002a0: 96e5 fcbc bfc8 39bb 6fc7 de3c 5038 38bc
000002b0: 6f0d f43c fbde 2e3d 5286 bb3c 53e5 dabb
000002c0: 12dd dfb9 8f26 1d3d fe5f 0e3d fe35 b6bc
000002d0: f032 64bc a4a3 da3b d77d ef3c 9cb7 7239
000002e0: f04f 083c 7163 09bb cff1 9fbc 070f e53c
000002f0: a4f3 dc3c 9aaf 59bc 2848 163d fd17 1cbc
00000300: c0ab 94bc c6b1 743c 11cc ac3c e9b7 44bd
00000310: 1e60 0cbd 66ba a5bc a8a8 9b3c b08b 3a3d
00000320: 4d4f fdbc 5ff1 663c 368a edbc d971 1ebd
00000330: 19e1 f63c b13d 97bc 3eb8 323d 9e7b eab9
00000340: d46e 5fbb d373 3c3d 12bd 11bd bf26 2f3d
00000350: d9a2 16bd ddf7 19bd c8d0 a23c 6186 ec3c
00000360: 16a6 a83c 3710 033c da0b c43c e29f 193d
00000370: 18b3 12bd 81cb 92bc 50d4 bc3c a2c2 c6bc
00000380: 78f6 36bd e641 17bd 5886 1a3d c6bf 0b3d
00000390: ca43 c33c 08df 183d a8b9 f3bc 0533 a63c
000003a0: 3577 8e3a 2ed4 003d f255 acbc dbf8 713c
000003b0: c18a 60bc c77e c3bc d9e9 d93b 9e71 1b3d
000003c0: 9953 8abc 97f2 9bbc b784 c83c ffe4 cb3c
000003d0: 1a16 f33b ae29 9bbc 4306 90bc 08a9 dc3c
000003e0: d8d2 76ba f9a6 d93b 7b92 0a3b d227 183c
000003f0: 407c 27bd b192 b0bc 5300 ec3b fa90 f93c

conv3.bias f4 [128]
-0.0030036722 -0.033129003 -0.018532587 0.028582616 -0.032851677 -0.0056343474 -0.010304501 0.04148987
-0.017912451 -0.0029749514 -0.030179475 -0.030464066 0.013561512 -0.009595779 0.0061287256 0.015022725
0.034648456 0.026023567 0.03348244 0.02943044 0.023298169 0.039763805 0.037586216 0.03756103
-0.02602739 0.028134113 0.035511427 -0.026415791 0.00014210911 -0.045694016 -0.043308005 0.017798232
-0.029212786 0.029900052 -0.009854244 -0.037465192 0.025278332 -0.039815255 -0.0028004632 -0.0056883167
0.029445238 -0.00521986 0.021819843 -0.012687711 0.018688956 0.047232617 -0.006935526 -0.010023098
-0.009159401 -0.016531717 -0.034708623 -0.00763765 -0.039067753 0.018446183 -0.0011191585 0.03636631
-0.02554962 0.011625117 -0.0042627533 0.039257415 0.01321555 0.036415786 0.02166149 -0.01109483
-0.014447533 0.026947713 0.030323219 -0.005976848 -0.020101015 0.028166838 0.013422448 0.0054650763
-0.02822575 -0.010150443 0.015864257 0.042366832 0.029001797 0.031670425 -0.0029326484 0.005257517
-0.042840704 0.023274373 -0.025364166 -0.034188237 0.0023697019 -0.025109634 0.014814153 0.013254533
-0.0037877294 0.0039762845 -0.017893076 0.041768182 -0.017816074 0.03558343 0.019093053 -0.009043438
-0.016852831 0.011147511 -0.035221964 0.021938512 0.021721348 0.03885836 -0.015777893 -0.01789183
0.005202553 0.04217229 -0.0115020145 -0.010052257 -0.020524567 0.02578351 -0.015386546 0.03290995
-0.045726225 -0.003312162 -0.012679843 0.025047138 0.008755528 0.008853073 -0.0240619 0.011452479
-0.017121268 -0.025156604 -0.036448184 -0.0036743435 -0.024039749 -0.032493155 -0.024907595 0.04609017
00000000: 42d9 44bb 47b2 07bd a7d1 97bc 1726 ea3c
00000010: 7b8f 06bd 55a0 b8bb 36d4 28bc 48f1 293d
00000020: 22bd 92bc 67f7 42bb f23a f7bc c78f f9bc
00000030: 1b31 5e3c 9d37 1dbc 7ad3 c83b e021 763c
00000040: 8aeb 0d3d 602f d53c e224 093d 1b18 f13c
00000050: cddb be3c 5fdf 223d 01f4 193d 98d9 193d
00000060: 6537 d5bc 8379 e63c 6e74 113d ee65 d8bc
00000070: 2003 1539 a629 3bbd bc63 31bd 99cd 913c
00000080: a74f efbc f4f0 f43c b273 21bc 1a75 19bd
00000090: 8114 cf3c 5215 23bd fa87 37bb 0f65 babb
000000a0: 2437 f13c 5c0b abbb 87bf b23c 1ee0 4fbc
000000b0: 9519 993c fd76 413d 6943 e3bb ec37 24bc
000000c0: 5011 16bc 866d 87bc a12a 0ebd 4045 fabb
000000d0: 8205 20bd 731c 973c bab0 92ba d7f4 143d
000000e0: 704d d1bc 4677 3e3c 91ae 8bbb 62cc 203d
000000f0: 0986 583c b828 153d 7073 b13c 17c7 35bc
00000100: 58b5 6cbc 73c1 dc3c 6668 f83c 6fd9 c3bb
00000110: e2aa a4bc 24be e63c d4e9 5b3c 6214 b33b
00000120: b039 e7bc 0b4e 26bc c2f5 813c d888 2d3d
00000130: 2d95 ed3c d9b8 013d ad31 40bb 4047 ac3b
00000140: bc79 2fbd e6a9 be3c 83c8 cfbc f708 0cbd
00000150: 004d 1b3b b8b2 cdbc 10b7 723c 8a29 593c
00000160: 8e3b 78bb 7e4b 823b 8094 92bc 1d15 2b3d
00000170: 04f3 91bc eebf 113d 0969 9c3c ee2a 14bc
00000180: f30e 8abc 0da4 363c e844 10bd 65b8 b33c
00000190: f8f0 b13c f229 1f3d a440 81bc e391 92bc
000001a0: 2d7a aa3b dabc 2c3d f272 3cbc 39b2 24bc
000001b0: 2323 a8bc f137 d33c da17 7cbc 95cc 063d
000001c0: 6c4b 3bbd db10 59bb 1ebf 4fbc a82f cd3c
000001d0: 5973 0f3c 7b0c 113c 761d c5bc 2ea3 3b3c
000001e0: e741 8cbc 3915 cebc b14a 15bd 41cd 70bb
000001f0: 02ef c4bc 8b17 05bd 030b ccbc 0cc9 3c3d

act_conv1.weight f4 [4, 128, 1, 1]
-0.0011901069 0.02258051 -0.016780725 -0.071638286 0.0019255395 0.029782372 0.044119574 0.00029910024
0.067751154 -0.0769033 -0.0064022397 0.022144383 -0.07697749 0.0010829386 0.03536405 -0.062385503
0.019324612 -0.056978267 0.021860475 -0.012102004 0.018915806 -0.0008742404 -0.042650852 -0.015879072
-0.009115531 0.07049802 1.5910438e-05 -0.03341769 0.004216411 -0.07714421 -0.053116858 0.032675695
0.02012741 0.035176016 0.0009715709 0.053771935 -0.02941321 -0.06928866 -0.017012184 -0.01746709
-0.0522746 -0.052781876 -0.061095797 -0.06259994 -0.012544813 -0.024682492 0.022786437 -0.03406119
0.028996348 -0.005924215 0.075024016 0.026535995 -0.028265364 -0.017571349 -0.077510536 0.049467556
-0.00029958523 -0.049458206 -0.054276936 -0.01887381 -0.06900624 0.018103283 0.027109833 -0.052830733
0.057267398 0.0013151016 0.039393045 -0.041396715 -0.035653118 -0.056172937 0.026190175 -0.0017565793
-0.039557047 0.07097756 0.05898572 -0.06713464 -0.0013858122 -0.012116561 -0.03826183 -0.025176663
-0.006703284 0.03565077 0.00043444944 0.049091563 -0.023158668 -0.04717119 -0.071396634 0.062032584
0.04539568 -0.010073222 -0.0076557854 -0.03307184 0.014079772 0.041364085 -0.0555289 0.07572236
-0.045782246 0.052702997 -0.006477504 0.059245426 -0.0019579744 0.024300423 0.0045510274 -0.05782215
0.008640935 0.008106022 -0.0004332175 -0.061788887 0.010658317 0.07446851 0.004209273 0.0016908962
0.04438024 0.00436849 0.035715744 -0.0111456 -0.07446726 0.037511196 0.07439605 0.0017937603
0.06792661 -0.00094773417 -0.018417714 -0.05734163 -0.07025587 0.040267818 0.022321524 -0.00097513804
0.012555726 0.0615774 -0.073841795 0.019517418 0.025718624 -0.047011092 -0.052443992 0.06726936
0.058817517 -0.064504094 0.03142158 -0.056420837 -0.010633085 0.023547914 0.061306 0.073630735
-0.076181136 -0.05235317 0.010668095 -0.004839005 0.0383514 -0.07757379 0.00037791836 -0.024495367
0.058671094 -0.025250424 -0.016294114 0.083289005 0.027663814 -0.061365135 0.001457055 -0.056404684
-0.08675066 0.016485887 0.011958292 0.00831533 0.052698806 0.033793032 -0.01563852 -0.023848798
0.034374043 0.0019517874 -0.03527693 0.056438304 -0.062096834 0.0050421325 -0.06595614 -0.018216241
-0.066769116 -0.0071425773 0.050969157 -0.019522188 -0.077788964 0.055845514 0.035238132 -0.07000913
-0.07472897 0.04123346 0.024305634 0.06278038 0.041790903 0.011365971 -0.030030452 -0.014600462
-0.025946626 0.040643264 0.049758144 0.02780076 0.039446633 -0.05982049 -0.07945717 0.051624715
0.062253077 0.03912807 0.05177189 -0.03045485 -0.02648011 0.0037869657 0.06870249 0.088183016
-0.024185328 -0.033905003 -0.0027003519 -0.041557536 0.05719646 0.063001946 0.038344763 -0.08527814
0.0579497 0.0013845519 0.0038421024 0.030538732 -0.040812932 -0.07343983 0.07206581 0.047524847
0.037537184 0.023278426 -0.04648669 -0.001508048 0.053286258 0.051489387 -0.066592224 0.0884952
0.044838913 -0.034853037 -0.015521861 0.09224975 -0.0737022 -0.016695056 0.07012336 -0.041847833
-0.015012292 0.0269166 0.08856691 -0.06640594 0.019301414 -0.0647433 -0.0019239663 0.04820309
-0.022161245 0.008499008 0.051167477 -0.010819798 0.08835365 -0.009953144 0.04747769 0.027540876
00000000: 5cfd 9bba c3fa b83c bb77 89bc 18b7 92bd
00000010: 6262 fc3a 29fa f33c bab6 343d 8ed0 9c39
00000020: 1ec1 8a3d 7a7f 9dbd e1c9 d1bb 2368 b53c
00000030: 60a6 9dbd 64f1 8d3a e5d9 103d f187 7fbd
00000040: a64e 9e3c 0b62 69bd bd14 b33c 7c47 46bc
00000050: 52f5 9a3c 482d 65ba a9b2 2ebd d414 82bc
00000060: 4f59 15bc 4461 903d 6877 8537 fde0 08bd
00000070: d229 8a3b c9fd 9dbd 1091 59bd f3d6 053d
00000080: 3de2 a43c ba14 103d 05b1 7e3a f63f 5c3d
00000090: f9f3 f0bc 37e7 8dbd 235d 8bbc 2517 8fbc
000000a0: e41d 56bd cf31 58bd 963f 7abd 6634 80bd
000000b0: c288 4dbc f032 cabc 9faa ba3c bf83 0bbd
000000c0: c089 ed3c eb1f c2bb 31a6 993d 0462 d93c
000000d0: c48c e7bc caf1 8fbc d8bd 9ebd 7e9e 4a3d
000000e0: a611 9db9 b094 4abd 7e51 5ebd 409d 9abc
000000f0: 2553 8dbd 564d 943c 7115 de3c 0a65 58bd
00000100: 3891 6a3d 7d5f ac3a 9a5a 213d 9a8f 29bd
00000110: 0109 12bd 9815 66bd c78c d63c 053d e6ba
00000120: 9206 22bd af5c 913d 039b 713d e37d 89bd
00000130: 24a4 b5ba 8a84 46bc 70b8 1cbd 4a3f cebc
00000140: 39a7 dbbb 8b06 123d d1c6 e339 3c14 493d
00000150: 3fb7 bdbc 9436 41bd 6638 92bd e115 7e3d
00000160: d2f0 393d 280a 25bc 62dd fabb 5676 07bd
00000170: d8ae 663c 636d 293d 4672 63bd 5314 9b3d
00000180: 2a86 3bbd 19df 573d 3e41 d4bb 55ab 723d
00000190: 5c51 00bb ae11 c73c c920 953b ebd6 6cbd
000001a0: b592 0d3c 1fcf 043c 7821 e3b9 5816 7dbd
000001b0: 39a0 2e3c f282 983d f1ed 893b 10a1 dd3a
000001c0: 0ec8 353d 8d25 8f3b ac4a 123d 099c 36bc
000001d0: 4a82 98bd 57a5 193d f55c 983d 9c1c eb3a
000001e0: 1b1d 8b3d 5d71 78ba bfe0 96bc 0fdf 6abd
000001f0: 4fe2 8fbd deef 243d a1db b63c 68a0 7fba
00000200: 88b6 4d3c 9538 7c3d 5e3a 97bd fee2 9f3c
00000210: ddaf d23c b48e 40bd 83cf 56bd 85c4 893d
00000220: a3ea 703d b91a 84bd eab3 003d 8919 67bd
00000230: 6436 2ebc 8ee7 c03c 001c 7b3d b6cb 963d
00000240: db04 9cbd 4770 56bd 3cc9 2e3c 8490 9ebb
00000250: 5c16 1d3d 02df 9ebd 5823 c639 82aa c8bc
00000260: 1a51 703d fad9 cebc 3c7b 85bc 6d93 aa3d
00000270: 399f e23c 025a 7bbd a7fa be3a 9908 67bd
00000280: 54aa b1bd 690d 873c b6ec 433c 063d 083c
00000290: b4da 573d 906a 0a3d 5a1c 80bc 8e5e c3bc
000002a0: cccb 0c3d 1ed3 ff3a 8b7e 10bd da2b 673d
000002b0: 4059 7ebd 7938 a53b 0314 87bd 3a3a 95bc
000002c0: 3fbe 88bd 480c eabb 09c5 503d ffec 9fbc
000002d0: d24f 9fbd 44be 643d dc55 103d f260 8fbd
000002e0: 810b 99bd 6be4 283d 9c1c c73c 0093 803d
000002f0: f02c 2b3d 5638 3a3c 6c02 f6bc c736 6fbc
00000300: 058e d4bc 8d79 263d 32cf 4b3d 6bbe e33c
00000310: cb92 213d 5506 75bd 71ba a2bd 7074 533d
00000320: 15fd 7e3d c144 203d c30e 543d 737c f9bc
00000330: d1ec d8bc be2e 783b e4b3 8c3d 4c99 b43d
00000340: 4f20 c6bc f9df 0abd 63f8 30bb 3c38 2abd
00000350: d646 6a3d 2a07 813d 660f 1d3d 4ea6 aebd
00000360: aa5c 6d3d da79 b53a c8cb 7b3b 5d2c fa3c
00000370: 762b 27bd 9f67 96bd 3d97 933d 6aa9 423d
00000380: 97c0 193d 66b2 be3c d468 3ebd b2a9 c5ba
00000390: b142 5a3d 89e6 523d 8161 88bd f93c b53d
000003a0: 02a9 373d 0fc2 0ebd 674f 7ebc 70ed bc3d
000003b0: 2ef1 96bd 12c4 88bc d69c 8f3d a268 2bbd
000003c0: 1ef6 75bc 3480 dc3c 9162 b53d d6ff 87bd
000003d0: 001e 9e3c 2398 84bd 992d fcba 9a70 453d
000003e0: 808b b5bc 6c3f 0b3c fd94 513d 8645 31bc
000003f0: c2f2 b43d 8312 23bc f777 423d 679d e13c

act_conv1.bias f4 [4]
-0.033417773 0.029686315 0.062375613 -0.053038348
00000000: 13e1 08bd b730 f33c 927d 7f3d bd3e 59bd

act_fc1.weight f4 [36, 144]
0.050600495 -0.0018692099 -0.04867886 0.056978744 0.06995266 0.03203993 0.06459521 0.0011959069
0.00034986943 -0.04040005 0.0525946 -0.014177732 -0.063246064 -0.011382957 -0.029024921 0.055128857
-0.012826587 0.04609977 -0.0035173423 -0.00013548462 7.1118935e-05 0.017267069 0.061970342 0.045189258
0.029061094 0.0006603433 -0.071084104 0.040963147 0.001941845 0.05453375 0.03882412 0.01809182
0.030940829 -0.0022621895 0.0014853482 0.03601659 0.017198784 0.015737895 -0.06252075 0.011010459
-0.03587827 -0.019008163 -0.000757047 -0.026139025 0.00916127 0.037982486 0.035012905 -0.02787686
0.0462997 0.0426454 0.06675843 0.032449424 -0.089942046 0.027691716 -0.046564434 -0.082352325
0.04183328 0.061692186 0.035799827 0.07054279 -0.080936 0.053902216 0.038005408 -0.058891658
-0.031953234 -0.05912508 0.07095135 -0.08845067 0.047793478 0.0137903895 -0.04444111 0.02281004
0.0139161665 -0.055032723 -0.06045775 -0.0066338102 0.0456835 -0.0088299345 -0.022087857 -0.08650445
-0.08676019 -0.06882156 -0.031142611 0.05406635 0.0013807376 -0.023099197 0.0238632 -0.02053831
0.0149758635 -0.07660919 0.024735078 -0.06036642 -0.056538854 -0.043770093 -0.0337889 0.005599671
-0.03687212 0.000616975 0.06087274 -0.089078404 0.051098548 0.042049754 0.025219753 -0.034516826
0.013722622 -0.062031224 -0.018558173 -0.026078561 -0.044281557 -0.01653055 0.008178069 -0.07036313
-0.07894879 0.06016093 0.06280359 0.0123278955 0.058270197 -0.030929465 -0.015155438 0.04242005
0.011584287 0.003942699 0.0015960424 0.053054668 0.0051674717 -0.032822937 0.008345276 0.066303566
0.037230548 -0.004875502 0.027264806 0.06219662 0.06348821 0.031206207 0.0400259 -0.027667172
-0.047080636 0.0017026276 0.06590751 0.018410888 -0.020180183 0.0213529 -0.003539875 -0.004044694
-0.007118086 0.027003247 0.05064313 -0.030387525 -0.012291798 2.6586087e-05 0.011796508 0.0019636413
-1.0265037e-05 -0.007118462 0.015831254 -0.0015000846 -0.016803142 0.017121099 -0.071566746 0.0029093013
0.04193351 0.019337915 -0.0529919 0.000110697874 0.037431113 -0.01183131 -0.06384448 -0.057869315
0.032792866 -0.057308815 0.06336887 0.07266867 -0.00016025535 -0.062327277 -0.0060661086 0.055863127
0.059336998 0.0005697603 0.05269047 -0.0009058463 -0.027452573 -0.052298803 -0.00743214 0.06817759
0.043519706 -0.026328865 -0.07628344 0.06936847 0.01754617 -0.012046259 -0.06698879 0.065789856
0.014072512 0.07393835 0.0061431546 -0.07405271 0.07127731 -0.0126065705 -0.020666586 0.028084265
0.04088725 -0.019388625 -0.057050332 -0.042958286 0.07992715 -0.080162674 -0.0039841514 -0.007813679
0.07025488 -0.057613753 0.06268109 -0.012523153 -0.06513172 0.07008409 -0.076983556 -0.022047302
0.047536965 0.012654781 0.010933968 0.07852703 -0.033504125 0.02542976 -0.03659263 0.049209572
0.044256564 0.028013911 0.016991504 0.017036688 0.07179127 0.07202839 -0.013124355 0.08310855
0.004406936 -0.048583347 0.0327162 0.06813152 -0.058783133 -0.052431993 0.0009266684 -0.039473817
0.07661618 0.04547874 -0.0067881714 0.04570848 0.0006568932 -0.06071933 0.0405427 0.007493017
-0.050541893 -0.017402899 0.053105984 -0.07211376 0.009657161 -0.030953037 0.010027037 -0.037648104
00000000: 7742 4f3d 4700 f5ba 7c63 47bd 8b62 693d
00000010: 5743 8f3d 4d3c 033d 7e4a 843d fabf 9c3a
00000020: ae6e b739 867a 25bd 6f6d 573d b849 68bc
00000030: 2787 81bd 957f 3abc acc5 edbc ccce 613d
00000040: 9b26 52bc 1dd3 3c3d 3683 66bb e010 0eb9
00000050: b025 9538 ab73 8d3c 9dd4 7d3d 5f18 393d
00000060: 8811 ee3c e41a 2d3a 8b94 91bd f9c8 273d
00000070: 8285 fe3a c85e 5f3d 0a06 1f3d 4c35 943c
00000080: 9f77 fd3c 3e41 14bb 04b0 c23a 2286 133d
00000090: 77e4 8c3c c2ec 803c e10a 80bd 3665 343c
000000a0: 18f5 12bd 02b7 9bbc 9074 46ba 8221 d6bc
000000b0: 2719 163c 8693 1b3d b169 0f3d 035e e4bc
000000c0: c1a4 3d3d f1ac 2e3d a5b8 883d b0e9 043d
000000d0: 8933 b8bd bdd9 e23c 59ba 3ebd 56a8 a8bd
000000e0: 6059 2b3d f2b0 7c3d d7a2 123d bd78 903d
000000f0: c6c1 a5bd 92c8 5c3d 8fab 1b3d 6138 71bd
00000100: 65e1 02bd 242d 72bd f14e 913d a025 b5bd
00000110: 18c3 433d 16f1 613c e207 36bd 1fdc ba3c
00000120: a200 643c fe69 61bd 8ca2 77bd 6f60 d9bb
00000130: 9f1e 3b3d 6eab 10bc 98f1 b4bc 3f29 b1bd
00000140: 54af b1bd 51f2 8cbd ca1e ffbc ad74 5d3d
00000150: def9 b43a 873a bdbc c27c c33c f53f a8bc
00000160: 535d 753c 47e5 9cbd 38a1 ca3c c742 77bd
00000170: 4995 67bd 4548 33bd 3b66 0abd 727d b73b
00000180: 3807 17bd 7ebc 213a b255 793d bd6e b6bd
00000190: b64c 513d 5d3c 2c3d a899 ce3c 8461 0dbd
000001a0: d9d4 603c 7414 7ebd 4f07 98bc b5a2 d5bc
000001b0: 9460 35bd 136b 87bc 4ffd 053c 8b1a 90bd
000001c0: e7af a1bd 4f6b 763d 2b9f 803d f1fa 493c
000001d0: bbac 6e3d ca5f fdbc 844e 78bc a5c0 2d3d
000001e0: 05cc 3d3c c231 813b 4c32 d13a da4f 593d
000001f0: e553 a93b 5871 06bd a0ba 083c 2aca 873d
00000200: 0f7f 183d adc2 9fbb 715a df3c e2c1 7e3d
00000210: 1b06 823d 29a4 ff3c 33f2 233d 44a6 e2bc
00000220: a0d7 40bd b42a df3a 84fa 863d 6ed2 963c
00000230: e950 a5bc 47ec ae3c 3ffd 67bb 5a89 84bb
00000240: d53e e9bb ea35 dd3c 2c6f 4f3d 42ef f8bc
00000250: 8a63 49bc 3005 df37 2446 413c 6fb0 003b
00000260: 0038 2cb7 fd41 e9bb 8cb0 813c 7d9e c4ba
00000270: bea6 89bc 8c41 8c3c 9691 92bd faa9 3e3b
00000280: 79c2 2b3d 8c6a 9e3c 090e 59bd 7826 e838
00000290: 5e51 193d 1cd8 41bc e5c0 82bd 6008 6dbd
000002a0: d051 063d a6bc 6abd 8ac7 813d 50d3 943d
000002b0: 380a 28b9 e34a 7fbd 35c6 c6bb bcd0 643d
000002c0: 5a0b 733d f75b 153a f6d1 573d 5176 6dba
000002d0: 38e4 e0bc 4537 56bd 4f89 f3bb b1a0 8b3d
000002e0: b841 323d a2af d7bc 7e3a 9cbd 0e11 8e3d
000002f0: fcbc 8f3c ac5d 45bc 6b31 89bd d5bc 863d
00000300: 6590 663c fd6c 973d 844c c93b f2a8 97bd
00000310: d7f9 913d ca8b 4ebc f94c a9bc f910 e63c
00000320: 6479 273d e5d4 9ebc 9cad 69bd 07f5 2fbd
00000330: d8b0 a33d 542c a4bd 7c8d 82bb f204 00bc
00000340: cae1 8f3d 66fc 6bbd f15e 803d e92d 4dbc
00000350: c763 85bd 3f88 8f3d 8ea9 9dbd 8b9c b4bc
00000360: 1fb6 423d 0056 4f3c 6324 333c c8d2 a03d
00000370: 9f3b 09bd 1252 d03c 27e2 15bd fa8f 493d
00000380: 5f46 353d 6e7d e53c c431 8b3c 8690 8b3c
00000390: 4d07 933d 9f83 933d 8907 57bc d134 aa3d
000003a0: 0f68 903b 55ff 46bd 6c01 063d 8a88 8b3d
000003b0: 95c6 70bd eec2 56bd aaeb 723a 4caf 21bd
000003c0: f2e8 9c3d ea47 3a3d 4f6f debb d138 3b3d
000003d0: 5b33 2c3a d5b4 78bd 1a10 263d fb87 f53b
000003e0: 0405 4fbd 8690 8ebc a985 593d 61b0 93bd
000003f0: 1239 1e3c 3991 fdbc 7148 243c e634 1abd

act_fc1.bias f4 [36]
-0.028201912 0.08657574 0.017861601 -0.08467755 0.03585646 -0.03323532 -0.04756411 0.0042498508
0.0589378 -0.054393157 -0.058935337 0.042141553 0.0526563 0.05536877 0.038402945 -0.06768692
0.013519758 0.08587153 0.034115408 0.0024425548 -0.08961771 0.06642118 0.011757815 0.018138247
-0.03275625 -0.0631997 0.07597822 -0.055238817 0.06904324 0.0039015817 -0.060926277 0.06407403
-0.007872164 0.042630605 0.05538568 0.023205677
00000000: b207 e7bc 9f4e b13d 7e52 923c 6c6b adbd
00000010: 39de 123d c221 08bd 96d2 42bd 5542 8b3b
00000020: c368 713d 5ccb 5ebd 2e66 71bd 9f9c 2c3d
00000030: 22ae 573d 5dca 623d 684c 1d3d 719f 8abd
00000040: fa81 5d3c 6add af3d 99bc 0b3d 4513 203b
00000050: 7d89 b7bd d407 883d daa3 403c a996 943c
00000060: 6b2b 06bd d86e 81bd 789a 9b3d 1942 62bd
00000070: 8b66 8d3d aeb1 7f3b d58d 79bd 3f39 833d
00000080: 40fa 00bc 6e9d 2e3d 18dc 623d d519 be3c

val_conv1.weight f4 [2, 128, 1, 1]
-0.07059197 -0.0013822815 0.08643509 -0.032513842 0.014075435 -0.03723292 0.06729569 0.031919237
0.06647337 0.015742706 -0.024643093 0.010077937 0.007911643 0.08878278 0.08298092 -0.06188188
0.07954534 -0.054634824 0.060292523 0.04832703 -0.04686677 0.03373532 0.02383405 0.07605505
0.059983354 0.052994426 -0.06950184 -0.019819582 -0.07500357 0.068704635 0.044770606 0.052229945
-0.025061816 0.03536286 -0.035335854 -0.055524603 0.07057907 0.084492855 0.0852628 0.0821416
-0.047830787 -0.0063355984 0.041807476 0.043743674 -0.062483188 0.013099927 -0.028124385 0.030870333
-0.05612662 -0.023529382 -0.041963268 0.02335803 0.029138327 0.071684465 0.048207767 0.09229142
0.014898404 0.010144278 0.06363585 0.059411414 -0.012576783 0.072489575 0.089441925 -0.07602874
0.0041135577 0.004203551 0.05231807 0.022084089 -0.06261841 0.002669985 0.033065863 0.0618724
0.04674556 0.078360826 0.060122337 -0.034617722 -0.047181975 -0.08274066 -0.016341662 0.08959503
-0.01672388 -0.016720299 -0.08136751 -0.02966545 -0.035340086 0.034990273 -0.05721059 0.08636292
0.08848173 -0.069654085 0.036179785 -0.013693707 0.010299345 0.07711903 -0.05433839 0.002895819
0.015671851 -0.08364332 0.0528027 0.025606545 -0.06761582 -0.04885238 0.04742035 -0.041961923
-0.03823219 -0.019374704 0.085606486 -0.014006472 0.071926795 -0.023452973 0.035262406 0.057230365
0.008653748 0.02236208 0.06666517 -0.07922209 0.08426316 0.002565045 0.041721236 -0.045344993
0.061428886 -0.08089822 0.034172613 0.04598963 0.07111089 0.04748733 -0.0728772 0.0029921196
0.03174569 0.019617807 -0.07125175 -0.0694052 -0.036526814 0.04784903 0.044919003 0.088253014
0.058863163 0.0051654414 0.0435576 0.06273161 -0.030412517 0.0063435733 -0.051814597 -0.08767627
-0.030098794 0.030571625 0.0309257 -0.0332474 0.025289493 0.039996006 0.026480917 0.067107774
0.01872371 -0.032557264 -0.038000092 -0.05403503 -0.07570808 -0.011525047 0.034162253 0.057996616
-0.008698789 0.07707809 0.038335413 -0.03015237 0.029590903 0.012710764 -0.043650076 -0.051041313
0.046452075 0.05006176 0.07296995 0.022481076 0.054368664 0.004652513 0.07524662 0.029054921
0.0024437904 0.0043645343 -0.043990243 -0.04971694 0.056752004 0.0026659588 0.042049326 0.0028510813
-0.03986342 -0.02216522 0.019392343 0.08469266 0.039573576 0.009795118 -0.045259256 0.009799413
-0.010575935 0.04913172 -0.08144277 -0.04224068 0.04748865 -0.056866363 -0.045387685 -0.038353194
-0.03846731 -0.078339815 0.0114083085 -0.010381357 0.028250635 -0.035316776 0.0678011 -0.043469284
0.006403671 -0.0908451 -0.048317716 -0.015454246 0.07728666 -0.07308432 0.024105629 -0.07696733
-0.052880667 0.067872405 -0.049455833 -0.042099424 0.019173803 0.00051510107 0.07756255 0.041440517
-0.03382818 -0.01391619 0.036343604 -0.07042504 -0.075827755 0.076772936 0.07645695 0.08734771
-0.013072007 -0.071889296 0.055840146 0.038231313 0.07458581 -0.012963505 -0.07908507 -0.009480397
-0.06428831 -0.07810834 -0.058293775 -0.04509205 0.0854458 -0.07056935 0.010822133 -0.08712877
-0.026189536 -0.011114702 0.034051772 0.042855732 -0.060974505 -0.03330026 0.0007125489 0.018282115
00000000: 8692 90bd ac2d b5ba e104 b13d 3c2d 05bd
00000010: a79c 663c 8c81 18bd 53d2 893d bfbd 023d
00000020: 3123 883d d9f6 803c 50e0 c9bc ee1d 253c
00000030: d69f 013c bfd3 b53d e7f1 a93d db77 7dbd
00000040: abe8 a23d c4c8 5fbd 4bf5 763d 90f2 453d
00000050: 5ff7 3fbd 0c2e 0a3d a03f c33c c0c2 9b3d
00000060: 1bb1 753d af10 593d fb56 8ebd ad5c a2bc
00000070: 799b 99bd 04b5 8c3d 6261 373d 11ef 553d
00000080: 704e cdbc a5d8 103d 54bc 10bd c46d 63bd
00000090: c28b 903d 970a ad3d 439e ae3d db39 a83d
000000a0: 37ea 43bd da9a cfbb 513e 2b3d 912c 333d
000000b0: 5fee 7fbd 14a1 563c 1c65 e6bc c8e3 fc3c
000000c0: 07e5 65bd b1c0 c0bc ade1 2bbd 5759 bf3c
000000d0: 80b3 ee3c 4ecf 923d 8275 453d 4903 bd3d
000000e0: 6f18 743c 3034 263c 8353 823d 6259 733d
000000f0: da0e 4ebc 6a75 943d 542d b73d f5b4 9bbd
00000100: 06cb 863b f1bd 893b 794b 563d b1e9 b43c
00000110: 153e 80bd eafa 2e3b 1270 073d ea6d 7d3d
00000120: 4678 3f3d a47b a03d d742 763d 50cb 0dbd
00000130: e341 41bd ef73 a9bd f3de 85bc 997d b73d
00000140: 8500 89bc 02f9 88bc 02a4 a6bd f504 f3bc
00000150: c4c0 10bd f651 0f3d a755 6abd 0bdf b03d
00000160: e935 b53d cda6 8ebd 4131 143d 925b 60bc
00000170: 95be 283c 95f0 9d3d ee91 5ebd c8c7 3d3b
00000180: 4162 803c 304d abbd a547 583d d1c4 d13c
00000190: 2a7a 8abd 6f19 48bd d73b 423d 44e0 2bbd
000001a0: 5b99 1cbd b3b7 9ebc 7452 af3d 677b 65bc
000001b0: 5b4e 933d 7320 c0bc 506f 103d 636a 6a3d
000001c0: 73c8 0d3c ae30 b73c c087 883d 313f a2bd
000001d0: 2a92 ac3d 501a 283b e3e3 2a3d acbb 39bd
000001e0: db9c 7b3d f7ad a5bd 95f8 0b3d 9f5f 3c3d
000001f0: 96a2 913d 1382 423d a440 95bd 7017 443b
00000200: c507 023d 86b5 a03c 70ec 91bd 5024 8ebd
00000210: 249d 15bd 58fd 433d fdfc 373d ffbd b43d
00000220: 801a 713d dd42 a93b 7469 323d 6e79 803d
00000230: ac23 f9bc c0dd cf3b 8b3b 54bd 9e8f b3bd
00000240: bf91 f6bc 5871 fa3c e557 fd3c 6d2e 08bd
00000250: e92b cf3c dad2 233d 82ee d83c cd6f 893d
00000260: 7762 993c c45a 05bd fca5 1bbd d653 5dbd
00000270: d60c 9bbd 8dd3 3cbc b8ed 0b3d dc8d 6d3d
00000280: 5e85 0ebc 1edb 9d3d 9805 1d3d 1a02 f7bc
00000290: 9f68 f23c cf40 503c 6cca 32bd b210 51bd
000002a0: 8844 3e3d 8f0d 4d3d 4571 953d 3c2a b83c
000002b0: adb1 5e3d 1c74 983b e61a 9a3d 9604 ee3c
000002c0: 0028 203b 5e04 8f3b 1d2f 34bd fda3 4bbd
000002d0: ca74 683d 5eb7 2e3b ea3b 2c3d 35d9 3a3b
000002e0: d347 23bd d693 b5bc b1dc 9e3c 5873 ad3d
000002f0: e717 223d b47b 203c c561 39bd b88d 203c
00000300: b046 2dbc 583e 493d 78cb a6bd 9004 2dbd
00000310: 7583 423d b4ec 68bd 70e8 39bd 3d18 1dbd
00000320: e68f 1dbd a070 a0bd eae9 3a3c 9116 2abc
00000330: e06d e73c 53a8 10bd 4edb 8a3d d90c 32bd
00000340: e3d5 d13b ff0c babd cce8 45bd ce33 7dbc
00000350: 7848 9e3d 3bad 95bd 2b79 c53c 0ca1 9dbd
00000360: 6699 58bd b000 8b3d 3392 4abd 7270 2cbd
00000370: 6112 9d3c d907 073a 1dd9 9e3d 88bd 293d
00000380: 6b8f 0abd bb00 64bc 08dd 143d 013b 90bd
00000390: 954b 9bbd 213b 9d3d 7695 9c3d 5be3 b23d
000003a0: f92b 56bc b23a 93bd a3b8 643d 7098 1c3d
000003b0: 72c0 983d e264 54bc 5af7 a1bd ab53 1bbc
000003c0: 97a9 83bd 44f7 9fbd 74c5 6ebd 71b2 38bd
000003d0: 35fe ae3d aa86 90bd 514f 313c 9270 b2bd
000003e0: 708b d6bc 701a 36bc df79 0b3d 7e89 2f3d
000003f0: 67c0 79bd da65 08bd 59ca 3a3a 60c4 953c

val_conv1.bias f4 [2]
0.05482949 0.08345868
00000000: e394 603d 62ec aa3d
