models/Training/AC_nmcts20/train_032.pth (torch, 424031 bytes, 15 tensors)

conv1.weight f4 [32, 5, 3, 3]
00000000: ea95 893d 16df 10be 2a4c 9cbc 5fc7 173e
00000010: 0e0b 4bbe 6c0c 0cbc 5659 cf3d a089 dbbd
00000020: 8fb8 643c e0b0 a23a 0835 11bc 4d1f 1c3e
00000030: a639 893d ecf7 06be a5af 0b3e 391b b43b
00000040: d73f a7bc 3b20 e13d e911 08b6 8af6 1131
00000050: 488a 31b2 a0c7 1d35 00b6 f5b3 8a1f 20b7
00000060: 0b35 09b8 ef74 e8b2 be01 3b31 2121 f93d
00000070: 5207 313d e466 49bd 2a12 09be befa d4bd
00000080: d396 583c 4282 593d 1b97 fabd 239a b43d
00000090: 584c 9432 7cfe 2db5 9580 b131 0074 382e
000000a0: ddb9 74b9 ddea 43b3 dcb0 bab1 839c 5f34
000000b0: 9d1c 85b7 07e4 7ebc 28b3 3e3e 0c2d d63d
000000c0: 167f 04bd 2114 1e3d 8eb0 bfbc 8d26 c53d
000000d0: 0cac bc3d 7e1f 183e 7983 833d e9c3 2fbe
000000e0: 1c4f 2f3c ab5e 3a3d 1477 873d 8d23 db3c
000000f0: 3a21 3dbd 8d1a 59bd 6241 cf3d 8e1b c035
00000100: 3431 1035 65a2 1a32 e161 baba d9d8 6132
00000110: 7425 b5b1 e8ca b4ba 55b5 36b2 901b 56b4
00000120: 0d67 debd 0c3b 1c3e a382 82bd ec7c 56bc
00000130: 6093 efbd 9e8e c1bd 2de7 c0bd 5d84 cc3d
00000140: 7d0f c03b a908 f9b3 04d3 c13b 787b 04b4
00000150: fe82 feb2 c8e2 95b5 9d86 36bb 522e 66b6
00000160: 6853 8d3a fe2b 00b4 89ad aebd 0e1d 0b3d
00000170: 7a72 073e d6b4 96bc e3fa 263d ff53 3c3e
00000180: 5672 e8bd 19ec e3bd bdf0 293c 3635 7abd
00000190: 5d85 a1bc 75f6 9ebd 0453 98bc 3342 36bd
000001a0: 03c8 913d 9229 303e 85d9 33bc c660 703d
000001b0: 86f8 7db8 bad4 abb5 00fd d1b3 5841 2a32
000001c0: 27df 193a 3e83 b2bb 2126 9032 851e 12b2
000001d0: 945c 5233 2f81 6f3d 632c 65bc bca1 e7bd
000001e0: d758 d5bd b99f 0bbd 8dbb b03d 4997 823d
000001f0: 79d4 b739 95aa f53c bcc5 2eb6 1574 d63a
00000200: 6af4 4634 73dc adbb 2496 752f 409c 98bb
00000210: 271d 3fba bf40 0432 1307 9e33 a291 a33d
00000220: ff50 febd 1a09 12bd 0fab fb3c 16fc 403d
00000230: c864 9fbb a847 0c3e 353d 473e 1f41 203e
00000240: cc6f 163d 703a 1e3d 9484 bbbd 1b89 7dbb
00000250: f819 3abe c823 0cbe 61d8 a93d 0981 f63c
00000260: 3dab 00be 10b5 8ab8 caeb 5c32 8751 da35
00000270: 15aa 0c33 a864 c8b6 94f0 7036 4472 7033
00000280: 6e15 96b3 4f2b 58ba f676 383d 75b8 083e
00000290: 359c be3d a489 32be 52d7 e73d a36a be3c
000002a0: e3ba 5a3d bbb5 6c3d 252e 673c 7536 9a3b
000002b0: 234d 9135 2d7d 4eb7 b0d2 6e2f 9aa5 19b5
000002c0: f4df 9732 cad2 be32 060b 633b aad6 6eb2
000002d0: 5738 0a3e d461 dbbc 76ec ff3d 2f08 103d
000002e0: b8fc af3b f07c 4c3d 9bf4 f93c b345 fc3c
000002f0: 8de2 f2bd f192 fc3d 4116 06be bf77 a73d
00000300: da75 993d d39c 533d 4e4b d93d 2875 c93d
00000310: e5ee 093d 88bd f2bd 475f 3ab4 bf5f 4833
00000320: daca 0c39 755d c4bb cbc8 8eb8 fd4f a732
00000330: 3e5a e2b9 2082 5335 4114 00b1 9955 093e
00000340: d59b 5bbc dc38 033e 6af1 983a 81fa 333d
00000350: 8454 2a3e d968 e83d 8ad6 173d 707b a23b
00000360: d747 1e33 dddb fab2 99f8 9232 15e1 8c38
00000370: a226 81b1 0863 24b0 ca93 e334 39ce 38b9
00000380: 0557 ab3b 199e a73d a277 1a3e 8256 0a3e
00000390: 6c3d 153e 95fd abbd 3fd8 f8bc cb08 e73d
000003a0: 692b 2e3e 5aa5 ccbd 2073 c53d c4ca c33d
000003b0: bfbd ec3c 9630 183d 6736 04be 64d4 82bd
000003c0: 0316 823d b7d5 c3bd b97a 1cbc e648 06bb
000003d0: 586f 22b5 1a7f 7a3a a115 1c32 4bb6 bbba
000003e0: e61f 07b6 e216 25b5 5e44 1eb9 e6b1 6db6
000003f0: 78e9 853c 70a7 8d3d 6582 ae3c a67b 763d
0.06718047 -0.141476 -0.019079287 0.14822148 -0.19828436 -0.0085478835 0.10124461 -0.10719609
0.013960018 0.0012412332 -0.008862741 0.15246315 0.06700449 -0.13180512 0.13641222 0.0054964093
-0.020416183 0.109924756 -2.0276004e-06 2.1240418e-09 -1.03341975e-08 5.877755e-07 -1.1441807e-07 -9.544086e-06
-3.2712745e-05 -2.706153e-08 2.7213072e-09 0.12164522 0.04321987 -0.04917039 -0.13385835 -0.10399388
0.013219553 0.05310274 -0.12235852 0.08818462 1.7264185e-08 -6.4817846e-07 5.165996e-09 4.1939785e-11
-0.00023338893 -4.5615582e-08 -5.433419e-09 2.0825432e-07 -1.586816e-05 -0.015557296 0.1862303 0.10457811
-0.03234776 0.038593415 -0.023399618 0.096264936 0.09212503 0.14855763 0.06421561 -0.17164578
0.0107000135 0.04550044 0.06614509 0.02675035 -0.046174265 -0.053003836 0.10119893 1.4313134e-06
5.371578e-07 9.000904e-09 -0.0014219844 1.3146029e-08 -5.2720512e-09 -0.0013793381 -1.0635024e-08 -1.994033e-07
-0.10859499 0.152569 -0.06372573 -0.013091307 -0.116980314 -0.0945103 -0.09419093 0.09986184
0.0058612213 -1.1596541e-07 0.0059150476 -1.2338376e-07 -2.962906e-08 -1.1167367e-06 -0.0027851232 -3.4299633e-06
0.0010782303 -1.1936933e-07 -0.08529193 0.033963256 0.13227263 -0.018396776 0.040766608 0.18391417
-0.11349933 -0.111290164 0.010372338 -0.061085902 -0.019716913 -0.07761852 -0.018594272 -0.044496726
0.07118227 0.17203358 -0.010977154 0.05868604 -6.0551356e-05 -1.2802404e-06 -9.778341e-08 9.91016e-09
0.0005869739 -0.005447774 1.6781145e-08 -8.505258e-09 4.8978634e-08 0.05847281 -0.013987633 -0.11310145
-0.104173355 -0.03408787 0.086295225 0.063765116 0.00035062784 0.029988566 -2.6043117e-06 0.00163615
1.8529104e-07 -0.0053058206 2.2335961e-10 -0.0046572983 -0.0007290416 7.698133e-09 7.358735e-08 0.07986762
-0.124177925 -0.03565321 0.030721216 0.047115408 -0.004864309 0.1369921 0.19456942 0.15649842
0.03672771 0.03862995 -0.09156147 -0.0038686458 -0.18173969 -0.13685524 0.08293224 0.030090826
-0.12565322 -6.614078e-05 1.2859298e-08 1.6265993e-06 3.275098e-08 -5.9721824e-06 3.5902822e-06 5.598328e-08
-6.988817e-08 -0.00082461996 0.045035325 0.13351615 0.09307138 -0.17435318 0.11320366 0.023244208
0.053400885 0.0577905 0.014110123 0.004706199 1.0825792e-06 -1.2307702e-05 2.1720825e-10 -5.7237924e-07
1.7680556e-08 2.2214767e-08 0.0034644022 -1.3902232e-08 0.13498054 -0.026780047 0.12496273 0.035164054
0.0053707026 0.049923837 0.030512145 0.030794954 -0.118596174 0.12332714 -0.13094427 0.08177137
0.074931815 0.05166323 0.10610066 0.09836799 0.033675093 -0.118525565 -1.7357262e-07 4.665321e-08
0.00013427009 -0.0059925863 -6.808488e-05 1.9477733e-08 -0.00043173315 7.879298e-07 -1.8637965e-09 0.13411559
-0.0134038525 0.12814659 0.0011668627 0.04394007 0.16633803 0.11348123 0.037069835 0.0049585626
3.685258e-08 -2.9203813e-08 1.7109686e-08 6.717645e-05 -3.758786e-09 -5.9803584e-10 4.2389576e-07 -0.00017624431
0.0052288794 0.081844516 0.15084699 0.13509563 0.14574212 -0.08397976 -0.030376552 0.11280974
0.17008747 -0.09992476 0.09641099 0.09560159 0.028899072 0.03715571 -0.12911378 -0.063881665
0.06351855 -0.09562247 -0.009550744 -0.0020490228 -6.051173e-07 0.0009555683 9.085313e-09 -0.0014321295
-2.0135135e-06 -6.150059e-07 -0.00015093523 -3.5419303e-06 0.016346678 0.06916702 0.021302411 0.060176514

conv1.bias f4 [32]
00000000: ae9a e23d 93dc b83c 45cf f1bc d894 ca3d
00000010: 5b20 8fbd e9e7 18be bfc7 6cbb 8b02 a43d
00000020: b1b7 803d 748d acbd 140d 353e 877e 65bd
00000030: b8f0 1a3e dccc 0b3e 6da3 8abd 312f 27bd
00000040: 4cf1 1abd cb42 a3bd 83c4 b3bc 0be8 1b3e
00000050: a644 5abd 3413 513d c4df 6bbb 6032 91bd
00000060: 9faf a8bd 86fa 8a3d 73b6 f6bd 7f67 143e
00000070: b543 003e f995 9ebd 78bf cfbd 0d4d bc3d
0.11064659 0.022566115 -0.02951778 0.09891671 -0.06988593 -0.14932217 -0.00361298 0.080082975
0.06285036 -0.084254175 0.1768077 -0.05602887 0.1513089 0.13652366 -0.06769452 -0.04081649
-0.037827775 -0.07971724 -0.02194429 0.15225236 -0.053288125 0.051043704 -0.003599153 -0.070896864
-0.08236622 0.06786065 -0.12046518 0.14492606 0.12525828 -0.07743449 -0.10143942 0.09194384

conv2.weight f4 [64, 32, 3, 3]
00000000: b6aa afbc 5936 373d b42f fa3b 3f70 243d
00000010: c9c5 2fbd 0822 63bd 1998 2abd 47a6 df3c
00000020: 011f 95bc 9973 13bd 36d1 36bd 0688 bbbc
00000030: 51af 173d d378 233d df7a 3a3d dbd0 1e3d
00000040: 24ad bd3c 1f78 8b3d 19bc 5fbd d710 fcbc
00000050: 9ad8 f0bc 09ec ef3c 700c 293d fb98 733c
00000060: 6830 883c 5aa9 bc3c e017 26bd 9609 8dbd
00000070: 9ca7 8bbb a30a 0b3d 2507 c83b 9abe b13a
00000080: 4054 ac3b 46ba 303d f3ea d33c 2eec 833d
00000090: 1bfb f63a 3417 533d f005 1bbd 10c3 ff3c
000000a0: b0eb 743d e86e 39bc 8a4b 0e3c fc19 3c3c
000000b0: 2793 9dbc c7af 37bd be22 30bb 5286 3e3c
000000c0: 9a9e 1ebd 0326 dbbc 56d9 443c b0f9 88bc
000000d0: dd5d 933d 27ea 0e3d 313c aabc 21a2 12bd
000000e0: 8de7 83bd 4769 cc3b 9b6d d23c e44a 5cbb
000000f0: d27d 0b3d 20dd 70bc 6e4b c2bc 9d3b c73c
00000100: e48e f5bc d396 073d a153 edbc 6a4a c43d
00000110: 2070 3c3d 8a70 543d fe76 17bc 5483 b83a
00000120: f788 8dbd 63d4 abbc 2668 f13b 74b8 4ebd
00000130: 443a 753d e6e8 82bd 71ba 9cbc 17b8 1e3d
00000140: 017d 3a3d 02ef 643c 6ebe 49bd 75d1 f9bc
00000150: f501 3d3d c582 79bd e30c 01bd 4e20 653d
00000160: 9a32 613d 95e4 eb3b 3df5 48bd 8fe9 bf3c
00000170: ba83 74bd 5fae 70bd c3ea 70bd 5f8d b4bd
00000180: 9251 f5bc 48a2 afbc d2ba c0bc 0993 a03c
00000190: 6d29 833d e369 02bb a1b8 74bd 321a c83c
000001a0: e0e4 6e3d fca5 6fba a4a6 163d d0dc 46bd
000001b0: 3054 c0bd 72ff 02bd a938 b0bd e84e 043c
000001c0: 5867 803d 91df a9bd fffd 14bd 22d7 1abd
000001d0: 8c81 903b f90f 97bd a063 56bd 3fb2 0c3d
000001e0: d6a7 83bd 9146 f43c a30a 96bc 5791 32bd
000001f0: 286f 0c3c 0d00 2abc 5d25 acbb d77b 8c3c
00000200: 86b1 15bd 8333 67bd e3ea ebbc b4fe ad3b
00000210: 88da a4bd 4bbc cebb 86d1 113d 433f 11bd
00000220: 871a 8fbc 0fef f2bc d49e 16bd d9b2 76bb
00000230: f13a c4bc 6708 c6bb e975 15bd 3b21 3abd
00000240: b7ec 883d c976 25bd fa68 39bd 1d76 07bd
00000250: 1d28 69bd f201 00bd 16e1 5039 fe88 c43c
00000260: be54 aabc 5156 05bd 96ff 1f3d fc96 6d3c
00000270: e7ff 54bd fe5a 17bb e099 a73d cedc 383c
00000280: 3dec 533d becf 1ebd 439a 0bbd 3899 673c
00000290: d64f 6f3d ea24 d4bb d4ef 5bbd 0875 b13c
000002a0: 7323 703d 9b70 87bc 28f3 013d 4e5c 833c
000002b0: cdca 85bd 2831 3ebd 8ced 023a 22e9 373d
000002c0: 2c8f 0ebd 6caf 953b 7d96 38bd f28c c4bd
000002d0: 4f63 62bd 247f 293d 0221 ac3b 177e 9bbb
000002e0: 9f3d 7a3d 4d52 d73c 7b40 673c d9f7 653c
000002f0: 7c5d dcba fbae c13b ac73 4f3c 2c18 1ebd
00000300: 5dc9 fbbb 9513 8c3d b21a 973a 156e 2dbc
00000310: 132b 7abd 44f6 93bd fc71 693d e801 25bb
00000320: 72a8 1ebb 3e8b 36bd 5368 b1bc e56b 5cbb
00000330: 7bd5 64bd effa 6e3c 8a09 35bd d85f 833d
00000340: 76af e6bc f979 54bd 886a cc3c 858a c73c
00000350: 030a 21bd d07f 8e3c 63fd 9b3d a9d5 c63d
00000360: 7bce 013c 95ca c13c cabe 2c3d 1a7c 54bc
00000370: c4c9 ac3c a30e 73bd 4039 0c3d e45b 78bc
00000380: 3475 c4bc c40e bd3c e5a1 5d3d acad f93b
00000390: aefb dcbb fbb5 aabc ed93 39bd e375 153d
000003a0: dd57 4a3b 44a4 f63c 5906 bc3c 27b9 523d
000003b0: f5da 1c3c 750e 313d 9651 833a 1b80 913d
000003c0: d09f 563d f827 3c3a fae1 fc3b d440 593b
000003d0: bfd6 78bd 93c5 93bc 5f7d 7d3c b349 3cbd
000003e0: ab0d 77bc 8080 54bd e0f6 24bd b744 44bd
000003f0: cc4f a3bc 7f97 273d f0a3 513d 81d0 ba3c
-0.021443706 0.044729564 0.007635081 0.04014611 -0.042913232 -0.055452377 -0.041648958 0.027300967
-0.01820326 -0.035998914 -0.044633113 -0.02289201 0.03703243 0.03991015 0.045527335 0.0387734
0.023153849 0.06810021 -0.054622743 -0.030769749 -0.029400159 0.029287355 0.041271627 0.014868016
0.016624644 0.023029972 -0.040550113 -0.06886594 -0.004261924 0.03394569 0.0061043673 0.0013560832
0.005259067 0.043146394 0.025868868 0.06441532 0.0018843146 0.0515358 -0.03784746 0.031220943
0.05979508 -0.011317946 0.008685002 0.0114808045 -0.019235207 -0.04484537 -0.0026876177 0.011628704
-0.038725473 -0.026751524 0.012014708 -0.016720623 0.071956374 0.034891274 -0.020780655 -0.03579915
-0.06440649 0.006238136 0.02568703 -0.0033613974 0.03405554 -0.014701158 -0.023717608 0.024320418
-0.029975362 0.03310282 -0.028970541 0.09584506 0.04600537 0.051865138 -0.009244679 0.0014077225
-0.069108896 -0.020975297 0.007367152 -0.050468877 0.05987002 -0.06392078 -0.019131871 0.03874978
0.04552937 0.0139729995 -0.049253874 -0.030495385 0.046144444 -0.060915727 -0.03150643 0.05593901
0.054979898 0.00719888 -0.049062002 0.0234268 -0.059695937 -0.058760043 -0.058817636 -0.08816027
-0.029946122 -0.021439686 -0.023526583 0.019601362 0.06404386 -0.001989954 -0.05974639 0.024426553
0.05832374 -0.000914186 0.036780015 -0.048550427 -0.093910575 -0.031981893 -0.08604557 0.008075453
0.06269711 -0.08294595 -0.036375042 -0.037802823 0.0044099744 -0.073760934 -0.052341104 0.034349676
-0.064284965 0.029818805 -0.018315619 -0.043595638 0.008571424 -0.010375989 -0.0052534775 0.017148895
-0.036546253 -0.05644561 -0.028798526 0.005309904 -0.08049494 -0.0063090674 0.035600208 -0.03546072
-0.017468704 -0.029655008 -0.036772564 -0.0037643223 -0.023953887 -0.006043482 -0.0364894 -0.045441847
0.06685775 -0.040396485 -0.04526613 -0.033071626 -0.05692302 -0.031251855 0.00019920277 0.023991104
-0.020792361 -0.03255302 0.039062105 0.0145013295 -0.05200186 -0.0023095007 0.08183646 0.011283113
0.051738966 -0.038772337 -0.034082662 0.014135651 0.058425747 -0.006474127 -0.053695515 0.02166225
0.058627557 -0.016533187 0.031726032 0.016035225 -0.06532822 -0.046433598 0.00049945037 0.044900067
-0.034804508 0.004568031 -0.04506539 -0.09597196 -0.05527049 0.041381016 0.0052529583 -0.0047452557
0.061093923 0.026284361 0.014114494 0.014036142 -0.0016812528 0.005910752 0.012661856 -0.03859727
-0.0076839165 0.068396725 0.0011528342 -0.010585328 -0.061076235 -0.07224706 0.05699347 -0.0025178138
-0.0024209288 -0.044566385 -0.021656191 -0.0033633646 -0.055867653 0.014586194 -0.04419855 0.06414765
-0.028159838 -0.051874135 0.024953142 0.024358043 -0.03931619 0.01739493 0.07616689 0.09708721
0.007922764 0.023656169 0.042174138 -0.012969041 0.021092303 -0.05934013 0.034234285 -0.015158627
-0.023981668 0.02307833 0.054109473 0.0076195803 -0.0067438697 -0.020838728 -0.04530709 0.03648938
0.0030875125 0.030107625 0.022952246 0.051446106 0.009573688 0.043226678 0.0010018821 0.07104512
0.052398503 0.00071775867 0.007717368 0.0033150213 -0.060751673 -0.018038547 0.015471785 -0.045968723
-0.015078942 -0.05188036 -0.0402745 -0.047917094 -0.019935511 0.040915962 0.051181734 0.0228045

conv2.bias f4 [64]
00000000: 8f1c f63c 9a9a 003c 8a3c 8fbd 0f69 1dbd
00000010: b133 8dbc 8b0c 663d e4fe 5a3d 73f6 eb3c
00000020: 225d 9cbc 6ac4 923d 3c2c 12bd ddb9 b8bc
00000030: eabd 573d 2988 27bd a3c4 c2bb 8e89 c5bc
00000040: e046 923c 3a87 a53d 3112 ef3c a5d8 203d
00000050: c3d0 863a a2e7 d8bc e36e 903d 0882 633d
00000060: 36dc dc3c f736 c23d 6416 403a 3406 533d
00000070: 9f00 69bd 6608 dcbc 5e7f 8b3d 474a 6c3d
00000080: 2ca6 233c 09a5 ed3c 6ddb 3f3c 464d b33d
00000090: 1229 f03c 679f 16bd 24a2 89b8 769a 9a3d
000000a0: 3681 0f3d a33b 9dbc 3d07 80bd 50b9 e6bc
000000b0: 2c1b 26bb b1e1 633d 210b 0fbd c735 8e3d
000000c0: f0dd 5b3d f0b0 3dbd 5b0d 343d e6a2 843d
000000d0: f529 b03d 8ee3 9439 ad77 0d3d 4d67 9d3d
000000e0: 6b00 45bc 0fb8 353d be30 12bd 7393 c5bb
000000f0: ba5c 333c 8a0e ccbc 87cd 1ebd e29e 5bbc
0.030042915 0.00784936 -0.06993969 -0.03843027 -0.017236562 0.056164306 0.05346574 0.02880404
-0.019087378 0.07166369 -0.035686716 -0.022549564 0.05267135 -0.040901337 -0.005943851 -0.024113443
0.017856061 0.08082433 0.029183479 0.03926911 0.0010285605 -0.026477639 0.070524 0.05554393
0.026960474 0.0948314 0.0007327555 0.051519588 -0.056885358 -0.026859473 0.06811403 0.057688024
0.009988349 0.029009359 0.01171003 0.08754973 0.029316459 -0.03677311 -6.56287e-05 0.07548992
0.035035335 -0.019193476 -0.062513806 -0.028164536 -0.0025345786 0.055635158 -0.034922723 0.06943851
0.053678453 -0.04631132 0.04395805 0.06476383 0.08601753 0.000283983 0.03453796 0.07685719
-0.012024025 0.044364985 -0.035691015 -0.00602954 0.010947401 -0.024909277 -0.038770225 -0.01340458

conv3.weight f4 [128, 64, 3, 3]
00000000: 50e0 b23c deb3 1d3d a937 5bbc f84f d2bc
00000010: f500 c1bc b74e bfbc 85e4 4f3b a853 08bc
00000020: 1383 003c e181 e83c 317d 053d fc0b 513d
00000030: 514e 1abd 7940 083d 72e0 bcbb 3bed 18bc
00000040: 6407 7abb 3462 09bc 8a88 7a3d db88 fdbc
00000050: 4457 45bc c5c7 cb3c 5f2b f6bb 5fc7 d33c
00000060: 042d 4bbd a4e6 0ebd eb63 e33c 791a 643c
00000070: 38a1 74bc bac8 bb3d 0e4e f6bc 9084 533c
00000080: eb08 a23d b34b 8e3c b8f9 363d e43f 6ebd
00000090: 0473 f93b 7ff9 98bb e412 5ebd 6038 a9bc
000000a0: 5f2e 3bbd 603b febc e82c 23bd c3f2 03bc
000000b0: 45f3 013d aa3b ff3c cec1 523b b823 d8bc
000000c0: a89b 7f3d 8858 6b3c af55 08bd cdc6 003d
000000d0: f2b6 61bd aa02 8a3c fbd5 b53c faf1 c838
000000e0: 5803 a4bc bda8 cdbc 0581 dbbc 77ca 21bc
000000f0: 974a 763c 84ae d1bc 706e 4ebc ae8b c53b
00000100: 7523 07bc a091 163d 446f c4bc bc81 e93c
00000110: 4fa9 a1bb cd99 c33c 37c1 aebb d694 0e3a
00000120: fbae 903b a33a 463c 0030 1dbd 75a6 dd3c
00000130: 9f98 633c c222 d4bb 8b9e fe3c 5dcb 2bbd
00000140: 6c45 e7bc 7acd c5bc baa5 d2bc 5581 5fbd
00000150: 5bf3 27bd e0ed 66bd 7491 f63c 9f13 0dbd
00000160: 3c1e 1a3d c94a 9ebc 4f52 b43c ba59 713c
00000170: 5738 4ebc 3834 0c3b f1df a43c dae1 8cbc
00000180: 5a49 fb3c 9981 823c 3c27 55bd 3dba 37bd
00000190: 69cb 663d ee1b cc3c a362 133d d4bb 113d
000001a0: 87fb 90bc d606 bf3c 0f28 6abd 2658 683d
000001b0: dfc0 0bbd 1b5e 293d 5683 b6bc 1206 5f3c
000001c0: a124 b23c adf8 d3bc 2bd5 d63b bac2 363a
000001d0: c0aa aa3d f4f3 01bc 68eb a8bc 2c08 fabc
000001e0: 1c78 073c aa19 a33c 0f17 9d3b aa88 3d3d
000001f0: 4e29 8f3c d12c debc 9d92 77bd 751f 9e3c
00000200: b84d 9abc 31e0 8cbd 58d2 b3bc 1a2d 063c
00000210: 5c3f d13c a30c dd3b d9f4 a03c a109 d8b9
00000220: f4d7 7bbc 3b14 01bd 3f59 103d 6852 8bbd
00000230: 6c0a 45bd 3773 493c 3aec 3b3c 20d1 56bc
00000240: beb6 9a3b 41cd aabc 1b9d cbbb 1a22 0dbb
00000250: 34fc 15bc ab59 32bd 6a46 813c ccbf fe3a
00000260: 65aa 2c3d 0a25 81bc d538 fc3c 2e63 153b
00000270: 2377 2d3d 3475 573d d4a2 2ebc 997c d73c
00000280: cef3 da3b 17db 833c 57f9 c13c 03ea 3bbd
00000290: 2e14 f33c 479c 9cbc a0f6 833b fd3d 263d
000002a0: da32 5ebd f40c b13c 0e19 723c 6121 c0bb
000002b0: fd01 6e3d 97f0 8f3d bc46 d23b b3dc d0bc
000002c0: ba34 7bbc 18c3 503d 6e8c c03c 4a17 5cbc
000002d0: de98 88bb 5a1f 0a3d 9563 333c b819 b8bc
000002e0: aad5 aebc 6dde 7239 40c4 53bc bc3b d53c
000002f0: 6b9f 743d e566 87bc fb66 403d 4aa9 cd3c
00000300: 22bf 2fbd 3425 093d dfc5 e4bb 1465 62bd
00000310: 1cd7 40bd 56a3 7ebd 0b67 103c 98ff f03c
00000320: 519d c0bd 9aa3 d93a 558f 28bd 2221 7cbd
00000330: 136f f83c ce94 17bd aded a93d 24e7 2abd
00000340: d1f8 37bc d589 4b3d bdff 31bd d490 2b3d
00000350: cdde e5bc 66ac 59bd 6071 ef3c 4bd7 0b3d
00000360: ce0b 7b3c 9eb6 973b 951e 443c 68b7 3e3d
00000370: 8774 babc 1d90 d9bb 5814 9cbb b24c cabc
00000380: 0389 dcbc 1399 81bd 9d4a 173d 70e5 1c3d
00000390: a6b2 af3c 9240 853c 1291 44bd b9ac e63c
000003a0: 1ef9 9bb9 523c 103d 2663 113b 720a 5e3b
000003b0: 0ef7 1cbd cdc9 0bbb 680f 16bd 39f8 633c
000003c0: 74ab 0ebd 9dcb aabd 945c c93c 7958 543c
000003d0: fd1b 35bb db72 07bd 6f8a 91bc 4cf0 8b3c
000003e0: 0460 7cbc 6734 38bc 6c65 22bc 8335 00bc
000003f0: f15f 30bd cc92 6e3a f702 a33c 1377 2d3d
0.021835476 0.038501613 -0.01337997 -0.025672898 -0.023560027 -0.023352964 0.0031721902 -0.008320726
0.0078437505 0.028382244 0.032590095 0.05103682 -0.037672345 0.03326461 -0.0057640607 -0.009333904
-0.0038151378 -0.00838523 0.06116537 -0.030949047 -0.0120447315 0.024875531 -0.0075124945 0.025851903
-0.049603477 -0.034887925 0.027757606 0.013922327 -0.014931016 0.09169145 -0.030066516 0.012910023
0.07911857 0.01737008 0.044671744 -0.0581664 0.007612588 -0.004668414 -0.054217234 -0.020656765
-0.04569852 -0.031034172 -0.039837748 -0.008053484 0.03172614 0.03115638 0.0032158974 -0.02638422
0.062404305 0.014364369 -0.03328484 0.03143959 -0.05510611 0.016846973 0.02219676 9.581815e-05
-0.020021126 -0.025104875 -0.02679492 -0.009874932 0.015032432 -0.02559591 -0.012599573 0.006028614
-0.0082482 0.036759973 -0.023978837 0.028504245 -0.0049335132 0.023877049 -0.0053330916 0.00054390484
0.0044153905 0.012098941 -0.038375854 0.027056912 0.013891368 -0.00647387 0.031081459 -0.04194199
-0.028231345 -0.02414583 -0.02571379 -0.0545667 -0.041003566 -0.0563792 0.030098654 -0.03444254
0.03762649 -0.01932277 0.022011904 0.014730865 -0.012586675 0.002139343 0.020126315 -0.017197538
0.030674625 0.015930938 -0.05203937 -0.044855345 0.05634633 0.024915662 0.03598274 0.035579517
-0.017698063 0.02331869 -0.05716711 0.05672469 -0.034119483 0.04134951 -0.022279423 0.013612287
0.021745982 -0.025875414 0.0065561733 0.00069717655 0.08333349 -0.007931698 -0.020620063 -0.030521475
0.008268382 0.019909699 0.0047940086 0.04627291 0.01747575 -0.02712098 -0.060442556 0.01930211
-0.018835887 -0.068786986 -0.021950886 0.008189464 0.025542907 0.006745891 0.019648002 -0.00041205905
-0.015371311 -0.031513434 0.03524136 -0.06802827 -0.048105642 0.012295536 0.011469895 -0.013111383
0.0047214916 -0.020849826 -0.006213797 -0.0021535219 -0.009154368 -0.043542545 0.015780646 0.0019435822
0.04215469 -0.015764732 0.030788818 0.0022794711 0.042349946 0.052602008 -0.010658938 0.02630453
0.006681896 0.016095681 0.023678465 -0.045877468 0.029672708 -0.019117488 0.0040272027 0.04058646
-0.054247715 0.021612622 0.014776481 -0.005863354 0.058107365 0.07028311 0.0064171236 -0.025495863
-0.015332395 0.050967306 0.023504462 -0.013433287 -0.004168614 0.033721305 0.010949035 -0.022473201
-0.021342117 0.00023161779 -0.012925208 0.02602946 0.059722345 -0.016528556 0.04697321 0.025105137
-0.042906888 0.033482745 -0.006981596 -0.055272177 -0.047080144 -0.062167488 0.00881363 0.029418752
-0.09405006 0.0016604543 -0.041152317 -0.061555035 0.030326402 -0.037007146 0.08297286 -0.04172434
-0.011228756 0.049691994 -0.04345678 0.041886166 -0.028060341 -0.053142928 0.029228866 0.034140866
0.015322639 0.004629924 0.011970182 0.04656163 -0.022760643 -0.006639494 -0.0047631674 -0.024694774
-0.026920801 -0.06328025 0.03693639 0.038304746 0.02144749 0.016266141 -0.047989912 0.028158532
-0.0002974951 0.035213776 0.0022184341 0.0033880738 -0.038321547 -0.002133 -0.036635786 0.013914161
-0.03483148 -0.083396174 0.024580278 0.012960547 -0.002763509 -0.03306852 -0.017766206 0.017082356
-0.015403751 -0.011242962 -0.009911876 -0.007825258 -0.043060247 0.0009100854 0.019898875 0.042349886

conv3.bias f4 [128]
00000000: e8c5 8bbb 98ac 09bd 3f37 aebc 48b4 3b3d
00000010: e759 a1bc 2f91 3d3c 1ec4 80bc 3e1c 2b3d
00000020: 0ed0 8cbc 6c29 953c cfa5 07bc 68ca 0bbc
00000030: a14f 303d 70af 79bc 1628 c43c 50cc e53c
00000040: 36c6 3a3d 984c 393d 3b94 c33c 1297 1b3c
00000050: 9f3e f83c 6e84 dc3c 1b5e 743d 435f fe3c
00000060: cf50 9fbc 9823 993c fd8e 3c3d ab1a b4bc
00000070: 547f ae3b 9eed 3abd 0b4b 48bd f626 e13c
00000080: 05e0 10bd d342 373d 995f e73b e31e 11bd
00000090: 71c4 443d 4bed 20bd 1629 433c e829 3a3b
000000a0: 4c5a 1d3d 7272 48bc 1265 b53c 2fbf 95bc
000000b0: 7e58 d43c b02f 973d b401 523c 73a4 373c
000000c0: 3745 ac3c b697 9c3a cc1c cfbc c780 25bc
000000d0: f0aa 0bbd adb3 573d df12 8bbb 719b da3c
000000e0: 3fbc dbbb 7699 473d d949 04bb 3a04 fa3c
000000f0: 862b 1c3d a35b fc3c fb29 403c 2ea0 4bbc
00000100: 3e47 b8bc 0272 403d 8763 0f3d e3c4 9a3c
00000110: fb3b 6d3c 1141 603c 913c 173c 4f33 bc3c
00000120: 2467 90bc c4f2 d23b 81d9 e73c 17f4 593d
00000130: 2f21 3f3d b0ee 3b3d 1453 8a3c c788 f53c
00000140: 45c9 20bd 84cf 063d 7030 9cbc 540f 0abd
00000150: 5416 fb3b 8bd4 20bb 7fa6 f63c f3ca 2fbc
00000160: 4cf7 833c a250 a53c 5969 e0bc c511 8d3d
00000170: 04a3 a2bb 402d c83c 05ef da3b 0293 b63b
00000180: ad7e 48bb 5023 943c 758b 87bc 5750 d23c
00000190: 3615 a63c f2fa 4b3d 570d 0ebc 55db 83bc
000001a0: 51c5 ee3c d794 5d3d 610a 583c 20e1 033d
000001b0: d967 babc 0a63 4a3c 7f8e f63b 3ba5 c23c
000001c0: 2994 09bd cc54 8abb 6c1d 143d f068 203d
000001d0: 9d1d 16bb 7900 d1bb f22b 76bc a7c3 603c
000001e0: 5264 03bc 783a d8bb eb5e b4bc b2ac 573c
000001f0: ed74 cdbc 6756 eebc 5254 bfbc 8b0e 803d
-0.0042655356 -0.033611864 -0.021266578 0.045826226 -0.01969619 0.011570259 -0.015718516 0.04177498
-0.017189052 0.018208228 -0.008279278 -0.008532144 0.04304469 -0.0152395815 0.023944896 0.028051525
0.045599185 0.04523906 0.023874393 0.009496467 0.030303298 0.026918616 0.05966006 0.031051284
-0.019447712 0.01869373 0.0460348 -0.021985373 0.0053252373 -0.045636766 -0.04889969 0.027484398
-0.03536989 0.044741463 0.0070609567 -0.035429846 0.048038904 -0.0392888 0.011911651 0.0028406326
0.038416192 -0.012234317 0.02214292 -0.01827964 0.025921103 0.073821425 0.012817789 0.011208641
0.021029098 0.0011947069 -0.025282286 -0.010101504 -0.034098566 0.052661587 -0.004244193 0.026685448
-0.0067057903 0.048730336 -0.0020185618 0.030519594 0.038127445 0.030805415 0.011728759 -0.0124283265
-0.022494908 0.046983726 0.035007026 0.018892711 0.0144796325 0.013687388 0.009230749 0.022973685
-0.017627306 0.0064376313 0.028301956 0.053211298 0.046662506 0.045881927 0.016885318 0.029972447
-0.039254446 0.032912746 -0.019066066 -0.033706024 0.007662574 -0.0024540748 0.030108688 -0.010729539
0.016109131 0.02018005 -0.027393984 0.06888155 -0.0049632806 0.02443564 0.0066813254 0.005571724
-0.0030593083 0.018083245 -0.01654599 0.025673075 0.020273786 0.049799867 -0.008670173 -0.016095797
0.029146822 0.054097023 0.013186068 0.032197118 -0.022754597 0.012352714 0.007524311 0.023760429
-0.033588562 -0.0042215344 0.03616087 0.039162576 -0.0022905834 -0.00637823 -0.015025126 0.013718522
-0.008019524 -0.006598767 -0.022017917 0.013163732 -0.025080169 -0.029093934 -0.023355637 0.06252774

act_conv1.weight f4 [4, 128, 1, 1]
00000000: 777a b03b 24bf 0db3 704b a43b 4eed 50bd
00000010: 4f48 343c 9f08 923c c09f 4c3d da90 9d3c
00000020: f858 903d 911d d9bd 8815 bcbc 773d c63c
00000030: be4c f7bd d4aa 313c 3435 f43c 74d1 40bd
00000040: df81 8a3c d8b6 52bd a900 e83c 8462 0e3c
00000050: 98d1 64bc 8d11 c53c e308 bdbd 63e1 cd3b
00000060: 68db 863c 495f 143d c597 7ebb 2993 0dbd
00000070: 9850 203c 6844 2fbd aa3c bdbc b3e3 2c3d
00000080: 52b4 ec32 cfa4 bb3b 2839 d8bc 4f02 683d
00000090: 2120 88bd 63e4 c2bc 8b01 e7b9 7736 ceb9
000000a0: 33e6 09bd d8bb e7bc 9596 12bd 6b16 34bd
000000b0: 6b3d 423b c4da a5bd a656 36bb 2db5 abbd
000000c0: f52b 933c e5cf 01bd ef4e 183d 3434 053d
000000d0: 52d3 a43b f205 17bd f01f 3fbd 24eb 703d
000000e0: f077 ca2f 53ba d2bd cf0d 96bd 9f24 9fbc
000000f0: b706 a1bd ed23 ec3c f694 253d f4ad 2cb5
00000100: 2991 763d d199 4ebd f742 453d ad82 763a
00000110: 823a e7bc b126 a9bb f7b0 233d 7d80 1b3c
00000120: d804 0fbd 1cca 973d 577c 5a3d ce6e 6abd
00000130: 8e24 e3ba 591a c93b 7059 80bd 2592 b8bc
00000140: ed65 5f3c 005e 233d 7863 393c 2e26 71b4
00000150: af5c c6bc 1dbf 2634 9c14 a9bd faa7 963d
00000160: 31fd 293d 1b88 c13b 7e0b 343c 3564 90bd
00000170: 8793 cb3c b498 683d 71b0 01bd 4bae 1f3d
00000180: 5cd5 09bd 1084 623d c005 fcbc eab3 8c3d
00000190: 273e 3a3c fe52 c53c 7cce f43b 5404 99bd
000001a0: a2d3 e7ba ebf4 d43b 10c6 363c de2b afbd
000001b0: bae9 ec3c a246 803d a7f7 b1bc 6c59 983c
000001c0: 18b9 8332 ea65 223b 14ab fabc 4e77 283b
000001d0: 4775 2bbd ca5d 273d 54be 1e3d 2b86 8e3b
000001e0: e267 a03d 70f5 8abc 62a0 85bc cf11 bbbd
000001f0: de29 4736 8086 3d3d dac1 efb2 4fd2 47bb
00000200: d86d 01bb 284d 5a3d e04d 43bd cd83 3f3d
00000210: f51d 943d 0857 b2bd 37ec 6dbd ef12 9e3d
00000220: d90b 993d 7b90 8fbd 43df 303c 93ba 03be
00000230: 9c4f 9d3c 3a17 da3c 9af1 d03d 392a ef3d
00000240: 8da8 05be f1c8 24bd 0d92 0f3c c255 663c
00000250: 155d 1b3d 8873 8bbd 9d47 c83c 1e79 d4bc
00000260: 756b 603d 0435 eabb 790d abbb 8dda fb3d
00000270: 9bd9 803d 4dac bbbd 865e 48bb 7d5c 65bd
00000280: 1e5e 91bd c554 323d 01b2 a23c 428b 213b
00000290: 2d6d e33d 3c5a b73d ad3b 1e3c d518 2cbc
000002a0: 542f 003d 3778 c0ba 908e b9bc 3a03 873d
000002b0: 7b56 aebd 9099 233d 72ef 29bd 3e85 363b
000002c0: ae66 f5bd e6f2 54bc a17a 743d 9d54 573c
000002d0: 442d 1dbe 8d7b e73d 8594 fb3c a9ff 4fbd
000002e0: c362 7536 04df a63d 8dcd f33b 6447 a73d
000002f0: 4217 b03d 5b51 4e3c 8b7e bcbc 9fa3 0d33
00000300: 2236 c93b 690f b13d db63 b93d f3ea a33d
00000310: 1408 8d3d c251 3fbd 8b72 5fbd 9037 b63d
00000320: f23e e53d 8923 a53d fd2a a13d 37c5 a5bd
00000330: 6bba 15bc 83bb a13c 11e5 bd3d 5bce fd3d
00000340: d7b7 3cbd 0eda b83a 221c ccbc d5e9 c0bc
00000350: 0cb3 8f3d fab5 c034 872c be3d 0f03 85bd
00000360: 1e0c a03d 78c0 a13b 2d56 3e3c 30c4 773d
00000370: 681b 16bd b616 a7bd f74f 3b3d d407 843d
00000380: 494f c13d 56d5 a33c 78bf 61bd 144e 153d
00000390: c345 ee3d 1645 853d 1591 e2bd 159b 043e
000003a0: afeb ac3d a7ae 7fbc ba92 a5bc 42fb 243e
000003b0: 7ccf c1bd 85ef adbb bc05 ca3d ca4f 09bd
000003c0: 95bd 52bb 4101 5a3d 0489 343e 1094 07be
000003d0: 8598 873c 30fa bcbd 5f52 c139 7858 8a3d
000003e0: 0d56 f2bc 54f2 103d 4c3a d73d a3bd c53c
000003f0: 2417 133c f072 d73c 2c9f c73b aa0b 4a3d
0.0053856927 -3.3002962e-08 0.0050138757 -0.05100756 0.011003568 0.017826376 0.049957037 0.01923411
0.070482194 -0.106013425 -0.022959486 0.02419923 -0.12075184 0.010843951 0.029810525 -0.04707475
0.01690763 -0.051443905 0.028320627 0.00869048 -0.013965987 0.02405622 -0.09230211 0.0062829717
0.016462043 0.036223684 -0.0038847786 -0.03456417 0.00978484 -0.042789847 -0.023100216 0.04220934
2.7556016e-08 0.005726434 -0.026394442 0.056642827 -0.06646753 -0.023790544 -0.00044060903 -0.0003933196
-0.0336668 -0.028287813 -0.035788137 -0.043966692 0.0029638659 -0.08098367 -0.0027822643 -0.08384166
0.017965296 -0.031692404 0.037184652 0.032520488 0.005030074 -0.036870904 -0.046661317 0.058817998
3.6828807e-10 -0.10289445 -0.073268525 -0.019426642 -0.07862609 0.028825724 0.040425263 -6.432813e-07
0.06019703 -0.05043966 0.048159566 0.00094036275 -0.02822614 -0.005162083 0.03996369 0.009491083
-0.03491673 0.07411596 0.053341236 -0.057234578 -0.001732962 0.006137174 -0.06267059 -0.022530625
0.013635141 0.039884567 0.011315219 -2.2458764e-07 -0.024214117 1.5529481e-07 -0.08255884 0.07356258
0.041501228 0.0059061176 0.010989068 -0.07050363 0.02485062 0.056786254 -0.03166241 0.038984578
-0.03365074 0.055301726 -0.03076446 0.068702534 0.011367357 0.024087425 0.007470904 -0.07471529
-0.0017686973 0.006498923 0.01115562 -0.08553289 0.028920043 0.06263472 -0.021724535 0.018597327
1.5334578e-08 0.0024779984 -0.030599155 0.0025705877 -0.04185989 0.04086093 0.03875573 0.00434949
0.07832314 -0.016962737 -0.016311828 -0.09134256 2.967768e-06 0.046270847 -2.7911415e-08 -0.0030490344
-0.001974931 0.05329624 -0.04768169 0.046756554 0.07232276 -0.08708006 -0.0580866 0.07718455
0.07472963 -0.07009979 0.010795417 -0.12864141 0.019203 0.026622403 0.10202332 0.11677975
-0.13052578 -0.040230695 0.008762849 0.014058532 0.037930567 -0.06809145 0.02444821 -0.02593666
0.05478998 -0.0071474332 -0.005220112 0.12297545 0.06291505 -0.09163723 -0.0030573918 -0.055996407
-0.070980296 0.043537874 0.01986027 0.0024649655 0.11104808 0.08952758 0.0096577825 -0.010503967
0.031295136 -0.0014684264 -0.022650987 0.06592412 -0.085125886 0.03994137 -0.04148812 0.0027850415
-0.11982475 -0.012997365 0.05968726 0.013142732 -0.15349299 0.11302862 0.030710468 -0.050780926
3.6565332e-06 0.081480056 0.007440275 0.081679136 0.08598186 0.012592639 -0.02300956 3.2977933e-08
0.0061404863 0.086455174 0.09052249 0.080037974 0.068863064 -0.04670883 -0.054552596 0.088973165
0.111936465 0.080634184 0.078695275 -0.08094256 -0.009138684 0.019742733 0.092722066 0.12392875
-0.04607376 0.0014103071 -0.024915759 -0.023549 0.07016572 3.5895192e-07 0.09285837 -0.06494724
0.07814811 0.004936274 0.011617226 0.060489833 -0.03664723 -0.08158629 0.045730557 0.064468056
0.094389506 0.019999187 -0.05511424 0.036451414 0.116344 0.06507318 -0.110628285 0.12949784
0.084433906 -0.015605605 -0.020211566 0.16111472 -0.09463403 -0.005308094 0.09864375 -0.03352336
-0.0032156457 0.053223852 0.17630392 -0.13240075 0.01655222 -0.09227407 0.000368732 0.06755155
-0.029582048 0.035387352 0.10509166 0.024138277 0.008977685 0.026299924 0.006091973 0.04932753

act_conv1.bias f4 [4]
00000000: 7ba8 7dbc acf7 513d 3bce 9d3d a653 91bd
-0.015482063 0.05126159 0.07705351 -0.07096033

act_fc1.weight f4 [36, 144]
00000000: 0a41 0fbd 95f3 6cbd 915b afbd 42d2 b9bc
00000010: c866 08bd b0b0 88bd c838 08bd f2b9 8fbd
00000020: 0c46 b6bd 9c4d c7bd 8d2a 1cbd 347d c3bd
00000030: ff62 f2bd 6ae3 acbd f8c1 c7bd 99f1 5dbd
00000040: 457b 12bd a6e9 f7bc d483 1cbd db30 15bd
00000050: eb93 35bd 9753 01bd c3b9 363c 3173 14bc
00000060: d4c3 42bc 30d0 c4bc f94f aebd 724f 81bc
00000070: d621 3c3c 353f 873c b299 66bc 153a debc
00000080: 240f 5cbc 4537 b6bc 05aa 01bd ce65 3dbd
00000090: 62ae 9b3d 839e a73d b7d5 bd3c d388 833d
000000a0: ca89 343d 7b40 143c 1eff 0ebc bc04 42bd
000000b0: e984 633c 490d a83d df74 463d 0f69 4aba
000000c0: ff7b 7a3d 85a5 973c ff82 223d cc92 0bbd
000000d0: 0ff5 56bd 1713 773d 9343 abbc cdcb 08be
000000e0: eaa8 243d 8431 953d c8ff 3cbb 2a49 4d3d
000000f0: 5074 8cbd 0810 833d b476 5e3c c8d0 c5bd
00000100: b5fa 8e3c ccb4 febc ddd3 783d 2c6b 04be
00000110: 1985 5d3d 1d05 74bd a305 07be 1dc5 2bbd
00000120: f433 d1bc 0bb9 abbd 02aa 5cbd d845 f03a
00000130: e968 bb3c d1b7 1bbd 873d 3ebd 3e7e c3bd
00000140: 4470 fbbd 51af c1bd 1d44 c8bc c7c9 d53c
00000150: 8b6f 05be e213 d7bd 98e1 063c 04c9 98bd
00000160: 96f1 e3bc d7f5 abbd 21ce e03c d7ab 02be
00000170: 823d a6bd 87bc 17bd fe01 5cbd ef69 b4bc
00000180: 0b96 51bd 374e 3a3c 3774 7ebb f69c 21be
00000190: dc5e 1c3c 5c8e 6a3c 400a be3b d5bb 37bd
000001a0: 157b 1cbd 0dae 04be 1105 93bd 940e 2abd
000001b0: ee4e 70bd c1a1 5bbd e706 e6bc d7ae b1bd
000001c0: 6e04 edbd fa2c 903c 1262 053d dac0 cebb
000001d0: feeb 9b3c 2530 8abd 33dc 32bd 9e13 363d
000001e0: 14a7 cabc d1fe 19bd bf53 bdbb 0686 533d
000001f0: c876 d5bc ae37 8bbd a306 7bbb fb92 553d
00000200: 0456 0cbb d549 77bc fae0 8c3c 2b8e 4f3d
00000210: 9d89 e33c fcf0 a33c 94b9 fc3c 89e4 c9bc
00000220: 603f a1bd 7942 41b8 4e03 8b3d ef2a a83c
00000230: fcff 2abd 1d0c 043d 54fd 503a 7b7d 91bb
00000240: b696 f4bc e4f7 91bc d903 b53c 60a5 15bd
00000250: 29a8 e9bc 4793 d7bc 6e66 c2bc cc1e d3bc
00000260: d8ea 5bbc 5621 7fbc 0006 bcbc 9544 f2bc
00000270: d31c 56bc 97bc 16bc fc09 95bd d670 c6bc
00000280: 730f 7e3c f72b fb3a c402 3ebd 71bd 98bc
00000290: 0f55 ad3c 0024 a2bb acab 76bd 9797 71bd
000002a0: eb0a 813c 3907 29bd da91 713c fec7 893c
000002b0: fc79 ffbb 50db 4fbd d920 2fbc 9347 a43c
000002c0: 5a0b b73c d0b4 cebc 8659 2f3b cd01 13bd
000002d0: f58c a1be d237 90bc 2424 00be 31a7 153e
000002e0: 8257 a83d 784d 4c3e bc2e 42bd fa67 0f3e
000002f0: ddd3 08be 983e 5cbd a9b5 adbd 85b9 c13c
00000300: 7536 a9bd 45d8 39bd 5de6 febc 1ec9 02be
00000310: 0c85 f8bc 970d bdbd e921 c03a fb23 e33c
00000320: 62a0 4dbd ab90 a7bd 3abc 85bd 43a5 33bd
00000330: 760e b7bc e35a 0bbe e343 e6bc c6a2 9eba
00000340: e449 15bc 5f75 e3bd 2b93 e43c 58ca e1bb
00000350: 821b 2ebe 19b4 9e3c 9b06 c5bd e3fc dbbc
00000360: a418 263e c87b 453e b681 663d e4c4 8b3d
00000370: 55bc c53d 7ea7 1d3e ca1f 41bd 8194 f5bc
00000380: 16aa 963d 0ea6 e33d af89 5b3d 25c7 69bc
00000390: 0740 8c3d d2f3 573d 914a 2dbc 1dd5 c33c
000003a0: daff 103c 3b37 24bd 6123 5c3d 5631 693d
000003b0: 9225 c3bc 2f96 d1bc b112 003d 3300 fdbc
000003c0: e681 b33d cde0 8d3d caae 9b3c 7791 7b3d
000003d0: cbb6 fb3b c995 06bd 94de 733d 5055 54bc
000003e0: 0c9a 8bbd c74a 88bc 6727 5e3d 952c a3bd
000003f0: 0570 d63b e553 47bd 4bd4 d8bc 7aba 7dbd
-0.034974135 -0.057849485 -0.08562387 -0.022683267 -0.033301145 -0.066743255 -0.033257276 -0.07017888
-0.08900079 -0.097316 -0.038126517 -0.09545365 -0.11835288 -0.08441813 -0.097537935 -0.054185484
-0.03576209 -0.03026278 -0.03821166 -0.036423545 -0.04433052 -0.031573858 0.0111526875 -0.009060667
-0.011887509 -0.024025053 -0.08511347 -0.015784953 0.0114826765 0.016509632 -0.01407473 -0.027127305
-0.013431344 -0.022243151 -0.031656284 -0.046239667 0.0760162 0.081845306 0.023173196 0.064225815
0.04407672 0.0090485765 -0.008727817 -0.047367796 0.013886669 0.08205659 0.0484513 -0.00077213434
0.06115341 0.018511543 0.03967571 -0.034075543 -0.0524798 0.06032094 -0.020906245 -0.13358994
0.04020015 0.07284835 -0.002883898 0.050118603 -0.06858122 0.06399542 0.013578106 -0.096589625
0.01745353 -0.03109207 0.060748924 -0.12931508 0.05408201 -0.05957519 -0.13185744 -0.04193603
-0.025537468 -0.083849035 -0.05387307 0.0018331362 0.022877173 -0.038017098 -0.046445396 -0.09545563
-0.12277272 -0.09457267 -0.024446541 0.026097191 -0.13030832 -0.10501839 0.008232497 -0.07460216
-0.027825158 -0.083964996 0.02744204 -0.12760864 -0.081172004 -0.037045028 -0.053712837 -0.02202317
-0.051168483 0.011371187 -0.0038826594 -0.15782532 0.009544101 0.014316168 0.0057995617 -0.044856865
-0.038203318 -0.1295702 -0.07178701 -0.04151781 -0.058669023 -0.053621057 -0.028079463 -0.08675926
-0.115731105 0.017599571 0.03256423 -0.006309611 0.019033428 -0.06747464 -0.04366703 0.044452302
-0.024737872 -0.037596527 -0.0057778056 0.051641487 -0.026057616 -0.067977294 -0.0038303516 0.052142125
-0.0021413574 -0.0150932865 0.017197121 0.05067269 0.02777558 0.020012371 0.03085021 -0.024645107
-0.07873416 -4.6076693e-05 0.0678774 0.020528285 -0.041748032 0.032238115 0.0007972319 -0.0044400073
-0.02985702 -0.017818399 0.022096561 -0.036534667 -0.028522568 -0.026315344 -0.023730483 -0.025771521
-0.01342269 -0.015571913 -0.02295208 -0.029573718 -0.013068396 -0.009200237 -0.07277295 -0.024223726
0.015506613 0.0019162883 -0.046389356 -0.01864502 0.021158723 -0.004948139 -0.060222313 -0.058982458
0.015752276 -0.041266654 0.014744246 0.016818997 -0.007796524 -0.050746262 -0.010688984 0.02005366
0.02234428 -0.025232702 0.002675624 -0.03589039 -0.31552854 -0.017604742 -0.12513787 0.1461456
0.08219816 0.19951427 -0.04740785 0.14004508 -0.1336207 -0.05377063 -0.084819146 0.023648033
-0.0826234 -0.045372266 -0.031115705 -0.12772033 -0.03033688 -0.09231108 0.0014658544 0.027727118
-0.05020178 -0.0818189 -0.06530042 -0.043858778 -0.022345763 -0.1360889 -0.028108543 -0.0012102954
-0.009111855 -0.11106371 0.027902206 -0.0068905763 -0.17002681 0.019372987 -0.096204005 -0.026853984
0.16220337 0.192855 0.056276046 0.06824663 0.09655062 0.15395924 -0.047149457 -0.029978039
0.0735666 0.11115657 0.053598102 -0.014268671 0.0684815 0.05272276 -0.01057686 0.023905331
0.008850062 -0.040091734 0.053744677 0.056931816 -0.023821626 -0.025584308 0.031267826 -0.030883884
0.087650105 0.06927643 0.019004244 0.061418023 0.0076817027 -0.03285769 0.05953844 -0.012959793
-0.068164915 -0.01663722 0.054236796 -0.07967488 0.0065441155 -0.048663992 -0.026468417 -0.061945416

act_fc1.bias f4 [36]
00000000: b219 ebbc e6af 0c3d 68fd 82bc 9ef2 80bd
00000010: 1574 b0bb 4ccb 90bd 7dc9 bebd f450 4cbc
00000020: 5d25 1d3d 2341 1bbd 271c d8bc 4ea0 d93c
00000030: 4675 9b3d 85fc 303d 89b6 5d3c fa9e 81bc
00000040: 3921 bf3c 1b3d 8a3d 8547 0e3d c4bd 013d
00000050: 26c2 10bd 2f93 3b3d 1c10 983c c634 a33d
00000060: b87a 4fbd 3247 4fbd e1f6 df3d 91c4 5dbd
00000070: 5e94 2a3d aaad b6bb 17ca edbd f5d2 833c
00000080: ffd0 533c dcb5 4e3a 822e e43b 46d6 403d
-0.028698776 0.034347437 -0.015989974 -0.062962756 -0.005384932 -0.07070026 -0.093157746 -0.012470473
0.03836571 -0.037903916 -0.026380612 0.026565697 0.075907275 0.04320957 0.013532289 -0.015822876
0.023331271 0.06749936 0.034736175 0.031675115 -0.035341404 0.045794662 0.018562369 0.0796905
-0.050654143 -0.050605007 0.1093576 -0.05414254 0.0416454 -0.0055749016 -0.11610811 0.016091803
0.0129282465 0.00078853755 0.006963552 0.047079347

val_conv1.weight f4 [2, 128, 1, 1]
00000000: aa8b b4bd 9465 1dbc f3d0 b53d 99a6 2bbd
00000010: 54d8 933d 93d9 cabd d0d2 863d b9dc c03c
00000020: f73e 773d 113a ae3c e510 353d 02cb 97bc
00000030: 1434 ed3c 5c05 b13d c706 e73d e6fe 92bd
00000040: a376 a23d 3d14 5cbd 5b93 4d3d 2839 383d
00000050: 7392 40bd a554 b73c ecd2 df3c a27c 883d
00000060: 07ed 273d f947 5a3d 4bf6 8ebd 1eb3 853c
00000070: bed1 0fbd 3687 b13d 5a53 093d cd43 233d
00000080: 4f54 95bc ff91 623d 029e e1bc 7876 77bd
00000090: eec1 9f3d 07b5 d43d 90cd b23d 542b b23d
000000a0: eece adbd d881 80bc e8a7 953c 46d8 c63c
000000b0: 4674 eabd 5148 d83c 3105 abbc 3bf3 323d
000000c0: de62 f6bd 85a2 07bc 44fe debc 2807 403d
000000d0: 8a18 753c f36b b53d 2449 303d fa3f ab3d
000000e0: 384d 0030 a560 213d 93db 8d3d d6be 773d
000000f0: d282 193c 0fa4 843d ecba b33d 08b1 80bc
00000100: 509d 80bc 95cd be3c fac4 973d a8cd 073d
00000110: 628d b2bd 4412 b03a 63a2 683c 5e93 9e3d
00000120: 5e57 833d 5ae1 dd3d a792 773d 3d65 28bd
00000130: c615 24bd 1ca0 f0bd e5f7 abbb 2f71 f23d
00000140: 43cb 53bd 3dd8 823a 206f 0cbe c0ac 3bbc
00000150: a7c5 6cbd 99e2 aa33 b870 92bd 344f df3d
00000160: 2e7a e63d 7bb5 d7bd 32e2 1d3d 7dd5 213c
00000170: 2fc8 88bc f0e2 923d a040 64bd 65f4 863c
00000180: ec99 5b3c 6ea8 f0bd af46 583d 27f4 843b
00000190: 75dd 4cbd ac77 b1bd 500b 063d 50ee d6bc
000001a0: 08f0 2dbc 0c35 83bb 0fb5 853d 8c64 083d
000001b0: f856 7a3d e5c1 0ebd 78a9 aa3d 099c 8a3d
000001c0: af6b e735 3abf 453d bc2c cf3d a6f1 16be
000001d0: e8bc a43d 8148 0b3c 6c4e 1e3c c66d 09bd
000001e0: d024 463d 1f2b c4bd 9f14 3a3d 320e 593d
000001f0: f4bc 603c 2522 4d3d f7de 8cbb cb5a 683c
00000200: 91aa bd3c 5b50 ee3c e996 6fbd 9b7e 9dbd
00000210: 9f38 8bbd 8ef1 863d cd96 253d 5ec9 873d
00000220: b434 1b3d 4723 d23b 77a3 4dbb 74dd 783d
00000230: 0069 18bd 2ce3 a1bb f67d a0bd 403b e2bd
00000240: cfef 6abd 14b9 093d 826f b43c c609 39bd
00000250: fa94 f23c 2c6a bb3c 00df 4c3c 8d77 5b3d
00000260: 9199 26bb 1b0c 7fbc 2245 bbbc eef8 c1bd
00000270: b2c3 34bd 8f42 c5bc ba8d a03c 6e4d 3e3d
00000280: e778 ac3a 44e2 473d 8812 993c 06ab 163c
00000290: 067d 153c 48f6 19b9 208b a8bd 851a 8dbd
000002a0: 55cd fd3c 858b 233d c6a5 843d be2e 423c
000002b0: d847 6f3d b8c4 ebba c6d2 9a3d c0ac a03c
000002c0: 8625 0e3d 015d 4ebb d6fa b8bd cf40 8ebd
000002d0: 3260 863d bae2 acbc a964 ec3c 5b62 b2ba
000002e0: 760a 39b8 ef1b 5cbd 582c 95bb 4bee 633d
000002f0: 4413 f23c bdce e13b 3a24 5cbd 0829 063b
00000300: 916d a43c ed6f 023d f2ac e6bd 0c51 b0bd
00000310: 0ba1 0e3d 195e 35bd 088c f7bc f75a 55bd
00000320: 6b87 2bbd 7e7a 0ebe 0976 5cba 66a8 303c
00000330: 1ccd 443d deae 2bbc 4ab6 513d a467 a9bd
00000340: 742b ee3b 68f4 70bd e27d c1bc 828f 03bc
00000350: fb87 1e3d b074 7436 c6df aa3b 4cf1 9fbd
00000360: 3328 82bd 50eb 8d3d f9c5 7bbd 8f1c 3ebd
00000370: 4c29 933c 6c52 72bb 6788 a83d 8299 df3c
00000380: ed53 abbd f552 68bc ed9d 073d 0534 c0bd
00000390: 15fc b2bd 18ba 953d c188 943d ea2e bd3d
000003a0: 01ad 04bc f4a6 82bd 6960 b73d 968d b03c
000003b0: d8bd c43d 4f7a 9c3b 7b73 06be 61f3 aebc
000003c0: 107d 43bc ccb2 abbd 2e11 85bd fbb3 12bd
000003d0: ee8d a33d 177b 2fbd 3e17 c0bb ef30 5cbd
000003e0: fc6b 6abd 6b92 a6bc 3044 333c a575 1a3d
000003f0: 780d c1bc 23d7 8abd 1e6f 7c39 22c7 c1bb
-0.08815701 -0.009606738 0.088777445 -0.041906927 0.07218996 -0.0990478 0.06583178 0.023542749
0.060362782 0.021267923 0.044205565 -0.018529419 0.028955497 0.086436 0.112805896 -0.07177524
0.079327844 -0.05373024 0.050189357 0.044976383 -0.047014665 0.022379229 0.027322255 0.06664397
0.04099753 0.053291295 -0.069805704 0.016320761 -0.035112135 0.086683676 0.033526756 0.03985958
-0.018228678 0.055315014 -0.027541164 -0.060415715 0.07800661 0.10386091 0.08730614 0.086996704
-0.08486734 -0.015686914 0.01826854 0.02427305 -0.11447959 0.02640167 -0.020876499 0.043688994
-0.12030576 -0.008278494 -0.027220853 0.046881825 0.014959464 0.0885848 0.043038502 0.08361812
4.6675863e-10 0.039398808 0.06926646 0.06048473 0.009369569 0.06476604 0.08775887 -0.015709415
-0.015700012 0.023291389 0.07410617 0.033155113 -0.08718373 0.0013433178 0.014198872 0.07742952
0.06413148 0.10833998 0.060442593 -0.041112173 -0.040059827 -0.117492884 -0.005248057 0.11837994
-0.051707517 0.0009982657 -0.13714266 -0.011454761 -0.057805683 7.95746e-08 -0.07150406 0.10903779
0.11253773 -0.105326615 0.038545795 0.00987756 -0.016697017 0.07172191 -0.055725694 0.016473958
0.013403397 -0.117508754 0.052801784 0.0040574255 -0.050015885 -0.08665404 0.032725632 -0.026236683
-0.01061631 -0.0040041264 0.06528675 0.033299014 0.061118096 -0.03485288 0.08333105 0.067680426
1.7242181e-06 0.04827807 0.10115954 -0.14740619 0.080438435 0.008501173 0.009662252 -0.033551954
0.04837495 -0.09578537 0.045429822 0.052992053 0.013716925 0.05008139 -0.0042990404 0.014181803
0.023152621 0.02909105 -0.05849353 -0.07690164 -0.06797909 0.06589042 0.040427018 0.066302046
0.03789206 0.006412897 -0.003137795 0.06075807 -0.03720951 -0.004940411 -0.07836525 -0.11046457
-0.057357606 0.03362377 0.022025827 -0.045175336 0.029612053 0.022877775 0.012504339 0.05358081
-0.0025421123 -0.015566851 -0.022860114 -0.09471308 -0.044131942 -0.02407959 0.01959883 0.04646056
0.001315859 0.048799768 0.018685594 0.009196049 0.009124046 -0.00014682964 -0.08229661 -0.06889824
0.030981699 0.039927978 0.06476931 0.0118519645 0.058418125 -0.0017987704 0.07559733 0.019613624
0.034703754 -0.003148854 -0.09032218 -0.06945955 0.065613165 -0.021104205 0.028856592 -0.0013609634
-4.411718e-05 -0.053737577 -0.0045524053 0.055647176 0.029550202 0.0068911 -0.053745486 0.0020471234
0.020071777 0.031845022 -0.112634555 -0.086092085 0.03482155 -0.04427919 -0.03021814 -0.052088704
-0.04187719 -0.13913915 -0.00084099226 0.010782337 0.04804717 -0.010478703 0.051199235 -0.08271721
0.0072683636 -0.058826834 -0.023619596 -0.00802982 0.0387039 3.6426754e-06 0.005214664 -0.078096956
-0.06355324 0.06929648 -0.0614681 -0.046413954 0.017964028 -0.0036975397 0.08229142 0.027294878
-0.08365617 -0.014179935 0.033109594 -0.09384922 -0.08739487 0.07310885 0.07252646 0.09237464
-0.008097888 -0.063795 0.08953936 0.021551888 0.09606522 0.0047753225 -0.1312999 -0.021356286
-0.011931673 -0.08383712 -0.064974174 -0.035816174 0.07986055 -0.042841997 -0.0058621457 -0.053757604
-0.05723189 -0.02033349 0.01094155 0.03770985 -0.023565993 -0.06779315 0.00024073987 -0.005913631

val_conv1.bias f4 [2]
00000000: db92 4f3d 5b56 a83d
0.05067716 0.08219596
