models/Training/AC_nmcts20/train_004.pth (torch, 424031 bytes, 15 tensors)

conv1.weight f4 [32, 5, 3, 3]
0	0x3db81db1	0.08990038
1	0xbdb2b871	-0.08726586
2	0xbd8b4cde	-0.06801771
3	0x3e11c6eb	0.14236037
4	0xbe1cc187	-0.153082
5	0x3caf6c9d	0.021414096
6	0x3d96e744	0.07368329
7	0xbda2cab5	-0.079488195
8	0x3c818bf1	0.0158138
9	0xbcbdb90a	-0.023159523
10	0xbc8bb5ad	-0.017054403
11	0x3dec7d5f	0.1154735
12	0x3de37fc9	0.111083575
13	0xbd6d7b57	-0.057978954
14	0x3da3da2d	0.08000598
15	0x3ce325f8	0.027728066
16	0x3bf50d77	0.007478412
17	0x3ddcc531	0.10779799
18	0x3d2871be	0.041124098
19	0xb9bfc641	-0.0003657807
20	0xb989e654	-0.00026302284
21	0x3d011407	0.03151324
22	0xbc7b39e1	-0.015333624
23	0xbd5855d3	-0.052816223
24	0xbd668aa7	-0.056284573
25	0x3b2de06c	0.002653147
26	0xb8d096ee	-9.946326e-05
27	0x3dffa02e	0.12481724
28	0x3d87c451	0.06629241
29	0xbdc3ffc6	-0.09570269
30	0xbde8c266	-0.113652036
31	0xbd08c59c	-0.03339158
32	0xbc0faf47	-0.008769817
33	0x3d59daa8	0.053187042
34	0xbdae0a99	-0.08498115
35	0x3db3e7c3	0.087844394
36	0xbb3f3ad5	-0.0029179354
37	0xbd06cff0	-0.03291315
38	0xbc481a6a	-0.012213329
39	0x3beb73c3	0.0071854307
40	0xbd88559e	-0.06656955
41	0x3c07dabf	0.008291899
42	0x3a2fc87a	0.00067055936
43	0xbcb62c02	-0.022237781
44	0xbd5d4417	-0.054020014
45	0xbcbb184d	-0.022838736
46	0x3de3f6a6	0.11131029
47	0x3d9dd0ac	0.077058166
48	0xbd6480d2	-0.055786915
49	0x3cec2c51	0.028829725
50	0xbd81e6ff	-0.06342887
51	0x3e23d56b	0.15999381
52	0x3dda05f8	0.1064567
53	0x3e2a5646	0.16634473
54	0x3dcbdde4	0.09954432
55	0xbe045e48	-0.1292659
56	0xbd6d30cc	-0.057907864
57	0x3dd5dc41	0.10442401
58	0x3dd7b4f0	0.10532558
59	0x3d7df21b	0.061998468
60	0xbd315e6b	-0.043302935
61	0xbd2e316e	-0.04252761
62	0x3dfac3b0	0.12244356
63	0xbd240ae0	-0.040049434
64	0x3cfdae86	0.030967008
65	0xba3e6a82	-0.00072637957
66	0xbdacc25c	-0.084355086
67	0x3ab11f53	0.0013513364
68	0x3a907271	0.0011020434
69	0xbdabefc5	-0.08395342
70	0x3c4639e8	0.012098767
71	0xbd149077	-0.036270585
72	0xbda2a081	-0.0794077
73	0x3dfad8cf	0.12248384
74	0xbe02c999	-0.12772216
75	0x3cd798d1	0.026317986
76	0xbdbeeb45	-0.09322218
77	0xbdba3ce8	-0.09093648
78	0xbd55c712	-0.0521918
79	0x3df1f4f1	0.11814297
80	0x3d09053d	0.03345226
81	0xbc83262c	-0.016009413
82	0x3de087be	0.10963391
83	0xbce45f56	-0.027877491
84	0xbb83ecf9	-0.004026052
85	0x3d21a124	0.039460316
86	0xbdc188f8	-0.09449953
87	0x3d34674a	0.044043817
88	0x3da59b17	0.08086222
89	0x3ca8770c	0.020564578
90	0xbdd20be3	-0.102561735
91	0x3d8e8b59	0.06960172
92	0x3dc158a6	0.094407365
93	0x3bff8c5c	0.0077987146
94	0x3d1bcee7	0.038039114
95	0x3e2683b0	0.16261172
96	0xbe0a28b7	-0.13492094
97	0xbe105d99	-0.14098205
98	0xbb5c909f	-0.0033655537
99	0xbdb5aaee	-0.08870493
100	0xbc1c7243	-0.0095487265
101	0xbd29127d	-0.041277397
102	0x3c8d7b88	0.017270818
103	0xbc5930ca	-0.013256261
104	0x3d1bf3aa	0.038074173
105	0x3e21f55c	0.15816253
106	0x3c79550e	0.0152180325
107	0x3da335a2	0.07969214
108	0xbd70cdbf	-0.058789965
109	0x3d493a62	0.049127944
110	0xbc8ade8c	-0.016951822
111	0xba46086a	-0.00075543544
112	0x3d982329	0.07428581
113	0xbddca3ad	-0.10773406
114	0xbc9c707b	-0.019096604
115	0xbc995b0b	-0.01872017
116	0x3b9ad45c	0.0047250222
117	0x3d07b59d	0.033132184
118	0x3c1df77c	0.009641524
119	0xbdf2076b	-0.11817821
120	0xbd903b83	-0.07042601
121	0xbc88f02f	-0.016716091
122	0x3d4c61f2	0.049898095
123	0x3d0f29fa	0.03495214
124	0x3c032bfc	0.008006092
125	0x3d0d416e	0.034486227
126	0xbd509841	-0.05092645
127	0x3db0abb1	0.086264975
128	0x3ce7fa50	0.0283176
129	0xbddb6bad	-0.10713897
130	0x38341658	4.2936153e-05
131	0xbdd59a94	-0.10429874
132	0xbd9c9dd9	-0.076472946
133	0xba80c363	-0.0009823855
134	0xbc1d1ca1	-0.009589345
135	0x3dd3ee56	0.10348193
136	0xbdf15972	-0.117846385
137	0xbd43470a	-0.04767517
138	0x3d2df83a	0.042473055
139	0x3ce0c0fd	0.027435774
140	0x3cae4569	0.021273332
141	0x3df2bae6	0.11852054
142	0x3e11ae77	0.1422671
143	0x3e005518	0.1253246
144	0x3d6ff19d	0.05858003
145	0x3d6b8090	0.057495654
146	0xbd7c292c	-0.061562702
147	0x3d09faa6	0.033686303
148	0xbe038eae	-0.12847397
149	0xbe12d5ed	-0.14339419
150	0x3e011e47	0.12609206
151	0x3d96ff40	0.07372904
152	0xbd7a9bd7	-0.061183777
153	0xbd7278ea	-0.059197344
154	0xba66b033	-0.00088000594
155	0xbd257f7c	-0.04040478
156	0xb99561a3	-0.0002849224
157	0xbd54d003	-0.051956188
158	0xbd36ca47	-0.0446265
159	0xbca103a9	-0.019655066
160	0x3cd78c66	0.026312064
161	0xbd9f50a7	-0.07779055
162	0x3d9368f7	0.07197755
163	0x3e1767f3	0.14785747
164	0x3dd82801	0.10554505
165	0xbe134c83	-0.14384656
166	0x3e06e91e	0.13174865
167	0x3d14f5f2	0.036367364
168	0x3d994ff4	0.07485953
169	0x3d6e1c1d	0.05813228
170	0x3d22f655	0.0397857
171	0x3dd60ecf	0.10452043
172	0x3d4e3204	0.050340667
173	0xbd5aa615	-0.053381044
174	0xb91111f7	-0.0001383497
175	0x3d4af371	0.04954857
176	0x3c98308e	0.01857784
177	0x3bd9e0aa	0.0066490965
178	0x3dc989e0	0.09840751
179	0xbab3dbbc	-0.0013722102
180	0x3dd41b5c	0.10356781
181	0xbd0ac47c	-0.03387879
182	0x3db4f412	0.08835615
183	0x3d3665d9	0.044530723
184	0x3c95dbbd	0.018293256
185	0x3cdd2741	0.026996257
186	0x3d22c506	0.039738677
187	0x3cf31e81	0.029677631
188	0xbe031f4b	-0.12804906
189	0x3dfb6715	0.12275521
190	0xbe039e39	-0.12853326
191	0x3de4cd3a	0.11171956
192	0x3dbb7369	0.09152872
193	0x3d4c4b25	0.04987635
194	0x3dad0dd3	0.084499024
195	0x3dd135f7	0.10215371
196	0x3ccb0c04	0.024786003
197	0xbe0bc488	-0.1364919
198	0x3ccd7cc8	0.025083914
199	0x3b96d322	0.0046028057
200	0x3d80ed87	0.06295305
201	0xbde128c8	-0.109941065
202	0xbd7307fd	-0.05933379
203	0x3b1dad6e	0.002405967
204	0xbd9253c0	-0.0714488
205	0xbd4a744c	-0.049427316
206	0xb955aeb1	-0.0002037834
207	0x3def9d3c	0.11699912
208	0xbc8292f9	-0.015939223
209	0x3dfab1ce	0.12240945
210	0x3c7a3762	0.015271993
211	0x3d4c2753	0.04984219
212	0x3e0fcb90	0.14042497
213	0x3df7a801	0.12092591
214	0x3d0454f0	0.032307565
215	0xbc070dff	-0.008243083
216	0xbc040101	-0.00805688
217	0x3c9de80c	0.019275688
218	0xbb3f7b95	-0.0029217948
219	0x3d72c57c	0.059270367
220	0x38b860ca	8.791832e-05
221	0x3b58cda4	0.0033081556
222	0x3d10b350	0.035327256
223	0xbd84674d	-0.064650156
224	0x3ddac099	0.10681266
225	0x3dc2e60a	0.09516533
226	0x3ddd5b7b	0.10808464
227	0x3e028f98	0.12750089
228	0x3ddc18c1	0.10746909
229	0xbe001a40	-0.12510014
230	0xbd30ea5a	-0.043192245
231	0x3e06d625	0.13167627
232	0x3e1e4eb6	0.15459713
233	0xbe056443	-0.13026528
234	0x3df2ac8e	0.118493184
235	0x3d9a6868	0.07539445
236	0x3d02f563	0.0319723
237	0x3d20f830	0.03929919
238	0xbd856e80	-0.06515217
239	0xbc978364	-0.01849527
240	0x3d6aae97	0.057295408
241	0xbe037e07	-0.12841044
242	0xbd7cef44	-0.06175162
243	0xbdb7632f	-0.08954465
244	0xbd02054a	-0.031743325
245	0x3da2b2f6	0.0794429
246	0x3a7c9e81	0.0009636656
247	0xbdacf3e0	-0.08444953
248	0xbd4fb666	-0.050711058
249	0xbd02a295	-0.03189333
250	0xbd82626f	-0.06366431
251	0x3d35f6da	0.04442487
252	0x3d0f138d	0.034930754
253	0x3d127140	0.035752535
254	0x3ca5b5c1	0.020228269
255	0x3d0eea76	0.034891568

conv1.bias f4 [32]
0	0x3ddb549a	0.10709496
1	0x3d307cd2	0.043087788
2	0xbc952ff9	-0.018211352
3	0x3e0e27d9	0.13882388
4	0xbd61ac3c	-0.055095896
5	0xbe0d4ee7	-0.1379963
6	0x3c86d57c	0.01645922
7	0x3de625ae	0.112376556
8	0x3d7f0fac	0.062270805
9	0xbda7e39e	-0.081977114
10	0x3e20eb2c	0.15714711
11	0xbd436bb6	-0.047710143
12	0x3e08dfc0	0.13366604
13	0x3e04cf58	0.1296972
14	0xbd62b25a	-0.05534587
15	0xbc983737	-0.018581016
16	0xbc81ac54	-0.015829243
17	0xbd9c107e	-0.07620333
18	0xbd8fe8d2	-0.07026829
19	0x3e076c80	0.13224983
20	0xbca9f997	-0.020748897
21	0x3d72714d	0.059190083
22	0xbaa54557	-0.0012609166
23	0xbd418c02	-0.047252662
24	0xbdd9ffdd	-0.10644505
25	0x3dca208e	0.098694906
26	0xbde6dbd4	-0.11272398
27	0x3e15ff9e	0.14648291
28	0x3e0f9261	0.14020683
29	0xbd6625af	-0.05618828
30	0xbdab9207	-0.08377462
31	0x3dd1c36a	0.102423504

conv2.weight f4 [64, 32, 3, 3]
0	0xbcb75577	-0.02237962
1	0x3d4a98cc	0.049462125
2	0x3ced349a	0.028955746
3	0x3cd4e142	0.025986318
4	0xbce53810	-0.027980834
5	0xbce8cd90	-0.028418332
6	0xbd003448	-0.03129986
7	0x3d3974a8	0.045277268
8	0xbbca8b59	-0.0061811623
9	0xbca3fdbc	-0.02001845
10	0xbd0513d5	-0.032489616
11	0xbca782cb	-0.02044811
12	0x3d6c6097	0.057709303
13	0x3d6e8806	0.05823519
14	0x3d871f0f	0.06597721
15	0x3d513f6e	0.051085882
16	0x3cd1e138	0.025620088
17	0x3d2df1b6	0.04246684
18	0xbd847c59	-0.0646903
19	0xb9d53bf2	-0.0004067119
20	0xbbb23c51	-0.005439319
21	0x3c1fbf5e	0.009750215
22	0x3c0ef05a	0.008724296
23	0x3c1dcbe4	0.009631131
24	0x3cf73c7b	0.030180207
25	0x3b84574d	0.0040387274
26	0xbd34cdee	-0.044141702
27	0xbd5207bb	-0.051276904
28	0x3b40071a	0.0029301108
29	0x3d0dada7	0.034589436
30	0x3c6ffde0	0.014647931
31	0x3b426a04	0.002966524
32	0x3c07bd66	0.008284902
33	0x3d396eba	0.045271613
34	0x3ce8481d	0.028354699
35	0x3d9914b3	0.07474651
36	0x3be572e4	0.0070022214
37	0x3d7b8528	0.061406285
38	0xbcf8f85b	-0.030391863
39	0x3bbbe4a7	0.0057340446
40	0x3d301ff2	0.042999215
41	0xbc498589	-0.012299904
42	0x3ba35287	0.0049842033
43	0x3c972492	0.018450055
44	0xbbf388b5	-0.007432068
45	0xbd7ba69a	-0.06143818
46	0x3c5f3183	0.013622644
47	0x3bdbccc8	0.0067077614
48	0xbd38de60	-0.04513395
49	0xbc1eeb95	-0.009699722
50	0x3c5451e1	0.012958975
51	0xbc67d93c	-0.014150914
52	0x3d53219e	0.05154573
53	0x3c6ea2b3	0.014565158
54	0xbc5e5159	-0.0135691995
55	0xbb35fad5	-0.0027767916
56	0xbd664fc7	-0.056228425
57	0xbc04ebf7	-0.008112899
58	0x3cb865ca	0.022509474
59	0x3c4cbbee	0.012495978
60	0x3d157e87	0.03649762
61	0xbc8cbdb3	-0.0171803
62	0xbaffa684	-0.0019504582
63	0x3cbbac47	0.022909297
64	0xbcc0ef81	-0.023551704
65	0x3d6c8209	0.0577412
66	0xbd37573b	-0.044760924
67	0x3d955c7c	0.072930306
68	0x3c9429c0	0.018086314
69	0x3d85079f	0.06495594
70	0xbbe53f7a	-0.0069960924
71	0x3c0f26e3	0.008737299
72	0xbd90f020	-0.0707705
73	0x3b821766	0.0039700745
74	0x3d01349b	0.03154431
75	0xbd4e96fa	-0.05043695
76	0x3d3159e0	0.043298602
77	0xbd4899c8	-0.048974782
78	0x3c4edee7	0.012626386
79	0x3d12776a	0.035758413
80	0x3d6c5c0b	0.057704967
81	0x3cb19d25	0.021681378
82	0xbcf9ede4	-0.030508943
83	0xbc5a9964	-0.013342235
84	0x3d09d6f3	0.033652257
85	0xbd87cf38	-0.06631321
86	0xbcc54237	-0.024079425
87	0x3d8ae25a	0.067814544
88	0x3d09474c	0.03351526
89	0xbc65a9df	-0.014017551
90	0xbce9dc8b	-0.028547546
91	0x3d12cc21	0.035839204
92	0xbd55ab8f	-0.052165564
93	0xbd34dfd9	-0.04415879
94	0xbcb94c71	-0.022619458
95	0xbd3827aa	-0.0449597
96	0xbc7bf7b6	-0.015378883
97	0xbad590d4	-0.0016293772
98	0xbc2fd08c	-0.010730874
99	0xba34518b	-0.0006878606
100	0x3d78706b	0.060654085
101	0xbbc3fbf2	-0.005980962
102	0xbd6fd0c6	-0.05854871
103	0x3c4fd2df	0.012684553
104	0x3d20f21e	0.0392934
105	0x3cf334ad	0.029688204
106	0x3d694f06	0.05696013
107	0xbd0a8bcc	-0.033824727
108	0xbd59a1e8	-0.05313292
109	0xbc23afbd	-0.00999063
110	0xbd63e88b	-0.055641692
111	0xbc2e2c9b	-0.010630752
112	0x3d7a2442	0.061069734
113	0xbd5ad74c	-0.05342798
114	0xbd050861	-0.032478694
115	0xbb6709e2	-0.0035253693
116	0x3d0342b3	0.03204603
117	0xbd407750	-0.046988785
118	0xbd05f91f	-0.032708284
119	0x3d14d60e	0.03633695
120	0xbd4f2beb	-0.050578993
121	0x3d5a9c72	0.053371854
122	0x3c672154	0.014107067
123	0xbd0533d9	-0.03252015
124	0x3d11503e	0.035476916
125	0x3ceaede7	0.028677894
126	0xbd18fde9	-0.037351523
127	0xba53d7ae	-0.000808115
128	0xbd8ac4a5	-0.06775788
129	0xbd067769	-0.032828722
130	0x3b307391	0.0026924352
131	0x3d22acb1	0.039715473
132	0xbd1ab410	-0.037769377
133	0x3c25bc21	0.010115654
134	0x3d43079e	0.047614686
135	0xbc7a8eab	-0.015292804
136	0xba264118	-0.0006342097
137	0xbca773dd	-0.02044099
138	0xbd675673	-0.05647893
139	0x3c024ab1	0.007952378
140	0x39b86171	0.00035167814
141	0xbc470c5f	-0.012148946
142	0xbcf48b3a	-0.029851545
143	0xbd1dd24c	-0.038530633
144	0x3d72304e	0.0591281
145	0xbd30801b	-0.04309092
146	0xbd4b80a3	-0.049683224
147	0xbc518185	-0.0127872275
148	0xbd1ab0c3	-0.03776623
149	0xbd2f1dd1	-0.042753045
150	0x3c8b68e7	0.017017795
151	0x3d4db5e8	0.050222307
152	0xbbbab9ca	-0.0056984173
153	0xbb949df3	-0.0045354306
154	0x3d55d398	0.052203745
155	0xbb4153c7	-0.0029499398
156	0xbd15330c	-0.036425635
157	0xbca64654	-0.020297207
158	0x3d720ea0	0.05909598
159	0x3cd1c51a	0.02560668
160	0x3d8864a9	0.066598244
161	0xbcb9d64f	-0.022685198
162	0x3c84d6bb	0.016215673
163	0x3cc2152b	0.023691734
164	0x3d2d93e4	0.042377368
165	0x3bbb0dc8	0.00570843
166	0xbd30aa07	-0.0431309
167	0x3ca275bb	0.019831529
168	0x3d2c9593	0.042134833
169	0x3a8ce036	0.0010747972
170	0x3d550ab0	0.052012146
171	0x3d3356ef	0.04378408
172	0xbca45ed1	-0.020064743
173	0xbc457350	-0.012051418
174	0x3c4d78d3	0.012541014
175	0x3d4a6e5e	0.04942166
176	0xbc500966	-0.012697553
177	0x3c1e56cb	0.009664248
178	0xbce33bc3	-0.027738458
179	0xbcd76d74	-0.026297309
180	0xbd2b29c4	-0.041787878
181	0x3d3690ab	0.04457156
182	0x3bfee988	0.007779304
183	0x3bc47cf6	0.005996342
184	0x3d86312e	0.06552349
185	0x3c94fb13	0.018186128
186	0xbc44f4c9	-0.012021252
187	0x3c91cfbf	0.017799256
188	0xbc63725e	-0.013882248
189	0x3d2a5441	0.041584257
190	0x3c823b97	0.015897555
191	0xbd45df4d	-0.04830866
192	0x3a88e09e	0.0010442918
193	0x3d49209d	0.049103368
194	0x3b0fa946	0.0021920963
195	0x3c53a2ce	0.012917234
196	0xbd61be54	-0.05511315
197	0xbd02cecf	-0.03193551
198	0x3d093775	0.033500154
199	0x3b8e995b	0.0043517775
200	0x3bdcd5f2	0.0067393715
201	0xbd24eaf8	-0.040263146
202	0xbc60c34f	-0.01371844
203	0x3c74d395	0.014943023
204	0xbd3b3744	-0.045707002
205	0x3b94a37c	0.0045360904
206	0xbd3aff06	-0.045653366
207	0x3d3e5b7d	0.04647397
208	0xbd59e757	-0.05319914
209	0xbcc75737	-0.02433358
210	0x3c5c6cba	0.013453657
211	0x3c9d6b0f	0.019216089
212	0xbd127f81	-0.03576613
213	0x3c8b56a3	0.017009085
214	0x3d8e8d90	0.06960595
215	0x3d879326	0.06619863
216	0xbc4a1781	-0.012334705
217	0x3d10112b	0.035172623
218	0x3d17df58	0.03707823
219	0x3b81c720	0.003960505
220	0xbb2c0c4a	-0.0026252442
221	0xbd9a350e	-0.07529651
222	0x3d04b986	0.03240349
223	0x3d09951c	0.033589467
224	0x3c28cede	0.010303227
225	0x3c45f7ee	0.012083037
226	0x3d1fd744	0.039023653
227	0x3d02c356	0.031924568
228	0xbcc703fc	-0.024293892
229	0xbcae619e	-0.021286782
230	0xbd4300c1	-0.04760814
231	0x3d329ecd	0.043608475
232	0x3c65ccde	0.014025895
233	0x3cc61619	0.024180459
234	0x3bba0d4f	0.005677856
235	0x3ca97d75	0.020689705
236	0x3c618870	0.013765439
237	0x3d281f0f	0.041045245
238	0x3b1534a7	0.002276698
239	0x3d7a75cb	0.061147492
240	0x3d62853e	0.05530285
241	0x3c432500	0.011910677
242	0xbb311629	-0.0027021265
243	0x3d0a2c6e	0.033733778
244	0xbd4b7e70	-0.049681127
245	0xba0cb549	-0.000536759
246	0x3d35a039	0.044342253
247	0xbcda12c0	-0.026620269
248	0xbc172638	-0.009225421
249	0xbd21707d	-0.039413918
250	0xbcf0b20d	-0.029381776
251	0xbd102c70	-0.03519863
252	0xbcdfdf14	-0.027328052
253	0x3d2d4713	0.04230411
254	0x3d6ad07e	0.05732774
255	0x3d05f88f	0.032707747

conv2.bias f4 [64]
0	0x3d0c3e2d	0.034238983
1	0x3c4b6cc1	0.012416066
2	0xbd687f5a	-0.056762077
3	0xbd0a6720	-0.033789754
4	0xbc820b15	-0.015874425
5	0x3d2ee594	0.04269941
6	0x3d6f8465	0.05847587
7	0x3d222a0a	0.039590873
8	0xbc82a6d0	-0.015948683
9	0x3d8541cf	0.065066926
10	0xbd122c94	-0.035687044
11	0xbcb073e4	-0.021539636
12	0x3d2c1840	0.042015314
13	0xbcf70c47	-0.030157221
14	0xbceaa4f7	-0.028643114
15	0xbc4d7c44	-0.012541834
16	0xbc81269a	-0.015765477
17	0x3d926125	0.07147435
18	0x3caf1f81	0.021377327
19	0x3cc5fea2	0.02416927
20	0xbb9b94e1	-0.0047479724
21	0xbc7bd9a6	-0.015371716
22	0x3d85788a	0.065171316
23	0x3d22be0e	0.03973203
24	0x3d38e428	0.04513946
25	0x3da730b8	0.08163589
26	0xbb02052a	-0.0019839504
27	0x3d891a08	0.06694418
28	0xbd311d53	-0.043240856
29	0xbccd78b5	-0.025081972
30	0x3d3f868d	0.046759177
31	0x3d41775a	0.047232963
32	0x3ca7db8c	0.02049043
33	0x3c8357b8	0.016033038
34	0x3ca84860	0.020542324
35	0x3d998362	0.074957624
36	0x3d1602d2	0.036623783
37	0xbccfad0b	-0.025351068
38	0xbbcff3fc	-0.006346224
39	0x3d8aea98	0.067830265
40	0x3c8eaa65	0.017415235
41	0xbc229d97	-0.009925268
42	0xbd6fc88c	-0.058540866
43	0xbcbebb35	-0.023282627
44	0x3bbbeaf1	0.0057347943
45	0x3d47b14f	0.04875308
46	0xbcdb1225	-0.02674205
47	0x3d6cba5c	0.057794914
48	0x3d26931c	0.04066764
49	0xbd063997	-0.032769766
50	0x3d8016ce	0.0625435
51	0x3d3d8f19	0.046279047
52	0x3d91b938	0.07115406
53	0x3bfaeb50	0.007657446
54	0x3ceca6c6	0.028888118
55	0x3da331a9	0.07968456
56	0xbc1843f6	-0.009293547
57	0x3d80d9a7	0.06291514
58	0xbd260944	-0.04053618
59	0x3c59c9c9	0.013292738
60	0x3b2c938e	0.0026333067
61	0xbc5bb20d	-0.01340915
62	0xbd317bdc	-0.043331012
63	0xbc948de4	-0.018134065

conv3.weight f4 [128, 64, 3, 3]
0	0x3c95497e	0.01822352
1	0x3d1fe40c	0.03903584
2	0x3b51b904	0.0032001147
3	0xbd077b88	-0.033076793
4	0xbca33cdf	-0.019926487
5	0x3a21fb59	0.00061791163
6	0xbb8a2b71	-0.0042166044
7	0xbb47cf2c	-0.0030488474
8	0x3c095c38	0.008383803
9	0x3cd5abc4	0.02608288
10	0x3cd6b5e2	0.026209775
11	0x3caf9ac5	0.021436105
12	0xbd0541f0	-0.032533586
13	0x3cac8fe2	0.021064702
14	0xbc755824	-0.014974628
15	0xbb71fdc6	-0.0036924942
16	0xbac281a8	-0.0014839666
17	0x3d04cde9	0.032422934
18	0x3d3b37f9	0.045707677
19	0xbd2f7f4c	-0.04284601
20	0xbca2965a	-0.019847084
21	0x3c8df546	0.01732887
22	0xbc46b2f5	-0.012127628
23	0x3d2f0c17	0.04273614
24	0xbd06d0ad	-0.032913852
25	0xbd29187b	-0.041283112
26	0x3c17030a	0.009217033
27	0x3c83046e	0.015993323
28	0xbc56fd2d	-0.013121885
29	0x3d1b2fcc	0.03788738
30	0xbd051eb8	-0.0325
31	0x3c89bd4e	0.0168139
32	0x3d56fcbd	0.052487124
33	0x3c00e65d	0.007867423
34	0x3d10405c	0.035217628
35	0xbcde1c23	-0.027113026
36	0x3b575ad2	0.003286053
37	0x3b26934d	0.0025417388
38	0xbd07232d	-0.03299253
39	0xbcb15fdc	-0.021652155
40	0xbcd6adb1	-0.02620587
41	0x3c72a855	0.014810641
42	0xbcd8b4cf	-0.026453404
43	0x3c191c84	0.009345178
44	0x3d25650b	0.040379565
45	0x3c1eac75	0.009684672
46	0xbd03ed84	-0.032208934
47	0x3a4fe4a1	0.00079304917
48	0x3d36068a	0.04443983
49	0x3c9b66ab	0.018969854
50	0x3ce45b1a	0.027875472
51	0x3d3324d3	0.04373629
52	0xbd1bd702	-0.038046844
53	0xbc4a4ba8	-0.012347139
54	0x3c178102	0.009247066
55	0xbc20549d	-0.009785798
56	0xbc9a7ae9	-0.018857436
57	0xbd2a4114	-0.04156597
58	0xbd0ca630	-0.034338176
59	0x3c50a207	0.012733943
60	0x3c813424	0.015771933
61	0xbcd11fc5	-0.025527844
62	0xbc42baab	-0.011885325
63	0x3c641a80	0.013922334
64	0xbc7e1818	-0.015508674
65	0x3d0a009f	0.033692
66	0xbca7f3e9	-0.020502048
67	0x3cf2874b	0.029605528
68	0xbc315552	-0.010823565
69	0x3cdb4fce	0.026771452
70	0xbc943896	-0.018093389
71	0xbb77e1fa	-0.0037823902
72	0xbb3a6d85	-0.0028446626
73	0x3a8de5bc	0.0010825912
74	0xbce3dd55	-0.0278155
75	0x3cbfc30f	0.02340844
76	0x3cf61e87	0.030043853
77	0x3c6c47ce	0.014421416
78	0x3d0875a2	0.03331531
79	0xbd14e61b	-0.03635226
80	0xbb3f388a	-0.0029177987
81	0xbaaee3f0	-0.0013343077
82	0x3a8f05aa	0.0010911722
83	0xbcf556ea	-0.02994867
84	0xbceee6ca	-0.029162783
85	0xbd715816	-0.058921896
86	0x3cc0cbd4	0.023534693
87	0xbccde648	-0.02513422
88	0x3d0dff3d	0.034667242
89	0x3b085f7c	0.0020808866
90	0x3b357c56	0.0027692518
91	0x3b0acdb9	0.002117975
92	0xbb9ae8f0	-0.0047274753
93	0x3ad06ecd	0.0015902162
94	0x3c732037	0.014839224
95	0xbc1123b8	-0.008858614
96	0x3caf97c4	0.021434672
97	0x3c14216e	0.009041173
98	0xbd183b05	-0.03716566
99	0xbd624bcf	-0.055248078
100	0x3d2cdb0e	0.042201094
101	0x3c14cca4	0.009081993
102	0x3d3d3b0f	0.0461989
103	0x3d16cb44	0.036814943
104	0x3b72dc06	0.0037057414
105	0x3c8bfd8e	0.017088678
106	0xbd36ab03	-0.044596683
107	0x3d342576	0.043981038
108	0xbcc437fc	-0.023952477
109	0x3d4833e2	0.048877604
110	0x3c1195a4	0.008885775
111	0x3c823629	0.015894966
112	0x3c8a9a18	0.01691918
113	0xbcf8c1e0	-0.030365884
114	0x3cd5014a	0.026001591
115	0xbb844ba6	-0.0040373383
116	0x3d85e9fd	0.0653877
117	0xbcdd5904	-0.027019985
118	0xbd238ff7	-0.039932217
119	0xbd6ce420	-0.057834744
120	0xbb80e7d0	-0.003933884
121	0x3ccb62fd	0.024827475
122	0xba7bb9bb	-0.0009602566
123	0x3d379c35	0.044826705
124	0x3ca2c959	0.0198714
125	0xbd17ecdb	-0.037091117
126	0xbd47b5fc	-0.04875754
127	0xbcadec03	-0.021230703
128	0xbc3e051a	-0.011597896
129	0xbd55db3e	-0.05221104
130	0x3ae2274b	0.0017254142
131	0x3c038f9a	0.008029843
132	0x3cb8fd1a	0.022581626
133	0x3c96a0d6	0.01838724
134	0x3996ce2e	0.00028763845
135	0x3a96ec41	0.0011514501
136	0xbb6c3dd1	-0.0036047588
137	0xbcaeb371	-0.021325799
138	0x3d478fdf	0.04872119
139	0xbd3e7ad2	-0.04650385
140	0xbd172519	-0.036900613
141	0x3d052ddb	0.032514434
142	0xbb1565de	-0.0022796313
143	0xbd0c700e	-0.03428655
144	0x3c60955b	0.013707484
145	0xbb47e68a	-0.0030502402
146	0x3ccb5447	0.02482046
147	0xbc02d3a1	-0.007985027
148	0x3b246170	0.0025082491
149	0xbccbdefe	-0.024886604
150	0x3cd242d2	0.025666628
151	0xbc6040a0	-0.013687283
152	0x3d2ebb5e	0.042659156
153	0xbbf81200	-0.007570505
154	0x3d07394e	0.033013634
155	0x3b86163e	0.004092007
156	0x3d5205d8	0.051275104
157	0x3d65f209	0.056139026
158	0xbbf4f768	-0.007475782
159	0x3cdab17d	0.026695961
160	0x3b9e98bf	0.004839986
161	0x3be3bd3e	0.0069500497
162	0x3d08fcc8	0.033444196
163	0xbc289d5f	-0.010291426
164	0x3ca5a311	0.020219358
165	0xbc052aa0	-0.008127838
166	0x3bbce69a	0.0057647945
167	0x3d282939	0.041054938
168	0xbd3c9083	-0.046036255
169	0xbb384ce1	-0.0028121995
170	0x3c999fec	0.018753015
171	0x3bd7b84a	0.0065832483
172	0x3d39ed4d	0.045392323
173	0x3d7f2d18	0.062298864
174	0x3cba8c6a	0.022772033
175	0xbc5b5771	-0.013387547
176	0xbbcaa30c	-0.0061839875
177	0x3d47e217	0.0487996
178	0x3ccf94b8	0.02533947
179	0xbd05422b	-0.032533806
180	0x39a97c72	0.0003232691
181	0x3d1366d1	0.035986725
182	0x3d191822	0.03737653
183	0xbcd0b9be	-0.025479194
184	0xbcb035d9	-0.021510052
185	0xbc80a6f9	-0.015704619
186	0xbbdb647c	-0.0066953283
187	0x3d2f163f	0.042745825
188	0x3d72e488	0.059299976
189	0xbc2435e6	-0.010022616
190	0x3d2b7014	0.041854933
191	0xbafda0da	-0.0019350306
192	0xbd011e0d	-0.0315228
193	0x3ce95565	0.028483102
194	0x3ccef968	0.02526541
195	0xbd5d2188	-0.053987056
196	0xbd15a7ab	-0.036536854
197	0xbcdddc83	-0.027082687
198	0x3c63eb1e	0.013911037
199	0x3d4f9845	0.050682325
200	0xbd47509b	-0.048660856
201	0x3c5c9252	0.01346262
202	0xbcfb0b25	-0.030644963
203	0xbd3e811c	-0.046509847
204	0x3d276251	0.040865246
205	0xbcfb689e	-0.030689534
206	0x3d378034	0.0448
207	0xbc278faa	-0.010227123
208	0xbc32913a	-0.0108988825
209	0x3d3bed0e	0.04588037
210	0xbd0c95b9	-0.034322474
211	0x3d403e28	0.046934277
212	0xbd14016f	-0.03613418
213	0xbd7eb7b2	-0.062186904
214	0x3c8fa60d	0.017535234
215	0x3cc20882	0.023685697
216	0x3c3a384c	0.011365961
217	0x399a549a	0.00029436202
218	0x3c903c4c	0.017606877
219	0x3d331fe4	0.043731585
220	0xbcd1b667	-0.025599672
221	0xbbf4e74f	-0.007473863
222	0xba2ff656	-0.0006712427
223	0xbcceb8e6	-0.02523465
224	0xbd20701a	-0.03916941
225	0xbd41e78b	-0.047339957
226	0x3d172619	0.036901567
227	0x3d085618	0.03328523
228	0x3ce20ca5	0.02759392
229	0x3cdbc6f5	0.026828269
230	0xbd1f1c23	-0.038845193
231	0x3c0d611a	0.008629108
232	0xbbdde628	-0.0067718215
233	0x3ce8381b	0.028347066
234	0xbbed38eb	-0.007239451
235	0x3cac15ae	0.021006431
236	0xbb81e5a7	-0.0039641443
237	0xbc0b9a16	-0.008520624
238	0xbc46a38b	-0.012123953
239	0x3d0b112a	0.033951916
240	0xbce12856	-0.027485054
241	0xbd1f2e84	-0.03886272
242	0x3d087b66	0.033320807
243	0x3c863bf4	0.01638601
244	0xbb06eae8	-0.0020586792
245	0xbcedd139	-0.02903043
246	0xbcb9f693	-0.022700584
247	0x3c992593	0.018694675
248	0x3a12830a	0.00055889843
249	0xbc0b55d7	-0.0085043525
250	0xbbdf8b3c	-0.006822018
251	0x3c0aa04c	0.008461069
252	0xbd7ad74e	-0.061240487
253	0xbc5de47f	-0.013543247
254	0x3c4dd8fb	0.012563939
255	0x3d0ced39	0.03440592

conv3.bias f4 [128]
0	0xbb06cb52	-0.0020567966
1	0xbd216622	-0.039404042
2	0xbcc2010f	-0.023682145
3	0x3cf5c7d9	0.030002521
4	0xbd0b21aa	-0.03396765
5	0xbc82a75e	-0.015948948
6	0xbb3cd72e	-0.002881478
7	0x3d31002c	0.043213055
8	0xbc818bd0	-0.015813738
9	0x3c5aa76e	0.013345582
10	0xbca89d18	-0.02058272
11	0xbca295bb	-0.019846788
12	0x3ce1e7c6	0.027576338
13	0xba978012	-0.0011558554
14	0x3cb779a7	0.022396876
15	0x3c9f134e	0.019418385
16	0x3d52a5d3	0.051427674
17	0x3d172df8	0.036909074
18	0x3d229e58	0.03970179
19	0x3ccc958e	0.024973657
20	0x3c8edff0	0.017440766
21	0x3d296441	0.041355375
22	0x3d51dc3a	0.051235415
23	0x3d24da6e	0.040247373
24	0xbae61dff	-0.0017556547
25	0x3cbd72fe	0.023126122
26	0x3d22dc14	0.039760664
27	0xbce076c1	-0.027400376
28	0xbb22e416	-0.0024855188
29	0xbd391599	-0.045186613
30	0xbd403732	-0.04692764
31	0x3c705b3f	0.014670192
32	0xbd1e4490	-0.038639605
33	0x3d29bc23	0.041439187
34	0xbac4846e	-0.001499308
35	0xbd26c082	-0.040710934
36	0x3d239263	0.039934527
37	0xbcd10839	-0.025516616
38	0x3bcd4510	0.0062643364
39	0x3b8d8a78	0.0043194853
40	0x3cbc6e9f	0.023001967
41	0xbc11fb35	-0.00890999
42	0x3cb18260	0.021668613
43	0xbc18bdb0	-0.009322569
44	0x3c3b16d3	0.011419016
45	0x3d80f82f	0.06297337
46	0x3bd796b8	0.0065792464
47	0x3ba01fcd	0.0048866034
48	0xbca413da	-0.020028997
49	0xbbcacb70	-0.0061888024
50	0xbd0502ab	-0.032473247
51	0xbc4cbe1d	-0.012496498
52	0xbd26932b	-0.040667694
53	0x3d103ea2	0.03521598
54	0xbb3fe56a	-0.0029281029
55	0x3d1df587	0.03856423
56	0xbcccfac9	-0.025021927
57	0x3cbb8858	0.022892162
58	0x3bf03ec1	0.0073316996
59	0x3d416911	0.04721934
60	0x3cfba6b7	0.030719144
61	0x3d2b75eb	0.041860502
62	0x3cd6489f	0.026157675
63	0xbc8cfa86	-0.017209303
64	0xbc8a6126	-0.016892027
65	0x3d2ccc8d	0.042187262
66	0x3cb7e2ba	0.022446979
67	0x3c158709	0.009126433
68	0xbcb33906	-0.021877777
69	0x3cc0d04f	0.02353683
70	0x3c894674	0.016757227
71	0x3ca319ba	0.019909728
72	0xbcae48df	-0.021274982
73	0xbac8436e	-0.0015278885
74	0x3cf50456	0.029909294
75	0x3d3d292c	0.046181843
76	0x3d25e63e	0.04050278
77	0x3d08faf3	0.03344245
78	0x3c400432	0.01171975
79	0x3c9afd72	0.01891968
80	0xbd3c04ce	-0.04590302
81	0x3cdc9f02	0.02693129
82	0xbce35ffc	-0.02775573
83	0xbd1a7c7d	-0.037716378
84	0x3bd818bc	0.0065947454
85	0xbccb3e38	-0.024809942
86	0x3c08b741	0.008344472
87	0x3b43f67e	0.002990156
88	0x3c821178	0.01587747
89	0xba88f2fe	-0.0010448394
90	0xbc5f583d	-0.0136318775
91	0x3d4a9bb4	0.049464896
92	0xbc958d53	-0.018255865
93	0x3d2201b4	0.039552405
94	0x3cac49ea	0.021031339
95	0x3b029980	0.001992792
96	0xbc985073	-0.018593049
97	0x3c07bab0	0.008284256
98	0xbc880f58	-0.016608879
99	0x3ca977d8	0.020687029
100	0x3c8a5685	0.016886959
101	0x3d103e1d	0.035215486
102	0xbc1dbbaf	-0.009627267
103	0xbccc0f9f	-0.024909792
104	0x3c39dd4a	0.011344263
105	0x3d4504ed	0.0481004
106	0xbca0b793	-0.019618785
107	0x3c007213	0.007839697
108	0xbc8c2f07	-0.017112268
109	0x3cbfc53d	0.02340948
110	0xbc98e229	-0.018662529
111	0x3cf2491c	0.029575877
112	0xbd424d8e	-0.047437243
113	0xbbd8d33a	-0.006616977
114	0x3b9aeb6a	0.0047277706
115	0x3c9c2bc5	0.01906384
116	0x3c1aacae	0.009440584
117	0x3b87e98c	0.004147714
118	0xbba0ef38	-0.0049113296
119	0x3c30d988	0.010794051
120	0xbc44991e	-0.011999397
121	0xbc832982	-0.016011003
122	0xbcf62737	-0.030047996
123	0x3c2e34b8	0.010632686
124	0xbcdf10f3	-0.027229762
125	0xbcbab1db	-0.022789886
126	0xbcd8b2c2	-0.026452426
127	0x3d68533e	0.05672001

act_conv1.weight f4 [4, 128, 1, 1]
0	0x3bd04cc4	0.0063568074
1	0x3aafd07d	0.0013413575
2	0x3c415d49	0.011802026
3	0xbd34d2d8	-0.04414639
4	0x3c283619	0.010266804
5	0x3cab924e	0.020943787
6	0x3d36527a	0.04451225
7	0x3c02231c	0.007942941
8	0x3d892041	0.06695605
9	0xbd8603b3	-0.06543674
10	0x3a9b7922	0.0011861662
11	0x3cc2b33a	0.023767103
12	0xbd910f9f	-0.070830576
13	0x3c09a689	0.0084015215
14	0x3d14bdb2	0.03631372
15	0xbd3260fd	-0.043549526
16	0x3ca4dd86	0.020125162
17	0xbd378a1f	-0.044809457
18	0x3cb98b4b	0.022649428
19	0x3b2e3be0	0.0026585981
20	0xbb3a291e	-0.0028405855
21	0x3c14b0c9	0.009075352
22	0xbd184d4e	-0.0371831
23	0xbb9b90c0	-0.00474748
24	0x3c78c39c	0.015183356
25	0x3d308ec7	0.043104913
26	0x3b74e033	0.0037365078
27	0xbce101dd	-0.027466709
28	0x3c58bc72	0.013228523
29	0xbd85ba61	-0.065296896
30	0xbd2504c4	-0.040287748
31	0x3d0b0790	0.03394276
32	0xb7f39280	-2.9036077e-05
33	0x3d00f7c6	0.031486295
34	0xba136544	-0.0005622695
35	0x3d63ec05	0.055645008
36	0xbca8cd6b	-0.020605763
37	0xbd1c06aa	-0.038092293
38	0xbbe21dfe	-0.006900548
39	0xbb676964	-0.003531062
40	0xbd0ccd09	-0.034375224
41	0xbd42ba1a	-0.04754076
42	0xbd4aa9bf	-0.04947829
43	0xbd4b4cc3	-0.049633753
44	0x39eeffb0	0.000455854
45	0xbcbc3b7b	-0.022977581
46	0x3c865c5a	0.016401459
47	0xbd0208e2	-0.031746753
48	0x3cbab7fa	0.022792805
49	0xbbcef77f	-0.006316125
50	0x3d43eb58	0.047831863
51	0x3d039c30	0.032131374
52	0xbc80b68b	-0.015712043
53	0xbc37784f	-0.011198117
54	0xbd84b171	-0.06479157
55	0x3d5096a0	0.050924897
56	0xba720a3a	-0.0009233091
57	0xbd24e7d3	-0.040260147
58	0xbd330eef	-0.043715414
59	0xbc4e1453	-0.012578088
60	0xbd425fd0	-0.047454655
61	0x3c9f6a49	0.01945986
62	0x3cf2d886	0.029644262
63	0xbcf57259	-0.029961752
64	0x3d632772	0.05545754
65	0xbbb0bf1d	-0.005393876
66	0x3d26f5b2	0.040761657
67	0xbc4f3b4b	-0.012648414
68	0xbc34c0db	-0.011032308
69	0xbcd6c324	-0.026216097
70	0x3cf7b727	0.030238701
71	0x3bf4c5f0	0.007469885
72	0xbc6b3c3f	-0.0143576255
73	0x3d9672ae	0.07346092
74	0x3d727098	0.05918941
75	0xbd5b2abb	-0.053507548
76	0x3b7f9211	0.0038996974
77	0x3bb67416	0.0055680377
78	0xbd0f6f58	-0.035018295
79	0xbc895a08	-0.016766563
80	0x3c05be83	0.008163097
81	0x3d35c7c8	0.04437998
82	0x3c48b3a8	0.012249865
83	0x3cbb7700	0.022883892
84	0xbc8aad2f	-0.016928283
85	0xbcad1df8	-0.021132454
86	0xbd88170c	-0.06645021
87	0x3d857d27	0.065180115
88	0x3d3b541e	0.045734517
89	0x3ae54be0	0.0017493926
90	0x3bb87916	0.005629669
91	0xbcadbf56	-0.0212094
92	0x3c8bc9f3	0.01706407
93	0x3d2c1f46	0.042022012
94	0xbd427892	-0.047478266
95	0x3d86da7e	0.06584643
96	0xbcf4ca71	-0.029881688
97	0x3d59bc27	0.05315795
98	0xb9f152d0	-0.00046028802
99	0x3d7f5eec	0.062346384
100	0x3c7db9a8	0.015486158
101	0x3cc1aed7	0.02364294
102	0x3bd2d6b2	0.006434285
103	0xbd77049a	-0.060307123
104	0x3bcb0b73	0.006196433
105	0x3c28251f	0.010262757
106	0x3993655c	0.00028113544
107	0xbd26a60c	-0.0406857
108	0x3c5352af	0.012898131
109	0x3d71f8a9	0.05907503
110	0x3b52c209	0.003215911
111	0x3bf7fdf4	0.0075681154
112	0x3c987d9c	0.018614583
113	0x3c1cf890	0.009580746
114	0x3c934758	0.017978355
115	0x3b7f3e4c	0.0038947044
116	0xbd7b5e71	-0.061369363
117	0x3cba2750	0.022723824
118	0x3d4562e6	0.04819002
119	0x3c0b1aad	0.008490247
120	0x3d912ad7	0.07088249
121	0xbc0bda6b	-0.008535962
122	0xbc1334ec	-0.0089847855
123	0xbd48651e	-0.048924558
124	0xbd2f205a	-0.042755462
125	0x3d2232e6	0.03959932
126	0x3a9b8fc8	0.0011868412
127	0x3b86c13e	0.0041123917
128	0x3c359156	0.011082014
129	0x3d92d81a	0.07170124
130	0xbd7737cc	-0.060355946
131	0x3c933f67	0.017974569
132	0x3cd2cf19	0.025733517
133	0xbd68bff1	-0.056823675
134	0xbd809058	-0.062775314
135	0x3d858c83	0.06520941
136	0x3d50b54a	0.05095414
137	0xbd6a66e7	-0.05722704
138	0x3bf8898b	0.007584756
139	0xbd94f290	-0.072728276
140	0xb99e8ac6	-0.00030239503
141	0x3c7dec7d	0.015498278
142	0x3d640967	0.05567303
143	0x3d97a5c2	0.07404663
144	0xbdb0ff90	-0.08642495
145	0xbd4939f5	-0.049127538
146	0x3b204d03	0.0024459965
147	0xbc98e488	-0.01866366
148	0x3d12cca1	0.03583968
149	0xbdbccd14	-0.09218803
150	0x3afcbdbd	0.0019282621
151	0xbce5869a	-0.028018285
152	0x3d1075f4	0.03526874
153	0xbcc4e575	-0.024035195
154	0xbc7e563c	-0.01552349
155	0x3d9aebc8	0.07564503
156	0x3cb3b797	0.021938128
157	0xbda0ec6c	-0.07857594
158	0xbc1b9160	-0.009495109
159	0xbd8c2c37	-0.06844371
160	0xbdb2ae4a	-0.08724649
161	0x3c68b368	0.01420293
162	0x3c83ddce	0.016096976
163	0xbc8d5a8b	-0.017255088
164	0x3d416660	0.047216773
165	0x3d254636	0.04035016
166	0xbc646d5f	-0.013942092
167	0xbd13c126	-0.036072873
168	0x3ce8ecd8	0.028433248
169	0xba9bd8c6	-0.0011890165
170	0xbd349203	-0.04408456
171	0x3d41e2e1	0.04733551
172	0xbd9e9584	-0.077433616
173	0x3bd91eb1	0.006625973
174	0xbd4ac74e	-0.049506478
175	0xbc6a274c	-0.014291596
176	0xbda317b2	-0.07963504
177	0xbbf7938b	-0.0075554303
178	0x3d46d579	0.048543427
179	0xbce44c90	-0.02786854
180	0xbdc13507	-0.09433942
181	0x3d4bf652	0.049795456
182	0x3cd5e510	0.026110202
183	0xbda20732	-0.07911529
184	0xbd3fbbce	-0.046809964
185	0x3d1c6c35	0.03818913
186	0x3c7872cd	0.015164089
187	0x3d6c57be	0.057700865
188	0x3d6dbac2	0.058039434
189	0x3b927976	0.0044700457
190	0xbd3871b2	-0.045030303
191	0xbbbf9acd	-0.005847311
192	0xbcfe5092	-0.031044278
193	0x3d2eb25a	0.042650558
194	0x3d23f134	0.04002495
195	0x3c776e24	0.015101943
196	0x3d06971a	0.032858945
197	0xbd6fd7b7	-0.05855533
198	0xbdd3e83a	-0.10347028
199	0x3d37808e	0.044800334
200	0x3d0e1595	0.03468855
201	0x3d1b0ca4	0.037853852
202	0x3d3ebfbc	0.04656957
203	0xbd028d61	-0.03187311
204	0xbc8fbb55	-0.017545382
205	0xbbaa5a2f	-0.005198739
206	0x3d967558	0.073466
207	0x3da6072f	0.08106839
208	0xbd36fac4	-0.044672742
209	0xbcc9cfc8	-0.02463521
210	0xbcc864a7	-0.024462057
211	0xbd15ef03	-0.036604892
212	0x3d564d12	0.052319594
213	0x3d1309ba	0.035897948
214	0x3d281107	0.041031864
215	0xbdcf4e7a	-0.1012239
216	0x3d4b6a49	0.04966191
217	0xbbc5476c	-0.006020477
218	0xbc0b0537	-0.00848513
219	0x3cfa19f4	0.030529954
220	0xbd66f8dc	-0.056389675
221	0xbdad33a2	-0.08457114
222	0x3d843956	0.064562485
223	0x3d2ecf48	0.042678148
224	0x3cd62ff9	0.026145922
225	0x3c309cf7	0.010779611
226	0xbd615a79	-0.055017922
227	0xbcafa757	-0.021442099
228	0x3d3f8c0a	0.04676441
229	0x3d32acda	0.043621875
230	0xbd9a7ee2	-0.07543732
231	0x3da8157e	0.08207224
232	0x3d45a752	0.048255272
233	0xbd1a4ac0	-0.037668943
234	0xbce4c9ed	-0.027928317
235	0x3dd2bab4	0.10289517
236	0xbdaea7d7	-0.08528107
237	0xbc64f118	-0.013973497
238	0x3d7f9595	0.062398512
239	0xbd48decc	-0.0490406
240	0xbc7e85aa	-0.015534798
241	0x3c9469ed	0.018116916
242	0x3dde0372	0.10840501
243	0xbda28f66	-0.07937507
244	0x3c43bd8d	0.011947048
245	0xbd821eeb	-0.063535534
246	0xbb462cc9	-0.0030239096
247	0x3d2e6093	0.04257257
248	0xbd1843b9	-0.03717396
249	0x3c6bfdbb	0.014403756
250	0x3d3d118c	0.046159312
251	0xba8ee191	-0.0010900964
252	0x3dacec68	0.084435284
253	0xbc752cca	-0.014964292
254	0x3d2986aa	0.04138819
255	0x3cc26b2a	0.02373274

act_conv1.bias f4 [4]
0	0xbc9b3144	-0.01894439
1	0x3d1480bf	0.036255594
2	0x3d9c97c6	0.07646136
3	0xbd67bd2d	-0.056576896

act_fc1.weight f4 [36, 144]
0	0x3cbd4712	0.023105178
1	0xbc118d2c	-0.008883756
2	0xbd36420c	-0.04449658
3	0x3cddaaa5	0.027058909
4	0x3d26a08f	0.040680464
5	0x3b7bc420	0.003841646
6	0x3d0d95f1	0.034566823
7	0xbc3396d3	-0.010961252
8	0xbc04a729	-0.008096495
9	0xbce5355f	-0.02797955
10	0x3cbf6607	0.02336408
11	0xbc1c9adb	-0.009558405
12	0xbd4b3750	-0.049613297
13	0xbc2b7965	-0.010465954
14	0xbcea6cc3	-0.028616315
15	0x3ccf9023	0.025337284
16	0xba447fda	-0.0007495858
17	0x3c83d93f	0.016094802
18	0xbc0a1abb	-0.008429225
19	0xbc2de6bc	-0.010614093
20	0xbbdb8430	-0.0066991076
21	0xbbe96008	-0.0071220435
22	0x3d0479ce	0.032342725
23	0x3c7e199f	0.015509038
24	0x3b020bd1	0.001984347
25	0xbc09660d	-0.008386147
26	0xbd7b88aa	-0.06140963
27	0x3c3fcdc0	0.0117067695
28	0xbc08de89	-0.008353838
29	0x3cccb46e	0.02498838
30	0x3c22eb27	0.00994376
31	0xbbcdb9b9	-0.0062782434
32	0x3bafde96	0.0053671105
33	0xbba868a9	-0.0051394296
34	0xbbc0f1ce	-0.0058882004
35	0x3c1275fe	0.008939264
36	0x3c05a5d8	0.008157216
37	0x3c257172	0.010097848
38	0xbd89fd52	-0.0673777
39	0x3be47524	0.006971972
40	0xbd41ce05	-0.047315616
41	0xbcf1591f	-0.029461442
42	0xbc316a13	-0.010828513
43	0xbd12219b	-0.03567658
44	0xbb6ebcf1	-0.0036428536
45	0x3cdc71d5	0.026909748
46	0x3cb56458	0.022142574
47	0xbd1c37b4	-0.03813906
48	0x3d00bf49	0.031432424
49	0x3cecbe51	0.028899344
50	0x3d57b11b	0.052659135
51	0x3cb9b3f7	0.022668822
52	0xbdd30574	-0.103037745
53	0x3c87abdf	0.016561447
54	0xbd6fcdcd	-0.058545876
55	0xbdbb0dee	-0.09133516
56	0x3cdea0e0	0.02717632
57	0x3d43dbc6	0.047817014
58	0x3cb87c6d	0.022520268
59	0x3d7696df	0.060202476
60	0xbdc20e95	-0.094754376
61	0x3d27c73e	0.040961497
62	0x3cd74161	0.026276292
63	0xbd8aa120	-0.067690134
64	0xbd3946b1	-0.045233432
65	0xbd942ea5	-0.07235459
66	0x3d72136d	0.059100557
67	0xbdcc8b3b	-0.099874936
68	0x3d0f7c86	0.035030864
69	0x399ff1ad	0.00030506906
70	0xbd6b62dc	-0.057467327
71	0x3c335e1e	0.010947732
72	0x3c5a8484	0.013337258
73	0xbd653d58	-0.055966705
74	0xbd78db53	-0.06075604
75	0xbc32e923	-0.010919842
76	0x3d3ddafb	0.046351414
77	0xbc42215a	-0.011848772
78	0xbccdd825	-0.02512748
79	0xbdbb6d5b	-0.09151717
80	0xbdb234da	-0.08701487
81	0xbd92ef28	-0.07174522
82	0xbd0e7fd4	-0.034789875
83	0x3d453ae1	0.048151854
84	0xbb8e2089	-0.0043373746
85	0xbcfcc9eb	-0.030858
86	0x3c8a619f	0.016892252
87	0xbce3ecd6	-0.027822893
88	0x3c2b4f14	0.010455865
89	0xbda6c6cb	-0.081433855
90	0x3c9fe5d9	0.01951878
91	0xbd88f9c8	-0.06688267
92	0xbd7ba5de	-0.06143748
93	0xbd40496a	-0.046945013
94	0xbd1b15ad	-0.03786247
95	0xba0eff20	-0.00054548867
96	0xbd2be2f7	-0.041964497
97	0xbb66a094	-0.0035190927
98	0x3d6c131c	0.05763541
99	0xbdc2e706	-0.095167205
100	0x3d343ca4	0.044003144
101	0x3d150fdd	0.03639208
102	0x3c9b4f1a	0.018958617
103	0xbd2f0092	-0.042725153
104	0x3ba7b034	0.0051174406
105	0xbd8f6ae5	-0.070028104
106	0xbcd4b36a	-0.025964458
107	0xbd0bb696	-0.034109674
108	0xbd793f2d	-0.060851265
109	0xbd0516eb	-0.03249256
110	0xbc060eb0	-0.008182213
111	0xbda59cb5	-0.0808653
112	0xbdcac2b8	-0.09900421
113	0x3d2aed8a	0.04173044
114	0x3d3a5c53	0.045498203
115	0xba40979c	-0.00073468103
116	0x3d1b9e54	0.03799279
117	0xbd454aa0	-0.04816687
118	0xbcfbf6b8	-0.030757293
119	0x3ce25324	0.027627535
120	0xbbd95b79	-0.006633219
121	0xbc39425a	-0.011307323
122	0xbc4d70e9	-0.012539127
123	0x3d1e4bec	0.038646623
124	0xbc76f854	-0.0150738545
125	0xbd4dc100	-0.050232887
126	0xbc067f2a	-0.008209029
127	0x3d51174f	0.05104762
128	0x3caef53d	0.021357173
129	0xbc982af8	-0.018575177
130	0x3c5707d4	0.013124425
131	0x3d470970	0.048592985
132	0x3d3c4e0d	0.045972873
133	0x3c8078bc	0.01568257
134	0x3cc8e621	0.024523797
135	0xbd281faf	-0.04104584
136	0xbd850077	-0.06494229
137	0xbc5e69dd	-0.013575044
138	0x3d4dc581	0.050237183
139	0x3bc6e8da	0.0060702385
140	0xbd15e7e8	-0.036598116
141	0x3bd9bbfc	0.006644724
142	0xbc8cf52d	-0.017206753
143	0xbc87af95	-0.016563216
144	0xbc0f3e32	-0.008742856
145	0xbb63f1a6	-0.0034781485
146	0x3cfd1c66	0.03089733
147	0xbca4e858	-0.020130321
148	0xbc2e12da	-0.010624612
149	0xbc57f3bb	-0.0131806685
150	0xbc3dc055	-0.0115815
151	0xbc24dd16	-0.010062477
152	0xbc2170ce	-0.009853555
153	0xbb86aad6	-0.0041097207
154	0xbc1fba5a	-0.0097490195
155	0xbc2d4602	-0.010575773
156	0xbc695158	-0.014240585
157	0xbc1b8812	-0.009492891
158	0xbd8301c2	-0.0639682
159	0xbc450a63	-0.012026402
160	0x3c98ea5f	0.018666444
161	0x3b8d7760	0.004317209
162	0xbd235c45	-0.039882917
163	0xbc2865e6	-0.010278201
164	0x3c24551c	0.010030057
165	0xbc284130	-0.010269448
166	0xbd52e3bf	-0.051486727
167	0xbd350f8a	-0.044204272
168	0x3c793821	0.015211136
169	0xbd04a001	-0.032379154
170	0x3d055b06	0.03255751
171	0x3d2c9da9	0.042142544
172	0xbc0a7e4c	-0.008452963
173	0xbd4890ee	-0.04896634
174	0xbbed7628	-0.0072467513
175	0x3cd6fbf7	0.026243193
176	0x3d00afad	0.031417537
177	0xbbb95f6d	-0.0056571276
178	0x3cc5fdc3	0.024168855
179	0xbba7c644	-0.0051200707
180	0xbd150714	-0.036383703
181	0xbd2b445e	-0.041813247
182	0x3b48fb31	0.00306673
183	0x3dc62f7d	0.096770264
184	0x3d1c052f	0.03809088
185	0xbcc81044	-0.024421819
186	0xbd9c81e2	-0.07641961
187	0x3d8b88c7	0.068131976
188	0x3bbf514b	0.0058385483
189	0xbca28540	-0.01983893
190	0xbd8c3346	-0.06845717
191	0x3d85cb73	0.065329455
192	0x3b61b262	0.00344386
193	0x3d8dfa6f	0.06932532
194	0x3b8ac3bf	0.0042347605
195	0xbd993518	-0.0748083
196	0x3d7edfc2	0.06222511
197	0xbca0a819	-0.019611405
198	0xbc914b7b	-0.017736187
199	0x3ce61dde	0.028090414
200	0x3d120129	0.035645638
201	0xbcb8fcf2	-0.022581551
202	0xbd6e775d	-0.058219302
203	0xbd22036c	-0.039554045
204	0x3d913e8f	0.0709201
205	0xbdb6cb9d	-0.08925555
206	0xbc375fee	-0.011192305
207	0xbc1e1c24	-0.009650264
208	0x3d71fcbb	0.059078913
209	0xbd928fa4	-0.071563035
210	0x3d59e9bc	0.053201422
211	0xbcb667a1	-0.022266211
212	0xbda58688	-0.080823004
213	0x3d638772	0.055549093
214	0xbdb84f45	-0.089994945
215	0xbd0fbea4	-0.03509392
216	0x3da014dd	0.07816479
217	0x3d337172	0.04380936
218	0x3d2786fa	0.040900208
219	0x3dc517b9	0.09623665
220	0xbaa4c33d	-0.0012570393
221	0x3d68f283	0.056871902
222	0xbc2ea5e5	-0.0106596695
223	0x3d52b8f1	0.051445905
224	0x3d99333f	0.074804775
225	0x3d5cd0ec	0.05391018
226	0x3d39ec4a	0.04539136
227	0x3cb8ef2e	0.022574987
228	0x3dc1c9c7	0.09462314
229	0x3dc01a03	0.09379961
230	0x3bf4734a	0.0074600326
231	0x3db942f6	0.09045975
232	0x3cab9524	0.02094514
233	0xbce6bba4	-0.028165646
234	0x3d715128	0.058915287
235	0x3d9cdb09	0.07658965
236	0xbd12f382	-0.03587676
237	0xbcd34e2e	-0.025794115
238	0x3cf10591	0.0294216
239	0xbcc7c6da	-0.024386812
240	0x3dc51843	0.09623768
241	0x3d96b284	0.07358268
242	0x3ca90a6f	0.020634858
243	0x3d664ec2	0.056227453
244	0x3c9bd65b	0.019023111
245	0xbd193515	-0.03740414
246	0x3d813899	0.06309623
247	0x3b9a0fc0	0.0047015846
248	0xbd3ee4e6	-0.046605013
249	0xbc73e57e	-0.014886258
250	0x3d58922a	0.052873768
251	0xbda92767	-0.082594685
252	0xbc3fb170	-0.011700019
253	0xbd59f852	-0.053215332
254	0xbc4d5f50	-0.012534931
255	0xbd76c7c6	-0.060249113

act_fc1.bias f4 [36]
0	0xbd24a404	-0.04019548
1	0x3d9e8cfd	0.07741735
2	0x3cce6c3b	0.025198093
3	0xbda32852	-0.07966675
4	0x3d0ff0cb	0.035141747
5	0xbd5dc9c3	-0.054147493
6	0xbd8cfa58	-0.06883687
7	0x3c00d80e	0.007864011
8	0x3d77a24c	0.060457513
9	0xbd6828ae	-0.05667942
10	0xbda3e847	-0.08003288
11	0x3c6a1150	0.014286354
12	0x3d3256fc	0.043539986
13	0x3d89719e	0.06711124
14	0x3d17ffb2	0.037109084
15	0xbd91acd8	-0.071130455
16	0x3d04e3d7	0.032443848
17	0x3dd13de2	0.10216881
18	0x3cd66b6d	0.026174271
19	0x3c7ba393	0.015358823
20	0xbdab9669	-0.08378298
21	0x3d876c45	0.06612448
22	0x3c901347	0.017587317
23	0x3c9aa448	0.018877164
24	0xbd00ca96	-0.0314432
25	0xbd8d5489	-0.069008894
26	0x3d9e4428	0.077278435
27	0xbd0f68fb	-0.035012227
28	0x3d90f203	0.0707741
29	0xbc8e8df5	-0.017401675
30	0xbd7f40fa	-0.062317826
31	0x3d8844bb	0.06653734
32	0xbbbab522	-0.0056978622
33	0x3d4e9db5	0.05044337
34	0x3d8999a9	0.067187615
35	0x3c45b25c	0.01206645

val_conv1.weight f4 [2, 128, 1, 1]
0	0xbd91c10c	-0.07116899
1	0xbc2fa39e	-0.010720162
2	0x3df557f6	0.11979668
3	0xbce3470b	-0.027743837
4	0x3d075d1d	0.033047784
5	0xbd6f9393	-0.058490347
6	0x3d94941f	0.07254814
7	0x3cfc7a7d	0.030820126
8	0x3d887386	0.06662659
9	0x3d07f922	0.033196576
10	0xbb2d6f8d	-0.0026464195
11	0x3acfbc54	0.0015848973
12	0x3cf96937	0.030445678
13	0x3dc38f55	0.09548823
14	0x3dd141a3	0.10217597
15	0xbd97c124	-0.074098855
16	0x3dbc1f87	0.09185701
17	0xbd397a8e	-0.045282893
18	0x3d7a209d	0.06106626
19	0x3d3a1575	0.04543062
20	0xbd2bbee6	-0.0419301
21	0x3ce8c44f	0.02841392
22	0x3d0a3996	0.033746324
23	0x3da13592	0.07871546
24	0x3d6e96fc	0.05824946
25	0x3d4968e5	0.0491723
26	0xbd75ec7c	-0.060039982
27	0xbc4d0494	-0.012513299
28	0xbd8937b2	-0.06700076
29	0x3d80ccbb	0.06289049
30	0x3d23a8e8	0.039956003
31	0x3d349017	0.044082727
32	0xbce30d2c	-0.027716242
33	0x3d2601d7	0.0405291
34	0xbcd5148d	-0.026010776
35	0xbd746040	-0.059662104
36	0x3d9f9670	0.077923656
37	0x3de779a0	0.11302495
38	0x3dc016cf	0.093793504
39	0x3dbaa366	0.09113197
40	0xbd602d12	-0.054730482
41	0xbc808210	-0.015687019
42	0x3d0f9dba	0.03506253
43	0x3d27e0b7	0.04098579
44	0xbdae0d71	-0.084986575
45	0x3cea7572	0.028620455
46	0xbc1886b8	-0.009309463
47	0x3d3d8a2f	0.04627436
48	0xbd83f1c5	-0.06442598
49	0xbc41a6bb	-0.011819537
50	0xbce8e573	-0.028429722
51	0x3d01d1b1	0.031694118
52	0x3cbc82ec	0.023011647
53	0x3dad1180	0.084506035
54	0x3d410ea7	0.047133114
55	0x3db7a064	0.08966139
56	0x3c0ab5bb	0.0084661795
57	0x3cdf9718	0.027293727
58	0x3d943a1f	0.07237648
59	0x3d874d8d	0.066065885
60	0x3c37ac58	0.011210524
61	0x3d9a60eb	0.07538017
62	0x3dc462c6	0.09589152
63	0xbd85ddd6	-0.065364525
64	0xbbd42d2c	-0.0064751115
65	0x3c9ae93f	0.018910049
66	0x3d78edfc	0.060773835
67	0x3d02d685	0.031942863
68	0xbd6fb752	-0.058524437
69	0x3b81afbe	0.0039577177
70	0x3ccabfca	0.024749655
71	0x3d992605	0.07477955
72	0x3cb01aae	0.021497097
73	0x3dcb2204	0.09918597
74	0x3d83f4aa	0.0644315
75	0xbccea5ca	-0.025225539
76	0xbcf1e031	-0.029525848
77	0xbdd93cca	-0.10607298
78	0xbbf071f8	-0.007337805
79	0x3dcf9d86	0.10137467
80	0xbcf43442	-0.029810075
81	0x3ad88cb2	0.0016521423
82	0xbdc9c957	-0.09852856
83	0xbcd40ec2	-0.025885943
84	0xbd188adb	-0.037241798
85	0x3c3e9864	0.011633012
86	0xbd6f7592	-0.058461733
87	0x3dc61ba9	0.096732445
88	0x3dcf5739	0.10124058
89	0xbda4985d	-0.080368735
90	0x3d2630bd	0.040573824
91	0x3b87edaa	0.004148205
92	0x3b0cf2d4	0.0021507042
93	0x3d9b603b	0.07586714
94	0xbd65f57c	-0.056142315
95	0x3c14b7b0	0.009076998
96	0x3c699e99	0.014259004
97	0xbdb80424	-0.08985165
98	0x3d809471	0.06278313
99	0x3c724c74	0.014788736
100	0xbd8ec11e	-0.06970428
101	0xbd719236	-0.05897733
102	0x3d455a74	0.048181966
103	0xbd43f34d	-0.04783945
104	0xbcb1a818	-0.021686599
105	0xbb5ffe50	-0.0034178682
106	0x3da06820	0.0783236
107	0x3c4f3dac	0.012648981
108	0x3d860d81	0.065455444
109	0xbc38c95d	-0.0112784775
110	0x3d35dca8	0.044399887
111	0x3d7f0634	0.062261775
112	0x3bfedc64	0.0077777375
113	0x3d107672	0.03526921
114	0x3dc98ac6	0.09840922
115	0xbdb62c11	-0.08895124
116	0x3dac7021	0.084198244
117	0x3c32401c	0.010879543
118	0x3c9b36ca	0.018947024
119	0xbd20fd6e	-0.03930419
120	0x3d74eb10	0.059794486
121	0xbdb03840	-0.08604479
122	0x3d1c5204	0.038164154
123	0x3d864c8b	0.06557568
124	0x3da43801	0.080184944
125	0x3d49d150	0.04927188
126	0xbd7d879d	-0.06189691
127	0x3c0a98ad	0.008459252
128	0x3d07028a	0.032961406
129	0x3d071155	0.032975513
130	0xbd944432	-0.0723957
131	0xbd826309	-0.06366546
132	0xbd56c6b7	-0.052435603
133	0x3d3cb589	0.046071563
134	0x3d2b660d	0.04184537
135	0x3dabe5c5	0.083934344
136	0x3d5b9c6a	0.053615965
137	0x3babebfc	0.0052466374
138	0x3c92aeec	0.017905675
139	0x3d7b323f	0.061327215
140	0xbcc8abfb	-0.02449607
141	0x3a568c2a	0.0008184338
142	0xbd4c6de7	-0.0499095
143	0xbdbb5f2d	-0.09149013
144	0xbcf1694f	-0.02946916
145	0x3d022641	0.031774763
146	0x3cedd752	0.029033337
147	0xbd102841	-0.03519464
148	0x3cf83532	0.030298803
149	0x3d0b2aea	0.033976473
150	0x3cd8683e	0.026416894
151	0x3d814834	0.063126
152	0x3b9e66dc	0.004834039
153	0xbcec477d	-0.028842682
154	0xbd095fae	-0.033538513
155	0xbd5ce50a	-0.053929366
156	0xbd90cf09	-0.07070739
157	0xbc937258	-0.01799886
158	0x3ce830f2	0.028343651
159	0x3d549a58	0.051905006
160	0x3a599912	0.00083007023
161	0x3d9da89b	0.076981746
162	0x3d194b3d	0.03742527
163	0xbcda205f	-0.026626764
164	0x3ce25e44	0.02763284
165	0x3bce6c68	0.006299544
166	0xbd66172b	-0.05617444
167	0xbd61cb98	-0.055125803
168	0x3d3ee99f	0.046609517
169	0x3d2d6419	0.04233179
170	0x3d921b46	0.07134108
171	0x3c935239	0.017983543
172	0x3d564efa	0.05232141
173	0x3c1b945c	0.009495821
174	0x3da71149	0.08157594
175	0x3cfc503a	0.030799974
176	0x3c358b44	0.011080567
177	0x3ba8a0b0	0.0051461086
178	0xbd687b00	-0.056757927
179	0xbd71a9fd	-0.059000004
180	0x3d728d3d	0.059216727
181	0x3b5ffe3b	0.0034178633
182	0x3d1c2924	0.038125172
183	0xba1d9793	-0.0006011661
184	0xbced7367	-0.028985692
185	0xbca62e99	-0.020285891
186	0x3c96b670	0.01839754
187	0x3da9b5e1	0.08286644
188	0x3d3e8224	0.04651083
189	0x3c231f59	0.009956204
190	0xbd473d04	-0.048642173
191	0x3c7e77b9	0.015531474
192	0xbc8eea5d	-0.017445737
193	0x3d5470e6	0.05186548
194	0xbdb1b398	-0.08676833
195	0xbd829f47	-0.06378036
196	0x3d2a3888	0.04155782
197	0xbd55a4b5	-0.05215903
198	0xbd5196b8	-0.051169127
199	0xbd1950ce	-0.037430577
200	0xbc9c7bce	-0.019102003
201	0xbda2f2a9	-0.0795644
202	0x3bfc2a91	0.007695504
203	0xbb7ff764	-0.0039057368
204	0x3d2dd960	0.042443633
205	0xbc30d0ee	-0.010792
206	0x3d8e5310	0.06949437
207	0xbd3caff6	-0.046066247
208	0x3b623f31	0.0034522528
209	0xbda6f295	-0.081517376
210	0xbd155d03	-0.036465656
211	0xbc39bb33	-0.011336136
212	0x3d953c83	0.07286932
213	0xbd3af2b3	-0.045641612
214	0x3cd8a454	0.026445545
215	0xbdb05d8f	-0.08611595
216	0xbd61f90b	-0.055169147
217	0x3d80ecdd	0.06295178
218	0xbd5f0ef6	-0.054457627
219	0xbd118c7a	-0.03553436
220	0x3c8a0113	0.016846215
221	0xbb1c05e5	-0.0023807224
222	0x3d9529cd	0.072833635
223	0x3d1c8f52	0.03822262
224	0xbd1b5ae4	-0.037928477
225	0xbc856a38	-0.016286
226	0x3cfcbfe4	0.03085322
227	0xbda4817d	-0.080325104
228	0xbdb62e62	-0.088955656
229	0x3d9a0760	0.07520938
230	0x3d9ce9fb	0.07661816
231	0x3dbdfdee	0.09276949
232	0xbbaead28	-0.0053307004
233	0xbd86f58f	-0.06589805
234	0x3d6767e5	0.056495566
235	0x3d2a0d14	0.04151638
236	0x3d93f96c	0.07225308
237	0xbc049e02	-0.008094313
238	0xbda80b5b	-0.08205291
239	0xbc9ec0c3	-0.019379025
240	0xbd6b490e	-0.057442717
241	0xbd972a1e	-0.0738108
242	0xbd504387	-0.05084565
243	0xbd1d4ba4	-0.038402215
244	0x3dacf3ca	0.084449366
245	0xbd879b94	-0.06621471
246	0x3b1b8af8	0.0023733955
247	0xbdba4566	-0.09095268
248	0xbd104f50	-0.03523189
249	0xbcd6ab34	-0.026204683
250	0x3ce27fcf	0.027648835
251	0x3d4445a8	0.047917992
252	0xbd946e57	-0.07247608
253	0xbd45c53f	-0.04828381
254	0x3b1de926	0.0024095266
255	0x3c8f6501	0.017504217

val_conv1.bias f4 [2]
0	0x3d850100	0.06494331
1	0x3db2c3d2	0.08728756
