models/Training/AC_nmcts20/train_033.pth (torch, 424031 bytes, 15 tensors)

conv1.weight f4 [32, 5, 3, 3]
0	0x3d81bddd	0.06335042
1	0xbe10728d	-0.14106198
2	0xbc41b1cf	-0.011822178
3	0x3e18577d	0.14877124
4	0xbe4c583c	-0.19955534
5	0xbb48d0b0	-0.0030641966
6	0x3dd46f7e	0.10372828
7	0xbdd75f79	-0.10516257
8	0x3c97232f	0.018449394
9	0x3b481cc0	0.0030534714
10	0xbc12c3ed	-0.008957845
11	0x3e25de42	0.16198066
12	0x3d8034c1	0.06260062
13	0xbe0d33e5	-0.13789327
14	0x3e0db63f	0.13839053
15	0xb9ed53e7	-0.00045266675
16	0xbc7a52cc	-0.015278529
17	0x3de4cecc	0.11172256
18	0xb581f79b	-9.683312e-07
19	0xaefff6c0	-1.1639889e-10
20	0xb0c47fde	-1.4297219e-09
21	0x34ac509f	3.2096156e-07
22	0xb3688cd5	-5.4144795e-08
23	0xb6698cb7	-3.4801612e-06
24	0xb7960a2e	-1.7886134e-05
25	0xb2ea76bd	-2.7295181e-08
26	0xafbffdf0	-3.492313e-10
27	0x3df66c43	0.12032368
28	0x3d3169b7	0.04331371
29	0xbd2256c4	-0.039633527
30	0xbe0b0d73	-0.13579349
31	0xbddf7492	-0.10910906
32	0x3c8bc4ff	0.017061708
33	0x3d51df81	0.05123854
34	0xbdf16ef0	-0.11788738
35	0x3dbb1059	0.091339774
36	0x32ebdb68	2.7457375e-08
37	0xb4ea4229	-4.3634034e-07
38	0x332aff6c	3.9813514e-08
39	0x32f8688d	2.8918544e-08
40	0xb9293ff9	-0.00016140928
41	0x31483560	2.913417e-09
42	0xb1198188	-2.233806e-09
43	0x33cfc5cc	9.675168e-08
44	0xb6f3562f	-7.2519974e-06
45	0xbc10af33	-0.008830833
46	0x3e43a2a9	0.19105019
47	0x3de03f8c	0.109496206
48	0xbcac0cad	-0.021002138
49	0x3d2b4a60	0.041818976
50	0xbc91d6d2	-0.01780263
51	0x3dc5547a	0.09635253
52	0x3dc1dabc	0.094655484
53	0x3e158a74	0.14603597
54	0x3d79ff64	0.061034575
55	0xbe2eb7b5	-0.17062266
56	0x3bf12395	0.007358978
57	0x3d2d1794	0.042258814
58	0x3d6f8b82	0.058482654
59	0x3ccaddf8	0.024764046
60	0xbd3b2554	-0.045689896
61	0xbd639170	-0.055558622
62	0x3dbff2bf	0.09372472
63	0x351293ca	5.46043e-07
64	0x348ea45e	2.6569154e-07
65	0xb0aec191	-1.2715181e-09
66	0xba9231b7	-0.0011153732
67	0xb1e09c97	-6.5370602e-09
68	0x328bc033	1.6269132e-08
69	0xba8d8cd0	-0.0010799412
70	0xb333f2e2	-4.1897586e-08
71	0xb4ccc5c7	-3.8141863e-07
72	0xbddc6078	-0.107605875
73	0x3e20619e	0.15662238
74	0xbd7dc82c	-0.061958477
75	0xbc2984f5	-0.010346641
76	0xbdf8699e	-0.1212952
77	0xbdbdec81	-0.09273625
78	0xbdc0408f	-0.093873136
79	0x3dcd5b8b	0.10027226
80	0xb8ad3ae8	-8.260255e-05
81	0xb396c6ba	-7.0210675e-08
82	0x3ba473e4	0.005018698
83	0x33301999	4.1001474e-08
84	0x32156c05	8.697502e-09
85	0xb4b62df0	-3.3933566e-07
86	0xbb14d1cb	-0.0022708054
87	0xb6147306	-2.212067e-06
88	0x3a59fb4b	0.00083153386
89	0xb274d4ad	-1.4251026e-08
90	0xbd9c2202	-0.07623674
91	0x3d016206	0.031587623
92	0x3e10b956	0.141332
93	0xbc84d9b8	-0.016217098
94	0x3d098330	0.033572376
95	0x3e37e5f0	0.17958808
96	0xbdeaa3b4	-0.11457005
97	0xbdf24bb6	-0.11830847
98	0x3c711318	0.014714025
99	0xbd80ec59	-0.0629508
100	0xbca36888	-0.019947305
101	0xbd9f9533	-0.07792129
102	0xbc96d1d9	-0.01841061
103	0xbd298352	-0.041385002
104	0x3d9e8651	0.077404626
105	0x3e2f351e	0.17110106
106	0xbc7ea36d	-0.015541893
107	0x3d7610d4	0.060074642
108	0xb818e145	-3.6449423e-05
109	0xb616a670	-2.2448621e-06
110	0xb3aeeb4b	-8.145306e-08
111	0xb15466ae	-3.0908427e-09
112	0x39e41636	0.00043504097
113	0xbb96d439	-0.0046029356
114	0xb34ec691	-4.8143708e-08
115	0xb38063d6	-5.9786245e-08
116	0x3237e6ae	1.0704452e-08
117	0x3d7b1f18	0.06130895
118	0xbc8087f8	-0.015689835
119	0xbdd89191	-0.105746396
120	0xbdd2b88f	-0.10289108
121	0xbd1af1f1	-0.03782839
122	0x3db38eb9	0.087674566
123	0x3d8068a4	0.062699586
124	0xbbcafb65	-0.0061945193
125	0x3d089146	0.03334167
126	0x34cafa8a	3.7807723e-07
127	0x3aa99f88	0.0012941221
128	0xb194ece2	-4.3342974e-09
129	0xbb92b357	-0.0044769454
130	0x2f2fb874	1.5981688e-10
131	0xbb7fcfb8	-0.0039033722
132	0xba0fba98	-0.0005482822
133	0xb1396948	-2.6980889e-09
134	0x330b32d9	3.2409705e-08
135	0x3d9e629d	0.07733653
136	0xbe013fc7	-0.12621985
137	0xbd37eb8e	-0.044902377
138	0x3d061ceb	0.032742422
139	0x3d51b3ed	0.05119698
140	0xbbdd9d76	-0.0067631556
141	0x3e081a7c	0.13291353
142	0x3e47917f	0.19489096
143	0x3e196f59	0.14983882
144	0x3d11a806	0.03556063
145	0x3d1cea99	0.038309667
146	0xbdbe77b4	-0.09300175
147	0xbb87c719	-0.0041436073
148	0xbe38426c	-0.17994088
149	0xbe180868	-0.14846957
150	0x3da59c4f	0.08086454
151	0x3cd8e072	0.026474211
152	0xbe01d849	-0.12680162
153	0xb828e8f0	-4.027126e-05
154	0x3073e080	8.872192e-10
155	0x35367f96	6.7985945e-07
156	0x32593cc0	1.2644875e-08
157	0xb5c1b756	-1.4432978e-06
158	0x3622f0bb	2.4280005e-06
159	0xb2e9078a	-2.7128198e-08
160	0xb410f98d	-1.3501831e-07
161	0xba23e3c8	-0.00062518986
162	0x3d2f47cd	0.042793084
163	0x3e0756de	0.13216731
164	0x3db2b8be	0.08726643
165	0xbe313d03	-0.1730843
166	0x3def37c4	0.11680558
167	0x3c7e9bb7	0.015540055
168	0x3d4a76a2	0.049429543
169	0x3d64b599	0.055837248
170	0x3c15d7d6	0.009145698
171	0x3b8151a4	0.0039465
172	0xb59aa0a2	-1.1520644e-06
173	0xb6ab5c78	-5.106962e-06
174	0x2e11f8e0	3.319023e-11
175	0xb601fcf9	-1.9369747e-06
176	0x338892df	6.359709e-08
177	0x3316dc49	3.5124945e-08
178	0x3b3b5519	0.0028584658
179	0x31c788c6	5.8072116e-09
180	0x3e0c9e65	0.13732298
181	0xbcf9c2d0	-0.030488402
182	0x3df9789c	0.121812075
183	0x3cfba396	0.030717652
184	0xbad205c6	-0.0016023449
185	0x3d406f39	0.04698107
186	0x3cd012c3	0.025399571
187	0x3cf2dd61	0.029646577
188	0xbdfe1774	-0.12406817
189	0x3df82491	0.121163495
190	0xbe0d5819	-0.13803138
191	0x3db1a796	0.086745426
192	0x3d9e29a9	0.0772279
193	0x3d5cef65	0.053939242
194	0x3de075e5	0.109599866
195	0x3dca050e	0.09864245
196	0x3cf8415b	0.030304601
197	0xbdfc85ec	-0.12330231
198	0xb42fcc5a	-1.6372488e-07
199	0x31fbfd4f	7.3338593e-09
200	0x38b95bc7	8.838582e-05
201	0xbba6b7dc	-0.0050878357
202	0xb82e8290	-4.160643e-05
203	0x31a3481f	4.7521236e-09
204	0xb9a42b81	-0.0003131293
205	0x36086e3e	2.0329749e-06
206	0x30845358	9.627952e-10
207	0x3e094049	0.13403429
208	0xbc9c546b	-0.019083222
209	0x3e0466c0	0.12929821
210	0x3a2c1bbe	0.0006565413
211	0x3d2aeab2	0.04172773
212	0x3e2ab148	0.1666919
213	0x3de3d667	0.111248784
214	0x3d0dd16e	0.034623556
215	0xba228b13	-0.0006200533
216	0xb2217d5b	-9.399936e-09
217	0x3333c8ed	4.1859426e-08
218	0x32ebbde9	2.7443962e-08
219	0x382be445	4.098217e-05
220	0x31fa2470	7.2801e-09
221	0xb2cdc81a	-2.3956137e-08
222	0x34f73f1d	4.6053256e-07
223	0xb8f98686	-0.00011898302
224	0x3b907704	0.004408719
225	0x3dac0f72	0.084013835
226	0x3e199d3d	0.15001388
227	0x3e074978	0.1321162
228	0x3e1abc7b	0.15110962
229	0xbda0deee	-0.078550205
230	0xbd000309	-0.031252895
231	0x3ded1bae	0.11577545
232	0x3e2e5a0e	0.1702654
233	0xbdcf2d69	-0.10116083
234	0x3dc25095	0.09488026
235	0x3dc418b0	0.09575021
236	0x3ceed624	0.029154845
237	0x3d0b1ac5	0.033961076
238	0xbe074d77	-0.13213144
239	0xbd8bac73	-0.068200015
240	0x3d81ec99	0.063439555
241	0xbdb89df7	-0.090145044
242	0xbbcb94e8	-0.0062128194
243	0xbad73969	-0.0016420308
244	0xb4b822aa	-3.4297892e-07
245	0x3a3fb879	0.00073135603
246	0xb190bcf0	-4.2124313e-09
247	0xba934cd3	-0.0011238105
248	0x3537663d	6.832159e-07
249	0xb4bf8fc2	-3.568112e-07
250	0xb8d2b171	-0.00010046631
251	0xb61e1ecd	-2.3561763e-06
252	0x3c870883	0.01648355
253	0x3d8cf4a0	0.06882596
254	0x3ca102aa	0.01965459
255	0x3d7cb8f4	0.061699823

conv1.bias f4 [32]
0	0x3de724a7	0.11286288
1	0x3c9ee669	0.019396977
2	0xbce4d8aa	-0.027935345
3	0x3dc9239d	0.09821246
4	0xbd8ff811	-0.07029737
5	0xbe188818	-0.14895666
6	0xbbac2370	-0.005253248
7	0x3d9d02f5	0.0766658
8	0x3d82121e	0.06351112
9	0xbdb43a19	-0.08800144
10	0x3e33eaf4	0.17570096
11	0xbd63bd6a	-0.05560056
12	0x3e1b8faa	0.15191522
13	0x3e0d7cb3	0.138171
14	0xbd9424b7	-0.07233565
15	0xbd265811	-0.04061133
16	0xbd1b5b6c	-0.037928984
17	0xbda3ccc1	-0.07998038
18	0xbcc7f348	-0.024407998
19	0x3e1c95bc	0.15291494
20	0xbd65bd2f	-0.056088623
21	0x3d549d5f	0.051907893
22	0xbb93a3fc	-0.0045056324
23	0xbd8f85e2	-0.07007958
24	0xbda09954	-0.07841745
25	0x3d8e2343	0.069403194
26	0xbdf49319	-0.11942119
27	0x3e14e2a7	0.14539586
28	0x3e01fe57	0.12694679
29	0xbda49e4c	-0.08038005
30	0xbdd1b861	-0.102402456
31	0x3dbd6fcb	0.092498384

conv2.weight f4 [64, 32, 3, 3]
0	0xbca30d50	-0.019903809
1	0x3d1e3b94	0.038631037
2	0x3b114a01	0.0022169354
3	0x3d2dc82b	0.042427223
4	0xbd48b0cf	-0.048996743
5	0xbd60280e	-0.0547257
6	0xbd3b1274	-0.045671895
7	0x3cc00525	0.023439953
8	0xbc9c9c0f	-0.019117383
9	0xbd2c23b4	-0.042026237
10	0xbd36a1d2	-0.044587918
11	0xbcf29d5d	-0.029616052
12	0x3cfc0307	0.030763162
13	0x3d199349	0.037493978
14	0x3d338824	0.043831006
15	0x3d0f64c0	0.035008192
16	0x3cbde70e	0.023181465
17	0x3d8c3226	0.068455026
18	0xbd601067	-0.054703142
19	0xbd15cc31	-0.036571685
20	0xbcf3b901	-0.029751303
21	0x3ce92a56	0.02846257
22	0x3d35c8f0	0.044381082
23	0x3c207cc4	0.009795371
24	0x3c59b428	0.0132875815
25	0x3cdbedfd	0.02684688
26	0xbd31dd87	-0.043424156
27	0xbd9744ab	-0.07386144
28	0xbbee02eb	-0.0072635314
29	0x3d01d457	0.031696644
30	0x3b031430	0.0020001046
31	0x3a3c7bc0	0.0007190071
32	0x3b6f167a	0.0036481903
33	0x3d1ede0d	0.038785983
34	0x3ccbe095	0.024887362
35	0x3d7bd130	0.061478794
36	0xba8fc9dd	-0.0010970194
37	0x3d39727a	0.04527519
38	0xbd2fc8e8	-0.04291621
39	0x3ce5b514	0.028040446
40	0x3d679516	0.056538664
41	0xbc89a00e	-0.016799953
42	0x3bcac9d7	0.006188612
43	0x3bbfce14	0.005853424
44	0xbcc3189d	-0.023815447
45	0xbd5a2826	-0.053260945
46	0xbc3ab382	-0.011395337
47	0x3c03f035	0.008052875
48	0xbd438907	-0.0477381
49	0xbcfb0f70	-0.03064701
50	0x3c2eeabf	0.010676085
51	0xbcb52b0e	-0.022115257
52	0x3d89c820	0.06727624
53	0x3cf8ec16	0.030386012
54	0xbca499a2	-0.02009279
55	0xbd33dab1	-0.043909732
56	0xbd87d161	-0.06631733
57	0x3b84a3f6	0.004047866
58	0x3cc6b91d	0.02425819
59	0xbba42ae7	-0.005009997
60	0x3d065b56	0.03280195
61	0xbc93b4ab	-0.018030485
62	0xbcef4579	-0.029207932
63	0x3ccec527	0.025240494
64	0xbce9a5ff	-0.028521536
65	0x3d0185ad	0.031621624
66	0xbcebaf36	-0.02877007
67	0x3dc05536	0.09391253
68	0x3d2ca11e	0.04214584
69	0x3d4e8db0	0.050428092
70	0xbc19d654	-0.009389479
71	0x3a4aea28	0.00077405805
72	0xbda00133	-0.07812729
73	0xbca7a913	-0.020466363
74	0x3be8b2e4	0.0071014035
75	0xbd6e041a	-0.05810938
76	0x3d81b926	0.063341424
77	0xbd87fd47	-0.06640106
78	0xbcd6d54e	-0.026224758
79	0x3d1dc341	0.038516287
80	0x3d2fa06e	0.042877607
81	0x3b6198e6	0.003442341
82	0xbd7779c6	-0.060418867
83	0xbcfcf1e9	-0.03087707
84	0x3d213eef	0.03936666
85	0xbd859bcf	-0.06523859
86	0xbd07acd1	-0.033123795
87	0x3d4bcf08	0.049757987
88	0x3d54b4a2	0.051930077
89	0xba4208bc	-0.0007401814
90	0xbd56ffe0	-0.052490115
91	0x3cc08e97	0.023505492
92	0xbd7eea54	-0.06223519
93	0xbd75f027	-0.06004348
94	0xbd6f5520	-0.05843079
95	0xbdb302b6	-0.087407514
96	0xbd082ddd	-0.033246864
97	0xbcb500c7	-0.022095097
98	0xbccb093a	-0.024784673
99	0x3c776f6b	0.015102248
100	0x3d799dd7	0.060941543
101	0xbbcd2d06	-0.0062614707
102	0xbd7d89f7	-0.06189915
103	0x3cb56b88	0.022146001
104	0x3d618dd9	0.055066917
105	0xbc2231ce	-0.00989957
106	0x3d12e199	0.035859678
107	0xbd50978a	-0.05092577
108	0xbdc135de	-0.094341025
109	0xbd08561a	-0.033285238
110	0xbdb380de	-0.08764814
111	0x3c1d61a5	0.0096058
112	0x3d790a7e	0.06080102
113	0xbdb2236f	-0.08698165
114	0xbd16d5a5	-0.03682484
115	0xbd29d987	-0.041467216
116	0x3b18d02a	0.0023317435
117	0xbd96bd44	-0.07360318
118	0xbd611885	-0.054955024
119	0x3d13474d	0.03595667
120	0xbd8dbf50	-0.069212556
121	0x3cf4c4b0	0.029878944
122	0xbc9b439d	-0.018953139
123	0xbd2fd1c4	-0.042924657
124	0x3c0130dc	0.007885184
125	0xbc4b3e00	-0.012404919
126	0xbc2639eb	-0.010145645
127	0x3c748600	0.014924526
128	0xbd24df30	-0.04025191
129	0xbd7f7aed	-0.06237309
130	0xbcd59a7a	-0.026074637
131	0x3bc9c05d	0.0061569647
132	0xbda65551	-0.081217416
133	0xbbebe618	-0.00719906
134	0x3ce3c35f	0.027803121
135	0xbd2df0ac	-0.04246585
136	0xbce011b9	-0.0273522
137	0xbd077851	-0.033073727
138	0xbd2cb1bf	-0.0421617
139	0xbc039888	-0.008031972
140	0xbcd4825e	-0.02594107
141	0xbc52f8c2	-0.012876691
142	0xbd23a354	-0.039950684
143	0xbd45b810	-0.04827124
144	0x3d8555a5	0.06510476
145	0xbd1c1929	-0.038109932
146	0xbd4cff70	-0.05004829
147	0xbd1dedd8	-0.038556904
148	0xbd706f5e	-0.058699958
149	0xbcf82091	-0.030288966
150	0xbb2e1b2e	-0.0026566493
151	0x3c9b39d3	0.018948471
152	0xbcaeeb1c	-0.021352343
153	0xbd29748f	-0.041370925
154	0x3d1491b5	0.03627177
155	0x3c2f0bab	0.010683934
156	0xbd727515	-0.05919369
157	0xbaf610c7	-0.0018773311
158	0x3d9cb04e	0.07650815
159	0x3bfe9d20	0.0077701956
160	0x3d4ce9b2	0.050027557
161	0xbd305fbe	-0.043060057
162	0xbd139e21	-0.036039475
163	0x3c48e3a0	0.012261301
164	0x3d5f33e7	0.054492857
165	0xbc3a4dc0	-0.011371076
166	0xbd6397ca	-0.05556468
167	0x3c931397	0.017953677
168	0x3d7b9c20	0.06142819
169	0xbcbc14af	-0.022959081
170	0x3cd81cdc	0.026380949
171	0x3c9c84b0	0.01910624
172	0xbd92595e	-0.07145952
173	0xbd3b130a	-0.045672454
174	0xbaaea25d	-0.0013323535
175	0x3d304173	0.043031167
176	0xbd0a0837	-0.03369924
177	0x3b28d20c	0.0025759963
178	0xbd32f37b	-0.043689232
179	0xbdca9974	-0.0989255
180	0xbd731fe1	-0.059356574
181	0x3d19085d	0.03736149
182	0x3a95b3d6	0.0011421393
183	0xbc6f2787	-0.014596826
184	0x3d74917d	0.05970906
185	0x3cb16939	0.02165662
186	0x3c0ab544	0.008466069
187	0x3c2bfc5e	0.010497181
188	0xbb98d7f0	-0.0046644136
189	0x3b8ebb42	0.004355819
190	0x3c59b49c	0.01328769
191	0xbd317220	-0.04332173
192	0xbbcc05ed	-0.0062262923
193	0x3d8dd680	0.06925678
194	0xbbb5753f	-0.0055376585
195	0xbc086b07	-0.008326299
196	0xbd7a9227	-0.061174538
197	0xbd8f4a22	-0.069965616
198	0x3d4d51e8	0.05012694
199	0xbbd5c11c	-0.0065232646
200	0xbb85ab04	-0.0040792245
201	0xbd49945d	-0.049213756
202	0xbcc39643	-0.023875361
203	0xbbee29b1	-0.0072681536
204	0xbd7c7491	-0.061634604
205	0x3c72d845	0.0148220705
206	0xbd4bbf61	-0.04974306
207	0x3d642721	0.05570138
208	0xbd04dd69	-0.032437716
209	0xbd71b511	-0.05901057
210	0x3cbac054	0.022796787
211	0x3cc0acac	0.023519836
212	0xbd3d7ecd	-0.046263505
213	0x3c5c6a31	0.013453052
214	0x3d8ff4cd	0.07029114
215	0x3dc411d5	0.09573714
216	0x3c1bbfd7	0.009506187
217	0x3c6dffae	0.014526291
218	0x3d1fe6c9	0.039038453
219	0xbcb4af79	-0.022056328
220	0x3c9e0493	0.01928929
221	0xbd675ca0	-0.05648482
222	0x3cac890a	0.021061439
223	0xbc612b2b	-0.013743202
224	0xbcc67692	-0.02422646
225	0x3ca88985	0.020573387
226	0x3d5406a0	0.05176413
227	0x3ae876ec	0.0017735637
228	0xbb89dabc	-0.0042069834
229	0xbcbf449c	-0.023348145
230	0xbd444010	-0.047912657
231	0x3d02d630	0.031942546
232	0x3a3b9eb0	0.000715713
233	0x3ce8ea8b	0.028432151
234	0x3c8f5668	0.017497256
235	0x3d457001	0.04820252
236	0x3ae8ac8c	0.0017751618
237	0x3d2dbaa9	0.04241434
238	0xbb9fc569	-0.004875828
239	0x3d88aaca	0.066732004
240	0x3d4923be	0.049106352
241	0xbba88d11	-0.0051437696
242	0x3b9e4904	0.0048304815
243	0x3ab1743f	0.0013538672
244	0xbd7cf5af	-0.06175774
245	0xbcbac4d4	-0.022798933
246	0x3c692d96	0.01423206
247	0xbd393fbc	-0.045226797
248	0xbc796761	-0.015222401
249	0xbd57ab78	-0.05265376
250	0xbd15a794	-0.036536768
251	0xbd42fb86	-0.047603153
252	0xbcbfc264	-0.023408122
253	0x3d1575f4	0.036489442
254	0x3d53ae0f	0.051679667
255	0x3c9823a7	0.018571688

conv2.bias f4 [64]
0	0x3ceaeb2d	0.028676594
1	0x3c00a5d7	0.007852039
2	0xbd8eb199	-0.06967468
3	0xbd1fc079	-0.039001916
4	0xbc8d6d12	-0.017263923
5	0x3d76b908	0.060235053
6	0x3d69abf0	0.057048738
7	0x3ced2ff4	0.02895353
8	0xbcb73bc2	-0.022367362
9	0x3d9043fc	0.07044217
10	0xbd163cc8	-0.03667906
11	0xbcc55d51	-0.024092348
12	0x3d5a1dd2	0.053251095
13	0xbd2c0306	-0.04199507
14	0xbbfc9210	-0.0077078417
15	0xbca50d08	-0.020147815
16	0x3cc80255	0.024415174
17	0x3da764b4	0.081735045
18	0x3cd32475	0.02577422
19	0x3d15bd9e	0.036557786
20	0x3aa41785	0.0012519216
21	0xbce7af93	-0.028281962
22	0x3d904bd9	0.07045717
23	0x3d60142d	0.05470674
24	0x3cdd9284	0.027047403
25	0x3dc3854f	0.09546911
26	0xbb2e6c8b	-0.002661499
27	0x3d4f0ced	0.050549436
28	0xbd6a55c7	-0.05721071
29	0xbcd9cb67	-0.026586248
30	0x3d8bb39f	0.068213694
31	0x3d6e5b3e	0.058192484
32	0x3c089789	0.00833691
33	0x3cdc8290	0.026917726
34	0x3c149374	0.009068359
35	0x3db28920	0.08717561
36	0x3ce262ba	0.027634967
37	0xbd1c7609	-0.038198505
38	0x388fae53	6.851242e-05
39	0x3d96ad14	0.07357231
40	0x3d131788	0.035911113
41	0xbc91422f	-0.017731754
42	0xbd7d060d	-0.06177335
43	0xbcef2e1e	-0.029196795
44	0xbb8228e2	-0.003972159
45	0x3d65cb21	0.056101922
46	0xbd062dca	-0.03275851
47	0x3d91d70c	0.07121095
48	0x3d5d8d9b	0.054090124
49	0xbd3d3a3e	-0.046198122
50	0x3d2d4b31	0.042308036
51	0x3d83f17f	0.06442546
52	0x3db22269	0.086979695
53	0x39a6c5fd	0.000318095
54	0x3d0c0bd9	0.034190986
55	0x3d990b35	0.07472841
56	0xbc3e5058	-0.011615835
57	0x3d35636b	0.044284265
58	0xbd1231aa	-0.035691895
59	0xbbdd2d0e	-0.0067497557
60	0x3c4149d0	0.011797383
61	0xbcc864bd	-0.024462098
62	0xbd1d4398	-0.03839454
63	0xbc147bdc	-0.0090627335

conv3.weight f4 [128, 64, 3, 3]
0	0x3cbae140	0.022812486
1	0x3d2654f5	0.040608365
2	0xbc3a3069	-0.011364081
3	0xbcc1d9c6	-0.023663413
4	0xbcb18074	-0.021667697
5	0xbcb198ff	-0.0216794
6	0x3b49c216	0.003078585
7	0xbc05c5a7	-0.0081648
8	0x3c11daa4	0.008902226
9	0x3ccbd2fd	0.02488088
10	0x3cfe796d	0.03106376
11	0x3d636d5f	0.055524226
12	0xbd166254	-0.036714867
13	0x3d0adacf	0.03390008
14	0xbb894f6d	-0.0041903765
15	0xbb61c2a4	-0.003444829
16	0xbad3cdaa	-0.0016159315
17	0xbba7108a	-0.005098407
18	0x3d79f436	0.061023913
19	0xbcf98e46	-0.03046335
20	0xbc4262b5	-0.011864354
21	0x3ccc21e5	0.024918506
22	0xbbec80f9	-0.007217523
23	0x3cd2ddaf	0.025740473
24	0xbd4a4f4b	-0.049392026
25	0xbd0d81ca	-0.034547605
26	0x3ce2ecf5	0.02770088
27	0x3c8b0150	0.0169684
28	0xbc5e9930	-0.013586327
29	0x3dd4c7e8	0.103896916
30	0xbce29763	-0.027660077
31	0x3c9e3f13	0.019317186
32	0x3db1dd6c	0.08684811
33	0x3ca1ef22	0.019767348
34	0x3d51e4cb	0.051243585
35	0xbd5902dd	-0.052981246
36	0x3bf4d9c7	0.00747225
37	0xba516908	-0.0007988368
38	0xbd47d1b7	-0.048783984
39	0xbc747a9e	-0.014921812
40	0xbd1ddd80	-0.038541317
41	0xbccc2eb1	-0.024924608
42	0xbd224398	-0.039615244
43	0xbbd9a000	-0.006641388
44	0x3d106dce	0.035260968
45	0x3cebd748	0.028789178
46	0x3b4e7efc	0.0031508794
47	0xbccdec21	-0.02513701
48	0x3d7fc9a6	0.062448166
49	0x3c9ad3ed	0.018899882
50	0xbd004d0b	-0.031323474
51	0x3d034116	0.032044493
52	0xbd5ebcf2	-0.05437941
53	0x3ca1ff31	0.019775005
54	0x3c9bbad5	0.019009987
55	0x3adab55e	0.0016686132
56	0xbc998b3a	-0.018743146
57	0xbcbf8a44	-0.02338136
58	0xbcb9a186	-0.022660028
59	0xbc0f99f4	-0.008764733
60	0x3ca70f4f	0.020393042
61	0xbcce0a4d	-0.025151396
62	0xbc522e64	-0.012828443
63	0x3bc56956	0.00602452
64	0xbc00d5dc	-0.007863488
65	0x3d13f13d	0.036118735
66	0xbcc33eb7	-0.023833616
67	0x3ce7d59b	0.028300097
68	0xbba14eea	-0.0049227374
69	0x3cc31ebc	0.023818366
70	0xbb9b708d	-0.0047436417
71	0x3a2eb8a8	0.0006665089
72	0x3bc56503	0.0060240044
73	0x3c54f9fc	0.012999054
74	0xbd1646d1	-0.03668863
75	0x3cf7a934	0.03023205
76	0x3c6dfbb5	0.014525344
77	0xbb89fd4c	-0.0042111035
78	0x3d071aff	0.03298473
79	0xbd214279	-0.039370034
80	0xbcd6273c	-0.026141755
81	0xbccbca87	-0.024876846
82	0xbce29a70	-0.027661532
83	0xbd5f6813	-0.054542612
84	0xbd2c188d	-0.0420156
85	0xbd6c092e	-0.057625942
86	0x3cf0284a	0.029316086
87	0xbd0cbe6d	-0.03436129
88	0x3d219de5	0.03945722
89	0xbc8d404d	-0.017242575
90	0x3cd5d8c9	0.026104348
91	0x3c6e4322	0.014542373
92	0xbc2f8ce0	-0.01071474
93	0x3a12c108	0.0005598222
94	0x3cafd79b	0.021465113
95	0xbc6ae01a	-0.014335657
96	0x3d0293d9	0.03187928
97	0x3cb76859	0.022388624
98	0xbd441d8d	-0.047879744
99	0xbd4e0b4c	-0.050303742
100	0x3d7f61af	0.062349018
101	0x3cfdcc80	0.030981302
102	0x3d24b73c	0.04021381
103	0x3d246227	0.040132668
104	0xbc132243	-0.008980337
105	0x3cf46988	0.029835477
106	0xbd55b230	-0.052171886
107	0x3d800f18	0.06252879
108	0xbcfef7f3	-0.03112409
109	0x3d35f3be	0.044421904
110	0xbca381bc	-0.019959323
111	0x3c5e2f25	0.013561045
112	0x3cbdcaea	0.023168046
113	0xbcd71275	-0.026253918
114	0x3b8c35ee	0.00427889
115	0x3aff4bbc	0.0019477527
116	0x3db1b992	0.08677973
117	0xbbf8b727	-0.007590193
118	0xbca662f6	-0.02031086
119	0xbcf48c29	-0.02985199
120	0x3c033948	0.008009262
121	0x3ca30c69	0.019903379
122	0x3ba061a1	0.004894451
123	0x3d3a549e	0.045490853
124	0x3c8e87e5	0.017398784
125	0xbcdde014	-0.027084388
126	0xbd7378d1	-0.05944139
127	0x3cb83748	0.022487298
128	0xbc8d1d4f	-0.01722589
129	0xbd8b9ecd	-0.06817398
130	0xbc97485d	-0.018467123
131	0x3c3e8391	0.011628048
132	0x3cc74f80	0.0243299
133	0x3bcd5ff1	0.0062675406
134	0x3ca38cf9	0.019964682
135	0x3965a8e0	0.00021902053
136	0xbc7c418d	-0.015396488
137	0xbcfaa356	-0.030595463
138	0x3d32943c	0.0435984
139	0xbd7fab48	-0.062419206
140	0xbd39f108	-0.04539588
141	0x3c6269c3	0.013819161
142	0x3c8ef9ec	0.017453156
143	0xbc2393fd	-0.009984014
144	0x3ba4f47c	0.0050340276
145	0xbc8c0143	-0.017090445
146	0xbbb13e5f	-0.0054090465
147	0x3bc685ef	0.0060584466
148	0xbbdb8e74	-0.0067003313
149	0xbd0e79fb	-0.0347843
150	0x3cacbc35	0.021085838
151	0x3c3084e8	0.010773875
152	0x3d56a480	0.052402973
153	0xbc674d1c	-0.014117505
154	0x3d0d31b2	0.03447122
155	0x3b96b563	0.0045992597
156	0x3d22829b	0.039675336
157	0x3d5e53a7	0.054278996
158	0xbba5d1e3	-0.005060421
159	0x3cb81ba9	0.022474127
160	0x3bbfdd67	0.0058552506
161	0x3ca30321	0.019898953
162	0x3c9dd333	0.019265747
163	0xbd3d5b32	-0.04622955
164	0x3cff9eba	0.031203616
165	0xbcb4c720	-0.022067606
166	0x3b7fc150	0.0039025135
167	0x3d33d133	0.04390068
168	0xbd589f25	-0.052886147
169	0x3ccd0c42	0.025030259
170	0x3c9f82f9	0.019471632
171	0xbba6e6f1	-0.0050934483
172	0x3d83c2f1	0.064336665
173	0x3d9d6037	0.07684367
174	0x3c0c9608	0.008580692
175	0xbc945705	-0.0181079
176	0xbc08631e	-0.008324413
177	0x3d56b6cd	0.052420426
178	0x3cc2be0a	0.023772258
179	0xbc3418d0	-0.010992244
180	0xbb8c79a2	-0.0042869607
181	0x3d144b08	0.036204368
182	0x3c5005da	0.012696708
183	0xbcbe6c22	-0.023244921
184	0xbca3f839	-0.020015823
185	0xba76fe5b	-0.0009422057
186	0xbc605e4f	-0.01369436
187	0x3cc3b044	0.023887761
188	0x3d82bb58	0.06383389
189	0xbc94f634	-0.018183805
190	0x3d4c095c	0.049813613
191	0x3ceefcd8	0.0291733
192	0xbd2d52a7	-0.04231515
193	0x3d11e17d	0.035615433
194	0xbbc86362	-0.006115363
195	0xbd52f6a5	-0.05150475
196	0xbd384836	-0.04499074
197	0xbd78ed20	-0.060773015
198	0x3c25dc9e	0.0101234
199	0x3cffa0c6	0.031204592
200	0xbdbc698d	-0.0919982
201	0x3b130f25	0.0022439447
202	0xbd1aade8	-0.037763506
203	0xbd7e0468	-0.06201592
204	0x3ce12bdc	0.027486734
205	0xbd156a09	-0.036478076
206	0x3db27205	0.08713154
207	0xbd2ab2b9	-0.04167435
208	0xbc2f926e	-0.010716064
209	0x3d513e32	0.051084705
210	0xbd41c31e	-0.04730522
211	0x3d426248	0.04745701
212	0xbcaa7d9a	-0.020811845
213	0xbd63fbbc	-0.055659994
214	0x3cff80b9	0.03118931
215	0x3d35f186	0.044419788
216	0x3c79ac61	0.015238852
217	0x3b9701e6	0.0046083806
218	0x3c423da0	0.011855513
219	0x3d3d4d40	0.04621625
220	0xbcb9285e	-0.022602256
221	0xbbcbf5b7	-0.00622436
222	0xbb9aacf6	-0.0047203256
223	0xbcc9492e	-0.024571028
224	0xbcdad52c	-0.026712976
225	0xbd807ac4	-0.06273416
226	0x3d2b6164	0.041840926
227	0x3d34a9db	0.0441073
228	0x3cca676c	0.024707519
229	0x3cbd3ab8	0.023099288
230	0xbd201eb2	-0.039091773
231	0x3ccd29d6	0.025044363
232	0xbb1cfa1a	-0.0023952783
233	0x3d227212	0.039659567
234	0x3c3aa8d1	0.011392788
235	0x3c946382	0.018113855
236	0xbcc230da	-0.023704935
237	0x3b766310	0.0037595667
238	0xbcc55823	-0.024089878
239	0x3ce411c1	0.027840497
240	0xbcb9f70b	-0.022700807
241	0xbd917eac	-0.07104239
242	0x3d217c4c	0.03942518
243	0x3c4a44db	0.012345518
244	0xbb372dc9	-0.0027950874
245	0xbd0659b4	-0.03280039
246	0xbc904cab	-0.017614683
247	0x3c900fc1	0.017585637
248	0xbc79d9e7	-0.015249706
249	0xbc368705	-0.01114059
250	0xbc152e4a	-0.009105274
251	0xbbf9ac70	-0.007619433
252	0xbd2f6d79	-0.04282901
253	0x3a57f681	0.0008238331
254	0x3ca39f1f	0.019973336
255	0x3d2cae2a	0.042158283

conv3.bias f4 [128]
0	0xbad84070	-0.0016498696
1	0xbd083c71	-0.033260766
2	0xbcba9495	-0.022775928
3	0x3d33d915	0.043908197
4	0xbc9eeec7	-0.019400967
5	0x3c488ddc	0.012240853
6	0xbc811233	-0.015755748
7	0x3d2f1e92	0.042753763
8	0xbc909c8f	-0.017652778
9	0x3c912fab	0.017722925
10	0xbc71cab7	-0.014757804
11	0xbc1632a4	-0.009167347
12	0x3d307075	0.043075997
13	0xbc78c32d	-0.015183252
14	0x3cc82dbe	0.024435874
15	0x3cdd9707	0.027049555
16	0x3d3fbe47	0.046812322
17	0x3d3aa171	0.04556412
18	0x3cc2fb9d	0.02380162
19	0x3c1b9263	0.0094953505
20	0x3d0333c8	0.032031804
21	0x3cdc51c9	0.026894467
22	0x3d77ca8e	0.060495906
23	0x3cfe2cc5	0.031027207
24	0xbc9f38d5	-0.01943628
25	0x3c9d23ad	0.01918205
26	0x3d3e11cd	0.046403695
27	0xbcc551d6	-0.024086874
28	0x3bc1475f	0.0058984007
29	0xbd29ded3	-0.041472267
30	0xbd488d5b	-0.048962932
31	0x3ce191e5	0.027535388
32	0xbd0ff4e7	-0.035145666
33	0x3d3a0a27	0.04541984
34	0x3bec19af	0.00720521
35	0xbd054218	-0.032533735
36	0x3d4b3cf3	0.049618673
37	0xbd25d8b8	-0.040489882
38	0x3c5ca95e	0.013468115
39	0x3b755fd1	0.0037441144
40	0x3d184d68	0.037183195
41	0xbc483f20	-0.012222081
42	0x3cc63be4	0.02419848
43	0xbc996d6d	-0.018728936
44	0x3ccdeb8f	0.025136737
45	0x3d985f81	0.07440091
46	0x3c558c40	0.0130339265
47	0x3c3db5f9	0.01157903
48	0x3ca6c83e	0.020359155
49	0x3a75775c	0.0009363794
50	0xbce0bc78	-0.027433619
51	0xbbfcc7b8	-0.007714238
52	0xbd037b6b	-0.032100122
53	0x3d5c5ae0	0.053797603
54	0xbb8533e1	-0.0040650223
55	0x3cda48cc	0.02664604
56	0xbbcbd720	-0.0062207133
57	0x3d46b8bc	0.04851602
58	0xbaa96789	-0.0012924533
59	0x3cf9c08f	0.030487327
60	0x3d2001c7	0.039064195
61	0x3cfeb427	0.031091763
62	0x3c567a63	0.013090703
63	0xbc4666cb	-0.012109469
64	0xbcb818bf	-0.022472737
65	0x3d47d01b	0.04878245
66	0x3d0c9206	0.034318946
67	0x3c8ff180	0.01757121
68	0x3c7d2fcd	0.015453291
69	0x3c5feefd	0.013667819
70	0x3c069d6c	0.008216243
71	0x3cbf16e8	0.023326352
72	0xbc8d79f4	-0.017270066
73	0x3bd1027a	0.006378469
74	0x3ce581da	0.02801602
75	0x3d59c36b	0.05316488
76	0x3d42c7dc	0.047553882
77	0x3d3721f0	0.0447101
78	0x3c97f528	0.018549517
79	0x3cff66b0	0.031176895
80	0xbd20a1fe	-0.039216988
81	0x3d050cfb	0.032483082
82	0xbc8dfc1c	-0.01733213
83	0xbd0925f3	-0.033483457
84	0x3c2554ca	0.010091016
85	0xbb0c7a86	-0.0021435334
86	0x3d00dbd6	0.031459652
87	0xbc1abdf9	-0.009444707
88	0x3c664a98	0.0140558705
89	0x3c9e6e0e	0.019339588
90	0xbcdcc837	-0.026950939
91	0x3d8ecc23	0.0697253
92	0xbbbacbbc	-0.0057005566
93	0x3cc8195b	0.024426153
94	0x3c4a04ec	0.012330275
95	0x3c156749	0.009118863
96	0xbb808adf	-0.0039228047
97	0x3c88b46a	0.01668759
98	0xbc902c9b	-0.017599395
99	0x3cce6576	0.025194865
100	0x3ca5ef46	0.020255696
101	0x3d4e03ce	0.050296597
102	0xbc040917	-0.008058808
103	0xbc6f064b	-0.014588903
104	0x3cf8bb3d	0.03036272
105	0x3d5b9d66	0.053616904
106	0x3c529b60	0.012854427
107	0x3d0cce61	0.034376506
108	0xbcb53f13	-0.022124803
109	0x3c4a44c6	0.012345498
110	0x3bcae37f	0.0061916704
111	0x3cc2c33a	0.023774732
112	0xbd06eb81	-0.032939438
113	0xbbc7f7b8	-0.0061025284
114	0x3d185676	0.03719183
115	0x3d1f9cc8	0.038967878
116	0xbb302ae1	-0.0026881027
117	0xbbd6b627	-0.006552476
118	0xbc7566d3	-0.0149781285
119	0x3c88792d	0.016659344
120	0xbc243095	-0.0100213485
121	0xbbba6316	-0.0056880815
122	0xbcaebbf7	-0.021329863
123	0x3c684c10	0.014178291
124	0xbccac8ce	-0.024753954
125	0xbcde3e14	-0.02712921
126	0xbcbdd026	-0.023170542
127	0x3d83c951	0.064348824

act_conv1.weight f4 [4, 128, 1, 1]
0	0x3baf84b1	0.005356394
1	0x30a815fa	1.2229855e-09
2	0x3b5fd137	0.0034151801
3	0xbd8ce51b	-0.06879636
4	0x3c343b05	0.0110003995
5	0x3c6a5b53	0.014304
6	0x3d4c90f7	0.049942937
7	0x3c86be51	0.016448172
8	0x3d90499c	0.0704529
9	0xbdda9b0c	-0.10674104
10	0xbcb78ce4	-0.02240605
11	0x3cba8373	0.022767758
12	0xbdf7f056	-0.12106387
13	0x3c3187f4	0.010835636
14	0x3cf3e853	0.029773867
15	0xbd410cb5	-0.04713126
16	0x3c8a3e74	0.016875483
17	0xbd5686a2	-0.05237449
18	0x3ce78f4b	0.02826657
19	0x3c0e5cf2	0.008689152
20	0xbc7f27ac	-0.015573423
21	0x3cc505cf	0.024050621
22	0xbdbd8817	-0.09254473
23	0x3bccd3c2	0.0062508294
24	0x3c86c734	0.01645241
25	0x3d1445c2	0.03619934
26	0xbb82c781	-0.003991068
27	0xbd103da1	-0.035215024
28	0x3c20da7c	0.009817716
29	0xbd2f1da3	-0.042752873
30	0xbcbd23d2	-0.02308837
31	0x3d2695ef	0.04067033
32	0x32a430ea	1.9114356e-08
33	0x38d6a90c	0.000102358026
34	0xbcd820d0	-0.026382834
35	0x3d675e45	0.056486387
36	0xbd89a251	-0.067204125
37	0xbcc07d86	-0.023497354
38	0xb9f38948	-0.00046450854
39	0xba066650	-0.000512694
40	0xbd112d23	-0.035443436
41	0xbce0e894	-0.027454652
42	0xbd1b68c5	-0.037941713
43	0xbd39ad09	-0.045331035
44	0x3a906117	0.0011015263
45	0xbda5d864	-0.08097914
46	0xbb7d67ad	-0.0038666532
47	0xbdabf410	-0.083961606
48	0x3c796074	0.01522075
49	0xbd01d495	-0.031696875
50	0x3d1b45f3	0.037908506
51	0x3d052beb	0.032512587
52	0x3b32b78f	0.0027270054
53	0xbd16d008	-0.036819488
54	0xbd55eac9	-0.05222586
55	0x3d70db1e	0.058802716
56	0xb13ece77	-2.7766e-09
57	0xbdd32bcd	-0.10311089
58	0xbd95d200	-0.07315445
59	0xbc9ea878	-0.019367442
60	0xbda18826	-0.078872964
61	0x3cebff21	0.028808178
62	0x3d258821	0.040413026
63	0xb4ff48be	-4.7550378e-07
64	0x3d7687be	0.060188048
65	0xbd4e6633	-0.050390434
66	0x3d41c4b2	0.047306724
67	0xbb64aa58	-0.0034891572
68	0xbd10c1f7	-0.03534123
69	0xbba8edbf	-0.0051552947
70	0x3d22b0e6	0.039719485
71	0x3c14bbc5	0.009077971
72	0xbd0efe95	-0.034910757
73	0x3d97012a	0.07373269
74	0x3d56818c	0.05236964
75	0xbd6b7e24	-0.057493344
76	0xbb595c09	-0.003316643
77	0x3b9751e9	0.0046179187
78	0xbd80c6d6	-0.06287925
79	0xbcbaf022	-0.022819582
80	0x3c514607	0.0127730435
81	0x3d23c4c5	0.039982576
82	0x3c311eb6	0.010810545
83	0xb4055e7b	-1.2420962e-07
84	0xbcd38922	-0.025822226
85	0x3336d35e	4.2567414e-08
86	0xbdb6394a	-0.08897646
87	0x3d96a2fa	0.07355304
88	0x3d2a9fad	0.041656185
89	0x3b5e5370	0.0033924244
90	0x3c33f8ad	0.010984582
91	0xbd90546f	-0.070473544
92	0x3cbfcaf2	0.023412202
93	0x3d687e80	0.056761265
94	0xbd025295	-0.031817038
95	0x3d23313f	0.039841887
96	0xbd119001	-0.035537723
97	0x3d5f20c0	0.054474592
98	0xbd1e5135	-0.038651664
99	0x3d89fc24	0.06737545
100	0x3c1d3db3	0.00959723
101	0x3cbf3f87	0.023345722
102	0x3b6166dd	0.0034393587
103	0xbda08acf	-0.07838976
104	0xbb3ef0d4	-0.0029135244
105	0x3bd4be88	0.0064924397
106	0xb923d270	-0.00015623285
107	0xbdaf530e	-0.08560763
108	0x3cd327e3	0.025775855
109	0x3d803a70	0.06261146
110	0xbcc01f05	-0.023452291
111	0x3c96c9cc	0.018406771
112	0x3386878c	6.264517e-08
113	0x3b2220f6	0.0024738885
114	0xbce1e508	-0.02757503
115	0x3a6e86a3	0.0009099042
116	0xbd2bf151	-0.041978184
117	0x3d274ca2	0.040844567
118	0x3d1d2a50	0.03837043
119	0x3b90490b	0.0044032387
120	0x3d9e6fbc	0.077361554
121	0xbc8a96fd	-0.0169177
122	0xbca56e73	-0.020194268
123	0xbdc279fc	-0.09495923
124	0x35e9aaa7	1.7409519e-06
125	0x3d3d4bde	0.04621493
126	0x31ce55ef	6.0051586e-09
127	0xbb47dce9	-0.0030496663
128	0xb9e73a02	-0.00044102973
129	0x3d568c14	0.052379683
130	0xbd427698	-0.04747638
131	0x3d35f8e5	0.044426817
132	0x3d8ecbdd	0.069724776
133	0xbdb29db7	-0.08721488
134	0xbd6dd188	-0.058061153
135	0x3d9e4777	0.077284746
136	0x3d97c848	0.074112475
137	0xbd913768	-0.07090646
138	0x3c22bca1	0.009932668
139	0xbe03c864	-0.12869412
140	0x3ca181cd	0.019715214
141	0x3cd9f36f	0.026605336
142	0x3dcfb6ad	0.101422645
143	0x3df0e91a	0.117632106
144	0xbe0aa6a5	-0.13540132
145	0xbd23df48	-0.04000786
146	0x3c0f62cc	0.008751582
147	0x3c666126	0.014061248
148	0x3d1d9d9b	0.038480382
149	0xbd8b32f1	-0.06796826
150	0x3ccbc995	0.024876395
151	0xbcd2cc52	-0.025732193
152	0x3d60054e	0.05469256
153	0xbc022130	-0.007942483
154	0xbb9028bb	-0.0043993867
155	0x3dfd3a97	0.12364691
156	0x3d84c559	0.064829536
157	0xbdc70f9f	-0.09719776
158	0xbb43eb35	-0.0029894833
159	0xbd71a2fd	-0.05899333
160	0xbd8fb5e5	-0.070171155
161	0x3d362e82	0.044477947
162	0x3ca744a7	0.020418478
163	0x3b746458	0.0037291255
164	0x3de395f4	0.11112586
165	0x3db8c794	0.090224415
166	0x3be2decb	0.0069235316
167	0xbc353b12	-0.011061447
168	0x3d00c29f	0.031435605
169	0xbac0150a	-0.0014654708
170	0xbcbce800	-0.023059845
171	0x3d875eb7	0.06609862
172	0xbdaf2c9a	-0.08553429
173	0x3d2522f1	0.040316526
174	0xbd227883	-0.03966571
175	0x3b56f352	0.0032798839
176	0xbdf62e5f	-0.12020563
177	0xbc5d72db	-0.013516153
178	0x3d726586	0.05917885
179	0x3c3a75fb	0.011380668
180	0xbe1e60a8	-0.15466559
181	0x3de8dc27	0.11370116
182	0x3ce95183	0.02848125
183	0xbd502c23	-0.050823342
184	0x3640cb5e	2.8728605e-06
185	0x3da8a6bd	0.08234928
186	0x3b475f03	0.0030421622
187	0x3da741e4	0.081668645
188	0x3db25e2e	0.087093696
189	0x3c4e22bf	0.012581526
190	0xbcc553b8	-0.024087772
191	0x32eb005e	2.7357768e-08
192	0x3bc90edc	0.0061358046
193	0x3db2a2b0	0.087224364
194	0x3db8d74d	0.0902544
195	0x3da2aa5b	0.07942649
196	0x3d8e244a	0.06940515
197	0xbd3c63ef	-0.04599374
198	0xbd5b9bba	-0.05361531
199	0x3db4df10	0.08831608
200	0x3de5180e	0.11186229
201	0x3da53ac6	0.08067851
202	0x3d9ff55c	0.078104705
203	0xbda9885a	-0.0827796
204	0xbc0d14ab	-0.008610885
205	0x3ca3ad2f	0.019980041
206	0x3dc08327	0.09400015
207	0x3dfc3c86	0.123162314
208	0xbd401a9a	-0.04690037
209	0x3b32e5e6	0.0027297675
210	0xbcce2189	-0.025162475
211	0xbcbc4739	-0.02298318
212	0x3d9144d9	0.0709321
213	0x34ede5be	4.431185e-07
214	0x3dbfc4ce	0.093637094
215	0xbd856eb6	-0.06515257
216	0x3d9f7ba6	0.07787256
217	0x3ba28eae	0.0049608564
218	0x3c3e5dd4	0.01161905
219	0x3d7d8826	0.06189742
220	0xbd1b21a3	-0.037873875
221	0xbda6e785	-0.081496276
222	0x3d53443f	0.051578756
223	0x3d865619	0.065593906
224	0x3dc03586	0.09385209
225	0x3ca33db7	0.019926889
226	0xbd65b700	-0.056082726
227	0x3d111088	0.035416156
228	0x3dede85f	0.11616587
229	0x3d8664a5	0.06562165
230	0xbde256ea	-0.11051734
231	0x3e06ec99	0.13176192
232	0x3dae3695	0.085065044
233	0xbc7512c9	-0.014958092
234	0xbca8d7f4	-0.020610787
235	0x3e263707	0.16231929
236	0xbdc23dad	-0.0948442
237	0xbbad6a47	-0.0052922103
238	0x3dcacf09	0.0990277
239	0xbd1c3fc3	-0.038146745
240	0xbb407c5c	-0.0029371
241	0x3d55e9cc	0.05222492
242	0x3e35de74	0.1776064
243	0xbe084db7	-0.13310896
244	0x3c8876c7	0.0166582
245	0xbdbc9b41	-0.092093
246	0x39acdec3	0.00032972367
247	0x3d8d14b9	0.06888718
248	0xbcf8be60	-0.030364215
249	0x3d14fb6e	0.036372595
250	0x3dd74f3a	0.10513158
251	0x3ccd21b7	0.02504049
252	0x3c0190ac	0.007908028
253	0x3cc59725	0.024119923
254	0x3bb2fe88	0.0054624714
255	0x3d4e5509	0.050374065

act_conv1.bias f4 [4]
0	0xbc81bfec	-0.015838586
1	0x3d564280	0.052309513
2	0x3d9ec25c	0.07751915
3	0xbd917426	-0.07102232

act_fc1.weight f4 [36, 144]
0	0xbd0e9731	-0.034812156
1	0xbd6be153	-0.057587933
2	0xbdae70a3	-0.085175775
3	0xbcb9d73c	-0.02268564
4	0xbd08066b	-0.033209246
5	0xbd8a35a8	-0.06748515
6	0xbd07ec3f	-0.033184286
7	0xbd9062ed	-0.070501186
8	0xbdb6249d	-0.08893702
9	0xbdc89ffc	-0.097961396
10	0xbd1bc702	-0.038031586
11	0xbdd8f8c9	-0.10594327
12	0xbdf1e9c2	-0.11812164
13	0xbdb04a08	-0.0860787
14	0xbdc63e3c	-0.09679839
15	0xbd70b246	-0.058763765
16	0xbd12a1ed	-0.035798956
17	0xbd0205d2	-0.031743832
18	0xbd15e9aa	-0.036599793
19	0xbd1f6682	-0.03891612
20	0xbd356276	-0.044283353
21	0xbd024a2f	-0.03180903
22	0x3c317e55	0.010833343
23	0xbc3594b8	-0.011082821
24	0xbc422638	-0.011849932
25	0xbcc5c146	-0.024140012
26	0xbdae00b3	-0.08496227
27	0xbc911c93	-0.01771382
28	0x3c3bc12c	0.01145963
29	0x3c83112f	0.015999405
30	0xbc6e47c2	-0.014543476
31	0xbcede92c	-0.02904185
32	0xbc5a0f7a	-0.013309354
33	0xbcb4f783	-0.022090679
34	0xbd00d4ee	-0.031453066
35	0xbd4eee16	-0.050520025
36	0x3d99fe27	0.07519179
37	0x3da292ac	0.07938132
38	0x3cac0344	0.02099765
39	0x3d7f1a59	0.062280986
40	0x3d39031d	0.045168985
41	0x3c2db684	0.010602597
42	0xbb9f87b4	-0.004868472
43	0xbd2f3543	-0.042775404
44	0x3c318bb1	0.010836528
45	0x3da46a7a	0.08028121
46	0x3d34f627	0.04418006
47	0x39265388	0.00015862111
48	0x3d751776	0.059836827
49	0x3c9f6e66	0.019461822
50	0x3d0e1e3c	0.034696802
51	0xbcf769f7	-0.030201895
52	0xbd55f11d	-0.052231897
53	0x3d73ec3a	0.059551455
54	0xbcc9a6e9	-0.024615722
55	0xbe0288bb	-0.12747471
56	0x3d1a0fb4	0.037612632
57	0x3d91ede6	0.07125454
58	0xbc20774b	-0.009794067
59	0x3d543deb	0.051816862
60	0xbd8bc8fe	-0.068254456
61	0x3d77ccee	0.06049817
62	0x3c2abc5e	0.010420887
63	0xbdbd35e8	-0.092387974
64	0x3c8d1d1e	0.017225798
65	0xbd00951f	-0.031392213
66	0x3d7cd78c	0.061729
67	0xbe03aa18	-0.12857854
68	0x3d628f69	0.055312548
69	0xbd86c67b	-0.06580826
70	0xbe05c118	-0.1306194
71	0xbd24e606	-0.04025843
72	0xbc9e4352	-0.01931921
73	0xbda157a0	-0.07878041
74	0xbd4ed06a	-0.050491728
75	0x3b9250e5	0.00446521
76	0x3cf0e5ad	0.029406393
77	0xbd0496cc	-0.032370374
78	0xbd11ca9f	-0.035593625
79	0xbdbbab1e	-0.091634974
80	0xbdeec484	-0.11658576
81	0xbdbb7fdc	-0.091552466
82	0xbc963e04	-0.018340118
83	0x3d076dc5	0.03306367
84	0xbdfcd501	-0.12345315
85	0xbdd0366c	-0.1016663
86	0x3c2dac6b	0.01060019
87	0xbd8f0ae3	-0.06984498
88	0xbcccf821	-0.02502066
89	0xbdad9774	-0.08476153
90	0x3cf325af	0.029681055
91	0xbdf11ee6	-0.117734715
92	0xbd9ffacb	-0.07811507
93	0xbd1656cc	-0.03670387
94	0xbd528aa9	-0.051401768
95	0xbc882439	-0.016618835
96	0xbd3508ff	-0.044198032
97	0x3c77da91	0.015127794
98	0xba49b251	-0.0007694113
99	0xbe18932f	-0.14899896
100	0x3c81f660	0.015864551
101	0x3cbc0cb2	0.022955272
102	0x3c4083d3	0.011750179
103	0xbd1eea8a	-0.038797893
104	0xbd0752fb	-0.03303812
105	0xbe047b66	-0.12937698
106	0xbd8a04ae	-0.06739174
107	0xbd19c2a0	-0.037539124
108	0xbd6d1b9a	-0.05788765
109	0xbd5a9f47	-0.053374555
110	0xbce57baa	-0.02801307
111	0xbdb1768d	-0.0866519
112	0xbdec1373	-0.11527147
113	0x3c8ffb00	0.01757574
114	0x3d054866	0.032539748
115	0xbbce9aed	-0.0063050897
116	0x3c9b530a	0.018960495
117	0xbd89fa5b	-0.06737205
118	0xbd32b4bd	-0.043629397
119	0x3d35eada	0.044413425
120	0xbcc9db3a	-0.024640668
121	0xbd19c71a	-0.037543394
122	0xbbbd397c	-0.005774675
123	0x3d536e6d	0.051618982
124	0xbcd49c77	-0.025953515
125	0xbd8b10ad	-0.0679029
126	0xbb7aedb8	-0.0038288664
127	0x3d557c30	0.052120388
128	0xbb0bd783	-0.0021338172
129	0xbc772b44	-0.015085999
130	0x3c8cd63f	0.017192004
131	0x3d4f7a29	0.05065361
132	0x3ce29f72	0.02766392
133	0x3ca3d6a5	0.019999811
134	0x3cfca0b4	0.030838348
135	0xbcc9cc7d	-0.02463364
136	0xbda070ef	-0.078340404
137	0xb8411e11	-4.6042787e-05
138	0x3d8af6b2	0.06785335
139	0x3ca816f2	0.020518754
140	0xbd28f82e	-0.041252308
141	0x3d03ed76	0.032208882
142	0x3a50dcb4	0.00079674576
143	0xbb91a806	-0.004445079
144	0xbcf45ce0	-0.029829443
145	0xbc91de41	-0.017806174
146	0x3cb4e1b6	0.022080284
147	0xbd158771	-0.03650612
148	0xbce985be	-0.028506156
149	0xbcd78cf6	-0.026312333
150	0xbcc24ce6	-0.023718309
151	0xbcd34f0c	-0.025794528
152	0xbc5be542	-0.013421359
153	0xbc7f17e6	-0.015569663
154	0xbcbbf234	-0.02294264
155	0xbcf41fa0	-0.029800236
156	0xbc560548	-0.013062783
157	0xbc16f73c	-0.009214219
158	0xbd94c4f7	-0.072641306
159	0xbcc7d543	-0.024393683
160	0x3c7df38c	0.015499961
161	0x3b1110d9	0.0022135286
162	0xbd3dca81	-0.0463357
163	0xbc9904f7	-0.018679125
164	0x3cad3a9c	0.021146111
165	0xbba0676f	-0.0048951427
166	0xbd76a418	-0.060215086
167	0xbd719ce0	-0.0589875
168	0x3c80fa6a	0.015744407
169	0xbd28ff01	-0.041258816
170	0x3c716ae7	0.01473496
171	0x3c89b6fb	0.016810885
172	0xbbfeff4d	-0.007781899
173	0xbd4fcb2b	-0.050730865
174	0xbc2f2ad0	-0.01069136
175	0x3ca26181	0.019821884
176	0x3cb6aa5e	0.022298034
177	0xbcce5ab5	-0.025189737
178	0x3b2f087c	0.0026707938
179	0xbd134f20	-0.03596413
180	0xbea65b15	-0.32491365
181	0xbc5b4593	-0.013383287
182	0xbe0516f7	-0.12997042
183	0x3e170e52	0.14751557
184	0x3da9bc23	0.08287837
185	0x3e51efba	0.20501605
186	0xbd489e95	-0.04897936
187	0x3e10324c	0.14081687
188	0xbe0f57a0	-0.1399827
189	0xbd5f416f	-0.05450576
190	0xbdb00f4e	-0.08596669
191	0x3cb8f8a2	0.022579495
192	0xbda77800	-0.08177185
193	0xbd354116	-0.044251524
194	0xbd02e8e0	-0.03196037
195	0xbe0353d5	-0.12824948
196	0xbce66701	-0.028125288
197	0xbdb9a185	-0.090640105
198	0x3ab7920a	0.0014005315
199	0x3cefdf49	0.029281275
200	0xbd412f87	-0.047164466
201	0xbd9f4eeb	-0.07778724
202	0xbd85f51b	-0.06540891
203	0xbd2cf230	-0.042223155
204	0xbcb0dace	-0.02158871
205	0xbe0d7891	-0.13815524
206	0xbd0531d0	-0.032518208
207	0x3b0b9e8d	0.002130422
208	0xbc4c3f2b	-0.012466232
209	0xbde2197c	-0.11040017
210	0x3ce01a54	0.027356304
211	0xbb873f3c	-0.004127411
212	0xbe258db5	-0.16167338
213	0x3c8ed1c0	0.017434001
214	0xbdc207b9	-0.09474129
215	0xbcc78015	-0.024353066
216	0x3e23b47d	0.1598682
217	0x3e46d556	0.19417319
218	0x3d6454c6	0.05574491
219	0x3d873e30	0.06603658
220	0x3dc1f479	0.094704576
221	0x3e1dbc57	0.15403877
222	0xbd4a6b40	-0.049418688
223	0xbd065147	-0.032792356
224	0x3d8e3ad7	0.069448166
225	0x3de0b0e5	0.1097124
226	0x3d55b72e	0.052176647
227	0xbc859973	-0.016308522
228	0x3d86971f	0.06571793
229	0x3d4e8d35	0.050427634
230	0xbc53fe41	-0.012939037
231	0x3ca7f3a1	0.020501914
232	0x3c1b0099	0.009460592
233	0xbd23fcb4	-0.04003592
234	0x3d55d010	0.052200377
235	0x3d5c824d	0.053835202
236	0xbccda193	-0.025101459
237	0xbcd809e8	-0.026371911
238	0x3ce77bb2	0.028257225
239	0xbd08da7a	-0.03341148
240	0x3db04872	0.08607568
241	0x3d8a1fda	0.067443565
242	0x3c88e128	0.016708925
243	0x3d803686	0.062603995
244	0x3bca6339	0.006176379
245	0xbd02e0c4	-0.031952634
246	0x3d733373	0.059375238
247	0xbc2faa00	-0.0107216835
248	0xbd87b686	-0.066266105
249	0xbc8ce1a4	-0.017197438
250	0x3d655963	0.05599345
251	0xbd9c51ce	-0.076327905
252	0x3bd5ae9e	0.00652106
253	0xbd46f0fa	-0.048569657
254	0xbcd85c49	-0.026411192
255	0xbd7d28dc	-0.061806545

act_fc1.bias f4 [36]
0	0xbcf0c3fb	-0.029390326
1	0x3d0d0db9	0.034436915
2	0xbc9c79ab	-0.019100985
3	0xbd84f94d	-0.06492863
4	0xbb3cdd81	-0.002881855
5	0xbd9040bf	-0.07043599
6	0xbdc4b2cf	-0.096044175
7	0xbc460ef1	-0.012088523
8	0x3d16a17c	0.036775097
9	0xbd232f8f	-0.039840277
10	0xbcfa6744	-0.030566819
11	0x3cd2792d	0.025692547
12	0x3da2f355	0.07956568
13	0x3d1d033d	0.038333166
14	0x3cbdce33	0.023169613
15	0xbc766b57	-0.01504024
16	0x3caa733d	0.020806903
17	0x3d859a71	0.06523598
18	0x3d075907	0.033043887
19	0x3d0caf5a	0.034346916
20	0xbcf9cfb1	-0.030494543
21	0x3d3c56eb	0.04598133
22	0x3c6ea086	0.014564639
23	0x3d9e73dc	0.07736942
24	0xbd408deb	-0.047010344
25	0xbd32052b	-0.04346196
26	0x3dda1075	0.1064767
27	0xbd678ed4	-0.056532696
28	0x3d3038a7	0.043022778
29	0xbbcf4acb	-0.0063260547
30	0xbdeebd5e	-0.11657213
31	0x3c7232d1	0.014782623
32	0x3c7268dd	0.014795509
33	0x3a1b7fcc	0.0005931824
34	0x3bfb8364	0.007675575
35	0x3d4373bb	0.04771779

val_conv1.weight f4 [2, 128, 1, 1]
0	0xbdb42c2a	-0.08797486
1	0xbc1b949c	-0.00949588
2	0x3da19e34	0.07891503
3	0xbd39fc31	-0.045406524
4	0x3d8b0e3e	0.06789826
5	0xbdc5e806	-0.096633956
6	0x3d86e230	0.065861106
7	0x3cc627b7	0.02418886
8	0x3d7518c8	0.059838086
9	0x3c8f0e44	0.017462857
10	0x3d2400b1	0.040039722
11	0xbc9bd645	-0.01902307
12	0x3ccb248c	0.0247977
13	0x3db0fc4e	0.08641873
14	0x3de7fc13	0.11327376
15	0xbd9898da	-0.07451029
16	0x3da10199	0.07861633
17	0xbd740967	-0.05957928
18	0x3d4d8aab	0.050181072
19	0x3d383089	0.04496816
20	0xbd58f15e	-0.05296456
21	0x3cb74477	0.022371514
22	0x3cb90c41	0.02258885
23	0x3d8896e9	0.06669409
24	0x3d27e378	0.040988415
25	0x3d6667e8	0.056251436
26	0xbd9c16af	-0.07621514
27	0x3c74ab53	0.014933425
28	0xbd3dac9a	-0.046307184
29	0x3db15f38	0.0866074
30	0x3d0937c1	0.033500437
31	0x3d31f8c5	0.043450136
32	0xbc91cc44	-0.017797597
33	0x3d4ae6d8	0.049536556
34	0xbd0d2c5d	-0.034466136
35	0xbd912b1e	-0.07088302
36	0x3d963da1	0.073359735
37	0x3dd49939	0.103807874
38	0x3db09c8e	0.086236104
39	0x3db346e2	0.08753754
40	0xbda87f67	-0.08227425
41	0xbc805cc9	-0.015669243
42	0x3cb634d3	0.022241985
43	0x3ccd9b65	0.025098512
44	0xbde3db67	-0.11125832
45	0x3ca8134c	0.020517014
46	0xbccf18e1	-0.025280418
47	0x3d1844f6	0.03717514
48	0xbdf1ef28	-0.118131936
49	0xbc6de832	-0.014520692
50	0xbd1961ea	-0.037446894
51	0x3d40da8f	0.047083434
52	0x3c901803	0.017589575
53	0x3dab9187	0.083773665
54	0x3d40904b	0.04701261
55	0x3dab30d1	0.0835892
56	0x32ee1ae4	2.7719075e-08
57	0x3d0f6217	0.035005655
58	0x3d8ec4aa	0.069711044
59	0x3d77bafb	0.060481053
60	0x3b7885cd	0.0037921548
61	0x3d84b2ea	0.06479438
62	0x3db42945	0.08796934
63	0xbc6db204	-0.014507774
64	0xbc808952	-0.01569048
65	0x3c80697e	0.015675303
66	0x3d9a6ccd	0.07540283
67	0x3d0e246a	0.034702696
68	0xbdac4d4b	-0.0841318
69	0x3aafca5f	0.0013411752
70	0x3c6e281b	0.014535929
71	0x3d9e9804	0.077438384
72	0x3d83df24	0.06439045
73	0x3ddf5334	0.109045416
74	0x3d6d4a42	0.057932146
75	0xbd386413	-0.045017313
76	0xbd3a744f	-0.045521077
77	0xbdeeaebf	-0.11654424
78	0xbc468b01	-0.012118102
79	0x3df1891d	0.117937304
80	0xbd44743d	-0.047962416
81	0xbbe45fc3	-0.0069694235
82	0xbe09dac5	-0.1346236
83	0xbc334f87	-0.010944254
84	0xbd6a483a	-0.057197787
85	0x32e8f272	2.7118606e-08
86	0xbd9ada86	-0.07561211
87	0x3ddfe5fb	0.10932537
88	0x3de28335	0.11060182
89	0xbdcfd52f	-0.101480834
90	0x3d1f0e42	0.038831957
91	0x3b29e23f	0.0025922207
92	0xbc7043b0	-0.014664575
93	0x3d92d88d	0.0717021
94	0xbd824e50	-0.06362593
95	0x3c01e9c7	0.007929272
96	0x3c6798a5	0.014135514
97	0xbdecad7d	-0.11556528
98	0x3d47c056	0.04876741
99	0x3bd8180a	0.0065946626
100	0xbd4aa719	-0.049475763
101	0xbdb477e8	-0.08811933
102	0x3cffe0c2	0.031235103
103	0xbcf1c359	-0.029512094
104	0xbc8853ad	-0.016641462
105	0xbc1c0a54	-0.009523947
106	0x3d973a21	0.07384134
107	0x3ccda15e	0.02510136
108	0x3d95150d	0.07279406
109	0xbd0e93ca	-0.03480891
110	0x3da57175	0.08078281
111	0x3d93e282	0.07220937
112	0x3532399f	6.6394017e-07
113	0x3d43560b	0.04768948
114	0x3dc02c36	0.093834326
115	0xbe109401	-0.14118959
116	0x3da4ac45	0.0804067
117	0x3c0ae0a5	0.008476411
118	0x3c1dab9d	0.009623435
119	0xbd306c9e	-0.043072335
120	0x3d4ff932	0.05077476
121	0xbdd92c16	-0.10604112
122	0x3d3c047e	0.04590272
123	0x3d4bde4a	0.04977254
124	0x3c4ae006	0.012382513
125	0x3d57eef8	0.052718133
126	0xbb717fe1	-0.0036849903
127	0x3be058a9	0.0068465066
128	0x3ce76b0b	0.028249284
129	0x3cec5184	0.028847463
130	0xbd738a2f	-0.059457954
131	0xbd92fc6f	-0.07177054
132	0xbd898029	-0.06713898
133	0x3d8c9ad8	0.068654716
134	0x3d2594a2	0.04042495
135	0x3d8abeaa	0.067746475
136	0x3d1b26c4	0.037878767
137	0x3bba977e	0.005694329
138	0xbb5496af	-0.0032438447
139	0x3d7bb54a	0.061452188
140	0xbd10fc8f	-0.03539711
141	0xbba1d300	-0.0049384832
142	0xbdac86b0	-0.08424127
143	0xbdd77521	-0.105203874
144	0xbd7c876d	-0.06165259
145	0x3d0eaf26	0.034835003
146	0x3cb45df5	0.022017458
147	0xbd38f95b	-0.04515968
148	0x3d067089	0.032822166
149	0x3cbb58c9	0.022869484
150	0x3c58b64c	0.013227057
151	0x3d5b5336	0.053546153
152	0xbb268216	-0.0025407127
153	0xbc895889	-0.01676585
154	0xbcacad1f	-0.021078644
155	0xbdb8a64d	-0.09016094
156	0xbd20200d	-0.039093066
157	0xbce146f1	-0.027499648
158	0x3ca0843d	0.019594306
159	0x3d42b32c	0.047534153
160	0x3aab209f	0.0013055986
161	0x3d55bf62	0.05218447
162	0x3c9e5344	0.019326814
163	0x3c906514	0.017626323
164	0x3c3478e2	0.011015149
165	0x37221893	9.661674e-06
166	0xbdb5965e	-0.08866571
167	0xbd952362	-0.07282139
168	0x3d0f38f4	0.034966424
169	0x3d23720f	0.039903697
170	0x3d863baa	0.06554349
171	0x3c4f8d26	0.01266793
172	0x3d7b2c2e	0.06132143
173	0xbac65a9b	-0.0015133204
174	0x3d9c46b8	0.07630676
175	0x3ca2da3f	0.019879458
176	0x3d129be0	0.035793185
177	0xbb7c2e25	-0.0038479653
178	0xbdac6b31	-0.08418883
179	0xbd8eb33e	-0.069677815
180	0x3d88631f	0.06659531
181	0xbc9d2884	-0.019184358
182	0x3d008ba6	0.03138318
183	0xbaa54930	-0.0012610313
184	0xb7e88d84	-2.7722454e-05
185	0xbd4de512	-0.050267287
186	0xbbb6727a	-0.005567846
187	0x3d63cdb5	0.0556161
188	0x3cf87eac	0.03033384
189	0x3be1bf6f	0.0068892757
190	0xbd5c0473	-0.05371518
191	0x3aeaea5f	0.0017922631
192	0x3ca45981	0.02006221
193	0x3d07a0de	0.0331124
194	0xbddc344f	-0.107521646
195	0xbd9fd396	-0.07804029
196	0x3d19e0d7	0.03756794
197	0xbd350d6c	-0.044202253
198	0xbceb5096	-0.02872495
199	0xbd67a7b7	-0.05655643
200	0xbd277938	-0.040887088
201	0xbe1200f9	-0.14258184
202	0x3bb3668b	0.0054748706
203	0x3c281f0d	0.010261309
204	0x3d4abc00	0.049495697
205	0xbbb78a5f	-0.005601212
206	0x3d572bb7	0.052531924
207	0xbdb62271	-0.08893288
208	0x3c276984	0.010218028
209	0xbd6d9390	-0.058002055
210	0xbca9ddb5	-0.020735601
211	0xbc01346e	-0.007886035
212	0x3d32aa1b	0.043619256
213	0x363a932a	2.780182e-06
214	0x3c1cc2fa	0.00956797
215	0xbd9fda83	-0.0780535
216	0xbd7eb70b	-0.062186282
217	0x3d971550	0.07377112
218	0xbd7b3b2b	-0.061335724
219	0xbd395a59	-0.045252178
220	0x3cb54f77	0.022132618
221	0xbb723858	-0.0036959853
222	0x3db0e2ca	0.086370066
223	0x3d07747c	0.033070073
224	0xbd9fcfd6	-0.078033134
225	0xbc16303b	-0.0091667725
226	0x3d008280	0.031374454
227	0xbdb07af7	-0.08617204
228	0xbda656be	-0.081220135
229	0x3d98856c	0.07447323
230	0x3d93d778	0.07218832
231	0x3dc0298f	0.09382927
232	0xbb931cfe	-0.00448954
233	0xbd82536c	-0.06363568
234	0x3dbf0300	0.09326744
235	0x3cc3197a	0.02381586
236	0x3dbf8ff2	0.09353627
237	0x3b9c5d2d	0.0047718496
238	0xbdfe2473	-0.12409296
239	0xbcdc3f68	-0.026885703
240	0xbc32db1d	-0.0109164985
241	0xbdaa1ee6	-0.08306675
242	0xbd738de6	-0.059461497
243	0xbd0a1ca5	-0.033718724
244	0x3da2debe	0.07952641
245	0xbd2f3fba	-0.042785384
246	0xbbbef429	-0.005827446
247	0xbd5309d4	-0.051523045
248	0xbd5d5e67	-0.054045107
249	0xbc88717d	-0.016655678
250	0x3c88c19f	0.016693888
251	0x3d1aea69	0.037821207
252	0xbcb4bf0f	-0.02206376
253	0xbd8c3426	-0.06845884
254	0x39668438	0.00021983765
255	0xbb3e5f99	-0.002904868

val_conv1.bias f4 [2]
0	0x3d4c956e	0.049947195
1	0x3daaf89d	0.083482005
