models/Training/AC_nmcts20/train_002.pth (torch, 424031 bytes, 15 tensors)

conv1.weight f4 [32, 5, 3, 3]
0	0x3dcb7c7f	0.09935855
1	0xbd996fde	-0.0749204
2	0xbd893e34	-0.067013174
3	0x3e1058c6	0.14096364
4	0xbe0fb53e	-0.14033982
5	0x3c9e66ae	0.01933607
6	0x3dabbac1	0.0838523
7	0xbd8c4f16	-0.06851022
8	0x3c61a7f2	0.013772951
9	0xbc907f38	-0.017638788
10	0xbb9767ff	-0.0046205516
11	0x3dffbc8b	0.124871336
12	0x3df31dc5	0.118709125
13	0xbd39e429	-0.045383606
14	0x3db17257	0.08664387
15	0x3d1d6bcf	0.038432892
16	0x3c5af9ed	0.013365251
17	0x3df8b6eb	0.12144264
18	0x3d70d9ad	0.05880134
19	0x39fefcde	0.00048635056
20	0xbaec6866	-0.0018036484
21	0x3d47abaa	0.048747696
22	0xbcffb84f	-0.031215815
23	0xbd912404	-0.070869476
24	0xbd986d04	-0.07442668
25	0x3c7ec130	0.015548989
26	0xba6b04d3	-0.00089652574
27	0x3e07cd90	0.1326201
28	0x3da2fa83	0.079579376
29	0xbdb6c2b0	-0.089238524
30	0xbde216f6	-0.11039536
31	0xbca7302c	-0.020408712
32	0xbbc10815	-0.005890856
33	0x3d84009b	0.06445428
34	0xbd9c7fd6	-0.0764157
35	0x3dc46b47	0.09590774
36	0xbc82865e	-0.015933212
37	0xbd4db647	-0.05022266
38	0xbce28078	-0.02764915
39	0x3cb10ef2	0.021613572
40	0xbdadf130	-0.084932685
41	0x3cbc4896	0.02298383
42	0xbb29b9f2	-0.0025898186
43	0xbd1f14d9	-0.03883824
44	0xbd93abd2	-0.072105065
45	0xbcdd339e	-0.027002152
46	0x3dd9ced2	0.10635151
47	0x3d9dea1a	0.07710667
48	0xbd87a533	-0.06623306
49	0x3c9bb2c6	0.019006144
50	0xbd6fb0cf	-0.058518227
51	0x3e247e70	0.16063857
52	0x3df64728	0.12025291
53	0x3e20b4c3	0.15693955
54	0x3de4d406	0.11173253
55	0xbe0c75da	-0.13716832
56	0xbd658ec0	-0.05604434
57	0x3ddab7f3	0.10679617
58	0x3dcea360	0.10089755
59	0x3d6f6492	0.05844552
60	0xbcdc5f06	-0.02690078
61	0xbd487773	-0.04894204
62	0x3e069776	0.13143715
63	0xbd6c4696	-0.057684503
64	0x3d454ef3	0.048170995
65	0x3b2bf99e	0.0026241313
66	0xbdd2eff4	-0.10299674
67	0x39d1b316	0.00039997016
68	0xbc13ead4	-0.009028155
69	0xbdd21a9f	-0.10258984
70	0x3ce1698c	0.027516149
71	0xbd5c22b6	-0.05374404
72	0xbd8e5cda	-0.06951304
73	0x3deb514b	0.11490115
74	0xbe0171ca	-0.12641063
75	0x3cc85860	0.024456203
76	0xbdcf2c80	-0.101159096
77	0xbdba499b	-0.090960704
78	0xbd3ae1fb	-0.045625668
79	0x3e00a1bd	0.12561698
80	0x3d07ef1d	0.03318702
81	0xbd02f95c	-0.03197609
82	0x3e039fd8	0.12853944
83	0xbd37e3ea	-0.04489509
84	0xbc8f46a7	-0.017489744
85	0x3d69c3ea	0.057071604
86	0xbde7f56e	-0.11326109
87	0x3d7d3f96	0.06182822
88	0x3dcbb018	0.099456966
89	0x3d179e8e	0.037016444
90	0xbdabb536	-0.083841726
91	0x3d68836f	0.05676597
92	0x3dd39ed8	0.103330314
93	0xb9324536	-0.00017001186
94	0x3ca165bf	0.019701837
95	0x3e2089c1	0.15677549
96	0xbdeab836	-0.11460917
97	0xbe0f27c8	-0.13980019
98	0xbc49f0fa	-0.01232552
99	0xbdadd65b	-0.08488151
100	0xbce898c6	-0.02839316
101	0xbd68981b	-0.056785684
102	0x3c91f9d1	0.017819317
103	0xbce5d91b	-0.028057626
104	0x3d16d3b0	0.036822975
105	0x3e0e90da	0.13922444
106	0x3cc5cd6a	0.0241458
107	0x3da8c9dd	0.08241627
108	0xbd9dada1	-0.07699133
109	0x3d895f80	0.06707668
110	0xbd074abf	-0.033030268
111	0x3b2d14ef	0.0026410182
112	0x3dbe04e8	0.092782795
113	0xbe01a98f	-0.12662338
114	0xbd110627	-0.035406258
115	0xbd0f531c	-0.03499137
116	0x3c9707ca	0.018436331
117	0x3d46fdb8	0.04858181
118	0xbc4393f1	-0.011937127
119	0xbde874a0	-0.113503695
120	0xbda948ae	-0.08265816
121	0xbd0e9988	-0.034814388
122	0x3d357d51	0.044308964
123	0x3ca6e9b7	0.020375116
124	0x3c89cc2c	0.01682099
125	0x3cf9ed69	0.030508714
126	0xbd8d29e1	-0.068927534
127	0x3dd6e60b	0.10493096
128	0x3d39cee4	0.045363322
129	0xbe010c35	-0.12602313
130	0x38956232	7.123164e-05
131	0xbdfc39ff	-0.123157494
132	0xbdc2916b	-0.095003925
133	0x3b2de008	0.0026531238
134	0xbcc92a5c	-0.024556331
135	0x3dd7e676	0.10542004
136	0xbde6e2a8	-0.112737
137	0xbd467285	-0.048449058
138	0x3d5714a6	0.052509926
139	0x3cc147ce	0.02359381
140	0x3ccdc385	0.025117645
141	0x3dee2233	0.11627617
142	0x3e0b0e9b	0.1357979
143	0x3de5d432	0.11222114
144	0x3d8d3425	0.068947114
145	0x3d7266a3	0.059179913
146	0xbd5e58ac	-0.054283783
147	0x3d3bc3a7	0.045840885
148	0xbded196d	-0.11577115
149	0xbe061e00	-0.13097382
150	0x3e02a2ab	0.12757365
151	0x3da64f88	0.08120638
152	0xbd6e5c91	-0.058193747
153	0xbd9e8812	-0.07740797
154	0xba8f007d	-0.001091018
155	0xbd6dca01	-0.058053974
156	0x3c2fd664	0.010732267
157	0xbd8f54d7	-0.06998604
158	0xbd7fb7bc	-0.062431082
159	0xbd1389f2	-0.036020227
160	0x3d310cad	0.04322498
161	0xbdc54e94	-0.09634128
162	0x3da0b576	0.07847111
163	0x3e1af682	0.15133098
164	0x3de01953	0.1094233
165	0xbe07b3e5	-0.13252218
166	0x3e0df24c	0.1386196
167	0x3d3ced45	0.046124715
168	0x3d985108	0.074373305
169	0x3d740baa	0.059581436
170	0x3d107a85	0.035273094
171	0x3dfcaf4e	0.12338124
172	0x3d8bedfb	0.068325005
173	0xbd925409	-0.07144935
174	0xba9939fb	-0.0011690253
175	0x3d8a4293	0.06750979
176	0x3d0eae64	0.03483428
177	0x3cab85ff	0.020937918
178	0x3df00bad	0.11720977
179	0xb9bf7d08	-0.00036523514
180	0x3dcec1af	0.10095536
181	0xbcfba1d8	-0.030716822
182	0x3db2a70a	0.087232664
183	0x3d488997	0.04895934
184	0x3c915ead	0.01774534
185	0x3c44af16	0.012004634
186	0x3d339d24	0.043851033
187	0x3c7754ae	0.015095873
188	0xbdffcadd	-0.12489865
189	0x3e04e141	0.12976553
190	0xbdfef474	-0.124489695
191	0x3deef0e0	0.11667037
192	0x3dc6702b	0.09689363
193	0x3d42c599	0.047551725
194	0x3db3238e	0.08747016
195	0x3dd55f2d	0.10418544
196	0x3ce2beec	0.02767893
197	0xbdfe68b6	-0.12422316
198	0x3d2ba8ef	0.041909155
199	0x3c95b03d	0.018272514
200	0x3da663ad	0.081244804
201	0xbe03f108	-0.12884915
202	0xbd9ed13a	-0.077547505
203	0xbb40f198	-0.0029440876
204	0xbdb81d16	-0.08989923
205	0xbd8a011f	-0.06738495
206	0xba1b4dc3	-0.0005924368
207	0x3df4cc0d	0.11952982
208	0xbc4730a5	-0.012157594
209	0x3dfef10e	0.12448321
210	0x3ca5742c	0.020196997
211	0x3d45c069	0.0482792
212	0x3e093882	0.13400462
213	0x3dfdff5e	0.12402223
214	0x3cdeb470	0.027185649
215	0x3aae6c59	0.0013307437
216	0xbcb9eb54	-0.022695221
217	0x3d11d4cd	0.035603333
218	0xbc829208	-0.015938774
219	0x3d9eaf37	0.07748263
220	0xbb0c28fd	-0.0021386736
221	0x3c871676	0.016490202
222	0x3d58177c	0.05275677
223	0xbda9ef6a	-0.08297618
224	0x3e00b5ec	0.12569398
225	0x3dcc998c	0.09990224
226	0x3ddc5001	0.10757447
227	0x3df70e44	0.12063268
228	0x3dd72bab	0.10506376
229	0xbe0cc45d	-0.13746782
230	0xbd4e2121	-0.050324563
231	0x3de8dfd2	0.11370815
232	0x3e1a8615	0.1509021
233	0xbe121f5c	-0.14269775
234	0x3dfab561	0.122416265
235	0x3d92dfd8	0.07171601
236	0x3cf6c3a1	0.03012258
237	0x3d0dce3c	0.03462051
238	0xbd59cbb5	-0.053172786
239	0xbc3f4164	-0.011673305
240	0x3d6ce49d	0.05783521
241	0xbdfd82ec	-0.12378487
242	0xbd6f0231	-0.0583517
243	0xbdddb265	-0.10825042
244	0xbd48aa2f	-0.048990425
245	0x3dc8bd79	0.09801764
246	0xbb32419e	-0.0027199755
247	0xbdd3221a	-0.10309239
248	0xbd8cb5bf	-0.06870603
249	0xbd495009	-0.049148593
250	0xbda7e033	-0.081970595
251	0x3d7edd06	0.062222503
252	0x3d20d995	0.039270002
253	0x3d083a74	0.03325887
254	0x3c773af2	0.015089737
255	0x3d002bfd	0.03129195

conv1.bias f4 [32]
0	0x3dceddf7	0.1010093
1	0x3d335b17	0.043788042
2	0xbc5b5b56	-0.013388475
3	0x3e0e1f5a	0.13879147
4	0xbd5964e7	-0.053074744
5	0xbe0efc52	-0.1396344
6	0x3ceb8206	0.028748523
7	0x3dd55665	0.10416869
8	0x3d55d82f	0.052208122
9	0xbdaa4f7e	-0.08315943
10	0x3e167d7c	0.14696306
11	0xbd3b96d7	-0.04579815
12	0x3df65737	0.12028354
13	0x3de6a014	0.11261001
14	0xbd81e498	-0.06342429
15	0xbc91e6c0	-0.017810225
16	0xbc1e55ff	-0.009664058
17	0xbd9ae29d	-0.07562754
18	0xbd96b6ce	-0.07359086
19	0x3df32330	0.11871946
20	0xbcc060f1	-0.023483725
21	0x3d2d75ea	0.04234878
22	0x3c42687f	0.011865734
23	0xbd524e64	-0.05134429
24	0xbddaa615	-0.10676209
25	0x3dc6b834	0.09703103
26	0xbde1812c	-0.11010966
27	0x3e067d9b	0.13133852
28	0x3e136b7d	0.14396472
29	0xbd535ee6	-0.051604174
30	0xbda83032	-0.082123175
31	0x3dc16e76	0.09444897

conv2.weight f4 [64, 32, 3, 3]
0	0xbca9d5f7	-0.02073191
1	0x3d4d85b8	0.050176352
2	0x3ce69366	0.028146457
3	0x3cf0f0ea	0.029411752
4	0xbce64d83	-0.028113132
5	0xbcbc453d	-0.022982234
6	0xbcef5b49	-0.029218333
7	0x3d2a37f3	0.041557264
8	0xbbb83d15	-0.005622516
9	0xbc83f022	-0.016105715
10	0xbd0dd852	-0.034630127
11	0xbc9ed2da	-0.019387651
12	0x3d81ad3d	0.06331871
13	0x3d71a0df	0.05899131
14	0x3d87e778	0.06635946
15	0x3d3fc1c0	0.046815634
16	0x3cd61e3a	0.02613746
17	0x3d409bdd	0.047023643
18	0xbd51f342	-0.05125738
19	0x3bb4e1e9	0.0055200947
20	0xbadfa8dc	-0.0017063874
21	0x3c50b0e9	0.012737491
22	0x3c42731f	0.011868267
23	0x3c97f3b8	0.018548831
24	0x3cf2710c	0.02959492
25	0xbbbcc48d	-0.0057607354
26	0xbd59ef08	-0.053206474
27	0xbd4617fb	-0.048362713
28	0x3b9154f6	0.004435177
29	0x3d0d3960	0.034478545
30	0x3c816496	0.015795033
31	0x3b90affc	0.00441551
32	0x3c2477fe	0.010038374
33	0x3d2da778	0.04239604
34	0x3ccfc9b6	0.025364738
35	0x3d902ab4	0.07039395
36	0x3c669c0b	0.0140752895
37	0x3d8b0e18	0.067897975
38	0xbce7d3d6	-0.028299253
39	0x3c258e49	0.010104724
40	0x3d3e4f2e	0.04646223
41	0xbc20b24c	-0.009808134
42	0x3c0e7985	0.008695965
43	0x3c93c0cf	0.018036274
44	0xbc0826b2	-0.008310007
45	0xbd65165b	-0.055929523
46	0x3c89f698	0.016841218
47	0x3c137872	0.009000884
48	0xbd27ac0c	-0.04093556
49	0xbbf594ff	-0.0074945684
50	0x3c629a7e	0.013830779
51	0xbc5b8bcb	-0.013400028
52	0x3d549957	0.05190405
53	0x3c309f77	0.010780207
54	0xbb966719	-0.004589927
55	0x3b9b788d	0.0047445954
56	0xbd6b46f3	-0.05744071
57	0xbbba5656	-0.0056865616
58	0x3cda93b0	0.026681751
59	0x3c8d47d4	0.017246164
60	0x3d180158	0.037110656
61	0xbcab0dfc	-0.020880692
62	0xbbcc8e78	-0.0062425695
63	0x3cd90e40	0.026496053
64	0xbc9d9eb6	-0.019240718
65	0x3d8069c1	0.06270171
66	0xbd325bee	-0.043544702
67	0x3d8f4f38	0.06997532
68	0x3c30c811	0.010789887
69	0x3d893849	0.06700189
70	0xbbf5b1f8	-0.007498022
71	0x3c516546	0.012780493
72	0xbd871a94	-0.06596866
73	0x3c003545	0.0078252
74	0x3d1d01eb	0.038331907
75	0xbd50d59a	-0.050984956
76	0x3d432d00	0.047650337
77	0xbd4385aa	-0.047734894
78	0x3c876a0d	0.016530061
79	0x3d081b0b	0.033228915
80	0x3d594b2f	0.053050216
81	0x3cfc0a66	0.030766677
82	0xbcb04395	-0.0215166
83	0xbb9ac2ac	-0.0047229137
84	0x3d2b8892	0.04187829
85	0xbd649b98	-0.05581245
86	0xbc98074e	-0.01855817
87	0x3d8e28f5	0.06941406
88	0x3cf7d972	0.030255053
89	0xbcaca4f0	-0.021074742
90	0xbcf65707	-0.030070795
91	0x3d0d6093	0.03451593
92	0xbd4ffdb3	-0.050779056
93	0xbd32d084	-0.043655887
94	0xbc97e7dd	-0.018543178
95	0xbd31493c	-0.043282732
96	0xbca23c87	-0.019804252
97	0xbb86c755	-0.0041131177
98	0xbc48219a	-0.0122150425
99	0x3be21b1e	0.0069002053
100	0x3d8063d8	0.06269044
101	0xbbde03e4	-0.006775366
102	0xbd4fc597	-0.050725546
103	0x3c7b8f30	0.015353963
104	0x3d30c49b	0.043156248
105	0x3cfeeebe	0.0311197
106	0x3d6693b4	0.056293204
107	0xbcebf65a	-0.028803993
108	0xbd52b662	-0.051443465
109	0xbc0039a4	-0.007826243
110	0xbd57ba1e	-0.05266773
111	0xbc7441dd	-0.014908281
112	0x3d760b23	0.060069215
113	0xbd5451a7	-0.051835682
114	0xbd003053	-0.031296086
115	0xbbedd586	-0.00725812
116	0x3ce3439d	0.027742201
117	0xbd3df2dd	-0.04637419
118	0xbd03d18e	-0.03218227
119	0x3d16e6c9	0.036841188
120	0xbd59c49e	-0.053166024
121	0x3d5eff67	0.05444279
122	0x3c887cd5	0.016661087
123	0xbd066f88	-0.03282121
124	0x3d117c6f	0.03551906
125	0x3cf1a3e3	0.029497093
126	0xbd0a3f78	-0.033751935
127	0x3bbf6fe8	0.0058421977
128	0xbd7a2af9	-0.06107614
129	0xbcb9d373	-0.022683835
130	0x3c008cb3	0.007846045
131	0x3d2654fc	0.04060839
132	0xbd2a74cb	-0.04161529
133	0x3c63b704	0.013898615
134	0x3d64092f	0.05567282
135	0xbc0c6a10	-0.008570209
136	0x3a5b6e6e	0.00083706423
137	0xbca5e734	-0.020251848
138	0xbd6107fe	-0.054939263
139	0x3bfa7e6f	0.0076444666
140	0x3ba50894	0.005036423
141	0xbc97f623	-0.018549984
142	0xbd1a7a55	-0.03771432
143	0xbd2f4e85	-0.04279949
144	0x3d6c82d0	0.05774194
145	0xbd317dc2	-0.043332823
146	0xbd31d85e	-0.043419234
147	0xbc1f4ed4	-0.009723384
148	0xbd204234	-0.039125636
149	0xbd40d0a8	-0.04707399
150	0x3c0f4f62	0.008746954
151	0x3d5860d6	0.052826725
152	0x3a9de877	0.0012047429
153	0x3b29c00f	0.002590183
154	0x3d66048d	0.056156684
155	0xba86a5f8	-0.0010272851
156	0xbd12766a	-0.03575746
157	0xbc6be485	-0.014397745
158	0x3d66552e	0.056233577
159	0x3cc91047	0.024543894
160	0x3d8be52e	0.06830822
161	0xbcde7f94	-0.027160443
162	0x3cb07d32	0.021544073
163	0x3d04f190	0.032456934
164	0x3d3689c8	0.044564992
165	0x3c383186	0.011242276
166	0xbd050d50	-0.0324834
167	0x3cbb7eb0	0.022887558
168	0x3d30a6fa	0.04312799
169	0xba5b0126	-0.0008354358
170	0x3d3d853f	0.04626965
171	0x3d2e8114	0.042603567
172	0xbcce8031	-0.02520761
173	0xbc8c5d82	-0.017134432
174	0x3c028a31	0.007967518
175	0x3d3257ce	0.04354077
176	0xbc3a69ef	-0.011377796
177	0x3b68c427	0.0035517307
178	0xbd11f4da	-0.0356339
179	0xbcd6c481	-0.026216747
180	0xbd209e0a	-0.039213218
181	0x3d26da64	0.040735617
182	0x3b7f2ffa	0.0038938508
183	0x3c0ca6ec	0.008584719
184	0x3d8ac50b	0.06775864
185	0x3cd03521	0.025415959
186	0xbc965703	-0.018352037
187	0x3c8d7a57	0.01727025
188	0xbca9461a	-0.02066331
189	0x3d259cf2	0.040432878
190	0x3c5ac52a	0.013352672
191	0xbd5632a6	-0.052294396
192	0xbbb23cca	-0.0054393755
193	0x3d1f2884	0.038856998
194	0xbc1fee82	-0.009761455
195	0x3b3ae0a9	0.0028515256
196	0xbd7fa75a	-0.06241546
197	0xbd07ae2d	-0.03312509
198	0x3d323846	0.043510698
199	0x3c228fbc	0.009921964
200	0x3c2d8b36	0.0105922725
201	0xbd010f9c	-0.031509027
202	0xbbc8a0b0	-0.006122671
203	0x3ccbb05a	0.024864364
204	0xbd38f2d7	-0.045153465
205	0x3b4d1cbd	0.0031297647
206	0xbd37b68d	-0.04485183
207	0x3d4abfd0	0.049499333
208	0xbd493f2a	-0.049132504
209	0xbc83f62f	-0.0161086
210	0x3cb05149	0.021523135
211	0x3cf334a4	0.029688187
212	0xbce5e62b	-0.028063854
213	0x3cca4fff	0.024696348
214	0x3d8d4ab0	0.06899011
215	0x3d88b5b4	0.06675282
216	0xbb35ed56	-0.0027759871
217	0x3d225b2e	0.039637737
218	0x3d20e5a7	0.039281514
219	0x3c5ea239	0.013588482
220	0xbb117827	-0.002219686
221	0xbd824d25	-0.063623704
222	0x3d12a7db	0.03580461
223	0x3d13270d	0.035925914
224	0x3c7f01b3	0.01556437
225	0x3c3c4e15	0.011493226
226	0x3d305c0a	0.043056525
227	0x3d17e62d	0.037084747
228	0xbca54fd8	-0.020179674
229	0xbc96c475	-0.018404225
230	0xbd3dbbe0	-0.04632175
231	0x3d43fd61	0.047849063
232	0x3c685848	0.014181204
233	0x3cd00578	0.025393233
234	0x3bfa1510	0.0076319054
235	0x3cce36be	0.025172587
236	0x3c7488dd	0.014925209
237	0x3d4cf9af	0.050042804
238	0x3b6e1ae8	0.0036331955
239	0x3d7b1fd5	0.061309654
240	0x3d733c05	0.05938341
241	0x3c395099	0.01131072
242	0x3abe8c4f	0.0014537665
243	0x3cf70c0b	0.03015711
244	0xbd509d64	-0.05093135
245	0x3af861e6	0.0018950074
246	0x3d3786c5	0.04480626
247	0xbced03c5	-0.028932462
248	0xbc377084	-0.011196259
249	0xbd3a7c42	-0.045528658
250	0xbd03fac8	-0.032221586
251	0xbd20f90d	-0.039300013
252	0xbcd36103	-0.025803095
253	0x3d3675e5	0.044546027
254	0x3d79872f	0.060919937
255	0x3d0fb492	0.035084315

conv2.bias f4 [64]
0	0x3d011d01	0.0315218
1	0x3c3834a1	0.011243016
2	0xbd5eeac3	-0.054423105
3	0xbcdcb29c	-0.026940636
4	0xbc89e84c	-0.0168344
5	0x3d59b180	0.053147793
6	0x3d62193b	0.055199843
7	0x3d182d59	0.037152622
8	0xbc69c6c9	-0.0142685855
9	0x3d480928	0.048836857
10	0xbd378ac3	-0.044810068
11	0xbc9686eb	-0.01837488
12	0x3d087792	0.033317156
13	0xbcf44f91	-0.029823096
14	0xbcdea881	-0.027179958
15	0xbc49eb78	-0.0123242065
16	0xbc311d59	-0.01081022
17	0x3d874569	0.06605036
18	0x3c599f37	0.013282589
19	0x3cd5a03a	0.026077379
20	0xbc675d61	-0.014121384
21	0xbc4d18dd	-0.012518135
22	0x3d5cee34	0.053938106
23	0x3d0d8cdf	0.034558173
24	0x3d26d177	0.040727105
25	0x3d92db93	0.07170787
26	0xbb0758fa	-0.00206524
27	0x3d639725	0.055564065
28	0xbd36cfd7	-0.044631805
29	0xbcc25f5b	-0.02372711
30	0x3d06fb8c	0.032954738
31	0x3d2916f9	0.041281674
32	0x3c1fa277	0.0097433245
33	0x3c8b2dba	0.016989578
34	0x3cb231e7	0.02175231
35	0x3d7f4913	0.06232555
36	0x3d1a4b3b	0.0376694
37	0xbcbf1971	-0.023327561
38	0xbbce1d14	-0.0062900875
39	0x3d5a2ff1	0.053268377
40	0x3c20805f	0.009796231
41	0xbc7da706	-0.015481716
42	0xbd71a445	-0.05899455
43	0xbcc63a65	-0.024197767
44	0x3ae9ce42	0.0017837959
45	0x3d0f2039	0.03494284
46	0xbcd3c15b	-0.025849035
47	0x3d3fc280	0.04681635
48	0x3d21e35c	0.039523467
49	0xbcf9f668	-0.030513003
50	0x3d54e872	0.05197949
51	0x3d182f78	0.037154645
52	0x3d87a5a7	0.066233926
53	0x3c6a5434	0.014302302
54	0x3d1d0fbc	0.038345084
55	0x3d891e4d	0.066952325
56	0xbbc6df9a	-0.006069136
57	0x3d635a02	0.05550576
58	0xbd19bcbc	-0.037533507
59	0x3c5bf708	0.013425596
60	0x3a087497	0.00052053615
61	0xbc4c9b62	-0.012488218
62	0xbd2ab7aa	-0.041679062
63	0xbc3ce490	-0.011529103

conv3.weight f4 [128, 64, 3, 3]
0	0x3cb2018c	0.021729253
1	0x3d1a611b	0.037690263
2	0xbb9078c5	-0.004408928
3	0xbd0cff3d	-0.0344231
4	0xbcc39b39	-0.023877727
5	0x3b99721f	0.0046827937
6	0xbc29bc15	-0.010359784
7	0xbbd2db6e	-0.0064348495
8	0x39c54646	0.00037627126
9	0x3cc08660	0.023501575
10	0x3d346b00	0.044047356
11	0x3ca3dd59	0.020003008
12	0xbd2e9166	-0.04261913
13	0xba54f04f	-0.0008122967
14	0xbce8465f	-0.028353868
15	0xbc8e8082	-0.017395262
16	0xbcc3585d	-0.023845846
17	0x3cc9c45b	0.024629762
18	0x3d44babd	0.04802965
19	0xbd179472	-0.037006803
20	0xbc9b6833	-0.018970584
21	0x3be12820	0.0068712384
22	0xbcd42466	-0.025896262
23	0x3d015493	0.031574797
24	0xbcd1b397	-0.02559833
25	0xbd37adf7	-0.04484364
26	0xb94447da	-0.00018718783
27	0x3c1e2b17	0.009653828
28	0xbcfcc7df	-0.030857025
29	0x3c897cdf	0.016783176
30	0xbccd3aed	-0.025052512
31	0x3ca7a95a	0.020466495
32	0x3d299c12	0.041408606
33	0xb978b2a4	-0.00023717672
34	0x3c8aeef9	0.016959654
35	0xbd25a101	-0.04043675
36	0x3b9e722f	0.004835389
37	0xbb9384b1	-0.004501902
38	0xbd2cb72b	-0.04216687
39	0xbcf77bbf	-0.030210374
40	0xbd0a57e6	-0.033775233
41	0x3c6bfb80	0.014403224
42	0xbcc1e19c	-0.02366715
43	0x3c797ddd	0.015227762
44	0x3cefbce1	0.02926487
45	0x3bcfbc8a	0.0063396143
46	0xbd2ab6cb	-0.04167823
47	0xba3d10d6	-0.00072122866
48	0x3d3aade3	0.045575988
49	0x3ca305fe	0.019900318
50	0x3ceeecb0	0.029165596
51	0x3cb1bab8	0.02169548
52	0xbd4a6011	-0.049408022
53	0xbc5c8976	-0.013460508
54	0x3c5c9c77	0.0134650385
55	0xbc03dd3d	-0.008048353
56	0xbcbcd915	-0.023052732
57	0xbd1e221e	-0.038606755
58	0xbd23bdcc	-0.039975926
59	0x3c56fe89	0.013122209
60	0x3c415d23	0.011801991
61	0xbcca2ff6	-0.024681073
62	0xbc3b3aa0	-0.0114275515
63	0x3cf4a884	0.02986551
64	0xbc5763f7	-0.013146392
65	0x3d0eb4cb	0.034840386
66	0xbc2aa3c5	-0.010415022
67	0x3d0681c6	0.032838605
68	0xbc5862e8	-0.013207175
69	0x3cdf4ced	0.02725836
70	0xbc81be99	-0.015837954
71	0xbbfe8912	-0.007767805
72	0xba2321e2	-0.00062230055
73	0xbc18f5ba	-0.0093359295
74	0xbd1d0c6c	-0.038341925
75	0x3bf8abd3	0.0075888424
76	0x3d0a5101	0.033768658
77	0x3c2fdfb3	0.010734486
78	0x3d0058f3	0.03133483
79	0xbd095370	-0.033526838
80	0xbc884c92	-0.016638074
81	0xbb02cc2a	-0.0019958117
82	0x3c0fa4b9	0.0087673
83	0xbc90dabc	-0.017682426
84	0xbcdff449	-0.027338164
85	0xbd685fe8	-0.05673209
86	0x3c4f9b3d	0.012671289
87	0xbba61aa2	-0.005069093
88	0x3d27700a	0.040878333
89	0xbb92d32e	-0.004480741
90	0xbae26d16	-0.0017274942
91	0xbc899e72	-0.016799185
92	0x3c83c24b	0.016083857
93	0x3b003d39	0.0019567742
94	0x3b718e10	0.0036858357
95	0xbcd84395	-0.026399413
96	0x3bb1f1b2	0.0054304237
97	0x3abcb56a	0.0014397327
98	0xbc845caf	-0.016157476
99	0xbd3fb6bc	-0.04680513
100	0x3d284f08	0.041090995
101	0x3c2c197c	0.010504123
102	0x3d389f61	0.04507387
103	0x3cd3a79e	0.025836762
104	0xbc1fbcb4	-0.00974958
105	0x3ca63910	0.020290881
106	0xbcf52f71	-0.029929848
107	0x3d0ba819	0.034095857
108	0xbcb0939b	-0.021554759
109	0x3d4c8c83	0.04993869
110	0x3bb1fbcc	0.005431628
111	0x3ce74dc4	0.028235324
112	0x3cdd71c3	0.027031785
113	0xbc9f159a	-0.01941948
114	0x3d150aa2	0.036387093
115	0xbc49cf40	-0.012317479
116	0x3d47545b	0.048664432
117	0xbcdb304e	-0.026756432
118	0xbcf2fd88	-0.029661909
119	0xbd4afb36	-0.04955598
120	0x3bc80c54	0.0061049853
121	0x3c8c60b0	0.017135948
122	0xbc495bf3	-0.012289989
123	0x3d13797b	0.036004525
124	0x3cf564f3	0.029955363
125	0xbd22c27a	-0.03973625
126	0xbd1e1ff8	-0.038604707
127	0xbd05ca7c	-0.032663807
128	0xbc06cbec	-0.00822733
129	0xbd3bc801	-0.045845035
130	0xbbb68b34	-0.0055707935
131	0x3a9f50ad	0.001215478
132	0x3c3a7a75	0.011381735
133	0x3ceeb576	0.029139262
134	0xbba58087	-0.005050722
135	0xbabde05c	-0.001448642
136	0xbc250aea	-0.010073403
137	0xbc980933	-0.018559074
138	0x3d3266d6	0.043555103
139	0xbd3396f7	-0.043845143
140	0xbd23333c	-0.039843783
141	0x3d173c35	0.036922652
142	0xbb1aa9b3	-0.0023599684
143	0xbd31c5c4	-0.043401495
144	0x3cd6ab6b	0.026204785
145	0x3a5be844	0.0008388797
146	0x3d0ab298	0.033861727
147	0xbc9c62ca	-0.019090075
148	0x3c667246	0.014065331
149	0xbd014115	-0.031556208
150	0x3d14186c	0.036156103
151	0xbcb7073b	-0.022342315
152	0x3ce037fa	0.027370442
153	0xb9826056	-0.00024867308
154	0x3d279ff8	0.040924042
155	0x3b464542	0.0030253683
156	0x3d66e52a	0.05637089
157	0x3d69410a	0.05694679
158	0xbc04df7b	-0.0081099225
159	0x3ce14d2c	0.027502619
160	0x3c163951	0.009168939
161	0x3b83e3a8	0.0040249415
162	0x3cca5dd8	0.024702951
163	0xbbca94c6	-0.006182286
164	0x3c88b60c	0.01668837
165	0x3bcebff7	0.006309505
166	0x3ca16019	0.019699143
167	0x3cfaceec	0.030616246
168	0xbd1fa6a5	-0.038977284
169	0xbbcda02b	-0.006275197
170	0x3cbcb6d2	0.023036394
171	0xbb4ea7aa	-0.003153304
172	0x3cec5dfe	0.028853413
173	0x3d366994	0.04453428
174	0x3ce63570	0.028101653
175	0xbc5179e1	-0.012785406
176	0xbbf7e3cc	-0.0075649973
177	0x3d25920d	0.040422488
178	0x3cf916ad	0.03040632
179	0xbcce59eb	-0.02518936
180	0xbb8fbc1f	-0.0043864395
181	0x3c6d97f6	0.014501562
182	0x3cf94d54	0.03043238
183	0xbbef7447	-0.0073075625
184	0xba68a0c0	-0.0008874051
185	0xbb602902	-0.003420413
186	0xbc1be5eb	-0.009515266
187	0x3d11cec7	0.03559759
188	0x3d13d873	0.036095094
189	0xbc1c365c	-0.009534445
190	0x3d31df7c	0.043426022
191	0xbc19b328	-0.009381093
192	0xbcd153be	-0.025552627
193	0x3c8da470	0.017290324
194	0x3c8324cf	0.016008763
195	0xbd5cbc5b	-0.053890567
196	0xbd0f20ef	-0.034943517
197	0xbcc34437	-0.023836238
198	0x3cbc8304	0.023011692
199	0x3d5adcd8	0.05343327
200	0xbd16a439	-0.03677771
201	0x3cbb96c7	0.022899045
202	0xbc9bb9a2	-0.019009415
203	0xbd2c931a	-0.042132474
204	0x3d0dcd3d	0.03461956
205	0xbcace758	-0.021106407
206	0x3d25173e	0.04030537
207	0xbb502f0a	-0.0031766319
208	0xba4e7a40	-0.0007876493
209	0x3d3a6618	0.04550752
210	0xbd0c9b83	-0.034327995
211	0x3d399363	0.045306575
212	0xbd1b9cea	-0.03799144
213	0xbd369353	-0.044574093
214	0x3ca3740e	0.0199528
215	0x3cccdb19	0.025006818
216	0x3cb07daf	0.021544306
217	0x3bf392f0	0.007433288
218	0x3cb18e0b	0.021674177
219	0x3d23bcfd	0.039975155
220	0xbd0cf171	-0.034409944
221	0xbc916d8d	-0.017752433
222	0x3c870181	0.01648021
223	0xbcc7dee4	-0.024398275
224	0xbd459fa8	-0.048247963
225	0xbd1bbc47	-0.038021352
226	0x3d1f49fe	0.038888924
227	0x3d0371c4	0.032090917
228	0x3d04b5d8	0.032399982
229	0x3d0ccead	0.03437679
230	0xbd052bfb	-0.032512646
231	0x3c912034	0.017715551
232	0xbb9a181f	-0.0047025825
233	0x3ccede50	0.025252491
234	0xbc3eaa55	-0.01163729
235	0x3cb56b45	0.022145877
236	0xbc8f5afd	-0.017499441
237	0xbc9f9aef	-0.019483058
238	0x39fce382	0.00048234692
239	0x3d12dd66	0.035855673
240	0xbcc6bbe8	-0.024259523
241	0xbcbb3547	-0.022852553
242	0x3cc4c537	0.02401982
243	0x3cc1b78d	0.023647094
244	0x3b9b1587	0.004732791
245	0xbcadafa3	-0.021201914
246	0xbca6d165	-0.020363519
247	0x3cbf886e	0.023380484
248	0xbabdb86a	-0.0014474515
249	0x3af00e53	0.0018314816
250	0xbb1c0afe	-0.0023810263
251	0x3bbc098d	0.005738443
252	0xbd48d143	-0.049027693
253	0xbc591750	-0.013250187
254	0x3b4fde52	0.0031718207
255	0x3ce65436	0.028116327

conv3.bias f4 [128]
0	0x39ace268	0.00032975082
1	0xbd09e30e	-0.0336638
2	0xbc90d89c	-0.017681412
3	0x3cf31758	0.029674217
4	0xbcf83331	-0.030297847
5	0xbc0e6dbf	-0.008693158
6	0xbbfe34ad	-0.0077577443
7	0x3d2ece8c	0.042677447
8	0xbc909805	-0.017650614
9	0x3bc63a64	0.006049441
10	0xbcec57d6	-0.028850477
11	0xbcccc78e	-0.024997499
12	0x3cae5fd6	0.021285933
13	0xbc04628b	-0.008080135
14	0x3c24814e	0.010040594
15	0x3c9e7288	0.019341722
16	0x3d2b3525	0.04179873
17	0x3d0f54c4	0.03499295
18	0x3d14d91c	0.036339864
19	0x3cf6b024	0.030113287
20	0x3cb51147	0.022102965
21	0x3d275893	0.040855955
22	0x3d398f61	0.045302752
23	0x3d1aff28	0.037840992
24	0xbc8a3692	-0.016871724
25	0x3ccc26a6	0.024920773
26	0x3d206d08	0.03916648
27	0xbcdf53cf	-0.027261643
28	0xb9d7a34c	-0.0004112966
29	0xbd38d8b5	-0.045128543
30	0xbd3a04e8	-0.045414835
31	0x3c7485f0	0.014924511
32	0xbd0b7127	-0.034043457
33	0x3d16fd91	0.036862914
34	0xba497ed9	-0.0007686443
35	0xbd1c596d	-0.03817122
36	0x3d07b3ad	0.033130337
37	0xbd103bce	-0.035213284
38	0xb9e411b8	-0.0004350075
39	0xbbb0e45e	-0.0053983172
40	0x3cc1b678	0.023646578
41	0xbb9cf302	-0.004789711
42	0x3cad153d	0.021128291
43	0xbc2d4def	-0.010577663
44	0x3c4240e5	0.011856292
45	0x3d6849ac	0.056710884
46	0x3ae6520c	0.0017572059
47	0xbacfcae6	-0.0015853315
48	0xbc55e1ee	-0.013054354
49	0xbc020474	-0.007935632
50	0xbd14d808	-0.036338836
51	0xbc4c0847	-0.012453145
52	0xbd230666	-0.039801024
53	0x3cdf4cf9	0.027258383
54	0xbb500391	-0.0031740407
55	0x3d0cecca	0.034405507
56	0xbcd3e5f5	-0.025866488
57	0x3c97f073	0.018547272
58	0x3ac7b4da	0.0015236393
59	0x3d322a7b	0.043497544
60	0x3cbac2b4	0.02279792
61	0x3d192160	0.037385345
62	0x3c9a60a2	0.018844906
63	0xbc4c7a0c	-0.01248027
64	0xbc93d632	-0.018046472
65	0x3d120c32	0.03565616
66	0x3cc8cbd5	0.024511257
67	0xba9199f6	-0.0011108506
68	0xbcae2e4d	-0.021262312
69	0x3ccf13aa	0.025277931
70	0x3c1b3b65	0.00947461
71	0x3c037ddf	0.0080256155
72	0xbcdfb378	-0.027307257
73	0xbc344c61	-0.011004538
74	0x3cbea3ab	0.023271402
75	0x3d400808	0.04688266
76	0x3d106aac	0.03525798
77	0x3d001b96	0.031276308
78	0x3bd42ee6	0.0064753173
79	0x3c2d5bae	0.01058094
80	0xbd494287	-0.04913571
81	0x3ccb3949	0.02480759
82	0xbce013ca	-0.027353186
83	0xbd15d25c	-0.036577567
84	0x3bf3bf63	0.0074385866
85	0xbccd6e2a	-0.025076944
86	0x3c6f3c88	0.014601834
87	0x3bd937c3	0.006628962
88	0x3b9678b0	0.004592024
89	0x39c973fe	0.00038424128
90	0xbc92154e	-0.017832424
91	0x3d426209	0.047456775
92	0xbcaf8025	-0.021423409
93	0x3d11874d	0.035529424
94	0x3cc58cf2	0.02411506
95	0xba4be747	-0.00077782985
96	0xbcaee9d7	-0.021351738
97	0x3bf2162b	0.0073878965
98	0xbceba7f4	-0.02876661
99	0x3c9f48ec	0.019443952
100	0x3c98f4e0	0.018671453
101	0x3d0f4d6a	0.034985937
102	0xbc4e1978	-0.012579314
103	0xbcb0b564	-0.021570869
104	0x3c0cf2f1	0.008602844
105	0x3d3b70f7	0.04576203
106	0xbc6fef07	-0.014644391
107	0x371f0400	9.47807e-06
108	0xbca5375e	-0.020168003
109	0x3cd8f26d	0.026482785
110	0xbc916e83	-0.017752891
111	0x3d01695b	0.031594615
112	0xbd413bd6	-0.047176205
113	0xbbc7f0d3	-0.0061017065
114	0xbb847dfb	-0.0040433384
115	0x3cd01960	0.025402725
116	0x3c0f3899	0.008741521
117	0x3be1902b	0.0068836412
118	0xbc75572e	-0.014974399
119	0x3c46c19e	0.012131123
120	0xbc9ac476	-0.018892508
121	0xbcb4e38b	-0.022081157
122	0xbd10c16e	-0.03534072
123	0x3b0f6ac8	0.0021883715
124	0xbccf05f6	-0.025271397
125	0xbd072bbe	-0.0330007
126	0xbcd4eabc	-0.025990836
127	0x3d6221c2	0.055207975

act_conv1.weight f4 [4, 128, 1, 1]
0	0xbb16b79e	-0.0022997628
1	0x3c5e08b3	0.013551879
2	0xbbfd4504	-0.0077291746
3	0xbd7db814	-0.06194313
4	0x3af5ae40	0.0018743947
5	0x3cbe79c5	0.023251424
6	0x3d218367	0.039431956
7	0x3b7e8e1f	0.0038842035
8	0x3d80b9b4	0.0628542
9	0xbd8c621e	-0.06854652
10	0x3a2d4753	0.00066100544
11	0x3c934445	0.01797689
12	0xbd8c479d	-0.06849597
13	0x3b5f7982	0.0034099524
14	0x3cfaf2b2	0.030633304
15	0xbd5dd643	-0.054159414
16	0x3c744bb1	0.014910624
17	0xbd4c7175	-0.04991289
18	0x3c8e4045	0.01736463
19	0xbbb227a8	-0.0054368563
20	0x3c29b43b	0.010357912
21	0x3b0e8ddd	0.0021752038
22	0xbd10d3ba	-0.03535817
23	0xbc1a4214	-0.009415168
24	0xbab1165e	-0.0013510694
25	0x3d7911a8	0.060807854
26	0xba846bb2	-0.0010102896
27	0xbcdd2600	-0.026995659
28	0x3b00eafa	0.0019671307
29	0xbd8f07fd	-0.069839455
30	0xbd3c4e00	-0.045972824
31	0x3ce49bcf	0.027906327
32	0x3c37bbe7	0.011214233
33	0x3cfae842	0.030628327
34	0x3b879cab	0.0041385493
35	0x3d432436	0.047641955
36	0xbcb7d925	-0.02244241
37	0xbd742349	-0.059603963
38	0xbc2617f6	-0.010137549
39	0xbc312653	-0.01081236
40	0xbd347ce7	-0.04406443
41	0xbd381148	-0.044938356
42	0xbd5cd872	-0.053917356
43	0xbd62ed81	-0.055402283
44	0xbbc5a9ca	-0.0060322033
45	0xbc90f3c9	-0.01769437
46	0x3c9684c3	0.018373853
47	0xbcdc4ceb	-0.026892146
48	0x3ca1d49b	0.019754699
49	0x3a0740f5	0.00051595207
50	0x3d85c3d9	0.065314956
51	0x3cb49979	0.022045838
52	0xbcb1e02d	-0.02171334
53	0xbc3b6cb6	-0.011439493
54	0xbd907089	-0.070527144
55	0x3d37e0f6	0.044892274
56	0x3b26f339	0.0025474562
57	0xbd29df60	-0.041472793
58	0xbd4180ed	-0.047242094
59	0xbc4e8bcd	-0.012606573
60	0xbd72fb91	-0.059321944
61	0x3c635b99	0.013876819
62	0x3cb88af6	0.0225272
63	0xbd312233	-0.043245506
64	0x3d42f02e	0.047592334
65	0x39658028	0.00021886884
66	0x3d0c6975	0.03428026
67	0xbd05c123	-0.032654893
68	0xbcd733a5	-0.026269743
69	0xbd3eb89c	-0.046562776
70	0x3cb27e52	0.02178875
71	0x3a9b9219	0.0011869102
72	0xbcf6ae6f	-0.030112473
73	0x3d881b1a	0.06645794
74	0x3d5dee4e	0.054182343
75	0xbd72f9fe	-0.059320442
76	0x3b477b91	0.0030438642
77	0xbbcd75b1	-0.0062701334
78	0xbcfccd32	-0.030859563
79	0xbc984c83	-0.018591171
80	0xb9f2a0bc	-0.00046277593
81	0x3d01c7f0	0.031684816
82	0xba5da5ca	-0.00084551855
83	0x3d21f2e2	0.03953827
84	0xbc87b81b	-0.01656728
85	0xbd1a287d	-0.03763627
86	0xbd7f2ca4	-0.062298432
87	0x3d6b2ab1	0.05741376
88	0x3d24d14d	0.040238667
89	0xbb85bd9a	-0.00408144
90	0xbad78356	-0.0016442339
91	0xbcd147a0	-0.025546849
92	0x3c216a45	0.009851997
93	0x3d160d67	0.036633875
94	0xbd45bbdb	-0.048274856
95	0x3d90bc82	0.07067205
96	0xbd1e4056	-0.038635574
97	0x3d346beb	0.04404823
98	0xba06bf59	-0.00051402074
99	0x3d5e7550	0.054311097
100	0x3a91c533	0.0011121392
101	0x3c9af5bd	0.018916005
102	0x3a9fd3fc	0.0012193914
103	0xbd5052c7	-0.050860193
104	0x3a86980b	0.0010268701
105	0x3b9008e9	0.0043955934
106	0x3b63b6b0	0.0034746341
107	0xbd5593d1	-0.05214292
108	0x3bdc37f1	0.006720536
109	0x3d847397	0.064673595
110	0x3a7539eb	0.0009354639
111	0x3aa9e2d7	0.001296128
112	0x3d0ed8ee	0.03487485
113	0x3a6b2d34	0.00089712744
114	0x3cd8fb00	0.026486874
115	0xbb67352e	-0.00352795
116	0xbd89d86b	-0.067307316
117	0x3ce53fda	0.027984548
118	0x3d847bea	0.06468947
119	0xba859fba	-0.0010194697
120	0x3d813235	0.06308404
121	0x3a6b5da6	0.0008978493
122	0xbc3ff66b	-0.0117164655
123	0xbd4d0f1d	-0.05006324
124	0xbd7814de	-0.060566776
125	0x3cfe7888	0.031063333
126	0x3c59f8ce	0.013303949
127	0x3b05798a	0.0020366632
128	0x3c65e0ec	0.014030676
129	0x3d88ba38	0.066761434
130	0xbd85ae00	-0.065273285
131	0x3c95a417	0.01826672
132	0x3ce7f9aa	0.028317291
133	0xbd4a6747	-0.0494149
134	0xbd68534f	-0.056720074
135	0x3d87b66a	0.066265896
136	0x3d624f0d	0.05525117
137	0xbd61b10c	-0.055100486
138	0x3cb54828	0.022129133
139	0xbd815558	-0.06315106
140	0xbb387f4e	-0.0028152051
141	0x3c9fcdfe	0.019507404
142	0x3d6e742b	0.058216255
143	0x3da6ea8a	0.081502035
144	0xbd9f3d0b	-0.07775315
145	0xbd3f8833	-0.04676075
146	0x3c033df4	0.008010376
147	0xbc343fbf	-0.011001526
148	0x3d1d7ae3	0.038447272
149	0xbdb11aa3	-0.08647659
150	0x3ae0473a	0.0017111071
151	0xbccf708b	-0.02532222
152	0x3d48e285	0.04904415
153	0xbccaf67b	-0.024775734
154	0xbc3404bf	-0.01098746
155	0x3da41247	0.080112986
156	0x3cd9ffc7	0.026611222
157	0xbd90cc37	-0.07070201
158	0xbb74613b	-0.00372894
159	0xbd7ec7e4	-0.06220235
160	0xbdb4ea05	-0.08833698
161	0x3c84fa00	0.01623249
162	0x3c6b149d	0.014348176
163	0x39cf9e6d	0.00039600153
164	0x3d500981	0.050790314
165	0x3d1c1f7b	0.03811596
166	0xbc75b60a	-0.014997015
167	0xbce687a0	-0.028140843
168	0x3d032d6b	0.032025736
169	0x3a4addbb	0.0007738729
170	0xbd2109fa	-0.039316155
171	0x3d56739f	0.05235636
172	0xbd8a5fcd	-0.06756554
173	0x3be9d67a	0.0071361633
174	0xbd61f3b6	-0.05516406
175	0xbc8517c7	-0.01624669
176	0xbd951489	-0.072793074
177	0xbbbc75fe	-0.0057513705
178	0x3d4e2cfb	0.050335865
179	0xbcb99550	-0.022654206
180	0xbdad2c11	-0.084556706
181	0x3d5bd4cd	0.05366974
182	0x3cfdb8fc	0.030971996
183	0xbd977c9f	-0.073968165
184	0xbd84f5c4	-0.064921886
185	0x3d241269	0.04005662
186	0x3ca48ada	0.02008574
187	0x3d7adad9	0.061243866
188	0x3d4ad0ee	0.049515657
189	0x3c10c97d	0.008837101
190	0xbd12ad00	-0.035809517
191	0xbc46ab61	-0.012125821
192	0xbcc3f7bb	-0.023921838
193	0x3d2c97af	0.042136844
194	0x3d3cf284	0.04612972
195	0x3d04ac55	0.03239091
196	0x3d160a65	0.036631007
197	0xbd7334fa	-0.059376694
198	0xbdb3edf2	-0.08785619
199	0x3d429805	0.04750826
200	0x3d577acf	0.052607354
201	0x3d17b0a5	0.037033696
202	0x3d4ca678	0.049963444
203	0xbcccbeed	-0.024993384
204	0xbc8f6221	-0.017502846
205	0x3b7989a0	0.0038076416
206	0x3d8fbb45	0.07018141
207	0x3dacac23	0.0843127
208	0xbd04054a	-0.032231607
209	0xbcc41cbe	-0.023939487
210	0xbc07ba00	-0.008284092
211	0xbd1e5c8a	-0.03866247
212	0x3d5f7dbb	0.054563265
213	0x3d5abf6b	0.053405207
214	0x3d228b93	0.03968389
215	0xbdbf835a	-0.09351225
216	0x3d5d067c	0.053961262
217	0xbb07961c	-0.0020688837
218	0xba888ef5	-0.0010418581
219	0x3d03ec7a	0.032207943
220	0xbd416c50	-0.047222435
221	0xbd9c7e35	-0.076412596
222	0x3d8c4e61	0.06850887
223	0x3d393f2f	0.045226272
224	0x3d04dbfd	0.03243636
225	0x3c9bb121	0.01900536
226	0xbd5b9db8	-0.05361721
227	0xbbff5ecf	-0.0077932845
228	0x3d56cc33	0.052440833
229	0x3d45bee9	0.04827777
230	0xbd8e03f3	-0.06934347
231	0x3dae2f87	0.08505159
232	0x3d4614a9	0.048359547
233	0xbd06e808	-0.032936126
234	0xbcb7809a	-0.02240019
235	0x3dc49ef2	0.09600629
236	0xbda09d2e	-0.0784248
237	0xbc473823	-0.01215938
238	0x3d88aefd	0.06674001
239	0xbd375d61	-0.044766787
240	0xbc81b54a	-0.015833516
241	0x3ccc6392	0.024949823
242	0x3dc7196a	0.09721644
243	0xbd8f0614	-0.06983581
244	0x3c849ce1	0.016188087
245	0xbd833b70	-0.06407821
246	0xb898cbe8	-7.285905e-05
247	0x3d3daced	0.046307493
248	0xbceaf29d	-0.02868014
249	0x3c544c16	0.012957593
250	0x3d4405c9	0.04785708
251	0xbbc81547	-0.006106052
252	0x3dbb1e39	0.09136624
253	0xbc39ea91	-0.011347429
254	0x3d38d789	0.045127425
255	0x3cdc0b31	0.026860805

act_conv1.bias f4 [4]
0	0xbcd80b93	-0.026372707
1	0x3d112d96	0.035443865
2	0x3d91e20a	0.07123192
3	0xbd5d597f	-0.05404043

act_fc1.weight f4 [36, 144]
0	0x3d279518	0.04091367
1	0xbb281094	-0.0025644647
2	0xbd1fca09	-0.039011035
3	0x3d41ffb8	0.047363013
4	0x3d76e39b	0.060275655
5	0x3cb99673	0.022654748
6	0x3d610224	0.054933682
7	0x3ac5b8cc	0.0015084981
8	0x3ab4aa6c	0.00137837
9	0xbcfda16c	-0.030960761
10	0x3d302c92	0.043011256
11	0xbbba93f2	-0.005693906
12	0xbd5ca201	-0.053865436
13	0xbb53d020	-0.0032320097
14	0xbca8266e	-0.020526137
15	0x3d3a79a3	0.045526158
16	0xbb93135d	-0.0044883923
17	0x3d15d079	0.03657577
18	0x3b13d545	0.0022557538
19	0x3b230288	0.0024873335
20	0xba222dab	-0.00061866146
21	0x3c0a26a4	0.008432064
22	0x3d564395	0.052310545
23	0x3d121fde	0.035674922
24	0x3ca23cb0	0.019804329
25	0xbb2d615d	-0.0026455738
26	0xbd7b757d	-0.061391342
27	0x3d01057d	0.031499375
28	0xb79b5a60	-1.8519524e-05
29	0x3d380e37	0.04493543
30	0x3cf0c384	0.029390104
31	0x3c185063	0.009296509
32	0x3cb15eaf	0.021651594
33	0x3b2ca1ef	0.0026341637
34	0xbb323c0f	-0.0027196442
35	0x3cda20ca	0.026626963
36	0x3c0317bb	0.008001263
37	0x3bdf15d6	0.006808023
38	0xbd91f9af	-0.071277015
39	0x3abc7665	0.0014378546
40	0xbd399d3e	-0.045315973
41	0xbce8fa4e	-0.028439667
42	0xbc267b9f	-0.0101613095
43	0xbd13ca9c	-0.036081895
44	0xb9d185f6	-0.00039963395
45	0x3ce9eaef	0.028554408
46	0x3cd02b6c	0.02541133
47	0xbd1ad95b	-0.037804943
48	0x3d167da2	0.036740907
49	0x3d07d1fb	0.033159237
50	0x3d6a88ba	0.0572593
51	0x3cb95cd9	0.022627281
52	0xbdcba31d	-0.09943221
53	0x3c9612c1	0.01831949
54	0xbd65554e	-0.055989556
55	0xbdbcc46e	-0.092171535
56	0x3d0423d3	0.032260727
57	0x3d559f76	0.052154027
58	0x3cd7d44b	0.026346346
59	0x3d78bd4e	0.06072741
60	0xbdb96998	-0.090533435
61	0x3d358a6a	0.044321455
62	0x3ce979cd	0.028500462
63	0xbd8cc59e	-0.0687363
64	0xbd2aadf8	-0.041669816
65	0xbd8d01b2	-0.06885089
66	0x3d7af533	0.061268996
67	0xbdc9b134	-0.09848252
68	0x3d1ae237	0.03781339
69	0x3b7b6a87	0.0038363056
70	0xbd5f0405	-0.054447193
71	0x3c4d8f65	0.012546395
72	0x3b6fe5ed	0.0036605552
73	0xbd8636e5	-0.06553439
74	0xbd913d0d	-0.07091723
75	0xbc8d5e74	-0.017256953
76	0x3d120946	0.035653375
77	0xbc9cf309	-0.019158857
78	0xbd04eccf	-0.0324524
79	0xbdc6c463	-0.097054265
80	0xbdc6090d	-0.09669695
81	0xbda1e582	-0.07905103
82	0xbd29e714	-0.04148014
83	0x3d324598	0.0435234
84	0xbc103967	-0.008802748
85	0xbd08eb5d	-0.033427585
86	0x3c5e0487	0.013550884
87	0xbcfece7f	-0.031104324
88	0x3b9dee7c	0.0048196893
89	0xbdb1d9e9	-0.08684141
90	0x3c6b7d8c	0.014373194
91	0xbd912d2a	-0.070886925
92	0xbd88b74b	-0.06675585
93	0xbd5ccef7	-0.053908315
94	0xbd349c61	-0.044094447
95	0xbba21d5b	-0.004947347
96	0xbd416b28	-0.047221333
97	0xbc1f04a5	-0.009705697
98	0x3d4f2198	0.050569147
99	0xbdcbfb6c	-0.09960064
100	0x3d268c9a	0.04066143
101	0x3d0197fc	0.031639084
102	0x3c7126e2	0.014718743
103	0xbd38c7d5	-0.04511245
104	0x3b51d3ab	0.0032017033
105	0xbd947c2a	-0.07250245
106	0xbcee6404	-0.029100426
107	0xbd164480	-0.03668642
108	0xbd5867f6	-0.05283352
109	0xbcd65da0	-0.02616769
110	0xbabeed7a	-0.0014566623
111	0xbda2be1d	-0.079464175
112	0xbdb4e2ab	-0.08832296
113	0x3d4e5064	0.050369635
114	0x3d58f4d3	0.052967858
115	0x3b26c501	0.0025447013
116	0x3d4864be	0.0489242
117	0xbd268bbc	-0.040660605
118	0xbccc3f3a	-0.024932493
119	0x3d05987d	0.032616127
120	0x3b0fde02	0.0021952395
121	0xbbbdeeee	-0.005796305
122	0xbc05c043	-0.008163515
123	0x3d3150eb	0.04329006
124	0xbb8764d8	-0.0041318946
125	0xbd2e4d73	-0.04255433
126	0xbab20a69	-0.0013583425
127	0x3d67cad1	0.056589905
128	0x3ce40461	0.02783412
129	0xbc6e2c9b	-0.014537002
130	0x3c8f9855	0.017528692
131	0x3d56e86f	0.05246776
132	0x3d5d6343	0.05404974
133	0x3cb02072	0.021499846
134	0x3cf7b8fe	0.030239578
135	0xbd1946e2	-0.037421115
136	0xbd67138a	-0.05641512
137	0xbc03da84	-0.008047704
138	0x3d65a6ac	0.056067154
139	0x3c0d6c34	0.008631755
140	0xbced7ab8	-0.02898918
141	0x3c41b1c2	0.011822166
142	0xbc58646e	-0.013207538
143	0xbc5ff085	-0.013668184
144	0xbabf2e66	-0.0014585971
145	0x3c907837	0.017635448
146	0x3d287298	0.04112491
147	0xbcacf175	-0.02111123
148	0xbb9b3bf0	-0.0047373697
149	0xba1a19b5	-0.00058784644
150	0x3b6b2591	0.0035880546
151	0xb9f9766d	-0.00047581215
152	0xba77886d	-0.0009442631
153	0x38858650	6.366952e-05
154	0x3bebe5ee	0.0071990406
155	0x3a6e2a77	0.0009085307
156	0xbc145eb2	-0.00905578
157	0x3c097a8b	0.008391033
158	0xbd7e94bc	-0.062153563
159	0xbb21f4d3	-0.0024712577
160	0x3d04f1e0	0.032457232
161	0x3c2b80c7	0.010467715
162	0xbd31c9dc	-0.0434054
163	0x3b1bc750	0.0023769923
164	0x3ce57103	0.02800799
165	0xbb894c98	-0.004190039
166	0xbd5e3b27	-0.05425563
167	0xbd459f45	-0.048247594
168	0x3cc01746	0.023448598
169	0xbd435779	-0.047690842
170	0x3d5c0330	0.053713977
171	0x3d80f5f6	0.06296913
172	0x39b36ba5	0.00034221742
173	0xbd57c51b	-0.05267821
174	0x3a678907	0.00088323693
175	0x3d3d760b	0.046255153
176	0x3d4b9856	0.049705826
177	0xb948fe06	-0.00019168117
178	0x3d30904b	0.04310636
179	0xbaee3316	-0.0018173184
180	0xbd14bca8	-0.03631273
181	0xbd6dc43d	-0.058048476
182	0xbc511a4c	-0.012762617
183	0x3d9ccc90	0.07656205
184	0x3d0ba167	0.034089472
185	0xbd0e368a	-0.03471998
186	0xbdacd769	-0.08439524
187	0x3d7b2254	0.061312035
188	0x3c02c61d	0.007981804
189	0xbcac7cba	-0.021055568
190	0xbd9aa055	-0.07550112
191	0x3d6aecad	0.057354618
192	0x3b96fdc8	0.00460789
193	0x3d860eb2	0.06545772
194	0xbaa7b5bf	-0.0012795253
195	0xbda7e19a	-0.08197327
196	0x3d827a8c	0.0637103
197	0xbca36ad0	-0.019948393
198	0xbcd2c892	-0.025730405
199	0x3cae2cfe	0.021261688
200	0x3d08f012	0.033432074
201	0xbcdbf6bf	-0.026851056
202	0xbd840c6d	-0.064476825
203	0xbd45c80f	-0.048286494
204	0x3d9154db	0.07096263
205	0xbdb6d33f	-0.08927011
206	0xbc4cb3db	-0.012494053
207	0xbc737e3b	-0.014861639
208	0x3d795d24	0.06087984
209	0xbd897c39	-0.06713147
210	0x3d5b586b	0.05355112
211	0xbcb22c71	-0.021749707
212	0xbd99eca5	-0.075158395
213	0x3d75fa10	0.06005293
214	0xbdb219ec	-0.086963505
215	0xbd036111	-0.03207499
216	0x3d69ad57	0.057050075
217	0x3cb778ff	0.022396563
218	0x3ca7edea	0.020499188
219	0x3dadddc4	0.08489564
220	0xbcbf421d	-0.023346955
221	0x3d0fabfe	0.035076134
222	0xbce9e0b9	-0.028549539
223	0x3d403a44	0.046930566
224	0x3d5ecf0e	0.05439668
225	0x3d134557	0.0359548
226	0x3cd995db	0.026560714
227	0x3c74337c	0.014904853
228	0x3da13b66	0.078726575
229	0x3da094c6	0.07840876
230	0xbbdab740	-0.006674677
231	0x3dab02ae	0.083501205
232	0x3c0e3c17	0.008681319
233	0xbd2bf5c5	-0.04198243
234	0x3d2d5940	0.042321444
235	0x3d8df807	0.06932073
236	0xbd551bc8	-0.052028447
237	0xbd324f4e	-0.043532662
238	0x3c379f14	0.011207361
239	0xbd0b4f33	-0.034011077
240	0x3da7e055	0.08197085
241	0x3d638497	0.05554637
242	0x3b618344	0.0034410516
243	0x3d4b38f1	0.04961485
244	0x3b9a6644	0.004711898
245	0xbd53fc5b	-0.051754337
246	0x3d4cc969	0.049996767
247	0x3b839d29	0.0040165377
248	0xbd5b2e6a	-0.05351106
249	0xbca44c18	-0.020055816
250	0x3d4f73cd	0.050647546
251	0xbda5a781	-0.080885895
252	0x39405a54	0.00018344197
253	0xbd289bef	-0.041164335
254	0xb90ca990	-0.00013414607
255	0xbd43139a	-0.047626115

act_fc1.bias f4 [36]
0	0xbd1b0a34	-0.037851527
1	0x3da374b8	0.07981247
2	0x3cdd3476	0.027002554
3	0xbdb73d87	-0.08947282
4	0x3d27bf1b	0.040953737
5	0xbd2f4eb2	-0.04279966
6	0xbd5942a1	-0.053042058
7	0x3c494b18	0.01228597
8	0x3d85ed3a	0.06539388
9	0xbd7c142f	-0.061542686
10	0xbd8bf48a	-0.068337515
11	0x3d12d263	0.03584517
12	0x3d394742	0.045233972
13	0x3d858cde	0.06521009
14	0x3d2af389	0.04173616
15	0xbd97b331	-0.07407225
16	0x3cab6e01	0.020926477
17	0x3db9e58e	0.09076987
18	0x3d1033bb	0.035205584
19	0x3c268d6e	0.010165555
20	0xbdb26336	-0.08710329
21	0x3d73a7a9	0.059486065
22	0x3c7c6aa4	0.0154062845
23	0x3cd4be04	0.025969513
24	0xbcd1a45f	-0.025591074
25	0xbd901c7c	-0.07036683
26	0x3da83851	0.082138665
27	0xbd488909	-0.048958812
28	0x3d98aec8	0.07455212
29	0xbbb7f804	-0.0056142826
30	0xbd7396cd	-0.059469987
31	0x3d8d3955	0.06895701
32	0xbc55055f	-0.013001769
33	0x3d154b1f	0.036448594
34	0x3d83d9ee	0.06438051
35	0x3c841c18	0.016126677

val_conv1.weight f4 [2, 128, 1, 1]
0	0xbd8c55d4	-0.06852308
1	0xbb9ab4b5	-0.004721249
2	0x3dc6b35b	0.09702178
3	0xbcf522ed	-0.02992388
4	0x3cc0dc39	0.02354251
5	0xbd3529e1	-0.044229392
6	0x3d904941	0.07045222
7	0x3d03edad	0.032209087
8	0x3d8d7077	0.069062166
9	0x3c9285a9	0.017886
10	0xbc7e7523	-0.015530857
11	0x3beb19c2	0.0071747014
12	0x3c5c75ae	0.013455791
13	0x3dbc5e60	0.09197688
14	0x3db81d7c	0.08989999
15	0xbd8aaab5	-0.06770841
16	0x3da97778	0.0827474
17	0xbd5a3813	-0.053276133
18	0x3d7feb6b	0.06248037
19	0x3d4ebbf5	0.05047222
20	0xbd37e3e5	-0.04489507
21	0x3d0bd028	0.03413406
22	0x3cd4be92	0.025969777
23	0x3d9f95fb	0.077922784
24	0x3d4e39df	0.05034816
25	0x3d5004e7	0.050785925
26	0xbd894780	-0.06703091
27	0xbc7d40d6	-0.015457353
28	0xbd90fe3a	-0.0707974
29	0x3d8c5627	0.0685237
30	0x3d3ec503	0.046574604
31	0x3d555bd7	0.05208954
32	0xbcdd234e	-0.026994374
33	0x3d15d190	0.036576807
34	0xbd08ef1d	-0.03343116
35	0xbd6cffb8	-0.05786106
36	0x3d95ffdb	0.07324191
37	0x3dbc69b5	0.091998495
38	0x3dbc8089	0.09204204
39	0x3db30af7	0.08742326
40	0xbd46b828	-0.04851547
41	0xbc1ae82f	-0.009454771
42	0x3d2da716	0.042395674
43	0x3d383a72	0.044977613
44	0xbd905856	-0.07048099
45	0x3c89d91a	0.016827155
46	0xbccba340	-0.024858117
47	0x3d0cd72c	0.03438489
48	0xbd7f6c4c	-0.06235914
49	0xbcacc212	-0.021088634
50	0xbd15a211	-0.03653151
51	0x3cecb10b	0.028893014
52	0x3d013974	0.031548932
53	0x3d9bae19	0.07601566
54	0x3d4eeef1	0.05052084
55	0x3dbfccdf	0.09365248
56	0x3c5fc475	0.013657679
57	0x3c708e32	0.0146823395
58	0x3d891865	0.06694106
59	0x3d7d252b	0.061803024
60	0xbbf2c95c	-0.007409258
61	0x3d9a89a3	0.07545783
62	0x3dc12736	0.09431307
63	0xbd935cf0	-0.07195461
64	0xbb70188e	-0.003663573
65	0x3bef9efa	0.0073126527
66	0x3d6a67a4	0.057227746
67	0x3ce121ae	0.02748188
68	0xbd7946a8	-0.0608584
69	0x3bb98b67	0.00566237
70	0x3d093559	0.033498142
71	0x3d89ba3e	0.06724976
72	0x3d1a2110	0.037629187
73	0x3dadb7d0	0.08482325
74	0x3d7eb39d	0.06218301
75	0xbcf90eee	-0.030402627
76	0xbd314491	-0.04327828
77	0xbdb167fb	-0.08662411
78	0xbc76df0e	-0.015067829
79	0x3dc125a0	0.094310045
80	0xbc91b6e2	-0.0177874
81	0xbc32ddd2	-0.010917144
82	0xbda92813	-0.08259597
83	0xbce26864	-0.027637668
84	0xbd0b006d	-0.033935953
85	0x3cd0fee6	0.02551217
86	0xbd5fcc0a	-0.054637946
87	0x3db760a5	0.0895398
88	0x3dbf4f6a	0.09341319
89	0xbd9214c9	-0.07132871
90	0x3d248639	0.040167067
91	0xbc0a8779	-0.008455151
92	0x3c1e6d32	0.009669589
93	0x3da38cf6	0.079858705
94	0xbd5e0497	-0.054203596
95	0x3b9a0a18	0.0047009103
96	0x3c8f80ec	0.01751753
97	0xbda8505b	-0.082184516
98	0x3d695e73	0.05697484
99	0x3cafe389	0.021470802
100	0xbd836ca1	-0.06417204
101	0xbd4a67aa	-0.049415268
102	0x3d45a753	0.048255276
103	0xbd269e19	-0.040678117
104	0xbd0bbd7e	-0.03411626
105	0xbc6708c2	-0.014101209
106	0x3dada117	0.08477991
107	0xbbfef66c	-0.0077808406
108	0x3d91901b	0.07107564
109	0xbc8926b7	-0.016742093
110	0x3d251d04	0.040310875
111	0x3d7df83d	0.062004317
112	0x3c13eaed	0.009028179
113	0x3ceac43a	0.028658021
114	0x3d98a8ff	0.074541084
115	0xbda139dd	-0.07872365
116	0x3db11e8a	0.08648403
117	0x3bf00b6d	0.007325581
118	0x3d04161b	0.032247644
119	0xbd2c8c67	-0.042126086
120	0x3d7fa3d6	0.062412106
121	0xbdaaf951	-0.083483346
122	0x3d15c8fa	0.03656862
123	0x3d524f3d	0.0513451
124	0x3d912d92	0.0708877
125	0x3d38786a	0.04503671
126	0xbd8dd84c	-0.06926021
127	0x3ba83544	0.005133303
128	0x3d104829	0.035225067
129	0x3ce824df	0.028337894
130	0xbd9b50e5	-0.07583789
131	0xbd8a219d	-0.067446925
132	0xbd2ca1d5	-0.042146523
133	0x3d4f13db	0.050556045
134	0x3d3c38c4	0.045952573
135	0x3db71798	0.08940047
136	0x3d74235b	0.05960403
137	0x3bed2e81	0.0072382097
138	0x3d0b799b	0.03405152
139	0x3d804108	0.06262404
140	0xbcdb89a4	-0.02679903
141	0x3bf272be	0.0073989322
142	0xbd4af295	-0.04954775
143	0xbdb509d7	-0.088397674
144	0xbcef321c	-0.029198699
145	0x3d09130c	0.03346543
146	0x3d0255f2	0.031820245
147	0xbd0801ad	-0.033204723
148	0x3cf35221	0.029702248
149	0x3d252092	0.040314265
150	0x3cea3e0d	0.028594041
151	0x3d8b2bcf	0.06795465
152	0x3c2206a0	0.009889275
153	0xbcf77ad7	-0.030209942
154	0xbd0e06c6	-0.03467443
155	0xbd55d3f5	-0.05220409
156	0xbd969d13	-0.07354178
157	0xbc39aaba	-0.011332208
158	0x3d0cf815	0.034416277
159	0x3d6cded7	0.057829704
160	0xbb42a8eb	-0.0029702734
161	0x3da20e12	0.0791284
162	0x3d247562	0.040151007
163	0xbce4f87a	-0.027950514
164	0x3cff9aa7	0.031201674
165	0x3c81360a	0.015772838
166	0xbd346ef0	-0.04405111
167	0xbd5366fc	-0.051611885
168	0x3d4528d9	0.04813466
169	0x3d49246c	0.049107
170	0x3d988aa7	0.07448321
171	0x3cbccef0	0.023047894
172	0x3d6341bc	0.05548261
173	0x3c01a289	0.007912287
174	0x3da90eb0	0.082547545
175	0x3cffd518	0.03122954
176	0x3c20c686	0.009812957
177	0x3be65e6e	0.0070303
178	0xbd36333e	-0.044482462
179	0xbd5ed24f	-0.054399785
180	0x3d70553e	0.058675043
181	0x3b95acee	0.004567734
182	0x3d2b7366	0.0418581
183	0x3af5a501	0.0018741192
184	0xbd1421b7	-0.036164965
185	0xbca23f72	-0.019805644
186	0x3cacac9b	0.021078398
187	0x3db13230	0.08652151
188	0x3d359719	0.04433355
189	0x3c3d0f16	0.011539241
190	0xbd3687f7	-0.04456326
191	0x3c0e9dbc	0.008704599
192	0xbc8bd4d4	-0.017069258
193	0x3d56a9aa	0.052407898
194	0xbda4f86b	-0.080551945
195	0xbd3f5ff9	-0.046722386
196	0x3d378dda	0.044813015
197	0xbd652543	-0.05594374
198	0xbd486dbd	-0.04893278
199	0xbd11b41c	-0.035572156
200	0xbd010928	-0.031502873
201	0xbd9f2a29	-0.07771713
202	0x3c434683	0.011918667
203	0xbbbb2166	-0.0057107685
204	0x3d1933c7	0.037402894
205	0xbcffb1db	-0.031212738
206	0x3d901ee0	0.07037139
207	0xbd27cbf4	-0.04096599
208	0x3bd22d66	0.0064141033
209	0xbdb21362	-0.08695103
210	0xbd306b5b	-0.043071132
211	0xbc528c44	-0.012850825
212	0x3da07646	0.07835059
213	0xbd81ce0c	-0.063381284
214	0x3ce821a7	0.02833636
215	0xbd9ee9a5	-0.07759408
216	0xbd540b10	-0.051768363
217	0x3d8c7cdd	0.06859753
218	0xbd4f286c	-0.05057566
219	0xbd1f52e3	-0.038897406
220	0x3c9fe4c0	0.019518256
221	0xbb002c64	-0.001955771
222	0x3da1d110	0.07901204
223	0x3d3044cc	0.04303436
224	0xbd079b18	-0.033106893
225	0xbc54719d	-0.012966541
226	0x3d0bf4c2	0.034168966
227	0xbd986f7a	-0.074431375
228	0xbda3bf62	-0.07995488
229	0x3da06061	0.07830883
230	0x3da02836	0.0782017
231	0x3dbb36d0	0.09141314
232	0xbc0d87ba	-0.008638317
233	0xbd8b30e5	-0.06796435
234	0x3d70fd62	0.058835395
235	0x3d2879ad	0.041131664
236	0x3d9af51f	0.075662844
237	0xbc1269db	-0.008936371
238	0xbda33675	-0.07969371
239	0xbc2fbaab	-0.010725657
240	0xbd7cc38a	-0.061709918
241	0xbd9c8ce2	-0.07644059
242	0xbd5afdc3	-0.053464662
243	0xbd3e4220	-0.04644978
244	0x3db22cc0	0.08699942
245	0xbd8ab1f5	-0.06772224
246	0x3b348a42	0.0027548228
247	0xbdaf9090	-0.08572495
248	0xbcdfad13	-0.027304208
249	0xbc947eb4	-0.018126823
250	0x3d106002	0.03524781
251	0x3d3df3a6	0.04637494
252	0xbd780fb0	-0.060561836
253	0xbd19ba3d	-0.037531126
254	0x3af6c306	0.0018826432
255	0x3ca4fc44	0.02013982

val_conv1.bias f4 [2]
0	0x3d6d4e81	0.057936195
1	0x3db09852	0.08622803
