models/Training/AC_nmcts20/train_073.pth (torch, 424031 bytes, 15 tensors)

conv1.weight f4 [32, 5, 3, 3]
0.042900737 -0.20202167 -0.038634382 0.15565006 -0.24959958 -0.032033764 0.11378251 -0.15101612
0.027949965 0.017482398 -0.016687075 0.14780715 0.079243906 -0.17577876 0.14376949 -0.041176755
-0.019017069 0.113946326 -9.462536e-12 -2.1466647e-14 -6.0855977e-14 7.8350195e-14 -2.9130314e-13 7.670293e-11
8.917912e-11 1.9507292e-13 1.3042089e-14 0.11571818 0.007883807 -0.060424473 -0.12515597 -0.16988304
0.0025195256 0.035795163 -0.14506629 0.09545302 -8.918655e-14 -2.822824e-12 2.2494232e-13 -1.8576988e-13
-2.2210256e-10 -3.2368742e-13 -4.518706e-14 -3.8669182e-14 1.0336085e-10 -0.041787967 0.22011058 0.09645341
0.09598655 -0.037467282 -0.025660152 0.056396443 0.11794347 0.11283608 0.05808948 -0.16260725
-0.026495198 -0.052962363 0.02761707 0.028833093 -0.054739013 -0.04920739 0.08971539 9.804825e-12
-8.890458e-13 5.2206232e-14 -1.4690028e-07 3.646037e-14 5.719448e-14 -1.2595652e-07 -1.6725175e-13 -2.0875007e-12
-0.13191076 0.18197072 -0.08772922 -0.018630633 -0.18763961 -0.09413983 -0.123404 0.12105573
-0.021355672 -5.970867e-13 2.3575622e-05 1.5727739e-12 2.6664147e-13 -8.756236e-12 -2.1859873e-06 8.088988e-12
2.6613016e-08 -9.392917e-13 -0.10197898 0.06312912 0.10373738 0.088309094 0.015252504 0.16883607
-0.15276715 -0.18252265 0.005280184 -0.03129718 -0.060724527 -0.089425735 -0.011998006 -0.034413923
0.099840425 0.19236228 0.0002895444 0.09113395 -9.260024e-11 1.5161138e-11 -6.625553e-13 2.7581072e-14
-8.683843e-09 -1.8497214e-05 5.4202893e-13 2.9690145e-13 -3.337274e-14 0.068883546 -0.017025288 -0.14027908
-0.029647801 -0.049445156 0.09492117 0.05956216 -0.0304221 0.04643712 2.2955771e-11 2.8270617e-07
-1.9780184e-12 -1.7099755e-05 -2.912363e-16 -1.1537675e-05 8.802879e-09 1.3104987e-14 -2.2996923e-13 0.021149803
-0.11437253 -0.13485223 0.0306047 0.024634428 -0.04043195 0.1675404 0.2158197 0.15656762
0.06862347 0.022078512 -0.093933396 -0.04568016 -0.197954 -0.15432017 0.064742915 0.041002348
-0.15555303 -1.4016333e-10 -6.97465e-14 1.0045405e-11 1.0124018e-13 5.2207263e-11 -1.3387137e-11 8.2406635e-13
3.052844e-13 5.2353437e-09 0.024574587 0.12532786 0.032128725 -0.20266068 0.08589174 -0.010873915
0.06863927 0.07750454 -0.0063347635 1.1911341e-05 -8.160404e-12 9.0901835e-11 -2.9542835e-14 8.332877e-12
-1.9860406e-13 6.7191586e-14 4.5421857e-06 -5.2184663e-14 0.11493334 -0.06983033 0.11342408 0.035796303
-0.011851924 0.038987182 0.028694315 0.019066544 -0.15661024 0.13521253 -0.1615238 0.11105508
0.0666857 0.05327088 0.14067174 0.09904662 0.042762104 -0.14356044 1.3059628e-12 -9.1578234e-14
6.33586e-10 -2.4490788e-05 -1.5704875e-10 2.0265677e-14 4.614543e-09 -1.0444669e-11 -1.2563068e-14 0.12914209
-0.055788703 0.13876949 -0.004660725 0.036220744 0.18088809 0.113562405 0.035245683 -0.031170143
3.583999e-13 -6.457152e-13 -8.7347745e-14 1.4914112e-10 6.49086e-14 -1.06095024e-13 3.9607905e-12 -6.596815e-10
1.6369875e-05 0.07941789 0.14398117 0.1368767 0.15189524 -0.07212218 -0.07276665 0.11326313
0.15849777 -0.10453595 0.09636416 0.13128863 0.068103716 0.029358445 -0.11565639 -0.09518487
0.05134962 -0.115930624 -0.01959935 -7.138261e-07 -5.263201e-13 6.4820167e-09 1.2053145e-14 -1.5216482e-07
1.7298492e-11 -8.2570593e-13 -6.771987e-10 1.1550795e-11 0.014642103 0.0847691 0.041730165 0.059232824
00000000: afb8 2f3d c5de 4ebe 163f 1ebd bb62 1f3e
00000010: 0897 7fbe d635 03bd ce06 e93d f8a3 1abe
00000020: 53f7 e43c 3f37 8f3c 55b3 88bc c25a 173e
00000030: a14a a23d 59ff 33be 4f38 133e f5a8 28bd
00000040: afc9 9bbc b15c e93d 7977 26ad b85a c1a8
00000050: 1509 89a9 d06d b029 35fd a3aa e9ab a82e
00000060: 621b c42e f1a1 5b2a 05f2 6a28 a7fd ec3d
00000070: 152b 013c a77f 77bd e328 00be d2f5 2dbe
00000080: a01e 253b f39d 123d 428c 14be df7c c33d
00000090: 8cd4 c8a9 7aa3 46ac 3643 7d2a 8628 51aa
000000a0: 5034 74af 4638 b6aa 2281 4ba9 8826 2ea9
000000b0: fc4a e32e dc29 2bbd ab64 613e 5e89 c53d
000000c0: 9994 c43d 4b77 19bd 3d35 d2bc f5ff 663d
000000d0: 598c f13d 9a16 e73d 3cef 6d3d 8482 26be
000000e0: 750c d9bc 10ef 58bd 323d e23c 6133 ec3c
000000f0: 0436 60bd b08d 49bd b4bc b73d 027d 2c2d
00000100: 803e 7aab b01d 6b29 a4bb 1db4 f233 2429
00000110: 5fca 8029 aa3e 07b4 094f 3caa 12e5 12ac
00000120: 9d13 07be 8856 3a3e 61ab b3bd 459f 98bc
00000130: 9924 40be 62cc c0bd 3dbb fcbd 11ec f73d
00000140: 17f2 aebc a210 28ab 43c4 c537 2759 dd2b
00000150: 161b 962a 950a 1aad fab2 12b6 904d 0e2d
00000160: a49a e432 8d31 84ab 5bda d0bd d749 813d
00000170: 4374 d43d 66db b43d a3e5 793c 5de3 2c3e
00000180: fe6e 1cbe 38e7 3abe 6505 ad3b 7931 00bd
00000190: 48ba 78bd d724 b7bd 4993 44bc 9df5 0cbd
000001a0: 2379 cc3d 9efa 443e fecd 9739 70a4 ba3d
000001b0: 4da1 cbae d95b 852d 247e 3aab 9f6d f828
000001c0: f22f 15b2 772a 9bb7 4d91 182b 0224 a72a
000001d0: 264c 16a9 d112 8d3d 9e78 8bbc 52a5 0fbe
000001e0: f2df f2bc 0187 4abd 0866 c23d 74f7 733d
000001f0: c537 f9bc d934 3e3d cdeb c92d d7c6 9734
00000200: d030 0bac 7271 8fb7 e4e2 a7a5 f091 41b7
00000210: 793b 1732 1614 6c28 0f76 81aa 5a42 ad3c
00000220: 253c eabd b416 0abe b5b6 fa3c 24ce c93c
00000230: f99b 25bd b68f 2b3e d7ff 5c3e 4353 203e
00000240: 768a 8c3d ffdd b43c 2760 c0bd 1f1b 3bbd
00000250: 74b4 4abe 1b06 1ebe ef97 843d 14f2 273d
00000260: 4b49 1fbe 781c 1aaf 1f0e 9da9 7bb8 302d
00000270: fef8 e329 279c 652e 4e82 6bad 3df4 672b
00000280: 1edc ab2a 92e2 b331 a550 c93c f255 003e
00000290: 6999 033d 4886 4fbe 02e8 af3d 8128 32bc
000002a0: bf92 8c3d b3ba 9e3d d993 cfbb d2d6 4737
000002b0: 318f 0fad 2fe5 c72e 920c 05a9 f197 122d
000002c0: b99b 5faa 504d 9729 1469 9836 d204 6ba9
000002d0: 2c62 eb3d 3403 8fbd e24a e83d 259f 123d
000002e0: 922e 42bc 06b1 1f3d 5710 eb3c 7131 9c3c
000002f0: 6f5e 20be 2775 0a3e 7f66 25be d970 e33d
00000300: 8392 883d 9132 5a3d 410c 103e f4d8 ca3d
00000310: 5127 2f3d 8201 13be 45cc b72b 4237 cea9
00000320: a728 2e30 9171 cdb7 4bad 2caf 7889 b628
00000330: f38d 9e31 9bbe 37ad ed50 62a8 d33d 043e
00000340: b282 64bd 9719 0e3e ffb8 98bb 345c 143d
00000350: ba3a 393e 6893 e83d c75d 103d 8758 ffbc
00000360: dec2 c92a afc0 35ab 8cb0 c4a9 7efb 232f
00000370: 4329 9229 9ee7 eea9 a15b 8b2c f554 35b0
00000380: 0a52 8937 d9a5 a23d cd6f 133e 6829 0c3e
00000390: 6d8a 1b3e cbb4 93bd ae06 95bd 80f6 e73d
000003a0: 3d4d 223e f216 d6bd 935a c53d 8770 063e
000003b0: f679 8b3d 1f81 f03c 42dd ecbd 49f0 c2bd
000003c0: fb53 523d 096d edbd d18e a0bc c29d 3fb5
000003d0: 5c25 14ab 6cb8 de31 5221 5928 bf62 23b4
000003e0: be28 982d 626a 68ab 9f25 3ab0 2834 4b2d
000003f0: 6ee5 6f3c 6c9b ad3d 40ed 2a3d 1e9e 723d

conv1.bias f4 [32]
0.12128978 0.0006661158 -0.03393536 0.079183854 -0.07466447 -0.14092605 -0.029616738 0.10138236
0.06691449 -0.09802141 0.18456651 -0.042507913 0.17071739 0.14846903 -0.106998526 -0.029922668
-0.02275965 -0.062099937 -0.03399575 0.16933733 -0.0668642 0.07135063 0.0050358805 -0.07498556
-0.07828184 0.06875199 -0.11630958 0.16766931 0.12619713 -0.07628861 -0.10266702 0.115508236
00000000: c766 f83d 469e 2e3a ceff 0abd 252b a23d
00000010: b0e9 98bd eb4e 10be cd9e f2bc 8ea1 cf3d
00000020: 770a 893d 73bf c8bd 01ff 3c3e c71c 2ebd
00000030: 8ad0 2e3e 4408 183e 0b22 dbbd 6220 f5bc
00000040: 7272 babc 815c 7ebd 213f 0bbd c466 2d3e
00000050: 19f0 88bd 4720 923d 0704 a53b 0792 99bd
00000060: 3b52 a0bd d8cd 8c3d b833 eebd 81b1 2b3e
00000070: d239 013e 343d 9cbd 1643 d2bd 958f ec3d

conv2.weight f4 [64, 32, 3, 3]
-0.023672804 0.03241692 -0.008003726 0.033734273 -0.051554356 -0.053695403 -0.053456057 0.0132027315
-0.020167446 -0.046986073 -0.03608776 -0.038691614 0.026864324 0.030270021 0.03785966 0.024484407
0.020223897 0.06447299 -0.0561713 -0.04104277 -0.03897282 0.011564772 0.043829616 -0.003310238
0.0018555917 0.0048462497 -0.05315453 -0.07902093 -0.014322073 0.03204404 -0.0018851034 -0.0034303449
-0.00084896956 0.03260813 0.021387719 0.04752464 -0.0037251941 0.03498443 -0.0451522 0.019390298
0.054151583 -0.032312397 -0.002297807 -2.0853418e-05 -0.032436013 -0.05173923 -0.018088566 -0.009221493
-0.05237615 -0.03247525 0.000613977 -0.029976916 0.05998121 0.024400875 -0.014487132 -0.04665476
-0.06969092 -0.004884454 0.02685711 -0.004656544 0.02311452 -0.026661586 -0.035241116 0.018836265
-0.024690159 0.026604958 -0.041884974 0.087609164 0.0346684 0.046681568 -0.012158405 -0.004823558
-0.08250424 -0.013993836 0.0094877295 -0.06287633 0.050063744 -0.06425776 -0.036634948 0.034302235
0.045809366 -0.003432987 -0.05967376 -0.023056516 0.02874895 -0.07236033 -0.039862003 0.03820353
0.04163316 -0.012102272 -0.058529276 0.027456062 -0.06457868 -0.059137877 -0.059543446 -0.08498778
-0.04790269 -0.023420172 -0.021942355 0.0076483246 0.047866393 -0.02306764 -0.06855718 0.014091448
0.042375125 -0.025215989 0.026031159 -0.05592698 -0.093241066 -0.03207568 -0.073915906 0.003083124
0.06565969 -0.09358416 -0.048829637 -0.049401328 -0.001823141 -0.07099366 -0.053562447 0.034618866
-0.069874905 0.032263376 -0.0150305955 -0.045909457 0.0091104135 -0.012405971 -0.027090758 0.0013759601
-0.05918229 -0.06560899 -0.030465847 0.010496474 -0.0782979 -0.015734814 0.007898912 -0.04474905
-0.035972893 -0.030291736 -0.044012148 -0.014523512 -0.03378273 -0.02070548 -0.048903614 -0.062028505
0.05314708 -0.03416301 -0.07592776 -0.04288145 -0.058097925 -0.033444315 -0.010232345 0.008643479
-0.024227545 -0.04959916 0.025947098 0.0059774043 -0.06732395 -0.0051950207 0.06404995 0.0020227768
0.04492448 -0.062585466 -0.03398195 0.012846519 0.051042885 -0.0105793895 -0.05524716 0.006158292
0.049177006 -0.030862728 0.014884473 0.025280006 -0.07196923 -0.048868198 -0.01658426 0.047161724
-0.02665758 -0.008769227 -0.041258387 -0.09282964 -0.06515075 0.030583942 -0.004917903 -0.022581685
0.058318503 0.0018953008 0.001696626 0.0006743431 -0.030582003 -0.0053378125 0.012522026 -0.043456048
-0.01830759 0.063280955 -0.019660776 -0.01610054 -0.07912186 -0.071883194 0.04442117 -0.0095097935
-0.0125301145 -0.054876335 -0.032490067 -0.0066295583 -0.07378432 0.0076970253 -0.054354753 0.03968001
-0.029778447 -0.057815578 0.0218339 0.0027776333 -0.05045449 0.0127093885 0.05819209 0.08091943
0.017529335 -0.015676867 0.023802975 -0.0452556 0.023689505 -0.03544913 0.015715139 -0.02016628
-0.032726776 0.00887148 0.047408298 -0.007282642 -0.009888302 -0.03249558 -0.054540284 0.024200464
-0.00095435267 0.020513868 0.0043614856 0.03919013 -0.011806641 0.03985106 -0.023097036 0.0545004
0.041746616 -0.019138739 -0.017782208 -0.0037982485 -0.06331982 -0.022184638 0.010821896 -0.046443082
-0.0022447133 -0.056032438 -0.027549585 -0.044529885 -0.030323647 0.028263519 0.045239076 0.01854526
00000000: 78ed c1bc 9bc7 043d 0f22 03bc f32c 0a3d
00000010: a92a 53bd b6ef 5bbd bdf4 5abd 4550 583c
00000020: 3336 a5bc 7874 40bd c2d0 13bd 197b 1ebd
00000030: 9212 dc3c d6f8 f73c bb12 1b3d 8693 c83c
00000040: 96ac a53c 6a0a 843d e113 66bd 771c 28bd
00000050: f7a1 1fbd 2b7a 3d3c af86 333d 94f0 58bb
00000060: 5337 f33a 4acd 9e3b 90b8 59bd bad5 a1bd
00000070: 21a7 6abc 9c40 033d 9315 f7ba a3cf 60bb
00000080: 628d 5eba 1a90 053d 4c35 af3c 32a9 423d
00000090: 6322 74bb d54b 0f3d 83f1 38bd 67d8 9e3c
000000a0: 0dce 5d3d 015a 04bd ce96 16bb 60ee aeb7
000000b0: a0db 04bd 84ec 53bd 792e 94bc bf15 17bc
000000c0: 6088 56bd c504 05bd 4df3 203a 2692 f5bc
000000d0: dbae 753d 58e4 c73c 705b 6dbc 1019 3fbd
000000e0: 1dba 8ebd c50d a0bb 7103 dc3c ec95 98bb
000000f0: a95a bd3c 6669 dabc fd58 10bd 834e 9a3c
00000100: 0443 cabc a4f2 d93c 948f 2bbd 6f6c b33d
00000110: 7400 0e3d 2c35 3f3d 0c34 47bc f00e 9ebb
00000120: fcf7 a8bd 6746 65bc 6c72 1b3c 4ec5 80bd
00000130: a40f 4d3d 9399 83bd 870e 16bd 8080 0c3d
00000140: 9aa2 3b3d f7fb 60bb 796c 74bd 05e1 bcbc
00000150: eb82 eb3c a731 94bd 5746 23bd 4e7b 1c3d
00000160: 8887 2a3d 9c48 46bc 65bc 6fbd 89eb e03c
00000170: d441 84bd 8f3a 72bd d4e3 73bd 130e aebd
00000180: 9c35 44bd a9db bfbc 74c0 b3bc cc9e fa3b
00000190: 8d0f 443d 59f8 bcbc b567 8cbd d1df 663c
000001a0: 8a91 2d3d c391 cebc 4c3f d53c b013 65bd
000001b0: 2cf5 bebd ca61 03bd 3961 97bd 3d0e 4a3b
000001c0: 9678 863d 0da9 bfbd 9601 48bd 0c59 4abd
000001d0: 76f6 eeba 2065 91bd 4c64 5bbd 83cc 0d3d
000001e0: 931a 8fbd 9a26 043d e342 76bc 8e0b 3cbd
000001f0: d843 153c 6a42 4bbc 70ed ddbc 8f59 b43a
00000200: 2169 72bd 025e 86bd 8393 f9bc 67f9 2b3c
00000210: a65a a0bd 4ce6 80bc 706a 013c c84a 37bd
00000220: 5058 13bd 6026 f8bc 1546 34bd 06f4 6dbc
00000230: c35f 0abd 8a9e a9bc 284f 48bd 9a11 7ebd
00000240: c1b0 593d 83ee 0bbd 0380 9bbd 76a4 2fbd
00000250: 17f8 6dbd e8fc 08bd 91a5 27bc 619d 0d3c
00000260: d878 c6bc 7d28 4bbd 028f d43c 1ade c33b
00000270: 24e1 89bd fe3a aabb 9f2c 833d 9090 043b
00000280: bb02 383d cf2c 80bd a830 0bbd 357a 523c
00000290: 5812 513d 2d55 2dbc d94a 62bd 7fcb c93b
000002a0: d46d 493d d5d3 fcbc 01de 733c 0418 cf3c
000002b0: 9b64 93bd 052a 48bd b7db 87bc a72c 413d
000002c0: ff60 dabc ceac 0fbc 8efe 28bd 771d bebd
000002d0: c26d 85bd 2d8b fa3c 5c26 a1bb 3afd b8bc
000002e0: 62df 6e3d be6b f83a 5261 de3a 66c6 303a
000002f0: 1c87 fabc d1e8 aebb 2f29 4d3c f8fe 31bd
00000300: cdf9 95bc 7299 813d a30f a1bc 48e5 83bc
00000310: a40a a2bd 7f37 93bd f9f2 353d f7ce 1bbc
00000320: 1c4b 4dbc 02c6 60bd 4e14 05bd c43c d9bb
00000330: 3c1c 97bd 5437 fc3b 17a3 5ebd 8287 223d
00000340: eef1 f3bc 07d0 6cbd 02dd b23c f408 363b
00000350: 5ea9 4ebd 0a3b 503c d45a 6e3d 16b9 a53d
00000360: ae99 8f3c c66c 80bc 75fe c23c f05d 39bd
00000370: 7e10 c23c 1b33 11bd 09bd 803c c133 a5bc
00000380: 830c 06bd af59 113c 342f 423d 3ba3 eebb
00000390: 8b02 22bc 161a 05bd a265 5fbd 0d40 c63c
000003a0: 862d 7aba b30c a83c cbea 8e3b d485 203d
000003b0: a470 41bc dd3a 233d ff35 bdbc d03b 5f3d
000003c0: 80fe 2a3d d8c8 9cbc feab 91bc 09ec 78bb
000003d0: d2ad 81bd 8fbc b5bc 524e 313c 1a3b 3ebd
000003e0: 0a1c 13bb 4582 65bd abaf e1bc f864 36bd
000003f0: 4c69 f8bc e588 e73c 9c4c 393d 3bec 973c

conv2.bias f4 [64]
0.025512105 0.010749835 -0.06952046 -0.050846882 -0.015728937 0.07055466 0.060239896 0.021932948
-0.039186053 0.08276698 -0.049633168 -0.031991918 0.056715548 -0.049223658 -0.00737498 -0.0047351783
0.0723787 0.08324867 0.02305633 0.053257395 0.008029501 -0.023976266 0.07124207 0.034884565
0.026251081 0.09688707 -0.0062787347 0.054705724 -0.04075839 -0.02206844 0.072967306 0.067629755
-0.0017105683 -0.017240042 0.0074130557 0.08785736 0.027896184 -0.0289152 0.010128437 0.08371121
0.045531515 -0.013447085 -0.056084823 -0.020996181 -0.020451069 0.06090575 -0.041924257 0.08942643
0.046084344 -0.06077169 0.042894684 0.067156926 0.06511106 -0.033901244 0.03360347 0.06828844
-0.007982109 0.033700116 -0.030762544 -0.0117132915 0.018675625 -0.02561721 -0.050267614 -0.005658217
00000000: c3fe d03c 1320 303c be60 8ebd d244 50bd
00000010: f9d9 80bc f67e 903d 1cbe 763d baac b33c
00000020: 8e81 20bd bc81 a93d 264c 4bbd f509 03bd
00000030: 904e 683d bf9e 49bd d1a9 f1bb 8e29 9bbb
00000040: 493b 943d 477e aa3d a1e0 bc3c 6d24 5a3d
00000050: 2b8e 033c e069 c4bc 5de7 913d 1ee3 0e3d
00000060: 820c d73c ba6c c63d d8bd cdbb 1c13 603d
00000070: 45f2 26bd e0c8 b4bc e26f 953d 7881 8a3d
00000080: 2635 e0ba fd3a 8dbc 38e9 f23b 8fee b33d
00000090: 8a86 e43c 92df ecbc bef1 253c c870 ab3d
000000a0: 417f 3a3d 2a51 5cbc 33b9 65bd 2f00 acbc
000000b0: 0089 a7bc 4f78 793d c5b8 2bbd 3425 b73d
000000c0: f0c2 3c3d bceb 78bd 56b2 2f3d 9289 893d
000000d0: f358 853d 08dc 0abd cba3 093d cfda 8b3d
000000e0: 64c7 02bc 2209 0a3d bb01 fcbc 1be9 3fbc
000000f0: a0fd 983c 2fdb d1bc 6ae5 4dbd 9068 b9bb

conv3.weight f4 [128, 64, 3, 3]
0.022782164 0.04242258 -0.00043797624 -0.02176755 -0.020792196 -0.019989055 0.0019554044 -0.008499702
0.0055051954 0.010667031 0.010577596 0.025305402 -0.037505627 0.018017739 -0.001281269 -0.030021943
-0.0083710775 0.004547233 0.053737547 -0.024822038 -0.010423394 0.021986121 -0.0064574806 0.021257287
-0.045134023 -0.030685697 0.023476295 0.009330669 -0.0116261 0.082102425 -0.018284429 0.014447345
0.09366273 0.010915304 0.03859191 -0.047209714 0.012268546 -0.009113456 -0.039724786 -0.02585209
-0.047809746 -0.033546288 -0.03853224 -0.016877558 0.016636023 0.05024991 -0.018997945 -0.035856623
0.052255936 0.0051110936 -0.04686163 0.025392136 -0.044270817 -0.004459442 0.0110163605 -0.024145445
-0.016224535 -0.06466465 -0.039228275 -0.02140361 -0.011637264 -0.022100735 -0.011595035 0.004518807
-0.006306599 0.029230025 -0.019596897 0.022981375 -0.0072829807 0.018278861 -0.0047451877 -0.0017278282
0.008103341 0.016721142 -0.019185552 0.030435588 0.013478842 0.0005135186 0.036883518 -0.029312862
-0.01145076 -0.020026146 -0.03196271 -0.05834813 -0.040864218 -0.056584384 0.014914574 -0.03043887
0.0372002 -0.0097461315 0.051170476 0.031115744 -0.0075059873 0.01836683 0.021431576 -0.00596816
0.046602465 0.024443371 -0.031425297 -0.053962223 0.054288942 0.037542146 0.031677265 0.042410072
-0.0005510312 0.015623752 -0.048507817 0.06727947 -0.027129073 0.040340416 -0.02666082 -0.003035045
0.007306721 -0.03845757 -0.009649113 -0.0084427735 0.074561104 -0.004581387 -0.012538683 -0.015318199
0.0044560484 0.009871633 0.0026689898 0.027114373 0.006361981 -0.01063145 -0.055718403 0.022789635
-0.005079125 -0.06939169 -0.019206582 0.0141316345 0.015247131 0.009586917 0.026361218 0.008955537
0.011237623 -0.04250603 0.07325456 -0.059551157 -0.053194597 0.013167562 -0.010691602 -0.008046676
0.008018307 -0.011119144 -0.062285427 0.016863123 -0.015030197 -0.05644421 0.0065872106 -0.0068709585
0.017520573 -0.0046379003 0.031044532 0.001583608 0.025123948 0.041401856 -0.00663953 -0.000981643
0.004023216 0.027616315 0.011614555 -0.037576653 0.029691137 -0.035426255 -0.0010717917 0.042668957
-0.0587559 0.023359787 0.029757043 0.0029188835 0.05237564 0.09192512 -0.008029449 -0.036042567
-0.008785396 0.04146601 0.014866289 0.0045024436 -0.0066449055 0.040430456 0.007458109 -0.030865952
-0.022218293 -0.019101184 -0.015350263 0.023022845 0.059174728 -0.030998496 0.03456831 0.039024394
-0.054897208 0.033369593 0.0038634823 -0.058696993 -0.043205187 -0.04206364 0.0073356195 0.018666357
-0.09296034 -0.02082812 -0.04556304 -0.08360711 0.013400886 -0.050818723 0.06369248 0.0076435464
-0.03238363 0.050914876 -0.05624544 0.022460582 -0.003987598 -0.08746342 0.01713918 0.0774894
0.012921911 0.0035234701 0.008919275 0.036762014 -0.018692505 -0.00542897 -0.0035871223 -0.020015988
-0.021121766 -0.037535906 0.04776087 0.02866886 0.010784184 0.01592325 -0.05025271 0.0037612724
0.008712735 0.041252796 0.019734584 -0.016849125 -0.034851428 0.0048208637 -0.029206928 -0.021286426
0.025368944 -0.058299303 0.026917133 0.00980125 -0.002121866 -0.026353156 -0.016571263 0.011195172
-0.01422381 -0.01215643 -0.00928842 -0.007532636 -0.037285488 0.01199865 0.017133817 0.037932128
00000000: a9a1 ba3c 4dc3 2d3d 2da0 e5b9 dc51 b2bc
00000010: 6554 aabc 16c0 a3bc 3e26 003b 5642 0bbc
00000020: ed64 b43b c5c4 2e3c a74d 2d3c 464d cf3c
00000030: 809f 19bd f099 933c 41f0 a7ba 94f0 f5bc
00000040: d826 09bc f500 953b e71b 5c3d 9657 cbbc
00000050: e2c6 2abc 3d1c b43c 4699 d3bb c323 ae3c
00000060: 74de 38bd 9260 fbbc 5c51 c03c aadf 183c
00000070: 667b 3ebc 5125 a83d 3ac9 95bc 8fb4 6c3c
00000080: 3fd2 bf3d 1ad6 323c 8d12 1e3d f95e 41bd
00000090: 0302 493c 9b50 15bc 75b6 22bd c3c7 d3bc
000000a0: 27d4 43bd d567 09bd fbd3 1dbd ce42 8abc
000000b0: 4548 883c dad2 4d3d 94a1 9bbc 65de 12bd
000000c0: 520a 563d f67a a73b fbf1 3fbd 2b03 d03c
000000d0: 5155 35bd 8320 92bb f77d 343c abcc c5bc
000000e0: 51e9 84bc e66e 84bd d4ad 20bd a056 afbc
000000f0: 39aa 3ebc 9a0c b5bc 1af9 3dbc 8012 943b
00000100: 96a7 cebb ce73 ef3c ac89 a0bc 7043 bc3c
00000110: 12a6 eebb 8dbd 953c 857d 9bbb 4b78 e2ba
00000120: e0c3 043c c7fa 883c 052b 9dbc 0e54 f93c
00000130: 5cd6 5c3c a69d 063a 2c13 173d 8721 f0bc
00000140: f89b 3bbc df0d a4bc 55eb 02bd 73fe 6ebd
00000150: 3d61 27bd 07c5 67bd 425c 743c f05a f9bc
00000160: 3d5f 183d 3dae 1fbc 2298 513d 72e6 fe3c
00000170: c9f4 f5bb 0976 963c 4691 af3c 8e90 c3bb
00000180: 3ae2 3e3d 773d c83c d0b7 00bd 7e07 5dbd
00000190: 155e 5e3d cbc5 193d 05c0 013d 2fb6 2d3d
000001a0: 1473 10ba c4fa 7f3c 22b0 46bd d2c9 893d
000001b0: ca3d debc fe3b 253d cb67 dabc 9be7 46bb
000001c0: 386d ef3b af85 1dbd 5017 1ebc 8f53 0abc
000001d0: 7eb3 983d 761f 96bb 0c6f 4dbc 2ff9 7abc
000001e0: 0b04 923b a1bc 213c 38ea 2e3b f61e de3c
000001f0: 2a78 d03b 892f 2ebc fb38 64bd 54b1 ba3c
00000200: ca6e a6bb 3b1d 8ebd 1f57 9dbc 5f88 673c
00000210: 1acf 793c 7212 1d3c 7bf3 d73c 3fba 123c
00000220: 021e 383c ce1a 2ebd 7d06 963d eaeb 73bd
00000230: 94e2 59bd c2bc 573c d42b 2fbc 35d6 03bc
00000240: 385f 033c 122d 36bc 011f 7fbd 8824 8a3c
00000250: 3741 76bc 0b32 67bd 87d9 d73b c725 e1bb
00000260: 4e87 8f3c 87f9 97bb 1a51 fe3c 1191 cf3a
00000270: bdd0 cd3c fe94 293d 6a90 d9bb 79aa 80ba
00000280: 2fd5 833b 9c3b e23c f94a 3e3c fae9 19bd
00000290: d43a f33c 1f1b 11bd 5d7b 8cba a5c5 2e3d
000002a0: 07aa 70bd 065d bf3c 0bc5 f33c bd4a 3f3b
000002b0: d787 563d 3d43 bc3d f38d 03bc 5fa1 13bd
000002c0: 9ff0 0fbc 43d8 293d bc91 733c 3c89 933b
000002d0: 82bd d9bb 689a 253d 2763 f43b 98da fcbc
000002e0: 2303 b6bc 167a 9cbc ab7f 7bbc 689a bc3c
000002f0: 3361 723d 8ff0 fdbc 8097 0d3d 0bd8 1f3d
00000300: e5db 60bd 8eae 083d 7a32 7d3b 426c 70bd
00000310: ecf7 30bd ec4a 2cbd a35f f03b 30ea 983c
00000320: fe61 bebd bc9f aabc 4fa0 3abd 343a abbd
00000330: 648f 5b3c 4b27 50bd 3471 823d b776 fa3b
00000340: b2a4 04bd 1e8c 503d 9e61 66bd 41ff b73c
00000350: 65aa 82bb 0620 b3bd 7767 8c3c c3b2 9e3d
00000360: 6cb6 533c 05ea 663b 2722 123c c493 163d
00000370: 0621 99bc 80e5 b1bb ed15 6bbb 92f8 a3bc
00000380: 8e07 adbc 40bf 19bd e7a0 433d f5da ea3c
00000390: 25b0 303c 7a71 823c c9d5 4dbd ae7f 763b
000003a0: dcbf 0e3c b1f8 283d 6caa a13c 2d07 8abc
000003b0: 5fc0 0ebd 56f8 9d3b 5e43 efbc df60 aebc
000003c0: 88d2 cf3c 40cb 6ebd 5281 dc3c 6c95 203c
000003d0: 010f 0bbb 93e2 d7bc 75c0 87bc f46b 373c
000003e0: fc0a 69bc c32b 47bc 752e 18bc 55d4 f6bb
000003f0: abb8 18bd fc95 443c 385c 8c3c b85e 1b3d

conv3.bias f4 [128]
-0.01360478 -0.024174655 -0.025612956 0.05199087 -0.025888184 0.009061115 -0.017574277 0.043732684
-0.020237148 0.013821858 -0.01845784 -0.0070099994 0.039596114 -0.0146875065 0.012711754 0.02435985
0.055051904 0.03939274 0.024563253 0.009348162 0.03855522 0.026669394 0.054011133 0.03078979
-0.019092785 0.017008472 0.04787069 0.0006719242 0.0062941522 -0.041756332 -0.048237782 0.015839372
-0.029397866 0.039162856 0.010654129 -0.03646986 0.051024593 -0.03368962 0.007434068 0.0026969658
0.039697606 -0.01223063 0.0109765725 -0.025730351 0.026046565 0.07355834 0.0076290756 0.009093915
0.021714365 0.0054091276 -0.017244665 0.01001437 -0.03465792 0.06194791 -0.002938145 0.025884554
-0.00060519023 0.04862939 -0.014240824 0.029806906 0.044303127 0.03136388 0.0045000818 -0.00547774
-0.02244625 0.042682905 0.042178538 0.027687544 0.023942633 0.012339101 0.0020513579 0.021184783
-0.0119587695 0.0043345746 0.029129086 0.06104272 0.040970962 0.05162837 0.023059856 0.024998367
-0.033322334 0.032457996 0.0010834461 -0.027382568 0.012224266 -2.8348579e-05 0.04604438 -0.0026454949
0.010698459 0.027497288 -0.025197482 0.076731145 -0.0061897873 0.023886507 -0.015375708 -0.0009686805
0.007164559 0.028209893 -0.01880081 0.035624392 0.035646223 0.04754762 -0.012487646 -0.012369437
0.04225463 0.053243253 0.011101073 0.04524775 -0.03902824 0.012125751 0.0063085514 0.00887778
-0.018185029 -0.003268087 0.043196168 0.047995627 0.0216373 -0.007653932 -0.013620094 0.024042228
-0.022610735 0.008989644 -0.011605691 0.009388079 -0.016622249 -0.021011142 -0.018183604 0.061158765
00000000: 95e6 5ebc ed09 c6bc 43d2 d1bc 61f4 543d
00000010: 7513 d4bc 1275 143c eef7 8fbc 0b21 333d
00000020: 60c8 a5bc 1375 623c e534 97bc 23b4 e5bb
00000030: 892f 223d dea3 70bc f644 503c 4f8e c73c
00000040: 1b7e 613d 485a 213d e038 c93c 0929 193c
00000050: 14ec 1d3d c679 da3c c73a 5d3d df3a fc3c
00000060: 7968 9cbc 5a55 8b3c 0e14 443d 1224 303a
00000070: 2d3f ce3b b008 2bbd fb94 45bd 92c1 813c
00000080: cbd3 f0bc 3b69 203d a88e 2e3c 6b61 15bd
00000090: 2aff 503d 21fe 09bd 7b99 f33b 94bf 303b
000000a0: f599 223d fb62 48bc 15d7 333c 75c8 d2bc
000000b0: 9b5f d53c c1a5 963d 53fd f93b a5fe 143c
000000c0: 53e2 b13c 0d3f b13b af44 8dbc 5013 243c
000000d0: 77f5 0dbd 17bd 7d3d e58d 40bb d80b d43c
000000e0: a1a5 1eba 9c2f 473d 5852 69bc 9d2d f43c
000000f0: 3277 353d 6977 003d 6c75 933b 9d7e b3bb
00000100: 33e1 b7bc 45d4 2e3d 67c3 2c3d fdd0 e23c
00000110: 5723 c43c f129 4a3c 1370 063b b68b ad3c
00000120: b7ee 43bc 0c09 8e3b 1fa0 ee3c ee07 7a3d
00000130: 2bd1 273d 4578 533d 06e8 bc3c 60c9 cc3c
00000140: 007d 08bd adf2 043d 6b02 8e3a 6851 e0bc
00000150: 4a48 483c 1cce edb7 0899 3c3d 0a60 2dbb
00000160: 9748 2f3c fe41 e13c f36a cebc 3825 9d3d
00000170: b3d3 cabb a3ad c33c 65ea 7bbc 0cef 7dba
00000180: adc4 ea3b 6f18 e73c 2804 9abc e2ea 113d
00000190: c601 123d 4bc1 423d fc98 4cbc 2ea9 4abc
000001a0: 3113 2d3d 9915 5a3d 46e1 353c b455 393d
000001b0: 13dc 1fbd 16ab 463c f7b7 ce3b 1c74 113c
000001c0: c5f8 94bc 672d 56bb 77ee 303d 1097 443d
000001d0: b540 b13c d6cd fabb d126 5fbc 35f4 c43c
000001e0: 263a b9bc 4d49 133c cc25 3ebc 75d0 193c
000001f0: 622b 88bc 8f1f acbc c8f5 94bc 9d81 7a3d

act_conv1.weight f4 [4, 128, 1, 1]
0.005713658 -1.6232015e-13 0.004608612 -0.119077325 0.010834077 -6.0808085e-05 0.049394064 0.015417643
0.069205634 -0.103892654 -0.010705579 0.01794293 -0.12961084 0.010586615 0.029564096 -0.04719329
0.0068878736 -0.060930815 0.027942535 0.00863735 -0.02069273 0.02388005 -0.093418345 0.005974447
0.016163003 0.035465285 -0.013312599 -0.039108697 -0.0010028741 -0.041710705 -0.022795146 0.035877585
1.9234844e-13 -0.0016109744 -0.026195355 0.049959917 -0.06751884 -0.01611666 -0.0012575387 -8.8478344e-05
-0.040896896 -0.011024109 -0.038017917 -0.054701272 -0.007594386 -0.0813266 -0.008121814 -0.0806431
-0.0024008565 -0.031386536 0.03017506 0.026478108 -0.01032936 -0.03701237 -0.06310163 0.05841537
2.5977836e-14 -0.1068461 -0.0700625 -0.01765471 -0.078806914 0.028364677 0.032332525 -3.82321e-12
0.059917808 -0.049106896 0.040961113 -0.024457192 -0.05171422 -0.004953624 0.03821347 0.007769488
-0.035596572 0.072361425 0.0494627 -0.059718758 -0.006663263 -0.0050684265 -0.06304677 -0.023442037
0.0068714423 0.03365488 -0.002706877 6.079362e-13 -0.028410641 7.572349e-13 -0.1058404 0.07270301
0.042789556 -0.0054300963 0.01084431 -0.08235707 0.016683742 0.056022402 -0.029143684 0.049304824
-0.041276 0.049082886 -0.0350796 0.054855518 -0.008131565 0.022944942 -0.0070909425 -0.07901558
-0.008574993 0.0017201392 -0.0054224594 -0.08933702 0.02370116 0.061910465 -0.029976455 -0.0016329956
-2.2413569e-13 0.0024032074 -0.02875777 -0.024700578 -0.042124163 0.040351756 0.028325045 -0.012662342
0.07228006 -0.029113594 -0.020497523 -0.095108114 1.122458e-12 0.04042148 -2.0469658e-13 -0.012174658
-0.006999391 0.030917801 -0.05595962 0.04326142 0.10284499 -0.09459592 -0.061503597 0.10139859
0.06731067 -0.09407164 0.009130253 -0.14144747 0.02345593 0.025249926 0.1176492 0.12246687
-0.17269157 -0.04240516 0.009492834 0.013802002 0.046349768 -0.064691514 0.03531909 -0.02307993
0.05181899 -0.0031040516 -0.0018989964 0.13383427 0.076410934 -0.12195121 -0.006150567 -0.06937556
-0.049542926 0.07123095 0.027590694 0.005150881 0.14024986 0.13269141 0.0134873735 -0.02072366
0.033978432 -0.0011704855 -0.025535887 0.08842506 -0.09298939 0.046469763 -0.04269727 0.0025142613
-0.13290685 -0.032929875 0.0057068653 -0.0070686145 -0.14978163 0.12687977 0.03010127 -0.05001821
-2.6236815e-11 0.09046859 0.0067150416 0.080980204 0.10187304 0.011413445 -0.028054472 -2.3465155e-13
0.0055761267 0.099642396 0.095236205 0.07913342 0.07501191 -0.02885371 -0.046004403 0.10189383
0.12204574 0.088645875 0.0883272 -0.120927095 -0.0022023688 0.017561188 0.10867287 0.14880489
-0.056345873 0.004349279 -0.027960405 -0.010948038 0.083231814 3.498896e-12 0.10431403 -0.08211059
0.090306185 0.0048555313 0.0059038927 0.06763939 -0.042587355 -0.078673005 0.062651284 0.08270042
0.09967857 0.015453054 -0.048631214 0.028938482 0.12077971 0.06240797 -0.11439875 0.14456952
0.09345374 -0.022346599 -0.017028453 0.17977872 -0.0889276 -0.004808032 0.10259474 -0.028680893
-0.00017326398 0.055379026 0.19196072 -0.1481485 0.036535315 -0.086302705 9.67845e-06 0.0860689
-0.04045915 0.044458754 0.11963599 0.042938385 0.00014024285 0.022485511 0.00017620379 0.067702174
00000000: a339 bb3b 99c1 36aa d703 973b d0de f3bd
00000010: 6a81 313c 2f0c 7fb8 6e51 4a3d 489a 7c3c
00000020: afbb 8d3d acc5 d4bd 7466 2fbc 0dfd 923c
00000030: b4b8 04be 7b73 2d3c 6730 f23c c04d 41bd
00000040: acb3 e13b 9792 79bd bee7 e43c ac83 0d3c
00000050: cd83 a9bc 18a0 c33c 1e52 bfbd 4bc5 c33b
00000060: 4668 843c 0c44 113d 161d 5abc 7130 20bd
00000070: df72 83ba d8d8 2abd e3bc babc 60f4 123d
00000080: aa90 582a 5527 d3ba a497 d6bc c5a2 4c3d
00000090: 5147 8abd 1607 84bc ffd3 a4ba 738d b9b8
000000a0: 8183 27bd 779e 34bc adb8 1bbd 710e 60bd
000000b0: 54da f8bb 8f8e a6bd 5b11 05bc 3628 a5bd
000000c0: b057 1dbb 2b8f 00bd b031 f73c 9ee8 d83c
000000d0: 7a3c 29bc 489a 17bd 6d3b 81bd f444 6f3d
000000e0: d0fc e928 21d2 dabd ee7c 8fbd 9ca0 90bc
000000f0: 8565 a1bd 0a5d e83c 1c6f 043d 6a84 86ac
00000100: 606c 753d 5024 49bd d7c6 273d 735a c8bc
00000110: 4ad2 53bd 0352 a2bb ba85 1c3d 3097 fe3b
00000120: b6cd 11bd 3a32 943d 6699 4a3d a89b 74bd
00000130: 8057 dabb 0b15 a6bb aa1e 81bd 8409 c0bc
00000140: d629 e13b b3d9 093d dc65 31bb 6b1e 2b2b
00000150: 6fbd e8bc 8624 552b dac2 d8bd 51e5 943d
00000160: 1a44 2f3d f3ee b1bb 55ac 313c d3aa a8bd
00000170: 58ac 883c bf77 653d bcbe eebc dbf3 493d
00000180: 0611 29bd 230b 493d a0af 0fbd 2eb0 603d
00000190: 413a 05bc 08f7 bb3c 235b e8bb ecd2 a1bd
000001a0: 217e 0cbc 4b76 e13a e3ae b1bb 54f6 b6bd
000001b0: ef28 c23c d495 7d3d 2f91 f5bc 3d0a d6ba
000001c0: b75a 7caa 217f 1d3b 6a95 ebbc de58 cabc
000001d0: 638a 2cbd e247 253d ed09 e83c b675 4fbc
000001e0: 9107 943d a27f eebc 6cea a7bc 0bc8 c2bd
000001f0: d0f8 9d2b fe90 253d c677 66aa 3778 47bc
00000200: 265b e5bb 5447 fd3c ea35 65bd e332 313d
00000210: 65a0 d23d 81bb c1bd 32eb 7bbd 10aa cf3d
00000220: 2dda 893d a2a8 c0bd 0f97 153c 9bd7 10be
00000230: a726 c03c efd8 ce3c 10f2 f03d e9cf fa3d
00000240: 0fd6 30be 08b1 2dbd d587 1b3c cb21 623c
00000250: 41d9 3d3d fc7c 84bd c0aa 103d 1f12 bdbc
00000260: 2640 543d 586d 4bbb bfe7 f8ba da0b 093e
00000270: 567d 9c3d 8ec1 f9bd b28a c9bb c614 8ebd
00000280: 86ed 4abd 88e1 913d e105 e23c b9c8 a83b
00000290: a99d 0f3e 42e0 073e 25fa 5c3c aac4 a9bc
000002a0: f82c 0b3d fa6a 99ba a330 d1bc 3318 b53d
000002b0: 3971 bebd 1457 3e3d 55e3 2ebd 4ec6 243b
000002c0: bc18 08be 7ae1 06bd a800 bb3b d69f e7bb
000002d0: 5b60 19be c5ec 013e f096 f63c e5df 4cbd
000002e0: 0ec8 e6ad 9947 b93d da09 dc3b f3d8 a53d
000002f0: d0a2 d03d 75ff 3a3c 7ed2 e5bc da18 84aa
00000300: f1b7 b63b 5011 cc3d 330b c33d b410 a23d
00000310: d89f 993d 9e5e ecbc 1d6f 3cbd b6ad d03d
00000320: 1ef3 f93d f88b b53d e4e4 b43d a0a8 f7bd
00000330: 9e55 10bb 7bdc 8f3c e28f de3d 4f60 183e
00000340: eeca 66bd 6684 8e3b 380d e5bc 665f 33bc
00000350: 7175 aa3d 8236 762c 98a2 d53d 9929 a8bd
00000360: 73f2 b83d 261b 9f3b 7175 c13b 8586 8a3d
00000370: 1470 2ebd 501f a1bd 514f 803d d65e a93d
00000380: 4724 cc3d ce2e 7d3c 8631 47bd 6510 ed3c
00000390: 5a5b f73d 809f 7f3d e449 eabd 080a 143e
000003a0: ad64 bf3d 3710 b7bc 417f 8bbc ea17 383e
000003b0: ac1f b6bd b28c 9dbb 311d d23d 31f4 eabc
000003c0: 32ae 35b9 1ed5 623d 5a91 443e 3eb4 17be
000003d0: 0ea6 153d 79bf b0bd a060 2237 e444 b03d
000003e0: 7eb8 25bd 621a 363d b703 f53d 29e0 2f3d
000003f0: 270e 1339 8933 b83c 58c3 3839 70a7 8a3d

act_conv1.bias f4 [4]
-0.018857067 0.06192493 0.0766428 -0.07031427
00000000: 237a 9abc ffa4 7d3d e6f6 9c3d ee00 90bd

act_fc1.weight f4 [36, 144]
-0.032797858 -0.050424132 -0.07364286 -0.023990152 -0.035657655 -0.067399755 -0.031187586 -0.061567616
-0.061044596 -0.10143619 -0.0343603 -0.10521923 -0.11414102 -0.08188851 -0.09142134 -0.046943832
-0.044593822 -0.014196486 -0.033749733 -0.03948189 -0.022623243 -0.03242157 0.008602039 -0.021622507
0.0028041194 -0.02286773 -0.07714627 -0.023597535 0.02074055 0.009845608 -0.016239546 -0.035619814
-0.0086993575 -0.01789839 -0.027820213 -0.047289204 0.045476425 0.078370355 -0.0015013085 0.047466483
0.10514855 0.054427154 -0.022232952 -0.01499611 -0.061660662 0.09718578 0.0032677872 0.008675804
0.016409803 0.047498744 -0.042288467 -0.019059034 -0.08435005 0.02277462 -0.0113908 -0.11065653
0.023955952 0.06349116 0.0036185444 0.023846691 -0.052599702 0.06575406 -0.026499942 -0.03573169
-0.025828624 -0.022739306 0.013992329 -0.045522142 0.03189992 -0.020014891 -0.17224404 0.009743878
-0.05179254 -0.039058242 -0.07655069 -0.067311406 0.06102966 -0.011252587 -0.059022367 -0.1338752
-0.10412878 -0.03008248 -0.024396963 -0.012204745 -0.14201294 -0.08961952 -0.026861085 -0.09225468
-0.061403643 -0.0970528 0.013875317 -0.11051732 -0.077452846 -0.036297265 -0.050291892 -0.07095171
-0.09737685 -0.008487347 -0.023303065 -0.1411432 -0.03776529 0.01873493 -0.0033730585 0.005846677
-0.09029357 -0.06401297 -0.09593154 -0.008417232 -0.038524076 -0.04641013 -0.026271727 -0.08427268
-0.10216794 0.017433535 0.031101126 -0.008694729 0.016870935 -0.06433325 -0.042503968 0.024005596
-0.021866 -0.036298312 -0.005941914 0.048046418 -0.022984976 -0.06767595 -0.0027323444 0.045280904
-0.001917218 -0.015288822 0.016074302 0.052642085 0.024484929 0.01958383 0.0305708 -0.03269342
-0.06728642 -5.3160456e-05 0.0668829 0.019158995 -0.028200533 0.03133491 0.0006751548 -0.023659514
-0.02942355 -0.017440733 0.021568703 -0.035537574 -0.028098913 -0.026158817 -0.023360448 -0.025008649
-0.013859562 -0.01576104 -0.022831317 -0.030290745 -0.012755289 -0.0091366405 -0.071973376 -0.024155322
0.0150477365 0.0018418783 -0.0453219 -0.018443093 0.020607458 -0.0050848355 -0.059631974 -0.05952959
0.01556576 -0.04085524 0.014895424 0.014613607 -0.007705684 -0.050341856 -0.01054122 0.018203402
0.020909099 -0.023919396 0.0024514461 -0.03630765 -0.46244684 -0.048554134 -0.19391729 0.1510506
0.1109115 0.23934571 -0.0919819 0.15486477 -0.18804003 -0.11094492 -0.12996326 0.03317191
-0.105308436 -0.0601059 -0.07559257 -0.12979381 -0.045467637 -0.08250593 -0.05517408 0.025114961
-0.06592526 -0.102632 -0.07943644 -0.048582956 -0.04161239 -0.17506489 -0.051527254 -0.0141694
-0.029871037 -0.12437646 -0.009984113 -0.024469748 -0.17889257 -0.023164919 -0.10256854 -0.034261152
0.1740495 0.22544308 0.08069074 0.08302636 0.11943307 0.18978864 -0.0421319 -0.021357005
0.06445884 0.1247989 0.06882951 0.024878168 0.056273233 0.04335559 -0.007867985 0.026323196
0.008999863 -0.025057836 0.048064005 0.060930442 -0.026786523 -0.024317766 0.029005464 -0.033507787
0.083865196 0.059105102 0.013146157 0.06408355 0.011228293 -0.022060169 0.056870136 -0.011680404
-0.056763344 -0.018053655 0.06858048 -0.060256008 0.005858851 -0.045793965 -0.024799246 -0.05819597
00000000: 0c57 06bd 8989 4ebd 11d2 96bd ff86 c4bc
00000010: c30d 12bd e208 8abd 1c7d ffbc 532e 7cbd
00000020: e609 7abd c7bd cfbd 63bd 0cbd 2e7d d7bd
00000030: c4c2 e9bd 2ab5 a7bd 1d3b bbbd 2d48 40bd
00000040: 03a8 36bd 6198 68bc 293d 0abd c3b7 21bd
00000050: 6154 b9bc 7bcc 04bd 91ef 0c3c af21 b1bc
00000060: 51c5 373b 1b55 bbbc ddfe 9dbd 9e4f c1bc
00000070: 16e8 a93c 794f 213c cc08 85bc 15e6 11bd
00000080: c087 0ebc a59f 92bc 37e7 e3bc 53b2 41bd
00000090: 7d45 3a3d a380 a03d 8ec7 c4ba 376c 423d
000000a0: 1f58 d73d 02ef 5e3d e121 b6bc 3fb2 75bc
000000b0: e48f 7cbd 5709 c73d 5f28 563b f624 0e3c
000000c0: da6d 863c 0b8e 423d ac36 2dbd b121 9cbc
000000d0: b8bf acbd d791 ba3c 7aa0 3abc e49f e2bd
000000e0: 463f c43c a707 823d 1a25 6d3b 235a c33c
000000f0: c972 57bd 11aa 863d 6816 d9bc 645b 12bd
00000100: 8d96 d3bc c847 babc 1540 653c 6d75 3abd
00000110: 7ea9 023d 45f6 a3bc be60 30be c9a4 1f3c
00000120: 6a24 54bd 89fb 1fbd 9cc6 9cbd 90da 89bd
00000130: 3dfa 793d c55c 38bc 70c1 71bd 9516 09be
00000140: 7841 d5bd 886f f6bc 24dc c7bc 69f6 47bc
00000150: d76b 11be 708a b7bd c70b dcbc 06f0 bcbd
00000160: 6382 7bbd 9ec3 c6bd 4c55 633c e856 e2bd
00000170: 999f 9ebd 71ac 14bd dffe 4dbd 214f 91bd
00000180: 846d c7bd 830e 0bbc 12e6 bebc d887 10be
00000190: c7af 1abd ff79 993c 880e 5dbb 7b95 bf3b
000001a0: d6eb b8bd 3b19 83bd c177 c4bd 6ee8 09bc
000001b0: 6ccb 1dbd 8c18 3ebd ce37 d7bc 2897 acbd
000001c0: 6d3d d1bd c6d0 8e3c cac7 fe3c 5674 0ebc
000001d0: ea34 8a3c 27c1 83bd a418 2ebd 62a7 c43c
000001e0: 5320 b3bc 8aad 14bd 63b4 c2bb 52cc 443d
000001f0: fd4a bcbc b099 8abd 2211 33bb 7878 393d
00000200: 294b fbba f87d 7abc 41ae 833c 3a9f 573d
00000210: 9e94 c83c 456e a03c 9d6f fa3c 89e9 05bd
00000220: 76cd 89bd 9bf8 5eb8 e7f9 883d 53f3 9c3c
00000230: ce04 e7bc 0959 003d dffc 303a 99d1 c1bc
00000240: a809 f1bc dedf 8ebc d9b0 b03c d98f 11bd
00000250: b12f e6bc 044b d6bc 695e bfbc f0de ccbc
00000260: 3713 63bc 4c1d 81bc be08 bbbc 4c24 f8bc
00000270: 8ffb 50bc d9b1 15bc c766 93bd 62e1 c5bc
00000280: c88a 763c 2e6b f13a 75a3 39bd f815 97bc
00000290: f9d0 a83c b19e a6bb a840 74bd 4dd5 73bd
000002a0: 8807 7f3c d357 27bd f00b 743c e96d 6f3c
000002b0: f67f fcbb 4333 4ebd 15b5 2cbc 4d1f 953c
000002c0: 8f49 ab3c 9cf2 c3bc 71a8 203b 55b7 14bd
000002d0: d5c5 ecbe b3e0 46bd 4192 46be 02ad 1a3e
000002e0: 9225 e33d 0b17 753e 0261 bcbd df94 1e3e
000002f0: 918d 40be 1737 e3bd 1715 05be 45df 073d
00000300: f3ab d7bd 9b31 76bd 47d0 9abd abe8 04be
00000310: 463c 3abd def8 a8bd 37fe 61bd e4bd cd3c
00000320: d303 87bd ba30 d2bd 92af a2bd ecfe 46bd
00000330: c171 2abd 3644 33be 3e0e 53bd c526 68bc
00000340: 1bb4 f4bc 16b9 febd 6894 23bc c874 c8bc
00000350: 9d2f 37be 5bc4 bdbc 740f d2bd 6c55 0cbd
00000360: 083a 323e 8dda 663e 3041 a53d b909 aa3d
00000370: 5399 f43d f457 423e 8092 2cbd e3f4 aebc
00000380: ff02 843d 9196 ff3d 7cf6 8c3d 4dcd cb3c
00000390: c37e 663d a295 313d b9e8 00bc bea3 d73c
000003a0: 2974 133c 1746 cdbc c3de 443d 3392 793d
000003b0: 696f dbbc 0d36 c7bc de9c ed3c 763f 09bd
000003c0: 84c1 ab3d 3118 723d fb62 573c 3c3e 833d
000003d0: e0f6 373c 87b7 b4bc a9f0 683d 2a5f 3fbc
000003e0: ae80 68bd 42e5 93bc ec73 8c3d 01cf 76bd
000003f0: 9bfb bf3b 7492 3bbd ca27 cbbc e65e 6ebd

act_fc1.bias f4 [36]
-0.032211743 0.018420056 -0.032787737 -0.056883402 -0.010798318 -0.07841119 -0.108717404 -0.0076555004
0.04058529 -0.02658031 -0.017221928 0.038252816 0.0931201 0.033484012 0.010585132 -0.0072939275
0.018027646 0.04857777 0.029954845 0.021102412 -0.036727503 0.043084618 0.008544833 0.077512644
-0.025398536 -0.029798998 0.12741503 -0.0586619 0.043202445 -0.014878971 -0.10839478 0.01392815
0.010211081 -0.013436057 -0.010696735 0.05572071
00000000: 76f0 03bd a8e5 963c 6f4c 06bd 92fe 68bd
00000010: 6eeb 30bc 0c96 a0bd 3ba7 debd feda fabb
00000020: c33c 263d f3be d9bc 0015 8dbc fcae 1c3d
00000030: c0b5 be3d 8826 093d 436d 2d3c e601 efbb
00000040: b7ae 933c 7cf9 463d dd63 f53c f7de ac3c
00000050: 946f 16bd 7f79 303d a1ff 0b3c f3be 9e3d
00000060: 9710 d0bc 071d f4bc 1679 023e 7647 70bd
00000070: 0cf5 303d edc6 73bc 15fe ddbd e532 643c
00000080: 614c 273c e822 5cbc 5c41 2fbc 663b 643d

val_conv1.weight f4 [2, 128, 1, 1]
-0.0885568 -0.006672254 0.055478398 -0.089427486 0.056927267 -0.11843089 0.0656599 0.013436877
0.058671582 0.0013525339 0.037539754 -0.038506452 0.002400753 0.085949056 0.10230306 -0.09405897
0.06017323 -0.073743746 0.049935266 0.044723168 -0.07870876 0.022138797 0.006270611 0.06628038
0.04071305 0.025857572 -0.09721583 -0.0022039483 -0.08238204 0.068128005 0.03319441 0.04719593
-0.008577706 0.02647824 -0.04495839 -0.11364141 0.052486908 0.11077567 0.06811216 0.07399311
-0.09846733 -0.015142752 0.0132578565 0.025010189 -0.12814152 0.0021882867 -0.04111018 0.017796095
-0.13739407 -0.027026722 -0.028728815 0.016196487 0.006401979 0.0579391 0.036963064 0.08330562
-1.4284896e-13 0.013354558 0.06268568 0.06009912 -0.014155913 0.06453002 0.07458418 -0.0012265343
-0.015381342 -0.004765496 0.05521001 0.009034981 -0.11403384 0.0012777863 0.014060171 0.062682785
0.05666405 0.08512835 0.038467128 -0.061943263 -0.066846296 -0.15030217 -0.030228974 0.10169023
-0.065506294 -0.03413214 -0.17681806 -0.0026996296 -0.063702144 -2.4473638e-14 -0.10712597 0.11046602
0.09865232 -0.12041085 0.034725014 -0.019121746 -0.021952821 0.07110353 -0.07511502 -0.013121714
-0.003111705 -0.14074439 0.026333433 -0.0206548 -0.084731184 -0.08601355 0.011328632 -0.035044733
-0.048175603 -0.031266954 0.054316483 -0.0007718423 0.06227243 -0.033501666 0.05507071 0.044930212
-1.3464786e-11 0.043182 0.06239327 -0.1452305 0.07769428 0.0077585583 0.008516892 -0.071034476
0.032318685 -0.13630934 0.024796043 0.029667143 0.0005001507 0.02565938 -2.5086705e-05 -0.015026815
0.0049141534 0.022345249 -0.057636306 -0.06398806 -0.096121795 0.064359345 0.041805685 0.072597854
0.037799537 -0.0045274124 -0.0032960693 0.04667876 -0.024966048 -0.0057728835 -0.1103581 -0.093174264
-0.09299379 0.037793055 0.021713674 -0.044687744 0.038802788 0.02285451 0.020223452 0.052816875
-0.0024986463 -0.059294827 -0.00874675 -0.04595261 -0.03436992 -0.020661531 0.019448048 0.03629348
0.0010293041 0.051151678 0.035136178 -0.004685491 0.02291834 0.071696006 -0.10351278 -0.074891694
0.039265014 0.03915532 0.039218813 0.060838033 0.057623222 0.010535633 0.078235194 0.027070569
0.030756362 -0.009367265 -0.049070194 -0.09261819 0.045799643 1.9735715e-05 0.03256469 -0.0020559288
-1.6129721e-10 -0.027512984 0.0034407447 0.055474255 0.04090738 0.0076652635 0.0068185977 2.5695736e-05
0.019806828 0.043755025 -0.10185364 -0.0788835 0.045354027 -0.041686844 -0.018171221 -0.058198012
-0.024218496 -0.1556423 0.02929256 -0.0048367456 0.04965508 -0.00056182296 0.060544305 -0.09123728
0.004790219 -0.07087548 -0.010496347 -0.0045482744 0.031434983 -2.4198171e-11 0.030833 -0.078852475
-0.0612874 0.07897136 -0.06074895 -0.025581041 0.014187702 -0.0036467349 0.05659125 0.04115735
-0.06327933 0.000358137 0.025464231 -0.08196095 -0.066452496 0.083335295 0.06270387 0.09208678
0.014397401 -0.07311158 0.09678514 0.04288691 0.0501238 0.00466775 -0.12785651 -0.03599525
-0.00068201707 -0.07905858 -0.022547161 -0.04664447 0.120573245 -0.04168624 -0.004866323 -0.04458951
-0.061283052 0.009130344 0.042285997 0.040715113 -0.0028933221 -0.105087206 1.2205772e-05 0.0071493806
00000000: 445d b5bd eca2 dabb 513d 633d c225 b7bd
00000010: 912c 693d e58b f2bd b378 863d 5926 5c3c
00000020: 9d51 703d 8247 b13a 49c3 193d f1b8 1dbd
00000030: f455 1d3b 0f06 b03d 4484 d13d fda1 c0bd
00000040: 3478 763d f606 97bd ec88 4c3d a42f 373d
00000050: 0f32 a1bd 6c5c b53c b379 cd3b 02be 873d
00000060: bac2 263d 42d3 d33c 1819 c7bd 1e70 10bb
00000070: eab7 a8bd b286 8b3d ddf6 073d 8550 413d
00000080: 8289 0cbc e5e8 d83c 4a26 38bd d4bc e8bd
00000090: 83fc 563d 5bde e23d 637e 8b3d b389 973d
000000a0: 3da9 c9bd 4e19 78bc 7b37 593c 2be2 cc3c
000000b0: 8837 03be 5c69 0f3b 2663 28bd 1ec9 913c
000000c0: 08b1 0cbe 2567 ddbc b158 ebbc 7fae 843c
000000d0: b1c7 d13b 8d51 6d3d 9566 173d 239c aa3d
000000e0: 69d5 20aa 13cd 5a3c 5a61 803d 7f2a 763d
000000f0: 34ee 67bc 5128 843d 97bf 983d a9c3 a0ba
00000100: 0602 7cbc e127 9cbb e423 623d 7507 143c
00000110: 938a e9bd 657b a73a a25c 663c d55f 803d
00000120: 9018 683d c657 ae3d b58f 1d3d 38b8 7dbd
00000130: b6e6 88bd d0e8 19be c1a2 f7bc f842 d03d
00000140: 2a28 86bd 25ce 0bbd cb0f 35be 45ec 30bb
00000150: 4576 82bd 5e70 dca8 dc64 dbbd 023c e23d
00000160: 3a0a ca3d f799 f6bd d13b 0e3d 35a5 9cbc
00000170: 67d6 b3bc ba9e 913d e7d5 99bd 75fc 56bc
00000180: bfed 4bbb 4c1f 10be 36b9 d73c 4134 a9bc
00000190: 8b87 adbd df27 b0bd ba9b 393c 118b 0fbd
000001a0: c853 45bd c711 00bd f67a 5e3d 7655 4aba
000001b0: 6011 7f3d 0b39 09bd d391 613d be08 383d
000001c0: 01e0 6cad 9cdf 303d 1690 7f3d 4eb7 14be
000001d0: 2e1e 9f3d 813b fe3b 6f8a 0b3c 867a 91bd
000001e0: 9960 043d ad94 0bbe 1221 cb3c 8208 f33c
000001f0: 8c1c 033a 9f33 d23c 4a71 d2b7 0833 76bc
00000200: e806 a13b 620d b73c 0c14 6cbd 2c0c 83bd
00000210: 81db c4bd d5ce 833d 703c 2b3d 2fae 943d
00000220: b0d3 1a3d b05a 94bb de02 58bb 3a32 3f3d
00000230: 9985 ccbc 752a bdbb 6d03 e2bd 26d2 bebd
00000240: 8773 bebd e4cc 1a3d e0e0 b13c 7f0a 37bd
00000250: acef 1e3d 6239 bb3c a7ab a53c 8256 583d
00000260: 54c0 23bb 22df 72bd 874e 0fbc ce38 3cbd
00000270: 79c7 0cbd 5f42 a9bc 8351 9f3c 79a8 143d
00000280: b7e9 863a 6c84 513d f4ea 0f3d bf88 99bb
00000290: 3ebf bb3c 5bd5 923d 82fe d3bd d160 99bd
000002a0: 5ad4 203d 5461 203d e8a3 203d 4d31 793d
000002b0: 5406 6c3d a69d 2c3c c639 a03d 19c3 dd3c
000002c0: c4f4 fb3c 2879 19bc d4fd 48bd 9bae bdbd
000002d0: 6898 3b3d 208e a537 8d62 053d c3bc 06bb
000002e0: 2159 31af e962 e1bc 1e7e 613b f938 633d
000002f0: 7f8e 273d e42c fb3b 8b6e df3b 2c8d d737
00000300: ee41 a23c 7838 333d a498 d0bd ac8d a1bd
00000310: 25c5 393d d3bf 2abd d0db 94bc 0a61 6ebd
00000320: de65 c6bc b260 1fbe f3f6 ef3c 907d 9ebb
00000330: 2063 4b3d 4d47 13ba 4efd 773d 9cda babd
00000340: 45f7 9c3b 2a27 91bd dff8 2bbc b109 95bb
00000350: f8c1 003d 70d9 d4ad 7d95 fc3c 687d a1bd
00000360: 7f08 7bbd bdbb a13d e4d3 78bd 558f d1bc
00000370: 8973 683c 0ffe 6ebb 3acc 673d 9c94 283d
00000380: 9898 81bd 56c4 bb39 5d9a d03c 24db a7bd
00000390: 3f18 88bd b2ab aa3d e36a 803d fe97 bc3d
000003a0: 14e3 6b3c 86bb 95bd 4a37 c63d 2faa 2f3d
000003b0: 9d4e 4d3d edf3 983b d1ec 02be c16f 13bd
000003c0: 64c9 32ba 77e9 a1bd d3b4 b8bc 460e 3fbd
000003d0: 1bef f63d 31bf 2abd ad75 9fbb 7da3 36bd
000003e0: f003 7bbd 7097 153c 1534 2d3d e4c4 263d
000003f0: e49d 3dbb f637 d7bd 64c7 4c37 5a45 ea3b

val_conv1.bias f4 [2]
0.035368267 0.08266092
00000000: 51de 103d 214a a93d
