models/Training/AC_nmcts20/train_086.pth (torch, 424031 bytes, 15 tensors)

conv1.weight f4 [32, 5, 3, 3]
0	0x3ccc962d	0.024973953
1	0xbe39ca18	-0.18143499
2	0xbd22398b	-0.03960566
3	0x3e07d6e7	0.13265572
4	0xbe84171c	-0.2579888
5	0xbd32a6b7	-0.043616023
6	0x3e00a0c1	0.12561323
7	0xbe130071	-0.14355637
8	0x3cccd696	0.025004666
9	0x3c90bd5e	0.017668422
10	0xbc837569	-0.016047196
11	0x3e1bf786	0.15231141
12	0x3dca4bab	0.09877714
13	0xbe36e4dc	-0.1786074
14	0x3e1269d9	0.1429819
15	0xbd04d17e	-0.03242635
16	0xbbc308d3	-0.0059519797
17	0x3dda7b7d	0.10668085
18	0x2b14e71c	5.290089e-13
19	0x268ef95b	9.920817e-16
20	0x2751f039	2.9134801e-15
21	0x2a0c3f0a	1.2456369e-13
22	0xa8ebc735	-2.6176633e-14
23	0xac887180	-3.8779535e-12
24	0xab524b4e	-7.4711494e-13
25	0x27bd5c3c	5.255804e-15
26	0xa4e5c128	-9.964014e-17
27	0x3dd62da3	0.10457923
28	0x3c92af7e	0.017905947
29	0xbd6d19ce	-0.057885937
30	0xbe0673fd	-0.13130184
31	0xbe345eaf	-0.17614244
32	0xbb98c8ed	-0.004662624
33	0x3d438738	0.047736377
34	0xbe073c74	-0.13206655
35	0x3db778fb	0.08958622
36	0xa84019b5	-1.0663715e-14
37	0xa8264dad	-9.231694e-15
38	0x287a7484	1.3903053e-14
39	0x27020a4a	1.8046702e-15
40	0xae6117a4	-5.1180074e-11
41	0xa89ff96a	-1.7760712e-14
42	0x26ba73fb	1.2937779e-15
43	0xa971ad0f	-5.3662854e-14
44	0xac990f7b	-4.3502402e-12
45	0xbd4e7c55	-0.05041154
46	0x3e72cfa0	0.23712015
47	0x3da831e2	0.082126394
48	0x3e01db7c	0.12681383
49	0xbd89ac6b	-0.06722339
50	0xbbcb73a8	-0.0062088557
51	0x3b68332c	0.0035430891
52	0x3e1aed1b	0.15129511
53	0x3de6ed57	0.11275738
54	0x3d9e5ea8	0.07732898
55	0xbe1a9842	-0.15097144
56	0xbd6454e1	-0.05574501
57	0x39d023ac	0.0003969943
58	0x3d1b5d09	0.037930522
59	0x3c32e268	0.010918237
60	0xbd156fa2	-0.036483414
61	0xbd9afde1	-0.07567955
62	0x3d9b383b	0.075790845
63	0xaaf49b7c	-4.3450996e-13
64	0x2a199d00	1.36436e-13
65	0x270ed12e	1.9819855e-15
66	0x3070579f	8.743601e-10
67	0xa7870861	-3.747911e-15
68	0xa69169ff	-1.0090126e-15
69	0x30bb3e90	1.3623822e-09
70	0xa8460ca9	-1.0993953e-14
71	0x2a854810	2.367555e-13
72	0xbdf7e397	-0.12103956
73	0x3e4e4608	0.20143902
74	0xbdecd802	-0.11564638
75	0x3d23843a	0.039921023
76	0xbe4aea98	-0.19816053
77	0xbdc369ed	-0.09541688
78	0xbe17122a	-0.14753023
79	0x3e06c170	0.13159728
80	0xbcf728e1	-0.03017086
81	0xa90c1b38	-3.1109853e-14
82	0x36739c7b	3.6300905e-06
83	0x2938669b	4.0945203e-14
84	0x27b95f98	5.1451458e-15
85	0x2ab6e72c	3.2490102e-13
86	0xb425b93b	-1.5434209e-07
87	0xaa84e74a	-2.36084e-13
88	0xb115a6e3	-2.1777218e-09
89	0xa7a9d383	-4.7136244e-15
90	0xbddd7d45	-0.10814909
91	0x3d25b7f0	0.04045862
92	0x3d879b6b	0.066214405
93	0x3d8008bf	0.06251668
94	0x3cfa4f6e	0.030555453
95	0x3e285486	0.16438493
96	0xbe14fbd2	-0.14549187
97	0xbe494625	-0.19655664
98	0xbc232dc2	-0.00995964
99	0xbcdd0a96	-0.026982587
100	0xbd4e4daa	-0.050367035
101	0xbdb89a6c	-0.09013829
102	0xbc9d48ff	-0.019199846
103	0xbcae256c	-0.021258079
104	0x3df23a26	0.11827497
105	0x3e366b85	0.17814453
106	0xbc447450	-0.011990622
107	0x3df65f4b	0.120298944
108	0x2d358a3e	1.0319355e-11
109	0xab0fde2f	-5.1112147e-13
110	0xa870d14f	-1.3368063e-14
111	0x2744594f	2.7248878e-15
112	0xaf08230c	-1.2381579e-10
113	0xb632e953	-2.665988e-06
114	0x293800b5	4.085682e-14
115	0x292e634a	3.872188e-14
116	0xa87039d3	-1.3335215e-14
117	0x3d8e5b92	0.069510594
118	0xbce971f6	-0.028496724
119	0xbe305af6	-0.17222199
120	0xbd6599aa	-0.05605475
121	0xbcebd204	-0.028786667
122	0x3dd525e9	0.104076214
123	0x3d46cb80	0.048533916
124	0xbd453191	-0.048142973
125	0x3d714d8d	0.05891185
126	0xabdd6f86	-1.5733948e-12
127	0x31807052	3.7380596e-09
128	0xa847c406	-1.1089225e-14
129	0xb621d287	-2.4113413e-06
130	0x235fbda8	1.21290155e-17
131	0xb5c30c17	-1.4532151e-06
132	0x302f911e	6.3870853e-10
133	0xa6864e39	-9.31932e-16
134	0xa7f04f58	-6.6699406e-15
135	0x3c9dad55	0.01924769
136	0xbde3c29d	-0.11121104
137	0xbdca0c92	-0.09865679
138	0x3c6e0832	0.014528321
139	0x3c8b5de9	0.017012553
140	0xbd2705a2	-0.040776856
141	0x3e3cc67e	0.18435094
142	0x3e62fee6	0.22167549
143	0x3e3a2ef1	0.18181969
144	0x3daebd1b	0.08532163
145	0x3ce35884	0.027752168
146	0xbdebb0bd	-0.115083195
147	0xbce8ecd0	-0.028433233
148	0xbe404e17	-0.18779789
149	0xbe15fad2	-0.14646462
150	0x3d7769ff	0.06040382
151	0x3d09d84c	0.033653542
152	0xbe271223	-0.16315512
153	0x2d59a1c5	1.2370942e-11
154	0x2642a0de	6.7525287e-16
155	0xab082c59	-4.837845e-13
156	0xa7ef74a4	-6.6462288e-15
157	0xac4f6a12	-2.947535e-12
158	0x2b1304bd	5.2231467e-13
159	0x291c08bf	3.4646544e-14
160	0xa9b99b86	-8.2426294e-14
161	0x3095b4a0	1.0892514e-09
162	0x3d14becf	0.03631478
163	0x3e05e7df	0.13076733
164	0x3d2653b7	0.04060718
165	0xbe513a23	-0.20432334
166	0x3db0a757	0.086256675
167	0xbbb5167d	-0.0055263625
168	0x3da35d0c	0.07976732
169	0x3d9c8468	0.07642442
170	0x3bf749bb	0.007546631
171	0x35cb438e	1.514434e-06
172	0x2b616175	8.0071307e-13
173	0xac95a9ee	-4.2537007e-12
174	0xa673b1a4	-8.454831e-16
175	0xaa0126f6	-1.1471019e-13
176	0xa9250d5c	-3.6648947e-14
177	0x286e5c19	1.32316245e-14
178	0x34e3ea12	4.2452353e-07
179	0x276981aa	3.2405537e-15
180	0x3de0d03f	0.1097722
181	0xbda4740a	-0.08029945
182	0x3dd182a9	0.102299996
183	0x3d33a895	0.043861944
184	0xbc0d4e3d	-0.0086246105
185	0x3d2bf2a3	0.041979443
186	0x3cd0cb83	0.025487667
187	0x3ce1700e	0.027519252
188	0xbe0e1133	-0.13873748
189	0x3e12a22a	0.14319673
190	0xbe305f5d	-0.17223878
191	0x3deaaec1	0.11459113
192	0x3d8564fe	0.06513403
193	0x3d46941b	0.048481088
194	0x3e0eadae	0.13933441
195	0x3db22353	0.08698144
196	0x3d42c4f8	0.047551125
197	0xbe1d385b	-0.15353529
198	0xa93052b0	-3.915157e-14
199	0xa87566ef	-1.3622552e-14
200	0xad825e03	-1.4821038e-11
201	0xb67fa988	-3.8096641e-06
202	0x2d6566ff	1.3040013e-11
203	0xa72328d5	-2.264293e-15
204	0xaf0d21f0	-1.2835932e-10
205	0x2a84ee56	2.361329e-13
206	0x2628f9a4	5.8625035e-16
207	0x3e05f5d4	0.13082057
208	0xbd8d7b9b	-0.069083415
209	0x3e0a6bc0	0.13517666
210	0xbaa05b60	-0.0012234263
211	0x3d0f8bd5	0.035045464
212	0x3e3a092f	0.18167566
213	0x3dd64272	0.10461892
214	0x3d2f5f5b	0.042815547
215	0xbce7a136	-0.028275114
216	0x2895c242	1.6626569e-14
217	0xa9348192	-4.0080413e-14
218	0xa8410b94	-1.0716163e-14
219	0xad5ff4f4	-1.2730473e-11
220	0xa71f11ac	-2.2075263e-15
221	0x284b10f7	1.1272442e-14
222	0xaa8762ff	-2.404951e-13
223	0xacd33ed6	-6.003957e-12
224	0x3619087d	2.2803717e-06
225	0x3d9f8180	0.07788372
226	0x3e19e9ca	0.1503059
227	0x3e19235e	0.14954898
228	0x3e1cdd48	0.15318787
229	0xbdaa67ad	-0.08320556
230	0xbdc93020	-0.09823632
231	0x3dd1e6d4	0.10249105
232	0x3e235212	0.15949276
233	0xbdccdfb4	-0.100036055
234	0x3da089f2	0.07838811
235	0x3df490ad	0.11941657
236	0x3d5720dd	0.052521575
237	0x3d2ca0cc	0.042145535
238	0xbe1032c8	-0.14081872
239	0xbdcc8e1d	-0.099880435
240	0x3d6bc6e4	0.057562724
241	0xbde16130	-0.11004865
242	0x3c22c3a8	0.009934343
243	0xb2ed4569	-2.7621995e-08
244	0xa9ff8dc2	-1.1348866e-13
245	0xb0ed0808	-1.7246302e-09
246	0x25b1e358	3.085866e-16
247	0x304b6aab	7.4002554e-10
248	0xabb4a27a	-1.2834866e-12
249	0xa9eb134f	-1.0439446e-13
250	0x2d1285b4	8.328827e-12
251	0xaaeda13c	-4.2211536e-13
252	0x3b5b6f68	0.0033483151
253	0x3da74670	0.08167732
254	0x3d2ca449	0.042148862
255	0x3d87e19c	0.066348284

conv1.bias f4 [32]
0	0x3dfedcf6	0.12444489
1	0x3b6a2e95	0.0035733331
2	0xbd29f169	-0.041489992
3	0x3da82f8e	0.08212195
4	0xbd997c10	-0.07494366
5	0xbe0f2193	-0.13977651
6	0xbd197f3d	-0.03747486
7	0x3de8fa49	0.11375863
8	0x3d965cd5	0.07341925
9	0xbda968f7	-0.082719736
10	0x3e42a464	0.19008023
11	0xbd3708ff	-0.044686314
12	0x3e3645c8	0.17800057
13	0x3e1bcc75	0.15214713
14	0xbde63189	-0.11239917
15	0xbcf01333	-0.02930603
16	0xbd00aaee	-0.03141301
17	0xbd880f8b	-0.066435896
18	0xbcbf0dc3	-0.023321992
19	0x3e2ea352	0.1705449
20	0xbd83fcce	-0.06444703
21	0x3dbeb306	0.0931149
22	0x3bb36576	0.0054747416
23	0xbd94d4c6	-0.07267146
24	0xbdb3d3a4	-0.087806016
25	0x3d9d4839	0.07679791
26	0xbdf44381	-0.11926938
27	0x3e316d18	0.17326772
28	0x3e054f58	0.13018548
29	0xbda91e07	-0.082576804
30	0xbddde0ee	-0.108339176
31	0x3e075229	0.13214935

conv2.weight f4 [64, 32, 3, 3]
0	0xbcb27c3d	-0.021787757
1	0x3cf732b3	0.030175542
2	0xbc28d41c	-0.010304477
3	0x3d064f67	0.032790568
4	0xbd6091a0	-0.05482638
5	0xbd5a1b60	-0.053248763
6	0xbd506137	-0.05087396
7	0x3c22d9ce	0.009939624
8	0xbc9333c5	-0.017969022
9	0xbd409eff	-0.04702663
10	0xbd09536a	-0.033526815
11	0xbd341d00	-0.04397297
12	0x3cce8074	0.025207736
13	0x3cdddc5c	0.027082615
14	0x3d1ad202	0.037797935
15	0x3cc20b13	0.023686921
16	0x3caf47ef	0.021396605
17	0x3d7c6f67	0.06162968
18	0xbd610ec9	-0.05494574
19	0xbd258684	-0.040411487
20	0xbd1c2002	-0.038116463
21	0x3c36dd45	0.011161153
22	0x3d24569b	0.040121656
23	0xbae7dbad	-0.001768937
24	0x3b2c4271	0.002628472
25	0x3b804f77	0.003915723
26	0xbd539418	-0.051654905
27	0xbda376a8	-0.07981616
28	0xbc6d8783	-0.014497641
29	0x3d04d07e	0.032425396
30	0xbb4b4db2	-0.0031021652
31	0xbb980fc2	-0.0046405504
32	0xbad73361	-0.001641851
33	0x3d030545	0.031987447
34	0x3caf8133	0.021423912
35	0x3d40908e	0.047012858
36	0xbb53f834	-0.0032343986
37	0x3d0fc72a	0.035102047
38	0xbd2dd84f	-0.042442616
39	0x3c9f95c4	0.019480594
40	0x3d618921	0.055062417
41	0xbd127c44	-0.03576304
42	0xbb563fce	-0.003269184
43	0xbaf4cd10	-0.0018676836
44	0xbd039986	-0.032128833
45	0xbd4cd8be	-0.05001139
46	0xbcb7ede5	-0.022452304
47	0xbc16f056	-0.009212574
48	0xbd5ab5e0	-0.053396106
49	0xbd01bc85	-0.031673927
50	0x3b7dceca	0.0038727992
51	0xbce489c1	-0.027897717
52	0x3d70e2fe	0.058810227
53	0x3cbcf89b	0.023067763
54	0xbc4dbb34	-0.01255684
55	0xbd3f274e	-0.046668343
56	0xbd862481	-0.06549931
57	0xbb826787	-0.0039796266
58	0x3ce0aa48	0.027424946
59	0xbbf5b431	-0.007498287
60	0x3cc7abe3	0.024373954
61	0xbcdb4eaf	-0.026770918
62	0xbd129572	-0.035787053
63	0x3c952333	0.01820526
64	0xbcc9d108	-0.024635807
65	0x3cc37938	0.023861513
66	0xbd264ed7	-0.04060253
67	0x3dae4e9c	0.08511087
68	0x3d07f658	0.033193916
69	0x3d33fd8f	0.043942984
70	0xbc80c972	-0.015721057
71	0xbb7bddbc	-0.0038431725
72	0xbdafc402	-0.085823074
73	0xbc167252	-0.0091825295
74	0x3b3dc56d	0.0028956786
75	0xbd83610e	-0.06414996
76	0x3d2c1d74	0.042020276
77	0xbd7c4ddc	-0.06159769
78	0xbd1d2f72	-0.038375326
79	0x3d0d7f75	0.03454538
80	0x3d26b634	0.040701106
81	0xbb2984c3	-0.0025866486
82	0xbd74625b	-0.05966411
83	0xbcb4ef8c	-0.022086881
84	0x3cea5594	0.02860526
85	0xbd909b93	-0.070609234
86	0xbd20620b	-0.039156
87	0x3d20dc30	0.039272487
88	0x3d2e8ab5	0.04261275
89	0xbc5b9c8d	-0.013404024
90	0xbd715bbc	-0.058925375
91	0x3cd69374	0.026193358
92	0xbd8c4e76	-0.06850903
93	0xbd7d0d0e	-0.061780028
94	0xbd6f81cb	-0.05847339
95	0xbdac8c60	-0.08425212
96	0xbd433262	-0.04765547
97	0xbcbb9970	-0.022900313
98	0xbcc6e18e	-0.024277475
99	0x3bb7cb2f	0.005608938
100	0x3d491d3d	0.04910015
101	0xbcbf4cdd	-0.023352081
102	0xbd8e390c	-0.069444746
103	0x3c375a23	0.011190924
104	0x3d35baa9	0.044367466
105	0xbcd41feb	-0.025894126
106	0x3cc829b7	0.024433954
107	0xbd6facbf	-0.058514353
108	0xbdb6c4f4	-0.089242846
109	0xbd040ef5	-0.032240827
110	0xbd9a9074	-0.075470835
111	0x3b290b69	0.0025794154
112	0x3d7b9fcb	0.061431687
113	0xbdbc14a2	-0.09183623
114	0xbd459f33	-0.048247527
115	0xbd59886b	-0.053108614
116	0xb98ae30a	-0.00026490568
117	0xbd8e915c	-0.06961319
118	0xbd6602e5	-0.056155104
119	0x3d0f3129	0.034958992
120	0xbd8e7ed7	-0.069577865
121	0x3cfcc2bf	0.03085458
122	0xbc84d4de	-0.016214784
123	0xbd3a2454	-0.0454448
124	0x3c12b592	0.008954423
125	0xbc4a2220	-0.012337238
126	0xbce058da	-0.027386118
127	0xbac5d4b1	-0.0015093294
128	0xbd631808	-0.05544284
129	0xbd83f356	-0.06442897
130	0xbd04ad3e	-0.03239178
131	0x3c587110	0.01321055
132	0xbd9bf225	-0.07614545
133	0xbc866114	-0.016403712
134	0x3bec790d	0.007216579
135	0xbd385a9b	-0.045008283
136	0xbd11b2ed	-0.035571028
137	0xbced9f16	-0.029006522
138	0xbd341a17	-0.043970194
139	0xbc873cf9	-0.016508566
140	0xbd085036	-0.03327962
141	0xbca15fd4	-0.019699015
142	0xbd506bc0	-0.05088401
143	0xbd7fdeb2	-0.06246824
144	0x3d5b8af8	0.053599328
145	0xbd1e27b1	-0.03861207
146	0xbda022ab	-0.078191124
147	0xbd2fe576	-0.04294344
148	0xbd6df2b0	-0.058092773
149	0xbd0bdacd	-0.03414421
150	0xbc2302ee	-0.009949429
151	0x3bbcf1d9	0.005766135
152	0xbcf2b747	-0.02962841
153	0xbd4aa121	-0.04947007
154	0x3ce01c94	0.027357377
155	0x3bf05842	0.00733474
156	0xbd8a72b6	-0.067601606
157	0xbba56d05	-0.0050483965
158	0x3d79ef59	0.061019275
159	0xba9926e6	-0.0011684566
160	0x3d34d67c	0.04414986
161	0xbd86e10a	-0.065858915
162	0xbd01eabb	-0.031717997
163	0x3c1bf394	0.009518523
164	0x3d3e649b	0.046482664
165	0xbc0d0ee2	-0.008609505
166	0xbd4785c7	-0.048711564
167	0x3b9250a9	0.004465182
168	0x3d435bee	0.047695093
169	0xbd05bc8d	-0.03265052
170	0x3c4de80f	0.012567534
171	0x3ce06cd3	0.027395641
172	0xbd94130d	-0.07230196
173	0xbd43ef03	-0.04783536
174	0xbc953ad1	-0.018216522
175	0x3d3c3820	0.045951962
176	0xbceb11fd	-0.0286951
177	0xbc21141b	-0.009831454
178	0xbd367634	-0.04454632
179	0xbdb897b2	-0.090133086
180	0xbd80cc88	-0.06289011
181	0x3cea14c4	0.028574355
182	0xbadc1285	-0.0016790187
183	0xbccb0722	-0.024783675
184	0x3d6c4150	0.057679474
185	0x3aa49ec2	0.001255952
186	0x3abd5834	0.0014445842
187	0x38d0c837	9.955506e-05
188	0xbd014ef2	-0.03156943
189	0xbb5decb0	-0.0033863
190	0x3c4eff33	0.012634086
191	0xbd39535b	-0.04524551
192	0xbc8b803b	-0.017028918
193	0x3d7ae411	0.061252657
194	0xbcd6196e	-0.026135173
195	0xbca66505	-0.020311842
196	0xbda66619	-0.08124942
197	0xbd8f02f9	-0.06982989
198	0x3d2853f9	0.041095708
199	0xbc221682	-0.009893062
200	0xbc48f17d	-0.012264607
201	0xbd694d1a	-0.056958295
202	0xbd12a523	-0.035802018
203	0xbb7b386c	-0.003833319
204	0xbd9293b3	-0.07157078
205	0x3bf16c55	0.0073676505
206	0xbd66b486	-0.056324504
207	0x3d168393	0.036746573
208	0xbcf8192e	-0.030285444
209	0xbd6ca6e1	-0.057776336
210	0x3ca2412a	0.019806463
211	0xb91ff380	-0.00015254132
212	0xbd50f073	-0.05101056
213	0x3c594ec3	0.013263407
214	0x3d6a38bf	0.057183024
215	0x3da40416	0.08008592
216	0x3c7deb29	0.015497961
217	0xbc9b3037	-0.018943889
218	0x3cfd869e	0.03094798
219	0xbd3b5731	-0.04573745
220	0x3cb37338	0.021905527
221	0xbd1ec712	-0.038764067
222	0x3cb348de	0.021885332
223	0xbce8a826	-0.028400492
224	0xbcf9a84d	-0.03047576
225	0x3c0a2ae7	0.00843308
226	0x3d36e5b0	0.04465264
227	0xbc1c7e87	-0.009551651
228	0xbc2ad9b7	-0.010427884
229	0xbd08270c	-0.033240363
230	0xbd5c69b9	-0.053811762
231	0x3cc7f359	0.02440803
232	0xbb33adda	-0.0027416856
233	0x3cb4ad0a	0.022055168
234	0x3b8a686d	0.0042238743
235	0x3d1ea76c	0.038733885
236	0xbc597945	-0.013273542
237	0x3d1fbeee	0.039000444
238	0xbcb75927	-0.022381378
239	0x3d5aea1c	0.05344592
240	0x3d308657	0.043096866
241	0xbcadb44c	-0.021204136
242	0xbc8d755c	-0.017267875
243	0xbb1ad0eb	-0.002362306
244	0xbd86b9e0	-0.065784216
245	0xbcbceacd	-0.02306118
246	0x3c206646	0.009790009
247	0xbd3bbed3	-0.04583628
248	0xbbd2d4f3	-0.006434077
249	0xbd68264b	-0.056677144
250	0xbd02e6a8	-0.031958252
251	0xbd373bcc	-0.04473476
252	0xbd02424e	-0.031801514
253	0x3ccc07d5	0.024906078
254	0x3d345a84	0.044031635
255	0x3c9b3519	0.018946217

conv2.bias f4 [64]
0	0x3cc40ade	0.023930963
1	0x3c2d6385	0.010582809
2	0xbd95a1e6	-0.0730627
3	0xbd508a64	-0.05091323
4	0xbc735dd5	-0.014853914
5	0x3d8e219d	0.06940005
6	0x3d8ab39f	0.06772541
7	0x3cb91227	0.022591664
8	0xbd21ce20	-0.039503217
9	0x3da9f6e2	0.08299042
10	0xbd060cdf	-0.03272712
11	0xbd045865	-0.032310862
12	0x3d6306f8	0.055426568
13	0xbd48b159	-0.048997257
14	0xbc82e7fc	-0.01597976
15	0x3b25122a	0.0025187829
16	0x3da3288d	0.07966719
17	0x3dadae3f	0.084805004
18	0x3cecb347	0.02889408
19	0x3d53f1fc	0.051744446
20	0x3c9305e1	0.01794714
21	0xbcdae634	-0.026721098
22	0x3d9a23e5	0.075263776
23	0x3d1f088f	0.03882652
24	0x3cd322df	0.025773464
25	0x3dd3272c	0.10310206
26	0xbc6ff05c	-0.0146447085
27	0x3d8a7806	0.06761174
28	0xbd4d2815	-0.050087053
29	0xbca841b3	-0.02053914
30	0x3d9bacc1	0.076013096
31	0x3d943a4e	0.07237683
32	0x3c973012	0.018455539
33	0xbcf166df	-0.029467998
34	0x3c234f72	0.009967672
35	0x3dae52c5	0.08511881
36	0x3d06e45c	0.032932624
37	0xbcea452f	-0.028597442
38	0xbb2b68c8	-0.0026154984
39	0x3db490f9	0.08816714
40	0x3d3ce57e	0.0461173
41	0xbc6be430	-0.014397666
42	0xbd772c98	-0.060345262
43	0xbbfa62e8	-0.007641185
44	0xbcc2c2fa	-0.023774613
45	0x3d760694	0.060064867
46	0xbd2d3560	-0.04228723
47	0x3dc24f6d	0.094878055
48	0x3d27067d	0.040777672
49	0xbd79a6f3	-0.06095023
50	0x3d3b4d92	0.045728274
51	0x3d95416e	0.0728787
52	0x3d8443a2	0.064582124
53	0xbd0f966d	-0.035055567
54	0x3d0f6a86	0.035013698
55	0x3d91b377	0.07114308
56	0xbb0f5223	-0.0021869026
57	0x3ac60384	0.0015107249
58	0xbcfe0b04	-0.031011112
59	0xbc4431ae	-0.011974735
60	0x3c8e0b2a	0.017339308
61	0xbcbabd83	-0.022795444
62	0xbd52e696	-0.051489435
63	0xbb90ab78	-0.004414972

conv3.weight f4 [128, 64, 3, 3]
0	0x3cb59cb3	0.022169447
1	0x3d29171e	0.041281812
2	0xb75cd2d1	-1.3162106e-05
3	0xbcae2352	-0.021257076
4	0xbca52b2f	-0.020162193
5	0xbc9e380c	-0.019313835
6	0x3afae20e	0.0019140856
7	0xbc064820	-0.008195907
8	0x3bb76997	0.005597304
9	0x3c1afd61	0.009459824
10	0x3c2cf0df	0.010555475
11	0x3caa60f4	0.020798184
12	0xbd13ec17	-0.036113825
13	0x3c8b4863	0.01700229
14	0xbc1382ce	-0.009003354
15	0xbd190ba2	-0.03736461
16	0xbc38c897	-0.011278293
17	0x3be6522e	0.0070288396
18	0x3d51e744	0.051245943
19	0xbcc78f32	-0.024360273
20	0xbc2a0210	-0.010376468
21	0x3cacb24a	0.021081109
22	0xbbbf976b	-0.005846908
23	0x3ca01500	0.019541264
24	0xbd32e1d7	-0.04367241
25	0xbcf3adcf	-0.029745964
26	0x3cb72ea7	0.022361113
27	0x3c1d454c	0.009599041
28	0xbc42180e	-0.011846555
29	0x3da2198b	0.07915028
30	0xbc75a9a5	-0.01499406
31	0x3c86bff0	0.016448945
32	0x3dacbbab	0.08434232
33	0x3c2dabe2	0.010600062
34	0x3d10f7a1	0.035392407
35	0xbd39e130	-0.04538077
36	0x3c1c6d66	0.009547567
37	0xbc23209d	-0.009956506
38	0xbd2cdc19	-0.04220209
39	0xbce4cd34	-0.02792988
40	0xbd5702b0	-0.052492797
41	0xbcf58bc6	-0.029973876
42	0xbd111166	-0.035416983
43	0xbc844459	-0.016145872
44	0x3c984fe9	0.018592792
45	0x3cfefc24	0.03112609
46	0xbc92adb6	-0.017905097
47	0xbd106ddf	-0.03526103
48	0x3d56fe1a	0.052488424
49	0xbc25a8af	-0.010111018
50	0xbd4fd24e	-0.05073767
51	0x3d181f9a	0.037139513
52	0xbd380ab3	-0.04493208
53	0xbbb3083c	-0.005463628
54	0x3c026c81	0.00796044
55	0xbcdf709a	-0.027275372
56	0xbc571d0f	-0.013129487
57	0xbd7fb1c2	-0.062425382
58	0xbd4429ef	-0.047891553
59	0xbcbdf177	-0.023186428
60	0xbc57fe7d	-0.013183233
61	0xbcd3a710	-0.025836498
62	0xbc9571c0	-0.018242717
63	0x3b89565e	0.004191204
64	0xbbc1bcd4	-0.0059124026
65	0x3ce0670d	0.027392888
66	0xbc96cfe0	-0.01840967
67	0x3cb25bf5	0.021772364
68	0xbbe33e94	-0.00693495
69	0x3c8bc639	0.017062293
70	0xbb90e95b	-0.0044223494
71	0xbad6c003	-0.0016384128
72	0x3bf8dc6b	0.0075946352
73	0x3c8676de	0.016414102
74	0xbc9768d0	-0.018482596
75	0x3cef5881	0.029217007
76	0x3c546bf4	0.012965191
77	0x3a01ebd4	0.00049561006
78	0x3d0ef750	0.034903824
79	0xbce2a2b3	-0.027665472
80	0xbc323989	-0.010877975
81	0xbc87016a	-0.016480166
82	0xbd070495	-0.032963354
83	0xbd65acd9	-0.056073043
84	0xbd176fcf	-0.036971863
85	0xbd68df75	-0.05685373
86	0x3c48f9d0	0.012266591
87	0xbce6cbff	-0.028173445
88	0x3d0e2868	0.034706503
89	0xbc3e1ad3	-0.011603075
90	0x3d4af32f	0.049548324
91	0x3d0a27a5	0.033729214
92	0xbc0c01ec	-0.00854538
93	0x3c6ad47b	0.014332886
94	0x3cad09dc	0.021122865
95	0xbbfefb96	-0.007781456
96	0x3d3a0902	0.045418747
97	0x3cc15613	0.023600614
98	0xbcf10913	-0.029423272
99	0xbd4a6326	-0.04941096
100	0x3d4a928f	0.049456175
101	0x3d086373	0.033297967
102	0x3cf75848	0.030193463
103	0x3d216a75	0.039408166
104	0xbc1609db	-0.009157623
105	0x3c2fe97e	0.010736821
106	0xbd388acf	-0.045054253
107	0x3d85b497	0.065285854
108	0xbcca7bc0	-0.024717212
109	0x3d281d25	0.04104342
110	0xbcedbfbb	-0.029022088
111	0xbb0c8d50	-0.0021446534
112	0x3c0349a4	0.008013163
113	0xbd25ae86	-0.04044964
114	0xbc05da18	-0.008169673
115	0xbc040e09	-0.008059987
116	0x3d8afe8f	0.067868344
117	0xbb804e14	-0.0039155576
118	0xbc31ab97	-0.010844133
119	0xbc49e23d	-0.012322006
120	0x3b77e87d	0.0037827783
121	0x3c0168ee	0.007898552
122	0x3b0e974e	0.0021757665
123	0x3cbc092a	0.022953589
124	0x3ba51a46	0.0050385324
125	0xbbffffbd	-0.007812469
126	0xbd6b9883	-0.057518493
127	0x3cb06634	0.02153311
128	0xbbbf81c2	-0.0058443258
129	0xbd8e6a32	-0.06953849
130	0xbcb4b4f8	-0.022058949
131	0x3c421061	0.011844725
132	0x3c56eb59	0.013117635
133	0x3c11151d	0.008855131
134	0x3cd06010	0.025436431
135	0x3c744c45	0.014910762
136	0x3c628621	0.013825924
137	0xbd37a59c	-0.04483567
138	0x3d886640	0.06660128
139	0xbd72490e	-0.0591517
140	0xbd583b48	-0.05279091
141	0x3c170d2b	0.009219448
142	0xbc117d28	-0.008879937
143	0xbc47dca6	-0.012198603
144	0x3b9b9dfe	0.0047490587
145	0xbc1b8bd7	-0.00949379
146	0xbd93e4f9	-0.072214074
147	0x3c4dfcc4	0.012572471
148	0xbc843e30	-0.016142935
149	0xbd809b59	-0.0627963
150	0x3b19cfb6	0.0023469753
151	0xbb3d8b5e	-0.002892218
152	0x3c1818af	0.009283229
153	0xbb784b08	-0.003788652
154	0x3d09983a	0.03359244
155	0xb9c56c40	-0.0003765542
156	0x3ccb7243	0.024834758
157	0x3d28cb14	0.041209295
158	0xbc254931	-0.010088251
159	0xba052941	-0.00050796947
160	0x3b8a188a	0.004214351
161	0x3cc6456f	0.02420303
162	0x3c38eb48	0.011286564
163	0xbd0e2e78	-0.034712285
164	0x3d040d6a	0.032239355
165	0xbd0c17b0	-0.034202278
166	0xbadeca56	-0.0016997557
167	0x3d28c0a6	0.04119935
168	0xbd71dfdc	-0.05905138
169	0x3c9ab179	0.018883454
170	0x3ce495c9	0.027903454
171	0xba5a2dbf	-0.0008322857
172	0x3d3e1809	0.04640964
173	0x3dacf29a	0.0844471
174	0xbc364f49	-0.0111273015
175	0xbd33908b	-0.04383902
176	0xbbfc21e2	-0.007694469
177	0x3d230320	0.039797902
178	0x3c3dc1da	0.011581862
179	0x3b2336ad	0.0024904415
180	0xbbb4966b	-0.0055110953
181	0x3d2b4ef8	0.041823357
182	0x3bbf1b40	0.005832106
183	0xbd03c7c6	-0.03217294
184	0xbc9cbae7	-0.01913209
185	0xbca31c20	-0.019910872
186	0xbc849c3a	-0.016187776
187	0x3cb3bbeb	0.021940192
188	0x3d5e4c22	0.054271825
189	0xbd04ea18	-0.03244981
190	0x3d03bce2	0.032162555
191	0x3d1293dc	0.03578554
192	0xbd659cd8	-0.05605778
193	0x3cdfea4d	0.027333403
194	0x389a84a9	7.368002e-05
195	0xbd6ea90d	-0.05826669
196	0xbd33d27f	-0.043901917
197	0xbd2d26cc	-0.042273328
198	0x3c0f859d	0.008759883
199	0x3c8ae053	0.01695267
200	0xbdbcbece	-0.092160806
201	0xbca11728	-0.019664362
202	0xbd3f4938	-0.046700686
203	0xbdaea736	-0.08527987
204	0x3cb35363	0.021890348
205	0xbd50556d	-0.05086272
206	0x3d696151	0.056977574
207	0x3be6788f	0.0070334147
208	0xbcfaf57b	-0.030634632
209	0x3d4bdf3b	0.049773436
210	0xbd5566cb	-0.052099984
211	0x3c94a3a0	0.018144429
212	0xbb1fcba8	-0.0024382863
213	0xbdb4f5bb	-0.08835932
214	0x3c6f83f1	0.01461886
215	0x3d99a69e	0.07502483
216	0x3c48d8d7	0.01225873
217	0x3b5ae2d2	0.0033399356
218	0x3c03bb47	0.008040256
219	0x3d0c18ab	0.034203213
220	0xbc900e2a	-0.017584879
221	0xbba5ea1c	-0.0050633084
222	0xbb576f1d	-0.0032872625
223	0xbc9a6f93	-0.01885203
224	0xbca127cd	-0.019672299
225	0xbd0a3e60	-0.03375089
226	0x3d55f69a	0.05223713
227	0x3cbf0f08	0.023322597
228	0x3c31c907	0.010851151
229	0x3c91626d	0.017747128
230	0xbd620afc	-0.055186257
231	0x3a642283	0.00087026524
232	0x3c26f9fa	0.010191435
233	0x3d1293a5	0.035785336
234	0xbbd4f807	-0.0064992937
235	0xbccfd9bc	-0.025372379
236	0xbd06d36f	-0.032916483
237	0x3cae8496	0.021303456
238	0xbd2032f4	-0.039111093
239	0xbcd00e3c	-0.025397412
240	0x3d27e8bf	0.04099345
241	0xbd7a2cdd	-0.06107794
242	0x3cab9906	0.02094699
243	0x3c224bec	0.0099057965
244	0xbb4761b0	-0.0030423217
245	0xbcda032d	-0.026612842
246	0xbc7ee063	-0.015556428
247	0x3c0af67f	0.008481621
248	0xbc6c2ce4	-0.014415
249	0xbc3e62d3	-0.011620241
250	0xbc1d18e9	-0.009588459
251	0xbbd8ca43	-0.0066159084
252	0xbd1b0cc0	-0.037853956
253	0x3c26125b	0.010136212
254	0x3c34fd8a	0.011046777
255	0x3d119c4d	0.03554945

conv3.bias f4 [128]
0	0xbc77bbd4	-0.015120465
1	0xbcb2edf7	-0.021841986
2	0xbc8edd9c	-0.017439656
3	0x3d6da6fc	0.058020577
4	0xbc935987	-0.017987026
5	0x3ac54a9a	0.001505214
6	0xbc8fa174	-0.017533042
7	0x3d450a92	0.048105784
8	0xbca54917	-0.020176454
9	0x3c729886	0.014806872
10	0xbc9582ab	-0.018250784
11	0xbc63c160	-0.013901085
12	0x3d2c7cf9	0.04211137
13	0xbc72783f	-0.014799177
14	0x3c9544da	0.018221308
15	0x3d0629c3	0.03275467
16	0x3d7b1bb2	0.06130571
17	0x3d1a6897	0.0376974
18	0x3cc8706b	0.024467668
19	0x3c188890	0.009309903
20	0x3d139256	0.03602823
21	0x3cd991f2	0.02655885
22	0x3d5d5e4e	0.054045014
23	0x3ce05132	0.027382467
24	0xbc9b869b	-0.018985083
25	0x3c23fc41	0.0100088725
26	0x3d40d488	0.047077686
27	0x3be66e33	0.0070321797
28	0x3cb758b3	0.022381162
29	0xbd17e3bd	-0.037082423
30	0xbd3a9256	-0.045549713
31	0x3c76fb18	0.015074514
32	0xbce280cb	-0.027649304
33	0x3d055dc2	0.032560118
34	0x3c161fd3	0.009162861
35	0xbd0f656c	-0.035008833
36	0x3d50f86d	0.051018167
37	0xbd2166df	-0.039404746
38	0x3bd995e2	0.006640182
39	0x3b912a20	0.0044300705
40	0x3d2eb9ad	0.042657543
41	0xbc467be3	-0.012114498
42	0x3c68cd92	0.014209168
43	0xbcc48688	-0.02398993
44	0x3c8d21c0	0.017228007
45	0x3d991f84	0.07476714
46	0x3b82d252	0.0039923573
47	0x3bfbeaea	0.007687916
48	0x3c8dc20e	0.017304447
49	0x3bdb0be8	0.006684769
50	0xbca0173d	-0.01954233
51	0x3beb820f	0.007187135
52	0xbd18fefd	-0.03735255
53	0x3d8915a4	0.06693581
54	0x3a8fa513	0.001095923
55	0x3cd37f2b	0.025817474
56	0xb9949ace	-0.00028344098
57	0x3d83048a	0.0639735
58	0xbc5a9a41	-0.013342441
59	0x3cf3a98e	0.029743936
60	0x3d2c93bb	0.042133074
61	0x3cff0018	0.031127974
62	0x3b3f2616	0.0029166988
63	0xbb8b4dbd	-0.0042512105
64	0xbcb77671	-0.022395344
65	0x3d37c870	0.044868886
66	0x3d3d2257	0.046175327
67	0x3d0136f6	0.031546555
68	0x3ccb482e	0.024814691
69	0x3c47666b	0.012170414
70	0x3a91eba6	0.0011132851
71	0x3d0bc0b3	0.03411932
72	0xbc26adc7	-0.010173268
73	0x3c1d1ee9	0.009589889
74	0x3cfcfae0	0.030881345
75	0x3d707c2e	0.058712177
76	0x3d193ce3	0.03741158
77	0x3d58d7ff	0.052940365
78	0x3cab1ed7	0.020888729
79	0x3cfed878	0.03110908
80	0xbd20e1da	-0.03927789
81	0x3d0b4021	0.033996705
82	0x3a041b6e	0.0005039488
83	0xbcd26e39	-0.025687324
84	0x3c92a5ab	0.017901262
85	0xb6dc5221	-6.566072e-06
86	0x3d446e65	0.047956843
87	0xbb969813	-0.0045957654
88	0x3c90a012	0.017654452
89	0x3ce3cadc	0.027806692
90	0xbcd993ab	-0.026559671
91	0x3da44a62	0.08022
92	0xbc2f1833	-0.010686922
93	0x3cc2f2e7	0.023797465
94	0xbc02c222	-0.007980855
95	0xbb0060ea	-0.0019589015
96	0x3c2a903e	0.010410367
97	0x3cee1343	0.02906192
98	0xbc9d91d2	-0.019234572
99	0x3d33910f	0.04383951
100	0x3d1ac9ff	0.037790295
101	0x3d36ce81	0.04463053
102	0xbc8e117e	-0.017342325
103	0xbbc2e852	-0.005948105
104	0x3d37cea4	0.044874802
105	0x3d5b5abb	0.053553324
106	0x3c514544	0.012772862
107	0x3d47d9db	0.048791748
108	0xbd1866ea	-0.03720752
109	0x3c458e28	0.0120578185
110	0x3cabbf14	0.020965137
111	0x3b5b59f1	0.0033470357
112	0xbc768cad	-0.015048188
113	0xb905f704	-0.00012775889
114	0x3d543ed6	0.051817738
115	0x3d45d504	0.04829885
116	0x3c88a88f	0.016681938
117	0xbbf8c95e	-0.007592364
118	0xbc5884d4	-0.013215262
119	0x3d18dad4	0.037318066
120	0xbcb38cda	-0.02191775
121	0x3c1e83b3	0.009674954
122	0xbc1182c1	-0.008881272
123	0x3bde1184	0.0067769904
124	0xbc6feaee	-0.014643414
125	0xbc75d9c8	-0.015005536
126	0xbc89ea33	-0.016835308
127	0x3d89ee1b	0.06734868

act_conv1.weight f4 [4, 128, 1, 1]
0	0x3bbb057e	0.005707442
1	0xa6bc92f5	-1.3084953e-15
2	0x3b8d5461	0.0043130373
3	0xbdf5bab9	-0.11998505
4	0x3c31243f	0.010811864
5	0xba38b1e0	-0.00070455484
6	0x3d49a019	0.049224947
7	0x3c7b5c57	0.01534184
8	0x3d8d6221	0.06903482
9	0xbdd3f015	-0.103485264
10	0xbc0a8f9f	-0.0084570935
11	0x3c92c107	0.017914308
12	0xbe045d01	-0.12926103
13	0x3c2c2d25	0.01050881
14	0x3cf1c24e	0.029511597
15	0xbd4113fb	-0.047138195
16	0x3bbd28bf	0.0057726796
17	0xbd79eb7e	-0.0610156
18	0x3ce43568	0.027857497
19	0x3c0d3eae	0.008620901
20	0xbca94b8d	-0.020665908
21	0x3cc32f24	0.02382619
22	0xbdbe3437	-0.09287303
23	0x3bc1266b	0.0058944724
24	0x3c83a9f6	0.016072255
25	0x3d106a3a	0.035257556
26	0xbc59c1f2	-0.013290869
27	0xbd207f4a	-0.039183892
28	0xba8324ef	-0.0010005514
29	0xbd2960e3	-0.041352164
30	0xbcb9c7f5	-0.022678355
31	0x3d121d2b	0.035672348
32	0xa8208545	-8.910682e-15
33	0xbad06c61	-0.001590144
34	0xbcd5afb9	-0.026084768
35	0x3d4c7067	0.049911883
36	0xbd899288	-0.06717402
37	0xbc6a3358	-0.014294468
38	0xbaa46d16	-0.0012544717
39	0xb9b2a211	-0.00034071555
40	0xbd279387	-0.040912177
41	0xbc06eab2	-0.008234667
42	0xbd1ba2b7	-0.037996974
43	0xbd5dd45a	-0.054157592
44	0xbc00e001	-0.007865907
45	0xbda5e787	-0.08100801
46	0xbc04c1fc	-0.00810289
47	0xbda3a154	-0.07989755
48	0xbb58301d	-0.0032987662
49	0xbd000bc3	-0.031261217
50	0x3cf35aba	0.029706348
51	0x3cd881c9	0.026429074
52	0xbc359aa8	-0.011084236
53	0xbd17210b	-0.036896747
54	0xbd808fb8	-0.06277412
55	0x3d6eac39	0.058269713
56	0x271173b8	2.0185524e-15
57	0xbdda6530	-0.10663831
58	0xbd8d5620	-0.06901193
59	0xbc8c7028	-0.017143324
60	0xbda10fbf	-0.078643315
61	0x3ce701ae	0.028199043
62	0x3d030246	0.03198459
63	0x298fe506	6.390205e-14
64	0x3d75123c	0.059831843
65	0xbd47f125	-0.048813958
66	0x3d2504f0	0.040287912
67	0xbcd37352	-0.025811825
68	0xbd57f123	-0.0527202
69	0xbba04727	-0.0048912945
70	0x3d1c5f9c	0.038177118
71	0x3bed6c8a	0.007245605
72	0xbd1176d1	-0.035513703
73	0x3d92b3a8	0.07163173
74	0x3d49de89	0.04928449
75	0xbd748e18	-0.059705824
76	0xbbddf33e	-0.0067733815
77	0xbbb26df8	-0.005445238
78	0xbd80d8b5	-0.062913336
79	0xbcc18261	-0.02362174
80	0x3bd8387a	0.0065985294
81	0x3d098959	0.03357825
82	0xbb4a3434	-0.003085387
83	0x29771fae	5.4872495e-14
84	0xbce810e8	-0.028328374
85	0xa8af9504	-1.9493528e-14
86	0xbdd8d5a1	-0.105876215
87	0x3d9428f0	0.07234371
88	0x3d2ed6b8	0.04268524
89	0xbbc01806	-0.005862239
90	0x3c2e7883	0.010648849
91	0xbda7d224	-0.08194378
92	0x3c859382	0.016305689
93	0x3d647f92	0.055785723
94	0xbceb8a5d	-0.0287525
95	0x3d456fec	0.04820244
96	0xbd2ac822	-0.041694768
97	0x3d4810bd	0.048844088
98	0xbd0d571c	-0.034506902
99	0x3d5ce3d6	0.05392822
100	0xbc0e8ed5	-0.008701046
101	0x3cbbcc01	0.022924425
102	0xbbf7c538	-0.007561352
103	0xbda0c592	-0.078501835
104	0xbc0ce368	-0.00859914
105	0x3ae10df5	0.0017170297
106	0xbbd7cd7b	-0.0065857745
107	0xbdb639d6	-0.0889775
108	0x3cc1d665	0.023661802
109	0x3d7cae5f	0.06168973
110	0xbcfa8eee	-0.030585732
111	0xbaf52956	-0.0018704336
112	0xa927bec4	-3.7246912e-14
113	0x3b1c8671	0.0023883844
114	0xbcef88e7	-0.029240085
115	0xbcd3679a	-0.025806237
116	0xbd3103b6	-0.04321643
117	0x3d24a542	0.040196665
118	0x3cd2b0fe	0.025719162
119	0xbc4ea132	-0.012611674
120	0x3d92840f	0.071540944
121	0xbcee3419	-0.029077576
122	0xbca8a627	-0.02058704
123	0xbdc189c8	-0.09450108
124	0xaa80965f	-2.2841708e-13
125	0x3d226395	0.03964575
126	0x277452e2	3.3906733e-15
127	0xbc467354	-0.012112457
128	0xbb61f8cd	-0.0034480572
129	0x3cd628bd	0.026142472
130	0xbd6e6978	-0.05820605
131	0x3d3543af	0.044254
132	0x3de59cf6	0.112115785
133	0xbdcdef47	-0.10055404
134	0xbd7a3d00	-0.06109333
135	0x3ddd8c5b	0.10817786
136	0x3d896011	0.06707776
137	0xbdca3def	-0.09875094
138	0x3c154c66	0.009112453
139	0xbe12ee8c	-0.14348811
140	0x3ce2fec5	0.027709374
141	0x3cd07e43	0.025450831
142	0x3e0143bf	0.126235
143	0x3e044f37	0.12920843
144	0xbe3baaac	-0.18326825
145	0xbd2f48a7	-0.042793896
146	0x3c1e5aab	0.009665172
147	0x3c61031a	0.01373365
148	0x3d567c0d	0.052364398
149	0xbd826e9f	-0.063687555
150	0x3d20c672	0.039251752
151	0xbbff8388	-0.007797662
152	0x3d50a570	0.050939023
153	0x3bbd137f	0.0057701464
154	0x3a5a89db	0.0008336582
155	0x3e12ddd7	0.14342438
156	0x3da587fd	0.08082578
157	0xbe08027d	-0.13282199
158	0xbbc84cd4	-0.0061126743
159	0xbda07319	-0.07834453
160	0xbd35b0a2	-0.044357903
161	0x3da20eea	0.07913001
162	0x3d01b722	0.03166879
163	0x3bc5248f	0.006016321
164	0x3e1e4c32	0.15458754
165	0x3e06bcca	0.13157955
166	0x3c5b23c0	0.013375223
167	0xbca87011	-0.02056125
168	0x3d1be23a	0.038057543
169	0xba967331	-0.0011478422
170	0xbcc88d8f	-0.024481563
171	0x3dc18868	0.094498456
172	0xbdc6322a	-0.09677537
173	0x3d55ffeb	0.052246016
174	0xbd27dacb	-0.04098014
175	0x3b9badc3	0.0047509386
176	0xbe0e8d13	-0.13921003
177	0xbd11ab27	-0.035563614
178	0xbb27daec	-0.0025612665
179	0x3b15e4fa	0.0022872076
180	0xbe264bc8	-0.16239846
181	0x3e0d4ac5	0.13798054
182	0x3d0b2a7c	0.033976063
183	0xbd4b69f2	-0.049661584
184	0x2bad72b2	1.2324224e-12
185	0x3dc725f2	0.09724034
186	0x3bf8dcc5	0.007594677
187	0x3da56fd2	0.08077969
188	0x3de2267f	0.11042499
189	0x3c4c7236	0.012478402
190	0xbce10097	-0.027466102
191	0xa84ea372	-1.1470739e-14
192	0x3bb5bdf2	0.005546325
193	0x3ddd26ee	0.10798441
194	0x3dcc5852	0.09977783
195	0x3da8d9f5	0.08244697
196	0x3da2eece	0.07955705
197	0xbccb995e	-0.024853405
198	0xbd3e41d1	-0.046449486
199	0x3df406db	0.1191537
200	0x3e0bd1e2	0.13654283
201	0x3dbc8078	0.09204191
202	0x3db88565	0.09009818
203	0xbdfb4fab	-0.12271055
204	0xbb008452	-0.001961012
205	0x3ca16288	0.019700304
206	0x3df0677e	0.117384896
207	0x3e25c9e5	0.16190298
208	0xbd7b12e3	-0.06129731
209	0x3b80316c	0.0039121415
210	0xbce8264a	-0.02833857
211	0xbc0d8e47	-0.008639879
212	0x3dc0bc1c	0.09410879
213	0xaa8d4345	-2.509331e-13
214	0x3de4f69f	0.11179852
215	0xbd9a1846	-0.07524161
216	0x3dba70cd	0.09103546
217	0x3bc40cec	0.0059829857
218	0x3bb6dbd5	0.0055804052
219	0x3d949579	0.07255072
220	0xbd4d83df	-0.05017459
221	0xbd9f6ba2	-0.07784201
222	0x3da74bd1	0.08168758
223	0x3db6f040	0.08932543
224	0x3dd9280b	0.10603341
225	0x3c8aaae1	0.016927185
226	0xbd544ff8	-0.051834077
227	0x3cf9b2db	0.030480793
228	0x3e0197da	0.12655583
229	0x3d8bdb14	0.06828895
230	0xbdf9bfc0	-0.121947765
231	0x3e219391	0.15778948
232	0x3dcd8f03	0.10037043
233	0xbcb3bb64	-0.02193994
234	0xbc796c70	-0.015223607
235	0x3e4346f9	0.19070043
236	0xbdc19aed	-0.09453378
237	0xbb991226	-0.004671353
238	0x3ddd2556	0.10798137
239	0xbcebd922	-0.02879006
240	0xb88f949d	-6.846453e-05
241	0x3d7cbba6	0.061702393
242	0x3e4f9f57	0.20275627
243	0xbe1d06c6	-0.15334615
244	0x3d1fc439	0.039005492
245	0xbdad8a0b	-0.08473595
246	0x36492cc6	2.9977396e-06
247	0x3dbd108c	0.09231672
248	0xbd2f77c7	-0.042838838
249	0x3d4e6de5	0.050397772
250	0x3e050381	0.12989618
251	0x3d439ea1	0.047758702
252	0x3817ecf5	3.622189e-05
253	0x3cd9845a	0.026552368
254	0x386cb577	5.6435787e-05
255	0x3d9aa341	0.075506695

act_conv1.bias f4 [4]
0	0xbc9bcf3f	-0.019019721
1	0x3d8764a6	0.06610994
2	0x3d9bdbef	0.076103084
3	0xbd95577e	-0.072920784

act_fc1.weight f4 [36, 144]
0	0xbd007ae4	-0.031367198
1	0xbd45b6e3	-0.048270117
2	0xbd8f644f	-0.07001554
3	0xbcb3bea2	-0.021941487
4	0xbd0e3a7d	-0.034723748
5	0xbd8750f1	-0.06607235
6	0xbcfa246f	-0.030534951
7	0xbd70e95d	-0.058816303
8	0xbd773703	-0.060355198
9	0xbdcb4857	-0.09925907
10	0xbd096f97	-0.033553686
11	0xbdd181f9	-0.102298684
12	0xbde56872	-0.11201562
13	0xbda58e75	-0.08083812
14	0xbdb7ffa8	-0.089843094
15	0xbd3aab57	-0.04557356
16	0xbd3247e4	-0.04352559
17	0xbc64b85b	-0.013959969
18	0xbd0786ee	-0.033087663
19	0xbd1d4f92	-0.038405962
20	0xbcb77727	-0.022395683
21	0xbd0344e2	-0.032048114
22	0x3c0ad463	0.0084734885
23	0xbcade5ac	-0.02122768
24	0x3b32da46	0.0027290746
25	0xbcb77389	-0.022393959
26	0xbd9a80e1	-0.07544113
27	0xbcbbb9f5	-0.02291582
28	0x3ca7a960	0.020466506
29	0x3c1ed414	0.009694118
30	0xbc82032e	-0.015870657
31	0xbd0dbac0	-0.034601927
32	0xbc023bfe	-0.007948874
33	0xbc89232b	-0.016740402
34	0xbcd623b5	-0.026140073
35	0xbd36a9d7	-0.044595566
36	0x3cc9ba84	0.02462507
37	0x3db6693a	0.08906789
38	0x3c83472b	0.016025146
39	0x3d737bf6	0.05944439
40	0x3de0a32a	0.10968621
41	0x3d5c472b	0.05377881
42	0xbd3d1371	-0.04616112
43	0xbc9386f1	-0.018008681
44	0xbd469299	-0.04847965
45	0x3dec3e05	0.11535267
46	0x3ccfed2e	0.02538165
47	0x3c97209f	0.018448172
48	0xbb6a91f9	-0.0035792573
49	0x3cc4ce7a	0.024024237
50	0xbd03c81e	-0.03217327
51	0xbcc5972e	-0.02411994
52	0xbdb6b26c	-0.0892075
53	0x3cdad4ff	0.026712893
54	0x3b5c216d	0.003358926
55	0xbe107bd0	-0.1410973
56	0xbbe75cab	-0.0070606074
57	0x3d4bd25f	0.049761172
58	0x3cd33e11	0.025786432
59	0x3cd142ee	0.02554461
60	0xbcd19118	-0.025581881
61	0x3dabd855	0.083908714
62	0x3b9feecc	0.0048807617
63	0xbd51a907	-0.051186588
64	0xbd2455c2	-0.040120848
65	0xbd54129b	-0.051775556
66	0xbc0bced7	-0.008533201
67	0xbd4cc934	-0.04999657
68	0x3d32ab26	0.04362025
69	0xbbdccd89	-0.006738369
70	0xbdfe2457	-0.12409275
71	0x3cdf12fc	0.027230732
72	0xbddb00d1	-0.10693515
73	0xbd83b13c	-0.06430289
74	0xbdb1708a	-0.08664043
75	0xbd93bf72	-0.0721425
76	0x3d0bee2c	0.034162685
77	0xbd3f7756	-0.046744667
78	0xbde6232e	-0.11237179
79	0xbe22c4b0	-0.15895343
80	0xbdfab7d0	-0.12242091
81	0xbd066139	-0.032807563
82	0xbd5b2ffd	-0.053512562
83	0xbd14c39e	-0.036319368
84	0xbe28ff0b	-0.16503541
85	0xbdd08b63	-0.10182836
86	0xbbe28a30	-0.006913446
87	0xbd92dc61	-0.0717094
88	0xbdab8726	-0.08375387
89	0xbe0906c8	-0.13381493
90	0x3d03b06f	0.032150682
91	0xbe0a4692	-0.13503483
92	0xbdd26aef	-0.10274302
93	0xbd534527	-0.05157962
94	0xbd53f393	-0.051745962
95	0xbdf6c65c	-0.12049553
96	0xbdc295b1	-0.095012076
97	0xbc984a1c	-0.018590026
98	0xbd0f74d7	-0.035023537
99	0xbe31996c	-0.17343682
100	0xbd70fb6b	-0.05883352
101	0xbb886591	-0.0041624983
102	0xbd1a469d	-0.037665
103	0x3ab5e57d	0.0013877597
104	0xbd8c39ec	-0.06846985
105	0xbd7d3e9e	-0.061827295
106	0xbd9e7cdc	-0.07738659
107	0xbd196fcd	-0.037460137
108	0xbd0aa1ba	-0.03384564
109	0xbd35d742	-0.04439474
110	0xbcd25e82	-0.02567983
111	0xbdaa8c20	-0.08327508
112	0xbdc96122	-0.0983298
113	0x3c8cf717	0.017207665
114	0x3cfcf139	0.030876743
115	0xbc0d7dbf	-0.008635937
116	0x3c853016	0.01625828
117	0xbd81d6c6	-0.06339793
118	0xbd2ca8a0	-0.042153
119	0x3cc1f284	0.02367521
120	0xbcac7564	-0.02105207
121	0xbd12ab15	-0.035807688
122	0xbbc1b2ac	-0.005911192
123	0x3d43f8cb	0.04784469
124	0xbcb52b34	-0.022115327
125	0xbd89272b	-0.06696924
126	0xbb326906	-0.0027223243
127	0x3d38bb05	0.04510023
128	0xbaf2e597	-0.0018531558
129	0xbc795588	-0.015218146
130	0x3c834c03	0.016027456
131	0x3d56d11f	0.052445527
132	0x3cc0f1d6	0.023552816
133	0x3c9f7700	0.019465923
134	0x3cf982b7	0.030457838
135	0xbcf0ed2c	-0.029409967
136	0xbd834e6a	-0.06411441
137	0xb85d865c	-5.2815638e-05
138	0x3d888292	0.06665529
139	0x3c9be5a9	0.019030409
140	0xbccdd4fd	-0.025125975
141	0x3cfe76fb	0.031062594
142	0x3a2fed5b	0.0006711089
143	0xbc8bee8f	-0.017081527
144	0xbceee795	-0.029163161
145	0xbc8def27	-0.01732595
146	0x3caf713f	0.021416305
147	0xbd0fc569	-0.035100374
148	0xbce4ea51	-0.027943762
149	0xbcd55f0d	-0.0260463
150	0xbcbe6d40	-0.023245454
151	0xbccac6e2	-0.024753038
152	0xbc620ee1	-0.013797493
153	0xbc80ab85	-0.015706787
154	0xbcba4baa	-0.022741158
155	0xbcf62b87	-0.030050052
156	0xbc501ef4	-0.012702692
157	0xbc153d55	-0.009108861
158	0xbd92d111	-0.071687825
159	0xbcc44ead	-0.023963297
160	0x3c75968a	0.014989505
161	0x3af0bbf0	0.0018366557
162	0xbd38eb0b	-0.04514603
163	0xbc95df8f	-0.018295078
164	0x3ca83ae0	0.020535886
165	0xbba616ee	-0.0050686514
166	0xbd7324a3	-0.05936111
167	0xbd719904	-0.058983818
168	0x3c7dce7a	0.015491122
169	0xbd26ada8	-0.040692955
170	0x3c72efc0	0.014827669
171	0x3c6d3c88	0.014479764
172	0xbbfaa509	-0.0076490683
173	0xbd4d205a	-0.05007968
174	0xbc2b9517	-0.0104725575
175	0x3c9348c0	0.017979026
176	0x3ca7e98e	0.02049711
177	0xbcc0c18f	-0.023529796
178	0x3b1de939	0.002409531
179	0xbd10781b	-0.03527079
180	0xbef28085	-0.47363678
181	0xbd3be5b0	-0.045873344
182	0xbe484a04	-0.19559485
183	0x3e270ea1	0.16314174
184	0x3ded4701	0.115858085
185	0x3e7d5975	0.24741156
186	0xbdca5839	-0.098801084
187	0x3e2c7f70	0.16845489
188	0xbe4288be	-0.18997476
189	0xbde86d00	-0.11348915
190	0xbe13f600	-0.1444931
191	0x3d4e3d77	0.050351586
192	0xbddbac65	-0.10726241
193	0xbd307ecc	-0.043089673
194	0xbd9b70b5	-0.075898565
195	0xbdfcc1f4	-0.12341681
196	0xbd3b9e82	-0.04580546
197	0xbdb7ffee	-0.089843616
198	0xbd69e3d2	-0.057102032
199	0x3ce2bcaa	0.027677853
200	0xbd47a94f	-0.04874545
201	0xbde6f4a3	-0.112771295
202	0xbd89cd68	-0.06728631
203	0xbd699e14	-0.05703552
204	0xbd4d60e5	-0.050141234
205	0xbe4ab24b	-0.19794576
206	0xbd4caac1	-0.04996753
207	0xbc94d6af	-0.018168775
208	0xbc9ca1c6	-0.019120108
209	0xbdf0ac8a	-0.11751659
210	0xbb761764	-0.0037550563
211	0xbcd54da1	-0.026037993
212	0xbe3713c7	-0.17878638
213	0xbce08554	-0.027407326
214	0xbdd27a8f	-0.102772824
215	0xbcfdd46c	-0.03098508
216	0x3e2f3e38	0.17113578
217	0x3e68b572	0.22725466
218	0x3daeecf1	0.08541287
219	0x3db9fd2f	0.09081494
220	0x3df47172	0.119357005
221	0x3e462be4	0.1935268
222	0xbd2b60d4	-0.04184039
223	0xbc5b3db5	-0.013381411
224	0x3d839663	0.06425168
225	0x3e01c907	0.12674342
226	0x3d8b1ad4	0.067922264
227	0x3d01b635	0.031667907
228	0x3d637277	0.055529084
229	0x3d43a8d9	0.047768448
230	0xbc0b2896	-0.008493563
231	0x3cdb2c35	0.026754478
232	0x3bbd5e28	0.0057790466
233	0xbca68e9f	-0.020331679
234	0x3d4ecadf	0.05048644
235	0x3d8add22	0.06780459
236	0xbceecab3	-0.029149389
237	0xbcf5ce22	-0.030005518
238	0x3d035ca2	0.032070763
239	0xbd0eb264	-0.034838095
240	0x3da14760	0.07874942
241	0x3d40b1d6	0.047044598
242	0x3c860659	0.016360449
243	0x3d88b6af	0.06675469
244	0x3c5e5be5	0.013571714
245	0xbccb8c6d	-0.024847234
246	0x3d6206a7	0.055182125
247	0xbc78a390	-0.015175715
248	0xbd4f6991	-0.050637785
249	0xbc605c5b	-0.013693894
250	0x3d9364cb	0.07196959
251	0xbd648e88	-0.05579999
252	0x3bb990ae	0.005662999
253	0xbd3819fd	-0.04494666
254	0xbcc6f75b	-0.02428787
255	0xbd6946bc	-0.056952223

act_fc1.bias f4 [36]
0	0xbcd28023	-0.025695866
1	0x3c9e9652	0.019358788
2	0xbd0d98a4	-0.034569398
3	0xbd3bf717	-0.04588994
4	0xbc3abfab	-0.011398236
5	0xbda0be9d	-0.078488566
6	0xbddf8aa4	-0.109151155
7	0xbc8baa4a	-0.017048974
8	0x3d2b433b	0.041812163
9	0xbcb8b50f	-0.022547273
10	0xbbb3e900	-0.0054904222
11	0x3d2f979b	0.04286919
12	0x3da98d3f	0.08278894
13	0x3d05fbbd	0.03271078
14	0x3ae930a3	0.0017790984
15	0xbbfb1fbc	-0.007663695
16	0x3cbf8220	0.023377478
17	0x3d33df9b	0.04391442
18	0x3ce9962e	0.028513994
19	0x3ca6f8ca	0.020382304
20	0xbd15653c	-0.036473498
21	0x3d183538	0.03716013
22	0x3c07a10d	0.008278144
23	0x3da645d2	0.08118786
24	0xbcc09002	-0.023506168
25	0xbce96153	-0.02848879
26	0x3e060820	0.13089037
27	0xbd5c8eb0	-0.053847015
28	0x3d2da90e	0.04239755
29	0xbc7b84dc	-0.0153515
30	0xbddec380	-0.108771324
31	0x3c75f68a	0.015012393
32	0x3c839242	0.016060952
33	0xbc856efd	-0.016288275
34	0xbc8a688e	-0.016895559
35	0x3d283aba	0.04107163

val_conv1.weight f4 [2, 128, 1, 1]
0	0xbdb4e729	-0.08833153
1	0xbbc369b9	-0.005963531
2	0x3d66cc87	0.056347396
3	0xbdb7aff9	-0.08969111
4	0x3d66b2d6	0.056322895
5	0xbdf23718	-0.118269145
6	0x3d863380	0.065527916
7	0x3c67de75	0.014152159
8	0x3d6fd86b	0.058556
9	0x3ab942c9	0.0014134283
10	0x3d1964b2	0.037449546
11	0xbd1d9960	-0.038476348
12	0x3b18c373	0.0023309856
13	0x3daf9960	0.08574176
14	0x3dd001c4	0.10156587
15	0xbdc3af1e	-0.09554885
16	0x3d75e0be	0.060028784
17	0xbd9687aa	-0.073500946
18	0x3d4c36d6	0.049856983
19	0x3d36dd55	0.044644672
20	0xbda10ea3	-0.0786412
21	0x3cb4c2a9	0.022065477
22	0x3bd0f9d4	0.006377438
23	0x3d86f2d1	0.06589282
24	0x3d26678a	0.040626086
25	0x3cd471d0	0.025933176
26	0xbdc6f0cf	-0.09713899
27	0xbb382882	-0.0028100316
28	0xbdaa090d	-0.083025075
29	0x3d8b6dd2	0.06808056
30	0x3d07a66b	0.033117693
31	0x3d40eb63	0.047099482
32	0xbbdea48d	-0.0067945183
33	0x3cdd30c9	0.027000802
34	0xbd3763f2	-0.04477305
35	0xbde845d8	-0.11341447
36	0x3d57039a	0.05249367
37	0x3de246a7	0.11048632
38	0x3d8b591b	0.06804105
39	0x3d965233	0.07339897
40	0xbdca89c6	-0.098895594
41	0xbc756c3e	-0.01497942
42	0x3c5637c7	0.013074822
43	0x3ccc812a	0.024963934
44	0xbe031be8	-0.12803614
45	0x3b0f616d	0.0021878139
46	0xbd2856f4	-0.04109855
47	0x3c9217de	0.017833646
48	0xbe0ca26e	-0.13733837
49	0xbcdc6776	-0.026904803
50	0xbcf050b3	-0.029335355
51	0x3c7f3a12	0.01557781
52	0x3bd1d888	0.0064039864
53	0x3d6c7602	0.05772973
54	0x3d1563bc	0.036472067
55	0x3daa45fb	0.08314129
56	0xa8aaf20b	-1.897876e-14
57	0x3c5785ae	0.01315443
58	0x3d7eaf4e	0.062178902
59	0x3d75a917	0.05997571
60	0xbc688c85	-0.014193659
61	0x3d83da9f	0.06438183
62	0x3d98b073	0.0745553
63	0xba0fa82b	-0.0005480076
64	0xbc7a8a21	-0.015291722
65	0xbb9b083c	-0.004731206
66	0x3d5f3b57	0.05449995
67	0x3c0c1a51	0.008551196
68	0xbdea2c27	-0.11434203
69	0x3aa4edaa	0.0012583036
70	0x3c66178b	0.014043699
71	0x3d7c9cca	0.061672963
72	0x3d679711	0.056540553
73	0x3dad326c	0.08456883
74	0x3d1cc08d	0.03826957
75	0xbd7d8fed	-0.061904836
76	0xbd884e5a	-0.066555694
77	0xbe1a2ceb	-0.15056197
78	0xbcf79bc6	-0.030225646
79	0x3dceecef	0.10103785
80	0xbd8621a2	-0.06549384
81	0xbd0b2151	-0.03396732
82	0xbe34ba6f	-0.17649244
83	0xbae1942a	-0.0017210294
84	0xbd81cbd2	-0.06337704
85	0x28332e26	9.946503e-15
86	0xbddcb781	-0.10777188
87	0x3de1ec7d	0.11031435
88	0x3dc82a6e	0.09773718
89	0xbdf730f8	-0.12069887
90	0x3d0e2a46	0.034708284
91	0xbc9c334f	-0.019067435
92	0xbcb3cead	-0.021949137
93	0x3d913bd8	0.070914924
94	0xbd98db4a	-0.07463701
95	0xbc56a9b3	-0.013101983
96	0xbb6e8478	-0.0036394875
97	0xbe1067ab	-0.14102046
98	0x3cd721f1	0.026261302
99	0xbcae2d0a	-0.02126171
100	0xbdae976d	-0.08524976
101	0xbdafd964	-0.08586386
102	0x3c39ed04	0.011348013
103	0xbd121ab2	-0.03566999
104	0xbd45e658	-0.048315376
105	0xbd004bc4	-0.031322256
106	0x3d5b520c	0.053545043
107	0xba454307	-0.00075249415
108	0x3d7e8e86	0.06214764
109	0xbd0790f2	-0.033097215
110	0x3d5f5625	0.054525513
111	0x3d370382	0.04468108
112	0x2b3a7a3b	6.6250103e-13
113	0x3d31c511	0.043400828
114	0x3d7e4b22	0.06208337
115	0xbe148e67	-0.14507447
116	0x3d9f3098	0.077729404
117	0x3bf730a4	0.00754364
118	0x3c063b59	0.0081928605
119	0xbd90d1a0	-0.07071233
120	0x3d0417c6	0.032249235
121	0xbe0b8c53	-0.13627748
122	0x3cc61f6e	0.024184909
123	0x3cf4c237	0.029877765
124	0x3935d1ad	0.00017339615
125	0x3cd2259a	0.025652695
126	0xb696d49a	-4.4950984e-06
127	0xbc738115	-0.0148623185
128	0x3c2ec71c	0.010667589
129	0x3ca8c721	0.020602765
130	0xbd3d7f2d	-0.046263862
131	0xbd900809	-0.070327826
132	0xbdae3c6f	-0.085076205
133	0x3d5a4292	0.053286143
134	0x3d2ad036	0.04170247
135	0x3d973325	0.07382802
136	0x3d1a54a0	0.03767836
137	0xbc344053	-0.011001664
138	0xbb57ce1f	-0.0032929254
139	0x3d2a3ec6	0.04156377
140	0xbd081fec	-0.033233568
141	0xbbbcc7fa	-0.0057611438
142	0xbe0120e1	-0.12610199
143	0xbdc3c043	-0.095581554
144	0xbdda8b0e	-0.10671054
145	0x3d03e697	0.03220233
146	0x3cc080eb	0.023498973
147	0xbd366e96	-0.044539057
148	0x3d18dadb	0.03731809
149	0x3cba9669	0.0227768
150	0x3ca06954	0.019581474
151	0x3d3d717a	0.046250798
152	0xbb22e2de	-0.0024854462
153	0xbd9b40be	-0.07580708
154	0xbc79f095	-0.015255113
155	0xbd5a1097	-0.053238478
156	0xbd1ffb3f	-0.039057966
157	0xbd116161	-0.03549326
158	0x3caee966	0.021351527
159	0x3cbd5591	0.02311209
160	0x3a7a2ed0	0.0009543719
161	0x3d681100	0.056656837
162	0x3cf55728	0.029948786
163	0xbc21f932	-0.009886073
164	0x3cf6122e	0.030037966
165	0x3db6e0f6	0.08929627
166	0xbdd2ed72	-0.10299195
167	0xbd989010	-0.07449353
168	0x3d18d3ed	0.037311483
169	0x3d1f71bc	0.038926825
170	0x3ce6b63d	0.02816307
171	0x3d88fe55	0.06689135
172	0x3d3f070c	0.04663758
173	0x3bdade91	0.006679364
174	0x3d94b96e	0.072619304
175	0x3cd0fb5a	0.025510479
176	0x3c742296	0.014900824
177	0xbc75e3f6	-0.015007963
178	0xbd8371b6	-0.06418173
179	0xbdb458d5	-0.08806006
180	0x3cf8cba8	0.030370548
181	0xbb86dac5	-0.004115435
182	0x3d1c8904	0.038216606
183	0xbb063515	-0.0020478417
184	0x2d20b8af	9.135955e-12
185	0xbd0fc00e	-0.035095267
186	0x3b746cf1	0.003729638
187	0x3d630fba	0.05543492
188	0x3d1d3c06	0.03838732
189	0x3becdfee	0.007228843
190	0x3b99d948	0.0046950914
191	0x36cdd26c	6.1339724e-06
192	0x3ca185cb	0.019717118
193	0x3d3f7433	0.046741676
194	0xbe053a91	-0.13010623
195	0xbdc30565	-0.09522513
196	0x3d1f4903	0.03888799
197	0xbd27ea54	-0.040994957
198	0xbc8a5830	-0.016887754
199	0xbd9db937	-0.077013426
200	0xbc246f61	-0.01003632
201	0xbe28ffab	-0.1650378
202	0x3c12abab	0.008952062
203	0xbc418eca	-0.011813829
204	0x3d367e18	0.044553846
205	0xbc072113	-0.008247632
206	0x3d6a5c57	0.05721697
207	0xbdd5b974	-0.10435763
208	0xbc3eb31c	-0.011639383
209	0xbdb3a016	-0.08770768
210	0xbca06207	-0.019577993
211	0xbb7a1bed	-0.0038163618
212	0x3d1f72cd	0.038927842
213	0x2b9e30b5	1.1240094e-12
214	0x3ce85e93	0.028365409
215	0xbd925679	-0.071453996
216	0xbda1305a	-0.078705505
217	0x3d902222	0.0703776
218	0xbd7822d6	-0.060580097
219	0xbd092705	-0.033484478
220	0x3b8d930b	0.0043205074
221	0xbb6e072d	-0.0036320195
222	0x3d8017f9	0.062545724
223	0x3d5864f4	0.05283065
224	0xbd95c697	-0.07313269
225	0xbbf27f29	-0.0074004126
226	0x3d05f690	0.032705843
227	0xbdcd3dfd	-0.10021589
228	0xbdb11b9a	-0.08647843
229	0x3d8e4986	0.06947617
230	0x3d6630f9	0.056199048
231	0x3db29fa3	0.087218545
232	0x3c2d9889	0.010595449
233	0xbdb665c3	-0.08906128
234	0x3db9a4aa	0.0906461
235	0x3d2c45d5	0.042058785
236	0x3d41b8cf	0.047295388
237	0x3b97e2df	0.0046351994
238	0xbe1436bf	-0.14474009
239	0xbd5b964f	-0.053610142
240	0xb9901fef	-0.00027489613
241	0xbd97816b	-0.073977314
242	0xbcf9dc76	-0.030500632
243	0xbd869de8	-0.06573087
244	0x3dd87632	0.10569419
245	0xbd295fa9	-0.041350994
246	0xbb9695b9	-0.004595485
247	0xbd408611	-0.047002856
248	0xbd846020	-0.06463647
249	0x3b4c19dc	0.0031143343
250	0x3d205a21	0.039148454
251	0x3d12b70f	0.03581911
252	0xbac45ecd	-0.0014981866
253	0xbdefe841	-0.11714221
254	0x369e69cc	4.7210833e-06
255	0x3bb1cb75	0.0054258653

val_conv1.bias f4 [2]
0	0x3d10e580	0.03537512
1	0x3d9d61df	0.07684683
