models/Training/AC_nmcts20/train_043.pth (torch, 424031 bytes, 15 tensors)

conv1.weight f4 [32, 5, 3, 3]
000000 9d 1e 7e 3d 0c 25 1a be 8b e1 81 bc 90 66 2a 3e
       0.062040914 -0.15053195 -0.015854618 0.16640687
000010 31 f1 51 be 60 b3 23 3c d0 fb c9 3d 22 00 ff bd
       -0.20502163 0.009991497 0.098624825 -0.12451197
000020 a4 0c 05 3d 8c f5 99 3c f8 bd f5 bb c5 9c 28 3e
       0.03248276 0.018793844 -0.0074994527 0.16466053
000030 94 9e 49 3d d5 3d 10 be f7 82 02 3e 47 72 83 ba
       0.049223498 -0.14086087 0.12745272 -0.0010028564
000040 6b 7b 28 bc 0f 1a f1 3d e7 ea 52 33 18 53 a8 2e
       -0.010283331 0.117725484 4.9108078e-08 7.654516e-11
000050 29 ff a9 2f 93 f2 30 b2 fc e6 15 b1 9d b6 d1 34
       3.0922223e-10 -1.0299703e-08 -2.1813653e-09 3.9062152e-07
000060 02 17 12 35 e7 f4 31 b0 a8 49 f0 ac 4f a3 02 3e
       5.442272e-07 -6.474025e-10 -6.8293877e-12 0.1275761
000070 e5 a8 21 3d f4 91 20 bd 59 18 07 be 18 69 ea bd
       0.03946771 -0.03920169 -0.13192882 -0.11445826
000080 73 18 84 3c da cf 44 3d 01 08 ff bd 87 01 cf 3d
       0.01612494 0.048049785 -0.124526985 0.10107713
000090 9e 2b 7d 30 9a 05 8d 32 9e 97 d9 af 58 0d 80 30
       9.210285e-10 1.6417108e-08 -3.95798e-10 9.317018e-10
0000a0 5c d4 fa b6 14 d2 06 b0 e8 16 ee 2d 1f 7f 8f 30
       -7.4753025e-06 -4.9047455e-10 2.706764e-11 1.0440749e-09
0000b0 8c c1 00 35 2c de 7f bc 6c d6 3f 3e fd 9b e1 3d
       4.7965364e-07 -0.015616935 0.18734139 0.110160805
0000c0 c4 86 00 3c 20 2e c0 3c ae 7f f4 bc 4a 2e d3 3d
       0.007844631 0.023459494 -0.029846039 0.10311563
0000d0 60 97 de 3d a7 5f 0d 3e 8e 22 08 3d 3d e0 4e be
       0.10868716 0.1380602 0.03323608 -0.20202728
0000e0 ad 4e 6e bc a4 46 22 3b 2d 5d 26 3d 82 eb df 3c
       -0.014545125 0.0024761343 0.040616203 0.027333979
0000f0 51 5c 82 bd 59 af 8f bd 94 c5 ba 3d 35 96 0f b3
       -0.06365264 -0.07015867 0.09119716 -3.3431395e-08
000100 ac 73 ff b1 0a 5f 1a 2f 11 8c 34 b9 ca 2f ad af
       -7.434627e-09 1.4039983e-10 -0.00017218316 -3.1502473e-10
000110 68 19 31 af ef 29 2c b9 f6 ca 72 2f 90 9c 51 32
       -1.6107082e-10 -0.0001641882 2.2081878e-10 1.2200999e-08
000120 6d 68 09 be 17 4e 0e 3e c2 74 93 bd a3 46 ea bc
       -0.13418742 0.13896976 -0.07200004 -0.028598135
000130 41 51 13 be 59 70 ca bd 04 78 c7 bd af 47 d2 3d
       -0.14386465 -0.0988471 -0.09739688 0.10267579
000140 cd 15 c7 bb df e7 bd b0 eb 8b be 3a 1d 19 cc b1
       -0.006075597 -1.3817462e-09 0.0014537548 -5.9400365e-09
000150 8a ce 63 30 f2 2f d3 32 3c ea fb b9 35 f1 95 33
       8.287563e-10 2.4585436e-08 -0.0004804897 6.9822285e-08
000160 e0 73 e9 38 b7 e9 82 b1 e8 94 5b bd 59 b3 0d 3d
       0.00011131889 -3.8100683e-09 -0.053608805 0.034594867
000170 45 e2 1d 3e a7 e6 d2 3c b3 58 0d 3d 14 04 36 3e
       0.15418346 0.02574475 0.03450842 0.17774993
000180 d5 4e 61 bd c4 60 08 be ce d8 d6 3c ad d4 a5 bc
       -0.05500682 -0.13318163 0.026226427 -0.020243013
000190 48 28 d6 bc 45 d4 bc bd 81 be e4 bc 4c 2e b6 bc
       -0.026142254 -0.09220175 -0.02792287 -0.022238873
0001a0 79 36 92 3d ca e6 1e 3e 50 3b bb 3b d7 92 60 3d
       0.07139296 0.15517727 0.0057138577 0.054827537
0001b0 bc f8 8d 34 48 74 d0 b3 a4 ad 75 2f 0d c2 63 2f
       2.6444275e-07 -9.706906e-08 2.234431e-10 2.071447e-10
0001c0 5f 1a 2c 38 e2 26 a9 ba d3 74 7b 31 c8 62 5f 31
       4.1032556e-05 -0.0012905265 3.6591714e-09 3.2506922e-09
0001d0 78 e3 e3 2d 42 00 ce 3d ab 59 8b bc ab b3 ce bd
       2.5907929e-11 0.10058643 -0.01701053 -0.10092863
0001e0 79 5d af bd 0c f1 df bc 48 ac a9 3d b2 ce 85 3d
       -0.0856275 -0.02733662 0.08284813 0.065335646
0001f0 6a 61 c3 39 24 34 0b 3d 22 1f 79 34 b3 78 60 39
       0.00037265877 0.033985272 2.3201258e-07 0.00021407269
000200 06 89 a2 31 b4 cb a2 ba 40 09 bb 2a 6e a7 86 ba
       4.7303983e-09 -0.0012420327 3.3224291e-13 -0.0010273287
000210 e3 73 77 b8 01 dd ad 2e b4 0f f1 30 91 c4 89 3d
       -5.8997317e-05 7.9063874e-11 1.7539521e-09 0.06726945
000220 48 44 06 be c2 f4 60 bd b5 bd 02 3d c3 9d 29 3d
       -0.13111985 -0.05492092 0.0319192 0.04141022
000230 23 a3 d1 bc 4d 26 05 3e 91 23 58 3e 6b 5b 23 3e
       -0.025590485 0.13002892 0.21107318 0.15952842
000240 1c 19 41 3d fc bc 78 3c 25 01 a9 bd 72 67 b8 bb
       0.047143087 0.015181776 -0.082521714 -0.005627566
000250 76 2c 3c be c3 33 11 be 14 4b a3 3d 9e 53 05 3d
       -0.18376336 -0.14179902 0.079733044 0.032550447
000260 1a 3a 1f be ad 7a 2e 34 97 07 84 af 58 75 26 b3
       -0.15549508 1.6249642e-07 -2.4016053e-10 -3.875661e-08
000270 7d cc 54 b0 db 1d ab 34 5a e9 8e b3 f1 a2 89 31
       -7.7415746e-10 3.1872955e-07 -6.654837e-08 4.005749e-09
000280 64 b6 02 32 60 7e 97 b8 dd d6 2d 3d d5 71 e9 3d
       7.608467e-09 -7.22378e-05 0.042441238 0.11398665
000290 7a 31 b4 3d f4 5c 32 be 85 16 dc 3d db 5f 18 3c
       0.087984994 -0.17418271 0.10746483 0.0093001975
0002a0 ff f6 3e 3d 40 01 8f 3d b6 c6 7b bb 08 b9 88 3a
       0.046622273 0.0698266 -0.0038418001 0.001043112
0002b0 5d 82 46 b4 9c 7f e9 34 00 25 30 aa f4 08 07 b4
       -1.8487613e-07 4.349248e-07 -1.5644777e-13 -1.2576112e-07
0002c0 e1 96 52 b1 d8 a4 b6 30 f5 4f 2e 3a 09 c3 9d 2f
       -3.0644787e-09 1.3289094e-09 0.0006649488 2.8696714e-10
0002d0 46 33 15 3e bd d1 5f bd 36 bc 02 3e 97 ad 3b 3d
       0.1457034 -0.05464338 0.1276711 0.045819845
0002e0 62 c7 4a bc dd 9c 2c 3d 57 7c df 3c 20 7a 10 3d
       -0.012376638 0.042141784 0.02728097 0.035272717
0002f0 2a 1a 24 be b4 d4 eb 3d 2d 1e 00 be 96 5c a2 3d
       -0.16025606 0.11515179 -0.12511511 0.079278156
000300 be 5f 66 3d 08 64 82 3d 39 00 e4 3d ae 61 d7 3d
       0.05624365 0.06366736 0.11132855 0.10516678
000310 d2 91 1a 3d 7b 38 f6 bd b8 a0 d6 31 50 8b 1b af
       0.03773672 -0.120224915 6.2464913e-09 -1.4146662e-10
000320 23 ef 06 36 12 2a c2 ba 4e 02 05 34 eb 30 e5 2f
       2.0106752e-06 -0.0014813563 1.2387429e-07 4.1689616e-10
000330 9c fa c9 b7 73 dd fb 33 8a f1 48 ad cc 46 0a 3e
       -2.4077766e-05 1.172838e-07 -1.1422316e-11 0.1350357
000340 b7 0d dd bc 20 19 03 3e 34 fd bc bb 48 c8 2a 3d
       -0.026984079 0.12802553 -0.005767489 0.04169491
000350 c8 02 29 3e 12 25 ee 3d 87 a1 2b 3d 6f b9 98 bc
       0.16504967 0.11628164 0.04190209 -0.01864311
000360 e5 6e 37 2f 07 c7 82 b1 fc 0f 7e 30 8c 9a 18 b4
       1.6683151e-10 -3.8061247e-09 9.2427377e-10 -1.4212327e-07
000370 ce af 70 af 1c 86 9a b0 4f 12 92 b2 c0 8e 87 b6
       -2.1890331e-10 -1.1243091e-09 -1.7004963e-08 -4.039932e-06
000380 0c 61 9f 3a 44 1b a0 3d 5b 7c 16 3e a4 40 11 3e
       0.001215966 0.078177005 0.14695875 0.14184815
000390 dc 61 26 3e 60 31 96 bd ec 7a 83 bc 02 7a 03 3e
       0.16248268 -0.07333636 -0.016049825 0.12839511
0003a0 73 ea 35 3e 5a b5 ac bd 00 4e bc 3d 07 71 ca 3d
       0.17765217 -0.084330276 0.09194565 0.098848395
0003b0 56 5c bb 3c 55 15 be 3c e1 44 0a be ce 28 a5 bd
       0.022871178 0.023203531 -0.13502838 -0.080644235
0003c0 db ca 93 3d 9b a8 bc bd c6 da 43 bc 02 7e 9e b9
       0.07216426 -0.092118464 -0.011954015 -0.00030229992
0003d0 46 dc 44 32 1d 64 c0 38 df 6f 3c 2f 4e 8f 36 b9
       1.1458786e-08 9.173921e-05 1.7138245e-10 -0.00017410258
0003e0 c2 37 66 34 90 6f 51 32 ab 4f 39 b6 41 26 92 33
       2.1440704e-07 1.21907675e-08 -2.761352e-06 6.805613e-08
0003f0 ac 2c 42 3c 99 47 8d 3d fa 37 b9 3c 4b 6a 81 3d
       0.011851471 0.06898422 0.0226097 0.06319102

conv1.bias f4 [32]
000000 85 4e f7 3d 5d 0d 41 3c 99 5e 00 bd 66 99 cf 3d
       0.12075523 0.011782971 -0.031340215 0.1013668
000010 6e 4e 9a bd f8 e5 14 be 17 9b a0 bc ce a8 af 3d
       -0.075344905 -0.14540851 -0.019605203 0.08577119
000020 28 14 86 3d e4 54 ea bd 96 a9 38 3e 79 2f 5a bd
       0.06546813 -0.11441973 0.18033442 -0.05326793
000030 fb 7f 22 3e ff df 10 3e 92 3d c6 bd e7 98 2b bd
       0.15869133 0.14147948 -0.09679712 -0.041893866
000040 72 bb 2c bd f1 f2 93 bd af 27 48 bd f9 b9 26 3e
       -0.04217095 -0.07224072 -0.04886597 0.1628188
000050 a3 e2 69 bd 69 31 85 3d 00 ee 70 b7 c7 d3 99 bd
       -0.057100903 0.06503565 -1.4360528e-05 -0.075110964
000060 cb a2 89 bd 43 ab a0 3d b9 52 f7 bd ea 45 21 3e
       -0.067205034 0.078451656 -0.12076325 0.15749326
000070 c9 b6 fd 3d d1 62 8a bd 33 9c dd bd a7 56 cc 3d
       0.12388379 -0.06757129 -0.10820808 0.09977465

conv2.weight f4 [64, 32, 3, 3]
000000 02 2d d8 bc 03 2e fe 3c cd 89 86 bb d8 cb 12 3d
       -0.026388649 0.0310278 -0.0041057826 0.03583893
000010 c2 98 5d bd 89 7f 62 bd 33 58 56 bd 18 7e 6e 3c
       -0.05410076 -0.05529741 -0.052330207 0.01455643
000020 0f 81 9d bc 55 ec 46 bd 41 2b 2f bd 56 4c 16 bd
       -0.019226579 -0.048565228 -0.04276586 -0.036693893
000030 db a1 e6 3c 9c 62 00 3d 51 53 13 3d e9 bb d4 3c
       0.02815335 0.03134404 0.03596813 0.025968509
000040 11 c1 aa 3c 6b ad 85 3d fb c6 71 bd 8f f4 49 bd
       0.020844014 0.065272175 -0.059027653 -0.049305495
000050 2c 12 27 bd d4 cb 70 3c 18 31 3e 3d 5f 85 a1 ba
       -0.040788814 0.014697034 0.04643354 -0.0012323073
000060 82 6e 2e 3b ce 70 1a 3c c2 b5 5d bd b7 6d a6 bd
       0.002661616 0.009426309 -0.054128416 -0.08126395
000070 ea 48 5a bc c5 0c ef 3c cb 9d 14 bb 84 ec 19 bb
       -0.013323048 0.029180894 -0.002267706 -0.0023486922
000080 92 3b df b8 fd 10 08 3d d1 f0 ab 3c 1f 45 4c 3d
       -0.000106445645 0.033219326 0.020988854 0.049870607
000090 a5 df 44 bb 9b 3d 10 3d e8 2c 4f bd 4a 60 ae 3c
       -0.003004053 0.035215 -0.050579935 0.021286149
0000a0 24 1c 51 3d 04 e1 e2 bc f5 45 72 ba 2a 3c 7d ba
       0.051052228 -0.027695186 -0.0009241992 -0.0009660149
0000b0 45 ef 04 bd 46 bc 62 bd d0 b3 8c bc 2d 46 f5 ba
       -0.032454748 -0.055355333 -0.017175585 -0.0018712931
0000c0 94 79 59 bd f6 91 0c bd 61 95 16 bb 94 f6 f5 bc
       -0.05309446 -0.034318887 -0.002297722 -0.030024804
0000d0 de e3 7d 3d 7e 65 d6 3c 23 75 79 bc 77 eb 45 bd
       0.06198489 0.026171442 -0.0152256815 -0.04832026
0000e0 85 bd 94 bd 6b cf 7e bb 8b 68 cd 3c 01 7b dd bb
       -0.072627105 -0.0038880955 0.025074264 -0.006759048
0000f0 27 94 cd 3c 3c 3e dc bc ad cc 0a bd da 59 9f 3c
       0.025095059 -0.026885144 -0.0338866 0.019452024
000100 c2 7c ee bc 47 82 df 3c 0c 51 23 bd 84 c5 b5 3d
       -0.029112224 0.0272838 -0.039872214 0.08875564
000110 a3 17 1e 3d cd cd 42 3d 8e 8a 22 bc f4 e3 c3 bb
       0.03859676 0.04755955 -0.009920729 -0.005978102
000120 62 aa b6 bd 8d 94 95 bc 51 82 f8 3b 5a 1f 84 bd
       -0.08919217 -0.018259311 0.0075838943 -0.06451292
000130 00 d8 79 3d 7c 59 9b bd 4c a5 15 bd 06 e2 10 3d
       0.06099701 -0.07585427 -0.036534593 0.035371803
000140 6d a0 24 3d 8d 68 8c bb 3c 70 84 bd c0 cb d7 bc
       0.040192056 -0.0042849244 -0.064667195 -0.026342273
000150 41 fe ed 3c a7 f1 91 bd e9 03 27 bd a7 80 25 3d
       0.029051902 -0.0712617 -0.040775213 0.040405896
000160 c5 64 37 3d 42 4e 58 bc 84 1f 78 bd e6 e3 ca 3c
       0.044773836 -0.013202252 -0.06057693 0.024766874
000170 e0 8e 79 bd b1 68 71 bd 6c a4 7b bd dd 08 b2 bd
       -0.06092727 -0.058937732 -0.0614361 -0.08693097
000180 67 9e 37 bd 53 6d ca bc 21 cc d9 bc 82 00 df 3b
       -0.0448288 -0.024710333 -0.026586594 0.0068054805
000190 a7 48 47 3d 5d 04 d6 bc 84 21 8c bd 92 35 80 3c
       0.04865327 -0.026125127 -0.0684233 0.015650544
0001a0 54 a6 2e 3d ce 94 c4 bc 23 95 e0 3c 40 8a 66 bd
       0.04263909 -0.023996737 0.027414864 -0.05628419
0001b0 e3 92 c4 bd 36 87 15 bd 04 dc a3 bd 23 6c b3 3b
       -0.09598329 -0.0365059 -0.08000949 0.0054755374
0001c0 28 ca 81 3d 84 f6 ba bd 5b fd 3a bd 7a cf 55 bd
       0.06337386 -0.091290504 -0.045651775 -0.05219982
0001d0 f0 91 b6 ba 06 f8 99 bd 70 7b 6b bd 61 fb 1a 3d
       -0.0013928991 -0.0751801 -0.057490766 0.03783739
0001e0 82 6d 94 bd 41 b6 05 3d 1b cc 94 bc e9 78 37 bd
       -0.072474495 0.032644514 -0.018163731 -0.044793043
0001f0 6e c6 b7 3b b7 9f 4a bc d5 f8 d8 bc d7 72 2c 3c
       0.0056083715 -0.012367181 -0.02648584 0.010525427
000200 59 01 68 bd ee 0d 8e bd 80 33 fb bc 76 20 c6 3b
       -0.05664191 -0.069362506 -0.030664206 0.00604635
000210 e6 fe a2 bd 9c e1 9a bc d7 ea 21 3c db 2e 47 bd
       -0.07958774 -0.018906407 0.00988265 -0.04862867
000220 a0 54 15 bd 1f 16 19 bd b0 d8 46 bd 61 5e 53 bc
       -0.036457658 -0.037374612 -0.048546493 -0.01290092
000230 dd eb 1b bd 2a 9b b7 bc c1 2d 4e bd 86 fe 72 bd
       -0.038066734 -0.022412855 -0.050336603 -0.059324764
000240 03 ed 48 3d 60 34 2f bd e4 7a 87 bd 3b 02 3b bd
       0.049054157 -0.042774558 -0.066152364 -0.045656424
000250 8a e7 7b bd 8a 28 f4 bc 46 74 3d bc 93 c6 61 3c
       -0.06150011 -0.029804487 -0.011563366 0.013780254
000260 0e 7e b1 bc 48 ae 4b bd 5b 51 c5 3c 7b c0 57 b9
       -0.021666553 -0.049726754 0.024086645 -0.00020575702
000270 90 1e 89 bd 8c d1 a0 bb f3 5a 87 3d b0 6c 1f 3b
       -0.066952825 -0.0049077924 0.06609144 0.0024326257
000280 8d 9e 39 3d 39 4a 78 bd bf 9b 10 bd 87 c0 fa 3b
       0.04531722 -0.06061766 -0.03530478 0.0076523456
000290 4b 79 5f 3d 9e 7e 38 bc 43 dc 75 bd 91 5c 14 3c
       0.054559033 -0.011260657 -0.06002451 0.009055273
0002a0 30 02 58 3d f8 e1 f5 bc d5 ad 72 3c f9 69 ca 3c
       0.05273646 -0.030014977 0.014811953 0.024708735
0002b0 a4 bf 98 bd 7a e7 53 bd cf 4e 72 bc 18 3d 40 3d
       -0.074584275 -0.051734425 -0.014789297 0.046933264
0002c0 5a 3a de bc c9 56 9a bb f2 c6 35 bd 46 f8 c4 bd
       -0.027127434 -0.0047100526 -0.044379182 -0.09617667
0002d0 ff b0 88 bd d1 ea dd 3c b4 a1 d0 b6 83 65 bf bc
       -0.06674384 0.027089508 -6.217708e-06 -0.023363834
0002e0 d2 45 67 3d 54 62 14 3c e9 16 e2 3a eb 6d f8 3a
       0.05646307 0.009056646 0.0017249259 0.0018953657
0002f0 a9 b6 d2 bc 17 86 b5 bb 1d d9 1f 3c 29 9d 41 bd
       -0.025721865 -0.0055396664 0.009756354 -0.04726902
000300 55 06 74 bc fd a8 8d 3d f5 80 68 bc be 60 86 bc
       -0.014894088 0.069169976 -0.014190902 -0.016403552
000310 1c 2c 93 bd 1c 90 9b bd ff 5f 32 3d 96 de 19 bc
       -0.071861476 -0.07595846 0.04354858 -0.0093914475
000320 3b e9 46 bc c8 19 5e bd 13 22 01 bd 13 02 6f bc
       -0.012140567 -0.054223806 -0.031526636 -0.014587897
000330 e0 bf 93 bd c4 5f 10 3c 22 59 66 bd fe c8 25 3d
       -0.072143316 0.008811895 -0.056237347 0.040474884
000340 5c 05 01 bd 18 b1 7f bd e0 80 ba 3c 8f 17 d8 3b
       -0.03149925 -0.06242475 0.02276653 0.0065946053
000350 c0 44 63 bd b6 a5 5c 3c 69 cb 7e 3d 4a 45 ab 3d
       -0.055485487 0.013467243 0.062205706 0.08362825
000360 aa 3c 91 3c 89 c0 54 bb c6 ee 7f 3c 2b ea 42 bd
       0.017729122 -0.0032463393 0.015620893 -0.0475866
000370 bb 9d ad 3c 60 32 39 bd bf 29 29 3c 6e 31 c3 bc
       0.021193376 -0.045214057 0.010324894 -0.02382728
000380 8c 4c 03 bd ba a1 0b 3c 35 84 44 3d a8 7d 68 ba
       -0.032055423 0.008522445 0.047977645 -0.0008868822
000390 6c 63 02 bc dd be 14 bd ea 09 60 bd c4 17 d9 3c
       -0.007958274 -0.036314834 -0.054696955 0.02650059
0003a0 4a 58 29 ba 9c 6c bb 3c dc 55 9e 3b 3b 17 2e 3d
       -0.00064599945 0.022878937 0.0048320126 0.042502623
0003b0 e2 27 6f bc 48 4f 25 3d 2a e7 b1 bc f5 6b 56 3d
       -0.014596911 0.04035881 -0.021716673 0.05234905
0003c0 2d 87 2b 3d 94 be 9b bc d6 f1 48 bc d7 76 77 bb
       0.04187696 -0.019011773 -0.012264689 -0.0037760043
0003d0 4a fe 81 bd cc f5 b1 bc d7 39 49 3c 60 76 41 bd
       -0.0634733 -0.02172365 0.0122818565 -0.04723203
0003e0 ca 5c e4 bb 7b 1a 5f bd e5 48 07 bd 3d b2 3f bd
       -0.006969069 -0.054468613 -0.033028502 -0.04680084
0003f0 5a 54 0c bd cf 1a fa 3c f3 48 52 3d b3 e4 95 3c
       -0.03426013 0.030530361 0.0513391 0.018297529

conv2.bias f4 [64]
000000 c1 ce cd 3c 7c a3 2c 3c af 68 92 bd 77 62 62 bd
       0.025123002 0.010537025 -0.07148873 -0.055269685
000010 4b ec 17 bc 89 c3 8f 3d 74 b9 62 3d 51 ed b6 3c
       -0.009272645 0.07019717 0.055352643 0.022329958
000020 1e 17 cb bc fe ed a6 3d e6 d5 f3 bc 65 59 14 bd
       -0.024791297 0.08150862 -0.02976508 -0.036218066
000030 cd 75 4c 3d 01 b8 2d bd 48 b7 80 bb cd c2 93 3b
       0.04991703 -0.042411808 -0.003928099 0.004509306
000040 1a 7d 88 3d 3d 60 a3 3d 48 44 f1 3c 8c 99 2e 3d
       0.06664486 0.0797734 0.029451504 0.042626902
000050 c9 6b 1f 3c eb ab 00 bd 74 f6 8c 3d 0c 13 4e 3d
       0.009730288 -0.031413954 0.06882945 0.050311133
000060 ee da db 3c bb 91 bf 3d ac 17 d7 bb cd 24 5e 3d
       0.026837792 0.09353968 -0.006564101 0.054234315
000070 bc af 31 bd 64 d2 c7 bc b1 e5 91 3d f4 33 7a 3d
       -0.043380484 -0.024392314 0.07123888 0.061084703
000080 cb 95 ac 3a 06 6b 45 3c fb c6 f3 3b f7 a1 b0 3d
       0.00131672 0.012049442 0.007439492 0.08624642
000090 ce 3b d5 3c 4a 31 19 bd 62 b4 60 bb 84 cd 9c 3d
       0.026029494 -0.03740052 -0.0034287204 0.076563865
0000a0 9f c4 23 3d f9 70 01 bd 69 3d 65 bd 65 3a d9 bc
       0.039982434 -0.03160188 -0.05596677 -0.026517102
0000b0 aa 2e 1a bc 70 1f 67 3d ed fe 19 bd 1b 6b a1 3d
       -0.00941054 0.056426466 -0.03759663 0.07881757
0000c0 c4 10 56 3d de bb 3f bd 35 30 32 3d 5f 0a 5c 3d
       0.052262083 -0.046810023 0.043503005 0.05372083
0000d0 b7 c3 a6 3d d6 3c ab 3a 51 c9 18 3d df 5a 91 3d
       0.081427984 0.0013064395 0.037301365 0.070974104
0000e0 c7 6b 86 bc 88 57 38 3d 81 a8 0f bd 09 a9 e5 bb
       -0.016408814 0.04500535 -0.035072807 -0.007008676
0000f0 8e 6d 41 3c 94 d2 98 bc ec 2f 14 bd ca 95 d6 3b
       0.011805905 -0.018655099 -0.036178514 0.006548618

conv3.weight f4 [128, 64, 3, 3]
000000 65 a7 c8 3c f7 d6 34 3d bc c5 2a bb ef d3 b7 bc
       0.024493882 0.04415032 -0.00260578 -0.022439925
000010 ea 0e b6 bc 05 8d b1 bc aa 47 ef 3a 77 37 1d bc
       -0.022223908 -0.021673689 0.001825561 -0.009595743
000020 0f de c5 3b 50 ec 89 3c f1 db e5 3b 41 8a 09 3d
       0.0060384343 0.016836315 0.0070147444 0.033579115
000030 ba 2d 1e bd 85 66 bf 3c 5d cb 61 bc 1e 0b 14 bc
       -0.038617827 0.023364315 -0.013781396 -0.009035854
000040 23 2a f3 bb 13 2e a6 bb 51 5a 72 3d 62 2a df bc
       -0.0074207946 -0.0050714104 0.059168164 -0.02724189
000050 c9 e1 22 bc 06 92 c0 3c e3 ea de bb 94 2d cc 3c
       -0.009941527 0.02350713 -0.006802903 0.024924077
000060 16 ff 48 bd 81 fe 0a bd a9 41 d9 3c 4e 7f eb 3b
       -0.049071394 -0.03393412 0.026520567 0.0071868068
000070 89 d9 5c bc 9b ed a6 3d af f2 a3 bc 52 55 77 3c
       -0.013479599 0.081507884 -0.020013181 0.015096026
000080 d9 3c d8 3d 51 9a 17 3c 9c 10 42 3d e6 38 58 bd
       0.10558481 0.0092531005 0.04737912 -0.052788638
000090 81 21 28 3c df 1b fb bb 4c 55 35 bd 91 af dd bc
       0.010261894 -0.0076632346 -0.0442708 -0.027061256
0000a0 a8 3a 4f bd 1d 57 2e bd c8 64 39 bd f3 d6 a9 bc
       -0.05059305 -0.042563546 -0.045262128 -0.020732379
0000b0 e1 30 91 3c 7d 23 22 3d 8d 58 04 bc 72 30 c3 bc
       0.017723503 0.039584626 -0.008077753 -0.023826811
0000c0 5d b5 56 3d c8 ae 30 3c 34 62 57 bd 2f ed ba 3c
       0.052419055 0.010783859 -0.05258389 0.022818176
0000d0 06 93 5e bd bd 7d 43 bb 3f 70 ae 3c 2b 3f f5 bc
       -0.05433943 -0.0029829585 0.021293757 -0.029937347
0000e0 c3 30 ad bb f3 c4 40 bd 3b cd 36 bd 00 81 c4 bc
       -0.005285354 -0.047062825 -0.044629317 -0.023987293
0000f0 d6 c0 99 3b 02 7f dc bc 98 b1 de bb 9c 25 b1 3b
       0.0046921773 -0.02691603 -0.006796073 0.0054060947
000100 c8 e9 f0 bb 74 b9 0b 3d c8 4b ba bc 2e 2c d6 3c
       -0.0073520876 0.03411241 -0.022741213 0.026144113
000110 d6 d1 0c bc 37 75 b0 3c 17 60 b7 bb 4a 99 ff ba
       -0.008594951 0.021540267 -0.0055961716 -0.001950064
000120 4f 8f c8 3b 49 1b 38 3c 1b 6f 0c bd 36 24 ff 3c
       0.0061205993 0.011236974 -0.034285646 0.031145196
000130 b1 0f 77 3c a0 ec f0 ba 6b 3a 10 3d ba 73 19 bd
       0.015079425 -0.0018381067 0.03521196 -0.03746388
000140 63 04 ca bc 75 2d a3 bc 5f e4 14 bd 56 4d 76 bd
       -0.024660295 -0.019919137 -0.036350604 -0.060132347
000150 08 74 2d bd 38 7c 6c bd 01 2d cd 3c f3 07 eb bc
       -0.042346984 -0.05773565 0.025045874 -0.028690314
000160 e2 54 16 3d dd 55 16 bc 98 83 02 3d a9 38 93 3c
       0.036702044 -0.009175745 0.03186378 0.017971354
000170 54 70 4c bc 30 b8 c8 3b 4e 46 87 3c 54 18 53 bc
       -0.012477953 0.0061254725 0.016513016 -0.012884218
000180 53 f8 05 3d 28 37 af 3c c7 b2 28 bd 5e 8f 54 bd
       0.032707524 0.021388605 -0.04118612 -0.051894538
000190 4d 94 37 3d 61 45 07 3d b7 90 21 3d 29 15 55 3d
       0.044819165 0.03302515 0.03944465 0.052022133
0001a0 43 bc 1b bc 89 25 f6 3c cf f1 62 bd c9 7f 90 3d
       -0.009505334 0.030047195 -0.055406388 0.07055623
0001b0 b0 d1 dd bc a6 5b 25 3d 00 25 cd bc 4f 90 90 3b
       -0.027077526 0.040370606 -0.025042057 0.004411734
0001c0 9b ca ba 3b a4 1a 1c bd 6b e1 11 bb 4c 3a 99 bb
       0.005700422 -0.038111344 -0.0022259604 -0.004676139
0001d0 7a ac b8 3d 27 14 da bb 7a 8b 95 bc e7 63 d2 bc
       0.09017272 -0.0066552344 -0.018254984 -0.025682403
0001e0 8c 78 fa 3b a2 69 94 3c b6 5b 8d 3b e6 5a 24 3d
       0.007643765 0.018116776 0.0043139113 0.04012575
0001f0 bb f0 77 3c 61 8d b2 bc ef 53 53 bd 8e f8 9a 3c
       0.015133078 -0.02179593 -0.051593717 0.018917348
000200 22 17 6b bc 44 b5 8e bd 1b 8f df bc c4 f9 f0 3a
       -0.014348777 -0.069681674 -0.027289918 0.0018384983
000210 bd 13 e6 3c 20 f7 68 3c a4 35 e7 3c 35 69 ec bb
       0.028085584 0.014219075 0.02822382 -0.00721469
000220 e1 5c 2c bc c8 e0 5e bd c9 c1 2a 3d 25 43 9c bd
       -0.010520191 -0.054413587 0.041688714 -0.07629994
000230 95 4a 60 bd d7 00 36 bb 61 79 a5 bc 77 90 05 bd
       -0.054758627 -0.0027771497 -0.02019948 -0.032608476
000240 5c 23 eb 3b 86 ba 1c bd ad dd 76 bd f6 ef 3b 3c
       0.007175846 -0.03826382 -0.06027 0.011470785
000250 73 29 98 bc 2c 20 5e bd 6d e5 8a 3c 10 14 a9 bb
       -0.018574452 -0.0542299 0.016955102 -0.0051598623
000260 87 ec e6 3c b0 9b 5b bb 36 2c ed 3c 5f ee 94 3b
       0.028188957 -0.0033509545 0.028951745 0.0045450176
000270 fb 82 e9 3c 70 ea 15 3d 98 af 27 bc dc 61 29 3c
       0.02850484 0.03660053 -0.010234736 0.010338273
000280 22 fb cb 3b b5 45 03 3d aa 77 aa 3c f4 30 6b bd
       0.0062250057 0.0320489 0.020809013 -0.057419732
000290 05 b9 f8 3c 08 3d bf bc 9d 87 5d bc 04 8b 13 3d
       0.030361662 -0.023344532 -0.013521102 0.036021248
0002a0 c4 93 45 bd b3 de 42 3c 74 6d ce 3c bb 65 d4 bb
       -0.048236623 0.011893916 0.025198676 -0.006481854
0002b0 84 f6 59 3d f1 6e 9f 3d c4 36 41 bb 3c f9 1d bd
       0.05321361 0.07784832 -0.0029482106 -0.038567767
0002c0 c2 5d 06 bd b1 80 5e 3d 14 9c af 3c e3 87 0f bc
       -0.03280426 0.05432195 0.021436729 -0.008760425
0002d0 94 e9 69 bb c5 e6 f1 3c 7d fb 8d 3b c2 2d ed bc
       -0.0035692202 0.029528985 0.0043329583 -0.028952483
0002e0 41 05 f4 bc 0b 03 90 bc 2d dd 3c bc 5d 2c 7f 3c
       -0.029787662 -0.017579576 -0.011527342 0.015574542
0002f0 56 a5 7f 3d 3c eb e7 bc a3 60 09 3d cf 50 0f 3d
       0.062413536 -0.02831041 0.033539426 0.034989174
000300 fd 74 38 bd 1a 16 0d 3d ce c8 62 3a 7c 71 58 bd
       -0.045033444 0.034444906 0.0008651138 -0.052842602
000310 a0 d5 45 bd 6e d0 5e bd 9e fc 5e 3c 51 b9 b8 3c
       -0.04829943 -0.054397993 0.013610033 0.022549303
000320 6d 6f c4 bd ff c0 f9 bb 0d c6 58 bd 19 64 a8 bd
       -0.09591565 -0.007621884 -0.05292325 -0.08222217
000330 03 fb 8f 3c 09 ae 4f bd 15 f3 97 3d 44 7f 71 bc
       0.017575746 -0.050703082 0.07419411 -0.014739815
000340 10 66 0b bd b2 9d 3f 3d 91 3c 54 bd c6 82 ec 3c
       -0.03403288 0.04678125 -0.051815573 0.028870951
000350 86 07 8e bc 5a 0b 9c bd c2 32 e2 3c de 22 97 3d
       -0.017337572 -0.07619353 0.027612094 0.07379697
000360 a5 fb 6f 3c b0 d2 86 3b c9 d7 35 3c f6 ca 32 3d
       0.014647399 0.0041144714 0.0110988105 0.04365059
000370 9e 0e b2 bc 35 0b ba bb ba ac 90 bb fa 13 c0 bc
       -0.021735486 -0.0056776055 -0.004415122 -0.023447026
000380 41 cd cb bc ba 19 1b bd c1 4f 27 3d 95 02 06 3d
       -0.024878146 -0.03786633 0.040847544 0.032717306
000390 83 a7 79 3c 3b 29 1f 3c 9b c6 5b bd c0 28 b0 3c
       0.015237692 0.00971442 -0.0536562 0.021503806
0003a0 0e f7 59 3c 2c 52 66 3d 04 9a 24 3b ec 6d 8a bc
       0.013303531 0.05623071 0.0025116215 -0.016898118
0003b0 f3 6c 11 bd da 99 3b bc 5b 69 1a bd 9a 74 a4 bc
       -0.035504293 -0.011450255 -0.03769813 -0.020075131
0003c0 67 9f 12 bc 73 6f 95 bd 1d 9c 0f 3d 04 95 30 3c
       -0.008949137 -0.07296648 0.03506099 0.010777716
0003d0 c5 ef 79 bb a2 59 fe bc 6d 9e 9d bc 0e bd 49 3c
       -0.0038137299 -0.0310486 -0.019240582 0.012313141
0003e0 88 2f 83 bc 4b 86 64 bc c2 fe 3d bc de f0 14 bc
       -0.016013876 -0.013948034 -0.0115963835 -0.00909063
0003f0 e9 49 28 bd 5c 5f 69 3b 57 e7 92 3c 15 f8 29 3d
       -0.04108611 0.0035609817 0.017932577 0.041496355

conv3.bias f4 [128]
000000 8a fb 70 bc 44 1b fc bc a3 5e b9 bc 66 7a c6 3d
       -0.014708409 -0.03077472 -0.022628134 0.096913144
000010 cf 96 dc bc ba 09 ec 3b e5 56 84 bc 2f e8 03 3d
       -0.02692738 0.007203308 -0.016154716 0.03220385
000020 78 5a 9b bc d1 63 87 3c a7 0d 9b bc dc 80 7f bc
       -0.018964037 0.016527088 -0.018927408 -0.015594687
000030 b5 4e 40 3d a7 f4 73 bc 0c 1c 81 3c 84 9a f4 3c
       0.04695006 -0.014889873 0.015760444 0.029858835
000040 4f 85 7e 3d 41 06 29 3d 02 8c c2 3c f0 be 1a 3c
       0.06213885 0.04126573 0.023748402 0.009444937
000050 85 13 e1 3c 3b 8e db 3c 69 7b 52 3d 88 c9 fb 3c
       0.027475128 0.02680122 0.051387224 0.030735746
000060 ff 87 9e bc 5a bd a9 3c a1 5c 58 3d c4 28 75 bc
       -0.019351957 0.020720173 0.052822713 -0.014963333
000070 e5 a5 9f 3c 52 0e 42 bd 33 36 4a bd a2 e2 a9 3c
       0.019488284 -0.04737694 -0.049368095 0.02073795
000080 7d 57 09 bd 4d 78 dd 3c 83 1d b7 3b 28 21 d1 bc
       -0.0335307 0.027034903 0.005588235 -0.025528505
000090 92 0c 14 3d aa 00 13 bd f6 76 24 3c 38 49 8a 3b
       0.0361448 -0.035889305 0.010038128 0.004220154
0000a0 6d 11 f5 3c 49 c5 46 bc c4 ae 2c 3c e8 e7 9a bc
       0.029915536 -0.012131997 0.010539714 -0.01890941
0000b0 98 8e b3 3c de 72 94 3d ea 28 99 3b f7 7d f8 3b
       0.02191858 0.07248472 0.004674067 0.0075833756
0000c0 80 3d ca 3c d9 bc 98 3b dd fd cc bc eb ae 90 3c
       0.024687529 0.0046611843 -0.025023395 0.017661532
0000d0 65 74 18 bd 97 b1 55 3d 98 19 0c bc 0a 6e df 3c
       -0.037220377 0.052171316 -0.008551024 0.02727415
0000e0 c8 1d 69 bb 6e 0f 77 3d fe 85 7c bc ec a3 f8 3c
       -0.003557073 0.06031745 -0.015412806 0.030351602
0000f0 8d 03 e8 3c 65 4e 01 3d 76 38 ad 3c 38 a7 23 bc
       0.028322006 0.031568903 0.021145087 -0.0099885985
000100 c1 fc b7 bc 3d b7 1d 3d d8 3b 3b 3d f5 28 d6 3c
       -0.02245939 0.038504828 0.04571137 0.026142577
000110 2e f8 7e 3c 20 65 5d 3c 32 e5 51 3c 67 dd 8c 3c
       0.0155621 0.01351288 0.012810992 0.017195417
000120 fd ee 50 bc 58 7f a2 3c 98 7e a6 3c 40 e2 67 3d
       -0.012752292 0.019836113 0.020324036 0.056612253
000130 77 c9 18 3d 91 69 51 3d 2e 3c ec 3b 4a 52 b3 3c
       0.037301507 0.051126067 0.0072093224 0.021889824
000140 1b f1 e6 bc 95 15 24 3d e0 87 45 3c fd 96 02 bd
       -0.02819114 0.040059645 0.012056321 -0.031882275
000150 5c 53 87 3b 46 91 4b ba 4c 7a 1b 3d b8 9b e2 bb
       0.0041298103 -0.0007765483 0.03795843 -0.006915536
000160 1d 9d 06 3c 7a 7a 58 3c 7c 6c cc bc 3d a3 a0 3d
       0.00821617 0.013212794 -0.024954073 0.07843635
000170 da 09 85 bb 75 84 c5 3c bb 9e a7 bc 74 84 17 bc
       -0.0040600123 0.024111012 -0.02046143 -0.009247888
000180 8f 08 0c 3b 70 76 c9 3c 93 01 cf bc 63 b2 3d 3d
       0.0021367406 0.024592608 -0.025269305 0.0463127
000190 1a 65 0a 3d 73 df 28 3d ce b6 90 bc 94 88 f4 bc
       0.033787824 0.041228723 -0.017665293 -0.029850282
0001a0 5a 83 10 3d f0 d0 79 3d 0c 10 81 bb 98 46 01 3d
       0.035281517 0.060990274 -0.0039386805 0.031561464
0001b0 5a 0d 39 bd 7f 63 49 3c 83 7e a7 3c 25 9b 25 3d
       -0.04517875 0.012291788 0.020446068 0.04043116
0001c0 cc 8b e9 bc 0a 3a de bb 28 6c 31 3d 6d c7 6c 3d
       -0.028509043 -0.006781821 0.043316036 0.057807375
0001d0 6c f5 3f ba 18 ab ec bb 2e c8 6f bc 62 d9 00 3d
       -0.00073226425 -0.0072225444 -0.014635129 0.031457312
0001e0 03 1d d6 ba 8c b9 1a 3c 60 48 b8 bc 1b 77 60 3b
       -0.001633555 0.009443652 -0.022495449 0.003425068
0001f0 29 0e b8 bc 1e 99 75 bc 81 ef b2 bc a1 9c 81 3d
       -0.02246769 -0.014990119 -0.02184272 0.06328703

act_conv1.weight f4 [4, 128, 1, 1]
000000 56 e9 bb 3b ac 0b 7d 30 35 a5 b0 3b f6 23 ea bd
       0.005734603 9.205745e-10 0.005390788 -0.1143264
000010 4d 57 32 3c 92 7d 12 3b 49 fa 4b 3d 15 9a 7f 3c
       0.010885072 0.0022352678 0.049799237 0.015600701
000020 03 b5 8e 3d 4a d1 d6 bd 20 65 99 bc 0f 30 99 3c
       0.06968119 -0.104891375 -0.018724978 0.018699674
000030 b8 5f 04 be 03 87 30 3c f7 98 f3 3c b7 50 41 bd
       -0.12927139 0.010774377 0.029736025 -0.047196116
000040 22 c1 02 3c cf f6 76 bd f8 9f e6 3c a7 28 0e 3c
       0.007980617 -0.06029397 0.02815245 0.008676684
000050 45 79 a5 bc 62 ae c4 3c 00 a4 c1 bd 2e 29 ca 3b
       -0.020199427 0.024008933 -0.09455109 0.00616946
000060 35 32 86 3c aa 47 13 3d 3d 7e 4c bc 75 1f 1e bd
       0.016381362 0.035957016 -0.012481269 -0.03860422
000070 ec 1d 02 38 24 65 2e bd e9 07 bd bc 3a 2b 17 3d
       3.1022282e-05 -0.042576924 -0.02307506 0.03690646
000080 c6 73 10 b0 b3 e5 ca ba 3f bf d8 bc dd d6 4f 3d
       -5.255142e-10 -0.0015479833 -0.02645838 0.05074202
000090 2e df 8b bd 37 9d af bc ae 05 a2 ba 53 b0 b5 b8
       -0.068296775 -0.02143727 -0.0012361312 -8.6635955e-05
0000a0 7b c8 24 bd b7 3b b4 bc 05 4b 1a bd 18 b0 60 bd
       -0.040230256 -0.02200113 -0.0376692 -0.054855436
0000b0 7d 15 cf bb e9 cc a7 bd 83 dd 00 bc c2 e1 a8 bd
       -0.0063197003 -0.081933804 -0.0078653125 -0.08246185
0000c0 81 cc 2c 39 40 c9 01 bd 89 12 03 3d bd 1b e0 3c
       0.00016479382 -0.031686068 0.0320001 0.027356977
0000d0 84 eb fc bb 43 18 18 bd b0 61 82 bd 83 ae 70 3d
       -0.0077185053 -0.037132513 -0.06366289 0.058760177
0000e0 e0 15 32 af 6a 90 da bd 0a be 94 bd 12 1e 9b bc
       -1.6196777e-10 -0.10672076 -0.072628096 -0.018935237
0000f0 c9 28 a2 bd 68 97 eb 3c 4a 55 0b 3d 15 b3 9d 32
       -0.079179354 0.02875872 0.034016885 1.8358643e-08
000100 c4 43 76 3d 88 0b 4c bd 51 a4 2c 3d f1 cc ab bc
       0.06012322 -0.049815685 0.04214889 -0.020971747
000110 eb bd 4a bd 07 4b a7 bb 09 be 1e 3d 34 2e 01 3c
       -0.049497526 -0.0051053795 0.03875545 0.007884551
000120 a6 5e 12 bd aa a5 95 3d 7a 1d 4d 3d e8 34 75 bd
       -0.035734795 0.073069885 0.05007694 -0.05986491
000130 12 15 cb bb 18 39 70 bb 4a c0 81 bd 58 a2 c0 bc
       -0.00619758 -0.0036655124 -0.06335504 -0.023514912
000140 7c 18 00 3c 57 dd 0d 3d ca 92 3d ba 42 ee 2b 30
       0.0078183375 0.034634914 -0.0007231651 6.254802e-10
000150 c5 18 e9 bc ed 7a 5b 31 c2 91 d6 bd cb 5f 95 3d
       -0.028454194 3.193857e-09 -0.1047702 0.07293662
000160 f2 b8 30 3d 46 e2 84 bb df a1 32 3c 0e 57 a8 bd
       0.043145128 -0.004055294 0.010902851 -0.08219729
000170 7e 98 92 3c 69 cb 67 3d d0 d0 f6 bc ce ea 54 3d
       0.01789498 0.05659047 -0.030128866 0.05198174
000180 00 50 25 bd c6 91 4c 3d a0 b7 13 bd 5a 86 69 3d
       -0.040359497 0.049943708 -0.03606379 0.057012893
000190 c2 d2 bb bb 79 72 bc 3c 60 47 b9 bb b4 60 a4 bd
       -0.0057319114 0.023003804 -0.0056542605 -0.08026257
0001a0 e6 bd 00 bc 7a 35 11 3b dd 0a 49 bb 83 51 b8 bd
       -0.007857775 0.0022157119 -0.003067664 -0.08999922
0001b0 99 7b c9 3c de c0 7f 3d b1 d5 e6 bc 51 7a 8c 3a
       0.024595069 0.06243979 -0.028178068 0.0010717605
0001c0 d9 ff 55 b1 e4 96 1e 3b 45 ea d8 bc 32 97 ac bc
       -3.1141012e-09 0.0024198825 -0.026478896 -0.02106819
0001d0 f1 83 2a bd 08 ce 26 3d b0 f7 11 3d fc aa 3d bc
       -0.041629735 0.04072383 0.035636604 -0.01157641
0001e0 8d c4 96 3d dc a9 e5 bc d0 62 a6 bc 74 96 c5 bd
       0.07361708 -0.028035097 -0.02031079 -0.09647837
0001f0 9a 4a 91 b3 ff e5 29 3d 6e ef 81 30 21 b9 41 bc
       -6.7656586e-08 0.041479107 9.454035e-10 -0.011823923
000200 8d dd 94 bb 31 b5 3c 3d 6f 8a 48 bd 6f ac 1b 3d
       -0.0045430125 0.046071235 -0.048960146 0.038006242
000210 bc 1b a4 3d 4e e5 c1 bd 7a e5 6a bd ce 2f 9f 3d
       0.080131024 -0.094675645 -0.057347752 0.0777279
000220 60 3b 8c 3d 34 47 a0 bd e8 36 16 3c 61 5c 08 be
       0.068472624 -0.07826081 0.009168364 -0.1331649
000230 c1 6b b7 3c f4 29 d5 3c 73 4a cf 3d 0a 5a f8 3d
       0.022390248 0.026020981 0.10121622 0.121265486
000240 47 c2 1d be 60 4b 33 bd 04 b4 0e 3c b4 3f 65 3c
       -0.15406142 -0.043773055 0.008709911 0.013992239
000250 21 a5 16 3d fd 84 89 bd 5d d2 bd 3c cc 82 cd bc
       0.036778573 -0.067148186 0.023171598 -0.025086783
000260 a1 17 5d 3d 77 86 6e 3a 20 73 5b bb cc 11 03 3e
       0.053977612 0.00090990163 -0.0033485368 0.12799758
000270 bd 43 95 3d f8 3d e6 bd 27 90 c7 bb 48 83 88 bd
       0.07288311 -0.11242288 -0.0060901823 -0.06665665
000280 1f 07 84 bd 64 34 45 3d ef 80 92 3c 8a eb 54 3b
       -0.06446671 0.048145667 0.017883746 0.0032489025
000290 fb 42 e7 3d 4c 4e aa 3d 38 ab 7c 3c 3f 85 52 bc
       0.112920724 0.08315715 0.015421681 -0.012849151
0002a0 83 1a f5 3c ef 3d bd ba da c9 3c bd 5a 0c 8b 3d
       0.029919868 -0.0014438013 -0.04609094 0.06789465
0002b0 58 80 bb bd 7c 10 1b 3d 89 c8 35 bd 6a cb 3d 3a
       -0.09155339 0.037857518 -0.0443807 0.0007240089
0002c0 7e 74 02 be 22 76 a3 bc 04 37 13 3d 6d 47 85 3c
       -0.1273975 -0.019953791 0.03594114 0.01626941
0002d0 6d 50 1e be 22 8f eb 3d 8c de eb 3c a5 69 57 bd
       -0.15460368 0.1150191 0.028792642 -0.052590985
0002e0 81 43 21 b3 fc cf af 3d 97 6b af 3b 52 ef a6 3d
       -3.7547128e-08 0.08584592 0.005353402 0.081511155
0002f0 30 e0 ae 3d 54 91 3d 3c c1 f0 8d bc ee 3f 65 30
       0.08538854 0.011570293 -0.017326714 8.3400564e-10
000300 97 a0 c6 3b 1a c9 ac 3d 32 f2 b9 3d ea 76 a0 3d
       0.0060616243 0.084367946 0.09079398 0.07835181
000310 c3 c0 8c 3d 76 11 28 bd 30 8e 5d bd 50 54 c3 3d
       0.06872704 -0.041032277 -0.05409068 0.09537566
000320 8a 2b eb 3d 51 a8 a8 3d 2d 3b 9b 3d 3e f0 c1 bd
       0.11482914 0.08235229 0.07579646 -0.09469651
000330 0a f7 33 bc 99 94 95 3c ad 80 ba 3d ed d0 03 3e
       -0.010984192 0.018259333 0.09106574 0.12872668
000340 4a 95 57 bd 62 c8 d8 3b 44 c9 cf bc db 3e 9d bc
       -0.052632608 0.0066156844 -0.025364526 -0.01919501
000350 d7 a0 8f 3d e8 f7 87 b2 71 57 c4 3d 37 fc 84 bd
       0.070131 -1.5828803e-08 0.095869906 -0.06493419
000360 fe e8 a7 3d 42 b4 98 39 69 42 6b 3c 7d dd 83 3d
       0.081987366 0.00029126002 0.014359095 0.0643873
000370 11 34 29 bd 90 43 a5 bd 25 89 65 3d 16 5e 90 3d
       -0.04130942 -0.08069527 0.056038994 0.070491955
000380 bd f6 c2 3d 94 85 92 3c 9c f4 67 bd 52 8a fb 3c
       0.09519718 0.01788596 -0.056629762 0.030705605
000390 4e 0b ee 3d 3f 9c 7f 3d 45 1c f5 bd ec 7c 09 3e
       0.1162325 0.062404867 -0.119682826 0.1342656
0003a0 c1 7c b1 3d 3b 3a 85 bc cc 66 b5 bc f0 2a 29 3e
       0.08666373 -0.016263118 -0.022143744 0.16520286
0003b0 d8 75 d2 bd f2 80 a9 bb 2b f7 d1 3d 4d 42 d1 bc
       -0.10276383 -0.005172842 0.10252222 -0.02554431
0003c0 44 dc c3 ba e4 f7 51 3d e9 68 3b 3e 23 78 09 be
       -0.0014942964 0.051261798 0.18301739 -0.13424735
0003d0 1b 78 ff 3b a6 4e b9 bd 78 d0 15 39 33 6d a7 3d
       0.0077963 -0.09048204 0.00014287408 0.08175125
0003e0 ce 66 1a bd 32 b7 24 3d 98 04 d9 3d 6e 99 b8 3c
       -0.0376957 0.04021377 0.10596579 0.022534098
0003f0 5b 5e 48 3b 1d c9 06 3d f1 78 1e 3b 30 07 56 3d
       0.0030573818 0.03290664 0.0024180973 0.05225295

act_conv1.bias f4 [4]
000000 88 35 96 bc ee 21 5e 3d 14 00 9e 3d c6 74 8f bd
       -0.018336073 0.054231577 0.07714859 -0.07004695

act_fc1.weight f4 [36, 144]
000000 d3 29 14 bd 50 28 65 bd 2b e6 a9 bd 2a a8 f0 bc
       -0.0361727 -0.055946648 -0.08295854 -0.029377062
000010 f6 88 1a bd a1 7c 90 bd a8 4e 06 bd b0 91 8c bd
       -0.037728272 -0.07055021 -0.032789856 -0.06863725
000020 9a f8 87 bd 78 fd d9 bd 97 e2 14 bd 7f 64 e8 bd
       -0.06639214 -0.106440485 -0.036348905 -0.11347293
000030 d0 25 f4 bd 9e 43 ad bd b3 cf c2 bd 6c 3a 52 bd
       -0.11921275 -0.084601626 -0.09512272 -0.051325247
000040 e4 5b 3e bd 4c 9e 89 bc e5 72 10 bd 01 7a 2c bd
       -0.046474352 -0.016799115 -0.035265822 -0.04210854
000050 99 28 d0 bc d4 55 08 bd f6 ce 15 3c f3 c7 b6 bc
       -0.025409983 -0.033284977 0.009143582 -0.02231214
000060 c0 53 e7 3a 98 cb c4 bc 2d b4 a6 bd c8 1f cc bc
       0.0017648861 -0.024022862 -0.081398346 -0.024917498
000070 ad dd a7 3c 6b a9 2b 3c 3a 03 8c bc 6b c0 1b bd
       0.020491445 0.010477404 -0.017091382 -0.0380253
000080 cf 2f 31 bc b9 ed ab bc 1b c3 03 bd b9 7f 5b bd
       -0.010814621 -0.020987378 -0.03216849 -0.053588603
000090 d7 79 a4 3d c2 ab a8 3d 81 48 7a 3c 54 d2 8a 3d
       0.080310516 0.08235885 0.015276075 0.06778398
0000a0 23 31 4a 3d 92 d4 58 3b d2 fb 25 bc fc 63 27 bd
       0.049363267 0.0033085686 -0.010130839 -0.040866837
0000b0 5c 7f 4e bc 05 b1 9c 3d fd 4d 3f 3d 9a 4c 71 3a
       -0.012603607 0.07650951 0.046705235 0.0009204835
0000c0 41 71 3a 3d f4 20 b0 3c 66 37 53 3b 89 18 23 bd
       0.045518164 0.021500088 0.0032229065 -0.03981832
0000d0 4a d0 6b bd 12 7e 48 3d 31 80 39 bc 3b 7d f1 bd
       -0.057571687 0.048948355 -0.011322067 -0.11791464
0000e0 09 38 ec 3c a1 61 87 3d 1b ac 32 bc 05 76 07 3d
       0.028835313 0.06610418 -0.010905291 0.033071537
0000f0 96 3e 93 bd ba 51 79 3d 74 0d 9e bb 58 c5 93 bd
       -0.07189672 0.060868956 -0.004823381 -0.07215375
000100 93 55 e9 3b dd 5d f2 bc 74 a2 48 3d bb 79 b9 bd
       0.007120797 -0.029585773 0.048983052 -0.09056421
000110 f4 95 77 3d eb c3 77 bd af 35 0b be 30 16 40 bb
       0.06044574 -0.060489576 -0.13594697 -0.00293101
000120 6e 44 ef bb f3 d8 88 bd 3a cd 4a bd d7 e5 dd 3b
       -0.0073018586 -0.06682005 -0.049512126 0.006771784
000130 c8 aa 54 3d e3 f4 32 bc 77 9c f8 bc 2b 26 b5 bd
       0.051920682 -0.010922643 -0.030348046 -0.088451706
000140 fc 7e a5 bd 64 be 99 bd e5 15 6e 3c c2 6d ab 3c
       -0.08080861 -0.07507017 0.014531587 0.02092636
000150 b5 2e d4 bd d7 58 93 bd 4c 92 e1 bb 19 d8 9b bd
       -0.10360471 -0.07194679 -0.006883895 -0.07609577
000160 ed bd 59 bc a7 7e 97 bd 1c 31 39 3d fb a2 ed bd
       -0.013289911 -0.07397204 0.04521285 -0.11603352
000170 a2 24 92 bd 65 72 15 bd f7 9e 0e bd c5 71 ac bc
       -0.071358934 -0.03648605 -0.03481957 -0.021050343
000180 e9 ee 42 bd e4 d2 b0 3c f7 4e bb 3b c2 f3 0c be
       -0.047591124 0.021584935 0.0057162005 -0.13764861
000190 7a 30 c9 3c ca 51 1e 3d 52 a5 d6 3c 03 4e 84 bb
       0.024559248 0.03865222 0.026201878 -0.00403762
0001a0 f4 9a 02 bd b1 e9 c7 bd 01 6d 64 bd c5 ab 5d bb
       -0.031886056 -0.0976137 -0.055768017 -0.0033824306
0001b0 95 b8 56 bd 58 4c 53 bd 5f 80 e1 bc a3 d8 af bd
       -0.052422125 -0.05158648 -0.027527032 -0.08586242
0001c0 3b 3b e5 bd 84 8b 8e 3c 19 8b 04 3d 8d 84 cd bb
       -0.11192938 0.01740051 0.032359216 -0.006271905
0001d0 fe f9 96 3c 1a 6f 88 bd 22 92 31 bd 68 85 2f 3d
       0.018429752 -0.06661816 -0.043352254 0.042851835
0001e0 65 10 c4 bc 97 2d 18 bd f2 77 bc bb d7 b9 52 3d
       -0.023933599 -0.037152853 -0.0057516033 0.051446762
0001f0 e0 68 ce bc 9b f1 89 bd 87 35 7a bb 27 54 54 3d
       -0.025196493 -0.06735536 -0.0038178877 0.051838066
000200 a8 3d 08 bb b8 49 76 bc 0d 87 8c 3c 47 e1 54 3d
       -0.0020788703 -0.015032224 0.017154241 0.051972654
000210 bc f8 db 3c 74 14 a3 3c 19 e9 fb 3c 14 6e cb bc
       0.026852004 0.019907214 0.030750798 -0.024832763
000220 10 9a 9a bd 76 24 40 b8 a1 99 8a 3d e5 2e a7 3c
       -0.07548916 -4.5810324e-05 0.06767584 0.020408103
000230 7f ad 1a bd ac 0b 03 3d 68 ea 4f 3a 14 2e c9 bb
       -0.037763115 0.031993553 0.00079313526 -0.006139526
000240 b8 b2 f5 bc fb 23 91 bc 2a b8 b3 3c fa e0 15 bd
       -0.029992446 -0.017717352 0.021938402 -0.036591507
000250 83 32 e9 bc dc 77 d8 bc 17 a1 c1 bc 12 f2 d1 bc
       -0.028466469 -0.02642434 -0.023636384 -0.025628123
000260 c9 17 65 bc 8e 1c 82 bc e1 be bc bc d0 a6 fc bc
       -0.013982722 -0.015882757 -0.023040237 -0.030841261
000270 23 0b 53 bc d5 20 17 bc b7 c6 94 bd 3b 95 c9 bc
       -0.012881073 -0.009224136 -0.07264464 -0.024607291
000280 5b 04 79 3c 84 2d f7 3a 63 63 3b bd ef fd 99 bc
       0.015198792 0.0018858169 -0.04574908 -0.018797843
000290 4e 5d aa 3c 90 b5 a7 bb 4a d7 76 bd 16 06 79 bd
       0.020796444 -0.0051180795 -0.06026391 -0.06079682
0002a0 81 fa 80 3c 64 ed 28 bd 67 7a 76 3c 6e 60 75 3c
       0.01574445 -0.04124202 0.015043831 0.014976604
0002b0 06 5e 00 bc f5 ba 50 bd 77 5d 2f bc f6 b1 99 3c
       -0.007834917 -0.050959546 -0.010703436 0.018761616
0002c0 c1 9c b3 3c 7b c4 cb bc b3 a4 27 3b 12 24 1f bd
       0.021925332 -0.024873963 0.0025580346 -0.03885276
0002d0 85 48 c5 be 3c 9d 53 bc 07 36 27 be 24 be 0e 3e
       -0.3853189 -0.012915906 -0.16329204 0.1393972
0002e0 02 0b bf 3d f0 1f 6e 3e a1 19 4a bd ef 22 12 3e
       0.093282714 0.2325437 -0.049340848 0.14271139
0002f0 92 3f 30 be d9 ad 8f bd 66 8c d7 bd 6e 8f 01 3c
       -0.1721175 -0.07015581 -0.10524826 0.007907731
000300 96 76 b4 bd b5 bf 43 bd d2 54 09 bd 2d 24 02 be
       -0.08811681 -0.047790248 -0.033528157 -0.12709112
000310 71 98 09 bd 05 6f c3 bd a3 e2 73 bc e9 fc ca 3c
       -0.033592645 -0.0954266 -0.014885577 0.0247788
000320 e5 0c 49 bd 73 96 a6 bd 0b 96 91 bd 84 91 25 bd
       -0.049084563 -0.08134165 -0.071086966 -0.040421978
000330 b2 da ee bc da 92 1d be fa 1b 5a bd 80 18 1c b8
       -0.029157016 -0.1538805 -0.053249337 -3.7216116e-05
000340 3a ee a3 bc 24 b0 e4 bd 7a df 62 3c 2e fa 3d bb
       -0.020011056 -0.11166409 0.013847226 -0.002898823
000350 58 17 20 be 40 5c 45 3c e2 f6 c8 bd bb fe b9 bc
       -0.15633905 0.01204592 -0.09812714 -0.022704473
000360 7c 73 1e 3e 52 66 51 3e 06 97 59 3d 3b 5a 55 3d
       0.15473741 0.20449188 0.053122543 0.052088004
000370 f6 bb c4 3d 86 7a 24 3e b5 e8 60 bd c7 b7 4a bd
       0.09606163 0.16062364 -0.054909427 -0.04949167
000380 93 2b 7e 3d 13 83 e7 3d d6 e2 53 3d d5 00 97 bc
       0.062053274 0.11304297 0.05173 -0.018433014
000390 22 73 6d 3d 85 11 2a 3d 76 1b 6f bc a8 45 5f 3c
       0.057971127 0.041520614 -0.01459395 0.013627447
0003a0 e5 28 cb 3b 79 3b 1a bd cd 57 49 3d fe 34 58 3d
       0.0061999434 -0.037654374 0.049156 0.052784912
0003b0 dc 4f f0 bc e2 71 ff bc e1 53 d4 3c 40 19 1a bd
       -0.029334955 -0.031182233 0.025918903 -0.037621737
0003c0 cf 28 a5 3d 6d cb 7e 3d 90 d7 19 3c 13 6d 82 3d
       0.08064424 0.06220572 0.009389773 0.063684605
0003d0 8a 13 07 3c 30 c1 fa bc 00 dc 65 3d f8 ce 58 bc
       0.008244405 -0.030609697 0.05611801 -0.013232939
0003e0 9c 3b 77 bd 27 20 6d bc a1 b6 68 3d c0 ae 8f bd
       -0.060359582 -0.014472998 0.056814793 -0.07015753
0003f0 69 2d d0 3b 8b 1b 44 bd e1 ec d4 bc 3a fe 78 bd
       0.0063530696 -0.04787783 -0.025991859 -0.060789324

act_fc1.bias f4 [36]
000000 23 e3 f9 bc a5 87 f4 3c ee a3 aa bc 54 49 86 bd
       -0.030503815 0.029849837 -0.02083012 -0.06556955
000010 b7 6a 09 bc 9f 9a 98 bd fa ca d0 bd 2f 38 49 bc
       -0.008387259 -0.07451367 -0.10194965 -0.012281462
000020 f8 e2 f1 3c 81 dd 25 bd a9 bd de bc ac 82 fd 3c
       0.029527172 -0.040494446 -0.027190046 0.030946098
000030 14 56 a1 3d ae e1 09 3d a0 bf 85 3c 67 76 53 bc
       0.07877746 0.03366249 0.016326725 -0.012906647
000040 1a d5 bd 3c 85 d2 8b 3d b6 cc f2 3c 89 05 16 3d
       0.023172904 0.06827263 0.02963863 0.036626372
000050 8e 66 d8 bc c7 84 2e 3d cd 32 54 3c f0 7b b1 3d
       -0.02641609 0.042607095 0.012951565 0.08666217
000060 28 df 30 bd d0 ee 0a bd 69 e1 e1 3d e1 ad 5d bd
       -0.04318157 -0.033919156 0.11029322 -0.054120902
000070 a5 b4 26 3d 91 9b 22 bc 1c da f3 bd b0 bb 5f 3c
       0.04069962 -0.009924785 -0.119068354 0.013655588
000080 10 7a a2 3b 74 db 22 ba 6a f0 cb 39 4e df 63 3d
       0.0049583986 -0.00062125106 0.000388983 0.05563288
