models/Training/AC_nmcts20/train_018.pth (torch, 424031 bytes, 15 tensors)

conv1.weight f4 [32, 5, 3, 3]
00000000: 48be 633d b7f1 0bbe 051b 26bd 9b11 e43d
00000010: f9b2 35be f8c4 3e39 ed5e ba3d a9f2 8abd
00000020: 5c1f 843c 16e8 6d3c ea37 b3bc eded f83d
00000030: a3d1 993d 6f3b f5bd 5569 fa3d de0f 33bc
00000040: 0b1d 3bbc 1eaa f63d f5c5 3b39 e058 2034
00000050: faef 93b5 14d9 2ab8 5364 23b7 ce0b a8ba
00000060: 40ca f0ba 43f0 7636 3caa 8c32 5381 003e
00000070: ea90 173d 0e91 a3bd c10b 18be 8110 a9bd
00000080: 1072 143c d980 183d e899 c0bd 2ae4 c23d
00000090: 2fda 68b6 5ada 0e38 b660 abb5 5b46 b0b6
000000a0: 7be8 87bb b5cb c5b6 c1ae 3635 1c8f 0a36
000000b0: dda4 bfba 339c 0dbd 88a6 1d3e 5917 923d
000000c0: 2a0a 37bd 44e6 173d b977 1fbd fb4d 013e
000000d0: 5a76 a63d be73 123e d829 243d 65b1 33be
000000e0: 1025 11bc 9eb1 4c3d 1a5e 9e3d 97c6 2f3d
000000f0: 78db c0bd f53f 5abd 1c54 f93d 9c2b 08b9
00000100: 3534 2fb8 5563 e8b4 8f9d 2abc ddb0 b4b5
00000110: 7ce2 3436 cfd0 27bc 546f 7b35 f85d 45b7
00000120: 98c9 0bbe e4ab 003e b81c cebd 1206 63bc
00000130: 4fb3 debd 2d15 b9bd da47 bebd 0510 bd3d
00000140: 1d57 793c a129 36b7 9ff6 bf3c 264a 1438
00000150: eebd d4b5 0c51 de38 6ee3 77bc f6f6 b839
00000160: 47f9 123c 712a bc36 81c3 cdbd 8ab2 3d3d
00000170: 03b8 f53d 50fa 223c 71d1 733d a6df 233e
00000180: bddf eabd 4a87 05be da2e e83c 4c4c 64bd
00000190: cc6d b7bb 1c68 2bbd 81b3 113c d3f7 79bd
000001a0: 92d1 cb3d c042 3b3e 5cc2 2e3c cd6a 8b3d
000001b0: 033f 17bb dec5 543a 4d42 44b7 4421 93b4
000001c0: 73e7 d53b 24d2 b6bc 778d 26b7 7058 32b7
000001d0: 5804 e0b3 58f3 663d e28d 8b3a a776 d3bd
000001e0: 3217 85bd 5827 f3bc e250 b53d eb4b 953d
000001f0: 3300 053c 52d2 433d f779 86ba 5d35 383c
00000200: 834f 1cb8 8afd b3bc c04d c8b0 f0b4 a6bc
00000210: b82e efbb f026 97b4 a7b4 a536 5511 b73d
00000220: bcc3 0dbe 34b4 3cbd ac1f 1b3d 778d e83c
00000230: 53f6 103c 4e3d 153e a942 383e a99e 283e
00000240: 1f65 0d3d 6911 123d 7bb1 babd 2024 e9bb
00000250: bd8f 20be 1984 eebd f9ef c33d 11d8 3b3d
00000260: 865b cebd 20a1 1cbb 7c04 3634 735d 18b9
00000270: ff40 d5b5 1e3f 98ba 300d cfb9 61df 0fb7
00000280: 02d7 e1b7 5f10 ffbb a464 4c3d 451c 003e
00000290: 34fb b43d 9e37 30be acb5 ec3d 1f48 2d3d
000002a0: 048b 883d 57cd 6c3d 6c76 113d e6ba a73c
000002b0: b3d6 793a e7e6 b2ba 3c53 f2b3 d33f 613a
000002c0: cf10 3637 bd64 96b6 ce66 8c3c c284 b535
000002d0: e132 e93d ea2e 91bc 852d d93d 1d17 293d
000002e0: d5b7 073c 4bed d03c 1430 fa3c 3833 413d
000002f0: b649 e2bd 5811 013e 3b29 0cbe 27b7 be3d
00000300: f8ae ca3d b650 683d 3b6f d33d 5575 dd3d
00000310: 2cb7 0a3d 0af8 04be ebb7 a1b7 5079 5a34
00000320: de1b 533b d174 c1bc 9674 1ebb 35fb e034
00000330: fe2b b7bb 8d9c 5dba c060 8db0 0a98 ff3d
00000340: 2a7f 3bbc 360e fd3d 3a80 993c 3862 463d
00000350: 64d1 1a3e 6fd5 f53d fef5 3f3d c96f 5e3b
00000360: e303 c536 64f3 1f37 a197 68b6 e89a 1d3b
00000370: 241c 85b4 0640 4736 5a20 c9b6 0a98 6ebb
00000380: 0072 b23c e3a3 c23d abf2 033e c099 f33d
00000390: ba3b ec3d fb9f c5bd 6355 b7bc 6cd3 103e
000003a0: 7fb6 373e c058 c6bd 4afc bb3d 1f61 b33d
000003b0: 703c 273d ca27 153d 4c3b f3bd c295 74bd
000003c0: a8fc 6f3d 7528 d4bd 8e42 14bd c49b 50bc
000003d0: 95f9 2738 91d4 093c a3db 51b5 d246 2bbc
000003e0: 87ea 82ba 57c1 2538 3b69 5ebb 7741 c739
000003f0: 6b17 a13c 8e0c 583d 6f68 833c 3b27 233d
0.05560139 -0.13666426 -0.04055311 0.111361705 -0.17744054 0.00018193189 0.09100137 -0.06784565
0.016128235 0.014520666 -0.021877248 0.12154756 0.07510688 -0.11974227 0.12227122 -0.010929076
-0.011420499 0.12044166 0.00017907454 1.4933494e-07 -1.1022196e-06 -4.073333e-05 -9.738916e-06 -0.0012820901
-0.0018370822 3.6796707e-06 1.6375559e-08 0.12549333 0.037003435 -0.07986651 -0.14848234 -0.08255101
0.009060398 0.037232254 -0.09404355 0.09516175 -3.4697694e-06 3.4058794e-05 -1.2768639e-06 -5.253399e-06
-0.004147587 -5.894772e-06 6.8054584e-07 2.0646903e-06 -0.0014621277 -0.03457279 0.15395558 0.071333595
-0.044687428 0.037084833 -0.038932536 0.12627403 0.081280425 0.14301965 0.040078968 -0.1754814
-0.008858934 0.049974076 0.07732792 0.042914 -0.0941686 -0.05328365 0.12174246 -0.00012986216
-4.1771873e-05 -4.328564e-07 -0.010413541 -1.3462519e-06 2.6953921e-06 -0.010242655 9.366679e-07 -1.1763994e-05
-0.1365112 0.12565571 -0.100640714 -0.013856428 -0.10874044 -0.09037242 -0.09291048 0.09231571
0.015218523 -1.0857738e-05 0.023433028 3.5355006e-05 -1.5850508e-06 0.00010600881 -0.015129907 0.00035279215
0.008970565 5.6077774e-06 -0.10047055 0.046312846 0.11997988 0.009947374 0.05952591 0.16003284
-0.11468456 -0.1303989 0.028342653 -0.055736825 -0.0055978056 -0.041847333 0.008892895 -0.06102736
0.09952082 0.18287182 0.010666456 0.0680748 -0.002307833 0.0008116643 -1.1697947e-05 -2.7405088e-07
0.006527835 -0.022317 -9.927308e-06 -1.0630218e-05 -1.0431603e-07 0.056384414 0.0010647143 -0.103253655
-0.06498565 -0.029681846 0.08853318 0.07289871 0.008117723 0.047808 -0.0010259737 0.011243192
-3.726735e-05 -0.021971483 -1.4574013e-09 -0.02034995 -0.0072992705 -2.8154273e-07 4.938414e-06 0.08938853
-0.13844198 -0.046070293 0.037872 0.028387768 0.008847791 0.14574167 0.17994179 0.16466774
0.034520265 0.035661135 -0.09115883 -0.007114902 -0.15679832 -0.116462894 0.095672555 0.045860354
-0.100760505 -0.002389975 1.6951702e-07 -0.00014530662 -1.5888653e-06 -0.001161549 -0.00039491942 -8.575474e-06
-2.6922211e-05 -0.007783934 0.049900666 0.12510784 0.08836976 -0.17208716 0.11558089 0.04230511
0.0666714 0.057813015 0.035513327 0.020474862 0.0009530589 -0.0013649137 -1.12841434e-07 0.00085925794
1.0851959e-05 -4.482076e-06 0.017138865 1.3524188e-06 0.113866575 -0.017722566 0.10604385 0.04128181
0.008283575 0.025503775 0.030540504 0.047167987 -0.110492155 0.12604272 -0.13687603 0.09312277
0.09896654 0.056717597 0.1032395 0.10813395 0.033866093 -0.12985244 -1.927834e-05 2.0346965e-07
0.0032212655 -0.023615273 -0.0024178377 4.1906029e-07 -0.005589961 -0.0008453809 -1.0286598e-09 0.12480171
-0.0114438925 0.12356226 0.018737901 0.048433512 0.15118939 0.120036 0.046865456 0.003394114
5.87151e-06 9.533807e-06 -3.4658954e-06 0.002404863 -2.4793655e-07 2.9690577e-06 -5.994033e-06 -0.003640654
0.021782875 0.09503915 0.12885539 0.1189456 0.115348294 -0.096496545 -0.022379583 0.14143151
0.1794071 -0.096848965 0.0917898 0.08758759 0.040829122 0.0364149 -0.11876544 -0.059713133
0.05859056 -0.10359279 -0.036196284 -0.01273245 4.0048344e-05 0.008412496 -7.817818e-07 -0.010453897
-0.0009988107 3.9519127e-05 -0.0033937234 0.00038005013 0.019664487 0.052746348 0.016041009 0.039832335

conv1.bias f4 [32]
00000000: f38c da3d ba34 053d c3fe 75bc bd5f e33d
00000010: 1b6b 84bd 103f 1cbe 8a9f 2e3c 50d5 b93d
00000020: 6907 893d e54f a7bd 358d 403e 75d6 3fbd
00000030: e2fd 1d3e bfbc 133e 5b4a 80bd a229 29bd
00000040: 5f2a f9bc dfe0 a9bd 7379 37bd 1c59 1e3e
00000050: 6f14 3ebd a154 603d d368 a13c 18a9 83bd
00000060: 1557 eebd f2e3 a83d 6dbc f5bd 2168 0c3e
00000070: c4b0 113e abaf abbd 9e80 b0bd 4fb2 e43d
0.10671415 0.032520987 -0.015014353 0.11102245 -0.06465741 -0.15258431 0.010658154 0.09073889
0.066908665 -0.081695355 0.18803866 -0.04683538 0.1542888 0.1442747 -0.06264182 -0.04129947
-0.030415712 -0.08294844 -0.044793557 0.1546368 -0.046406206 0.05476821 0.019703304 -0.064287364
-0.11637703 0.08246602 -0.1199883 0.13711597 0.14227587 -0.083831154 -0.08618282 0.11166822

conv2.weight f4 [64, 32, 3, 3]
00000000: 400e bcbc 7973 2f3d 6fed 3c3c bc52 b73c
00000010: 250f 2bbd 3898 56bd 35fe 29bd 5d17 f83c
00000020: 8c59 5bbc 7198 09bd cb73 27bd 3913 91bc
00000030: d3aa 1e3d 0212 353d 626a 5c3d 2f93 543d
00000040: 9d00 c63c 2e46 3e3d 10d7 79bd b97a 80bc
00000050: ac00 63bc a0de b33c 4c59 063d 5690 813c
00000060: f595 583c d607 c63b 7346 d7bc c320 86bd
00000070: 2085 83bb 0b4c 0f3d 7906 a73b 3a2e 76bb
00000080: f616 5c3a 0faa 443d 37c1 013d 6033 a53d
00000090: b54b 9c3a b631 5a3d 0071 0fbd 78f0 b23c
000000a0: b90e 5b3d 62cb 2fbc ffe8 0b3c b131 933c
000000b0: 2da4 04bc 2a70 45bd 40b3 913b 5ed2 153c
000000c0: 9098 0cbd 0745 a5bc 8dcd 473c e352 06bc
000000d0: 499d 953d 52c0 373d 33b3 8abc 8e56 9fbc
000000e0: b84f 83bd 6499 59ba 4de2 d93c e8a8 02bb
000000f0: 49f4 e63c b8b6 acbc e33c babb 33fe 253c
00000100: 4bf1 18bd 41b2 fe3c 8364 1cbd 4455 b73d
00000110: a241 293d 374e 463d 80cd 8ebc c635 e0bb
00000120: 167b 9cbd 563c 68bc ec37 cf3b 1caa 5ebd
00000130: be8c 1f3d 986d 6fbd 4027 a7bc 724e 2b3d
00000140: 0452 5b3d 3d4c b53c 18a0 17bd 48b0 fbbc
00000150: 850c ec3c e58d 97bd ee80 15bd 3145 563d
00000160: d9dd 4a3d aa46 cf3c aa7b 2abd df7b e03c
00000170: c321 81bd 2e9c 71bd 9384 81bd 5524 b0bd
00000180: 4168 e7bc 23bc 86bc aead d6bc 8613 dd3b
00000190: f523 7a3d f8d2 be3a 6e30 7cbd 8505 c43c
000001a0: ce38 4c3d 1b30 6b3c ffff 3e3d 187b 1dbd
000001b0: 54b1 a2bd 80d0 06bd 9fd4 9ebd fba0 daba
000001c0: 6269 7a3d 7834 a6bd f526 32bd 8ad9 c8bc
000001d0: 5324 f83b 83aa 72bd 807c 50bd 4a38 a83c
000001e0: f3dc 66bd 4674 003d f2f2 34bc c2f7 22bd
000001f0: aea4 8f3c 23b2 2a3b fd30 8abc d2bf 8f3c
00000200: bd71 49bd 080d 60bd c9f7 bcbc dcde 8b3c
00000210: 2985 3dbd 714c 233c 9294 1c3d 6df8 03bd
00000220: cbee 85bc bf31 a1bc 3e94 5abd 0625 a8bb
00000230: 4541 a7bc 3dd8 f63b 1d78 edbc 6834 d7bc
00000240: 489b 7b3d 6236 2fbd e0fd 62bd fe87 00bd
00000250: 4098 64bd 80cf dcbc b7bd a23c 6189 213d
00000260: 1b3d d9bc 0b4a b5bc 4c07 263d 8d25 253c
00000270: a12d 34bd 710e 8cbc 0005 a33d 54e5 4f3c
00000280: 305f 803d ff08 d8bc 759f 23bc fea8 153c
00000290: 7543 1e3d fd74 56bb 5dda 70bd 3d28 0d3c
000002a0: 970c 433d 9f96 403a 450e 4a3d f5d0 d33c
000002b0: 7870 5cbd af4b 41bd 94b9 c53b cc7f 3e3d
000002c0: 5f3c 1ebd e543 bc3b 51c4 5cbd 2cc5 95bd
000002d0: 58b5 3abd 19cf 2e3d 9e48 103c 89c2 15bb
000002e0: 3eb9 493d 23fe 8e3c b6cd c13c 223d 0e3d
000002f0: c4aa 173b 34c9 093c 7552 823b 35a2 6bbd
00000300: 4450 adbc f9c3 533d b7cd ac3b 1858 53bc
00000310: 1bab 83bd 84f1 85bd 529b 493d 4c30 e63b
00000320: 4ffa 953b 41ba 52bd c11a c7bc 1045 2ebb
00000330: 7895 57bd aba6 6c3c 9f13 0cbd fe92 4e3d
00000340: fc50 3cbd 9f92 28bd d828 9038 ecb8 493c
00000350: 2d49 2dbd c839 603c fd93 a13d 6f57 923d
00000360: f4be d9bb 1219 9e3c a856 143d fa5b d1bb
00000370: 70a1 753c ab32 a3bd c30e 823d ca0c 92bc
00000380: c93c 9dbc 5639 0b3c 513f 3b3d c62b a53c
00000390: 3e42 c3bc be34 d3bc e948 50bd a53b 063d
000003a0: f23a 163b 0e01 c53c b4be 1f3c 3eb8 1f3d
000003b0: 1855 c23c b7e3 043d 6888 593b a1eb 9c3d
000003c0: 5e45 833d 8279 683c a662 743b a356 043c
000003d0: 6a38 86bd dbdd 69bc d3c3 9e3c 5659 2dbd
000003e0: 80de 99bc c9b1 30bd fb0b 48bd 2eeb 58bd
000003f0: 170a d0bc 1e43 1b3d 8b9d 2e3d bd44 ce3c
-0.022956014 0.042834733 0.011531218 0.022378318 -0.04176249 -0.05239126 -0.041502196 0.030284578
-0.013388049 -0.033592645 -0.040881913 -0.017709361 0.03873713 0.044206627 0.053812392 0.051898178
0.024170214 0.046453647 -0.060996115 -0.015683519 -0.013855141 0.021956742 0.032800004 0.015815895
0.013219346 0.0060434146 -0.02627871 -0.065492176 -0.0040136725 0.03498463 0.005097207 -0.0037564174
0.00083957554 0.048013743 0.031678405 0.0806644 0.0011924418 0.053270064 -0.035019875 0.02184318
0.053480837 -0.010729643 0.008539437 0.01796803 -0.008095783 -0.04820267 0.004446417 0.009144394
-0.034325182 -0.020174516 0.012195003 -0.008198473 0.073053904 0.044861145 -0.016931152 -0.019450452
-0.064116895 -0.000830075 0.026597166 -0.0019937102 0.028192656 -0.02108322 -0.005683528 0.010131407
-0.03733949 0.031090857 -0.038181793 0.0895181 0.041322358 0.048414435 -0.017431974 -0.006842348
-0.07640664 -0.014174541 0.006323805 -0.054361448 0.03895258 -0.058454126 -0.020404458 0.04182286
0.053545013 0.02213108 -0.03701791 -0.030723706 0.028814564 -0.07400111 -0.03649991 0.05231208
0.049527977 0.02530225 -0.04162184 0.027402816 -0.06305268 -0.058986835 -0.06324115 -0.0860068
-0.028247954 -0.016447132 -0.026205864 0.006746712 0.061069448 0.0014558723 -0.061569624 0.023928413
0.04985886 0.014354731 0.046630856 -0.03844747 -0.07943979 -0.032913685 -0.07755398 -0.0016680056
0.061135657 -0.08115476 -0.043494184 -0.024517793 0.0075726896 -0.059244644 -0.050899982 0.020534653
-0.056363057 0.031360887 -0.011044251 -0.03978706 0.01753458 0.002604612 -0.016869063 0.017547522
-0.049180735 -0.054699928 -0.023067372 0.017074041 -0.04626957 0.0099669555 0.038227625 -0.03221934
-0.016349217 -0.019677041 -0.05336403 -0.0051313667 -0.020416865 0.007533102 -0.028987939 -0.026270106
0.061427385 -0.042776473 -0.055417895 -0.031379692 -0.05580926 -0.026954412 0.019865854 0.039437655
-0.026518395 -0.022130033 0.040534303 0.010079754 -0.043988828 -0.01709673 0.07959938 0.012688953
0.062681556 -0.026371477 -0.009986748 0.009134529 0.03863855 -0.003272354 -0.058801997 0.008615551
0.04761943 0.0007346663 0.049330015 0.025856474 -0.053818196 -0.047191318 0.0060340855 0.046508595
-0.038631793 0.0057453983 -0.05389816 -0.07312998 -0.0455831 0.042677972 0.008806376 -0.0022851548
0.049248926 0.017455166 0.023657661 0.03472627 0.0023142556 0.008409787 0.003977115 -0.05752774
-0.021156438 0.051700566 0.0052735466 -0.012899421 -0.0642912 -0.06540206 0.04922039 0.0070248004
0.0045769583 -0.051447157 -0.02430475 -0.0026591457 -0.05263278 0.014444034 -0.0341984 0.05043315
-0.04597567 -0.041155454 6.874063e-05 0.012312155 -0.042306114 0.013685651 0.07889555 0.07145583
-0.006645078 0.019299064 0.036215454 -0.0063891383 0.014992103 -0.079686485 0.06350472 -0.017828364
-0.019194024 0.008497557 0.04571468 0.020162474 -0.023835298 -0.025781985 -0.050850783 0.032771725
0.0022923318 0.024048354 0.009750057 0.038994066 0.023722216 0.03244373 0.0033192877 0.0766213
0.06409715 0.014189126 0.0037290244 0.008077296 -0.06553729 -0.014274086 0.019380486 -0.042321526
-0.018782854 -0.0431383 -0.04883955 -0.05295866 -0.025395436 0.037905805 0.042630713 0.025179261

conv2.bias f4 [64]
00000000: 4cac d93c fcc2 f23c 6c4e 8fbd e031 1bbd
00000010: da8f 84bc 61f3 6e3d 3464 3d3d 954f d03c
00000020: 780c bfbc bc7c 6f3d acf7 19bd 880d 08bd
00000030: 53b5 583d ace2 19bd 5f4a e73c 2505 c1bc
00000040: 9f5a 01bc 0242 a63d 8469 953c a541 823d
00000050: 0093 1b3a 0401 abbc f18b 8f3d 0ad0 5a3d
00000060: 2359 d93c 6a24 c53d ee1d 053b 94e0 473d
00000070: 24ae 66bd c54b debc 9876 713d a8ba 5c3d
00000080: 9772 c43b 2183 083d 8932 b63c 94e0 a43d
00000090: 2501 b93c 8d41 f8bc e2a0 a43c 9bf7 743d
000000a0: 8faf 073d 6b98 54bc 97f3 83bd 6124 15bd
000000b0: c75e edbb e3ac 533d a144 2cbd 8e62 863d
000000c0: 1309 853d 099f 49bd 9fd9 323d f93a 823d
000000d0: e29f b73d 99f4 a03a dcaa 773d cfd3 a03d
000000e0: dd7b 19bc 2dbc 293d 1330 a0bc 032f 1ebc
000000f0: 8f9d 6b3c b72c d7bc 5c68 35bd da1d 5dbc
0.026571415 0.029633991 -0.0699738 -0.03788936 -0.016181875 0.058337573 0.04623814 0.025428573
-0.023321375 0.058468565 -0.037589714 -0.03321603 0.0529073 -0.037569687 0.028233705 -0.023562023
-0.007895141 0.08118059 0.01823879 0.06360177 0.00059346855 -0.020874508 0.070091136 0.053421058
0.026531762 0.09626086 0.002031203 0.04879816 -0.056318417 -0.02713574 0.05895099 0.053888947
0.0059951055 0.03332818 0.022240894 0.080506474 0.022583554 -0.030304695 0.020096246 0.059806447
0.03312641 -0.012975792 -0.064429455 -0.036411647 -0.0072439644 0.05167855 -0.042057637 0.065617666
0.064958714 -0.049223933 0.04366457 0.063589044 0.08966042 0.0012279927 0.06046568 0.07852899
-0.00936791 0.041439224 -0.019554174 -0.009654763 0.014380827 -0.026266439 -0.044288978 -0.013495887

conv3.weight f4 [128, 64, 3, 3]
00000000: b335 ba3c a76d 2a3d 6183 2cbc a562 dfbc
00000010: 43e1 bebc 9284 c4bc 5506 403b 966e f6bb
00000020: a1b5 3f3c 9958 f63c ad6d 043d fff5 153d
00000030: 2c2d 1abd 38a7 1b3d 0518 13bc 6eaf 10bc
00000040: e75d 99bb d1bf 01bc 1f0c 813d 1da1 03bd
00000050: 90bf 50bc 3c78 d13c 1afb 02bc 528b db3c
00000060: 27a5 51bd 27dc 12bd 97a8 eb3c 84e2 523c
00000070: 5975 5bbc ff09 a73d 270c 01bd 0521 863c
00000080: 9e5d a73d a96b 803c 400b 3f3d 04a5 5bbd
00000090: 170f 043c 01be 46b9 8a1b 3fbd a1e4 adbc
000000a0: b5bb 33bd 18a0 eabc 1be1 24bd 5703 00bc
000000b0: 6101 123d 4980 fb3c d1a6 873b 3723 f8bc
000000c0: f8ab 853d 9843 2d3c 1088 0ebd 6eae 063d
000000d0: 7dda 67bd 6cf4 653c df8b b73c c4f5 98ba
000000e0: d18a cebc 4f1f dbbc 9c0f f3bc 41fe 2bbc
000000f0: 8d67 783c de6c cdbc dd09 57bc dc27 d33b
00000100: 09cf 0fbc 3307 203d 5b71 cfbc 0e17 f53c
00000110: 23f9 b2bb 09eb cf3c 3fca c5bb 892b ee39
00000120: 49d4 bc3b 8092 643c 68d6 16bd d2bc e63c
00000130: 1d2d 6e3c 3dfd 09bc 807d 003d de2a 35bd
00000140: 61f8 c2bc e056 c5bc c2c8 cfbc 0954 66bd
00000150: ae80 31bd 4beb 68bd 504d 043d 23d9 14bd
00000160: 6eb4 123d 39aa d2bc 41bc b43c 3167 803c
00000170: 3e3d 61bc 7013 c83a 34da 9d3c 43dc 8bbc
00000180: 8fca fa3c 7a2c 723c 644c 59bd 7da3 37bd
00000190: ce9e 5a3d 924a 863c 7949 1c3d 078e 1c3d
000001a0: b70a a1bc a84c bc3c d976 68bd 4c1e 6c3d
000001b0: daa7 17bd f793 203d 4019 b6bc 5174 5d3c
000001c0: 13ce 963c 672d e5bc ce28 e83b 9214 67bb
000001d0: 502e 9f3d 64db 1fbc 7494 c7bc 206a 1abd
000001e0: 0536 113c 8c1b 843c a4a9 e5b9 e911 573d
000001f0: 9440 783c c56d 06bd ec71 7bbd 133a 793c
00000200: a28d abbc 2cd6 88bd 4ee1 e5bc b03c 423b
00000210: 69a6 dd3c 8d60 1a3c a80c b13c 4f0e 38bb
00000220: 988c 16bc 91f7 e2bc db72 1c3d 7cc7 9cbd
00000230: b19f 4abd 1632 3e3c fd6c 0a3c 0632 a1bc
00000240: 5647 b63b b06e 9fbc c0a5 14bc b8c2 dfbb
00000250: de3d 3ebc ff98 21bd 0a13 593c 2944 d2bb
00000260: 183f 0d3d ebc4 8abc 6b9e df3c a9ea bdbb
00000270: eebf 3f3d 3b37 413d 9780 c4bc f702 ef3c
00000280: 74d4 bc3b fe25 203c 5129 d83c 869b 4cbd
00000290: 9985 e23c fabb 9dbc e650 b33b 3de1 203d
000002a0: ee4c 6fbd fa02 a53c e1fb c93b 0ba8 ecbb
000002b0: ee03 513d add5 803d f8f7 0a3c 170e 05bd
000002c0: b094 a4bc 9220 563d 31b8 d33c dab4 70bc
000002d0: 4bbe 3cbb 4e43 fe3c 4be7 e53b 31c0 b5bc
000002e0: 82f9 c2bc 61ce 833a 2303 62bc 48a7 f13c
000002f0: 8370 603d 5184 7cbc bdda 433d 4a87 b83c
00000300: fabf 2abd aec9 143d c67e e2bb 9be3 61bd
00000310: ac46 42bd cd62 76bd 8131 bf3b e3f7 fa3c
00000320: 9a02 bebd 756e 453b cf3e 42bd bcd4 7bbd
00000330: dbe9 ec3c aa45 1bbd aaab a03d c261 2ebd
00000340: 5ecb 83bc 49d6 323d 3a53 29bd 7c7d 0e3d
00000350: c3d8 1cbd 5373 50bd 0eab c23c 67d4 c63c
00000360: e398 833c 10d1 9f3b b303 533c ad54 4b3d
00000370: 3044 c5bc 8973 e9bb b69f a8bb 9d27 d6bc
00000380: 329e ebbc 0320 85bd c6bf 023d d14a d53c
00000390: 5bfa bc3c 2892 103c 38fd 6fbd d870 d43c
000003a0: 02e1 54bb d50a 093d 3d3e cb39 06d4 9fbb
000003b0: 2959 3abd 75ea 69bb b126 29bd a242 673b
000003c0: a6e2 35bd 6fa3 a6bd eb1d cb3c de5b 5c3c
000003d0: ef17 10bb 58dd 0fbd 556a 97bc df11 903c
000003e0: 523b 84bc 2abd 43bc 3300 34bc ed5b 09bc
000003f0: 2584 38bd 3e04 4a3a f967 a73c 0de2 343d
0.022730684 0.04160848 -0.01052937 -0.027268717 -0.023300773 -0.023988996 0.002930065 -0.007520507
0.011701019 0.030071544 0.032331157 0.036611553 -0.037640736 0.03800127 -0.008977895 -0.008830888
-0.0046803835 -0.007919268 0.0630114 -0.03213607 -0.012740985 0.025570028 -0.007994438 0.026799832
-0.051182892 -0.035854485 0.028766913 0.012871388 -0.013394677 0.081562035 -0.03150573 0.016373167
0.08172153 0.015676336 0.04664159 -0.053624168 0.008060238 -0.00018953533 -0.046657123 -0.021227183
-0.043880183 -0.028640792 -0.04025374 -0.007813296 0.035645846 0.03070082 0.004139759 -0.03029023
0.06526941 0.010575198 -0.034797728 0.032881193 -0.05660485 0.0140353255 0.022405563 -0.0011669924
-0.025212677 -0.026748328 -0.029670529 -0.010497631 0.015161407 -0.025076326 -0.01312491 0.0064439606
-0.008777388 0.039069366 -0.025322607 0.02991822 -0.0054618283 0.025380628 -0.0060360725 0.00045427334
0.005762611 0.013950944 -0.036825567 0.028166208 0.014537123 -0.008422193 0.031369686 -0.044230334
-0.023800077 -0.024089277 -0.025364283 -0.056232486 -0.04333561 -0.056865018 0.032300293 -0.03633989
0.035816602 -0.025715934 0.022062423 0.015674205 -0.013747511 0.0015264582 0.019269086 -0.017072802
0.030614166 0.014781112 -0.053051367 -0.04483365 0.053374104 0.01639298 0.038156006 0.038221385
-0.01965843 0.022985771 -0.056753967 0.05764608 -0.03702531 0.03920361 -0.022228837 0.0135165015
0.01840881 -0.027975751 0.0070849424 -0.0035260064 0.07772505 -0.009756897 -0.02436278 -0.037698865
0.008862977 0.016126417 -0.00043804676 0.052507315 0.015152115 -0.032819528 -0.06138794 0.0152116
-0.02094156 -0.06681475 -0.028061535 0.0029638223 0.02705689 0.009422434 0.02161248 -0.00280847
-0.009188794 -0.02770594 0.038195472 -0.07655236 -0.0494687 0.011608621 0.008448836 -0.019677173
0.005562703 -0.01946196 -0.009072721 -0.006828632 -0.01161143 -0.03945255 0.013249168 -0.0064168167
0.034484 -0.0169396 0.02729722 -0.005795796 0.046813898 0.047171813 -0.023987098 0.029176218
0.005762631 0.009774683 0.026386889 -0.049953006 0.027651595 -0.019254673 0.0054722903 0.039277304
-0.058422975 0.02014302 0.0061640595 -0.0072221807 0.05102914 0.062907554 0.008481972 -0.03248414
-0.020090431 0.052277155 0.025844665 -0.014691556 -0.0028799947 0.031037953 0.0070160977 -0.02218637
-0.023800615 0.0010056013 -0.013794693 0.029498711 0.0547948 -0.015412406 0.047816027 0.022525448
-0.04168699 0.03632515 -0.006912085 -0.055148702 -0.04743068 -0.060152818 0.0058347587 0.03063578
-0.0927784 0.0030125652 -0.04742318 -0.061482176 0.028920105 -0.037908234 0.07845242 -0.042573698
-0.016088184 0.04366139 -0.041339137 0.03478764 -0.038292658 -0.05089123 0.023763206 0.024271203
0.016064113 0.004877217 0.0128793 0.0496413 -0.024080366 -0.0071243686 -0.005145992 -0.026141936
-0.028761957 -0.065002464 0.03192117 0.026036652 0.023068598 0.008823909 -0.058591098 0.025932714
-0.0032482748 0.033457596 0.00038765548 -0.00487757 -0.045495186 -0.0035692726 -0.041296665 0.003528752
-0.044405602 -0.08136641 0.02479454 0.013449637 -0.0021986922 -0.0351232 -0.01848332 0.017586647
-0.016141567 -0.011946956 -0.010986376 -0.008383733 -0.045047898 0.00077063206 0.02043532 0.04416089

conv3.bias f4 [128]
00000000: 711f dfbb 5e9c 16bd 10aa 95bc 5713 d73c
00000010: 504b 01bd 0ce5 233c c5e0 7fbc 1b71 4d3d
00000020: 7581 7fbc 9ef1 843c c2b0 4abb 8ca6 8cbc
00000030: be12 273d 4804 7abc 6761 5d3c 19b6 ff3c
00000040: 5b95 0d3d 3e4c 413d 8b67 c33c d417 1c3c
00000050: 4f06 1c3d d10d df3c 82bf 523d b178 f63c
00000060: 80f0 9fbc 997e 923c 87ed 3f3d 0949 98bc
00000070: b23e 21bb 2566 6abd 393b 49bd a210 cc3c
00000080: 666d 18bd 60ad 1a3d d3bd 013c 611b 1fbd
00000090: bd38 143d bda0 1abd a300 94ba f7de a8bb
000000a0: e397 463d db2b 4abc 4651 963c eb84 b0bc
000000b0: 6d26 fe3c 6684 883d 5b58 1f3c 2679 d33b
000000c0: c539 c53c 0e1d a4ba 489c 03bd 4066 6ebc
000000d0: e588 f3bc 868f 143d 0cd9 97bb a16b db3c
000000e0: 66c6 4fbc 006f 183d 17ab 07bc 223f 2d3d
000000f0: 5cdc 1a3d c670 f73c c654 273c 0637 7ebc
00000100: f49e b9bc 4821 213d fab2 063d b73e 773c
00000110: 5071 cf3c 8504 633c e679 9c3c 7cdf eb3b
00000120: 9e07 d3bc acf6 12bc e004 793c 02f0 5b3d
00000130: 189b 523d d817 5c3d 0cf7 923c 7531 693c
00000140: 2219 35bd 32ea ca3c b483 47bc 851c 12bd
00000150: 9e4e 3c3c 71a3 fabb 970c 123d ed52 20bc
00000160: 06e6 8a3b 28db c83c 8718 f9bc 4c13 663d
00000170: 28fd 23bc 47e2 c83c 1446 313c dc84 62bb
00000180: 07e8 daba 8e2c c23c 9b76 89bc 0a15 983c
00000190: 40af c13c c5e0 483d 58b0 2ebc 894f 02bb
000001a0: b823 f03c 9f61 503d 63e6 e5bb 9966 833c
000001b0: 8598 e1bc a504 4c3c 5b55 dfbb 53fd 833c
000001c0: 688d 22bd 6292 c5bb d201 073c adb9 473d
000001d0: e524 d3ba 60b4 c6bb 73dc 7cbc 24b3 163b
000001e0: 53b6 61bc e5c8 69bb dd2b b6bc 025b 373c
000001f0: 7b5f ddbc e3f1 10bd 9764 cbbc c4ab 5b3d
-0.006809168 -0.036770217 -0.018269569 0.02625434 -0.031565964 0.0100033395 -0.015617554 0.050156694
-0.01559483 0.016228493 -0.003092811 -0.01716926 0.04078936 -0.01525981 0.013511992 0.03121476
0.034566265 0.04719185 0.023853084 0.009527165 0.038091954 0.027228268 0.051452167 0.030086847
-0.019523859 0.017882632 0.046857383 -0.018589513 -0.002460402 -0.05722632 -0.049128745 0.024910275
-0.037213705 0.037763 0.007918793 -0.03884447 0.036186922 -0.03775095 -0.0011291694 -0.0051535326
0.048484694 -0.0123395575 0.018349301 -0.021547755 0.031024182 0.06665878 0.009725655 0.006453651
0.024075398 -0.0012520866 -0.032131463 -0.0145507455 -0.029728362 0.036269687 -0.0046340283 0.02678472
-0.012681579 0.037215233 -0.008280537 0.042296536 0.037807807 0.030205142 0.010213083 -0.015516048
-0.022658803 0.03933838 0.03288553 0.015090636 0.025322586 0.013856058 0.019101094 0.0071982723
-0.025760468 -0.008969944 0.015198916 0.053695686 0.05141744 0.053733677 0.017940067 0.014232983
-0.04421342 0.024769876 -0.012177397 -0.03567173 0.011493353 -0.0076488783 0.035656538 -0.009785396
0.0042388467 0.024518564 -0.030407203 0.056170747 -0.010009088 0.02452196 0.010819931 -0.0034564054
-0.001670123 0.023702886 -0.016780188 0.01856472 0.023643136 0.049042482 -0.010662161 -0.0019883832
0.029313907 0.05087435 -0.0070159896 0.016040133 -0.027538547 0.012452279 -0.006815595 0.016112005
-0.039685637 -0.006029413 0.00824018 0.04876106 -0.0016109018 -0.006063983 -0.015433419 0.002299496
-0.01377638 -0.003567272 -0.022237713 0.011191132 -0.027023068 -0.03538693 -0.024828238 0.053630605

act_conv1.weight f4 [4, 128, 1, 1]
00000000: 49cc b23b a62b 3f36 6a91 0f3d 2280 37bd
00000010: 17c3 343c 7571 8d3c 8714 4d3d d6ad a93c
00000020: 29d0 903d cfd9 d8bd 6d73 4bb5 8d47 c83c
00000030: cbbd fdbd 1cf8 323c d014 f53c 714d 49bd
00000040: 7266 8c3c ddce 4bbd 3081 e83c 9ca3 0e3c
00000050: 8538 50bc 4878 c53c 5dc5 bcbd 7385 d23b
00000060: ef8f 873c f537 153d c9ef 77bb 6300 1abd
00000070: 7cef 163c e58b 30bd 5b0e bebc b3b7 273d
00000080: a425 69b5 a908 323c 1c09 d9bc 46cd 693d
00000090: f8ed 87bd 17b1 d8bc 492a afb9 c884 09b9
000000a0: 2fa7 0cbd e791 15bd 0916 13bd 824a 34bd
000000b0: 4862 393b bc56 a6bd c7d0 86ba dc86 acbd
000000c0: 5eaf 943c 7e44 02bd 975e 193d d37d 053d
000000d0: 027c 243b af10 17bd 5f31 45bd 7977 713d
000000e0: 210e 3bb5 dc4b d5bd 8706 98bd 315a a3bc
000000f0: 50db a0bd 9867 ed3c e5fb 253d d144 f137
00000100: 25e2 763d 8fe2 4fbd 02d7 423d f0d3 11bc
00000110: 79f1 bbbc 7411 abbb e004 1a3d 93a2 223c
00000120: ff33 0fbd 6842 993d c387 583d 4734 65bd
00000130: 57eb 133a 2078 9e3b 2d0f 80bd 553d b6bc
00000140: cf4d 4e3c ef02 223d c9ec 103c 2ca2 bdb6
00000150: 264e bcbc 4195 5db6 9b56 a5bd 2ed3 963d
00000160: 974b 293d 094a ca3b 2faf 343c 04f6 90bd
00000170: 2616 c03c 6279 693d c469 00bd 6bac 1a3d
00000180: a8b9 16bd 7f46 5e3d 3fe3 f3bc f300 893d
00000190: ee69 203c 37d2 ca3c cc0d 3d3c fde1 94bd
000001a0: 1302 83ba b94b d93b 5e6e 8c3b 9ab1 afbd
000001b0: 7f85 e43c 9fb0 803d 4485 dbbc 3349 9a3c
000001c0: ca24 3537 4eb9 243b 4121 10bd a460 b1bb
000001d0: 1e1d 2bbd a4ee 273d 21e8 2c3d 30ea 923b
000001e0: bc55 a13d c2be 8abc ed72 72bc 01f3 b1bd
000001f0: 4ed7 91b9 9242 3e3d eb62 2a36 77ab 45bb
00000200: 4eef feba 9838 7d3d 489b 79bd 01a3 8fbb
00000210: 6081 8f3d 0c58 a3bd 9135 70bd b102 aa3d
00000220: b1fa 9f3d 4bd8 9abd 6e8d dabb 3c82 f4bd
00000230: 1714 c93b f166 db3c 598c b43d 6594 db3d
00000240: 6725 ecbd 606f 3cbd 4f23 0c3c 11a6 643c
00000250: 9dda 213d b6e1 8dbd af7e 003c eff9 d5bc
00000260: 9feb 633d f4bf fabb 55ae 72bc 321c e33d
00000270: 53c7 203d 1eb2 a9bd 6896 65bb df2d 34bd
00000280: f35e a0bd 3531 df3c 6414 583c da7b b2bb
00000290: 9629 a73d 995b 973d d23d 323c e8a2 73bc
000002a0: 0442 0b3d 4dd1 c3ba e2ea cbbc bb93 6f3d
000002b0: be2d 9fbd 1e14 9f3c edbf 3dbd 4ce0 71bc
000002c0: 7aaa ecbd 4dea b5bc b725 543d 43e8 413c
000002d0: 98ca 17be 5784 b43d 701d 0f3d 8dcf 52bd
000002e0: efe5 0bba 258a 873d aa5d 703c beb1 923d
000002f0: 985c 9f3d 21df 4b3c 2a9f d1bc d477 9d35
00000300: 0500 cb3b 843e 863d eaa7 ae3d 10de 9c3d
00000310: d4c8 8e3d b64d 5abd 914c 8cbd 71bd 923d
00000320: cd46 c63d e2f8 9b3d 4d84 6f3d a377 a4bd
00000330: c322 2ebc 7a9e b03c e3b1 b03d a1e0 dd3d
00000340: d84f 2ebd 90c7 c0bc a2c2 cabc 9f74 edbc
00000350: 070f 913d 709e dab4 eca7 b43d d40b 86bd
00000360: de7e 8e3d da29 533c ccca 033c 3dad 083d
00000370: 9fd6 f9bc d7ad a8bd 150a 833d dfa8 503d
00000380: 6741 b53d f2db cf3c adeb 89bd b152 143d
00000390: 4c74 e53d 73e9 903d f180 e3bd 293f 033e
000003a0: 0aa9 a03d 252a 09bd 4892 98bc 77df 0c3e
000003b0: 2feb a2bd d73a b7bb bf10 ae3d c947 1abd
000003c0: a9df e2bb b23d 423d fb21 1b3e 57c2 07be
000003d0: 8dcf 8a3c 962e c0bd d538 783a 43dd 2e3d
000003e0: 9e18 84bb a8ff dc3c 6473 d33d ef23 533c
000003f0: 3688 d63c 0e43 e53c f467 7c3c a376 d53c
0.0054564816 2.8486625e-06 0.035050787 -0.04479993 0.011032841 0.017266015 0.050068405 0.020712774
0.070709534 -0.10588419 -7.579136e-07 0.02444818 -0.12389716 0.010923412 0.02991715 -0.04914612
0.017138693 -0.049757827 0.028381914 0.008706 -0.012708788 0.024105206 -0.092173316 0.0064246
0.016548125 0.036430318 -0.0037832132 -0.037598025 0.009212371 -0.043102164 -0.023200205 0.040946674
-8.685404e-07 0.010866323 -0.026493602 0.05708053 -0.06637186 -0.02645163 -0.00033410106 -0.00013114803
-0.034339126 -0.036516096 -0.035909686 -0.04401637 0.002828734 -0.08122012 -0.0010285609 -0.0842416
0.018150028 -0.0318036 0.037443724 0.0325907 0.0025098328 -0.036881145 -0.048142787 0.05895183
-6.968349e-07 -0.1041486 -0.0742312 -0.019940468 -0.078543305 0.028980061 0.04052343 2.8761484e-05
0.060274262 -0.050753172 0.04756833 -0.0089006275 -0.022942292 -0.0052205864 0.037602305 0.009926456
-0.034961697 0.07483369 0.052863847 -0.05595806 0.00056426733 0.0048360974 -0.062528946 -0.022246042
0.012591793 0.03955358 0.0088455165 -5.651518e-06 -0.022986483 -3.3018443e-06 -0.08073159 0.07364498
0.041331854 0.0061733765 0.011028095 -0.07078174 0.023448061 0.057000525 -0.031350866 0.037762087
-0.03679815 0.05426645 -0.029771445 0.06689634 0.009790881 0.024758441 0.011538934 -0.07269666
-0.0009995125 0.0066313413 0.0042856177 -0.08578797 0.027895687 0.06283688 -0.026796944 0.018833732
1.0797006e-05 0.0025134864 -0.035187963 -0.005413132 -0.041775815 0.04099907 0.042213563 0.0044834837
0.07877681 -0.016936664 -0.014797908 -0.086889274 -0.0002781697 0.046450205 2.5389552e-06 -0.0030162015
-0.001944998 0.06182155 -0.060939103 -0.0043834453 0.07007098 -0.07975778 -0.058644835 0.083012946
0.078114875 -0.07560786 -0.0066696918 -0.11938903 0.006136428 0.026782485 0.08815832 0.107216634
-0.115305714 -0.046004653 0.00855334 0.013955609 0.039515126 -0.069278166 0.007842704 -0.026120154
0.055644628 -0.007652277 -0.014812072 0.11089362 0.03925259 -0.08285926 -0.0035032276 -0.04398906
-0.0783061 0.027245143 0.013188455 -0.005446893 0.08162229 0.07390518 0.010878997 -0.014870383
0.033998504 -0.0014939696 -0.024892274 0.058490496 -0.077723965 0.019418772 -0.046325613 -0.014762949
-0.11555953 -0.02220645 0.05179378 0.011835161 -0.14823377 0.08814304 0.034940183 -0.051467467
-0.0005336692 0.06618146 0.014670769 0.07162808 0.07781333 0.012443335 -0.02558859 1.1732286e-06
0.0061950707 0.06554893 0.08528121 0.076595426 0.06971899 -0.053296767 -0.068505414 0.07165039
0.09681473 0.0761583 0.05847578 -0.080306314 -0.010628405 0.021559943 0.08627679 0.1083386
-0.042556614 -0.023532659 -0.024751011 -0.028986273 0.07082944 -4.0720943e-07 0.08821091 -0.06545225
0.06957792 0.012888396 0.008043956 0.033368338 -0.030497847 -0.08236282 0.06398407 0.050942298
0.08850365 0.025373433 -0.06734405 0.036211673 0.112038225 0.07075777 -0.11108578 0.12817062
0.07844742 -0.033487458 -0.01862444 0.1375712 -0.07955014 -0.005591731 0.08499288 -0.037666116
-0.006923635 0.04742212 0.15149681 -0.13257729 0.016944671 -0.093838856 0.0009468918 0.04269148
-0.004031255 0.026977375 0.103247434 0.012886985 0.026187997 0.027986076 0.015405644 0.026057547

act_conv1.bias f4 [4]
00000000: 5d3e 8cbc c8cd 473d d401 973d 01dd 90bd
-0.01711958 0.048780233 0.073733956 -0.07073403

act_fc1.weight f4 [36, 144]
00000000: 8508 15bd e350 76bd 0568 b7bd 86f7 c2bc
00000010: 26a8 0bbd 8b4a 89bd aac8 0abd a9bf 92bd
00000020: e41b b8bd f1f0 c9bd 7187 1fbd fe34 90bd
00000030: d279 f6bd 9f22 acbd 3d29 cebd f204 2ebd
00000040: a636 15bd 6630 e0bc a3a6 40bd fa2b 0dbd
00000050: c80a 36bd a155 00bd 3402 443c 4025 7bbb
00000060: ad1f 48bc 78f2 c4bc cbdd b0bd 6274 c2bb
00000070: d036 3e3c cc0c 9c3c 91c1 59bc ab4c bebc
00000080: 88d6 6dbc a53e c1bc 4a2c 07bd 92a9 02bd
00000090: 6cd2 823d 94cc 943d 9a29 46ba 1cea 2e3d
000000a0: b4ff 9d3c d79a c73c ffcf 9e3c a421 cebc
000000b0: 97ac b13c a008 933d ed93 3d3d 9693 8cbc
000000c0: eafa 6c3d d6ee 8e3d d67f 303d 3176 47bb
000000d0: 31af a1bd 9539 693d 80e3 61bd f0bf b8bd
000000e0: 1934 783d 4918 c53d 63ea d83c 7fd2 913d
000000f0: 5d8a 8ebd fb94 943d 737c e63c e2b9 bcbd
00000100: 2eba 013b b129 ecbc 114a 453d d2ec dabd
00000110: 4777 563d 57ab 17bc 961c cbbd 5800 923c
00000120: 4b21 313d ba88 23bd f757 32bd 8b86 8fbb
00000130: 7330 943d c08a 4239 2357 ccbc f889 d3bd
00000140: ea90 a1bd 42f3 c8bd cef7 8ebd 99fc 843c
00000150: 91b3 8bbd 452c 96bd dd28 d6bc a4df 65bd
00000160: 8a55 01bd 8158 e8bd 76dd 1db9 91b5 d1bd
00000170: f759 c1bd f76f 99bd 73d9 8ebd 5670 10bd
00000180: 88ad a4bd 7d7a 2cbd 8ce4 823c 6e66 fcbd
00000190: a547 963b 5ec6 843b a293 0d3c 4278 44bd
000001a0: fed5 1abd 8ce6 c1bd 7c3c f0bc 5746 fabc
000001b0: 31c2 86bd 2247 64bd 3958 ebbc 9b04 b4bd
000001c0: 4239 f5bd 8270 913c 76a6 053d 4ae9 d7bb
000001d0: 8a1f a13c d205 8cbd 1eb2 34bd 757b 363d
000001e0: 4596 d1bc 58cf 1bbd 377c bfbb a3f2 533d
000001f0: ded4 dcbc 645e 8cbd ca13 7abb 6872 563d
00000200: 1a24 10bb 5af2 77bc f269 8d3c 3658 503d
00000210: cc96 eb3c b6d6 a43c 9090 fd3c 2f0d cbbc
00000220: 0f4d a8bd 22ec 9fb8 a74e 8b3d 317e a83c
00000230: 0a64 3dbd f2e8 043d 71d5 463a 9de8 92bb
00000240: 8282 f6bc 44d2 92bc ca2a b63c 8316 17bd
00000250: 49cd eabc 5b4a d8bc 493f c3bc 8da5 d4bc
00000260: cc7f 5cbc 6dfc 7fbc 34ae bcbc b1e6 ebbc
00000270: 16e2 56bc 50ed 16bc b1dd 95bd b54d c1bc
00000280: def7 7e3c 1069 cf3a cd80 3ebd b11d 97bc
00000290: 6314 ae3c dfaf a2bb fd25 77bd c3dc 72bd
000002a0: bc9a 813c f665 29bd aff9 723c 4013 8e3c
000002b0: 6d14 02bc 9672 50bd 985f 2fbc 7830 ab3c
000002c0: f253 ba3c 5fbc d1bc 87e0 333b 15f4 16bd
000002d0: 15b9 3cbe 7c75 27bd 24a6 2fbd da3c fe3d
000002e0: 7773 fb3c cf30 db3d 7992 58bd 6111 e33d
000002f0: f731 b1bd 6689 54bd 81c7 a2bd d8a3 223d
00000300: c9d6 76bd 6b48 bfbc fef1 01bd 597b e4bd
00000310: 8d81 febc 4e2a c6bd 3914 cebc ff1b aa3c
00000320: c481 8bbd d439 abbd c772 a5bd 1825 0ebd
00000330: e89d c8bc 53f6 e8bd 9973 8bbc 9a2a 043c
00000340: 0b8c eebb 2e0a e9bd 52a1 cd3c 05be 07bc
00000350: e5bc 30be 32c6 c63c 61ef c1bd b51e dcbc
00000360: 105d 1a3e 5944 0e3e 0800 8b3d 7f58 ba3d
00000370: d3a9 a73d 2d78 fb3d ba21 95bc cb6e a03c
00000380: 247c a13d 49b9 9c3d ae6f 3a3d 711e 00ba
00000390: b57d 883d 8edc 5e3d c293 8cbc 4476 3e3d
000003a0: 643f a1bb 5683 31bd 1f68 573d 81ee 833d
000003b0: c001 17bd 6c12 dfbc 2149 183d dd25 a6bc
000003c0: 71c9 ad3d ab8a a43d 6046 0b3d 3af8 973d
000003d0: bca9 ab39 f1bb 11bd bb06 803d 11fb 8e3a
000003e0: 9e6a 9bbd 4290 a3bc adef 573d 927b a8bd
000003f0: 6704 dd3b 0187 4abd e44e dcbc 5337 81bd
-0.036385078 -0.060135733 -0.08955387 -0.023799669 -0.034095906 -0.06703671 -0.033882774 -0.071654625
-0.08989695 -0.09860409 -0.038947526 -0.070413575 -0.12034954 -0.08405041 -0.10066459 -0.042485185
-0.03642907 -0.027366828 -0.047033917 -0.034465767 -0.044443876 -0.031331662 0.011963416 -0.0038321763
-0.012214583 -0.0240414 -0.08636054 -0.005934284 0.011609748 0.01904907 -0.013290779 -0.023229918
-0.01451648 -0.023589442 -0.03300122 -0.031899996 0.06387791 0.07265583 -0.00075592997 0.042703733
0.019286968 0.024365826 0.01938629 -0.025162525 0.021688743 0.071793795 0.04628365 -0.017160218
0.057856478 0.06979148 0.043090664 -0.0030435438 -0.07894743 0.05693968 -0.0551486 -0.09020984
0.06059656 0.09623773 0.026478952 0.07120227 -0.069599845 0.07254978 0.028135514 -0.09215142
0.001979481 -0.028828474 0.04816634 -0.10689701 0.052359845 -0.009257159 -0.09917562 0.01782243
0.04324464 -0.039925314 -0.04354092 -0.0043800524 0.072358035 0.0001855297 -0.024943894 -0.1032905
-0.07888968 -0.09812023 -0.06980859 0.01623373 -0.06821359 -0.073326625 -0.026142532 -0.056121483
-0.031575717 -0.11345006 -0.00015055187 -0.10239709 -0.094409876 -0.07492059 -0.06975069 -0.035263382
-0.08040911 -0.042109 0.01597812 -0.123242244 0.0045861774 0.0040519675 0.008641155 -0.04796625
-0.037801735 -0.094678015 -0.029325716 -0.030551119 -0.06580008 -0.0557319 -0.028728591 -0.08789941
-0.11973812 0.017753843 0.032629453 -0.0065890895 0.01966836 -0.06837048 -0.04411518 0.04455133
-0.02558435 -0.038039535 -0.005843665 0.05174507 -0.026956972 -0.06853941 -0.0038158768 0.0523552
-0.0021994174 -0.015133465 0.017262433 0.050865375 0.028758429 0.020121913 0.030952722 -0.02478656
-0.08217823 -7.625694e-05 0.06802111 0.020567985 -0.046237983 0.032448716 0.0007584906 -0.004483296
-0.030091528 -0.017922528 0.0222372 -0.036886703 -0.02866234 -0.026402643 -0.023833888 -0.025957847
-0.0134582035 -0.015624148 -0.023032285 -0.028796526 -0.0131154265 -0.009211853 -0.07317675 -0.023596624
0.015562026 0.0015824158 -0.046509553 -0.018446775 0.021249956 -0.004964813 -0.060338963 -0.059292566
0.015820853 -0.041357003 0.014830037 0.017343163 -0.00793944 -0.050890528 -0.010703944 0.020897135
0.022745106 -0.025602518 0.002744706 -0.03685387 -0.18429978 -0.040883526 -0.042883053 0.1241395
0.030694706 0.10702669 -0.052874062 0.11087299 -0.08652108 -0.051888846 -0.079482086 0.039707035
-0.06026343 -0.023349961 -0.031724922 -0.11156339 -0.031067634 -0.09676038 -0.025156127 0.020765303
-0.0681186 -0.08360639 -0.08078533 -0.034703344 -0.024489358 -0.113751076 -0.017022895 0.008066798
-0.007279878 -0.11378895 0.025101338 -0.00828505 -0.17259558 0.024264429 -0.09469486 -0.026870111
0.15074563 0.1389326 0.06787115 0.090989105 0.08186688 0.12278781 -0.018204559 0.01958408
0.07885006 0.07652528 0.045516662 -0.00048873486 0.06664602 0.054409556 -0.0171603 0.046499506
-0.004920887 -0.043338142 0.052589532 0.064419754 -0.036866903 -0.027230464 0.037179116 -0.020281726
0.084856875 0.08034261 0.03400266 0.07420392 0.00032742124 -0.035579626 0.06251284 0.0010908564
-0.07588695 -0.019966248 0.052718807 -0.08226694 0.0067449096 -0.049445156 -0.026893087 -0.063093804

act_fc1.bias f4 [36]
00000000: f05f c7bc 9792 283d 2d4a 76bb 6650 8dbd
00000010: 24b7 eb3b b2eb 72bd 2a2f efbd 0ac8 08bc
00000020: e271 7c3d 6328 96bd 81e5 61bd 39c4 043d
00000030: 0ea8 af3d f971 493d 6524 813c 0563 bdbc
00000040: 5f16 de3c 4a97 9b3d 31c3 223d 90fa 583d
00000050: 0221 55bd eed4 3d3d b3f4 623c bb9a 8e3d
00000060: 6805 3dbd cabd 2dbd 4afb d23d 537b 48bd
00000070: 7438 6c3d b45c 3abd d0a4 dbbd e0cb dcba
00000080: 170e 093c 2267 753c 5250 893c 7dd3 9a3c
-0.024337739 0.041155424 -0.0037580833 -0.069001004 0.007193463 -0.059306808 -0.11678918 -0.008348474
0.061632045 -0.07331922 -0.055150513 0.032413695 0.08576976 0.04918096 0.015764425 -0.023118505
0.027110277 0.075972155 0.03973693 0.05297333 -0.05203343 0.046345644 0.013852286 0.06963106
-0.046147734 -0.042417325 0.10301836 -0.048945736 0.057671025 -0.045498565 -0.10724795 -0.0016845427
0.008365176 0.014978202 0.016761933 0.018899674

val_conv1.weight f4 [2, 128, 1, 1]
00000000: 012f b4bd 9dd1 2dbc e8d8 da3d e847 b8bc
00000010: 49ae 8c3d 6612 c7bd 6aa9 863d ed98 9a3c
00000020: 56a0 7c3d 26cb 8b3c 3584 76b6 eabb 8cbc
00000030: 73d9 a73c 2366 b13d 8556 dc3d f227 a4bd
00000040: fe86 a03d 3c74 7ebd 0ed7 4d3d 5fa2 383d
00000050: 410e 84bd 70e0 b73c 45d0 903c 6e6f 883d
00000060: 8d5a 283d 4b00 033d 0725 a0bd 4a11 083c
00000070: 4603 3cbd 2751 aa3d 46f8 093d 1864 1a3d
00000080: eb31 b7bc 00df 293d bfea 17bd 4f48 69bd
00000090: d471 893d b4e3 d13d b6f0 aa3d 1a00 ae3d
000000a0: f44b cfbd cbc0 81bc d1f9 943c dd4a c43c
000000b0: b41d f1bd e0b4 8f3c 8053 debc 2ec7 103d
000000c0: 0674 fcbd ea9e 68bc 4976 8fbc c4fd 353d
000000d0: 1588 5f3c 3007 9d3d 3983 123d 6d7b ab3d
000000e0: 7d24 a536 6899 013d b813 853d 9a0d 773d
000000f0: fbdb 9bbb a14b 843d 5f83 b23d 3e19 fdbc
00000100: 6348 81bc 912d 0f3c aba1 8e3d 7a56 ef3c
00000110: de5c f0bd b67f b23a 6aa9 863c a87b 903d
00000120: 5d26 6c3d 0fe1 ce3d 1024 6e3d cd94 22bd
00000130: 7fb7 4fbd bcb6 ffbd 799b 9abc 953c e43d
00000140: 2968 51bd 6537 b6bb 1411 0bbe f45f 8abc
00000150: 11fd 87bd 3328 d636 7613 d0bd f21c e03d
00000160: f45b dd3d 4509 dabd a49c 183d 2a60 513a
00000170: 0d5e 7ebc ec3b 933d 4d29 50bd 4330 303c
00000180: 4407 2f3c 31ed edbd b188 3c3d 2f9c 5e3b
00000190: 08f7 52bd d7d6 a7bd 5554 023d 30a3 55bd
000001a0: b210 fcbc d05d ffbb eb21 823d a013 693c
000001b0: 2fcb 623d 0e4b 10bd a2c8 9c3d 4b25 863d
000001c0: 994f 6139 e25d 463d 9119 b53d b8c8 14be
000001d0: 6cfd a43d 83ce 0e3c d2da 233c 0f4f e8bc
000001e0: fdca 443d ba65 d4bd 6432 f83c 989c 303d
000001f0: 0cd5 053d 0a6a 313d 6726 80bc 1b91 8f3b
00000200: deac 953c 180b 003d 3067 bfbd 97ea 66bd
00000210: 3b2d 76bd 87bf 8a3d a0b0 243d 2f4d a63d
00000220: f88f 243d 8407 853c 514b 08bc f3eb 853d
00000230: a380 cebc 776f a2bb 6c05 92bd 8753 f6bd
00000240: 9325 28bd 736d 2a3d eab9 b43c 8a8f 39bd
00000250: 5aa0 0f3d 3305 bc3c a7e7 f83c 07a7 5b3d
00000260: 475f 27bb 778a 56bc cbcf 8dbc c9de c8bd
00000270: f7f5 66bd 420c 42bc 2649 9d3c 202a 003d
00000280: a76a b83a 1050 953d 267d 0b3d a230 2dbc
00000290: 6e52 be3c 6615 c6b9 185a 9cbd 6eaa 85bd
000002a0: 616e 153d 1c66 243d 7118 5a3d 98c5 643c
000002b0: 2c85 623d 5c0d 7e3c 19ea b63d c9bc 183d
000002c0: 501b 363d 18eb f33b 87bd 92bd 303d 8fbd
000002d0: 8904 723d 45ee 8bbb e0d1 1f3d d0aa d4ba
000002e0: eeb1 b2ba cd7d 16bd 871b 603b e8b9 a03d
000002f0: ae01 423d fe5b e23b b57c 5cbd c515 cd3b
00000300: 3b19 a53c 6a1e 5e3d d493 cebd 6d01 96bd
00000310: ffb5 3c3d 7416 38bd 7d13 85bd c131 43bd
00000320: ba04 3fbd 130b c9bd 65b6 cab8 37fa b23c
00000330: 585a 663d e1b2 84bc 6a51 8e3d 4ba2 85bd
00000340: a83d 04bc 5a0f 62bd 1d9e 23bd 1286 19bc
00000350: ca1d 3d3d d232 03ba bc01 673c f9b3 a0bd
00000360: 59f4 85bd 9373 893d fbb7 7cbd 7329 00bd
00000370: b981 283b 0735 73bb 39a6 893d d7db b73c
00000380: a212 94bd 71d4 bbbc 8a05 3c3d 74bc 9fbd
00000390: a159 abbd b35c 893d 6235 a53d 6bf1 d83d
000003a0: 58d4 71ba cd70 5bbd 4db8 9e3d 4986 1a3d
000003b0: eda1 8b3d 7c6b 9d3b 4abd 03be 1bf0 71bc
000003c0: 49cf cfbc 90c7 acbd 9438 34bd 9ba5 54bd
000003d0: 7c54 a33d 97c0 30bd 8019 cabb 1d77 bbbd
000003e0: 5886 c5bc eab9 a5bc 0d06 813c f2d2 723d
000003f0: cd70 29bd 63d0 5ebd 5cf8 163a f9b3 ba3b
-0.08798028 -0.010609058 0.10685903 -0.022495225 0.0686918 -0.09720306 0.06575282 0.018871749
0.061676346 0.017064642 -3.6733811e-06 -0.017179448 0.02048943 0.08662059 0.1075869 -0.080154315
0.07838248 -0.06212257 0.05025392 0.045076724 -0.06448031 0.022445887 0.017677436 0.066618785
0.04110198 0.0319827 -0.078195624 0.008304903 -0.04590156 0.0831626 0.033684038 0.037693113
-0.02236267 0.041472435 -0.037089106 -0.056953724 0.06711164 0.10248509 0.08346693 0.08496113
-0.10121909 -0.015839001 0.018185528 0.023961479 -0.117732435 0.017542303 -0.027139425 0.035346203
-0.12326817 -0.014198044 -0.017512457 0.044431463 0.013643284 0.076673865 0.035769675 0.08373151
4.921631e-06 0.03164044 0.06497902 0.060315706 -0.0047564483 0.064597376 0.08716463 -0.030895825
-0.015781587 0.008738891 0.069644295 0.02921604 -0.11736463 0.0013618383 0.016438205 0.070548356
0.057653774 0.1010152 0.05813986 -0.03969269 -0.050712105 -0.12486026 -0.018872963 0.111443676
-0.051124725 -0.0055608028 -0.13580734 -0.016891457 -0.066400655 6.382377e-06 -0.10159962 0.10943021
0.10808554 -0.10646299 0.03725876 0.0007987047 -0.015525353 0.071891636 -0.050820637 0.010753694
0.010682885 -0.11617506 0.046028797 0.0033967604 -0.05150512 -0.08195274 0.031818707 -0.05215758
-0.03076968 -0.0077931657 0.063541256 0.01422587 0.055369552 -0.035227828 0.07655455 0.06550082
0.00021487325 0.048429377 0.08842767 -0.14529693 0.08056149 0.008716228 0.010000901 -0.02835801
0.048045147 -0.10370965 0.030297466 0.04311809 0.03267388 0.043314017 -0.015643312 0.0043813116
0.018270906 0.03126058 -0.09345853 -0.056376066 -0.06010173 0.06774812 0.040207505 0.0812019
0.04017636 0.016238935 -0.008318738 0.06539144 -0.025207823 -0.0049571353 -0.071299404 -0.1202765
-0.04105146 0.041608285 0.022061307 -0.045302905 0.035065033 0.022951698 0.030383898 0.053626087
-0.0025538967 -0.013094536 -0.017310997 -0.09808118 -0.056386914 -0.011843743 0.019199919 0.031290174
0.0014069871 0.07290661 0.034054898 -0.010570677 0.023232665 -0.00037781446 -0.076343715 -0.065266475
0.03648222 0.04013644 0.053245965 0.013963126 0.055302784 0.015506115 0.08931369 0.037289415
0.04445964 0.007443797 -0.07165056 -0.069940925 0.059086356 -0.0042703473 0.03901851 -0.0016225222
-0.001363335 -0.036741067 0.0034196095 0.07847959 0.047364883 0.006907939 -0.053829867 0.0062586986
0.020153632 0.054228224 -0.1008679 -0.07324491 0.046072003 -0.044943288 -0.06497858 -0.04765487
-0.046635367 -0.09816565 -9.666084e-05 0.021847827 0.056238502 -0.016198577 0.06949122 -0.065250956
-0.008071341 -0.05519042 -0.03994571 -0.009370344 0.046170987 -0.0005004826 0.014099535 -0.07846827
-0.06540746 0.06711497 -0.061698895 -0.03128953 0.0025712086 -0.0037110464 0.067211576 0.022443695
-0.072301164 -0.022928448 0.04590372 -0.077996165 -0.08366705 0.06707134 0.080668226 0.10592922
-0.0009225062 -0.053574372 0.07749996 0.03772572 0.06817994 0.004804073 -0.12865177 -0.014766718
-0.025367396 -0.08436501 -0.04399927 -0.051915746 0.079750985 -0.043152418 -0.0061675906 -0.091535784
-0.024111912 -0.020230252 0.015749956 0.059283204 -0.04136734 -0.05439795 0.00057590543 0.005697724

val_conv1.bias f4 [2]
00000000: 8b6a 403d 143f ad3d
0.046976607 0.08459297
