models/Training/AC_nmcts20/train_013.pth (torch, 424031 bytes, 15 tensors)

conv1.weight f4 [32, 5, 3, 3]
0.042228438 -0.14102542 -0.059368204 0.12325626 -0.18315883 -0.009592139 0.06465723 -0.090402514
-0.0014484287 0.013111207 -0.022406759 0.12126506 0.07935914 -0.096458256 0.123773366 0.005056927
0.020443348 0.109705485 0.002800405 4.512687e-06 1.4886332e-05 0.000652644 0.00012372345 -0.0071325228
-0.00873405 9.659414e-06 2.6314278e-06 0.11692156 0.035192903 -0.0871306 -0.14025794 -0.06967525
0.0047138454 0.032910638 -0.08141878 0.07926921 -1.6342381e-05 -0.0008806269 3.0892e-05 6.944495e-05
-0.014191435 6.0166447e-05 -1.0738472e-05 0.0001543151 -0.007673387 -0.026496114 0.1579316 0.07437837
-0.05428807 0.036447458 -0.03526882 0.14264561 0.087704144 0.13750443 0.043406513 -0.17426352
-0.011975211 0.060559057 0.08240163 0.054702844 -0.086465284 -0.045950886 0.1410337 -0.0024934546
0.0005715615 1.1601617e-05 -0.025589382 1.0116323e-05 2.7421465e-05 -0.025310108 -2.7451737e-05 -0.0015460866
-0.12979849 0.12969232 -0.10067547 -0.008314817 -0.10562979 -0.080516495 -0.078945175 0.100567676
0.022290766 0.0001409775 0.044619083 -0.00019499552 -4.189687e-05 0.0023321656 -0.03290943 0.0037156185
0.023190944 -0.00018420936 -0.13819909 0.03990784 0.12968555 0.00810914 0.06967289 0.14802241
-0.12008075 -0.14527833 0.014465466 -0.061917044 -0.006074677 -0.06779339 -0.00094092055 -0.061259888
0.06381683 0.18768162 0.011730153 0.06368537 -0.009970329 0.0055797934 0.00016154972 1.1805003e-05
0.018873999 -0.043105777 0.00018768906 0.00018555438 5.4611657e-05 0.031789236 -0.0038093114 -0.110046536
-0.072305605 -0.02208183 0.055064168 0.07488612 0.001976667 0.03460069 -0.006316848 0.026928926
0.00024023741 -0.04263409 5.3022717e-08 -0.040398773 -0.02027901 -7.99023e-06 -3.829719e-05 0.092779815
-0.14997494 -0.050049808 0.046872634 0.041644175 0.022067517 0.13979504 0.17555764 0.16678986
0.031389527 0.03544682 -0.09181119 -0.0038267004 -0.15200396 -0.11458393 0.099766344 0.045960497
-0.09539817 -0.010177349 5.9144745e-06 -0.0025931383 -4.006564e-05 -0.00675617 -0.0039121686 0.0001886626
5.6067656e-05 -0.02114057 0.050515555 0.11951693 0.08622447 -0.16519925 0.12617067 0.05057864
0.06527817 0.055080865 0.040317196 0.040572274 0.00607251 -0.0073842746 5.738291e-06 0.0057486673
-0.00018445148 7.045105e-05 0.035852056 -1.0797704e-05 0.11589766 -0.024000948 0.113390304 0.047983043
0.016582752 0.020812063 0.024216985 0.043727703 -0.110282786 0.110634714 -0.14675125 0.085738264
0.08574306 0.055233773 0.08542922 0.10427214 0.031477608 -0.1342795 -2.9571105e-05 5.2626463e-05
0.012160954 -0.044864766 -0.010247056 -1.3309842e-05 -0.01710064 -0.005699764 1.129014e-06 0.11742628
-0.020197766 0.12358332 0.014370336 0.051930398 0.13818951 0.11465245 0.04350268 0.00058643596
-6.291333e-05 -0.00018829362 -1.6438831e-05 0.010214629 8.823667e-06 2.5902511e-05 0.0013422148 -0.013099719
0.042375945 0.09997252 0.13877441 0.13347441 0.12417986 -0.07646515 -0.013818208 0.14776596
0.18069308 -0.080096535 0.09025528 0.07317102 0.03698563 0.02093881 -0.11786191 -0.0403596
0.044005793 -0.11358707 -0.061421305 -0.029272635 -0.00068812096 0.022236416 -2.7050176e-06 -0.025655158
-0.0062265336 -0.00071166805 -0.012551287 0.003843641 0.021110633 0.051622365 0.02542869 0.03586966
00000000: baf7 2c3d f868 10be 132c 73bd c76d fc3d
00000010: fd8d 3bbe 5928 1dbc 036b 843d f424 b9bd
00000020: 34d9 bdba 63d0 563c 618e b7bc d159 f83d
00000030: 0b87 a23d e88b c5bd e47c fd3d 94b4 a53b
00000040: cf78 a73c 45ad e03d 0087 373b b06b 9736
00000050: 4fc0 7937 3316 2b3a c3bb 0139 f0b7 e9bb
00000060: 4319 0fbc de0e 2237 9697 3036 9274 ef3d
00000070: 6f26 103d 8771 b2bd c79f 0fbe e6b1 8ebd
00000080: 9a76 9a3b 4ecd 063d e4be a6bd e557 a23d
00000090: ff16 89b7 dfd9 66ba 0892 0138 f9a2 9138
000000a0: 3183 68bc 3b5b 7c38 6329 34b7 a5cf 2139
000000b0: 0971 fbbb 610e d9bc d2b8 213e b053 983d
000000c0: 2b5d 5ebd ee49 153d 0a76 10bd b111 123e
000000d0: 3b9e b33d f6cd 0c3e 07cb 313d 2372 32be
000000e0: ad33 44bc c60c 783d 30c2 a83d 1710 603d
000000f0: b614 b1bd ff36 3cbd 236b 103e 3a69 23bb
00000100: d8d4 153a 91a4 4237 d3a0 d1bc 47b9 2937
00000110: 2607 e637 2557 cfbc 2848 e6b7 0fa6 caba
00000120: e5e9 04be 10ce 043e f12e cebd df3a 08bc
00000130: 6e54 d8bd d5e5 a4bd 02ae a1bd 6df6 cd3d
00000140: 209b b63c 5cd3 1339 80c2 363d b677 4cb9
00000150: 6cba 2fb8 3fd7 183b 0acc 06bd bc81 733b
00000160: effa bd3c 5328 41b9 1084 0dbe 6776 233d
00000170: 4acc 043e 33dc 043c a9b0 8e3d 3093 173e
00000180: e5ec f5bd d8c3 14be 9000 6d3c ba9c 7dbd
00000190: 160e c7bb 43d7 8abd 1ca8 76ba a6eb 7abd
000001a0: 66b2 823d 9c2f 403e d42f 403c 7a6d 823d
000001b0: 975a 23bc b3d6 b63b ac65 2939 1a0e 4637
000001c0: a59d 9a3c af8f 30bd 66ce 4439 6091 4239
000001d0: d20e 6538 6e35 023d a4a5 79bb 1460 e1bd
000001e0: f614 94bd f4e4 b4bc f78a 613d e55d 993d
000001f0: f88a 013b 74b9 0d3d 90fd cebb 0d9a dc3c
00000200: 3de8 7b39 15a1 2ebd 18bb 6333 2f79 25bd
00000210: 2b20 a6bc c70d 06b7 4ba1 20b8 5803 be3d
00000220: 0893 19be 0701 4dbd 85fd 3f3d 1593 2a3d
00000230: f0c6 b43c 6e26 0f3e 62c5 333e f6ca 2a3e
00000240: 4e92 003d af30 113d 8107 bcbd 61c9 7abb
00000250: eda6 1bbe fbaa eabd 4c52 cc3d 1341 3c3d
00000260: 1e60 c3bd e5be 26bc f374 c636 a4f1 29bb
00000270: 270c 28b8 dd62 ddbb a631 80bb bbd3 4539
00000280: 302a 6b38 fd2e adbc 66e9 4e3d 4bc5 f43d
00000290: 7496 b03d fe29 29be e232 013e 8c2b 4f3d
000002a0: 90b0 853d 799c 613d a523 253d 1d2f 263d
000002b0: e8fb c63b c9f7 f1bb 8b8b c036 515f bc3b
000002c0: 5169 41b9 1fbf 9338 9bd9 123d c927 35b7
000002d0: c15b ed3d a39d c4bc 2d39 e83d de89 443d
000002e0: 8dd8 873c 0f7e aa3c b362 c63c d21b 333d
000002f0: f1db e1bd 7494 e23d f645 16be 8b97 af3d
00000300: 0f9a af3d cf3c 623d 84f5 ae3d a28c d53d
00000310: aaee 003d 9180 09be 770f f8b7 3cbb 5c38
00000320: bd3e 473c 1ec4 37bd 45e3 27bc 564d 5fb7
00000330: a416 8cbc 16c5 babb a088 9735 317d f03d
00000340: c975 a5bc 4019 fd3d 8f71 6b3c f8b4 543d
00000350: 8d81 0d3e e7ce ea3d de2f 323d 0dbb 193a
00000360: 56f0 83b8 af70 45b9 1fe6 89b7 425b 273c
00000370: 5c09 1437 3849 d937 41ed af3a 34a0 56bc
00000380: 6692 2d3d 64be cc3d e11a 0e3e 84ad 083e
00000390: 0352 fe3d c399 9cbd c465 62bc f64f 173e
000003a0: 9b07 393e a709 a4bd c3d7 b83d b0da 953d
000003b0: 3e7e 173d de87 ab3c 9661 f1bd 1c50 25bd
000003c0: 6b3f 343d 56a0 e8bd e894 7bbd 2acd efbc
000003d0: 0463 34ba 2529 b63c d987 35b6 c42a d2bc
000003e0: f307 ccbb 3c8f 3aba eaa3 4dbc 98e5 7b3b
000003f0: 35f0 ac3c f971 533d d44f d03c 11ec 123d

conv1.bias f4 [32]
0.09793387 0.036431316 -0.01463979 0.11268744 -0.06595518 -0.15243898 0.0057635973 0.09054963
0.05504529 -0.086546965 0.17878611 -0.04131914 0.14003454 0.14151528 -0.05195292 -0.042175423
-0.02776575 -0.08293723 -0.05891151 0.14680463 -0.046683967 0.05573145 0.013485805 -0.06235016
-0.11059335 0.08377828 -0.11871528 0.1330677 0.13293223 -0.080041744 -0.0943531 0.10465425
00000000: 8e91 c83d 0139 153d bbdb 6fbc acc8 e63d
00000010: 8213 87bd f718 1cbe 8fdc bc3b 1672 b93d
00000020: 2c77 613d 893f b1bd b513 373e 423e 29bd
00000030: 3765 0f3e 62e9 103e 96cc 54bd 23c0 2cbd
00000040: 0075 e3bc ffda a9bd 324d 71bd f453 163e
00000050: b037 3fbd a946 643d 91f3 5c3c e262 7fbd
00000060: c47e e2bd f293 ab3d ff20 f3bd e642 083e
00000070: 631f 083e edec a3bd 333c c1bd f854 d63d

conv2.weight f4 [64, 32, 3, 3]
-0.024337787 0.04128449 0.0100538535 0.016947582 -0.042815316 -0.04919945 -0.044952694 0.030040162
-0.016800217 -0.030804848 -0.039300088 -0.021152481 0.043656647 0.05106917 0.06311308 0.050071616
0.024659697 0.044847988 -0.062344257 -0.016848683 -0.017571947 0.013518521 0.016455434 0.008468488
0.015129788 0.0045268275 -0.03651692 -0.06290613 -0.0019560715 0.03556503 0.0066124415 -0.0018453912
0.0037166248 0.045885995 0.030159138 0.07865209 0.0009558692 0.052920394 -0.031195143 0.01605754
0.048093796 -0.011232249 0.007118655 0.017985513 -0.0054847733 -0.050727945 0.005442965 0.012488557
-0.032673802 -0.0122029865 0.022182306 -0.008467869 0.07169522 0.043441005 -0.01885176 -0.018918393
-0.062926866 -0.0035111401 0.021607583 0.000592409 0.026813917 -0.023554822 -0.0049756416 0.010636793
-0.03366812 0.038656894 -0.041030094 0.08286548 0.028568607 0.054898906 -0.01315392 -0.0032114245
-0.079180755 -0.010539119 0.0047491263 -0.057996668 0.035577808 -0.05846579 -0.019381799 0.033221863
0.04429084 0.018525224 -0.03790457 -0.030598376 0.022392552 -0.07301199 -0.029292367 0.05257768
0.039694276 0.009560335 -0.047263995 0.019316396 -0.07252809 -0.06592915 -0.058131598 -0.082404934
-0.035275657 -0.02728056 -0.03910428 0.0034479056 0.059844803 -0.0010238732 -0.06434157 0.017639015
0.044759955 0.014466384 0.048495114 -0.033734825 -0.07496852 -0.0321919 -0.07736502 -0.011939037
0.050763436 -0.08214737 -0.04184217 -0.025493907 0.0073052626 -0.060375035 -0.04989188 0.01759454
-0.061514404 0.03288057 -0.009663192 -0.04680874 0.013030818 0.002407957 -0.030810652 0.006216935
-0.055264987 -0.050107393 -0.01715723 0.01895843 -0.056577723 -0.000118511554 0.031496137 -0.026689244
-0.011159179 -0.019018015 -0.04997359 0.00019436228 -0.012985406 0.006397522 -0.028809708 -0.02750836
0.057651762 -0.044945043 -0.05705036 -0.024993118 -0.048706066 -0.029986396 0.0129070915 0.041046605
-0.020136967 -0.01823458 0.04694995 0.009400748 -0.043751944 -0.01860614 0.07411588 0.016320726
0.06739361 -0.021543315 -0.0064356714 0.007545098 0.038298257 -0.003241869 -0.05393333 0.013897968
0.03720789 -0.002791654 0.052203584 0.027301304 -0.049147446 -0.03884984 0.0047455844 0.03825176
-0.041015565 0.0035503304 -0.054228123 -0.06724924 -0.04193058 0.04532618 0.010911097 0.0013175353
0.055711344 0.024943769 0.0120051885 0.032592002 -0.0017985953 0.016468346 0.009732242 -0.05719711
-0.0187772 0.04792158 -0.00016443327 -0.007372475 -0.061714206 -0.058597654 0.03908915 0.0009630868
-0.00055680063 -0.056081615 -0.02518424 -0.00011577601 -0.05993081 0.0019246761 -0.048050378 0.050439477
-0.045943063 -0.040783953 -0.0006680312 0.011725198 -0.039035436 0.014151578 0.07549032 0.06335636
-0.010199425 0.023214277 0.03922936 -0.0062533887 0.009737101 -0.083186775 0.05582336 -0.008839785
-0.0105484985 0.003883144 0.037311178 0.019288052 -0.030597774 -0.026133379 -0.051971227 0.032451525
0.00069570896 0.018442005 0.0053581814 0.032700323 0.02215615 0.03399088 0.0032550923 0.07315198
0.06126618 0.011381317 0.0057752617 0.013406016 -0.064243004 -0.014753571 0.025349488 -0.03758471
-0.019214272 -0.0445019 -0.047257476 -0.05053863 -0.032649767 0.035040177 0.039503947 0.022092182
00000000: 0a60 c7bc ed19 293d ebb8 243c a8d5 8a3c
00000010: 1d5f 2fbd 5d85 49bd 5120 38bd c916 f63c
00000020: 9ca0 89bc 735a fcbc 21f9 20bd f847 adbc
00000030: 50d1 323d e82d 513d 6e41 813d e517 4d3d
00000040: 2203 ca3c 86b2 373d b15c 7fbd 4006 8abc
00000050: 0bf3 8fbc c97c 5d3c 8ccd 863c 6abf 0a3c
00000060: eee2 773c c855 943b c492 15bd eed4 80bd
00000070: 6f31 00bb a3ac 113d 2ead d83b 0ee1 f1ba
00000080: 9e92 733b f4f2 3b3d 4c10 f73c 5914 a13d
00000090: 4c93 7a3a 0ec3 583d f58c ffbc 1a8b 833c
000000a0: 00fe 443d 7807 38bc 9b43 e93b 5b56 933c
000000b0: 9db9 b3bb 1bc8 4fbd e65a b23b ce9c 4c3c
000000c0: f7d4 05bd 09ef 47bc abb7 b53c d1bc 0abc
000000d0: f2d4 923d 32ef 313d 026f 9abc bffa 9abc
000000e0: cddf 80bd 281b 66bb 6302 b13c e54b 1b3a
000000f0: dca8 db3c 0bf6 c0bc b50a a3bb f245 2e3c
00000100: 95e7 09bd b156 1e3d 2c0f 28bd 60b5 a93d
00000110: b608 ea3c addd 603d 8a83 57bc c376 52bb
00000120: 8529 a2bd 45ac 2cbc 8f9e 9b3b ea8d 6dbd
00000130: 09ba 113d d379 6fbd 94c6 9ebc a613 083d
00000140: 506a 353d 36c2 973c d341 1bbd 72a9 fabc
00000150: 9670 b73c 4f87 95bd 8cf6 efbc b25b 573d
00000160: 7796 223d f4a2 1c3c e497 41bd 6b3d 9e3c
00000170: 9b89 94bd dd05 87bd 661b 6ebd ebc3 a8bd
00000180: 357d 10bd 7b7b dfbc cf2b 20bd 42f6 613b
00000190: d31f 753d 7c33 86ba 83c5 83bd b27f 903c
000001a0: 3756 373d 6a04 6d3c d0a2 463d 872d 0abd
000001b0: 1889 99bd a7db 03bd 8d71 9ebd f39b 43bc
000001c0: 52ed 4f3d e13c a8bd b262 2bbd 99d8 d0bc
000001d0: fc60 ef3b d04b 77bd 6e5b 4cbd 6d22 903c
000001e0: 87f6 7bbd c7ad 063d 5d52 1ebc 85ba 3fbd
000001f0: 367f 553c d1ce 1d3b 9f66 fcbc 6eb7 cb3b
00000200: 8a5d 62bd 693d 4dbd 528d 8cbc b64e 9b3c
00000210: 0bbe 67bd 6889 f8b8 1802 013d 67a3 dabc
00000220: fdd4 36bc abcb 9bbc 1bb1 4cbd bacd 4b39
00000230: bec0 54bc 4ea2 d13b 5602 ecbc 3659 e1bc
00000240: 4124 6c3d 4b18 38bd a3ad 69bd 5ebe ccbc
00000250: 0380 47bd 08a6 f5bc 4478 533c 7c20 283d
00000260: 48f6 a4bc b060 95bc 974e 403d 9805 1a3c
00000270: 3d35 33bd e76b 98bc 11ca 973d 0bb3 853c
00000280: a905 8a3d 9b7b b0bc 53e2 d2bb df3c f73b
00000290: a2de 1c3d 8975 54bb 32e9 5cbd 4eb4 633c
000002a0: 4d67 183d 2ff4 36bb 6dd3 553d fca6 df3c
000002b0: d54e 49bd 0321 1fbd d980 9b3b e1ad 1c3d
000002c0: f0ff 27bd a9ac 683b 4f1e 5ebd f8b9 89bd
000002d0: 66bf 2bbd f2a7 393d 75c4 323c 26b1 ac3a
000002e0: 9431 643d e056 cc3c 69b1 443c 317f 053d
000002f0: d8be ebba a0e8 863c fb73 1f3c 8447 6abd
00000300: a4d2 99bc 6b49 443d b86b 2cb9 ce94 f1bb
00000310: 09c8 7cbd 1804 70bd f21b 203d a977 7c3a
00000320: 42f6 11ba d6b5 65bd 2e4f cebc c6cc f2b8
00000330: 027a 75bd 6a45 fc3a 79d0 44bd a099 4e3d
00000340: cb2e 3cbd 130d 27bd d11e 2fba 0b1b 403c
00000350: 9fe3 1fbd 05dc 673c ab9a 9a3d fbc0 813d
00000360: 7d1b 27bc de2b be3c f7ae 203d 3ae9 ccbb
00000370: 5d88 1f3c d45d aabd 09a7 643d bfd4 10bc
00000380: 9cd3 2cbc 587c 7e3b 9bd3 183d fa01 9e3c
00000390: 2fa8 fabc ab15 d6bc c8df 54bd e4eb 043d
000003a0: 3d60 363a b013 973c af93 af3b c6f0 053d
000003b0: d080 b53c 053a 0b3d 6353 553b b5d0 953d
000003c0: 3ff2 7a3d b478 3a3c 683e bd3b e8a4 5b3c
000003d0: d691 83bd f6b8 71bc bba9 cf3c 6df2 19bd
000003e0: 4067 9dbc a047 36bd 0e91 41bd 9801 4fbd
000003f0: c3bb 05bd 4a86 0f3d e4ce 213d aafa b43c

conv2.bias f4 [64]
0.023926614 0.01529012 -0.06819877 -0.041058116 -0.02468476 0.06141945 0.051559206 0.026918191
-0.022871101 0.062471803 -0.039242066 -0.034274388 0.052434187 -0.037915654 0.015198137 -0.020930242
0.004717624 0.073293775 0.022894673 0.052945375 -0.0069986302 -0.021420475 0.0712497 0.048474103
0.02848346 0.08824842 -0.0050197975 0.063667044 -0.056994867 -0.030889936 0.05246018 0.048221026
0.0076132463 0.024352262 0.019368857 0.07623506 0.020946015 -0.032802403 0.013792322 0.06651471
0.027121581 -0.015311676 -0.06730779 -0.029347626 0.00023310626 0.04650782 -0.035798207 0.05824222
0.05544163 -0.047123183 0.054693583 0.049811035 0.078113034 0.0015340772 0.05070025 0.07717206
-0.0043640463 0.04621538 -0.026089976 -0.003634171 0.01244189 -0.022492755 -0.042385414 -0.016707703
00000000: bf01 c43c 6983 7a3c ccab 8bbd 8e2c 28bd
00000010: b237 cabc f692 7b3d bf2f 533d 8a83 dc3c
00000020: 2d5c bbbc 6fe2 7f3d 4abc 20bd 4d63 0cbd
00000030: 3bc5 563d 724d 1bbd 9b01 793c e675 abbc
00000040: 4c96 9a3b 0c1b 963d 9c8d bb3c 40dd 583d
00000050: c454 e5bb fe79 afbc 5deb 913d c88c 463d
00000060: 2556 e93c 96bb b43d 1d7d a4bb de63 823d
00000070: 7373 69bd e40c fdbc 7ce0 563d 6983 453d
00000080: 8a78 f93b 657e c73c 70ab 9e3c 2121 9c3d
00000090: fa96 ab3c d05b 06bd 31f9 613c dd38 883d
000000a0: 142e de3c d3dd 7abc abd8 89bd 6f6a f0bc
000000b0: fc6d 7439 fc7e 3e3d 24a1 12bd 658f 6e3d
000000c0: c316 633d 3d04 41bd 6106 603d a806 4c3d
000000d0: baf9 9f3d 1713 c93a 11ab 4f3d 630c 9e3d
000000e0: 4600 8fbb 574c 3d3d a5ba d5bc 462b 6ebb
000000f0: 12d9 4b3c ba42 b8bc 549c 2dbd 98de 88bc

conv3.weight f4 [128, 64, 3, 3]
0.032459594 0.046307188 -0.004520549 -0.01944626 -0.016871186 -0.017295279 0.012116992 -0.0013094734
0.013654614 0.039186858 0.035458576 0.041602284 -0.02666756 0.03886665 -0.011874634 0.00015781389
-0.0010805317 -0.0027629817 0.06769857 -0.029752545 -0.010589759 0.03035444 -0.0041772793 0.031031484
-0.045408342 -0.03231837 0.03116894 0.025165547 0.00076797546 0.08466635 -0.021033024 0.031313006
0.08688032 0.025316255 0.061489545 -0.042585097 0.024096379 0.015471268 -0.03472093 -0.005777862
-0.02511652 -0.011198566 -0.019333148 0.010653056 0.046894968 0.043434776 0.020823387 -0.006544375
0.08101914 0.03141211 -0.016508417 0.056323577 -0.03297853 0.03206735 0.024021951 -0.0025877047
-0.02498542 -0.025561243 -0.028326994 -0.006401374 0.020599337 -0.025640918 -0.0122297965 0.0066466774
-0.009176467 0.04019517 -0.026021162 0.030520396 -0.0057104556 0.02613348 -0.0062442394 0.0006351211
0.011991862 0.01974462 -0.030919729 0.034078572 0.022329513 0.0014419791 0.040454835 -0.037691604
-0.020695949 -0.020994361 -0.026001265 -0.056755174 -0.041002575 -0.054967046 0.032419592 -0.038110428
0.030884814 -0.024967095 0.021323279 0.017908946 -0.009017118 0.0013737963 0.020886406 -0.014220064
0.029682629 0.015156699 -0.05253953 -0.037109494 0.06371525 0.025120165 0.05106156 0.045638725
-0.013603686 0.03552427 -0.04535642 0.062334377 -0.0293826 0.04037944 -0.018866925 0.019363567
0.018513108 -0.026849514 0.018894633 -0.00041981007 0.07493192 -0.010450615 -0.026168022 -0.042631973
0.010033381 0.017714392 -0.00068944355 0.05626006 0.015673086 -0.03732484 -0.039169088 0.03504312
-0.008476219 -0.04684228 -0.009299278 0.014900839 0.048202094 0.027454488 0.029615039 -0.0031845444
-0.004318088 -0.029436953 0.043630295 -0.07270985 -0.047609407 0.020481821 0.0075866026 -0.01901424
0.02112643 -0.00079711695 -0.0036580828 0.005447885 0.0077018454 -0.031037416 0.027688542 0.007935416
0.042076472 -0.010905263 0.029834513 -0.0023070981 0.05367448 0.04857361 -0.022684721 0.03677251
0.0043949164 0.008018303 0.03144132 -0.04815615 0.028698932 -0.014155331 0.008165191 0.03827914
-0.062030137 0.01052372 0.0035567933 0.013581585 0.06952532 0.070699215 0.028073922 -0.0146929
-0.010376536 0.0751685 0.044360716 -0.009437572 0.0018666885 0.03178562 0.009137316 -0.018993916
-0.022922626 -0.0004890414 -0.007185978 0.03126994 0.05068757 0.0050395364 0.06032415 0.029445015
-0.024084028 0.048080318 0.0014683331 -0.04085038 -0.03809519 -0.05576167 0.012471596 0.032662988
-0.089250706 0.009587631 -0.04622488 -0.056660205 0.04185329 -0.031983886 0.07835415 -0.0229442
-0.007530948 0.05006151 -0.027781276 0.042932034 -0.034530047 -0.040910237 0.024333876 0.026154513
0.016895436 0.005101959 0.013880039 0.05174455 -0.024174847 -0.0068489662 -0.005353987 -0.027162552
-0.03071013 -0.05898421 0.035713863 0.030370882 0.026042752 0.011263476 -0.052939605 0.028656181
-0.0042844154 0.03909445 0.007950605 0.01305435 -0.01256304 0.015361337 -0.02292399 0.02513339
-0.020947501 -0.0561958 0.049097415 0.014727558 -0.0029977378 -0.033648394 -0.020021893 0.015043994
-0.015354219 -0.012192133 -0.016196199 -0.008493264 -0.046070274 0.0005692356 0.02133964 0.04527255
00000000: 5af4 043d 9bac 3d3d 1d21 94bb c34d 9fbc
00000010: 7135 8abc d4ae 8dbc 5986 463c a3a2 abba
00000020: 9ab7 5f3c 6682 203d 033d 113d 2867 2a3d
00000030: ed75 dabc a332 1f3d d38d 42bc d87a 2539
00000040: a1a0 8dba 2413 35bb 8ca5 8a3d 9cbb f3bc
00000050: ab80 2dbc e0a9 f83c 8fe1 88bb bd35 fe3c
00000060: 19fe 39bd 4460 04bd 0156 ff3c fa27 ce3c
00000070: f651 493a 8d65 ad3d 734d acbc 1142 003d
00000080: 4fee b13d 0964 cf3c 76dc 7b3d b66d 2ebd
00000090: c565 c53c 347b 7d3c 8937 0ebd 3854 bdbb
000000a0: 29c1 cdbc 317a 37bc 8d60 9ebc 288a 2e3c
000000b0: f014 403d aae8 313d cf95 aa3c 3272 d6bb
000000c0: 5ded a53d fca9 003d a93c 87bc 8db3 663d
000000d0: 7f14 07bd 0e59 033d afc9 c43c 7b96 29bb
000000e0: 39ae ccbc d065 d1bc 030e e8bc 9ec2 d1bb
000000f0: f1bf a83c e70c d2bc 7c5f 48bc 5fcc d93b
00000100: e458 16bc b1a3 243d 552a d5bc e905 fa3c
00000110: c61e bbbb e115 d63c 7a9c ccbb 417e 263a
00000120: 8479 443c 78bf a13c 5f4b fdbc f995 0b3d
00000130: 62ec b63c ca00 bd3a f8b3 253d 8362 1abd
00000140: 8d8a a9bc 5efc abbc 9b00 d5bc 1d78 68bd
00000150: 51f2 27bd 2025 61bd 68ca 043d ae19 1cbd
00000160: 2602 fd3c cb87 ccbc 28ae ae3c c8b5 923c
00000170: 89bc 13bc f410 b43a f819 ab3c 45fb 68bc
00000180: fc28 f33c ce53 783c b133 57bd 2000 18bd
00000190: 247d 823d cec8 cd3c ed25 513d acef 3a3d
000001a0: ffe1 5ebc e681 113d a7c7 39bd 5552 7f3d
000001b0: c7b3 f0bc e964 253d cf8e 9abc 58a0 9e3c
000001c0: cda8 973c 83f3 dbbc ebc8 9a3c f419 dcb9
000001d0: e875 993d 0e39 2bbc 525e d6bc dd9e 2ebd
000001e0: 0d63 243c c61d 913c c6bb 34ba f370 663d
000001f0: d864 803c eee1 18bd c46f 20bd 6089 0f3d
00000200: d7df 0abc b1dd 3fbd 005c 18bc a622 743c
00000210: 8f6f 453d 3ce8 e03c 3d9b f23c cab3 50bb
00000220: bf7e 8dbb c425 f1bc aeb5 323d e7e8 94bd
00000230: 1502 43bd 7ec9 a73c 0999 f83b c0c3 9bbc
00000240: 5611 ad3c 9df5 50ba 72bc 6fbb 2c84 b23b
00000250: c35f fc3b 2e42 febc 15d3 e23c 8c03 023c
00000260: 6158 2c3d fdab 32bc 8267 f43c af32 17bb
00000270: c6d9 5b3d 1ff5 463d 4fd5 b9bc c59e 163d
00000280: 3b03 903b 335f 033c 9dc8 003d 623f 45bd
00000290: 061a eb3c c3eb 67bc 4bc7 053c 96ca 1c3d
000002a0: 5013 7ebd ae6b 2c3c 1719 693b 4c85 5e3c
000002b0: 4a63 8e3d c0ca 903d 48fb e53c 7dba 70bc
000002c0: 5902 2abc f1f1 993d 95b3 353d 0ca0 1abc
000002d0: acab f43a a331 023d aeb4 153c 2199 9bbc
000002e0: 3bc8 bbbc 0333 00ba 5a78 ebbb e914 003d
000002f0: c59d 4f3d b222 a53b 7516 773d ac36 f13c
00000300: de4b c5bc deef 443d 1575 c03a ba52 27bd
00000310: b409 1cbd 5966 64bd aa55 4c3c a0c9 053d
00000320: 13c9 b6bd 7015 1d3c 4d56 3dbd 8814 68bd
00000330: 5b6e 2b3d 8901 03bd 2478 a03d 7af5 bbbc
00000340: 2cc6 f6bb 4c0d 4d3d 8f95 e3bc 80d9 2f3d
00000350: 616f 0dbd 7e91 27bd d657 c73c fd41 d63c
00000360: 4c68 8a3c 562e a73b 1a69 633c 18f2 533d
00000370: 540a c6bc 4b6d e0bb 8070 afbb 0084 debc
00000380: d093 fbbc 6d99 71bd b348 123d 5bcc f83c
00000390: 9c57 d53c 718a 383c 33d7 58bd 5ec0 ea3c
000003a0: 4864 8cbb 8121 203d 4143 023c eae1 553c
000003b0: 35d5 4dbc 1eae 7b3c 17cb bbbc 8ae4 cd3c
000003c0: 189a abbc 912d 66bd 5f1a 493d db4b 713c
000003d0: b275 44bb e6d2 09bd f404 a4bc 167b 763c
000003e0: 4390 7bbc 83c1 47bc e4ad 84bc 5527 0bbc
000003f0: 2fb4 3cbd c138 153a 78d0 ae3c b66f 393d

conv3.bias f4 [128]
-0.002688719 -0.038375597 -0.023708215 0.026476782 -0.025855038 -0.0018028378 -0.015023167 0.03971334
-0.016988294 0.018579947 -0.00031314912 -0.026916737 0.045160033 -0.011395636 0.020917187 0.03442828
0.040987935 0.042141132 0.025240535 0.015076533 0.028060263 0.031286083 0.05370308 0.032069232
-0.015983766 0.017937327 0.047480788 -0.0111152185 0.0013842273 -0.04544242 -0.04442673 0.018229438
-0.03819043 0.033437535 0.0066168727 -0.03771216 0.034848202 -0.038738105 0.0055536367 0.00039077096
0.041686047 -0.012389922 0.019453606 -0.01869898 0.02158141 0.07067469 0.0058260853 0.002976459
0.015277833 0.0011530791 -0.030442758 -0.009909913 -0.044331383 0.033405602 -0.0050787027 0.030025383
-0.017112277 0.04557504 -0.0023795774 0.035997093 0.034982834 0.0329023 0.013617379 -0.017238557
-0.022525849 0.03928531 0.021631815 0.011192966 0.0109482575 0.013939442 0.013970153 0.012290229
-0.019637302 -0.0069395714 0.017607205 0.051032145 0.04202705 0.048870794 0.0128569435 0.02147531
-0.043782126 0.029213645 -0.011401357 -0.036647506 0.0071361237 -0.012955934 0.026786828 -0.0076330956
0.009146097 0.013571549 -0.025793536 0.05977065 -0.015753739 0.0252452 0.010695429 -0.0024455185
-0.003258557 0.023333225 -0.021242328 0.021255113 0.021016607 0.046093013 -0.019019337 -0.020793544
0.024378609 0.053325426 -0.014717872 0.012871775 -0.027575873 0.017336344 -0.006132733 0.018293884
-0.042960893 -0.0012453054 0.0059750546 0.04764843 -0.0010725583 -0.005739452 -0.015629621 0.020544443
-0.014856093 -0.0037266514 -0.02903694 0.010572937 -0.027806696 -0.0366513 -0.025483089 0.05401985
00000000: 3835 30bb bb2f 1dbd bb37 c2bc d6e5 d83c
00000010: f2cd d3bc 334d ecba bb23 76bc 75aa 223d
00000020: 092b 8bbc f934 983c 2a2e a4b9 7d80 dcbc
00000030: baf9 383d c3b4 3abc 855a ab3c ab04 0d3d
00000040: f7e2 273d 2e9c 2c3d 3dc5 ce3c 9003 773c
00000050: a3de e53c d625 003d c3f7 5b3d 075b 033d
00000060: 63f0 82bc 4df1 923c 377b 423d 9b1c 36bc
00000070: f66e b53a d521 3abd cef8 35bd e755 953c
00000080: 916d 1cbd ccf5 083d 5ad2 d83b 1178 1abd
00000090: fdbc 0e3d d9ab 1ebd 48fb b53b 64e0 cc39
000000a0: fdbe 2a3d 19ff 4abc 2b5d 9f3c 9a2e 99bc
000000b0: 7fcb b03c e4bd 903d bfe8 be3b b210 433b
000000c0: e04f 7a3c ea22 973a 1763 f9bc 305d 22bc
000000d0: d394 35bd 50d4 083d 3f6b a6bb cbf7 f53c
000000e0: 0c2f 8cbc e5ac 3a3d aff2 1bbb b071 133d
000000f0: 294a 0f3d 90c4 063d 6d1b 5f3c e037 8dbc
00000100: 2188 b8bc a2e9 203d 3435 b13c b462 373c
00000110: 5260 333c 4262 643c 12e3 643c f55c 493c
00000120: 68de a0bc 5865 e3bb fc3c 903c 1507 513d
00000130: 8e24 2c3d be2c 483d eea5 523c fdec af3c
00000140: e354 33bd 7451 ef3c c2cc 3abc b21b 16bd
00000150: 25d6 e93b 2045 54bc 0d70 db3c 0c1f fabb
00000160: 83d9 153c 345b 5e3c f74c d3bc 12d2 743d
00000170: fc0d 81bc 06cf ce3c e13b 2f3c fe44 20bb
00000180: 848d 55bb 5225 bf3c 6404 aebc 341f ae3c
00000190: 052b ac3c 07cc 3c3d 71ce 9bbc 3957 aabc
000001a0: a6b5 c73c c36b 5a3d 3b23 71bc 23e4 523c
000001b0: cce6 e1bc f304 8e3c 18f5 c8bb 0edd 953c
000001c0: c3f7 2fbd 8439 a3ba 64ca c33b 002b 433d
000001d0: 1695 8cba 0312 bcbb b109 80bc d24c a83c
000001e0: f866 73bc d63a 74bb e0de edbc 1d3a 2d3c
000001f0: deca e3bc ac1f 16bd e9c1 d0bc eb43 5d3d

act_conv1.weight f4 [4, 128, 1, 1]
0.0068426533 -2.2251708e-05 0.032858785 -0.04715499 0.011608212 0.02102386 0.050213072 0.022279477
0.07141751 -0.1055103 2.3332796e-06 0.025138399 -0.12164331 0.012266404 0.03088143 -0.045360897
0.017919175 -0.048379198 0.028923897 0.009415749 -0.010045911 0.024286162 -0.09155499 0.007117909
0.017137785 0.036559414 -0.0023306955 -0.033865172 0.009525958 -0.042045943 -0.022540066 0.043030817
-4.0336676e-05 0.010978181 -0.026493415 0.057321973 -0.06477831 -0.027820924 0.00038883957 0.0008006876
-0.029402368 -0.04122329 -0.03427297 -0.042965762 0.005277028 -0.08060637 -0.00093037216 -0.084469
0.02183506 -0.031930212 0.037713744 0.033331007 0.00264039 -0.035857473 -0.047271583 0.059482917
-9.120082e-06 -0.10172049 -0.07103502 -0.020140976 -0.0782669 0.029649554 0.041199706 -0.0010105105
0.060353406 -0.05079406 0.048393596 -0.0022745614 -0.006863489 -0.0052528786 0.039432045 0.01085232
-0.033730324 0.075369425 0.05348904 -0.05602874 0.0018671417 0.008032415 -0.062431272 -0.021113658
0.014865797 0.0396228 0.012480803 -0.00013455722 -0.01795538 0.00017735462 -0.06510946 0.07380031
0.04263205 0.009462569 0.011520858 -0.07072164 0.025989091 0.057082623 -0.03150491 0.038198628
-0.03091314 0.056781147 -0.028319797 0.0690009 0.013368167 0.02726869 0.012277274 -0.07081435
0.001076317 0.0067273686 0.012743629 -0.08576173 0.027934782 0.06336854 -0.025315486 0.01899912
-0.0001847513 0.003525164 -0.033775486 0.0024370763 -0.041679993 0.04107259 0.043969348 0.0045119096
0.07942982 -0.014347169 -0.01067041 -0.08579964 -0.003340121 0.046889223 -2.5456953e-05 -0.0032733872
0.0122643765 0.06634607 -0.039667156 -0.0046579097 0.0708184 -0.07570151 -0.05902817 0.07656308
0.07539644 -0.062417474 6.7562585e-05 -0.08548086 0.0044195987 0.028450415 0.08541761 0.110628515
-0.11298067 -0.042791937 0.007875143 0.01196242 0.0414323 -0.07541814 0.0070830463 -0.025762439
0.058260746 -0.007741782 -0.009746961 0.09758385 0.032620028 -0.08409171 -0.0036584185 -0.036901146
-0.0820522 0.0158694 0.022106897 -0.007534491 0.059140723 0.048530616 0.0114290835 -0.014695894
0.03597389 -0.0015063044 -0.019868221 0.055112243 -0.06847518 0.014472519 -0.043684885 -0.01778325
-0.10833442 -0.009211413 0.055279784 0.014222279 -0.09429329 0.062657535 0.033723388 -0.05234835
-0.004538209 0.05781578 0.014372155 0.061101712 0.0731674 0.012604688 -0.021674676 3.094442e-07
0.0060825576 0.053885013 0.0712694 0.053459104 0.06995931 -0.056747425 -0.07377061 0.07211308
0.09582049 0.07515227 0.055374753 -0.049903836 -0.011112529 0.023473453 0.08416002 0.10620488
-0.031212581 -0.019482624 -0.015860723 -0.031991865 0.06974126 0.001420328 0.08281847 -0.06553596
0.06775145 0.010874082 0.011168244 0.03360341 -0.028216688 -0.082958095 0.06422028 0.04814741
0.06902538 0.031339087 -0.07151326 0.02340345 0.09937693 0.06795071 -0.07982581 0.10983326
0.07073878 -0.034271255 -0.027799036 0.12130047 -0.07913914 -0.025097076 0.072677255 -0.037630055
-0.009915477 0.04632454 0.115660146 -0.118178695 0.016384486 -0.09453178 0.0014686094 0.052986093
-0.012394645 0.029413253 0.07788895 0.0071769194 0.043333527 0.029215643 0.023786431 0.028669847
00000000: 5638 e03b 2ea9 bab7 ef96 063d 9725 41bd
00000010: 5f30 3e3c 3b3a ac3c 39ac 4d3d 7383 b63c
00000020: 5843 923d c915 d8bd 7095 1c36 0bef cd3c
00000030: 2120 f9bd 07f9 483c 0dfb fc3c 59cc 39bd
00000040: 3ccb 923c 4429 46bd cff1 ec3c 8444 1a3c
00000050: 9b97 24bc c6f3 c63c 2f81 bbbd 593d e93b
00000060: 8a64 8c3c 53bf 153d 95be 18bb 35b6 0abd
00000070: c412 1c3c 5e38 2cbd f2a5 b8bc 1541 303d
00000080: 2d2f 29b8 d4dd 333c b808 d9bc 72ca 6a3d
00000090: 7eaa 84bd b5e8 e3bc 2add cb39 3ce5 513a
000000a0: 3cdd f0bc c1d9 28bd d061 0cbd defc 2fbd
000000b0: ebea ac3b f414 a5bd 38e4 73ba 15fe acbd
000000c0: 71df b23c 41c9 02bd ba79 1a3d 1886 083d
000000d0: 650a 2d3b 49df 12bd d99f 41bd 5ca4 733d
000000e0: 7402 19b7 d552 d0bd cf7a 91bd b0fe a4bc
000000f0: 654a a0bd 9fe3 f23c 06c1 283d 1b73 84ba
00000100: 2235 773d 6f0d 50bd 5d38 463d cf10 15bb
00000110: 1ee7 e0bb 5720 acbb 7f83 213d eecd 313c
00000120: cf28 0abd 495b 9a3d 5317 5b3d 647e 65bd
00000130: e1ba f43a 649a 033c efb7 7fbd 8df6 acbc
00000140: ac8f 733c 844b 223d 487c 4c3c ee17 0db9
00000150: 2917 93bc 45f8 3939 1c58 85bd 9e24 973d
00000160: f29e 2e3d e408 1b3c fbc1 3c3c 82d6 90bd
00000170: 13e7 d43c 78cf 693d 4b0b 01bd 2a76 1c3d
00000180: 8e3d fdbc 5993 683d ebfe e7bc 5850 8d3d
00000190: 2806 5b3c 9662 df3c 9f26 493c 1d07 91bd
000001a0: 3513 8d3a 4271 dc3b a7ca 503c d9a3 afbd
000001b0: 7cd7 e43c 5dc7 813d 6c62 cfbc 0ba4 9b3c
000001c0: cdb9 41b9 7006 673b 2a58 0abd 5bb7 1f3b
000001d0: a4b8 2abd bb3b 283d 3419 343d a4d8 933b
000001e0: 1aac a23d 6310 6bbc f1d2 2ebc b9b7 afbd
000001f0: eee5 5abb ea0e 403d 648c d5b7 5386 56bb
00000200: 86f0 483c 73e0 873d 077a 22bd 61a1 98bb
00000210: 3d09 913d 6509 9bbd 86c7 71bd 1bcd 9c3d
00000220: 7369 9a3d 77a9 7fbd 63b0 8d38 9710 afbd
00000230: 48d2 903b d810 e93c 6eef ae3d 3491 e23d
00000240: 6962 e7bd 9946 2fbd be06 013c 07fe 433c
00000250: eab4 293d d374 9abd e618 e83b c00b d3bc
00000260: d2a2 6e3d c6ae fdbb b8b1 1fbc 0bda c73d
00000270: 949c 053d 4638 acbd 14c2 6fbb a825 17bd
00000280: fc0a a8bd 8b00 823c 8619 b53c e4e3 f6bb
00000290: 8b3d 723d 0ac8 463d 0d41 3b3c 0cc7 70bc
000002a0: 5c59 133d 306f c5ba aec2 a2bc 60bd 613d
000002b0: b73c 8cbd 251e 6d3c ecee 32bd 2eae 91bc
000002c0: 70de ddbd 77eb 16bc 0e6d 623d 9004 693c
000002d0: d71c c1bd 9852 803d 8921 0a3d 396b 56bd
000002e0: 42b5 94bb 3dd0 6c3d 3079 6b3c ca45 7a3d
000002f0: cad8 953d e583 4e3c 178f b1bc b021 a634
00000300: 3150 c73b 88b6 5c3d b1f5 913d eff7 5a3d
00000310: d446 8f3d fd6f 68bd 0c15 97bd 06b0 933d
00000320: 883d c43d 6fe9 993d a3d0 623d f767 4cbd
00000330: 5311 36bc 664b c03c 175c ac3d f281 d93d
00000340: 87b1 ffbc 069a 9fbc 59ee 81bc e709 03bd
00000350: 81d4 8e3d 4d2a ba3a bb9c a93d b837 86bd
00000360: 46c1 8a3d 3529 323c 03fb 363c bba3 093d
00000370: af26 e7bc efe5 a9bd ec85 833d 3836 453d
00000380: 2e5d 8d3d 6a5d 003d 8b75 92bd 98b8 bf3c
00000390: 2286 cb3d be29 8b3d b77b a3bd 43f0 e03d
000003a0: 7edf 903d 0460 0cbd ceba e3bc 616c f83d
000003b0: b413 a2bd 6298 cdbc d0d7 943d f921 1abd
000003c0: 8674 22bc cdbe 3d3d 3adf ec3d ac07 f2bd
000003d0: c238 863c e199 c1bd 5b7e c03a f207 593d
000003e0: e912 4bbc 10f4 f03c 3e84 9f3d 5d2c eb3b
000003f0: 7f7e 313d a555 ef3c c3db c23c 07dd ea3c

act_conv1.bias f4 [4]
-0.01597457 0.049083 0.075895354 -0.06334563
00000000: 1add 82bc 410b 493d 066f 9b3d 5bbb 81bd

act_fc1.weight f4 [36, 144]
-0.03640736 -0.061069194 -0.09106477 -0.024608614 -0.03411366 -0.067281075 -0.033475623 -0.07288406
-0.09072241 -0.09909811 -0.03914132 -0.071021296 -0.12111532 -0.08444044 -0.10117247 -0.042168774
-0.039339058 -0.029273784 -0.04732937 -0.04015121 -0.049448922 -0.036937535 0.007852567 -0.009665634
-0.012463356 -0.02462434 -0.08748797 -0.01053986 0.0056888303 0.014672229 -0.014938176 -0.028352734
-0.014929556 -0.024174599 -0.034120463 -0.033345617 0.043417647 0.052874915 -0.028454203 0.034314804
-0.0070845284 0.0035327491 0.018744841 -0.012604263 0.020013746 0.05691944 0.046803802 -0.026432684
0.055263452 0.060723703 0.069140084 0.012797295 -0.07676495 0.052614264 -0.042522375 -0.09624939
0.060400985 0.0806066 0.037381914 0.052067325 -0.06914253 0.073115334 0.038677454 -0.0749595
-0.010116598 -0.045766443 0.053114526 -0.10901447 0.06093938 0.013730257 -0.05869473 0.00638233
0.050949458 -0.026467191 -0.036499023 0.0060779536 0.080348805 0.011570114 -0.010693749 -0.08633105
-0.06862711 -0.076111615 -0.04798955 0.037623703 -0.028373426 -0.04524999 0.0009928392 -0.038802866
-0.001838634 -0.08947232 0.008715791 -0.07398669 -0.07480786 -0.05514119 -0.047383595 -0.008650919
-0.0513484 -0.013624935 0.047562595 -0.10642382 0.036238275 0.029602738 0.012738189 -0.05003294
-0.002410307 -0.07630279 -0.03204673 -0.03956072 -0.06950898 -0.050236627 -0.039201826 -0.11614022
-0.12121847 0.010790393 0.013519487 -0.0353292 0.01985545 -0.070341036 -0.060369004 0.015921708
-0.02580323 -0.036195576 -0.012302188 0.039723217 -0.026068402 -0.05831263 -0.0013174296 0.05417308
-0.0010146543 -0.012670653 0.01918254 0.053314246 0.030551799 0.01985038 0.030251823 -0.031238815
-0.0826485 -0.0050421325 0.058521293 0.01389696 -0.048435774 0.02593001 -0.0062769745 -0.011084055
-0.029801423 -0.017829405 0.022431474 -0.0368936 -0.028544283 -0.026283292 -0.023727318 -0.025944553
-0.013316531 -0.015468415 -0.02294475 -0.028740833 -0.01295701 -0.009102564 -0.07317133 -0.023489354
0.015810274 0.001748252 -0.046427336 -0.018294338 0.02152036 -0.0048245173 -0.06027724 -0.0591626
0.016023826 -0.041298505 0.015004396 0.017625637 -0.0077088485 -0.050839975 -0.010593033 0.021227034
0.023082195 -0.02563626 0.0029314891 -0.03711153 -0.12686758 -0.036053266 -0.0036143179 0.114652224
0.02390792 0.03785083 -0.07491819 0.08739329 -0.07044027 -0.045210134 -0.07746109 0.0598341
-0.055945676 -0.0041977563 -0.029808791 -0.08950113 -0.019432334 -0.09335096 -0.048836786 0.022643631
-0.07039948 -0.08272802 -0.06476081 -0.029844932 -0.011280621 -0.10529608 -0.005088981 0.008589672
-8.5836975e-05 -0.11088039 0.03103369 -0.024247777 -0.15345244 0.023543397 -0.08973714 -0.033542488
0.12133502 0.09633093 0.058290135 0.09322131 0.050575726 0.093933016 -0.019096574 0.036510203
0.06794818 0.060026526 0.04348276 0.0108361775 0.06294778 0.06631793 -0.011043204 0.069637075
-0.0048634927 -0.041523833 0.05265978 0.06991728 -0.036765713 -0.023010299 0.03714141 -0.019071871
0.095328934 0.077936806 0.02821989 0.06322275 0.008788704 -0.035608526 0.055607017 -0.0071617896
-0.06937647 -0.023977825 0.05039074 -0.091281675 0.0068621044 -0.044646543 -0.016729182 -0.05645941
00000000: e21f 15bd b123 7abd 2b80 babd 0198 c9bc
00000010: c4ba 0bbd a9ca 89bd bc1d 09bd 3d44 95bd
00000020: accc b9bd f3f3 cabd a652 20bd 9d73 91bd
00000030: 4f0b f8bd 1cef acbd 8333 cfbd 2ab9 2cbd
00000040: fe21 21bd 93cf efbc 71dc 41bd 9875 24bd
00000050: f48a 4abd d04b 17bd 0ea8 003c 9b5c 1ebc
00000060: 1b33 4cbc fcb8 c9bc e52c b3bd 61af 2cbc
00000070: 5e69 ba3b ca63 703c 40bf 74bc fe43 e8bc
00000080: 199b 74bc cf09 c6bc e6c1 0bbd 6a95 08bd
00000090: b4d6 313d 5e93 583d ca18 e9bc ae8d 0c3d
000000a0: 5525 e8bb b285 673b c88e 993c 1c82 4ebc
000000b0: def3 a33c 5c24 693d 58b5 3f3d 5b89 d8bc
000000c0: ee5b 623d 6bb9 783d 5199 8d3d bfab 513c
000000d0: f136 9dbd 0e82 573d f12b 2ebd 661e c5bd
000000e0: 0667 773d 1315 a53d c71d 193d 8c44 553d
000000f0: 999a 8dbd 7ebd 953d 406c 1e3d 5e84 99bd
00000100: 16c0 25bc 9875 3bbd 9e8e 593d fa42 dfbd
00000110: 929b 793d dff4 603c e369 70bd dd22 d13b
00000120: 61b0 503d b9d1 d8bc 0080 15bd 9229 c73b
00000130: ea8d a43d 9390 3d3c d634 2fbc 55ce b0bd
00000140: 5f8c 8cbd 68e0 9bbd b190 44bd 501b 1a3d
00000150: 636f e8bc 0e58 39bd 2822 823a c1ef 1ebd
00000160: 52fe f0ba 443d b7bd adcc 0e3c 5586 97bd
00000170: dd34 99bd badb 61bd 4d15 42bd 96bc 0dbc
00000180: b352 52bd 1f3b 5fbc ffd0 423d bbf4 d9bd
00000190: 966e 143d 7181 f23c d6b3 503c 57ef 4cbd
000001a0: 3ef6 1dbb a344 9cbd 6f43 03bd 6c0a 22bd
000001b0: b95a 8ebd ecc4 4dbd 1892 20bd ecda edbd
000001c0: 6441 f8bd 30ca 303c d780 5d3c 5ab5 10bd
000001d0: e6a7 a23c f60e 90bd 7d45 77bd 3e6e 823c
000001e0: 4c61 d3bc d041 14bd 1e8f 49bc d0b4 223d
000001f0: 678d d5bc 39d9 6ebd 9aad acba 97e4 5d3d
00000200: 26fe 84ba 9298 4fbc b424 9d3c 0a60 5a3d
00000210: c447 fa3c 449d a23c acd2 f73c 8be8 ffbc
00000220: 9e43 a9bd 7938 a5bb 06b4 6f3d 13b0 633c
00000230: 9764 46bd 2c6b d43c 14af cdbb e599 35bc
00000240: 1d22 f4bc f90e 92bc 36c2 b73c be1d 17bd
00000250: b3d5 e9bc 0f50 d7bc cb5f c2bc ac89 d4bc
00000260: 942d 5abc 3c6f 7dbc a1f6 bbbc e571 ebbc
00000270: a449 54bc ec22 15bc dada 95bd bf6c c0bc
00000280: 8c84 813c 9a25 e53a 972a 3ebd 02de 95bc
00000290: 774b b03c fc16 9ebb 44e5 76bd 7c54 72bd
000002a0: 6644 833c 9f28 29bd 00d5 753c a463 903c
000002b0: 829a fcbb 943d 50bd 678e 2dbc 51e4 ad3c
000002c0: df16 bd3c 2203 d2bc 3a1e 403b 4202 18bd
000002d0: 93e9 01be 97ac 13bd 31de 6cbb c9ce ea3d
000002e0: 8bda c33c 7909 1b3d b56e 99bd 41fb b23d
000002f0: fd42 90bd 432e 39bd eca3 9ebd 9a14 753d
00000300: 4b27 65bd 558d 89bb 9131 f4bc 5e4c b7bd
00000310: 8f30 9fbc ca2e bfbd 1509 48bd 237f b93c
00000320: 9a2d 90bd 4f6d a9bd 51a1 84bd 5c7d f4bc
00000330: 5bd2 38bc 79a5 d7bd 77c1 a6bb b2bb 0c3c
00000340: 6003 b4b8 4215 e3bd 5d3a fe3c 46a3 c6bc
00000350: a322 1dbe 15de c03c 1bc8 b7bd d963 09bd
00000360: 7f7e f83d 2749 c53d a3c1 6e3d d0ea be3d
00000370: 7e28 4f3d f45f c03d 6b70 9cbc b98b 153d
00000380: 6a28 8b3d 60de 753d fb1a 323d 398a 313c
00000390: c4ea 803d b2d1 873d 8eee 34bc e29d 8e3d
000003a0: ef5d 9fbb e514 2abd c8b1 573d ca30 8f3d
000003b0: a597 16bd 1880 bcbc 9721 183d 9d3c 9cbc
000003c0: d13b c33d 559d 9f3d 662d e73c ee7a 813d
000003d0: 7ffe 0f3c 3fda 11bd 2fc4 633d 72ad eabb
000003e0: 4015 8ebd 256d c4bc 8566 4e3d e3f1 babd
000003f0: 81db e03b 4bdf 36bd a30b 89bc fb41 67bd

act_fc1.bias f4 [36]
-0.031432994 0.049610157 0.018246863 -0.07883736 0.018888563 -0.059106044 -0.101452895 0.0123335095
0.05446335 -0.069517046 -0.06953137 0.011489246 0.077349246 0.059355862 0.04022677 -0.058397915
0.048982438 0.07680384 0.042255383 0.03366638 -0.06151868 0.04982566 0.025002226 0.053706456
-0.051462535 -0.06425865 0.0651141 -0.053960975 0.061552145 -0.034424108 -0.09482402 0.028725889
0.021417798 0.047704928 0.038156595 0.012345298
00000000: e2bf 00bd 0534 4b3d 727a 953c 7b75 a1bd
00000010: 30bc 9a3c 2e19 72bd 89c6 cfbd 7d12 4a3c
00000020: f614 5f3d f45e 8ebd 7766 8ebd 643d 3c3c
00000030: 4869 9e3d 221f 733d d3c4 243d a732 6fbd
00000040: cfa1 483d 554b 9d3d fb13 2d3d c2e5 093d
00000050: 03fb 7bbd fe15 4c3d 78d1 cc3c 4dfb 5b3d
00000060: 61ca 52bd 0a9a 83bd 8b5a 853d 2f06 5dbd
00000070: 1a1e 7c3d 4b00 0dbd 1933 c2bd 8e52 eb3c
00000080: 6174 af3c 3e66 433d 174a 1c3d ef43 4a3c

val_conv1.weight f4 [2, 128, 1, 1]
-0.08747599 -0.011121745 0.116256945 -0.022861749 0.07638879 -0.09069308 0.0658495 0.020925436
0.066079855 0.0264613 -9.6834765e-06 -0.016497707 0.030280996 0.0923951 0.116184495 -0.071110174
0.085854545 -0.053102154 0.05038987 0.049999278 -0.05880225 0.022556037 0.027567195 0.069328755
0.045439847 0.032498512 -0.069111004 0.0181128 -0.042747814 0.092111275 0.038638 0.03957927
-0.024641663 0.042925276 -0.028551824 -0.057566304 0.07557078 0.10273511 0.091808304 0.092709206
-0.0883878 -0.015911957 0.021444103 0.029738972 -0.11112975 0.027403574 -0.020109499 0.042521033
-0.11220385 -0.006886049 -0.01745802 0.051132176 0.013350991 0.085709915 0.041286375 0.086648986
-8.928691e-05 0.04195527 0.07280838 0.061451316 0.0048812646 0.06793816 0.09189083 -0.04254453
-0.015773347 0.01524642 0.07660731 0.03633115 -0.101923704 0.0013767934 0.018487766 0.07819358
0.0651848 0.108400725 0.06274252 -0.032444883 -0.04317065 -0.11862522 -0.011675238 0.1200713
-0.04750443 -8.079497e-05 -0.12634663 -0.020298094 -0.058527753 -7.9583624e-05 -0.085201815 0.11078502
0.1142222 -0.10160665 0.043035246 0.0089959735 -0.011411938 0.071963 -0.051061105 0.011506717
0.019869087 -0.11049175 0.053652376 0.010848951 -0.050683364 -0.07723661 0.03363644 -0.046582647
-0.02070131 0.000581989 0.071763024 0.021318177 0.055555724 -0.03480737 0.08548037 0.066857226
0.0011793864 0.056630764 0.09733118 -0.13210568 0.08068656 0.008845106 0.010167648 -0.021101538
0.051916238 -0.093914025 0.039606 0.05288477 0.04928322 0.048497565 -0.028480843 0.0074487072
0.026250878 0.032349266 -0.08284962 -0.05725139 -0.05897341 0.054239944 0.04027605 0.0749174
0.041342948 -0.00500075 -0.0001773611 0.059480306 -0.035756297 -0.0049944525 -0.07412413 -0.10324581
-0.045600805 0.02358485 0.022238703 -0.044315338 0.029408215 0.023423636 0.016592529 0.054151215
-0.0025224083 -0.013340498 -0.035061877 -0.07034174 -0.07125537 -0.017364701 0.01926109 0.04246885
0.0014524611 0.06522928 0.024125516 -0.011453045 0.013290074 -0.0007036474 -0.07596532 -0.06570858
0.03767844 0.04023639 0.057819113 0.014465702 0.04915805 0.0004694768 0.06932467 0.019022286
0.018689902 -0.008540646 -0.074065395 -0.07038782 0.04432935 -0.009270229 0.036565986 -0.0012262936
-0.005541759 -0.037615497 0.0035461332 0.069858186 0.036492057 0.0071111037 -0.05388102 0.010506588
0.020091856 0.04098473 -0.08851476 -0.08351255 0.036891453 -0.045264218 -0.054740448 -0.047380794
-0.046537284 -0.09682286 0.00014321611 -0.008687988 0.03929701 -0.017903142 0.059007864 -0.066780835
0.00079656177 -0.08929776 -0.03857383 -0.010083566 0.050146714 -0.0043597394 0.013481565 -0.07866048
-0.065578 0.06172231 -0.06159282 -0.047724843 0.0102766035 -0.0037477242 0.06722416 0.02315489
-0.05700282 -0.017930454 0.01783062 -0.08773878 -0.101057395 0.06809806 0.07015388 0.08757445
-0.010626673 -0.07405355 0.070963584 0.029777821 0.06858883 0.0045605334 -0.11722466 -0.014817281
-0.036197767 -0.08396256 -0.060363643 -0.05085037 0.079744674 -0.04354056 -0.006317377 -0.116599105
-0.025471926 -0.025454713 0.022177462 0.040883854 -0.05406231 -0.0514258 0.0015825141 0.0058858027
00000000: 9d26 b3bd fb37 36bc 1f18 ee3d 9048 bbbc
00000010: ba71 9c3d 4bbd b9bd 1adc 863d d26b ab3c
00000020: e054 873d 5ec5 d83c 3776 22b7 3326 87bc
00000030: da0f f83c a439 bd3d 23f2 ed3d 36a2 91bd
00000040: 82d4 af3d a581 59bd 9c65 4e3d 0bcc 4c3d
00000050: a1da 70bd 70c7 b83c 99d4 e13c 3cfc 8d3d
00000060: 221f 3a3d 291d 053d 128a 8dbd 4b61 943c
00000070: 5518 2fbd d6a4 bc3d e142 1e3d df1d 223d
00000080: 50dd c9bc 6ad2 2f3d 84e5 e9bc a5ca 6bbd
00000090: dac4 9a3d c966 d23d fe05 bc3d 53de bd3d
000000a0: aa04 b5bd cb59 82bc 8bab af3c 259f f33c
000000b0: ff97 e3bd 767d e03c adbc a4bc 892a 2e3d
000000c0: 22cb e5bd 5ea4 e1bb 1f04 8fbc f96f 513d
000000d0: 1dbe 5a3c ae88 af3d e71b 293d 0675 b13d
000000e0: 8b3f bbb8 4ad9 2b3d 8f1c 953d 60b4 7b3d
000000f0: 04f3 9f3b 2923 8b3d 4231 bc3d 2c43 2ebd
00000100: 1b37 81bc 1fcc 793c 4be4 9c3d f9cf 143d
00000110: 60bd d0bd 8575 b43a a873 973c f523 a03d
00000120: 9c7f 853d 3301 de3d 267f 803d ede4 04bd
00000130: b5d3 30bd c8f1 f2bd 7f49 3fbc f1e7 f53d
00000140: 0194 42bd 7870 a9b8 0361 01be 3048 a6bc
00000150: ccba 6fbd 22e6 a6b8 4a7e aebd 42e3 e23d
00000160: 54ed e93d 2617 d0bd ba45 303d d963 133c
00000170: 23f9 3abc 5661 933d 7325 51bd ab86 3c3c
00000180: 7fc4 a23c 8049 e2bd 98c2 5b3d ccbf 313c
00000190: 5c99 4fbd 3a2e 9ebd 5dc6 093d 72cd 3ebd
000001a0: cb95 a9bc 9f90 183a 7ef8 923d 75a3 ae3c
000001b0: 668e 633d 2c92 0ebd 5510 af3d 71ec 883d
000001c0: a495 9a3a a9f5 673d 9255 c73d b646 07be
000001d0: ff3e a53d 10eb 103c 3596 263c 22dd acbc
000001e0: 1fa6 543d ff55 c0bd e739 223d b39d 583d
000001f0: 34dd 493d 62a5 463d a850 e9bc 4914 f43b
00000200: 150c d73c aa80 043d 10ad a9bd 6f80 6abd
00000210: 1a8e 71bd b42a 5e3d 80f8 243d 4b6e 993d
00000220: 3957 293d 55dd a3bb 02fa 39b9 9fa1 733d
00000230: 3275 12bd 81a8 a3bb 64ce 97bd 8a72 d3bd
00000240: e9c7 3abd 0435 c13c f12d b63c 0084 35bd
00000250: 7fe9 f03c ede2 bf3c 0eed 873c aacd 5d3d
00000260: fd4e 25bb 1b92 5abc 0b9d 0fbd 550f 90bd
00000270: 56ee 91bd 6b40 8ebc 6fc9 9d3c d1f3 2d3d
00000280: 8260 be3a ee96 853d e0a2 c53c 8da5 3bbc
00000290: 9cbe 593c fa74 38ba b593 9bbd 3892 86bd
000002a0: b554 1a3d eace 243d bcd3 6c3d 8d01 6d3c
000002b0: f459 493d 1c24 f639 18fa 8d3d a0d4 9b3c
000002c0: 911b 993c 11ee 0bbc 99af 97bd 7d27 90bd
000002d0: b192 353d 29e2 17bc 37c6 153d 96bb a0ba
000002e0: a597 b5bb b512 1abd 3e66 683b cf11 8f3d
000002f0: b278 153d 4304 e93b 58b2 5cbd d323 2c3c
00000300: ad97 a43c 9bdf 273d 3a47 b5bd a108 abbd
00000310: 7e1b 173d f966 39bd 8537 60bd 5d12 42bd
00000320: e19d 3ebd 104b c6bd 482c 1639 1058 0ebc
00000330: e7f5 203d 9ca9 92bc 3bb2 713d 64c4 88bd
00000340: 5bd0 503a bee1 b6bd 98ff 1dbd 8b35 25bc
00000350: a466 4d3d 25dc 8ebb c8e1 5c3c bf18 a1bd
00000360: c24d 86bd 88d0 7c3d c148 7cbd 207b 43bd
00000370: 335f 283c 619c 75bb d2ac 893d 53af bd3c
00000380: ca7b 69bd e3e2 92bc 8511 923c 64b0 b3bd
00000390: 2ef7 cebd ff76 8b3d d6ac 8f3d 3c5a b33d
000003a0: 7f1b 2ebc 63a9 97bd 5b55 913d 9ef0 f33c
000003b0: 4d78 8c3d 8770 953b 7c13 f0bd 2ec4 72bc
000003c0: 1c44 14bd 90f4 abbd de3f 77bd 7a48 50bd
000003d0: 2d51 a33d 9657 32bd 0002 cfbb 83cb eebd
000003e0: 80aa d0bc 6786 d0bc 82ad b53c d475 273d
000003f0: 7170 5dbd dca3 52bd 5d6c cf3a b1dd c03b

val_conv1.bias f4 [2]
0.05269552 0.07815369
00000000: 42d7 573d 0b0f a03d
