models/Training/AC_nmcts20/train_074.pth (torch, 424031 bytes, 15 tensors)

conv1.weight f4 [32, 5, 3, 3]
0.04091752 -0.19986571 -0.038638085 0.15414897 -0.24946693 -0.030259576 0.116607994 -0.14594567
0.024827233 0.017169824 -0.014690622 0.15123968 0.08251018 -0.17740086 0.14487058 -0.03599708
-0.016647197 0.1138842 -7.82172e-12 1.4666486e-14 -1.2405392e-14 -9.722549e-13 8.455869e-14 4.318608e-11
8.70207e-11 1.6247602e-13 -1.1744212e-14 0.11434355 0.010334235 -0.05815497 -0.12454083 -0.1712214
0.00422093 0.04029907 -0.140568 0.09366388 -1.6776293e-13 -9.638999e-13 -8.6206744e-14 5.9879415e-14
-3.9623446e-10 -2.4743735e-13 -7.2818304e-15 4.1715486e-13 7.004809e-11 -0.053206936 0.21567866 0.08864535
0.103181496 -0.046161566 -0.019103106 0.05153867 0.11784032 0.10983682 0.05864581 -0.1664928
-0.029585686 -0.047431342 0.030170407 0.021843044 -0.05847915 -0.05067686 0.09196719 6.371233e-12
-1.4605978e-12 -3.2701567e-14 -9.3456364e-08 -5.654394e-14 -8.526686e-14 -7.8911164e-08 1.2612796e-13 -2.91643e-12
-0.13864787 0.17650644 -0.09546093 -0.00946048 -0.19053693 -0.095759444 -0.12925209 0.12015275
-0.021687796 -1.9961395e-13 1.9034364e-05 4.8427516e-13 1.4555178e-13 -4.9128757e-12 -1.6295204e-06 9.148938e-13
1.2248686e-08 -6.5104e-13 -0.10184842 0.050599284 0.0970141 0.07782689 0.013286628 0.16435196
-0.15723199 -0.17304783 0.002776579 -0.028635334 -0.057671893 -0.08741179 -0.0066723507 -0.0346464
0.10367758 0.20401977 -0.00061335345 0.090999946 -1.0840739e-11 1.9346268e-11 -4.822476e-13 -3.947137e-14
-6.4996835e-09 -1.4827453e-05 3.327142e-14 -1.5136872e-13 -1.681374e-13 0.07116191 -0.024796488 -0.14513068
-0.035983313 -0.051246535 0.094628274 0.06792875 -0.025856588 0.044762038 2.4526446e-12 1.897187e-07
-8.917719e-13 -1.3674965e-05 -3.382118e-17 -9.115967e-06 7.90465e-09 -2.9106803e-14 4.9489465e-14 0.018935265
-0.110319495 -0.13507073 0.025750156 0.023204803 -0.037056223 0.17326733 0.21596381 0.15914889
0.06440295 0.02016083 -0.0900467 -0.052257854 -0.20242777 -0.15461576 0.06093344 0.041639615
-0.155917 -4.1915058e-11 -1.6637589e-14 7.0577277e-12 -6.486692e-14 2.3253934e-11 -4.7541836e-12 3.142889e-13
7.8912967e-13 6.5646177e-09 0.019833712 0.1265377 0.034512836 -0.21012118 0.08184195 -0.008996789
0.07081039 0.07798521 -0.0046475763 9.420602e-06 6.902247e-12 5.6342514e-11 2.1706739e-14 1.6114991e-11
2.1560752e-13 1.9789877e-13 3.4795294e-06 5.136241e-14 0.112327695 -0.072090596 0.11173969 0.03170926
-0.0058342004 0.038322825 0.029421145 0.023189936 -0.15950428 0.14147905 -0.16029471 0.11027422
0.07257388 0.053850904 0.14000204 0.10028571 0.04326248 -0.14396596 1.0559024e-12 -1.8534665e-13
4.5069298e-10 -1.9795236e-05 -5.3264657e-11 8.014924e-14 2.9090403e-09 -1.7163628e-11 4.2857982e-15 0.13131826
-0.05668533 0.1374356 -0.002536255 0.039823342 0.18013336 0.11467887 0.037832543 -0.032910272
2.0881899e-13 -1.246859e-13 -1.6744374e-13 4.792961e-11 -2.6527205e-14 8.71574e-14 3.431642e-12 -5.6188354e-10
1.3074036e-05 0.07250595 0.14363286 0.13604327 0.15081611 -0.07696869 -0.07856793 0.10988025
0.15425587 -0.10950881 0.095027275 0.13033019 0.06595902 0.031008242 -0.11968098 -0.096891254
0.050997514 -0.11708404 -0.018618198 -5.0614847e-07 7.093866e-13 -1.4703011e-10 2.2248357e-14 -9.7128975e-08
-1.2250854e-12 5.224253e-13 -5.152811e-10 3.3772373e-12 0.009797873 0.0840626 0.04015053 0.059318822
00000000: 2199 273d 99a9 4cbe f842 1ebd 3ad9 1d3e
00000010: 4274 7fbe eee2 f7bc 2cd0 ee3d c872 15be
00000020: 7b62 cb3c bba7 8c3c efb0 70bc 93de 1a3e
00000030: 19fb a83d 92a8 35be f458 143e ad71 13bd
00000040: b45f 88bc 1f3c e93d e599 09ad 9d1a 8428
00000050: c679 5fa8 2dd5 88ab c468 be29 34ef 3d2e
00000060: 4d5c bf2e 86ee 362a 9e90 53a8 f32c ea3d
00000070: ec50 293c e833 6ebd 430f ffbd aa54 2fbe
00000080: ba4f 8a3b a310 253d 0ff1 0fbe d9d2 bf3d
00000090: 5fe2 3caa 27a8 87ab ce1e c2a9 22d6 8629
000000a0: 0bd5 d9af 7b4b 8baa 842d 03a8 5ad6 ea2a
000000b0: 9209 9a2e 84ef 59bd deda 5c3e b18b b53d
000000c0: d250 d33d e913 3dbd 1e7e 9cbc 361a 533d
000000d0: 4456 f13d 20f2 e03d 9736 703d 177d 2abe
000000e0: ae5d f2bc 5e47 42bd ee27 f73c 2ff0 b23c
000000f0: d587 6fbd 8a92 4fbd 4b59 bc3d f72a e02c
00000100: 958f cdab 5746 13a9 2eb2 c8b3 b9a6 7ea9
00000110: 0001 c0a9 df75 a9b3 e901 0e2a bb39 4dac
00000120: b5f9 0dbe 1bbe 343e 0581 c3bd 2100 1bbc
00000130: 1d1c 43be 871d c4bd a95a 04be a512 f63d
00000140: 9baa b1bc cebe 60aa fcab 9f37 b44f 082b
00000150: 72e0 232a 40db acac e5b5 dab5 86c2 802b
00000160: 4a6e 5232 6040 37ab e895 d0bd 3241 4f3d
00000170: 54af c63d b463 9f3d 28b0 593c e14b 283e
00000180: 6c01 21be 7333 31be 44f7 353b a694 eabc
00000190: 5d39 6cbd f404 b3bd bca3 dabb 62e9 0dbd
000001a0: e954 d43d 8fea 503e 74c9 20ba 2e5e ba3d
000001b0: 59b6 3ead ec2b aa2d 9abd 07ab 64c3 31a9
000001c0: d253 dfb1 6dc3 78b7 56d7 1529 106d 2aaa
000001d0: 4e4e 3daa 56bd 913d 0122 cbbc 239d 14be
000001e0: 3d63 13bd e3e7 51bd 78cc c13d 3a1e 8b3d
000001f0: 32d1 d3bc 6658 373d eb96 2c2c 7bb5 4b34
00000200: f002 7bab 876d 65b7 00f9 1ba4 c8f0 18b7
00000210: 05cd 0732 dc15 03a9 78e1 5e29 211e 9b3c
00000220: 30ef e1bd fb4f 0abe fef1 d23c 0018 be3c
00000230: 44c8 17bd fe6c 313e 9e25 5d3e edf7 223e
00000240: b2e5 833d 5328 a53c 676a b8bd 550c 56bd
00000250: 3a49 4fbe 9853 1ebe 5895 793d 4d8e 2a3d
00000260: b5a8 1fbe 2958 38ae abdb 95a8 5c52 f82c
00000270: 3c11 92a9 348b cc2d e145 a7ac ceed b02a
00000280: c91e 5e2b fd8e e131 4f7a a23c 1993 013e
00000290: 555d 0d3d 022a 57be c19c a73d 4567 13bc
000002a0: 0a05 913d b6b6 9f3d b24a 98bb 2d0d 1e37
000002b0: ead9 f22c 08cc 772e 5584 c328 bcbf 8d2d
000002c0: a3c0 722a 70d0 5e2a dc81 6936 d450 6729
000002d0: 100c e63d 3ca4 93bd c7d7 e43d 92e1 013d
000002e0: d22c bfbb 65f8 1c3d 9d04 f13c d2f8 bd3c
000002f0: 1755 23be e2df 103e 4c24 24be 73d7 e13d
00000300: 9da1 943d c492 5c3d b25c 0f3e 9862 cd3d
00000310: 0034 313d d06b 13be e59a 942b 89ae 50aa
00000320: 66c5 f72f f20d a6b7 ac42 6aae e47a b429
00000330: 61e8 4731 0ef9 96ad 8369 9a27 4b78 063e
00000340: e02e 68bd ebbb 0c3e 4c37 26bb cd1d 233d
00000350: e174 383e c1dc ea3d 4cf6 1a3d eccc 06bd
00000360: fa1b 6b2a 4462 0caa 5f86 3caa f2cb 522e
00000370: 92ef eea8 d242 c429 f77a 712c 0a73 1ab0
00000380: 8f58 5b37 007e 943d 7e14 133e ed4e 0b3e
00000390: 8a6f 1a3e c3a1 9dbd 39e8 a0bd e608 e13d
000003a0: 40f5 1d3e 2846 e0bd a99d c23d 4775 053e
000003b0: 8615 873d ff04 fe3c 4d1b f5bd ec6e c6bd
000003c0: c5e2 503d c2c9 efbd 3185 98bc 42de 07b5
000003d0: b1ac 472b 4ca9 21af 3865 c828 3895 d0b3
000003e0: 5a6a acab b60c 132b afa3 0db0 e6a6 6d2c
000003f0: 4287 203c 0329 ac3d e274 243d 4bf8 723d

conv1.bias f4 [32]
0.12212404 0.0004991209 -0.03610129 0.08076943 -0.07401119 -0.14241312 -0.030089071 0.104506455
0.06863913 -0.10159083 0.18495634 -0.043453716 0.17145883 0.14836654 -0.10601366 -0.027741147
-0.024001732 -0.062881336 -0.03367437 0.1698399 -0.06391551 0.07595887 0.0057115275 -0.07563588
-0.07683455 0.06849272 -0.115718685 0.1692489 0.12601203 -0.07554472 -0.10302747 0.115685634
00000000: 2b1c fa3d 70d7 023a f2de 13bd 716a a53d
00000010: 2e93 97bd bfd4 11be 5b7d f6bc 7b07 d63d
00000020: ac92 8c3d da0e d0bd 3265 3d3e 86fc 31bd
00000030: e792 2f3e 66ed 173e b11d d9bd 6741 e3bc
00000040: 489f c4bc eec7 80bd 23ee 09bd 83ea 2d3e
00000050: 23e6 82bd 5390 9b3d c427 bb3b fce6 9abd
00000060: 6f5b 9dbd e945 8c3d ebfd ecbd 954f 2d3e
00000070: 4c09 013e 31b7 9abd 1100 d3bd 97ec ec3d

conv2.weight f4 [64, 32, 3, 3]
-0.023320263 0.032661363 -0.007669756 0.03370377 -0.05136475 -0.053754706 -0.053871464 0.013304901
-0.019837705 -0.047109734 -0.03555591 -0.039396282 0.026959294 0.029796816 0.037865434 0.024632458
0.019982295 0.062080894 -0.055565465 -0.040081028 -0.03777747 0.012115627 0.043001786 -0.0035016178
0.0014575636 0.0046802275 -0.053461283 -0.07901387 -0.014573101 0.03205123 -0.0020923456 -0.0038638283
-0.0011242334 0.032651942 0.021429356 0.047331803 -0.0037786353 0.03488417 -0.04460836 0.01990966
0.05460691 -0.032559387 -0.0023070006 -0.0005419647 -0.03283148 -0.05153486 -0.01828255 -0.010121171
-0.05227354 -0.032493576 0.00060334883 -0.02954725 0.06001493 0.023758424 -0.014575651 -0.046748646
-0.069149256 -0.004243322 0.027328353 -0.0049426844 0.02291126 -0.027427776 -0.035462137 0.019079626
-0.024453001 0.0255358 -0.041673392 0.0872769 0.03369157 0.046273924 -0.01349442 -0.0056979633
-0.0830009 -0.013055088 0.0071183867 -0.062396817 0.047021132 -0.062938325 -0.03748256 0.03505085
0.04391009 -0.003987787 -0.059561577 -0.02337558 0.029480502 -0.07236213 -0.03962201 0.037987776
0.041111577 -0.012560133 -0.058307957 0.028119223 -0.064200036 -0.059660405 -0.059496615 -0.08481435
-0.047473352 -0.024036258 -0.022593636 0.007992616 0.04866159 -0.022428587 -0.068365335 0.014181294
0.04283114 -0.02551887 0.02607044 -0.056114133 -0.09236041 -0.032188363 -0.07346644 0.0032711055
0.065575145 -0.09348173 -0.049199227 -0.050098915 -0.002684853 -0.07048416 -0.053207666 0.035089873
-0.06962581 0.03246251 -0.014927668 -0.045889944 0.00862633 -0.012334456 -0.027278919 0.00068043586
-0.05825981 -0.06567411 -0.030650953 0.011382698 -0.07771013 -0.015329735 0.007925379 -0.044936843
-0.036026157 -0.030297797 -0.043604843 -0.01497836 -0.034229204 -0.021019595 -0.048825856 -0.06290837
0.05469126 -0.033209063 -0.074671224 -0.04350489 -0.058385063 -0.033859592 -0.009032829 0.00763791
-0.024225885 -0.049666904 0.026160724 0.006096513 -0.06720021 -0.0060284077 0.06405169 0.0017517402
0.044525206 -0.06308554 -0.03388403 0.012511481 0.05086367 -0.010829219 -0.05514648 0.005560812
0.049326707 -0.032381296 0.014443847 0.025676036 -0.07226246 -0.048684515 -0.016694738 0.0469716
-0.02686839 -0.009414997 -0.042223614 -0.09281088 -0.064542465 0.030251777 -0.0048228228 -0.022529557
0.058217537 0.0012697789 0.0021275762 0.0007678344 -0.031143066 -0.0051118494 0.012551215 -0.044441137
-0.01841242 0.062083255 -0.020510286 -0.016995594 -0.0804259 -0.07168681 0.04403772 -0.008969919
-0.012419019 -0.05427139 -0.032226685 -0.0056857853 -0.073745504 0.007868817 -0.055095553 0.039037876
-0.029352468 -0.05750109 0.021599721 0.0025778546 -0.050457373 0.012855162 0.058312234 0.07996851
0.017273191 -0.016126707 0.02511584 -0.04543951 0.024195483 -0.035393994 0.01537916 -0.021409053
-0.032271355 0.008921943 0.047236655 -0.006919902 -0.0101727 -0.032114454 -0.054499406 0.02423521
-0.0011858516 0.020974917 0.0046177856 0.0390375 -0.010948503 0.039417703 -0.022811977 0.05462197
0.04247712 -0.01927471 -0.017929884 -0.003151504 -0.06324641 -0.021976126 0.010696896 -0.046398096
-0.0036032032 -0.055689085 -0.028105192 -0.044874646 -0.030214977 0.02864538 0.04508002 0.018457806
00000000: 230a bfbc ecc7 053d 9452 fbbb f70c 0a3d
00000010: d863 52bd e52d 5cbd 53a8 5cbd cdfc 593c
00000020: af82 a2bc 23f6 40bd 13a3 11bd ff5d 21bd
00000030: bdd9 dc3c 7418 f43c c918 1b3d 02ca c93c
00000040: e9b1 a33c 8948 7e3d 9d98 63bd 012c 24bd
00000050: 8cbc 1abd 9f80 463c a422 303d 667b 65bb
00000060: b80b bf3a 985c 993b 38fa 5abd 06d2 a1bd
00000070: 04c4 6ebc 2748 033d bc1f 09bb 4838 7dbb
00000080: 035b 93ba 0bbe 053d 9e8c af3c fede 413d
00000090: fba2 77bb b4e2 0e3d 41b7 36bd 9519 a33c
000000a0: 7fab 5f3d fe5c 05bd 0c31 17bb a312 0eba
000000b0: 4d7a 06bd 3816 53bd 49c5 95bc 45d3 25bc
000000c0: c81c 56bd fc17 05bd 0e2a 1e3a 130d f2bc
000000d0: 37d2 753d 07a1 c23c b6ce 6ebc 827b 3fbd
000000e0: 209e 8dbd 910b 8bbb b6df df3c 3ef6 a1bb
000000f0: 65b0 bb3c 37b0 e0bc bf40 11bd e04c 9c3c
00000100: a951 c8bc 7430 d13c b8b1 2abd 3bbe b23d
00000110: 2c00 0a3d ba89 3d3d b317 5dbc fbb5 babb
00000120: 60fc a9bd 02e5 55bc 5b41 e93b ce93 7fbd
00000130: 3b99 403d cfe5 80bd 5087 19bd 7b91 0f3d
00000140: 11db 333d fbab 82bb d7f6 73bd 257e bfbc
00000150: 1881 f13c 9932 94bd b04a 22bd 1299 1b3d
00000160: 9d64 283d 04c9 4dbc 53d4 6ebd 495a e63c
00000170: 4f7b 83bd 785e 74bd b9b2 73bd 25b3 adbd
00000180: 6b73 42bd b0e7 c4bc 4a16 b9bc 76f3 023c
00000190: 6051 473d 28bc b7bc 2003 8cbd a858 683c
000001a0: b56f 2f3d f30c d1bc ad91 d53c efd7 65bd
000001b0: 7427 bdbd f2d7 03bd 9375 96bd 0b60 563b
000001c0: 434c 863d 5973 bfbd 2185 49bd 8534 4dbd
000001d0: 5cf4 2fbb 005a 90bd 48f0 59bd 66ba 0f3d
000001e0: fa97 8ebd 69f7 043d 2d93 74bc 18f7 3bbd
000001f0: 7355 0d3c 7516 4abc 0a78 dfbc 475f 323a
00000200: d7a1 6ebd 2680 86bd b517 fbbc 7f7e 3a3c
00000210: 7d26 9fbd 9229 7bbc 73d9 013c b20f 38bd
00000220: 2a90 13bd 1633 f8bc fe9a 32bd cc67 75bc
00000230: ec33 0cbd 4931 acbc 9ffd 47bd 1ad6 80bd
00000240: f103 603d 3a06 08bd 3aed 98bd 2f32 32bd
00000250: 2d25 6fbd 5bb0 0abd 6efe 13bc 6f47 fa3b
00000260: 5d75 c6bc 866f 4bbd 044f d63c 42c5 c73b
00000270: 44a0 89bd f389 c5bb 882d 833d a69a e53a
00000280: 1060 363d fe32 81bd fbc9 0abd f4fc 4c3c
00000290: 6c56 503d 096d 31bc 47e1 61bd 7937 b63b
000002a0: cd0a 4a3d 40a2 04bd e3a5 6c3c 8d56 d23c
000002b0: 57fe 93bd 6a69 47bd 67c3 88bc 4b65 403d
000002c0: 191b dcbc 5c41 1abc abf2 2cbd a113 bebd
000002d0: d72e 84bd 93d2 f73c c508 9ebb e88f b8bc
000002e0: 8375 6e3d b66e a63a ce6e 0b3b 7f48 493a
000002f0: be1f ffbc 4d81 a7bb 9ca3 4d3c e907 36bd
00000300: a5d5 96bc 034b 7e3d 3005 a8bc 583a 8bbc
00000310: 56b6 a4bd 89d0 92bd e560 343d 91f6 12bc
00000320: 2479 4bbc ad4b 5ebd 2100 04bd d34f babb
00000330: e207 97bd 36ec 003c e0ab 61bd 2ee6 1f3d
00000340: 9674 f0bc 4386 6bbd e6f1 b03c 39f1 283b
00000350: 64ac 4ebd 759e 523c cfd8 6e3d 88c6 a33d
00000360: 8280 8d3c 281c 84bc bcbf cd3c c81e 3abd
00000370: 9b35 c63c 4bf9 10bd dff8 7b3c 0a62 afbc
00000380: f82e 04bd 572d 123c 397b 413d 58c0 e2bb
00000390: 65ab 26bc 728a 03bd c53a 5fbd eb88 c63c
000003a0: 946e 9bba 97d3 ab3c cb50 973b c9e5 1f3d
000003b0: 5a61 33bc 7574 213d 2fe0 babc 49bb 5f3d
000003c0: 7dfc 2d3d ffe5 9dbc b1e1 92bc 7789 4ebb
000003d0: 5587 81bd 4707 b4bc 0942 2f3c ee0b 3ebd
000003e0: b823 6cbb 3d1a 64bd dc3c e6bc 7ace 37bd
000003f0: 6685 f7bc b7a9 ea3c d4a5 383d d334 973c

conv2.bias f4 [64]
0.025477398 0.01178235 -0.06934635 -0.052958213 -0.015000032 0.069751464 0.062400643 0.022105264
-0.039982475 0.08454256 -0.04641394 -0.034847923 0.05357032 -0.049197175 -0.010836981 -0.002796338
0.076995656 0.082744464 0.024530472 0.052931648 0.0073721237 -0.024804702 0.068259485 0.035460703
0.026135573 0.09794647 -0.0061219325 0.055494916 -0.041130744 -0.02071802 0.0734747 0.06790665
-0.0015787502 -0.019542104 0.006451653 0.08570588 0.02801819 -0.030978713 0.009246772 0.08768795
0.04647584 -0.015823929 -0.05454974 -0.017877353 -0.019903472 0.059452053 -0.042403888 0.09043696
0.043638043 -0.06089345 0.043158866 0.06623151 0.066703945 -0.034175597 0.03383905 0.069369845
-0.009720287 0.03686695 -0.031177843 -0.011730312 0.017638875 -0.025459813 -0.0501021 -0.00897761
00000000: fab5 d03c c20a 413c 7605 8ebd b6ea 58bd
00000010: b2c2 75bc dbd9 8e3d d197 7f3d 1916 b53c
00000020: aac4 23bd a624 ad3d 8b1c 3ebd b2bc 0ebd
00000030: 8d6c 5b3d fa82 49bd 988d 31bc c442 37bb
00000040: e6af 9d3d ee75 a93d 21f4 c83c dbce 583d
00000050: db91 f13b 3b33 cbbc a1cb 8b3d 3e3f 113d
00000060: 451a d63c 2998 c83d 7e9a c8bb a34e 633d
00000070: b678 28bd d6b8 a9bc e779 963d a412 8b3d
00000080: 11ee ceba c316 a0bc 6368 d33b 9086 af3d
00000090: 6786 e53c 12c7 fdbc c67f 173c bd95 b33d
000000a0: 735d 3e3d 2fa1 81bc 8c6f 5fbd 8773 92bc
000000b0: 9b0c a3bc ff83 733d b3af 2dbd 0337 b93d
000000c0: cebd 323d 696b 79bd 5ac7 303d 63a4 873d
000000d0: 149c 883d b6fb 0bbd d19a 0a3d c711 8e3d
000000e0: d741 1fbc cd01 173d ad68 ffbc 7f30 40bc
000000f0: 677f 903c 1991 d0bc dc37 4dbd d316 13bc

conv3.weight f4 [128, 64, 3, 3]
0.022683438 0.04227018 -0.00034039098 -0.021698747 -0.02068517 -0.01990307 0.0019860084 -0.0084143225
0.005514707 0.009967654 0.010434688 0.024244936 -0.03729938 0.017890794 -0.0034184796 -0.03092315
-0.008034135 0.006280008 0.053349722 -0.02479833 -0.010543074 0.021775205 -0.0062099104 0.020887217
-0.04502029 -0.030541614 0.023246037 0.009233415 -0.011845054 0.081574075 -0.01739516 0.014736233
0.09153202 0.010940356 0.03796074 -0.046732794 0.012883503 -0.009165193 -0.041227188 -0.026400678
-0.048280057 -0.032343227 -0.038584992 -0.016225226 0.017241258 0.04946186 -0.017910449 -0.036350835
0.05221787 0.0030195822 -0.04781799 0.025894303 -0.044050034 -0.004544288 0.010431141 -0.024069998
-0.015671335 -0.06553267 -0.04134338 -0.022110559 -0.011135403 -0.022894794 -0.013937455 0.0044792336
-0.0062592006 0.029009083 -0.019454267 0.022836635 -0.0072470284 0.018132305 -0.00470627 -0.0017171295
0.008085071 0.01670064 -0.019096384 0.030289713 0.013401034 0.00051316235 0.036735848 -0.028948696
-0.01136674 -0.019777175 -0.032335274 -0.05821438 -0.04142081 -0.056874953 0.013956438 -0.03031377
0.03619278 -0.01065313 0.05120635 0.030876515 -0.007822351 0.018398674 0.021529159 -0.00652067
0.04649618 0.024453966 -0.03126954 -0.053343847 0.053010624 0.03697018 0.03138165 0.04082648
-0.002984368 0.014614348 -0.047153637 0.06713006 -0.027699951 0.03997369 -0.027622273 -0.0036718976
0.0065774187 -0.039704546 -0.0098190885 -0.008756606 0.07225623 -0.0044981022 -0.012327746 -0.01493371
0.0043715714 0.009617859 0.0026060545 0.026591731 0.006190799 -0.010255917 -0.0568987 0.023089532
-0.00504822 -0.069489256 -0.019842101 0.013577038 0.0146104405 0.009475414 0.0256514 0.007994697
0.009890462 -0.04325095 0.071705386 -0.059768256 -0.053629838 0.012776235 -0.010366432 -0.0089998
0.0065400265 -0.011927013 -0.06654749 0.016642246 -0.015810367 -0.059086204 0.005673397 -0.007173584
0.015328682 -0.0049604564 0.031572808 0.0010914946 0.025337692 0.041299213 -0.007488417 -0.0010906033
0.0037651071 0.026293725 0.011115139 -0.03673201 0.030360429 -0.035838198 -0.00087650045 0.04245019
-0.058983132 0.022610072 0.02867427 0.0024414905 0.051260505 0.09049036 -0.009034072 -0.037793852
-0.0078960275 0.040801253 0.013912444 0.0044462183 -0.0067068576 0.04125748 0.007223964 -0.03101168
-0.020719305 -0.019897666 -0.015604619 0.023198927 0.05791024 -0.031650122 0.034379646 0.03931814
-0.055905197 0.032012593 0.002907221 -0.058884975 -0.043680813 -0.042346366 0.006039312 0.018076627
-0.09324319 -0.022863157 -0.04647561 -0.0850365 0.013837131 -0.05164463 0.061603595 0.007202249
-0.03277655 0.05129483 -0.057444178 0.021506047 -0.0029755414 -0.08868292 0.015822547 0.076795824
0.012843109 0.003489273 0.008812771 0.036453314 -0.018569533 -0.0054043448 -0.0035507125 -0.019868566
-0.020941498 -0.037587143 0.04875221 0.027772 0.0110266125 0.015739478 -0.05154704 0.0036742461
0.00818178 0.03928464 0.019949967 -0.019315438 -0.03461713 0.005423991 -0.031227835 -0.021698235
0.028994702 -0.058425616 0.024815334 0.009925505 -0.0021820911 -0.026134567 -0.01641877 0.010837591
-0.0141957225 -0.012096851 -0.009400751 -0.0074304976 -0.03643173 0.012518483 0.016430128 0.037459295
00000000: 9ed2 b93c 7f23 2d3d 8176 b2b9 92c1 b1bc
00000010: f273 a9bc c30b a3bc b127 023b 3adc 09bc
00000020: b7b4 b43b 5f4f 233c 41f6 2a3c 519d c63c
00000030: 3cc7 18bd b78f 923c 9208 60bb 8c52 fdbc
00000040: 9ba1 03bc 86c8 cd3b 3d85 5a3d de25 cbbc
00000050: dcbc 2cbc ea61 b23c 817c cbbb ab1b ab3c
00000060: 3267 38bd 6832 fabc 796e be3c c047 173c
00000070: c211 42bc 4f10 a73d 4b80 8ebc 3e70 713c
00000080: 2475 bb3d 2e3f 333c b97c 1b3d e36a 3fbd
00000090: 5415 533c 9b29 16bc d7dd 28bd 3c46 d8bc
000000a0: 4fc1 45bd 557a 04bd 4c0b 1ebd c4ea 84bc
000000b0: 8a3d 8d3c 8598 4a3d efb8 92bc 9de4 14bd
000000c0: 68e2 553d 2fe4 453b ccdc 43bd 4a20 d43c
000000d0: cf6d 34bd 40e8 94bb 60e7 2a3c 722e c5bc
000000e0: 2c61 80bc fe35 86bd ad57 29bd 3421 b5bc
000000f0: 4471 36bc dd8d bbbc ec59 64bc 89c6 923b
00000100: fb19 cdbb 75a4 ed3c 8e5e 9fbc e513 bb3c
00000110: 7b78 edbb 338a 943c 0e37 9abb 4e11 e1ba
00000120: 3f77 043c c8cf 883c 0570 9cbc 2222 f83c
00000130: 0390 5b3c be85 063a 5478 163d d125 edbc
00000140: 903b 3abc be03 a2bc fe71 04bd 3472 6ebd
00000150: dea8 29bd b6f5 68bd 8ba9 643c 9554 f8bc
00000160: e13e 143d 778a 2ebc c0bd 513d bff0 fc3c
00000170: 5129 00bc d1b8 963c eb5d b03c 58ab d5bb
00000180: c772 3e3d af53 c83c 7d14 00bd 147f 5abd
00000190: ab21 593d 0b6e 173d 0c8a 003d ab39 273d
000001a0: 6395 43bb 0571 6f3c 2c24 41bd 7c7b 893d
000001b0: 02eb e2bc 74bb 233d 1b48 e2bc 38a4 70bb
000001c0: 6387 d73b 3ca1 22bd 3ee0 20bc de77 0fbc
000001d0: 13fb 933d d164 93bb 50fa 49bc 85ac 74bc
000001e0: 663f 8f3b 3994 1d3c 57ca 2a3b e7d6 d93c
000001f0: 30dc ca3b 6f08 28bc 9c0e 69bd 4226 bd3c
00000200: 8a6b a5bb 6250 8ebd e78b a2bc 3a72 5e3c
00000210: a160 6f3c c43e 1b3c e322 d23c 31fc 023c
00000220: 9b0b 223c e827 31bd 46da 923d 8fcf 74bd
00000230: f6aa 5bbd 6a53 513c f8d7 29bc e673 13bc
00000240: b84d d63b 8569 43bc 0d4a 88bd 5255 883c
00000250: be84 81bc 6004 72bd e7e7 b93b 6210 ebbb
00000260: 2725 7b3c 538b a2bb 7d52 013d 7b10 8f3a
00000270: fe90 cf3c 5d29 293d 6561 f5bb 93f2 8eba
00000280: 04c0 763b f065 d73c 461c 363c 4e74 16bd
00000290: 6fb6 f83c 13cb 12bd f3c4 65ba 40e0 2d3d
000002a0: 4c98 71bd c238 b93c 4de6 ea3c 6a01 203b
000002b0: 89f6 513d 0353 b93d a503 14bc bacd 1abd
000002c0: 575e 01bc 371f 273d 05f1 633c 95b1 913b
000002d0: 33c5 dbbb 9afd 283d 01b7 ec3b 350c febc
000002e0: 88bb a9bc 6e00 a3bc 84aa 7fbc ad0b be3c
000002f0: 4a33 6d3d 8fa3 01bd acd1 0c3d 0f0c 213d
00000300: d9fc 64bd a31f 033d 1387 3e3b 5f31 71bd
00000310: a7ea 32bd 6273 2dbd 6ce5 c53b 6f15 943c
00000320: 49f6 bebd 844b bbbc 365d 3ebd 9e27 aebd
00000330: 22b5 623c 5289 53bd 0d54 7c3d d800 ec3b
00000340: b440 06bd 871a 523d 964a 6bbd 732d b03c
00000350: 4d01 43bb 649f b5bd 499e 813c 2147 9d3d
00000360: e76b 523c 49ac 643b 7163 103c 1250 153d
00000370: 221f 98bc ee16 b1bb 12b3 68bb 67c3 a2bc
00000380: 818d abbc faf4 19bd 66b0 473d 1b82 e33c
00000390: f7a8 343c 14f0 803c fd22 53bd 9fcb 703b
000003a0: df0c 063c eee8 203d 1d6e a33c 693b 9ebc
000003b0: b1ca 0dbd bcbb b13b 84d1 ffbc 7fc0 b1bc
000003c0: 4c86 ed3c b34f 6fbd 8749 cb3c 969e 223c
000003d0: 6a01 0fbb 2918 d6bc a880 86bc 2790 313c
000003e0: 2d95 68bc df31 46bc 9c05 1abc 887b f3bb
000003f0: 7039 15bd 531a 4d3c 7a98 863c eb6e 193d

conv3.bias f4 [128]
-0.014175053 -0.023889674 -0.024454556 0.054176174 -0.021677028 0.005956809 -0.017571863 0.04490488
-0.020230042 0.013080567 -0.018433532 -0.009139789 0.040331952 -0.0146864345 0.013592933 0.026629383
0.058061097 0.038216643 0.024465684 0.009343681 0.03830411 0.02665686 0.054284688 0.030801138
-0.019080162 0.014163132 0.047754124 0.0035781162 0.010160853 -0.04281413 -0.04820275 0.01608879
-0.029187901 0.038806353 0.010559791 -0.035662275 0.052706912 -0.03444331 0.0069443835 0.0029804357
0.03931951 -0.012217409 0.011277007 -0.027401913 0.022627285 0.0739742 0.005537578 0.008674714
0.018676257 0.006083575 -0.018257633 0.011125197 -0.035921164 0.06483423 -0.0022342291 0.02587599
-0.00055407797 0.052560266 -0.014131943 0.029799474 0.04564126 0.03129397 0.003870301 -0.00531799
-0.022413054 0.042330164 0.045371927 0.02999762 0.024412345 0.012319259 0.002211998 0.022261363
-0.009652298 0.0043145386 0.030276146 0.059848413 0.039314516 0.052333966 0.023679662 0.027805459
-0.035545625 0.034295786 0.001000704 -0.02717878 0.013973016 -2.3948043e-05 0.0472504 -0.0030545301
0.011466327 0.026335629 -0.025520293 0.07815261 -0.0061190315 0.023876077 -0.015136223 -0.003598454
0.009742801 0.028986193 -0.020042453 0.037774395 0.03855454 0.047826402 -0.014558046 -0.01191263
0.044275515 0.054411344 0.008954417 0.0469112 -0.038398743 0.012117789 0.01217966 0.008973884
-0.017787235 -0.00272349 0.047013987 0.046467777 0.019582404 -0.007646708 -0.013572134 0.028314093
-0.024716169 0.009579023 -0.010458364 0.009413165 -0.01637788 -0.016907116 -0.01802061 0.061123356
00000000: 7b3e 68bc 47b4 c3bc ec54 c8bc d6e7 5d3d
00000010: 0694 b1bc 5631 c33b def2 8fbc 2eee 373d
00000020: 79b9 a5bc e04f 563c eb01 97bc 0ebf 15bc
00000030: 1e33 253d 5f9f 70bc e5b4 5e3c dd25 da3c
00000040: 79d1 6d3d 0e89 1c3d 426c c83c 3d16 193c
00000050: c5e4 1c3d 7d5f da3c 9f59 5e3d ab52 fc3c
00000060: 004e 9cbc 7b0c 683c d499 433d d47e 6a3b
00000070: b579 263c df5d 2fbd 3f70 45bd a3cc 833c
00000080: 771b efbc 69f3 1e3d f902 2d3c 9b12 12bd
00000090: 34e3 573d 6e14 0dbd b68d e33b 6a53 433b
000000a0: 7f0d 213d 872b 48bc 32c3 383c fa79 e0bc
000000b0: db5c b93c c97f 973d 9274 b53b 6320 0e3c
000000c0: f3fe 983c ba58 c73b 0891 95bc 7546 363c
000000d0: 1222 13bd cfc7 843d 256c 12bb e2f9 d33c
000000e0: 8b3f 11ba 6f49 573d aa89 67bc 071e f43c
000000f0: 54f2 3a3d 1b2e 003d e0a4 7d3b 8942 aebb
00000100: 959b b7bc 6562 2d3d ead7 393d 92bd f53c
00000110: 66fc c73c b8d6 493c 2bf7 103b 765d b63c
00000120: ac24 1ebc f960 8d3b ae05 f83c 9c23 753d
00000130: 4208 213d 245c 563d dafb c13c 46c8 e33c
00000140: 4a98 11bd bd79 0c3d 0e2a 833a 08a6 debc
00000150: 14ef 643c 08e4 c8b7 a389 413d 832e 48bb
00000160: 43dd 3b3c d1bd d73c ef0f d1bc 7a0e a03d
00000170: 2882 c8bb c397 c33c ecfd 77bc 0ad4 6bbb
00000180: 45a0 1f3c 7474 ed3c 1230 a4bc 53b9 1a3d
00000190: 5eeb 1d3d 9ee5 433d df84 6ebc 312d 43bc
000001a0: 3e5a 353d 6ede 5e3d 8cb5 123c f525 403d
000001b0: 0048 1dbd b189 463c 328d 473c 3307 133c
000001c0: 89b6 91bc 947c 32bb bd91 403d ff54 3e3d
000001d0: 476b a03c 3c91 fabb a85d 5ebc f5f2 e73c
000001e0: 9079 cabc 56f1 1c3c 8f59 2bbc ad39 1a3c
000001f0: e72a 86bc cb80 8abc f59f 93bc 7c5c 7a3d

act_conv1.weight f4 [4, 128, 1, 1]
0.0057129306 -1.4734263e-13 0.004573045 -0.11903654 0.01083181 -6.0799182e-05 0.049374264 0.015408761
0.069185644 -0.10384493 -0.010414865 0.01793958 -0.12957339 0.010577488 0.029557556 -0.047186844
0.006883103 -0.060920026 0.027932286 0.008635425 -0.020689592 0.023873746 -0.093360335 0.0059650405
0.016152363 0.035440933 -0.0133103775 -0.03910116 -0.0010026023 -0.041668627 -0.022781461 0.035872485
5.050493e-14 -0.001608525 -0.0261824 0.0499543 -0.06747842 -0.015892284 -0.0012571797 -8.845296e-05
-0.040890384 -0.01065499 -0.038008656 -0.05463743 -0.007593883 -0.08129329 -0.008119599 -0.08055558
-0.0024005084 -0.031371854 0.030119881 0.02647237 -0.0103261145 -0.036998704 -0.06303726 0.05839832
3.8564097e-15 -0.10682179 -0.06993885 -0.017594146 -0.07878777 0.02834526 0.032322075 -1.8997284e-12
0.05990775 -0.049072556 0.04095681 -0.02444921 -0.051691845 -0.004946296 0.03820922 0.0077672154
-0.035586875 0.07235102 0.049441837 -0.05969821 -0.0066624056 -0.005067968 -0.06303115 -0.023435019
0.006870996 0.03364591 -0.0027065724 -4.876637e-14 -0.02840101 7.0963396e-13 -0.105787106 0.07269242
0.04277113 -0.0054295436 0.010841658 -0.08231036 0.016682152 0.05599468 -0.029097674 0.049174655
-0.041267365 0.049079493 -0.035012156 0.054849174 -0.008129219 0.022942541 -0.0070871823 -0.078952834
-0.008573872 0.0017197753 -0.0054199146 -0.08929492 0.023694457 0.061884616 -0.029965777 -0.0016326492
1.9941029e-13 0.002402434 -0.028710416 -0.024694845 -0.042097066 0.04033359 0.028007356 -0.012656408
0.0722704 -0.029109381 -0.020489825 -0.09503562 4.763513e-12 0.040415548 -1.1798147e-13 -0.012167369
-0.0067902794 0.030317632 -0.056624673 0.04364131 0.10650612 -0.09486363 -0.061456706 0.1032354
0.06728339 -0.094087385 0.009128167 -0.14062087 0.024655018 0.025221033 0.119603224 0.12328338
-0.17548554 -0.041526522 0.009427599 0.013793993 0.048117433 -0.064573325 0.03744089 -0.022908647
0.051715333 0.001836723 -0.00073596573 0.13585678 0.07690981 -0.124304935 -0.0061463565 -0.07090579
-0.04890689 0.0743517 0.029616026 0.005173844 0.14400707 0.13658771 0.013168901 -0.021253578
0.035124768 -0.0011677496 -0.027173558 0.08911318 -0.092840336 0.048301354 -0.041939408 0.0038834554
-0.13303888 -0.032140736 0.0044376575 -0.0042764894 -0.15054257 0.12976453 0.030558106 -0.04997618
-1.6442727e-11 0.09176304 0.006669649 0.08095672 0.10455497 0.011371435 -0.02792052 -1.4876445e-13
0.0055726324 0.10185715 0.09650088 0.079736024 0.07665965 -0.0283549 -0.0463685 0.104240276
0.12486798 0.089248165 0.089476265 -0.120319724 -0.00081865303 0.018394334 0.11145625 0.15155578
-0.05664821 0.004210068 -0.027632901 -0.010649481 0.08579598 3.4014033e-12 0.10648507 -0.07816761
0.09045531 0.0060945046 0.0055721216 0.06896542 -0.0429225 -0.07857537 0.063882425 0.085440874
0.10102026 0.015976112 -0.046954073 0.02972723 0.12209728 0.06374107 -0.11435118 0.14813015
0.095445916 -0.022108795 -0.015521608 0.18265186 -0.08965975 -0.004791849 0.10366376 -0.028780604
-0.00015555236 0.056937918 0.19438064 -0.14831156 0.03805461 -0.08611804 8.449931e-06 0.08704604
-0.040519796 0.045942143 0.12200119 0.04532235 0.000119938864 0.02616826 0.0001544273 0.07005959
00000000: 8933 bb3b 9fe4 25aa 7bd9 953b 6ec9 f3bd
00000010: e777 313c a002 7fb8 ab3c 4a3d 0775 7c3c
00000020: 34b1 8d3d a7ac d4bd 1ca3 2abc 07f6 923c
00000030: e3ae 04be 334d 2d3c b022 f23c fe46 41bd
00000040: a78b e13b 4787 79bd 40d2 e43c 997b 0d3c
00000050: 387d a9bc e092 c33c b433 bfbd 6376 c33b
00000060: f651 843c 832a 113d c513 5abc 8a28 20bd
00000070: c069 83ba b9ac 2abd 30a0 babc 07ef 123d
00000080: 3874 6329 25d5 d2ba 797c d6bc e19c 4c3d
00000090: 2032 8abd 8930 82bc f3c7 a4ba d27f b9b8
000000a0: ad7c 27bd 4492 2ebc f7ae 1bbd 7fcb 5fbd
000000b0: 1cd6 f8bb 197d a6bd 1108 05bc 53fa a4bd
000000c0: d951 1dbb c67f 00bd f8bd f63c 95dc d83c
000000d0: dd2e 29bc f48b 17bd ae19 81bd 1433 6f3d
000000e0: 1af1 8a27 62c5 dabd 1a3c 8fbd 9921 90bc
000000f0: 7b5b a1bd 5234 e83c 2764 043d 77ae 05ac
00000100: d461 753d 4e00 49bd 54c2 273d b649 c8bc
00000110: d4ba 53bd 8a14 a2bb 4581 1c3d 2084 fe3b
00000120: 8bc3 11bd c62c 943d 8683 4a3d 1c86 74bd
00000130: 4f50 dabb 3211 a6bb 7a16 81bd ccfa bfbc
00000140: 1826 e13b 4bd0 093d c060 31bb cc9f 5ba9
00000150: 3ca9 e8bc 84be 472b e9a6 d8bd c3df 943d
00000160: c830 2f3d 50ea b1bb 36a1 313c 5692 a8bd
00000170: 02a9 883c ad5a 653d 3f5e eebc 5d6b 493d
00000180: f807 29bd 9407 493d e868 0fbd 87a9 603d
00000190: 6a30 05bc fff1 bb3c 983b e8bb 06b2 a1bd
000001a0: 6d79 0cbc 156a e13a 8a99 b1bb 41e0 b6bd
000001b0: e11a c23c b97a 7d3d ca7a f5bc 9efe d5ba
000001c0: 1a84 602a 2772 1d3b 1b32 ebbc d84c cabc
000001d0: f96d 2cbd d634 253d af6f e53c d35c 4fbc
000001e0: 8102 943d cc76 eebc 47da a7bc 09a2 c2bd
000001f0: e999 a72c c68a 253d d8d5 04aa a559 47bc
00000200: fe80 debb af5c f83c 46ef 67bd 3bc1 323d
00000210: e11f da3d dd47 c2bd 07ba 7bbd 156d d33d
00000220: e0cb 893d e3b0 c0bd 4f8e 153c ebfe 0fbe
00000230: 52f9 c93c 579c ce3c 89f2 f43d ff7b fc3d
00000240: 7bb2 33be b717 2abd 3776 1a3c 3300 623c
00000250: c916 453d 053f 84bd 9e5b 193d eaaa bbbc
00000260: 75d3 533d 32be f03a d3ed 40ba 0a1e 0b3e
00000270: e482 9d3d 9693 febd 6067 c9bb 0e37 91bd
00000280: 9752 48bd b445 983d 4f9d f23c 5989 a93b
00000290: 9776 133e a6dd 0b3e 60c2 573c fc1b aebc
000002a0: fdde 0f3d 2d0f 99ba 159b debc f980 b63d
000002b0: 1323 bebd a4d7 453d a8c8 2bbd 9281 7e3b
000002c0: 583b 08be 01a6 03bd c569 913b cb21 8cbb
000002d0: d527 1abe fee0 043e fe54 fa3c d3b3 4cbd
000002e0: bba1 90ad 43ee bb3d 128d da3b a3cc a53d
000002f0: eb20 d63d 414f 3a3c 93b9 e4bc 6f7e 27aa
00000300: a19a b63b 7b9a d03d 41a2 c53d a44c a33d
00000310: bcff 9c3d 8948 e8bc e5ec 3dbd ed7b d53d
00000320: c9ba ff3d bec7 b63d 553f b73d 306a f6bd
00000330: e09a 56ba b7af 963c 2d43 e43d 7031 1b3e
00000340: f407 68bd 9cf4 893b 655e e2bc 297b 2ebc
00000350: ceb5 af3d 3c5a 6f2c d814 da3d 5716 a0bd
00000360: a240 b93d 69b4 c73b 5896 b63b be3d 8d3d
00000370: 81cf 2fbd 20ec a0bd cad4 823d a0fb ae3d
00000380: b6e3 ce3d 56e0 823c ea52 40bd 8586 f33c
00000390: 240e fa3d ae8a 823d f430 eabd 6eaf 173e
000003a0: 2679 c33d 811d b5bc 584e 7ebc 1709 3b3e
000003b0: 889f b7bd f104 9dbb aa4d d43d 4dc5 ebbc
000003c0: c51b 23b9 bc37 693d b80b 473e fcde 17be
000003d0: 27df 1b3d a85e b0bd 2dc4 0d37 3245 b23d
000003e0: 16f8 25bd d42d 3c3d c3db f93d eea3 393d
000003f0: b087 fb38 d25e d63c c3ed 2139 677b 8f3d

act_conv1.bias f4 [4]
-0.018856168 0.063873164 0.076422654 -0.07080313
00000000: 4078 9abc efcf 823d 7b83 9c3d 3b01 91bd

act_fc1.weight f4 [36, 144]
-0.032627307 -0.05016744 -0.073209286 -0.023741174 -0.03554719 -0.0672432 -0.031110572 -0.061239447
-0.060914695 -0.10117921 -0.034265008 -0.104873516 -0.11389046 -0.081764996 -0.0912354 -0.046781536
-0.044467594 -0.0141686285 -0.03367165 -0.03935456 -0.02259652 -0.032377683 0.00858691 -0.02157597
0.0027952406 -0.022811828 -0.07694494 -0.023516802 0.02070832 0.009827775 -0.016195985 -0.035499286
-0.008608115 -0.017759008 -0.02761838 -0.046966113 0.052104253 0.09511436 0.009628656 0.060610395
0.1174552 0.072119676 -0.009824607 -0.0038795196 -0.049054272 0.114750646 0.021749131 0.014048271
0.024159621 0.05208198 -0.024225146 -0.010537105 -0.06917139 0.038343553 0.008026804 -0.10738402
0.027954264 0.07670084 0.020348785 0.036522537 -0.037279267 0.08312377 -0.0078906 -0.03101656
-0.018269805 -0.015851455 0.02601175 -0.03835853 0.045976374 -0.0053587453 -0.14819598 0.013392331
-0.053763572 -0.030452736 -0.07097845 -0.062958404 0.06000186 -0.0105584245 -0.05848864 -0.12971565
-0.10380314 -0.01915587 -0.015844936 -0.009455239 -0.14390439 -0.08968751 -0.009953365 -0.07895842
-0.061390895 -0.09760378 0.027255962 -0.110815056 -0.07862363 -0.034543775 -0.039954107 -0.07129572
-0.09760439 0.0011554598 -0.01513369 -0.14181726 -0.03774959 0.019135602 -0.0011729886 0.014594822
-0.080515556 -0.055545893 -0.0801075 -0.00977724 -0.037945554 -0.04616988 -0.02620184 -0.08415548
-0.10171158 0.017406948 0.031074783 -0.008688095 0.01679814 -0.06422319 -0.04246278 0.023980007
-0.021769248 -0.036240604 -0.005938371 0.048022486 -0.022881571 -0.06759365 -0.0027312362 0.04525971
-0.001909616 -0.015280616 0.01606883 0.052619517 0.024374088 0.01957 0.030557526 -0.031439647
-0.066907644 -5.3120668e-05 0.06685623 0.019140838 -0.027822537 0.031302948 0.0006746542 -0.017274937
-0.029392987 -0.017427273 0.021550829 -0.035486177 -0.028080728 -0.026145637 -0.023346974 -0.024978628
-0.013851643 -0.015754689 -0.022820756 -0.030262506 -0.012749128 -0.009133388 -0.07193992 -0.024132792
0.015040916 0.001841267 -0.0453013 -0.018425727 0.020599078 -0.0050829407 -0.05960024 -0.059465524
0.015557015 -0.04083623 0.014887486 0.014597896 -0.007699043 -0.050311133 -0.010533169 0.018177025
0.020860508 -0.023873517 0.0024465078 -0.036184877 -0.46378946 -0.046676684 -0.19436678 0.15443726
0.11435605 0.24229075 -0.091942884 0.15771915 -0.18873517 -0.11023665 -0.12919125 0.03685225
-0.10155253 -0.059418593 -0.073995315 -0.12770787 -0.043488316 -0.079471976 -0.057026297 0.02811085
-0.06597982 -0.10173534 -0.079698674 -0.04454903 -0.041031975 -0.1728459 -0.051076036 -0.010594949
-0.029788963 -0.12336584 -0.011320025 -0.02169131 -0.17748256 -0.019150654 -0.102106795 -0.030951485
0.17456767 0.22718772 0.08276127 0.08625451 0.12079741 0.19147657 -0.040616475 -0.017704248
0.063951105 0.12558982 0.07050796 0.028714549 0.056774653 0.04182665 -0.00852293 0.02841518
0.009882308 -0.025272064 0.047200404 0.062204204 -0.02683892 -0.024435708 0.02845748 -0.031357504
0.08459426 0.059964232 0.012983878 0.06670329 0.011788443 -0.021272548 0.05644443 -0.009214611
-0.055641387 -0.01628867 0.068733424 -0.0586867 0.00583561 -0.045694087 -0.02473891 -0.05804919
00000000: 36a4 05bd 607c 4dbd c0ee 95bd da7c c2bc
00000010: ee99 11bd ceb6 89bd 99db febc 37d6 7abd
00000020: b081 79bd 0c37 cfbd 7759 0cbd edc7 d6bd
00000030: 673f e9bd 6874 a7bd a0d9 babd ff9d 3fbd
00000040: a723 36bd 8923 68bc 49eb 09bd 3f32 21bd
00000050: 561c b9bc 769e 04bd 1cb0 0c3c 17c0 b0bc
00000060: 5b30 373b dfdf babc 4f95 9dbd 4fa6 c0bc
00000070: 7fa4 a93c ad04 213c 71ad 84bc b367 11bd
00000080: 0d09 0dbc 577b 91bc f13f e2bc 8a5f 40bd
00000090: 456b 553d 51cb c23d 83c1 1d3c 9b42 783d
000000a0: 5a8c f03d 7bb3 933d 63f7 20bc 8a3f 7ebb
000000b0: 22ed 48bd 6302 eb3d 3c2b b23c b82a 663c
000000c0: 66ea c53c ea53 553d d073 c6bc d2a3 2cbc
000000d0: bba9 8dbd 210e 1d3d db82 033c 27ec dbbd
000000e0: 5700 e53c 5415 9d3d 7fb2 a63c a898 153d
000000f0: 25b2 18bd cc3c aa3d 9347 01bc 7116 febc
00000100: 8faa 95bc e9da 81bc 9816 d53c d51d 1dbd
00000110: b951 3c3d 6a98 afbb b0c0 17be 826b 5b3c
00000120: 3137 5cbd 0478 f9bc 265d 91bd 56f0 80bd
00000130: 83c4 753d 3efd 2cbc c991 6fbd 2ed4 04be
00000140: be96 d4bd c5ec 9cbc 3dcd 81bc 26ea 1abc
00000150: ac5b 13be 16ae b7bd 7013 23bc f4b4 a1bd
00000160: 0575 7bbd 7ee4 c7bd e547 df3c 01f3 e2bd
00000170: 6d05 a1bd c67d 0dbd eba6 23bd 7e03 92bd
00000180: cfe4 c7bd cc72 973a 4cf3 77bc 8b38 11be
00000190: 509f 1abd 44c2 9c3c f7be 99ba 1f1f 6f3c
000001a0: 57e5 a4bd 1784 63bd 670f a4bd b830 20bc
000001b0: cc6c 1bbd a11c 3dbd 3ea5 d6bc b559 acbd
000001c0: 294e d0bd 0499 8e3c 8b90 fe3c 8358 0ebc
000001d0: 419c 893c 7387 83bd 74ed 2dbd b871 c43c
000001e0: 6c55 b2bc 0771 14bd ab96 c2bb 3ab3 443d
000001f0: 2272 bbbc 8a6e 8abd 8afe 32bb 3f62 393d
00000200: 154c faba 8c5b 7abc c7a2 833c 9087 573d
00000210: 2bac c73c 4451 a03c c753 fa3c dcc6 00bd
00000220: e006 89bd e2cd 5eb8 ebeb 883d 3fcd 9c3c
00000230: 17ec e3bc 8537 003d 47db 303a 2b84 8dbc
00000240: 90c9 f0bc a4c3 8ebc 5d8b b03c f459 11bd
00000250: 8e09 e6bc 602f d6bc 2742 bfbc fb9f ccbc
00000260: 00f2 62bc fa0f 81bc 98f2 babc 13e9 f7bc
00000270: b8e1 50bc 35a4 15bc 3d55 93bd 22b2 c5bc
00000280: 2d6e 763c ab56 f13a db8d 39bd 8df1 96bc
00000290: 66bf a83c cc8e a6bb 621f 74bd 1f92 73bd
000002a0: dae2 7e3c e443 27bd a4ea 733c 032c 6f3c
000002b0: 4148 fcbb 0c13 4ebd 5093 2cbc fce7 943c
000002c0: a8e3 aa3c 6592 c3bc 9755 203b 9836 14bd
000002d0: d075 edbe 0d30 3fbd 1608 47be cd24 1e3e
000002e0: 8133 ea3d 111b 783e 8d4c bcbd 2181 213e
000002f0: cb43 41be c1c3 e1bd b64a 04be 63f2 163d
00000300: c6fa cfbd e960 73bd db8a 97bd dac5 02be
00000310: ce20 32bd 34c2 a2bd 6894 69bd ba48 e63c
00000320: 6e20 87bd 9e5a d0bd 0f39 a3bd 0b79 36bd
00000330: 2511 28bd 84fe 30be 1b35 51bd 7096 2dbc
00000340: fc07 f4bc 3ba7 fcbd a077 39bc f9b1 b1bc
00000350: fdbd 35be d5e1 9cbc 5e1d d1bd f88d fdbc
00000360: dec1 323e e6a3 683e be7e a93d 34a6 b03d
00000370: a264 f73d 6f12 443e 765d 26bd 8008 91bc
00000380: ccf8 823d 9e9a 003e 7a66 903d c63a eb3c
00000390: 8a8c 683d 6c52 2b3d c2a3 0bbc f4c6 e83c
000003a0: 67e9 213c 5c07 cfbc 3655 413d d6c9 7e3d
000003b0: 4bdd dbbc 652d c8bc a91f e93c ba70 00bd
000003c0: c13f ad3d 0e9d 753d 55ba 543c bc9b 883d
000003d0: 5024 413c c443 aebc 4632 673d e1f8 16bc
000003e0: 39e8 63bd d16f 85bc 1cc4 8c3d 7761 70bd
000003f0: a538 bf3b b929 3bbd 41a9 cabc fdc4 6dbd

act_fc1.bias f4 [36]
-0.01858573 0.019652374 -0.034076232 -0.061430287 -0.012405936 -0.07844595 -0.10882506 -0.009949534
0.039396584 -0.026510429 -0.018055696 0.042719938 0.09483373 0.031152708 0.008350842 -0.008181356
0.018746985 0.04624996 0.031804904 0.022015886 -0.036277473 0.043105274 0.0055901273 0.08182105
-0.023385439 -0.030741336 0.12531355 -0.058692835 0.043496225 -0.014991917 -0.10848686 0.012635463
0.009119646 -0.013983954 -0.010703975 0.049289204
00000000: 1a41 98bc 04fe a03c 8593 0bbd 539e 7bbd
00000010: 4442 4bbc 45a8 a0bd acdf debd 5f03 23bc
00000020: 505e 213d 662c d9bc 8ae9 93bc 1afb 2e3d
00000030: 3038 c23d f733 ff3c f8d1 083c 180b 06bc
00000040: 4793 993c 9970 3d3d dc45 023d a95a b43c
00000050: b097 14bd 288f 303d 632d b73b cb91 a73d
00000060: d292 bfbc 41d5 fbbc 3252 003e e667 70bd
00000070: 1929 323d a8a0 75bc 5c2e debd f904 4f3c
00000080: 916a 153c f41c 65bc ba5f 2fbc 7ae3 493d

val_conv1.weight f4 [2, 128, 1, 1]
-0.08853043 -0.006585272 0.05545671 -0.089426555 0.056863908 -0.11841233 0.065644465 0.013365746
0.058658056 0.0013529779 0.0375292 -0.038503006 0.002316844 0.08592929 0.102173954 -0.09421162
0.06016933 -0.073759 0.049926106 0.04471398 -0.07883755 0.022130212 0.006202314 0.06626222
0.040702872 0.02580653 -0.097291686 -0.0024675766 -0.08254277 0.06812743 0.033185434 0.047182538
-0.008347416 0.026398547 -0.045024693 -0.11362921 0.052303515 0.110798486 0.06810391 0.07389403
-0.0985276 -0.015123564 0.013302304 0.02500423 -0.12812941 0.0020967093 -0.041106913 0.017732378
-0.13738297 -0.027024072 -0.028619757 0.016052168 0.006394611 0.057778064 0.03678591 0.08328634
7.7742486e-14 0.013244185 0.06261333 0.06008468 -0.014304865 0.06451472 0.074597284 -0.0011168512
-0.0153708365 -0.004858041 0.054954402 0.008825826 -0.11415376 0.0012754931 0.014058244 0.06251885
0.05644711 0.08503369 0.038363356 -0.06193877 -0.066876575 -0.15037721 -0.030360546 0.101589285
-0.06549781 -0.034187376 -0.17678693 -0.0025615646 -0.06390889 -2.1642425e-13 -0.107386656 0.11043282
0.09842781 -0.12050761 0.03471296 -0.019223712 -0.021947803 0.07108145 -0.07509553 -0.0131165525
-0.0033140525 -0.14076352 0.026332492 -0.020866703 -0.085017554 -0.08599721 0.011324557 -0.035253506
-0.048384044 -0.03131236 0.054097228 -0.00091740175 0.062309366 -0.033454128 0.05491614 0.04483416
-7.87491e-12 0.04317448 0.062197294 -0.1452056 0.077508606 0.0077331206 0.008478361 -0.07113479
0.032314476 -0.13648832 0.02458663 0.02959553 0.0004423291 0.025486218 -2.0594165e-05 -0.015151824
0.0041651223 0.022134217 -0.062782966 -0.065555505 -0.093714185 0.063583285 0.041792452 0.07422605
0.03778535 -0.009353485 -0.0032957017 0.043642614 -0.030980594 -0.0057754954 -0.11092392 -0.09591703
-0.09775648 0.033698697 0.021663178 -0.044670336 0.035059083 0.022846133 0.01586695 0.05284218
-0.0024970993 -0.06534038 -0.0152251795 -0.051334664 -0.041445203 -0.017493483 0.019439654 0.0338423
0.0010202512 0.04716198 0.029754171 -0.008184136 0.018120505 0.07431036 -0.10326958 -0.0741465
0.037701603 0.039128512 0.03893336 0.060857855 0.05600908 0.0045891493 0.07529622 0.022197071
0.028401744 -0.016065318 -0.048660543 -0.09369064 0.045308433 -0.0059295814 0.035298232 -0.0020549826
-8.530249e-11 -0.033893116 0.0035342167 0.055469655 0.03689723 0.0076188096 0.0053814594 2.1780905e-05
0.019797357 0.039238885 -0.10917276 -0.08395837 0.04344781 -0.041605353 -0.018313577 -0.0563763
-0.017620638 -0.15282828 0.026929535 -0.0090371 0.047062427 -0.0036975308 0.05633801 -0.09213291
0.0028899056 -0.07824218 -0.014208276 -0.004456008 0.031505916 -1.434417e-11 0.026826402 -0.08146261
-0.064156406 0.07711958 -0.06087185 -0.032741923 0.014699975 -0.0036450112 0.056416184 0.040757928
-0.06695054 -0.0017493358 0.026153257 -0.08660454 -0.072190024 0.082794346 0.061818227 0.091308504
0.008434519 -0.08103388 0.097317494 0.037392445 0.05324778 0.004663933 -0.13095264 -0.04329181
-0.00061369827 -0.07769139 -0.030037928 -0.05257157 0.11839178 -0.041646905 -0.004833859 -0.053836692
-0.06287248 0.0012870792 0.039768405 0.03760916 -0.0026798984 -0.12400962 1.0931159e-05 -0.0010499489
00000000: 714f b5bd 44c9 d7bb 9326 633d 4525 b7bd
00000010: 21ea 683d 2a82 f2bd 9b70 863d 00fc 5a3c
00000020: 6e43 703d 6856 b13a 38b8 193d 54b5 1dbd
00000030: 31d6 173b b2fb af3d 9440 d13d 06f2 c0bd
00000040: 1e74 763d f50e 97bd 517f 4c3d 0226 373d
00000050: 9575 a1bd 6b4a b53c c83c cb3b 7db4 873d
00000060: 0eb8 263d 3768 d33c dd40 c7bd 11b7 21bb
00000070: 2f0c a9bd 6586 8b3d 73ed 073d 7a42 413d
00000080: 9ac3 08bc c441 d83c d06b 38bd 6eb6 e8bd
00000090: 363c 563d 51ea e23d 107a 8b3d c155 973d
000000a0: d7c8 c9bd d3c8 77bc e8f1 593c acd5 cc3c
000000b0: 5b34 03be f268 093b b95f 28bd 7e43 913c
000000c0: 1fae 0cbe 9661 ddbc fb73 eabc d67f 833c
000000d0: e389 d13b b1a8 6c3d d3ac 163d 0792 aa3d
000000e0: 7e0f af29 23fe 583c 6b3b 803d 5a1b 763d
000000f0: f45e 6abc 4b20 843d 76c6 983d 4f63 92ba
00000100: f6d5 7bbc 3430 9fbb de17 613d 339a 103c
00000110: 72c9 e9bd 722e a73a 8d54 663c e209 803d
00000120: 1635 673d 2526 ae3d e522 1d3d 82b3 7dbd
00000130: 96f6 88bd 7cfc 19be aeb6 f8bc 0b0e d03d
00000140: b723 86bd 1008 0cbd a207 35be ecdf 27bb
00000150: aae2 82bd 0bac 73aa 89ed dbbd 9a2a e23d
00000160: 8594 c93d b2cc f6bd 2d2f 0e3d 0c7b 9dbc
00000170: e1cb b3bc 2793 913d afcb 99bd cfe6 56bc
00000180: 9330 59bb 5024 10be 3db7 d73c a6f0 aabc
00000190: af1d aebd 4e1f b0bd a28a 393c fb65 10bd
000001a0: 592e 46bd 6441 00bd 0e95 5d3d ca7d 70ba
000001b0: 1b38 7f3d 3207 09bd bfef 603d 06a4 373d
000001c0: 7189 0aad b9d7 303d 97c2 7e3d c7b0 14be
000001d0: d5bc 9e3d 1e66 fd3b d3e8 0a3c 1eaf 91bd
000001e0: 2f5c 043d 98c3 0bbe e669 c93c 5372 f23c
000001f0: 68e8 e739 79c8 d03c a2c1 acb7 5b3f 78bc
00000200: 947b 883b d152 b53c 5b94 80bd f741 86bd
00000210: 39ed bfbd f437 823d 902e 2b3d d403 983d
00000220: d0c4 1a3d 5c3f 19bc b3fc 57bb 99c2 323d
00000230: 04cb fdbc 5e40 bdbb 152c e3bd 2670 c4bd
00000240: 8d34 c8bd a507 0a3d fa76 b13c 3ef8 36bd
00000250: 1d9a 0f3d d027 bb3c 68fb 813c 0b71 583d
00000260: 60a6 23bb 2dd1 85bd 0873 79bc 4c44 52bd
00000270: 72c2 29bd 7e4e 8fbc e93f 9f3c 399e 0a3d
00000280: f3b9 853a ec2c 413d 05bf f33c c116 06bc
00000290: 7471 943c 0830 983d 007f d3bd 1fda 97bd
000002a0: ff6c 1a3d 3845 203d 9678 1f3d 1646 793d
000002b0: c769 653d 9360 963b e834 9a3d a2d6 b53c
000002c0: c6aa e83c 6a9b 83bc 4750 47bd e1e0 bfbd
000002d0: 5695 393d ef4c c2bb e194 103d e3ac 06bb
000002e0: 0895 bbae 82d3 0abd 519e 673b 2634 633d
000002f0: 8d21 173d 35a7 f93b f456 b03b 23b6 b637
00000300: 112e a23c f4b8 203d f895 dfbd 5ef2 abbd
00000310: 55f6 313d 606a 2abd 5b06 96bc d6ea 66bd
00000320: 2859 90bc 047f 1cbe 549b dc3c 5810 14bc
00000330: 88c4 403d 4652 72bb afc2 663d 2eb0 bcbd
00000340: 9264 3d3b 703d a0bd d4c9 68bc b403 92bb
00000350: 590c 013d 6658 7cad 0bc3 db3c ded5 a6bd
00000360: 6f64 83bd dff0 9d3d c354 79bd 651c 06bd
00000370: 2ad8 703c 24e1 6ebb a814 673d c9f1 263d
00000380: 5d1d 89bd f849 e5ba 5b3f d63c b95d b1bd
00000390: 5dd8 93bd 1590 a93d 1c35 7d3d f4ff ba3d
000003a0: f030 0a3c 17f5 a5bd 654e c73d d228 193d
000003b0: 581a 5a3d e8d3 983b 7318 06be c152 31bd
000003c0: 98e0 20ba aa1c 9fbd 1a12 f6bc 4955 57bd
000003d0: 6477 f23d f295 2abd 5965 9ebb dd83 5cbd
000003e0: 49c3 80bd 36b3 a83a 32e4 223d 100c 1a3d
000003f0: 3ca1 2fbb c1f8 fdbd f864 3737 709e 89ba

val_conv1.bias f4 [2]
0.03531458 0.080337346
00000000: 05a6 103d e887 a43d
