models/Training/AC_nmcts20/train_028.pth (torch, 424031 bytes, 15 tensors)

conv1.weight f4 [32, 5, 3, 3]
0	0x3d93d89b	0.072190486
1	0xbe0f5a4a	-0.13999286
2	0xbcf5722a	-0.029961664
3	0x3e15e71e	0.14638945
4	0xbe4e6d53	-0.20158891
5	0xbbf4dba0	-0.0074724704
6	0x3db1b515	0.08677117
7	0xbddbc516	-0.107309505
8	0x3c96f8d9	0.018429207
9	0xbbac5e21	-0.0052602445
10	0xbc143123	-0.009044918
11	0x3e15751d	0.14595456
12	0x3d875456	0.06607883
13	0xbdfcb301	-0.1233883
14	0x3e087f96	0.1332992
15	0x3c605d05	0.013694053
16	0xbc9247f0	-0.017856568
17	0x3dfaf9ad	0.12254653
18	0xb6b4d0ca	-5.3887243e-06
19	0x321350a6	8.5748635e-09
20	0x323fc26a	1.1161868e-08
21	0x3586545a	1.0008328e-06
22	0xb3ccc784	-9.535782e-08
23	0xb81c1f7c	-3.722262e-05
24	0xb8ba5cd9	-8.8864654e-05
25	0x33d35320	9.8405735e-08
26	0x31c2d248	5.6700493e-09
27	0x3df894b0	0.12137735
28	0x3d334e24	0.043775693
29	0xbd6f66da	-0.058447696
30	0xbe0ab671	-0.13546158
31	0xbdcc6091	-0.09979356
32	0x3c40b7d6	0.01176258
33	0x3d4b1301	0.04957867
34	0xbdf6ecf4	-0.12056914
35	0x3dc7fb78	0.09764761
36	0xb3e7675f	-1.0775579e-07
37	0xb522be66	-6.062677e-07
38	0xb461d779	-2.1033146e-07
39	0xb42137fd	-1.5014662e-07
40	0xb9ec0daf	-0.00045023623
41	0xb405ad02	-1.244953e-07
42	0xb24598fd	-1.1501695e-08
43	0x34af9e30	3.2711387e-07
44	0xb85aaf53	-5.2138534e-05
45	0xbcfada6d	-0.030621732
46	0x3e33af33	0.17547302
47	0x3db7a5ff	0.08967208
48	0xbd54795a	-0.051873542
49	0x3d30ecde	0.043194644
50	0xbce31149	-0.027718203
51	0x3dcbb66a	0.09946902
52	0x3dacffae	0.084472045
53	0x3e0bbb84	0.1364575
54	0x3d7d8b38	0.061900347
55	0xbe295e77	-0.16539942
56	0x3c1557df	0.009115188
57	0x3d36dba5	0.044643063
58	0x3d85bd9b	0.06530305
59	0x3ccea439	0.025224792
60	0xbd65c270	-0.056093633
61	0xbd6f41b9	-0.058412287
62	0x3dc7af98	0.09750289
63	0x369cdf77	4.675177e-06
64	0x3590f293	1.0799434e-06
65	0xafe7bdc0	-4.215348e-10
66	0xbb10be3e	-0.002208605
67	0xb3165ddb	-3.5009958e-08
68	0xb353d4e0	-4.9320874e-08
69	0xbb0cdbc7	-0.0021493302
70	0x345befb2	2.0483165e-07
71	0x35c2a7e6	1.4502991e-06
72	0xbdf0bb36	-0.11754458
73	0x3e17152a	0.14754167
74	0xbd9a903c	-0.07547042
75	0xbcb85337	-0.022500617
76	0xbded02fc	-0.11572835
77	0xbdc865d0	-0.09785044
78	0xbdc5683f	-0.09639024
79	0x3dbd0d9c	0.092311114
80	0xbb80bb7b	-0.0039285994
81	0xb272125c	-1.4090428e-08
82	0x3c02cb28	0.007983007
83	0xb56e5111	-8.8779876e-07
84	0xb3ac4d36	-8.023419e-08
85	0xb68d30f7	-4.2078277e-06
86	0xbb844eb4	-0.0040377025
87	0xb6bae9a6	-5.570432e-06
88	0x3ae22b9d	0.0017255429
89	0xb4e49473	-4.257632e-07
90	0xbdc85ad9	-0.09782953
91	0x3d2e2e23	0.04252447
92	0x3dfbe87d	0.12300203
93	0xbc74c256	-0.014938911
94	0x3d450f71	0.04811043
95	0x3e3763e0	0.17909193
96	0xbde6c866	-0.11268692
97	0xbde04895	-0.10951344
98	0x3c783074	0.015148271
99	0xbd748f07	-0.059706714
100	0xbc4e094d	-0.01257546
101	0xbd9528a3	-0.072831415
102	0x3bce32c4	0.006292673
103	0xbd2c9cc1	-0.04214168
104	0x3da19711	0.07890142
105	0x3e2d3a32	0.16916731
106	0xbc5002fa	-0.012696022
107	0x3d6c69fb	0.05771826
108	0xb917d73a	-0.0001448066
109	0x37003785	7.642321e-06
110	0x33f21f92	1.1274746e-07
111	0xb1f3af43	-7.0921558e-09
112	0x3a83f8e0	0.0010068677
113	0xbbf2bf14	-0.007408032
114	0x34c3e7e8	3.6490314e-07
115	0x34b1b4e7	3.3100443e-07
116	0x32bfc23a	2.232365e-08
117	0x3d5cb60e	0.05388456
118	0xbb9cb107	-0.0047818455
119	0xbdf13787	-0.11778169
120	0xbdb0b31c	-0.086279124
121	0xbce4d20e	-0.027932193
122	0x3db4142c	0.0879291
123	0x3d7d1d80	0.06179571
124	0x374c79a0	1.2187666e-05
125	0x3d03290c	0.032021567
126	0xb7a22d95	-1.933313e-05
127	0x3b24185b	0.002503893
128	0x3581da2d	9.674746e-07
129	0xbbecff4e	-0.007232583
130	0xb05772bb	-7.8379586e-10
131	0xbbd290f7	-0.0064259726
132	0xba9fcf33	-0.0012192487
133	0x31fe8eef	7.4086226e-09
134	0x32a0b524	1.8708825e-08
135	0x3da82587	0.08210283
136	0xbe040d49	-0.12895693
137	0xbd10ba73	-0.03533406
138	0x3d11ce33	0.035597038
139	0x3d3ed3b0	0.0465886
140	0x3b261eb5	0.0025347893
141	0x3e0cdfab	0.13757198
142	0x3e3d443a	0.18483058
143	0x3e1af321	0.15131809
144	0x3d363567	0.044484522
145	0x3d4733a8	0.048633248
146	0xbda96148	-0.08270508
147	0xbc1a3630	-0.009412333
148	0xbe35ad12	-0.17741802
149	0xbe009e4e	-0.12560388
150	0x3db20c16	0.086937115
151	0x3d284e83	0.0410905
152	0xbdefb8a9	-0.11705143
153	0xb9232a15	-0.00015560568
154	0xb2d0985c	-2.4283672e-08
155	0x36a5924a	4.9344135e-06
156	0xb3720400	-5.6348654e-08
157	0xb7ed6064	-2.8297487e-05
158	0x36ac1988	5.1289717e-06
159	0x34d81fa3	4.0256154e-07
160	0x350e3045	5.2969364e-07
161	0xbab23b00	-0.0013597906
162	0x3d501689	0.05080274
163	0x3e0caef0	0.13738608
164	0x3dca5962	0.0988033
165	0xbe328753	-0.17434435
166	0x3dec9b8d	0.115531065
167	0x3d0abbb1	0.033870403
168	0x3d659877	0.056053605
169	0x3d6e2d45	0.05814864
170	0x3c8b11b0	0.016976207
171	0x3bd491c1	0.006487102
172	0x377bb971	1.5003942e-05
173	0xb837eff0	-4.385406e-05
174	0x31f4659c	7.1128863e-09
175	0x37272a0c	9.9637655e-06
176	0xb4a9fd44	-3.1662978e-07
177	0xb41159c4	-1.3536834e-07
178	0x3ba11a84	0.004916491
179	0x331b15f4	3.6108716e-08
180	0x3e06f44a	0.13179126
181	0xbcb6c694	-0.022311486
182	0x3dfbaacc	0.12288436
183	0x3d47a71c	0.048743352
184	0x3c1c5c4b	0.009543489
185	0x3d3864ea	0.045018114
186	0x3d1eeb07	0.03879836
187	0x3cfe3c48	0.031034604
188	0xbde4b4c2	-0.11167289
189	0x3e07036a	0.13184896
190	0xbdfa3456	-0.122170135
191	0x3db23bb8	0.08702797
192	0x3da4280d	0.080154516
193	0x3d539be9	0.05166236
194	0x3ddc1f60	0.10748172
195	0x3dcb3b5a	0.0992343
196	0x3ced5098	0.028969094
197	0xbdf5a70f	-0.119947545
198	0x346bfaed	2.1977367e-07
199	0x3310c581	3.370724e-08
200	0x39932195	0.00028063045
201	0xbc0459d4	-0.008078057
202	0xb927135a	-0.0001593357
203	0xb355d069	-4.9782475e-08
204	0xba498257	-0.00076869637
205	0xb71b87cb	-9.270337e-06
206	0x31b661e7	5.3080274e-09
207	0x3e0ca52d	0.13734885
208	0xbbd14601	-0.006386519
209	0x3e0510bc	0.12994665
210	0x3c31b620	0.010846645
211	0x3d3ca836	0.046058856
212	0x3e2873ad	0.16450377
213	0x3df1ed8e	0.11812888
214	0x3d0e437e	0.034732334
215	0x3c05a4b6	0.008156946
216	0x3411fbed	1.3595827e-07
217	0xb4cb53a1	-3.7872545e-07
218	0xb3e79836	-1.0784463e-07
219	0x39253fea	0.00015759436
220	0x32d606c0	2.4915948e-08
221	0x33ebd214	1.0981253e-07
222	0xb5444ed5	-7.3130406e-07
223	0xb9b97492	-0.000353728
224	0x3be9e03e	0.0071373275
225	0x3dadab4f	0.0847994
226	0x3e15cc1b	0.14628641
227	0x3e07f304	0.13276297
228	0x3e150659	0.14553203
229	0xbda3061f	-0.07960152
230	0xbcc153fa	-0.023599613
231	0x3df77c16	0.120842144
232	0x3e2df6a5	0.16988619
233	0xbdd251ca	-0.10269506
234	0x3ddb462f	0.10706746
235	0x3dd36987	0.10322862
236	0x3d042896	0.03226527
237	0x3d36815e	0.044556968
238	0xbdfe0016	-0.1240236
239	0xbd6de6fe	-0.05808162
240	0x3d7a4cde	0.061108463
241	0xbdc12e1e	-0.09432624
242	0xbc613593	-0.013745683
243	0xbb48c6b7	-0.0030636021
244	0xb5803626	-9.552502e-07
245	0x3acb2328	0.0015498148
246	0xb1afb5e0	-5.113847e-09
247	0xbb11aa6a	-0.002222682
248	0xb7944db2	-1.7679155e-05
249	0xb5775f9f	-9.215382e-07
250	0xb9a27cff	-0.00030992177
251	0xb6b1ffe2	-5.3047997e-06
252	0x3cc40c7b	0.023931732
253	0x3d90e212	0.070743695
254	0x3caf4733	0.021396255
255	0x3d8285a9	0.0637315

conv1.bias f4 [32]
0	0x3ddb3dc6	0.10705142
1	0x3cb287b3	0.021793222
2	0xbce03f9c	-0.027374081
3	0x3dd129e6	0.102130696
4	0xbd8a1c5e	-0.06743692
5	0xbe15e084	-0.14636427
6	0xb86f5fc0	-5.7071215e-05
7	0x3daa7750	0.08323538
8	0x3d6ecea0	0.05830252
9	0xbdb51fad	-0.08843932
10	0x3e344309	0.17603697
11	0xbd648a7e	-0.05579614
12	0x3e182d48	0.14861023
13	0x3e073bac	0.13206357
14	0xbd833f7d	-0.06408594
15	0xbd4059e5	-0.04696073
16	0xbd1f15d0	-0.03883916
17	0xbda3d2da	-0.07999201
18	0xbceab2ed	-0.028649772
19	0x3e18e687	0.14931689
20	0xbd4e6b70	-0.05039543
21	0x3d504ec3	0.050856363
22	0x39d38fd3	0.00040352214
23	0xbd914291	-0.07092775
24	0xbdbcf6b8	-0.09226745
25	0x3d8bcf07	0.06826597
26	0xbdf68f82	-0.12039091
27	0x3e10a1f9	0.14124288
28	0x3dff41e2	0.12463738
29	0xbd9f17e2	-0.07768227
30	0xbdc2152c	-0.094766945
31	0x3db855f2	0.09000768

conv2.weight f4 [64, 32, 3, 3]
0	0xbcc657f8	-0.024211869
1	0x3d3b1f3a	0.045684077
2	0x3c2ce4f3	0.010552633
3	0x3cfb5e06	0.030684482
4	0xbd2fd0ab	-0.04292361
5	0xbd6365e1	-0.05551708
6	0xbd2e0451	-0.042484585
7	0x3ce29aaa	0.02766164
8	0xbc7bd3c4	-0.015370313
9	0xbd1880f5	-0.037232358
10	0xbd3bcf8f	-0.04585224
11	0xbcaf88ff	-0.02142763
12	0x3d2ba794	0.04190786
13	0x3d309290	0.043108523
14	0x3d4c40f7	0.049866643
15	0x3d14508f	0.03620964
16	0x3c8d2b22	0.017232481
17	0x3d6e4266	0.05816879
18	0xbd6360d9	-0.055512283
19	0xbcb24374	-0.02176068
20	0xbceed474	-0.02915404
21	0x3cca17fc	0.02466964
22	0x3d1801e4	0.037111178
23	0x3c63f7cc	0.01391406
24	0x3c96a5d5	0.018389622
25	0x3c6b6664	0.014367674
26	0xbd2550ac	-0.040360138
27	0xbd8641f7	-0.065555505
28	0xbb6eb078	-0.0036421102
29	0x3d0e8766	0.034797095
30	0x3c07af91	0.008281604
31	0xb9f7125b	-0.00047125187
32	0x3b4837bf	0.0030550805
33	0x3d31079d	0.04322015
34	0x3cc20618	0.023684546
35	0x3d894866	0.06703262
36	0x3b78c9f4	0.003796217
37	0x3d57e1ca	0.052705564
38	0xbd0aba24	-0.033868924
39	0x3cf48dff	0.029852865
40	0x3d80b3f3	0.062843226
41	0xbc17aff1	-0.009258256
42	0x3c0b832f	0.008515163
43	0x3c370ec0	0.01117295
44	0xbc9ef8e9	-0.019405799
45	0xbd39dca3	-0.04537643
46	0x3bcde437	0.006283309
47	0x3c2cad92	0.010539429
48	0xbd0b1a55	-0.03396066
49	0xbc99c54e	-0.01877084
50	0x3c69ad56	0.014262518
51	0xbc929360	-0.01789254
52	0x3d8d800d	0.069091894
53	0x3d0ff382	0.035144337
54	0xbca88d16	-0.020575088
55	0xbcece72c	-0.028918825
56	0xbd80fa4c	-0.0629774
57	0x3b245761	0.0025076496
58	0x3cf6ec6b	0.03014203
59	0x3a41d988	0.00073947804
60	0x3d08e41e	0.033420675
61	0xbcba9abd	-0.022778863
62	0xbcc92750	-0.024554878
63	0x3c8f664c	0.017504834
64	0xbd0c7644	-0.034292474
65	0x3cff1b4d	0.031140948
66	0xbd085855	-0.033287365
67	0x3dbe2e69	0.09286196
68	0x3d334648	0.043768197
69	0x3d4c0e30	0.049818218
70	0xbc29f514	-0.010373373
71	0xb9f321ac	-0.0004637366
72	0xbd8d9c52	-0.06914581
73	0xbc8c37b0	-0.017116398
74	0x39e99800	0.00044554472
75	0xbd487b13	-0.048945498
76	0x3d450aa9	0.04810587
77	0xbd853761	-0.06504703
78	0xbca0af6c	-0.019614898
79	0x3d03d8f7	0.032189336
80	0x3d370df3	0.044691037
81	0x3ca0b767	0.019618703
82	0xbd30bdaf	-0.043149646
83	0xbd0a50d5	-0.033768494
84	0x3d2d2730	0.0422737
85	0xbd7ea071	-0.062164728
86	0xbcf3d602	-0.029765133
87	0x3d623743	0.055228483
88	0x3d423705	0.047415752
89	0x3baaf533	0.0052172183
90	0xbd41fe7e	-0.047361843
91	0x3cbca7ca	0.023029227
92	0xbd77bd07	-0.060483005
93	0xbd619c0c	-0.05508046
94	0xbd7d90d4	-0.061905697
95	0xbdb75128	-0.08951026
96	0xbd0f5c33	-0.035000037
97	0xbcb27cfa	-0.02178811
98	0xbcc36949	-0.023853915
99	0x3cb2ad1b	0.021811059
100	0x3d89260c	0.0669671
101	0xbb64e755	-0.0034927924
102	0xbd65e9c8	-0.056131154
103	0x3cc536d0	0.024073988
104	0x3d6343d7	0.05548462
105	0x3c073d55	0.008254369
106	0x3d15bc6e	0.036556654
107	0xbd38c0fe	-0.045105927
108	0xbdb9c670	-0.09071052
109	0xbd1a7d26	-0.037717007
110	0xbda9aee6	-0.08285312
111	0x3ab8559d	0.0014063601
112	0x3d822ee3	0.06356599
113	0xbdaa3f90	-0.08312905
114	0xbd271029	-0.040786896
115	0xbd22aa64	-0.03971328
116	0x3b22a75a	0.0024818988
117	0xbd91fe0d	-0.071285345
118	0xbd557029	-0.052108917
119	0x3ce847a2	0.02835447
120	0xbd7fa887	-0.06241658
121	0x3cffea38	0.031239614
122	0xbc80554d	-0.015665675
123	0xbd4943a9	-0.04913679
124	0x3be2cbbf	0.006921261
125	0xbc212fc1	-0.009838046
126	0xbb97ff46	-0.0046385853
127	0x3c861ca7	0.016371084
128	0xbd36813c	-0.04455684
129	0xbd37aea5	-0.04484429
130	0xbd00e3f9	-0.03146741
131	0x3b9b4148	0.0047380067
132	0xbd9f5ad7	-0.07780998
133	0xbbb652dc	-0.005564077
134	0x3d42ecff	0.0475893
135	0xbd17cec2	-0.037062414
136	0xbc6439ac	-0.013929766
137	0xbce0190d	-0.027355695
138	0xbd23221a	-0.039827444
139	0x3a02ad11	0.00049848953
140	0xbcb3fe8e	-0.021971967
141	0xbba2d786	-0.00496954
142	0xbd29cd47	-0.041455533
143	0xbd37ccce	-0.04487305
144	0x3d81d0ff	0.06338691
145	0xbd2a4cd0	-0.04157716
146	0xbd4bc4a4	-0.049748078
147	0xbce893d6	-0.028390806
148	0xbd6ac573	-0.05731721
149	0xbd0e9e71	-0.03481907
150	0xbad94446	-0.0016576133
151	0x3cddd20a	0.027077693
152	0xbca5a236	-0.02021895
153	0xbcb683a0	-0.02227956
154	0x3d25c677	0.040472474
155	0x3c60f347	0.013729877
156	0xbd35fc3e	-0.04443001
157	0xbbcdc6a3	-0.006279783
158	0x3da58fe9	0.08084089
159	0x3c3315ad	0.010930461
160	0x3d4a73a6	0.049426697
161	0xbd1859f6	-0.03719517
162	0xbce9d206	-0.02854253
163	0x3c26ea39	0.010187679
164	0x3d777178	0.060410947
165	0xbb45ebe8	-0.0030200426
166	0xbd5cde35	-0.05392285
167	0x3cadeff2	0.021232579
168	0x3d3d6cc8	0.04624632
169	0xbcbbc8d4	-0.02292291
170	0x3d02b3ff	0.03190994
171	0x3c8e4c5b	0.017370393
172	0xbd762027	-0.060089257
173	0xbd2ff1f0	-0.04295534
174	0xbae7f292	-0.0017696193
175	0x3d3b381c	0.045707807
176	0xbd095ee2	-0.033537753
177	0x3bef88c2	0.007310004
178	0xbd4e8dec	-0.050428316
179	0xbdc13870	-0.09434593
180	0xbd4f7f7a	-0.05065868
181	0x3d2c54c0	0.04207301
182	0x3bd27635	0.006422783
183	0xbb342e0d	-0.0027493269
184	0x3d707600	0.058706284
185	0x3cbcf3f7	0.02306555
186	0x3c392af6	0.011301747
187	0x3c90d880	0.01768136
188	0xbb27540d	-0.0025532276
189	0x3b8e01bd	0.0043337033
190	0x3c1747ae	0.009233398
191	0xbd2c38ee	-0.04204648
192	0xbc4b845f	-0.012421696
193	0x3d72548b	0.059162658
194	0xbb1ad31a	-0.0023624361
195	0xbc7dc60e	-0.015489114
196	0xbd8b7740	-0.068098545
197	0xbd9b1f3c	-0.07574317
198	0x3d80c91a	0.06288357
199	0x3b61fc80	0.0034482777
200	0xbb984bce	-0.0046477085
201	0xbd2ba86e	-0.041908674
202	0xbcb073a8	-0.021539524
203	0xba01dad2	-0.0004953566
204	0xbd53f47b	-0.051746827
205	0x3c2e9bc2	0.010657253
206	0xbd39055b	-0.045171123
207	0x3d895fdd	0.067077376
208	0xbcfa7de5	-0.03057761
209	0xbd3755cc	-0.044759557
210	0x3c948e44	0.018134244
211	0x3ca6bace	0.020352747
212	0xbd141d39	-0.03616068
213	0x3cafea32	0.021473978
214	0x3da29311	0.07938207
215	0x3dbf71ec	0.09347901
216	0x3bfa6655	0.0076415935
217	0x3ccf8108	0.025330082
218	0x3d2d68fc	0.04233645
219	0xbc272c19	-0.010203385
220	0x3ca04363	0.019563382
221	0xbd806c9b	-0.06270715
222	0x3d5c07ca	0.053718366
223	0xbc9b68a2	-0.018970791
224	0xbcd82f9e	-0.026389893
225	0x3cb409b3	0.021977281
226	0x3d56c51e	0.05243408
227	0x3c862932	0.016377065
228	0xbc4f1a16	-0.012640497
229	0xbcc3c8c7	-0.023899449
230	0xbd4d83e5	-0.050174613
231	0x3d19f912	0.037591048
232	0x3bda2e57	0.006658356
233	0x3d02fda9	0.03198019
234	0x3ccf1c99	0.025282191
235	0x3d472592	0.048619814
236	0x3c8555e2	0.016276304
237	0x3d322f5c	0.043502197
238	0x3a68fa8b	0.00088874315
239	0x3d8e8348	0.06958634
240	0x3d6be63d	0.05759262
241	0x3c0ce28b	0.008598934
242	0x3c0fb1fb	0.008770461
243	0x3bd739a2	0.0065681497
244	0xbd816f06	-0.06320004
245	0xbc67ce98	-0.014148377
246	0x3c814f66	0.01578493
247	0xbd48d279	-0.049028847
248	0xbcb91ccd	-0.022596741
249	0xbd49dfa0	-0.04928553
250	0xbd336742	-0.043799646
251	0xbd4759e9	-0.04866973
252	0xbc926ea6	-0.017875027
253	0x3d32dc39	0.043667052
254	0x3d401f0d	0.046904612
255	0x3cbe0c47	0.023199214

conv2.bias f4 [64]
0	0x3ce5715d	0.028008157
1	0x3c3154f1	0.010823474
2	0xbd8f6a0e	-0.0700265
3	0xbd22c644	-0.039739862
4	0xbc930341	-0.017945888
5	0x3d7aaec9	0.061201844
6	0x3d56a656	0.052404724
7	0x3cedf59a	0.029047776
8	0xbc94866d	-0.018130505
9	0x3d92336a	0.07138713
10	0xbd22a50a	-0.039708175
11	0xbcc978e1	-0.024593772
12	0x3d475f10	0.048674643
13	0xbd1e028a	-0.03857664
14	0xbaaf36ca	-0.0013367769
15	0xbcbdddf4	-0.023177125
16	0x3c89576a	0.016765315
17	0x3da2d147	0.07950073
18	0x3d0c6b47	0.034281995
19	0x3d2d6635	0.0423338
20	0x3aa4c170	0.0012569856
21	0xbcc3b966	-0.023892116
22	0x3d8c008f	0.06836044
23	0x3d692572	0.056920476
24	0x3cd9d6ba	0.026591647
25	0x3dbc9dc2	0.092097774
26	0x3b519a5c	0.0031982874
27	0x3d527f40	0.051390886
28	0xbd5dc8f1	-0.05414671
29	0xbced6edf	-0.028983532
30	0x3d8a3215	0.06747834
31	0x3d6758ed	0.05648129
32	0x3c396083	0.011314514
33	0x3cf74f33	0.030189132
34	0x3c619787	0.013769037
35	0x3dada8cf	0.08479463
36	0x3cedca32	0.029027078
37	0xbd0664eb	-0.032811087
38	0xbbb64750	-0.0055627003
39	0x3d9ccbca	0.07656057
40	0x3d085916	0.033288084
41	0xbcacb99c	-0.0210846
42	0xbd81697e	-0.06318949
43	0xbcf83afc	-0.030301563
44	0xba85fcaa	-0.0010222394
45	0x3d6550e8	0.05598536
46	0xbd154938	-0.03644678
47	0x3d89fc41	0.06737567
48	0x3d5249db	0.051339965
49	0xbd41bef4	-0.047301248
50	0x3d3a11fd	0.04542731
51	0x3d74adc8	0.059736043
52	0x3daba902	0.08381845
53	0x39267151	0.00015873207
54	0x3d0aef4d	0.03391962
55	0x3da06885	0.078324355
56	0xbc3000d5	-0.010742386
57	0x3d359104	0.04432775
58	0xbd1cf4aa	-0.038319267
59	0xbc04d755	-0.00810798
60	0x3bfb2d72	0.0076653296
61	0xbcd52b37	-0.026021583
62	0xbd124d17	-0.03571805
63	0xbc51e1e8	-0.012810208

conv3.weight f4 [128, 64, 3, 3]
0	0x3cae0187	0.021240963
1	0x3d19668e	0.03745132
2	0xbc548f5a	-0.012973631
3	0xbcda6d23	-0.026663369
4	0xbcbf4e37	-0.023352725
5	0xbcbfb678	-0.023402438
6	0x3b50688d	0.0031800598
7	0xbc1065a4	-0.0088132955
8	0x3c1b0480	0.009461522
9	0x3ce77ac1	0.028256776
10	0x3cfdf9c4	0.031002887
11	0x3d3ab2dd	0.045580734
12	0xbd1ea4d5	-0.038731415
13	0x3cfeef1f	0.031119881
14	0xbb85bf38	-0.004081633
15	0xbc3180a4	-0.010833893
16	0xbb88e583	-0.0041777506
17	0xbc0f69a9	-0.008753219
18	0x3d7bccaf	0.0614745
19	0xbd001ff7	-0.031280484
20	0xbc47eddf	-0.012202709
21	0x3ccce2ad	0.025010431
22	0xbbff1619	-0.0077846167
23	0x3cd55d18	0.026045367
24	0xbd4ca755	-0.049964268
25	0xbd10a620	-0.03531468
26	0x3ce4926e	0.027901854
27	0x3c469eb6	0.012122801
28	0xbc89bf7b	-0.016814938
29	0x3dac2c6d	0.08406911
30	0xbcfb251b	-0.030657342
31	0x3c3fbf22	0.011703284
32	0x3da417fa	0.08012386
33	0x3c88cc04	0.016698845
34	0x3d3860b5	0.045014102
35	0xbd5c8b25	-0.053843636
36	0x3bd37458	0.0064530782
37	0xbbe23533	-0.0069033145
38	0xbd657002	-0.056015022
39	0xbcb283ff	-0.021791456
40	0xbd3b59b5	-0.04573985
41	0xbd0098cb	-0.031395715
42	0xbd21519a	-0.039384462
43	0xbbfe9439	-0.0077691344
44	0x3d0ce694	0.034399584
45	0x3cf4f7b0	0.029903263
46	0x3b439e41	0.0029848965
47	0xbd005a44	-0.031336084
48	0x3d7fb35e	0.062426917
49	0x3c45d109	0.012073764
50	0xbd0eec45	-0.034893293
51	0x3d015720	0.03157723
52	0xbd632ca6	-0.055462502
53	0x3c75412e	0.014969153
54	0x3cb2ee85	0.02184225
55	0xb99029be	-0.0002749692
56	0xbcbeaf45	-0.023276934
57	0xbcda7a9d	-0.026669795
58	0xbce53af8	-0.02798222
59	0xbc248233	-0.010040808
60	0x3c6d911e	0.014499931
61	0xbcc89cbd	-0.024488801
62	0xbc471f64	-0.01215348
63	0x3bc85fbc	0.006114928
64	0xbc0937f4	-0.008375157
65	0x3d191181	0.03737021
66	0xbcc69d63	-0.02424497
67	0x3cec08e5	0.028812835
68	0xbba3cfa8	-0.00499912
69	0x3cc633d8	0.024194643
70	0xbbb79251	-0.005602159
71	0x39e48f61	0.00043594374
72	0x3b9b58a5	0.004740792
73	0x3c4c9c0c	0.012488376
74	0xbd198b5d	-0.037486423
75	0x3ce0b9b5	0.027432302
76	0x3c66215d	0.01404604
77	0xbbdef300	-0.00680387
78	0x3cfccba5	0.030858824
79	0xbd2f43ba	-0.0427892
80	0xbcd6c9de	-0.026219305
81	0xbcccaa80	-0.024983644
82	0xbcc864c1	-0.024462106
83	0xbd624675	-0.055242974
84	0xbd2bfb74	-0.04198785
85	0xbd671299	-0.05641422
86	0x3cfc1b6c	0.030774795
87	0xbd11a928	-0.03556171
88	0x3d18760f	0.037221964
89	0xbcc19f41	-0.023635508
90	0x3cb23643	0.02175439
91	0x3c6917a2	0.014226826
92	0xbc61e7cb	-0.013788174
93	0x3ad4907b	0.0016217375
94	0x3c9a9e54	0.018874325
95	0xbc92b72c	-0.017909609
96	0x3cf95743	0.030437117
97	0x3c769903	0.015051129
98	0xbd563878	-0.052299947
99	0xbd376653	-0.04477532
100	0x3d608204	0.054811493
101	0x3cadb4c7	0.021204365
102	0x3d0c77c4	0.034293905
103	0x3d0e7c5c	0.034786567
104	0xbc91b773	-0.01778767
105	0x3cb60f84	0.022224195
106	0xbd630e84	-0.055433765
107	0x3d6d14e0	0.057881236
108	0xbd157df8	-0.036497086
109	0x3d22a416	0.039707266
110	0xbcc1e60d	-0.023669267
111	0x3c41077d	0.0117815705
112	0x3ca49ae6	0.020093393
113	0xbce48e90	-0.02790001
114	0x3bafa087	0.0053597125
115	0xbb113a12	-0.0022159857
116	0x3da24c1f	0.07924675
117	0xbc091da7	-0.008368886
118	0xbcae61bc	-0.021286838
119	0xbd02a81b	-0.0318986
120	0x3c0857f4	0.008321751
121	0x3c982dad	0.018576467
122	0x3b432d33	0.002978158
123	0x3d428ed7	0.047499504
124	0x3c84777d	0.016170258
125	0xbcd9d485	-0.026590595
126	0xbd7d6705	-0.061865825
127	0x3c8262c0	0.015916228
128	0xbcb565b5	-0.022143224
129	0xbd8e07d0	-0.06935084
130	0xbcc1026d	-0.023560727
131	0x3bea4f58	0.007150572
132	0x3ccfda7d	0.025372738
133	0x3bd32334	0.0064434055
134	0x3c92b7e5	0.017909953
135	0xbb28938b	-0.0025722708
136	0xbc809823	-0.015697544
137	0xbcf29e77	-0.029616578
138	0x3d098ec7	0.03358343
139	0xbd8f8b95	-0.07009045
140	0xbd46e64c	-0.048559472
141	0x3c482da9	0.0122179175
142	0x3c24c35f	0.010056346
143	0xbc4f80dc	-0.012665
144	0x3b2fa3cc	0.0026800511
145	0xbcc2705b	-0.023735216
146	0xbbaebabd	-0.0053323195
147	0xbbd459f4	-0.00648045
148	0xbc6bd58d	-0.014394176
149	0xbd33dd33	-0.043912124
150	0x3c59d5e8	0.013295628
151	0xbb85a7ca	-0.00407884
152	0x3d23e1b7	0.04001018
153	0xbc915707	-0.017741693
154	0x3ce5dcd7	0.028059406
155	0xbb0b9eef	-0.0021304449
156	0x3d28c7fb	0.04120634
157	0x3d4f80f0	0.050660074
158	0xbc819a1f	-0.015820561
159	0x3cbcced9	0.023047851
160	0x3b011962	0.0019698967
161	0x3bfbe560	0.0076872557
162	0x3cc43369	0.023950296
163	0xbd37d90c	-0.044884726
164	0x3cc19be5	0.023633907
165	0xbc9cd2b8	-0.019143447
166	0x3bdd2b34	0.006749535
167	0x3d22646f	0.039646562
168	0xbd66d041	-0.05635095
169	0x3cbb1d2f	0.022841064
170	0x3c088e58	0.008334719
171	0xbc049be4	-0.008093808
172	0x3d579d4e	0.05264025
173	0x3d7e3900	0.06206608
174	0x3bb9f7d3	0.005675295
175	0xbcd708ab	-0.02624925
176	0xbc8cfc7f	-0.017210243
177	0x3d4fae21	0.05070317
178	0x3ccbcbfb	0.024877539
179	0xbc6a864f	-0.014314248
180	0xbba1fdbf	-0.004943579
181	0x3d039450	0.032123864
182	0x3c0f9646	0.008763855
183	0xbcb87843	-0.022518283
184	0xbcbe2be8	-0.023214296
185	0x3ae4d2be	0.0017457826
186	0xbc65caec	-0.014025431
187	0x3cdfb723	0.027309006
188	0x3d69c8b9	0.05707619
189	0xbc80a341	-0.015702846
190	0x3d42b408	0.047534972
191	0x3cb8cbeb	0.022558173
192	0xbd30d33a	-0.04317019
193	0x3d0d0cf6	0.03443619
194	0xbbca20d3	-0.0061684637
195	0xbd63228a	-0.05545286
196	0xbd40cb58	-0.047068924
197	0xbd763dc4	-0.060117498
198	0x3bd4e513	0.0064970343
199	0x3ce30517	0.027712388
200	0xbdc47080	-0.0959177
201	0xb987a4b6	-0.00025871926
202	0xbd2f1e9c	-0.0427538
203	0xbd83ce64	-0.0643585
204	0x3ce7323d	0.028222198
205	0xbd229454	-0.039692238
206	0x3da237ef	0.07920825
207	0xbd2f7c05	-0.042842884
208	0xbc415cee	-0.011801941
209	0x3d29ebbd	0.041484583
210	0xbd33b21d	-0.043871034
211	0x3d2a629c	0.041597947
212	0xbd121119	-0.035660837
213	0xbd60c6f2	-0.05487723
214	0x3ce1cc70	0.027563304
215	0x3cb9ec74	0.022695757
216	0x3c7d97e4	0.015478108
217	0x3b9996f5	0.004687185
218	0x3c472b9a	0.0121563915
219	0x3d4159cb	0.047204774
220	0xbcbcbab7	-0.023038251
221	0xbbde2682	-0.006779493
222	0xbb9eb0c5	-0.00484285
223	0xbcccc8fc	-0.02499818
224	0xbce060eb	-0.027389964
225	0xbd8745a0	-0.06605077
226	0x3d043ae5	0.03228273
227	0x3cf96a19	0.0304461
228	0x3c9d0774	0.019168593
229	0x3c4a7f22	0.012359412
230	0xbd51d77e	-0.0512309
231	0x3cb83212	0.022484813
232	0xbbe42f6e	-0.006963662
233	0x3ce003bd	0.027345533
234	0xbbb520d4	-0.005527595
235	0xbbdcf872	-0.006743484
236	0xbd4d445d	-0.050114024
237	0xbbdc8ebe	-0.0067308834
238	0xbd36721c	-0.044542417
239	0xba873e90	-0.0010318328
240	0xbd256e3d	-0.040388335
241	0xbdad39d6	-0.08458297
242	0x3cb99122	0.022652213
243	0x3c54806a	0.012970069
244	0xbb155344	-0.0022785226
245	0xbd093553	-0.03349812
246	0xbc924372	-0.017854426
247	0x3c8f2203	0.017472273
248	0xbc7e8fe1	-0.015537233
249	0xbc3e0a8b	-0.011599193
250	0xbc284209	-0.01026965
251	0xbc01d788	-0.007924922
252	0xbd32177c	-0.043479428
253	0x3a78f4d2	0.000949693
254	0x3ca14c33	0.019689655
255	0x3d2f0b8e	0.04273563

conv3.bias f4 [128]
0	0xbbb9254d	-0.0056501986
1	0xbd0c5ac2	-0.03426624
2	0xbcaf0d2e	-0.02136859
3	0x3cc556ff	0.024089335
4	0xbcb2d2fa	-0.021829117
5	0x3c58649f	0.013207584
6	0xbc8081e3	-0.015686935
7	0x3d28f13e	0.04124569
8	0xbc8c78f9	-0.017147528
9	0x3ca0019e	0.019532021
10	0xbae3610d	-0.0017347649
11	0xbc090c62	-0.008364769
12	0x3d2fc3a6	0.042911194
13	0xbc79d6f5	-0.015249004
14	0x3cb17824	0.021663733
15	0x3cf5cada	0.030003954
16	0x3d363f90	0.04449421
17	0x3d3ba1fc	0.045808777
18	0x3cc34ad5	0.023839394
19	0x3c1b5520	0.009480745
20	0x3cefbb44	0.0292641
21	0x3cdd7f5b	0.027038267
22	0x3d6c3283	0.05766536
23	0x3cf92f75	0.030418137
24	0xbc9f7cd9	-0.019468712
25	0x3ca9d2e4	0.020730443
26	0x3d3e464a	0.04645375
27	0xbcc6cc08	-0.024267212
28	0x3b7340d4	0.0037117498
29	0xbd4c3c5f	-0.04986226
30	0xbd4892ba	-0.048968054
31	0x3cf21424	0.02955062
32	0xbd129398	-0.035785288
33	0x3d2bca60	0.041941047
34	0x3bd20b12	0.006410011
35	0xbd18bd7e	-0.03729009
36	0x3d286cc4	0.041119352
37	0xbd242e47	-0.040083196
38	0x3c20f743	0.009824577
39	0x3a876a9b	0.0010331454
40	0x3d2266d1	0.039648835
41	0xbc48d0d6	-0.012256822
42	0x3cb3e4fc	0.021959774
43	0xbca9221d	-0.02064615
44	0x3cde92bf	0.027169583
45	0x3d931a5b	0.07182761
46	0x3c5499f7	0.012976161
47	0x3c275034	0.010211993
48	0x3cb33b86	0.021878969
49	0x3a9e5e38	0.0012082523
50	0xbced19d0	-0.028942972
51	0xbc5dd18e	-0.013538731
52	0xbd00c66a	-0.031439222
53	0x3d3c3f02	0.045958526
54	0xbb6b1cf1	-0.0035875405
55	0x3cd9aec7	0.026572598
56	0xbbfc2499	-0.0076947925
57	0x3d3e062f	0.046392616
58	0xbb9fb612	-0.0048739994
59	0x3cfa1a69	0.030530171
60	0x3d0af30b	0.03392319
61	0x3cf7dbea	0.03025623
62	0x3c25142e	0.010075612
63	0xbc55930c	-0.013035547
64	0xbcb898a2	-0.022533718
65	0x3d3655ff	0.044515606
66	0x3cf6918f	0.030098705
67	0x3c6ac82e	0.014329953
68	0x3c68fb58	0.014220081
69	0x3c60d820	0.013723403
70	0x3c44e539	0.012017542
71	0x3ca4c64c	0.020114087
72	0xbc88d652	-0.016703758
73	0x3bcf9114	0.0063344333
74	0x3cc1cd55	0.02365748
75	0x3d61fb99	0.055171583
76	0x3d3edfb9	0.046600077
77	0x3d45ddf7	0.048307385
78	0x3c6370c8	0.01388187
79	0x3ce0598b	0.027386447
80	0xbd1b1182	-0.037858494
81	0x3d073fd4	0.033019856
82	0xbc677d8b	-0.014129053
83	0xbd0bbff5	-0.03411861
84	0x3bbaa714	0.005696187
85	0xbb4dedbe	-0.0031422223
86	0x3ce9211b	0.028458169
87	0xbc22660d	-0.009912026
88	0x3c47b11b	0.012188221
89	0x3c9c791f	0.019100724
90	0xbcf1378a	-0.029445428
91	0x3d878056	0.06616275
92	0xbb69039b	-0.0035555128
93	0x3cc851d2	0.024453077
94	0x3c33ee5b	0.010982121
95	0xb9de4b78	-0.00042399368
96	0xbbd14c0a	-0.0063872384
97	0x3c9d5dbf	0.01920974
98	0xbc77a3fc	-0.0151147805
99	0x3c9fc0e2	0.019501153
100	0x3c899409	0.016794221
101	0x3d4736e3	0.04863633
102	0xbc04c4f6	-0.0081036
103	0xbc86708a	-0.016411085
104	0x3cd51e72	0.026015494
105	0x3d5e4294	0.054262713
106	0x3c570b4a	0.01312525
107	0x3cd131ac	0.02553638
108	0xbcac8bdd	-0.021062786
109	0x3c4a9ac2	0.012365999
110	0x3b845cee	0.0040393984
111	0x3c9a6504	0.018846996
112	0xbd0e98e8	-0.03481379
113	0xbbb09dc5	-0.0053899013
114	0x3ce756fd	0.028239721
115	0x3d3be6dc	0.04587446
116	0xbb18bf1c	-0.002330727
117	0xbbd12ec5	-0.006383749
118	0xbc779797	-0.015111825
119	0x3c21284c	0.009836268
120	0xbc2d7b6d	-0.010588509
121	0xbbcb81a9	-0.006210525
122	0xbcc8d832	-0.024517152
123	0x3c3edc7c	0.011649247
124	0xbcd2735f	-0.025689779
125	0xbd011a2a	-0.031519093
126	0xbcc21e74	-0.023696162
127	0x3d7356a3	0.059408795

act_conv1.weight f4 [4, 128, 1, 1]
0	0x3bb1dcde	0.0054279407
1	0xb29f93ca	-1.8577243e-08
2	0x3bf91539	0.007601407
3	0xbd283d77	-0.041074242
4	0x3c347aa9	0.011015573
5	0x3c90f0c8	0.017692938
6	0x3d4c9f3c	0.049956545
7	0x3ca76166	0.020432185
8	0x3d908b9e	0.0705788
9	0xbdd746ac	-0.105115265
10	0xbcc4e5ac	-0.024035297
11	0x3ccad16d	0.024758065
12	0xbdfc1aa1	-0.123097666
13	0x3c31eafa	0.010859245
14	0x3cf4b621	0.029872002
15	0xbd489299	-0.04896793
16	0x3c8bc555	0.017061869
17	0xbd4d32b9	-0.0500972
18	0x3ce80aec	0.02832552
19	0x3c0e62be	0.008690534
20	0xbc557233	-0.0130277155
21	0x3cc52694	0.024066247
22	0xbdbc1423	-0.09183528
23	0x3bd06ad3	0.0063603907
24	0x3c87008d	0.016479755
25	0x3d149b2a	0.03628079
26	0xbb85f677	-0.004088219
27	0xbd186dbb	-0.037214022
28	0x3c16689b	0.009180213
29	0xbd2f83c1	-0.04285026
30	0xbcbd6995	-0.023121634
31	0x3d2a249e	0.041538827
32	0xb3a4e0db	-7.677746e-08
33	0x3c38de41	0.011283458
34	0xbcd865e4	-0.026415773
35	0x3d691087	0.056900527
36	0xbd876ab2	-0.066121474
37	0xbcc76160	-0.024338424
38	0xb9b129bd	-0.00033791168
39	0xb911bd35	-0.00013898763
40	0xbd0c2982	-0.034219272
41	0xbcf4ce0c	-0.029883407
42	0xbd10b112	-0.035325117
43	0xbd32fe1d	-0.043699373
44	0x3b3dadb3	0.0028942644
45	0xbda5f0e4	-0.08102587
46	0xba88ca24	-0.0010436219
47	0xbdab69ef	-0.083698146
48	0x3c95b025	0.018272469
49	0xbd01de0f	-0.031705912
50	0x3d185b40	0.037196398
51	0x3d054ca6	0.0325438
52	0x3b5d07ad	0.00337265
53	0xbd16c121	-0.036805276
54	0xbd464ca4	-0.048412934
55	0x3d7108ac	0.05884616
56	0xb2a2852c	-1.8919842e-08
57	0xbdd478d3	-0.10374608
58	0xbd967994	-0.07347408
59	0xbca009a1	-0.019535841
60	0xbda0a13f	-0.07843255
61	0x3cec6794	0.028857984
62	0x3d25a51d	0.040440667
63	0xb4b498e5	-3.3638858e-07
64	0x3d76a274	0.06021352
65	0xbd4f04f7	-0.050541844
66	0x3d42c8cc	0.047554776
67	0xbbd1e55a	-0.0064055147
68	0xbcca9590	-0.02472952
69	0xbba98f7b	-0.005174575
70	0x3d1c2b82	0.03812743
71	0x3c229026	0.009922063
72	0xbd0f0160	-0.03491342
73	0x3d990216	0.07471101
74	0x3d59a0e1	0.05313194
75	0xbd6605b6	-0.05615779
76	0x39124b7a	0.00013951762
77	0x3ba4f612	0.0050342167
78	0xbd7fbcfa	-0.06243608
79	0xbcb60417	-0.022218747
80	0x3c52e92a	0.012872973
81	0x3d223d04	0.03960897
82	0x3c1827a4	0.009286795
83	0xb48095a6	-2.3950741e-07
84	0xbcbdf8cc	-0.023189925
85	0x34ddf6c2	4.1343998e-07
86	0xbda826df	-0.08210539
87	0x3d96b129	0.07358009
88	0x3d29192a	0.041283764
89	0x3bcb81da	0.006210548
90	0x3c345f05	0.011008983
91	0xbd90757d	-0.07053659
92	0x3cc36a60	0.023854434
93	0x3d68c8de	0.056832187
94	0xbcfe41cc	-0.031037234
95	0x3d19bd59	0.03753409
96	0xbd15c027	-0.036560204
97	0x3d5f0c5c	0.054455146
98	0xbcd3e65d	-0.025866682
99	0x3d89e604	0.06733325
100	0x3c1cc316	0.0095679965
101	0x3cc9df7f	0.024642704
102	0x3c39a4cc	0.011330795
103	0xbd946112	-0.07245077
104	0xbac3f377	-0.0014949878
105	0x3bd49c8d	0.006488389
106	0x3bb13309	0.005407695
107	0xbdaf32ad	-0.085545875
108	0x3ceb59a4	0.028729267
109	0x3d805d0b	0.062677465
110	0xbccece4d	-0.025244856
111	0x3c9a153e	0.018808957
112	0xb4ac05df	-3.2041768e-07
113	0x3b240128	0.0025025103
114	0xbd03bda8	-0.032163292
115	0xbb62a3f7	-0.0034582594
116	0xbd2a7225	-0.041612763
117	0x3d277d4b	0.040890973
118	0x3d21aecf	0.03947335
119	0x3b8ba5ae	0.004261694
120	0x3da108a9	0.0786298
121	0xbc8e1972	-0.017346118
122	0xbc7ae90e	-0.015314354
123	0xbdb1351d	-0.08652709
124	0x36c5837d	5.8863648e-06
125	0x3d3e0ea1	0.04640067
126	0xb31439c8	-3.4511487e-08
127	0xbb448047	-0.0029983686
128	0xbb92ea9d	-0.0044835345
129	0x3d615dfd	0.055021275
130	0xbd50d5cb	-0.05098514
131	0x3d025414	0.031818464
132	0x3d974d51	0.07387794
133	0xbdb5909f	-0.08865475
134	0xbd6e955e	-0.058247916
135	0x3d9a5eb8	0.075375974
136	0x3d997fcc	0.074950784
137	0xbd943dbf	-0.0723834
138	0x3c5efa68	0.013609506
139	0xbe07cbbe	-0.13261315
140	0x3c82a2ab	0.015946707
141	0x3cda5ab6	0.026654582
142	0x3dc8c99d	0.0980408
143	0x3decd3c1	0.11563826
144	0xbe003a08	-0.12522137
145	0xbd322fd5	-0.043502647
146	0x3c0dbf66	0.00865159
147	0x3c654357	0.013993106
148	0x3d131cab	0.03591601
149	0xbd8c1277	-0.068394594
150	0x3cafb6c3	0.021449452
151	0xbcd53292	-0.02602509
152	0x3d61278f	0.054969367
153	0xbac8d804	-0.0015323167
154	0xbc0f8512	-0.008759754
155	0x3df7b65d	0.1209533
156	0x3d7126c2	0.058874853
157	0xbdae5ecc	-0.08514175
158	0xbb617863	-0.0034404031
159	0xbd67456c	-0.05646269
160	0xbd947603	-0.072490714
161	0x3d26acc0	0.04069209
162	0x3c9a460e	0.018832233
163	0xbb1b8189	-0.0023728332
164	0x3dd5e2bf	0.10443639
165	0x3dba3b09	0.09093291
166	0x3c5e34c3	0.013562384
167	0xbc1a766f	-0.009427651
168	0x3cface89	0.030616062
169	0xbac12ee0	-0.0014738701
170	0xbcdfd5e4	-0.02732367
171	0x3d8079f4	0.06273261
172	0xbdb08522	-0.08619143
173	0x3d17f3ff	0.037097927
174	0xbd397209	-0.045274768
175	0x3aa1e4e1	0.0012351536
176	0xbdf74e73	-0.1207551
177	0xbc53771c	-0.012906816
178	0x3d831896	0.06401174
179	0x3c4fbfb8	0.012679987
180	0xbe1e6fcf	-0.15472339
181	0x3dde5d20	0.10857606
182	0x3d0598c6	0.0326164
183	0xbd509f64	-0.050933257
184	0x363212bb	2.653497e-06
185	0x3da0692f	0.07832562
186	0x3c5fa108	0.013649233
187	0x3da72738	0.08161777
188	0x3da8c224	0.082401544
189	0x3c4cb972	0.0124953855
190	0xbcc6eae0	-0.024281919
191	0xb37aa24e	-5.8355276e-08
192	0x3bc9be71	0.0061567356
193	0x3daffedc	0.085935324
194	0x3db986d5	0.0905892
195	0x3da3749c	0.07981226
196	0x3d8af097	0.0678417
197	0xbd44d110	-0.04805094
198	0xbd61a1ae	-0.05508583
199	0x3db00fd8	0.08596772
200	0x3ddced7d	0.10787485
201	0x3d9e34c6	0.077249095
202	0x3d982ef3	0.0743083
203	0xbda83f26	-0.082151696
204	0xbc4e5754	-0.012594063
205	0x3c99e9fc	0.01878833
206	0x3db799d8	0.0896489
207	0x3df32e1d	0.1187403
208	0xbd409131	-0.047013465
209	0xbb83357b	-0.004004178
210	0xbccf5ef2	-0.025313828
211	0xbcc9b87c	-0.024624102
212	0x3d895113	0.06704917
213	0xb5829c84	-9.731307e-07
214	0x3dbaba9e	0.09117626
215	0xbd8536df	-0.065046065
216	0x3da382e6	0.07983951
217	0x3b7c591a	0.0038505257
218	0x3c1e714e	0.009670569
219	0x3d657607	0.056020763
220	0xbd1916f4	-0.037375405
221	0xbda76d85	-0.08175186
222	0x3d341f8f	0.04397541
223	0x3d7328e8	0.059365183
224	0x3dc0961d	0.09403632
225	0x3ca4147b	0.020029297
226	0xbd702cd3	-0.058636498
227	0x3d19f0c8	0.037583143
228	0x3ded52d3	0.11588063
229	0x3d84d8e4	0.06486681
230	0xbdedf2a1	-0.116185434
231	0x3e00c317	0.12574421
232	0x3da79833	0.081833266
233	0xbc99dc6b	-0.018781861
234	0xbcbd1d76	-0.023085337
235	0x3e2169b9	0.15762986
236	0xbdcef2ee	-0.10104929
237	0xbbaee5ee	-0.0053374683
238	0x3dc5faeb	0.096669994
239	0xbd0e6a9d	-0.034769643
240	0xbb78c459	-0.003795883
241	0x3d57d3fe	0.052692406
242	0x3e2e7958	0.17038476
243	0xbe08501e	-0.13311812
244	0x3c88a0cf	0.016678242
245	0xbdbda404	-0.09259799
246	0x39ed3178	0.0004524102
247	0x3d87abf5	0.06624595
248	0xbcd1583f	-0.025554774
249	0x3d050daf	0.032483753
250	0x3dd50fda	0.10403414
251	0x3c9cd0b9	0.019142495
252	0x3c397e64	0.011321638
253	0x3cd144ce	0.025545504
254	0x3bf3c27e	0.0074389568
255	0x3d3deb74	0.046367124

act_conv1.bias f4 [4]
0	0xbc86ec0e	-0.016469982
1	0x3d43feae	0.047850303
2	0x3d9c3d87	0.07628923
3	0xbd90e23c	-0.07074401

act_fc1.weight f4 [36, 144]
0	0xbd107b08	-0.03527358
1	0xbd6eee80	-0.05833292
2	0xbdb10e3f	-0.08645295
3	0xbcb76b80	-0.022390127
4	0xbd091876	-0.033470593
5	0xbd875f10	-0.066099286
6	0xbd08c5c4	-0.03339173
7	0xbd8e536b	-0.069495045
8	0xbdb49fda	-0.08819552
9	0xbdc6e2cb	-0.09711226
10	0xbd1ce205	-0.038301487
11	0xbd94e0b7	-0.072694235
12	0xbdf3424a	-0.11877878
13	0xbdaa942d	-0.083290435
14	0xbdcba3d1	-0.09943355
15	0xbd39a815	-0.04532631
16	0xbd129eda	-0.035796024
17	0xbcdcf78e	-0.026973512
18	0xbd3e97f7	-0.046531644
19	0xbd07d938	-0.03316614
20	0xbd3459c4	-0.04403092
21	0xbcfe5380	-0.031045675
22	0x3c423e3a	0.011855656
23	0xbba27b87	-0.0049585733
24	0xbc43e699	-0.011956834
25	0xbcbfeb85	-0.023427734
26	0xbdae4e67	-0.08511048
27	0xbc0846bc	-0.008317646
28	0x3c3d5fe3	0.011558506
29	0x3c960aeb	0.018315753
30	0xbc5c7942	-0.0134566445
31	0xbcca2fc6	-0.024680983
32	0xbc5f7b48	-0.013640232
33	0xbcb8797d	-0.022518868
34	0xbd03308b	-0.032028716
35	0xbd171adf	-0.03689086
36	0x3da8e4bd	0.08246753
37	0x3db4515e	0.08804582
38	0x3cef2799	0.029193686
39	0x3d8925be	0.06696652
40	0x3d3368a9	0.043800984
41	0x3c0049a6	0.007830059
42	0xbbaa6052	-0.0051994706
43	0xbd4c0dc3	-0.04981781
44	0x3ca81267	0.020516587
45	0x3daa1954	0.08305612
46	0x3d61c47a	0.055119015
47	0xbb5e526c	-0.003392364
48	0x3d8cac16	0.0686876
49	0x3cd87940	0.026425004
50	0x3d56a3bb	0.05240224
51	0xbd1619ca	-0.036645688
52	0xbd5ec623	-0.054388177
53	0x3d83c345	0.06433729
54	0xbc49e1ee	-0.012321932
55	0xbe0bcb06	-0.13651666
56	0x3d422195	0.047395308
57	0x3da8d88b	0.08244427
58	0x3c1c1b8a	0.00952805
59	0x3d4310db	0.047623497
60	0xbd8bdf08	-0.06829649
61	0x3d896b48	0.067099154
62	0x3cc48b97	0.023992343
63	0xbdcd8144	-0.10034421
64	0x3ca9eafd	0.020741934
65	0xbcdd428c	-0.027009271
66	0x3d89d14d	0.06729374
67	0xbe03f615	-0.12886842
68	0x3d6711d5	0.05641349
69	0xbd613c82	-0.054989345
70	0xbe0721a7	-0.13196431
71	0xbd3c588b	-0.04598288
72	0xbcacd716	-0.021098655
73	0xbdab747e	-0.083718285
74	0xbd56c16a	-0.052430548
75	0x3b33440f	0.0027353799
76	0x3ca7cc4d	0.02048316
77	0xbd20acf5	-0.039227445
78	0xbd4ee298	-0.050509065
79	0xbdc585c4	-0.096446544
80	0xbe0222e2	-0.12708619
81	0xbdcf731e	-0.10129379
82	0xbd0246da	-0.03180585
83	0x3cc5c1f1	0.02414033
84	0xbe02a3a3	-0.12757735
85	0xbdd6dd9c	-0.104914874
86	0x3ac05938	0.0014675027
87	0xbd9d88dc	-0.076921195
88	0xbd0e9333	-0.03480835
89	0xbda91148	-0.08255249
90	0x3ccffee7	0.025390102
91	0xbe061df1	-0.13097359
92	0xbdafacf1	-0.08577908
93	0xbd108bb5	-0.035289485
94	0xbd606c6b	-0.054790895
95	0xbd04b48b	-0.03239874
96	0xbd611151	-0.054948155
97	0x3c06f9fc	0.008238312
98	0xbb206eb4	-0.0024480047
99	0xbe27b2a1	-0.16376735
100	0x3be4dd92	0.006984421
101	0x3c0e7510	0.008694902
102	0x3ba6263d	0.0050704763
103	0xbd4864de	-0.04892432
104	0xbd2a5fb3	-0.041595172
105	0xbe04ca5d	-0.1296782
106	0xbd942400	-0.07233429
107	0xbd356cca	-0.044293202
108	0xbd764c74	-0.060131505
109	0xbd5d7f8a	-0.05407671
110	0xbce70793	-0.028201854
111	0xbdb21676	-0.0869569
112	0xbdeec185	-0.11658005
113	0x3c9088e1	0.017643394
114	0x3d059134	0.03260918
115	0xbbcf07a4	-0.0063180495
116	0x3c9d066e	0.019168105
117	0xbd8a9328	-0.06766349
118	0xbd3324d5	-0.043736298
119	0x3d365e74	0.04452367
120	0xbccc1f90	-0.024917394
121	0xbd1a6558	-0.037694305
122	0xbbbd8431	-0.0057835807
123	0x3d53b159	0.051682804
124	0xbcd709ff	-0.026249884
125	0xbd8b7f69	-0.06811411
126	0xbb7b3431	-0.003833067
127	0x3d55bce2	0.052182086
128	0xbb0d3f73	-0.0021552711
129	0xbc7781f6	-0.015106669
130	0x3c8cf4b8	0.017206535
131	0x3d4fb2a4	0.050707474
132	0x3ce53a25	0.027981827
133	0x3ca42166	0.020035457
134	0x3cfce74a	0.030872006
135	0xbcca10c8	-0.024666205
136	0xbda2bd3a	-0.07946248
137	0xb841965b	-4.6154815e-05
138	0x3d8b1a74	0.06792155
139	0x3ca84fa2	0.020545784
140	0xbd2ecac9	-0.04267386
141	0x3d044476	0.032291852
142	0x3a5137cc	0.00079810317
143	0xbb8e890a	-0.0043498324
144	0xbcf50114	-0.02990774
145	0xbc922706	-0.017840873
146	0x3cb5429a	0.022126485
147	0xbd15cc2d	-0.03657167
148	0xbce9e771	-0.028552743
149	0xbcd7a5e0	-0.026324213
150	0xbcc2955a	-0.023752857
151	0xbcd32f54	-0.025779404
152	0xbc5bca78	-0.0134149715
153	0xbc7f5dad	-0.015586299
154	0xbcbc2a62	-0.022969428
155	0xbcec2d6b	-0.02883025
156	0xbc564818	-0.013078712
157	0xbc169e8f	-0.009193077
158	0xbd9573a2	-0.07297446
159	0xbcc19d20	-0.023634493
160	0x3c7e416d	0.015518528
161	0x3acfb9f9	0.0015848271
162	0xbd3e0c61	-0.046398524
163	0xbc971bc1	-0.018445851
164	0x3cada50f	0.02119687
165	0xbba25ab8	-0.004954662
166	0xbd76804a	-0.06018094
167	0xbd71935a	-0.058978416
168	0x3c812944	0.015766747
169	0xbd28f6be	-0.041250937
170	0x3c7214cb	0.014775465
171	0x3c8c5608	0.017130867
172	0xbc010a25	-0.007875954
173	0xbd4fceb5	-0.05073424
174	0xbc2eda5d	-0.010672179
175	0x3ca799cf	0.020459084
176	0x3cb7bf45	0.022430072
177	0xbccf5a02	-0.025311474
178	0x3b2ff2d6	0.0026847622
179	0xbd16c176	-0.036805592
180	0xbe94eb2b	-0.2908567
181	0xbc750e06	-0.014956957
182	0xbddf878f	-0.109145276
183	0x3e15c27b	0.1462497
184	0x3da52108	0.08062941
185	0x3e461fb7	0.19348036
186	0xbd1ba1d3	-0.037996124
187	0x3e101e7e	0.14074132
188	0xbdf17459	-0.1178977
189	0xbd3ad502	-0.045613296
190	0xbd9f1c6c	-0.07769093
191	0x3ce835d5	0.028345982
192	0xbd9e149d	-0.077187754
193	0xbd1164d5	-0.03549655
194	0xbcf29062	-0.029609863
195	0xbdf87048	-0.12130791
196	0xbc9dace3	-0.019247478
197	0xbda59dce	-0.080867395
198	0xbaf53615	-0.0018708134
199	0x3d032008	0.03201297
200	0xbd566cb1	-0.05234975
201	0xbda2a0ed	-0.079408504
202	0xbd873536	-0.06601946
203	0xbd27813d	-0.040894736
204	0xbc7a4d12	-0.015277164
205	0xbe023965	-0.12717207
206	0xbca93888	-0.020656839
207	0x3b1cf566	0.002394998
208	0xbc1b25db	-0.009469475
209	0xbdde7da9	-0.108638115
210	0x3d0532f7	0.032519307
211	0xbbc7ae08	-0.006093744
212	0xbe2b8044	-0.16748148
213	0x3cdf30b3	0.027244901
214	0xbdc194ff	-0.09452247
215	0xbcbf15df	-0.023325859
216	0x3e2dc55c	0.16969818
217	0x3e458f99	0.1929306
218	0x3d76bf6e	0.060241155
219	0x3d92bb44	0.07164624
220	0x3dd1142c	0.102089256
221	0x3e1f76f1	0.15572716
222	0xbd28f5b6	-0.041249953
223	0xbcca80a6	-0.024719547
224	0x3da8f797	0.08250349
225	0x3de2b9b3	0.110705756
226	0x3d570d51	0.052502934
227	0xbc861231	-0.016366096
228	0x3d92ba5d	0.07164452
229	0x3d5590b3	0.05213995
230	0xbc87ab2f	-0.016561119
231	0x3cb108eb	0.021610698
232	0x3bc28983	0.005936803
233	0xbd43a877	-0.047768082
234	0x3d309f83	0.043120872
235	0x3d55cef4	0.05219932
236	0xbce72596	-0.028216165
237	0xbd01348d	-0.031544257
238	0x3cdb6b0e	0.026784446
239	0xbd065999	-0.03280029
240	0x3db2645c	0.08710548
241	0x3d892496	0.06696431
242	0x3c9ba49a	0.018999387
243	0x3d787dcf	0.060666855
244	0x3bc2df88	0.005947057
245	0xbd110579	-0.03540561
246	0x3d756fb9	0.059921
247	0xbc424de7	-0.011859394
248	0xbd8e1e91	-0.06939424
249	0xbc880bb6	-0.016607147
250	0x3d5bcb1c	0.053660497
251	0xbda7f8e0	-0.08201766
252	0x3bd7d501	0.0065866713
253	0xbd480a0d	-0.04883771
254	0xbcd9b14d	-0.026573801
255	0xbd7ec6bf	-0.062201258

act_fc1.bias f4 [36]
0	0xbcbedfc3	-0.023300057
1	0x3d211ad9	0.039332245
2	0xbc655f69	-0.013999798
3	0xbd840608	-0.06446463
4	0x3b0d20ef	0.0021534523
5	0xbd8a6277	-0.06757062
6	0xbdad8cc4	-0.084741145
7	0xbc446e0f	-0.011989131
8	0x3d151363	0.03639544
9	0xbd4f7777	-0.05065104
10	0xbd0a60d4	-0.03378375
11	0x3cdb6b7a	0.026784647
12	0x3d919143	0.071077846
13	0x3d2f2e19	0.04276857
14	0x3c64c9b2	0.013964104
15	0xbc7cfa4a	-0.015440533
16	0x3cc3a671	0.023883076
17	0x3d8cd60f	0.06876766
18	0x3d146904	0.036232963
19	0x3d1a6043	0.03768946
20	0xbd155eeb	-0.036467474
21	0x3d2486fc	0.040167794
22	0x3c53c9ed	0.012926561
23	0x3d9e3104	0.07724193
24	0xbd700673	-0.0585999
25	0xbd444fd9	-0.04792771
26	0x3de3ce2f	0.11123311
27	0xbd595c1c	-0.053066358
28	0x3d376a1d	0.044778932
29	0xbb11669a	-0.00221864
30	0xbde85b08	-0.11345488
31	0x3ca0fbd4	0.019651331
32	0x3bebded5	0.0071981945
33	0x3a0b6e9a	0.000531891
34	0x3bf493bf	0.007463902
35	0x3d454d62	0.0481695

val_conv1.weight f4 [2, 128, 1, 1]
0	0xbdb3d57b	-0.087809525
1	0xbc20c97f	-0.009813665
2	0x3dc71ecf	0.09722673
3	0xbd221a7f	-0.03957605
4	0x3d957423	0.07297542
5	0xbdc29a0d	-0.09502039
6	0x3d868acc	0.06569442
7	0x3ce3f827	0.02782829
8	0x3d7e4192	0.06207425
9	0x3c996578	0.018725142
10	0x3d5871b3	0.052842807
11	0xbc96ccf5	-0.018408278
12	0x3cc7b81f	0.024379788
13	0x3db11631	0.08646811
14	0x3de3dd24	0.111261636
15	0xbd9e3fb6	-0.07726996
16	0x3d9eaa85	0.07747368
17	0xbd66d3c3	-0.056354295
18	0x3d4d9c9b	0.05019818
19	0x3d384903	0.044991504
20	0xbd47d651	-0.048788372
21	0x3cb77265	0.022393415
22	0x3cc4b8f9	0.024013983
23	0x3d8847cf	0.066543214
24	0x3d27fe9b	0.041014295
25	0x3d1de00b	0.038543742
26	0xbd987cc1	-0.0744567
27	0x3c52d07d	0.01286709
28	0xbd2843d3	-0.041080307
29	0x3dac87c9	0.084243365
30	0x3d099f84	0.03359939
31	0x3d1efc1f	0.03881466
32	0xbc9c090d	-0.019047284
33	0x3d4c38e2	0.049858935
34	0xbd018de8	-0.031629473
35	0xbd70959e	-0.058736436
36	0x3d998e38	0.07497829
37	0x3dd10e71	0.102078326
38	0x3db07b68	0.08617288
39	0x3dafa2c5	0.08575968
40	0xbdbe0213	-0.092777394
41	0xbc80c606	-0.015719425
42	0x3c94d1f5	0.018166522
43	0x3cc39b9f	0.023877917
44	0xbdeccbcf	-0.11562311
45	0x3cbb98a9	0.022899942
46	0xbcad2eb2	-0.02114043
47	0x3d26a034	0.040680125
48	0xbdf97e1f	-0.12182259
49	0xbc411100	-0.011783838
50	0xbc8ab333	-0.016931152
51	0x3d380793	0.0449291
52	0x3c504df3	0.012713897
53	0x3dacd410	0.08438885
54	0x3d10cd73	0.03535218
55	0x3dab3a1b	0.08360692
56	0xb433d2d3	-1.6747371e-07
57	0x3d14b32a	0.036303677
58	0x3d8a8059	0.067627616
59	0x3d77a73c	0.06046222
60	0x3bb489c4	0.005509587
61	0x3d84416f	0.06457793
62	0x3db26f87	0.087126784
63	0xbc94e57d	-0.018175835
64	0xbc80c212	-0.01571754
65	0x3c93757d	0.018000359
66	0x3d9713f4	0.07376853
67	0x3d0bc801	0.034126285
68	0xbdc681f7	-0.096927576
69	0x3ab0969d	0.0013472621
70	0x3c79f7b0	0.015256807
71	0x3d9af862	0.075669065
72	0x3d80d2e0	0.06290221
73	0x3ddb96b1	0.107221015
74	0x3d7440c8	0.059632093
75	0xbd28ee0e	-0.04124265
76	0xbd286af9	-0.041117642
77	0xbdf90701	-0.12159539
78	0xbc12911e	-0.008945731
79	0x3def9b89	0.11699588
80	0xbd58b4f7	-0.052906957
81	0xbb22e21d	-0.0024854012
82	0xbe12cbbf	-0.14335535
83	0xbc4c0b34	-0.012453843
84	0xbd7972e2	-0.060900576
85	0x34052949	1.240161e-07
86	0xbda6284f	-0.08113157
87	0x3ddfae83	0.10921957
88	0x3de46e3e	0.111538395
89	0xbdd18e04	-0.102321655
90	0x3d196a30	0.037454784
91	0x3bc07a52	0.0058739567
92	0xbc80638f	-0.015672473
93	0x3d92f604	0.0717583
94	0xbd4dfedd	-0.050291885
95	0x3c73e3d8	0.014885865
96	0x3c54b5e0	0.0129828155
97	0xbdefd404	-0.11710361
98	0x3d4f5c62	0.050625212
99	0x3bd54572	0.0065085227
100	0xbd3e3b85	-0.04644348
101	0xbda74e06	-0.08169179
102	0x3d0e5d8a	0.034757175
103	0xbcc7656c	-0.024340354
104	0xbc97be3c	-0.018523328
105	0xbbe4497a	-0.006966767
106	0x3d8643c6	0.065558955
107	0x3cd31c0f	0.025770215
108	0x3d62d52b	0.055379074
109	0xbd0f16b7	-0.034933772
110	0x3da382cc	0.07983932
111	0x3d8511af	0.064975135
112	0x36d9aee2	6.487463e-06
113	0x3d4b7fdb	0.04968248
114	0x3dc60df6	0.096706316
115	0xbe1f4a12	-0.155556
116	0x3da4c67e	0.08045672
117	0x3c0c080a	0.008546839
118	0x3c1f7b23	0.009733948
119	0xbd0ec2ab	-0.03485362
120	0x3d4ceaec	0.050028726
121	0xbdd0c481	-0.1019373
122	0x3d2525b9	0.04031918
123	0x3d50aa9b	0.050943952
124	0x3c8787a3	0.016544169
125	0x3d394128	0.045228153
126	0xbbbaa2e6	-0.0056956885
127	0x3c2b8e54	0.010470945
128	0x3c98c6e0	0.018649518
129	0x3cf205ae	0.029543724
130	0xbd7a3292	-0.061083384
131	0xbd614b52	-0.05500347
132	0xbd8f55a5	-0.06998757
133	0x3d7b54e5	0.06136026
134	0x3d2520d8	0.040314525
135	0x3d8aaafb	0.06770893
136	0x3d182d60	0.037152648
137	0x3bb870c3	0.0056286766
138	0xbb60b264	-0.0034286017
139	0x3d68765b	0.056753498
140	0xbd2271ea	-0.03965942
141	0xbba200eb	-0.004943957
142	0xbda47d2c	-0.08031687
143	0xbded89a6	-0.1159852
144	0xbd6997a8	-0.057029396
145	0x3d02af07	0.0319052
146	0x3cb48850	0.022037655
147	0xbd3927ec	-0.045204088
148	0x3ce0728c	0.02739837
149	0x3cbb8a1d	0.022893006
150	0x3c55e96a	0.0130561385
151	0x3d5b627a	0.05356071
152	0xbb26c4ba	-0.0025446848
153	0xbc53e1a0	-0.012932211
154	0xbcdb18c6	-0.026745211
155	0xbdc92453	-0.098213814
156	0xbd520562	-0.051274665
157	0xbcb207ed	-0.021732295
158	0x3c9cbbd2	0.019132528
159	0x3d2b387c	0.041801915
160	0x3aaef82e	0.001334911
161	0x3d469656	0.048483215
162	0x3c8ec948	0.017429963
163	0x3aa6217c	0.0012674774
164	0x3c451070	0.012027845
165	0xb992eb37	-0.0002802254
166	0xbda47015	-0.080291905
167	0xbd8bce05	-0.068264045
168	0x3ce4588b	0.027874252
169	0x3d23ba52	0.03997261
170	0x3d6ea446	0.058262132
171	0x3c42f24a	0.0118985865
172	0x3d5d6af2	0.05405707
173	0xbb3f4f9d	-0.002919174
174	0x3d98ec7a	0.07466979
175	0x3c97699b	0.018482974
176	0x3d0458fe	0.032311432
177	0xbb912923	-0.0044299527
178	0xbd96bf6e	-0.07360731
179	0xbd8eaa71	-0.06966103
180	0x3d856faa	0.06515439
181	0xbcb073c3	-0.021539574
182	0x3cf42e2d	0.029807175
183	0xbad43d08	-0.0016192505
184	0xb8cfc55a	-9.907289e-05
185	0xbd6cbf40	-0.057799578
186	0xbab5a597	-0.0013858554
187	0x3d64d59c	0.055867776
188	0x3cf71322	0.03016049
189	0x3be1eadd	0.006894453
190	0xbd5c1faf	-0.053741153
191	0x3b2b0d7e	0.0026100571
192	0x3ca4924b	0.02008929
193	0x3d017faf	0.03161591
194	0xbde8449b	-0.113412105
195	0xbdb786e8	-0.08961278
196	0x3d0a566b	0.03377382
197	0xbd35f2a2	-0.044420846
198	0xbd0cce84	-0.034376636
199	0xbd617786	-0.055045627
200	0xbd5e7040	-0.05430627
201	0xbe0ebbb4	-0.1393879
202	0x39fbcfb6	0.00048029207
203	0x3c06cea8	0.008227982
204	0x3d3ff187	0.046861198
205	0xbc722204	-0.014778618
206	0x3d521bf2	0.051296182
207	0xbda82643	-0.08210423
208	0xbacdf180	-0.0015712231
209	0xbd7eb584	-0.062184826
210	0xbcfb3911	-0.03066686
211	0xbc07ff62	-0.008300634
212	0x3d1c87e8	0.038215548
213	0x36554fef	3.1786e-06
214	0x3b1e4435	0.0024149541
215	0xbda01a06	-0.078174636
216	0xbd78f96c	-0.060784742
217	0x3d85abf8	0.06526941
218	0xbd7c00c8	-0.061524183
219	0xbd4c720d	-0.049913455
220	0x3c65f3e4	0.014035199
221	0xbb728258	-0.003700396
222	0x3db4659c	0.08808443
223	0x3cfd9ed4	0.030959524
224	0xbdb621f6	-0.08893196
225	0xbca7f8c3	-0.020504361
226	0x3d108477	0.03528258
227	0xbdc2b08a	-0.095063284
228	0xbdb55186	-0.0885344
229	0x3d98f0a3	0.07467773
230	0x3d91d860	0.071213484
231	0x3dc15442	0.09439899
232	0xbc24d9be	-0.010061679
233	0xbd89c95b	-0.06727859
234	0x3db53b25	0.088491715
235	0x3cb482d9	0.02203505
236	0x3dab77b9	0.08372445
237	0x3b9cafdc	0.0047817063
238	0xbe0a8c0f	-0.1352999
239	0xbc9fa5fc	-0.019488327
240	0xbc661167	-0.014042235
241	0xbdada822	-0.084793344
242	0xbd8c21b6	-0.06842367
243	0xbd3067b2	-0.04306764
244	0x3da2ed17	0.079553775
245	0xbd2fc067	-0.0429081
246	0xbbc2324f	-0.0059264074
247	0xbd5c2bc5	-0.05375268
248	0xbd699eb6	-0.057036124
249	0xbcce1d27	-0.025160385
250	0x3bf32b6a	0.007420947
251	0x3d259b94	0.040431574
252	0xbcd9d7db	-0.026592186
253	0xbd869f76	-0.065733835
254	0x3994068b	0.00028233635
255	0xbc14b931	-0.009077356

val_conv1.bias f4 [2]
0	0x3d4a5401	0.04939652
1	0x3da6597b	0.08122536
