models/Training/AC_nmcts20/train_035.pth (torch, 424031 bytes, 15 tensors)

conv1.weight f4 [32, 5, 3, 3]
0	0x3d514c2b	0.05109803
1	0xbe0c3f19	-0.13695945
2	0xbc21ff3f	-0.009887516
3	0x3e1777b7	0.14791761
4	0xbe4c0f55	-0.19927724
5	0xbb8d09c6	-0.0043041436
6	0x3dca2118	0.098695934
7	0xbdd5dd38	-0.10442585
8	0x3ca2737f	0.019830463
9	0x3c8cf2be	0.017205592
10	0xbb8420a5	-0.004032212
11	0x3e2e8711	0.17043711
12	0x3d753ece	0.05987435
13	0xbe095134	-0.13409883
14	0x3e0da736	0.13833317
15	0x3b32071a	0.0027164877
16	0xbc8ec539	-0.017428027
17	0x3de8c969	0.11366541
18	0xb3c8b959	-9.34694e-08
19	0xaf1b8390	-1.4143908e-10
20	0xaf53c99c	-1.9261964e-10
21	0x334769fb	4.6429687e-08
22	0x321fd57d	9.30356e-09
23	0x350a1d1b	5.145136e-07
24	0xb6b37a25	-5.348835e-06
25	0x31237d4c	2.3790845e-09
26	0x2f96c4a6	2.7424568e-10
27	0x3df5de2c	0.120052665
28	0x3d45393b	0.048150282
29	0xbd07613d	-0.033051718
30	0xbe0ce5db	-0.13759558
31	0xbdd9f597	-0.10642546
32	0x3c84cf2f	0.016212074
33	0x3d4cefc3	0.050033342
34	0xbdf4031b	-0.11914655
35	0x3dbeb819	0.093124576
36	0x30b91b1a	1.3468224e-09
37	0xb412bbdc	-1.3665652e-07
38	0x32c37dfb	2.2758277e-08
39	0x326498c6	1.3306083e-08
40	0xb8b0a450	-8.4229396e-05
41	0x32a2b36b	1.8940872e-08
42	0xb061a30f	-8.2086243e-10
43	0xb21a3703	-8.976488e-09
44	0xb567fc8e	-8.642172e-07
45	0x3c10bf72	0.008834707
46	0x3e47ee90	0.19524598
47	0x3dfabdc7	0.122432284
48	0xbc544e39	-0.012958103
49	0x3d3734dc	0.044728145
50	0xbc0c7716	-0.008573314
51	0x3dcf66a0	0.10126996
52	0x3dcb0abe	0.09914158
53	0x3e0fa469	0.14027561
54	0x3d51e76b	0.051246088
55	0xbe363554	-0.1779378
56	0xbab3228f	-0.0013666915
57	0x3cf07e28	0.029357031
58	0x3d52827e	0.05139398
59	0x3ce66e44	0.02812875
60	0xbd743c0b	-0.059627574
61	0xbd82c41e	-0.06385063
62	0x3dae1318	0.084997356
63	0xb3b3dd3e	-8.375581e-08
64	0x3277515c	1.4395791e-08
65	0x3118d2a8	2.2238655e-09
66	0xba40143f	-0.00073272357
67	0x31337cbb	2.611883e-09
68	0x30417426	7.037805e-10
69	0xba395fdc	-0.0007071474
70	0xb2baa9dc	-2.1730493e-08
71	0xb49ffa28	-2.979807e-07
72	0xbdd80340	-0.10547495
73	0x3e1fe16b	0.15613334
74	0xbd685264	-0.0567192
75	0xbc8a692e	-0.016895857
76	0xbe005161	-0.12531044
77	0xbdadcd2c	-0.08486399
78	0xbdc67c29	-0.096916504
79	0x3dcb263d	0.09919403
80	0xbc0e3ddb	-0.00868174
81	0xb11579f0	-2.1751667e-09
82	0x3b77f263	0.0037833683
83	0x33c70b46	9.26871e-08
84	0x3263bf0b	1.3256577e-08
85	0x34297dbb	1.5785092e-07
86	0xbad15167	-0.0015969694
87	0xb559b5da	-8.110343e-07
88	0x3a0af448	0.0005300683
89	0x332a609d	3.966908e-08
90	0xbd6c3616	-0.057668768
91	0x3d1d9a1e	0.038477056
92	0x3e17e580	0.14833641
93	0xbc2a77c4	-0.010404531
94	0x3d063a17	0.032770243
95	0x3e350fed	0.17681856
96	0xbdc7b986	-0.09752183
97	0xbe0890fd	-0.13336559
98	0x3cbbc4ae	0.022920933
99	0xbd70d0e2	-0.058792956
100	0xbcd0ae3e	-0.02547371
101	0xbda90f1a	-0.082548335
102	0xbc0206f2	-0.007936226
103	0xbcf43908	-0.02981235
104	0x3d964047	0.07336479
105	0x3e3330d0	0.17499089
106	0xbc840caf	-0.01611933
107	0x3d880cf6	0.06643097
108	0xb76e0c5b	-1.4188782e-05
109	0xb601009c	-1.9222853e-06
110	0xb2a50ad0	-1.9213445e-08
111	0x3138a9a4	2.6871954e-09
112	0x39875f3f	0.0002582017
113	0xbb61c216	-0.003444796
114	0xb3407d03	-4.481718e-08
115	0xb337980d	-4.2746297e-08
116	0xb26c4e75	-1.3754847e-08
117	0x3d951760	0.07279849
118	0xbc6231cd	-0.013805819
119	0xbdd05ac4	-0.10173562
120	0xbdbe8fad	-0.09304748
121	0xbd067cf0	-0.032833993
122	0x3dab57be	0.08366345
123	0x3d9023e0	0.070380926
124	0xbc65e47d	-0.014031527
125	0x3d2d2352	0.042270012
126	0x35de36ff	1.6556295e-06
127	0x3a622d65	0.000862798
128	0xb3b9bafd	-8.648747e-08
129	0xbb5b1047	-0.003342645
130	0x2e241e9a	3.7316462e-11
131	0xbb3cc5f3	-0.002880451
132	0xb9af2c88	-0.0003341178
133	0x3123b3f7	2.382192e-09
134	0xb23da616	-1.10390115e-08
135	0x3da944d2	0.082650796
136	0xbe0ab09b	-0.13543932
137	0xbd3f239d	-0.046664823
138	0x3d210241	0.03930879
139	0x3d3f8a75	0.046762902
140	0xbc3ea77a	-0.011636609
141	0x3e0e2118	0.13879812
142	0x3e529f72	0.20568636
143	0x3e1f1c50	0.15538144
144	0x3d3b4630	0.045721233
145	0x3d2610c8	0.040543348
146	0xbdb382c6	-0.087651774
147	0x3a163396	0.0005729733
148	0xbe361bc4	-0.17784029
149	0xbe162532	-0.14662626
150	0x3d9a8717	0.075452976
151	0x3d065907	0.032799747
152	0xbe047738	-0.12936103
153	0xb7871a50	-1.6105507e-05
154	0xaf8f4978	-2.606375e-10
155	0xb305b945	-3.1134977e-08
156	0xb21d6626	-9.161829e-09
157	0x359cce9e	1.1683039e-06
158	0x35838f1b	9.80191e-07
159	0xb3430a42	-4.5411305e-08
160	0xb3c353cc	-9.095638e-08
161	0xb9caaab1	-0.00038655617
162	0x3d5454f2	0.051838823
163	0x3e03854a	0.12843814
164	0x3db78d1e	0.08962463
165	0xbe294254	-0.16529208
166	0x3debb187	0.1150847
167	0x3c6681b9	0.014069014
168	0x3d4fb6fd	0.05071162
169	0x3d87df47	0.06634384
170	0x3c35c8ec	0.011095267
171	0x3b3f0a21	0.0029150324
172	0xb5f36155	-1.8133238e-06
173	0xb37d2778	-5.894205e-08
174	0x30c08134	1.400656e-09
175	0xb6006d14	-1.9136978e-06
176	0x3332d428	4.163681e-08
177	0x31f5e632	7.1566086e-09
178	0x3b0683e3	0.0020525388
179	0xb1189f9f	-2.2209645e-09
180	0x3e154e2f	0.14580606
181	0xbd0b38d1	-0.03398973
182	0x3ded72d0	0.11594164
183	0x3cf892bd	0.030343408
184	0xbb96b4fd	-0.004599212
185	0x3d18114b	0.037125867
186	0x3cd4326a	0.025902946
187	0x3cf353a9	0.029702978
188	0xbe04b978	-0.12961376
189	0x3df27ab3	0.11839809
190	0xbe100b68	-0.14066851
191	0x3dae4369	0.08508951
192	0x3da6f1d6	0.08151595
193	0x3d683e5f	0.056700107
194	0x3dedb499	0.11606712
195	0x3ddbd86f	0.10734641
196	0x3cf66024	0.03007514
197	0xbdf00793	-0.11720195
198	0xb39341e3	-6.857206e-08
199	0xb27286f0	-1.4116935e-08
200	0x382f8cff	4.1854564e-05
201	0xbb7ba67a	-0.0038398788
202	0xb78cc531	-1.6781125e-05
203	0xb1a669e2	-4.8432733e-09
204	0xb93b5072	-0.00017863678
205	0x3600c94e	1.919066e-06
206	0xafdbbfcc	-3.9972148e-10
207	0x3e0c034f	0.13673137
208	0xbcb7dc3e	-0.022443887
209	0x3e0062db	0.1253771
210	0x3b55fae9	0.0032650775
211	0x3d2af81c	0.04174052
212	0x3e29076b	0.16506736
213	0x3def7a23	0.116932176
214	0x3d0da8fa	0.034584977
215	0xb98968bc	-0.0002620871
216	0xb2a0affe	-1.8706483e-08
217	0x3342bb75	4.5339636e-08
218	0x30c09909	1.4013334e-09
219	0x378a1e06	1.6464863e-05
220	0xb146ec38	-2.8947067e-09
221	0xb1e3d63e	-6.630926e-09
222	0x34923362	2.7232005e-07
223	0xb87887f0	-5.925441e-05
224	0x3b5771b9	0.003287418
225	0x3dc25f96	0.09490888
226	0x3e1722aa	0.14759317
227	0x3e072f26	0.1320158
228	0x3e24c669	0.16091312
229	0xbd81564d	-0.06315289
230	0xbcf32175	-0.02967904
231	0x3e024dfc	0.12725061
232	0x3e35e470	0.17762923
233	0xbdc267e0	-0.09492469
234	0x3dca35f8	0.09873575
235	0x3dc45881	0.09587193
236	0x3cd66e0e	0.026175525
237	0x3d16fb51	0.036860768
238	0xbe0aecc0	-0.13566875
239	0xbd7cf8f3	-0.061760854
240	0x3d78487a	0.060615994
241	0xbda5f8f9	-0.081041284
242	0xbbb41222	-0.0054953257
243	0xba92d6c3	-0.001120292
244	0xb3824768	-6.0665855e-08
245	0x39f12264	0.00045992725
246	0x312f7d01	2.5536908e-09
247	0xba41adaf	-0.00073882466
248	0x35e73845	1.7227218e-06
249	0xb3969b20	-7.0131364e-08
250	0xb84c0f2f	-4.865153e-05
251	0xb5775096	-9.213194e-07
252	0x3cc40c66	0.023931693
253	0x3d8a91e0	0.06766105
254	0x3c954c08	0.018224731
255	0x3d8d0463	0.06885602

conv1.bias f4 [32]
0	0x3deeeb9d	0.116660334
1	0x3c8ce4b2	0.017198894
2	0xbcd37336	-0.025811773
3	0x3dd1a8c0	0.10237265
4	0xbd8f311e	-0.0699179
5	0xbe153ebf	-0.14574717
6	0xbc20acbe	-0.00980681
7	0x3da91e32	0.082577124
8	0x3d837a7c	0.064198464
9	0xbdc5c8f8	-0.09657472
10	0x3e341362	0.17585519
11	0xbd5ccab1	-0.05390424
12	0x3e1cbbe5	0.15306051
13	0x3e0e03e1	0.13868667
14	0xbd9f98dc	-0.077928275
15	0xbd200502	-0.039067276
16	0xbd1ac696	-0.037787043
17	0xbda333cd	-0.079688646
18	0xbd11b686	-0.03557446
19	0x3e1e5b83	0.15464596
20	0xbd5ca174	-0.05386491
21	0x3d701f92	0.058623858
22	0xbb4d0fa8	-0.003128985
23	0xbd8e7c3f	-0.06957292
24	0xbd991a5f	-0.07475733
25	0x3d92f76d	0.07176099
26	0xbdf1fb14	-0.118154675
27	0x3e18666d	0.14882822
28	0x3e010a7d	0.12601657
29	0xbda1280f	-0.07868969
30	0xbdd43477	-0.103615694
31	0x3dc4648f	0.095894925

conv2.weight f4 [64, 32, 3, 3]
0	0xbcbe4da4	-0.023230381
1	0x3d0bbc34	0.03411503
2	0xb95a04d2	-0.00020791896
3	0x3d1fa25b	0.038973194
4	0xbd61dead	-0.055144
5	0xbd555c53	-0.05209
6	0xbd4e6748	-0.050391465
7	0x3c6dbf48	0.014510937
8	0xbc929b00	-0.017896175
9	0xbd425970	-0.047448575
10	0xbd30088a	-0.042976893
11	0xbd131b2b	-0.03591458
12	0x3ce6164b	0.028086802
13	0x3d08858f	0.033330496
14	0x3d1dce51	0.038526837
15	0x3ce651c2	0.028115157
16	0x3cbed758	0.023296043
17	0x3d84a579	0.06476874
18	0xbd70e446	-0.05881145
19	0xbd34f8a3	-0.04418243
20	0xbd0c017c	-0.034181103
21	0x3cae44a6	0.021272969
22	0x3d423372	0.047412343
23	0x3a99df50	0.0011739526
24	0x3bec9e6b	0.0072210333
25	0x3c9962f2	0.018723939
26	0xbd4d53a5	-0.050128598
27	0xbda1664c	-0.0788084
28	0xbc28f9ae	-0.0103134345
29	0x3cf66518	0.030077502
30	0xbb048551	-0.0020221064
31	0xbadcecbd	-0.0016855221
32	0x3a02dfea	0.0004992472
33	0x3d0c568f	0.034262236
34	0x3cabfa2b	0.020993313
35	0x3d5b85ed	0.05359452
36	0xbb956291	-0.004558869
37	0x3d1ee938	0.038796633
38	0xbd4437bb	-0.04790471
39	0x3cbbf210	0.022942573
40	0x3d558ff1	0.052139226
41	0xbcc00aaf	-0.023442594
42	0x3a88a35f	0.0010424665
43	0x38f352a4	0.00011602536
44	0xbcf5babf	-0.029996274
45	0xbd6d0841	-0.0578692
46	0xbc76d09b	-0.015064384
47	0x3b0a596e	0.0021110433
48	0xbd5f7705	-0.054556865
49	0xbd0a4a90	-0.033762515
50	0x3b7d50e2	0.0038652946
51	0xbce02770	-0.027362555
52	0x3d8123e2	0.06305672
53	0x3ccd70af	0.025078146
54	0xbc9f1457	-0.019418878
55	0xbd43701d	-0.04771434
56	0xbd8e4646	-0.06946997
57	0xba890ef7	-0.001045673
58	0x3cc75cf3	0.024336314
59	0xbba6cc59	-0.005090278
60	0x3ce58824	0.028019018
61	0xbcd01969	-0.025402742
62	0xbd083617	-0.03325471
63	0x3cb515f8	0.022105202
64	0xbced453d	-0.02896368
65	0x3cf54acc	0.029942892
66	0xbd0e0ef5	-0.034682233
67	0x3dbc17d1	0.0918423
68	0x3d27553d	0.040852774
69	0x3d47081f	0.04859173
70	0xbc1aecd2	-0.009455876
71	0xbb83c181	-0.00402087
72	0xbdaca91a	-0.08430691
73	0xbc97f8d1	-0.018551262
74	0x3c1d399c	0.009596255
75	0xbd84e0d5	-0.06488196
76	0x3d7ab73d	0.061209906
77	0xbd974a02	-0.07387163
78	0xbd0da38d	-0.034579802
79	0x3d1077c4	0.035270467
80	0x3d1cb56b	0.03825895
81	0xbb87c02e	-0.0041427827
82	0xbd84c7b6	-0.06483404
83	0xbce0efb6	-0.027458053
84	0x3cf8f58b	0.030390522
85	0xbd93cd20	-0.07216859
86	0xbd0fa914	-0.035073355
87	0x3d2f6a49	0.04282597
88	0x3d3a3a43	0.04546572
89	0xbc2a993b	-0.01041251
90	0xbd642b89	-0.05570558
91	0x3ccbb38f	0.024865894
92	0xbd80b830	-0.06285131
93	0xbd722d80	-0.059125423
94	0xbd77731a	-0.060412504
95	0xbdb38980	-0.087664604
96	0xbd28569c	-0.041098222
97	0xbcba492b	-0.022739967
98	0xbce40ef9	-0.02783917
99	0x3c16ea09	0.009211072
100	0x3d56dbf9	0.052455876
101	0xbc82c2e1	-0.015962066
102	0xbd868f31	-0.0657028
103	0x3c8d4288	0.017243639
104	0x3d3f8574	0.04675813
105	0xbc9824a3	-0.018572157
106	0x3cf4a34b	0.02986302
107	0xbd5fe956	-0.054665886
108	0xbdc2a657	-0.09504383
109	0xbd08d551	-0.03340656
110	0xbda9659f	-0.08271336
111	0x3c039f90	0.008033648
112	0x3d7805a4	0.060552254
113	0xbdb815c4	-0.089885265
114	0xbd306b92	-0.043071337
115	0xbd46098a	-0.04834894
116	0x38d43999	0.00010119676
117	0xbd97597d	-0.073901154
118	0xbd68a990	-0.056802332
119	0x3d19463b	0.037420493
120	0xbd9197a4	-0.07109001
121	0x3d00fa33	0.03148861
122	0xbca294de	-0.019846376
123	0xbd382238	-0.04495451
124	0x3bde2e9b	0.006780458
125	0xbc57fe85	-0.013183241
126	0xbc9f2a33	-0.019429302
127	0x3c31f84f	0.010862424
128	0xbd5d48e4	-0.054024592
129	0xbd8b13a9	-0.06790859
130	0xbcf046e3	-0.029330676
131	0x3bbe51da	0.0058080973
132	0xbda3c772	-0.079970255
133	0xbc534698	-0.012895249
134	0x3c884b8a	0.016637582
135	0xbd4c5534	-0.049885944
136	0xbd0b376b	-0.033988398
137	0xbd13681e	-0.035987966
138	0xbd46e272	-0.0485558
139	0xbc4a418b	-0.012344728
140	0xbd0851c3	-0.0332811
141	0xbc999c55	-0.018751303
142	0xbd455e5c	-0.04818569
143	0xbd66acd4	-0.056317165
144	0x3d6a158a	0.057149448
145	0xbd2328e7	-0.03983393
146	0xbd7a3218	-0.06108293
147	0xbd3255ac	-0.043538734
148	0xbd79f46a	-0.061024107
149	0xbcfb3ba0	-0.03066808
150	0xbc2428ec	-0.010019522
151	0x3c7f933c	0.015599068
152	0xbcb3992a	-0.02192362
153	0xbd46a1cf	-0.048494156
154	0x3cea8306	0.02862693
155	0x3b9ab0df	0.0047207917
156	0xbd84e7e6	-0.064895436
157	0xbb7636ad	-0.003756921
158	0x3d8b6611	0.06806577
159	0x3b342498	0.0027487632
160	0x3d42090c	0.04737191
161	0xbd620ba3	-0.05518688
162	0xbd1aa520	-0.03775513
163	0x3c26d1ea	0.010181883
164	0x3d5af9de	0.05346095
165	0xbc5ee35e	-0.013604013
166	0xbd79e1e5	-0.061006445
167	0x3c6cfd44	0.01446468
168	0x3d5fd259	0.054643963
169	0xbcf4779c	-0.02984219
170	0x3c8c4e6f	0.017127244
171	0x3cb618ba	0.022228587
172	0xbd96b366	-0.07358436
173	0xbd45b48e	-0.048267893
174	0xbc08867e	-0.008332847
175	0x3d3944e6	0.045231722
176	0xbcfafa79	-0.030637013
177	0xbb0497b7	-0.002023203
178	0xbd3acbf1	-0.04560465
179	0xbdca3741	-0.0987382
180	0xbd844ca3	-0.0645993
181	0x3d08cf29	0.03340069
182	0xb99c51ec	-0.00029815675
183	0xbcbd32b1	-0.02309546
184	0x3d6cd1b1	0.057817165
185	0x3c4fd717	0.012685559
186	0x39d26a85	0.00040133685
187	0x3bb161f6	0.005413289
188	0xbc87049d	-0.016481692
189	0xbaf735bb	-0.0018860617
190	0x3c47b684	0.012189511
191	0xbd367d29	-0.044552956
192	0xbc2d451b	-0.010575558
193	0x3d8ebf7e	0.06970118
194	0xbc5953fc	-0.013264652
195	0xbc326700	-0.010888815
196	0xbd8e87ce	-0.069594964
197	0xbd975c10	-0.073906064
198	0x3d37aa47	0.044840124
199	0xbc2cc1af	-0.010544225
200	0xbbed9cf4	-0.0072513763
201	0xbd6141b9	-0.05499432
202	0xbcef67e5	-0.029224345
203	0xbc552527	-0.013009346
204	0xbd8c6158	-0.06854504
205	0x3c2695ba	0.0101675335
206	0xbd6523cb	-0.055942338
207	0x3d3bdf4c	0.04586725
208	0xbd0676fa	-0.03282831
209	0xbd7e92a4	-0.062151566
210	0x3c9bb803	0.019008642
211	0x3c2f5c73	0.010703194
212	0xbd576759	-0.052588794
213	0x3c4a6699	0.012353563
214	0x3d82617a	0.063662484
215	0x3db75ca5	0.089532174
216	0x3c303c62	0.010756584
217	0x3b99410f	0.004676945
218	0x3cc34e82	0.023841146
219	0xbd187cfa	-0.037228562
220	0x3cae6e1f	0.021292744
221	0xbd608831	-0.054817382
222	0x3c77a059	0.015113913
223	0xbcb1e49c	-0.021715455
224	0xbce198f7	-0.02753876
225	0x3c68e4c9	0.014214703
226	0x3d4bcf6a	0.049758352
227	0xbab66bed	-0.0013917662
228	0xbbdd8a7d	-0.006760894
229	0xbd02bd59	-0.031918857
230	0xbd5116df	-0.051047202
231	0x3ce3a9bb	0.027790895
232	0xbaaca2ef	-0.0013171117
233	0x3cc369f5	0.023854235
234	0x3c08087d	0.008302805
235	0x3d31c27b	0.04339836
236	0xbc1aae24	-0.009440932
237	0x3d2533f4	0.04033275
238	0xbc86bb3a	-0.016446698
239	0x3d6fe875	0.058571298
240	0x3d3b142d	0.045673538
241	0xbc74e868	-0.014947988
242	0xbb6f7102	-0.0036535864
243	0x38034e20	3.1305593e-05
244	0xbd76c22f	-0.06024378
245	0xbcc13b9e	-0.023587998
246	0x3c7d31cf	0.01545377
247	0xbd3b5b9c	-0.045741662
248	0xbc32784c	-0.010892939
249	0xbd5e8bf4	-0.05433269
250	0xbd0d7cf0	-0.034542978
251	0xbd471bdb	-0.04861055
252	0xbce8b976	-0.028408747
253	0x3d04d890	0.032433093
254	0x3d53f5b9	0.05174801
255	0x3c83da6d	0.016095364

conv2.bias f4 [64]
0	0x3cd4eea3	0.025992697
1	0x3c00966d	0.007848364
2	0xbd8f01e3	-0.06982782
3	0xbd3408fc	-0.04395388
4	0xbc7f24bc	-0.015572723
5	0x3d8859c1	0.06657744
6	0x3d7531c4	0.059861913
7	0x3ce72fb1	0.028220983
8	0xbcb996c1	-0.022654893
9	0x3d91f938	0.07127613
10	0xbd18360f	-0.03716093
11	0xbce45000	-0.027870178
12	0x3d5bf1a9	0.053697262
13	0xbd2afb25	-0.041743416
14	0xbc2aa201	-0.010414601
15	0xbc180904	-0.009279493
16	0x3d378cce	0.044812016
17	0x3daa447f	0.08313846
18	0x3cd658fe	0.026165482
19	0x3d18662b	0.03720681
20	0x3b94be19	0.004539263
21	0xbcdf7460	-0.027277172
22	0x3d93e080	0.07220554
23	0x3d60bd2e	0.054867916
24	0x3ce004b6	0.027345996
25	0x3dc2d4ca	0.095132425
26	0xbbcbc1ae	-0.006218157
27	0x3d51ed6e	0.05125182
28	0xbd67b4f3	-0.05656905
29	0xbcccb468	-0.024988368
30	0x3d8d8128	0.069094
31	0x3d7705a3	0.06030811
32	0x3bef24f7	0.0072981077
33	0x3ca7bb83	0.020475155
34	0x3bd238e1	0.006415472
35	0x3db1abc1	0.086753376
36	0x3cd9b4c8	0.026575461
37	0xbd1f1a03	-0.038843166
38	0xbb8ae161	-0.004238293
39	0x3d948aa2	0.072530046
40	0x3d146f04	0.036238685
41	0xbc9faabe	-0.019490596
42	0xbd6de639	-0.058080886
43	0xbce41903	-0.027843958
44	0xbac76279	-0.0015211842
45	0x3d69923c	0.057024226
46	0xbcd8dc9a	-0.026472379
47	0x3d93c522	0.072153345
48	0x3d5ef423	0.054432046
49	0xbd3a0436	-0.045414172
50	0x3d2ec7be	0.042670958
51	0x3d7bbee5	0.061461348
52	0x3db6ee00	0.08932114
53	0x3a0c31e2	0.0005348009
54	0x3d10195e	0.035180442
55	0x3d932f82	0.07186796
56	0xbc6826ac	-0.014169376
57	0x3d31234f	0.043246564
58	0xbd1fb9f4	-0.038995698
59	0xbc0c732b	-0.00857238
60	0x3c4b7df9	0.012420171
61	0xbc9a8f27	-0.018867088
62	0xbd1098b3	-0.035301875
63	0xbbd1672f	-0.0063904743

conv3.weight f4 [128, 64, 3, 3]
0	0x3cc75da5	0.024336645
1	0x3d342156	0.043977104
2	0xbb9e7f1f	-0.0048369314
3	0xbcb8dbdc	-0.022565775
4	0xbca8d66f	-0.020610062
5	0xbcacff7a	-0.021117914
6	0x3b06b6fc	0.0020555845
7	0xbc18d4fc	-0.009328123
8	0x3be75615	0.0070598223
9	0x3ca3c078	0.019989237
10	0x3cd7769c	0.026301675
11	0x3d7adc1c	0.06124507
12	0xbd1e370b	-0.03862671
13	0x3d0470dd	0.032334197
14	0x3b887ecd	0.0041655065
15	0x3b5f1722	0.0034040888
16	0xba0bb75d	-0.00053297525
17	0xbb15b913	-0.0022845909
18	0x3d76ca22	0.060251363
19	0xbcf7143e	-0.03016102
20	0xbc35afcf	-0.011089279
21	0x3cc68148	0.024231568
22	0xbbf70240	-0.00753811
23	0x3cd116db	0.025523594
24	0xbd4be1af	-0.049775776
25	0xbd0ef212	-0.034898825
26	0x3cdf1a66	0.027234267
27	0x3c53ce80	0.012927651
28	0xbc4c66b6	-0.01247566
29	0x3ddd70fc	0.10812566
30	0xbcaf5ae2	-0.021405641
31	0x3cb01586	0.021494638
32	0x3dd75922	0.105150476
33	0x3c80ac44	0.015707143
34	0x3d675cd8	0.056485027
35	0xbd4da114	-0.050202444
36	0x3b9c4df3	0.0047700345
37	0x3b420a22	0.002960809
38	0xbd19fc82	-0.037594326
39	0xbc86d4f8	-0.016458973
40	0xbd180984	-0.03711845
41	0xbcfe1611	-0.031016381
42	0xbd1cfc49	-0.038326535
43	0xbc5e8c55	-0.013583262
44	0x3cde6902	0.027149681
45	0x3ce0876b	0.027408322
46	0xba50d531	-0.00079663383
47	0xbcc4b4eb	-0.02401205
48	0x3d751833	0.05983753
49	0x3ce0d6fe	0.027446266
50	0xbd288437	-0.041141715
51	0x3d0ea06e	0.034820966
52	0xbd3f8c40	-0.046764612
53	0x3c6b83ff	0.014374732
54	0x3c9b346c	0.018945895
55	0x3a774387	0.00094323646
56	0xbc236198	-0.009971999
57	0xbcfc898c	-0.030827306
58	0xbc96847f	-0.018373726
59	0xbc722c71	-0.0147811035
60	0x3cd86a21	0.026417794
61	0xbccfc715	-0.025363484
62	0xbc650d62	-0.0139802415
63	0x3bbcff3b	0.0057677305
64	0xbbf2f407	-0.007414344
65	0x3d0fe3c2	0.035129316
66	0xbcc18bf9	-0.023626314
67	0x3ce37daf	0.027769892
68	0xbbe25bc6	-0.006907913
69	0x3cbd1bb0	0.023084491
70	0xbb88f1a7	-0.004179198
71	0xb9e07ab6	-0.00042816036
72	0x3bd9ede1	0.006650672
73	0x3c56697b	0.013086672
74	0xbd0f7849	-0.035026822
75	0x3d091a15	0.03347214
76	0x3c82cabd	0.015965814
77	0xbae74591	-0.0017644634
78	0x3d12d1c9	0.035844598
79	0xbd1b84eb	-0.037968557
80	0xbcc80527	-0.02441652
81	0xbcb6f40e	-0.022333171
82	0xbd01ac00	-0.031658173
83	0xbd7387b9	-0.059455607
84	0xbd2ef9ef	-0.042718824
85	0xbd72da35	-0.05929013
86	0x3cd29d56	0.02570979
87	0xbd12000d	-0.03564458
88	0x3d11bb47	0.035578992
89	0xbc7c9e98	-0.015418671
90	0x3ceb26cc	0.028705023
91	0x3c5b04e5	0.013367866
92	0xbc2a3a7b	-0.010389919
93	0xb9a1d972	-0.00030870322
94	0x3c913aec	0.017728291
95	0xbc4c7279	-0.012478464
96	0x3d06c4f6	0.03290268
97	0x3cf299aa	0.029614288
98	0xbd25f6c7	-0.04051855
99	0xbd6144a6	-0.05499711
100	0x3d8a8ce4	0.06765154
101	0x3d2e5f68	0.042571455
102	0x3d272af7	0.04081246
103	0x3d55cb75	0.052195985
104	0x3b666ba5	0.0035159376
105	0x3d17aa45	0.037027616
106	0xbd4f4cb3	-0.050610255
107	0x3d8f137e	0.0698614
108	0xbce84b55	-0.028356234
109	0x3d3d3c38	0.046200007
110	0xbca55cdf	-0.020185886
111	0x3c531b5f	0.012884944
112	0x3ca7309b	0.02040892
113	0xbcfa5790	-0.030559331
114	0x3a228709	0.00061999314
115	0x3a9c8376	0.0011941034
116	0x3dc0cbc5	0.09413866
117	0xbbec1524	-0.0072046686
118	0xbca29379	-0.019845711
119	0xbcec747e	-0.028864142
120	0x3c057ca6	0.008147394
121	0x3ca35311	0.01993707
122	0x3ba0473c	0.0048913043
123	0x3d35eae3	0.04441346
124	0x3c8d7f84	0.017272718
125	0xbcd4dc2c	-0.025983892
126	0xbd5ccae8	-0.053904444
127	0x3cf0874d	0.029361391
128	0xbc0c5509	-0.008565196
129	0xbd8b1688	-0.06791407
130	0xbc870bb5	-0.016485075
131	0x3c162959	0.0091651315
132	0x3ccffdf7	0.025389655
133	0x3c2154a1	0.009846837
134	0x3cd04a9f	0.025426207
135	0xbc13ce6c	-0.009021383
136	0xbc61cb83	-0.013781431
137	0xbd2f31d3	-0.042772125
138	0x3d49b55b	0.04924522
139	0xbd855e29	-0.065121
140	0xbd38c2ab	-0.045107525
141	0x3c138b6a	0.009005407
142	0x3c57c624	0.013169799
143	0xbc2b6535	-0.010461141
144	0x3ba38c4f	0.0049910913
145	0xbccc8cc1	-0.02496946
146	0xbcae0794	-0.021243848
147	0x3c77ba0c	0.015120041
148	0xbc264d5c	-0.01015028
149	0xbcf9d21a	-0.030495692
150	0x3cb58a7f	0.022160767
151	0x3c3a1300	0.011357069
152	0x3d7526c8	0.059851438
153	0xbba5c3b4	-0.00505873
154	0x3d2b14ce	0.041767888
155	0x3c1a2d7e	0.00941026
156	0x3d0467f4	0.0323257
157	0x3d53a085	0.051666755
158	0xbb2e3e60	-0.0026587471
159	0x3c4976d7	0.0122964
160	0x3ba2b3b8	0.004965272
161	0x3cf5704c	0.029960774
162	0x3cc0efc1	0.023551824
163	0xbd402c4d	-0.04691725
164	0x3cf2edb3	0.02965436
165	0xbcd493ae	-0.025949325
166	0xbaa6eab4	-0.0012734742
167	0x3d238d3f	0.039929625
168	0xbd51c5a5	-0.05121388
169	0x3c9a6ff3	0.01885221
170	0x3cb7dd77	0.02244447
171	0xbbdf246b	-0.0068097613
172	0x3d952f8b	0.07284459
173	0x3dbea0d9	0.09308023
174	0x3bc2dfc5	0.0059470856
175	0xbc7e8fce	-0.015537215
176	0xbc55d9e3	-0.0130524365
177	0x3d6869d1	0.05674154
178	0x3cd040e7	0.025421573
179	0xbc25a530	-0.010110185
180	0xbb859cb1	-0.004077517
181	0x3d24b748	0.040213853
182	0x3c60e232	0.013725804
183	0xbcbea0ae	-0.023269977
184	0xbcb4dfa2	-0.022079293
185	0xbb526030	-0.003210079
186	0xbc618f03	-0.013767007
187	0x3c97e373	0.018541073
188	0x3d869bac	0.06572661
189	0xbcb8a2c5	-0.022538552
190	0x3d4db45b	0.05022083
191	0x3d151b89	0.036403213
192	0xbd29e556	-0.041478477
193	0x3d267965	0.040643115
194	0xba399e02	-0.0007080735
195	0xbd4921f4	-0.049104646
196	0xbd32762c	-0.04356973
197	0xbd6f74fb	-0.05846117
198	0x3c14c526	0.009080207
199	0x3cfc77a3	0.030818766
200	0xbdbc5033	-0.09194984
201	0x3aa62162	0.0012674744
202	0xbd221450	-0.039570153
203	0xbd956b2b	-0.07295831
204	0x3cb024e1	0.02150196
205	0xbd1ae785	-0.03781845
206	0x3db26ea4	0.08712509
207	0xbcc69331	-0.024240108
208	0xbc2942cb	-0.010330866
209	0x3d5ad35c	0.053424224
210	0xbd486962	-0.048928626
211	0x3d61eb54	0.055156067
212	0xbc808528	-0.015688494
213	0xbd8344f1	-0.06409634
214	0x3d131cdc	0.035916194
215	0x3d7d1779	0.061789963
216	0x3c777431	0.015103386
217	0x3b947b89	0.004531328
218	0x3c3f64d0	0.01168175
219	0x3d3aad2b	0.045575302
220	0xbcb7d939	-0.022442447
221	0xbbbf40f3	-0.0058366
222	0xbb984e46	-0.004648003
223	0xbcc78f75	-0.024360398
224	0xbcd77b06	-0.02630378
225	0xbd413af0	-0.047175348
226	0x3d5682d9	0.05237088
227	0x3d4b5efc	0.04965113
228	0x3cb0912e	0.021553602
229	0x3cbe1fe9	0.023208575
230	0xbd1c3647	-0.0381377
231	0x3c85fad9	0.016354965
232	0x3aefc9e7	0.0018294425
233	0x3d5af06d	0.053451944
234	0x38686890	5.541049e-05
235	0x3b983c64	0.004645871
236	0xbcf593e1	-0.02997774
237	0xbac43414	-0.0014969134
238	0xbc6d4a16	-0.0144829955
239	0x3c4f4374	0.012650359
240	0xbb8a98d1	-0.004229643
241	0xbd6ce3f5	-0.057834584
242	0x3d47015b	0.048585277
243	0x3c37ce1c	0.011218574
244	0xbb4f5c9f	-0.00316409
245	0xbd048b1f	-0.03235924
246	0xbc95e4c6	-0.018297564
247	0x3c8419c5	0.01612557
248	0xbc7991a5	-0.015232478
249	0xbc4954ea	-0.0122883115
250	0xbc16ad16	-0.00919654
251	0xbc012944	-0.007883374
252	0xbd2dd7d4	-0.042442158
253	0x3af7833b	0.0018883714
254	0x3caa86a7	0.02081616
255	0x3d2b7e16	0.04186829

conv3.bias f4 [128]
0	0xbb084351	-0.0020792077
1	0xbd05d02d	-0.032669235
2	0xbcd455e4	-0.025919862
3	0x3d571d2b	0.05251805
4	0xbcb409c2	-0.02197731
5	0x3c39a0e0	0.0113298595
6	0xbc818e11	-0.015814813
7	0x3d2a4c9a	0.04157696
8	0xbc9258b2	-0.017864559
9	0x3c988a53	0.018620646
10	0xbc8e8e66	-0.017401885
11	0xbc16efed	-0.009212476
12	0x3d326fd6	0.043563686
13	0xbc778760	-0.0151079595
14	0x3ca8f9cd	0.020626927
15	0x3ccf8049	0.025329726
16	0x3d500c4e	0.050792985
17	0x3d3f4500	0.046696663
18	0x3cc2ac01	0.023763658
19	0x3c1b6ce6	0.009486413
20	0x3d043209	0.03227428
21	0x3cdc1a6a	0.026868064
22	0x3d794cff	0.060864445
23	0x3cfbd683	0.030741936
24	0xbc9f0fe6	-0.01941676
25	0x3c808a25	0.015690872
26	0x3d48231a	0.0488616
27	0xbcc0e0f8	-0.023544773
28	0x3c0543dd	0.008133856
29	0xbd29ef03	-0.041487705
30	0xbd47a330	-0.048739612
31	0x3cd44385	0.025911102
32	0xbd0e6690	-0.03476578
33	0x3d33eedf	0.043928977
34	0x3c1b0b0e	0.009463085
35	0xbce93189	-0.028466003
36	0x3d43667e	0.047705166
37	0xbd1eecf1	-0.038800184
38	0x3c662f94	0.014049429
39	0x3bcea0b6	0.0063057793
40	0x3d0fffcb	0.035156053
41	0xbc47e790	-0.012201205
42	0x3cc2f3cb	0.02379789
43	0xbc9feaf8	-0.019521222
44	0x3cc517aa	0.024059135
45	0x3d9adc54	0.075615555
46	0x3c604b20	0.013689786
47	0x3c576174	0.013145793
48	0x3c9b8a3b	0.018986812
49	0x3b30821b	0.0026933018
50	0xbd01c0ed	-0.03167813
51	0xbb0b4650	-0.0021251626
52	0xbd05beaa	-0.032652535
53	0x3d557457	0.052112903
54	0xbbb6c126	-0.0055772243
55	0x3cd991a7	0.02655871
56	0xbbb33ecb	-0.005470132
57	0x3d44a2e9	0.048006926
58	0xbb5cd353	-0.0033695295
59	0x3cf913e8	0.030405
60	0x3d1a55c6	0.037679456
61	0x3cff6ae5	0.031178901
62	0x3c80f13a	0.015740026
63	0xbc3dc73d	-0.011583147
64	0xbcb8a7f5	-0.022541026
65	0x3d4a5f3a	0.04940722
66	0x3d126db9	0.03574917
67	0x3c8dad98	0.01729469
68	0x3c696513	0.014245289
69	0x3c5f6307	0.01363445
70	0x3c06d75f	0.008230059
71	0x3ca88944	0.020573266
72	0xbca0962f	-0.019602863
73	0x3c223db8	0.00990241
74	0x3cda4db0	0.026648372
75	0x3d63780a	0.0555344
76	0x3d44b912	0.04802806
77	0x3d3ad637	0.045614447
78	0x3c94131b	0.018075516
79	0x3cf4c9cc	0.02988138
80	0xbd191836	-0.037376605
81	0x3d0d6afd	0.03452586
82	0xbc2ea178	-0.010658614
83	0xbd079ab7	-0.033106532
84	0x3c370d2b	0.011172573
85	0xbadeb784	-0.0016991948
86	0x3d000bb3	0.031261157
87	0xbc1426ed	-0.009042484
88	0x3c44c77e	0.012010453
89	0x3c8d1904	0.017223842
90	0xbce4ed2a	-0.02794512
91	0x3d926f55	0.07150141
92	0xbbf7e09d	-0.007564618
93	0x3cc7f761	0.024409952
94	0x3c3a1a75	0.011358847
95	0x3bfeca4f	0.007775582
96	0xbb829499	-0.0039849994
97	0x3c93649f	0.017992316
98	0xbc913383	-0.017724758
99	0x3ceb8232	0.028748605
100	0x3cb76009	0.02238466
101	0x3d3f8342	0.046756037
102	0xbbb7f003	-0.0056133284
103	0xbc8e9f0a	-0.01740982
104	0x3cf6a2eb	0.030106982
105	0x3d604a59	0.054758403
106	0x3bfdd3f2	0.007746213
107	0x3d0af9a9	0.0339295
108	0xbcbebc84	-0.02328325
109	0x3c4a111e	0.012333183
110	0x3bf93b0f	0.0076059173
111	0x3cc560ef	0.024094073
112	0xbd027e6b	-0.031858843
113	0xbc090eec	-0.008365374
114	0x3d15346e	0.036426954
115	0x3d321f66	0.043486975
116	0xbb47f396	-0.0030510179
117	0xbbdc0205	-0.006714108
118	0xbc74176f	-0.014898165
119	0x3cb38c48	0.021917477
120	0xbc0ca6fc	-0.008584734
121	0xbb283b3a	-0.0025670067
122	0xbcc018e0	-0.023449361
123	0x3c5dd94f	0.01354058
124	0xbcc64be7	-0.024206115
125	0xbcc840b9	-0.024444925
126	0xbcbb3e9b	-0.022857001
127	0x3d854d8f	0.06508934

act_conv1.weight f4 [4, 128, 1, 1]
0	0x3bb8adee	0.0056359684
1	0x323a64b3	1.0849521e-08
2	0x3ba0e14c	0.00490967
3	0xbd940b83	-0.07228758
4	0x3c3429ee	0.010996325
5	0x3c70cc06	0.0146970805
6	0x3d4c4d09	0.049878154
7	0x3c80d06c	0.015724383
8	0x3d903662	0.07041623
9	0xbdd9f21b	-0.10641881
10	0xbcb016d4	-0.02149526
11	0x3cbd024a	0.02307238
12	0xbdf4219f	-0.11920475
13	0x3c314c70	0.010821447
14	0x3cf31eca	0.029677767
15	0xbd3e7c1b	-0.046505075
16	0x3c887fec	0.01666256
17	0xbd53ea22	-0.05173696
18	0x3ce723f6	0.02821539
19	0x3c0e5174	0.008686412
20	0xbc7c90b7	-0.015415362
21	0x3cc4f19f	0.024040995
22	0xbdbd834a	-0.09253557
23	0x3bcbef9d	0.0062236325
24	0x3c86a4b6	0.016435962
25	0x3d141d5f	0.036160823
26	0xbb538eb4	-0.0032281103
27	0xbd0d8b96	-0.034556948
28	0x3c24f510	0.010068193
29	0xbd2f1330	-0.042742908
30	0xbcbcf830	-0.023067564
31	0x3d296163	0.04135264
32	0xb1f3aee0	-7.092112e-09
33	0xbb2c7945	-0.00263174
34	0xbcd7f73f	-0.026363013
35	0x3d68f22e	0.056871586
36	0xbd8b97f6	-0.068160936
37	0xbcbc7434	-0.023004629
38	0xba0779a4	-0.0005167967
39	0xba3262c4	-0.00068048784
40	0xbd0f38d2	-0.034966297
41	0xbcd5b3ce	-0.026086714
42	0xbd1c4dd9	-0.03816018
43	0xbd43a21a	-0.047762014
44	0x3ac57a6a	0.001506639
45	0xbda5cff2	-0.08096303
46	0xbb8e45f6	-0.004341836
47	0xbdabf5a4	-0.083964616
48	0x3c84fb9f	0.016233264
49	0xbd01bd5b	-0.031674724
50	0x3d216960	0.039407134
51	0x3d051837	0.032493796
52	0x3bbe8338	0.0058139823
53	0xbd174391	-0.03692967
54	0xbd5e6aec	-0.054301187
55	0x3d70bf94	0.058776453
56	0xb0b6cdde	-1.3300754e-09
57	0xbdd29bd1	-0.10283626
58	0xbd956b7c	-0.07295892
59	0xbc9dd534	-0.019266702
60	0xbda1c0db	-0.078981124
61	0x3cebc050	0.028778225
62	0x3d2715fc	0.04079245
63	0xb44116c1	-1.7982804e-07
64	0x3d7677d6	0.06017288
65	0xbd4e2473	-0.05032773
66	0x3d426766	0.04746189
67	0xbaafb2a2	-0.0013404677
68	0xbd11fe64	-0.035642996
69	0xbba88ca0	-0.005143717
70	0x3d250e56	0.040296875
71	0x3c0f762d	0.008756203
72	0xbd0e9886	-0.034813426
73	0x3d96ac41	0.073570736
74	0x3d53b9b4	0.051690772
75	0xbd69be85	-0.05706646
76	0xbb69fcca	-0.0035703653
77	0x3bb3ac9c	0.005483223
78	0xbd810c1d	-0.063011386
79	0xbcbc45f0	-0.022982568
80	0x3c5a1b0b	0.013312112
81	0x3d25fe78	0.040525883
82	0x3c48a9ab	0.012247483
83	0xb2096eb2	-7.999619e-09
84	0xbcd7515d	-0.026283914
85	0xb3092019	-3.192699e-08
86	0xbdb97f96	-0.09057538
87	0x3d969a48	0.073536456
88	0x3d2972fa	0.041369416
89	0x3b612cc4	0.0034358958
90	0x3c33e324	0.0109794475
91	0xbd903150	-0.070406556
92	0x3cc402bc	0.023927085
93	0x3d6851c0	0.056718588
94	0xbd023d87	-0.03179696
95	0x3d2d7a42	0.042352922
96	0xbd101446	-0.035175584
97	0x3d6109a8	0.05494085
98	0xbd340ae0	-0.043955684
99	0x3d8bf5cc	0.068339914
100	0x3c22a5c6	0.009927219
101	0x3cbcc67a	0.02304386
102	0x3b54ea50	0.0032488294
103	0xbda4f129	-0.0805381
104	0xbb3a008c	-0.0028381674
105	0x3bd689c0	0.006547183
106	0xbade9984	-0.0016983007
107	0xbdaf9cb3	-0.0857481
108	0x3cde3bbb	0.027128091
109	0x3d80259e	0.06257175
110	0xbcac7865	-0.021053502
111	0x3c9812cf	0.018563656
112	0x3334213e	4.193975e-08
113	0x3b21ef5d	0.0024709322
114	0xbc8e0004	-0.017333992
115	0x3ba2d11e	0.0049687764
116	0xbd2c3171	-0.04203934
117	0x3d272f56	0.040816627
118	0x3d1a812c	0.037720844
119	0x3ba67f9c	0.00508113
120	0x3d9e2787	0.07722383
121	0xbc84b347	-0.016198767
122	0xbcb81d91	-0.022475036
123	0xbdc44c62	-0.09584881
124	0x35069db7	5.0148395e-07
125	0x3d3da7db	0.046302658
126	0x3229aef2	9.876873e-09
127	0xbb479ebf	-0.003045961
128	0xbaa7acdc	-0.0012792605
129	0x3d5047ce	0.05084973
130	0xbd448969	-0.047982607
131	0x3d0a3823	0.033744942
132	0x3d96c4a1	0.07361723
133	0xbdb6b355	-0.089209236
134	0xbd6d8c46	-0.057995103
135	0x3d9e45af	0.07728135
136	0x3d96d3b9	0.07364602
137	0xbd95a8bc	-0.07307574
138	0x3c18f729	0.009336271
139	0xbe045671	-0.129236
140	0x3c9b508a	0.018959302
141	0x3cd8d438	0.026468381
142	0x3dc4fbbb	0.09618326
143	0x3df0a4c8	0.117501795
144	0xbe11e170	-0.14246154
145	0xbd2b39e3	-0.041803252
146	0x3c0f30e6	0.008739686
147	0x3c6639b1	0.014051841
148	0x3d191757	0.037375774
149	0xbd8accb8	-0.06777328
150	0x3cc2aa7b	0.023762932
151	0xbccfff42	-0.025390271
152	0x3d5f5730	0.054526508
153	0xbbb7835b	-0.0056003756
154	0xbbb30344	-0.005463036
155	0x3dfb5145	0.1227136
156	0x3d85c816	0.06532304
157	0xbdcd5102	-0.10025217
158	0xbb64763e	-0.0034860517
159	0xbd78a84b	-0.06070737
160	0xbd8cec2c	-0.06880984
161	0x3d3bccd9	0.045849655
162	0x3c9f66fc	0.019458286
163	0xba7a7299	-0.00095538195
164	0x3de0232c	0.109442085
165	0x3db0d941	0.08635188
166	0x3c287a53	0.010283071
167	0xbc27aa5c	-0.010233488
168	0x3cfe85ea	0.031069715
169	0xbabf6c0f	-0.0014604348
170	0xbcf8f7d3	-0.03039161
171	0x3d8e34d5	0.06943671
172	0xbdb2d192	-0.087313786
173	0x3d1bd81c	0.038047895
174	0xbd2c55bf	-0.04207396
175	0x3b0dd94d	0.0021644414
176	0xbdfad3c9	-0.12247426
177	0xbc7d3fb5	-0.0154570835
178	0x3d648335	0.05578919
179	0x3c71b75e	0.014753191
180	0xbe1b6c78	-0.15178096
181	0x3de44d25	0.11147527
182	0x3cf0a612	0.029376063
183	0xbd503772	-0.050834127
184	0x35c496c8	1.4647021e-06
185	0x3da6d64f	0.08146345
186	0x3b9dce15	0.0048158267
187	0x3da72e34	0.081631094
188	0x3daee8a1	0.08540464
189	0x3c4dfe9a	0.012572909
190	0xbced4938	-0.028965577
191	0x3136d830	2.6607374e-09
192	0x3bc8d875	0.0061293193
193	0x3db0e464	0.08637312
194	0x3db3cd42	0.08779384
195	0x3d9e510f	0.077303044
196	0x3d8d9c06	0.06914525
197	0xbd377cfc	-0.04479693
198	0xbd58e056	-0.05294832
199	0x3db55f4b	0.08856066
200	0x3dde515d	0.108553626
201	0x3da4bf82	0.0804434
202	0x3d9f0ea6	0.07766466
203	0xbdb1cd78	-0.08681768
204	0xbc29c8b9	-0.010362797
205	0x3c9b5215	0.018960038
206	0x3dbd8aa6	0.09254961
207	0x3df4f413	0.11960616
208	0xbd487448	-0.04893902
209	0x3b0ce262	0.002149724
210	0xbcd46a5a	-0.025929619
211	0xbcb49c5b	-0.022047212
212	0x3d907b17	0.070547275
213	0x349953f5	2.8559558e-07
214	0x3dbf25bd	0.0933337
215	0xbd864112	-0.0655538
216	0x3d9e155e	0.07718919
217	0x3b4766fe	0.0030426378
218	0x3c5229b1	0.012827323
219	0x3d766cd1	0.06016237
220	0xbd21fb9c	-0.039546594
221	0xbda69703	-0.08134272
222	0x3d44caa4	0.048044816
223	0x3d867192	0.065646306
224	0x3dbceef7	0.092252664
225	0x3c9b284d	0.018940115
226	0xbd5e2203	-0.054231655
227	0x3d03651e	0.032078855
228	0x3de85e66	0.1134613
229	0x3d82b899	0.063828655
230	0xbde4d764	-0.11173895
231	0x3e0699c0	0.13144588
232	0x3dac8260	0.084233046
233	0xbc8bb7f2	-0.017055485
234	0xbcad38a9	-0.021145182
235	0x3e252427	0.16127072
236	0xbdc81f42	-0.09771587
237	0xbbac87a9	-0.0052651954
238	0x3dc8713f	0.09787225
239	0xbd385a36	-0.045007907
240	0xbb24ce32	-0.0025147316
241	0x3d55d3d5	0.052203972
242	0x3e34e713	0.17666273
243	0xbe09f1d2	-0.13471153
244	0x3c88477b	0.016635647
245	0xbdbbfbe5	-0.091789044
246	0x398eb3ea	0.00027218397
247	0x3d8ddf26	0.06927328
248	0xbd097e70	-0.033567846
249	0x3d1406b6	0.036139213
250	0x3dd62d3b	0.10457846
251	0x3cb60715	0.022220174
252	0x3bd070be	0.006361096
253	0x3cab8e12	0.020941768
254	0x3b94784e	0.004530943
255	0x3d469556	0.04848226

act_conv1.bias f4 [4]
0	0xbc7a7665	-0.0152870165
1	0x3d51e71f	0.051245805
2	0x3da24111	0.07922567
3	0xbd8f8d52	-0.070093766

act_fc1.weight f4 [36, 144]
0	0xbd0d76fc	-0.0345373
1	0xbd6a0f95	-0.057143766
2	0xbdace212	-0.08441557
3	0xbcbc6fc5	-0.023002515
4	0xbd07716b	-0.03306715
5	0xbd8aaa1f	-0.06770729
6	0xbd0769e0	-0.033059955
7	0xbd8fe942	-0.07026912
8	0xbdb569f5	-0.088581
9	0xbdc8c40d	-0.09803019
10	0xbd1b54a4	-0.037922516
11	0xbde8e734	-0.113722235
12	0xbdf11b2a	-0.11772759
13	0xbdb1c1d0	-0.08679545
14	0xbdc5090a	-0.09620865
15	0xbd7946dc	-0.060858592
16	0xbd124569	-0.035710726
17	0xbd06a23f	-0.032869574
18	0xbd123fd8	-0.035705417
19	0xbd28b1ed	-0.04118531
20	0xbd3501a3	-0.044191014
21	0xbd02a5b3	-0.031896304
22	0x3c2da500	0.010598421
23	0xbc5de462	-0.01354322
24	0xbc411a10	-0.011785999
25	0xbcc5b9d2	-0.024136458
26	0xbdad5c8f	-0.0846492
27	0xbc9cb15f	-0.019127546
28	0x3c3b3c79	0.011427992
29	0x3c806823	0.015674656
30	0xbc753149	-0.014965364
31	0xbcfeb896	-0.031093877
32	0xbc56a116	-0.013099929
33	0xbcb2d748	-0.02183117
34	0xbcff5263	-0.031167215
35	0xbd5615f7	-0.05226704
36	0x3d90051c	0.070322245
37	0x3d95a876	0.07307522
38	0x3c788bbb	0.015170033
39	0x3d72e590	0.05930096
40	0x3d3cd29a	0.046099283
41	0x3c389707	0.0112664765
42	0xbc073052	-0.008251267
43	0xbd1ed63d	-0.038778532
44	0x3ac076ac	0.0014683804
45	0x3d98d134	0.07461777
46	0x3d111dc2	0.03542877
47	0xbae7f0df	-0.0017695687
48	0x3d549e86	0.051908992
49	0x3c9da611	0.019244226
50	0x3c9b970c	0.018992923
51	0xbcfbecde	-0.030752596
52	0xbd7903b5	-0.06079455
53	0x3d70f2ff	0.05882549
54	0xbd0d6c69	-0.034527216
55	0xbdf803a0	-0.121100664
56	0x3cde32d5	0.027123848
57	0x3d87c41f	0.06629204
58	0xbcc8e509	-0.024523275
59	0x3d4d06cf	0.05005532
60	0xbd92364c	-0.071392626
61	0x3d5d6ebf	0.054060694
62	0x3b947d92	0.0045315707
63	0xbdb8450d	-0.089975454
64	0x3c63aae9	0.013895729
65	0xbd177fe6	-0.036987208
66	0x3d6ce65c	0.057836875
67	0xbe073992	-0.13205555
68	0x3d562f19	0.05229101
69	0xbda8f096	-0.08249013
70	0xbe06f125	-0.13177927
71	0xbd2f0b83	-0.042735588
72	0xbc4e3151	-0.012585
73	0xbd978b28	-0.07399589
74	0xbd46d46d	-0.04854243
75	0x3c14181a	0.009038949
76	0x3d1d9761	0.038474444
77	0xbcbef3d3	-0.023309624
78	0xbce343fc	-0.027742378
79	0xbdb5c27e	-0.08874987
80	0xbddb6bd9	-0.1071393
81	0xbdabe30a	-0.08392914
82	0xbc1e530f	-0.009663357
83	0x3d201604	0.039083496
84	0xbde94895	-0.11390797
85	0xbdc0e762	-0.09419133
86	0x3bbc187e	0.0057402244
87	0xbd91f003	-0.07125857
88	0xbcb3daa5	-0.021954844
89	0xbda33d96	-0.07970731
90	0x3cf235c8	0.02956666
91	0xbde817f0	-0.11332691
92	0xbda1d525	-0.07901982
93	0xbd04390e	-0.032280974
94	0xbd551c37	-0.05202886
95	0xbc5dea40	-0.013544619
96	0xbd2bb3dc	-0.041919574
97	0x3ca07391	0.019586356
98	0x3b7fafbf	0.0039014665
99	0xbe11e6e5	-0.14248236
100	0x3c9c4337	0.01907502
101	0x3cf1c5c2	0.029513244
102	0x3ca9de6c	0.020735942
103	0xbcfaf1c9	-0.03063287
104	0xbd0a5866	-0.03377571
105	0xbe07d4e6	-0.13264808
106	0xbd7e8c54	-0.062145546
107	0xbd07dd12	-0.033169813
108	0xbd67bcaf	-0.056576427
109	0xbd58e860	-0.052955985
110	0xbce48e8a	-0.0279
111	0xbdb1168d	-0.08646879
112	0xbdea79f1	-0.1144904
113	0x3c8fa5c1	0.017535092
114	0x3d051c90	0.032497942
115	0xbbce5a69	-0.006297399
116	0x3c9a4f0b	0.018836519
117	0xbd899e9f	-0.06719708
118	0xbd32716a	-0.04356519
119	0x3d3363e4	0.043796435
120	0xbcc880c4	-0.024475463
121	0xbd196816	-0.03745278
122	0xbbbd0cad	-0.0057693333
123	0x3d534609	0.051580463
124	0xbcd32974	-0.025776602
125	0xbd8ace20	-0.067775965
126	0xbb7ac31e	-0.0038263272
127	0x3d554cef	0.052075323
128	0xbb0b005d	-0.0021209933
129	0xbc76f713	-0.0150735555
130	0x3c8cc3ed	0.017183268
131	0x3d4f1698	0.050558656
132	0x3ce11180	0.027474165
133	0x3ca3a9b0	0.019978374
134	0x3cfc7639	0.030818092
135	0xbcc9a429	-0.02461441
136	0xbd9f1295	-0.07767216
137	0xb840e341	-4.5988014e-05
138	0x3d8ae12a	0.06781228
139	0x3ca7f49c	0.020502381
140	0xbd258e1d	-0.040418733
141	0x3d03b926	0.032158993
142	0x3a50a4b4	0.0007959113
143	0xbba751e4	-0.0051061977
144	0xbcf3f97b	-0.029782047
145	0xbc91b27c	-0.017785303
146	0x3cb4a76e	0.022052493
147	0xbd154a37	-0.03644773
148	0xbce94b28	-0.02847822
149	0xbcd76c4f	-0.026296763
150	0xbcc22151	-0.023697527
151	0xbcd322e6	-0.025773477
152	0xbc5bc038	-0.013412528
153	0xbc7ef891	-0.015562193
154	0xbcbbd18a	-0.022927064
155	0xbcf5bb66	-0.029996585
156	0xbc55dd13	-0.0130531965
157	0xbc1707c5	-0.009218161
158	0xbd948eb8	-0.07253784
159	0xbcc840c7	-0.02444495
160	0x3c7dc5aa	0.015489021
161	0x3b1bfd85	0.0023802232
162	0xbd3d9108	-0.04628089
163	0xbc993552	-0.018702183
164	0x3cad19dc	0.021130495
165	0xbb9f76fc	-0.004866479
166	0xbd767100	-0.06016636
167	0xbd7177c1	-0.058952097
168	0x3c80de3b	0.015730968
169	0xbd28e566	-0.041234396
170	0x3c7133eb	0.014721851
171	0x3c896cfd	0.016775602
172	0xbbfe8492	-0.0077672685
173	0xbd4fa0e0	-0.05069053
174	0xbc2f0086	-0.010681277
175	0x3ca0f1b5	0.019646505
176	0x3cb6055f	0.022219358
177	0xbccdc0f9	-0.02511643
178	0x3b2e62b9	0.0026609136
179	0xbd17a895	-0.037026007
180	0xbeaddd20	-0.33957767
181	0xbc2ba74a	-0.010476897
182	0xbe0b220d	-0.13587208
183	0x3e1582bb	0.14600651
184	0x3dadcc84	0.08486274
185	0x3e5b09f4	0.21390516
186	0xbd469200	-0.04847908
187	0x3e0e5447	0.13899337
188	0xbe1a35b8	-0.15059555
189	0xbd6ab424	-0.0573007
190	0xbdac44f4	-0.08411589
191	0x3c948d6a	0.018133838
192	0xbda31aed	-0.0796412
193	0xbd33f94f	-0.04393893
194	0xbcfd1a71	-0.030896397
195	0xbe0446e0	-0.12917662
196	0xbcffceaa	-0.031226475
197	0xbdaf1106	-0.08548169
198	0xbad04aa4	-0.0015891385
199	0x3d0b1ffe	0.033966057
200	0xbd3e1097	-0.04640254
201	0xbd8c5913	-0.06852927
202	0xbd8d58cd	-0.06901703
203	0xbd1b619f	-0.037934896
204	0xbcac281e	-0.021015223
205	0xbe0e0411	-0.13868739
206	0xbd1fdaff	-0.03902721
207	0x3bf5d743	0.007502468
208	0xbc95cecd	-0.018287087
209	0xbde082f4	-0.10962477
210	0x3cc4e1fa	0.024033535
211	0xbb4bc577	-0.003109304
212	0xbe1a5537	-0.1507157
213	0x3c8a97a4	0.016918011
214	0xbdbbcdc9	-0.0917011
215	0xbc9c17e4	-0.01905436
216	0x3e215547	0.15755187
217	0x3e49785f	0.19674824
218	0x3d686b47	0.056742933
219	0x3d8277f8	0.063705385
220	0x3dbffa0d	0.09373865
221	0x3e1f0856	0.15530524
222	0xbd517535	-0.051137168
223	0xbd1a9b70	-0.037745893
224	0x3d84439d	0.06458209
225	0x3ddf6449	0.109078
226	0x3d5703dc	0.052493915
227	0xbc9943e2	-0.018709127
228	0x3d8367a5	0.06416253
229	0x3d425c1d	0.047451127
230	0xbc7184ee	-0.014741166
231	0x3c7ac229	0.01530508
232	0x3c19c1be	0.009384571
233	0xbd1cfbfa	-0.03832624
234	0x3d4f618b	0.050630134
235	0x3d4f139c	0.05055581
236	0xbcdd8f4c	-0.027045868
237	0xbcda0afd	-0.026616568
238	0x3cc96fbc	0.024589412
239	0xbd121d7c	-0.03567265
240	0x3daa619e	0.083194
241	0x3d8601d6	0.06543319
242	0x3c4e9fe5	0.012611364
243	0x3d8486d6	0.064710304
244	0x3ba4f94d	0.005034602
245	0xbd029f40	-0.031890154
246	0x3d6de9e4	0.058084384
247	0xbc288d64	-0.010287616
248	0xbd81deaf	-0.06341302
249	0xbc933db0	-0.01797375
250	0x3d6a7eeb	0.057249945
251	0xbd962a1e	-0.07332252
252	0x3bd465ba	0.0064818533
253	0xbd46486a	-0.048408903
254	0xbcd78fd4	-0.0263137
255	0xbd7c30cf	-0.061569985

act_fc1.bias f4 [36]
0	0xbd06d23b	-0.032915335
1	0x3d0d68c8	0.034523755
2	0xbc99356b	-0.01870223
3	0xbd854b1d	-0.06508467
4	0xbb43356c	-0.002978648
5	0xbd915a17	-0.070972614
6	0xbdcafb64	-0.0991123
7	0xbc4ccb68	-0.012499668
8	0x3d032249	0.03201512
9	0xbd4c84cc	-0.049931332
10	0xbd13406a	-0.035950102
11	0x3ce4f33c	0.027948014
12	0x3d8e2f69	0.069426365
13	0x3d2654c2	0.040608175
14	0x3cdb34ff	0.026758669
15	0xbc7cd8c3	-0.015432539
16	0x3cd9f967	0.026608182
17	0x3d75c983	0.06000663
18	0x3d182667	0.037146
19	0x3d14516e	0.03621047
20	0xbd0123fe	-0.031528465
21	0x3d2edf6e	0.042693548
22	0x3c36603a	0.011131341
23	0x3d9c9f5b	0.07647582
24	0xbd348096	-0.04406794
25	0xbd077e0d	-0.033079196
26	0x3deb47aa	0.11488278
27	0xbd5e1876	-0.054222547
28	0x3d2ad471	0.041706506
29	0xbbeaeb4f	-0.0071691643
30	0xbdf030f6	-0.117280886
31	0x3c7fc367	0.015610552
32	0x3c7f3657	0.0155769205
33	0xb9b07f49	-0.0003366417
34	0x3bbeb2a6	0.0058196364
35	0x3d582998	0.052774042

val_conv1.weight f4 [2, 128, 1, 1]
0	0xbdb336e5	-0.08750705
1	0xbc188658	-0.009309374
2	0x3d8ea713	0.06965461
3	0xbd277494	-0.040882662
4	0x3d893c92	0.06701006
5	0xbdd543e3	-0.10413339
6	0x3d86e176	0.06585972
7	0x3cab6f7d	0.020927185
8	0x3d75e48f	0.060032424
9	0x3c84f67a	0.01623081
10	0x3d1c09f4	0.03809543
11	0xbcb4cdba	-0.022070754
12	0x3ca79bb6	0.020459991
13	0x3db0f2ec	0.08640084
14	0x3dea5ab8	0.114430845
15	0xbdaf9480	-0.08573246
16	0x3da40847	0.08009391
17	0xbd7a487c	-0.061104283
18	0x3d4d7bea	0.050167
19	0x3d38222b	0.04495446
20	0xbd83af14	-0.06429878
21	0x3cb728d3	0.022358334
22	0x3caac894	0.020847596
23	0x3d8899d9	0.06669969
24	0x3d27d324	0.040972844
25	0x3d252c17	0.04032525
26	0xbda69f62	-0.081358686
27	0x3bcd5fae	0.0062675094
28	0xbd764ef2	-0.060133882
29	0x3db1f9aa	0.08690198
30	0x3d09415a	0.03350959
31	0x3d3750df	0.04475486
32	0xbc8bf401	-0.017084124
33	0x3d2ada7f	0.04171228
34	0xbd0d0116	-0.034424864
35	0xbdb48e48	-0.088162005
36	0x3d8c1f79	0.068419404
37	0x3dd99c6c	0.10625538
38	0x3daf3e29	0.08556778
39	0x3db18207	0.08667379
40	0xbdbb8a3c	-0.091572255
41	0xbc801d90	-0.015639096
42	0x3cab5ede	0.02091926
43	0x3cd6da74	0.026227213
44	0xbdea59e8	-0.114429295
45	0x3c916805	0.017749796
46	0xbccb965f	-0.024851976
47	0x3d0dcd31	0.034619514
48	0xbdf0aa04	-0.11751178
49	0xbc7128da	-0.014719212
50	0xbd21f89f	-0.039543744
51	0x3d3a4224	0.045473233
52	0x3be50813	0.006989488
53	0x3da0bd09	0.078485556
54	0x3d1dfe8f	0.038572844
55	0x3dab1b86	0.08354859
56	0x32b63cbc	2.1215207e-08
57	0x3cf8d1b8	0.03037344
58	0x3d940be7	0.07228833
59	0x3d77ab00	0.060465813
60	0x3a80caf4	0.000982611
61	0x3d84b1b7	0.06479209
62	0x3db45c57	0.08806675
63	0xbc4f6b52	-0.0126598645
64	0xbc80414c	-0.015656136
65	0x3c3c8645	0.011506622
66	0x3d8d140c	0.06888589
67	0x3cd64623	0.02615649
68	0xbdbc35c5	-0.09189943
69	0x3aaf4fc7	0.0013375216
70	0x3c70c230	0.014694735
71	0x3d9c0509	0.07618148
72	0x3d86e8f5	0.06587402
73	0x3ddecbe1	0.108787306
74	0x3d5c0bad	0.053722072
75	0xbd3cc60f	-0.04608732
76	0xbd4b4433	-0.049625587
77	0xbe04b098	-0.1295799
78	0xbc7fcf68	-0.015613414
79	0x3df338f2	0.11876096
80	0xbd47d6bd	-0.048788775
81	0xbc67af30	-0.014140889
82	0xbe11ab1b	-0.14225428
83	0xbc25db83	-0.010123136
84	0xbd80ffbe	-0.06298779
85	0xb2715d97	-1.4049326e-08
86	0xbdb22c97	-0.08699911
87	0x3de1215e	0.109926924
88	0x3de1ac02	0.11019136
89	0xbddc2be5	-0.1075056
90	0x3d174b5c	0.036937103
91	0xba9a1a8a	-0.0011757177
92	0xbc8718f3	-0.016491389
93	0x3d92c6d2	0.07166828
94	0xbda925c2	-0.08259155
95	0xbba9a012	-0.0051765526
96	0x3c080760	0.00830254
97	0xbdfd9f04	-0.123838454
98	0x3d35fc0f	0.044429835
99	0x3a7a7dda	0.00095554965
100	0xbd85a490	-0.065255284
101	0xbdaf9689	-0.08573634
102	0x3ce51926	0.027966093
103	0xbd041a63	-0.032251727
104	0xbcda4b6c	-0.026647292
105	0xbc616b61	-0.013758511
106	0x3d87694f	0.06611883
107	0x3c9682fd	0.018373007
108	0x3d95a123	0.07306125
109	0xbd0e4527	-0.034733918
110	0x3d963ab1	0.07335413
111	0x3d8fe6b2	0.070264235
112	0xb35f45bd	-5.198466e-08
113	0x3d3dc682	0.04633189
114	0x3dae1a2c	0.08501086
115	0xbe0c52a0	-0.13703394
116	0x3da4a042	0.08038379
117	0x3c0a2fe5	0.0084342705
118	0x3c1c96f0	0.009557471
119	0xbd5ee705	-0.054419536
120	0x3d536e05	0.051618595
121	0xbdf4bdb3	-0.11950245
122	0x3d2647bf	0.040595766
123	0x3d413f99	0.047179792
124	0x3c2a3d64	0.010390613
125	0x3d3eaee8	0.046553522
126	0xbb394d55	-0.0028274853
127	0x3b25eb54	0.0025317268
128	0x3d0f12b5	0.03492995
129	0x3ce8f26e	0.028435912
130	0xbd76abe0	-0.060222507
131	0xbd9c926b	-0.076451145
132	0xbd814ac0	-0.063130856
133	0x3d8aa7e3	0.06770303
134	0x3d255388	0.040362865
135	0x3d9218de	0.07133649
136	0x3d1c0c47	0.038097646
137	0x3c3a3afe	0.011366604
138	0xbb57c2e4	-0.003292256
139	0x3d8a117d	0.06741617
140	0xbcf22828	-0.029560164
141	0xbba1b75f	-0.0049351896
142	0xbdc41202	-0.09573747
143	0xbdd2c230	-0.102909446
144	0xbd8f567b	-0.06998917
145	0x3d26a04e	0.040680222
146	0x3cb43d06	0.022001754
147	0xbd38dd55	-0.045132954
148	0x3d160b9e	0.036632173
149	0x3cbb3b14	0.02285532
150	0x3cabc13b	0.020966163
151	0x3d5b1ab8	0.053492278
152	0xbb2659ff	-0.0025383232
153	0xbcd2fbff	-0.025754927
154	0xbc801a03	-0.015637403
155	0xbdc3d548	-0.095621645
156	0xbd177b78	-0.036982983
157	0xbcdded46	-0.02709068
158	0x3ca034dd	0.019556457
159	0x3d20a0a3	0.039215695
160	0x3aa8da7e	0.0012882499
161	0x3d77ad9c	0.0604683
162	0x3cdcd9b9	0.026959287
163	0x3c53451a	0.012894893
164	0x3cb71ccc	0.022352599
165	0xba508c7c	-0.0007955504
166	0xbdcd41a9	-0.10022289
167	0xbda1c3de	-0.07898687
168	0x3d1b68ef	0.03794187
169	0x3d234698	0.039862245
170	0x3d63a3ee	0.055576257
171	0x3c97a90a	0.018513221
172	0x3d790b89	0.060802016
173	0x3bc3c842	0.0059748003
174	0x3daacec7	0.08340221
175	0x3ce32b4b	0.027730605
176	0x3d0ecf61	0.03486574
177	0x3af60bef	0.0018771867
178	0xbd98dfee	-0.07464586
179	0xbda79156	-0.081820175
180	0x3d81af09	0.063322134
181	0xbc200e44	-0.009769026
182	0x3d0b1d7d	0.03396367
183	0xba9dd4e3	-0.0012041595
184	0xb747bcd5	-1.190529e-05
185	0xbd3aedc4	-0.045636907
186	0xbb31dba9	-0.0027138984
187	0x3d63b7cb	0.0555952
188	0x3d1c514c	0.03816347
189	0x3be1a54b	0.0068861595
190	0xbd680d76	-0.056653462
191	0x3abaf912	0.0014264903
192	0x3ca44801	0.020053865
193	0x3d324b25	0.043528695
194	0xbdf8af5c	-0.12142822
195	0xbdb693c7	-0.08914905
196	0x3d232dbd	0.03983854
197	0xbd3483e7	-0.044071104
198	0xbcccd2f4	-0.025002934
199	0xbd8b8065	-0.06811599
200	0xbd3bc215	-0.045839388
201	0xbe209e03	-0.15685277
202	0x3c3df5f2	0.011594282
203	0x3c7490b4	0.014927078
204	0x3d5b01c7	0.053468492
205	0xbbe37dad	-0.006942472
206	0x3d74bf19	0.059752557
207	0xbdcd5eaa	-0.10027821
208	0x3bebacbd	0.007192223
209	0xbd67ad47	-0.056561735
210	0xbcaf6ef9	-0.02141522
211	0xbbfa8ce9	-0.0076461923
212	0x3d4f3fe5	0.050598044
213	0x35b7156a	1.3640795e-06
214	0x3c5eea75	0.013605704
215	0xbd9f8d16	-0.07790582
216	0xbd75ed8e	-0.060041003
217	0x3d96f27b	0.07370468
218	0xbd79b3ab	-0.06096236
219	0xbd15e8f1	-0.036599103
220	0x3c51ed7c	0.012812968
221	0xbb720bd4	-0.003693332
222	0x3dba59ea	0.09099181
223	0x3d42e07f	0.047577377
224	0xbdb5fa3e	-0.088856205
225	0xbc56203c	-0.013069209
226	0x3d10f91b	0.035393815
227	0xbdca3706	-0.09873776
228	0xbdbf6b2e	-0.09346615
229	0x3d990154	0.074709564
230	0x3d9a9684	0.0754824
231	0x3dcde1fa	0.10052867
232	0xb9414c9e	-0.00018434456
233	0xbd7b0ab3	-0.0612895
234	0x3dbcd30f	0.09219944
235	0x3d0c6aa9	0.034281407
236	0x3daee5f9	0.085399576
237	0x3b9c2b74	0.004765922
238	0xbe022540	-0.12709522
239	0xbd74de63	-0.059782397
240	0xbc1995eb	-0.009374122
241	0xbda86c81	-0.082238205
242	0xbd48756b	-0.048940104
243	0xbd0e6ae0	-0.034769893
244	0x3da2760e	0.079326734
245	0xbd2eeb1e	-0.042704694
246	0xbbbd06c2	-0.005768628
247	0xbd45f704	-0.048331276
248	0xbd89e458	-0.06733006
249	0xbc4cd8b8	-0.012502842
250	0x3ca66de1	0.020316066
251	0x3d2bf788	0.04198411
252	0xbca17ba0	-0.01971227
253	0xbdaad130	-0.083406806
254	0x3944ef2e	0.00018781118
255	0x3b9ec48e	0.0048452085

val_conv1.bias f4 [2]
0	0x3d3edf1e	0.0465995
1	0x3da90498	0.08252829
