models/Eval/AC_nmcts20/train_040.pth (torch, 424031 bytes, 15 tensors)

conv1.weight f4 [32, 5, 3, 3]
0	0x3d7b744d	0.06139021
1	0xbe1e3a01	-0.15451814
2	0xbc254a5f	-0.010088532
3	0x3e2bfb62	0.16795114
4	0xbe50f5a3	-0.20406203
5	0x3c86c977	0.016453488
6	0x3dd405b4	0.1035265
7	0xbdf6679f	-0.12031483
8	0x3d104ffd	0.035232533
9	0x3c81d712	0.015849624
10	0x3b4cbf8c	0.00312421
11	0x3e268ed2	0.16265419
12	0x3d4fcbfb	0.05073164
13	0xbe071276	-0.13190636
14	0x3e0075d5	0.1254495
15	0x3b8b9af4	0.004260415
16	0xbc3cfd7d	-0.011535046
17	0x3df102ba	0.11768098
18	0x33da4497	1.01638925e-07
19	0x2f4a50fb	1.8400563e-10
20	0xb027b520	-6.101164e-10
21	0xb2eed8be	-2.780541e-08
22	0x306b1423	8.552112e-10
23	0x3542c151	7.2551944e-07
24	0x35193a17	5.7081473e-07
25	0xb0edab7f	-1.7292762e-09
26	0xae334260	-4.075884e-11
27	0x3e009ca0	0.12559748
28	0x3d369fdf	0.04458606
29	0xbd1ca7c1	-0.03824592
30	0xbe055e91	-0.13024355
31	0xbddc0a9a	-0.107442096
32	0x3c96d17a	0.018410433
33	0x3d5c5846	0.05379512
34	0xbdfc5ff6	-0.123229906
35	0x3dd1b3bd	0.102393605
36	0x30acc24e	1.2569872e-09
37	0x32f5c316	2.8610469e-08
38	0xb18f57ef	-4.1718446e-09
39	0xb0f6183c	-1.7905744e-09
40	0xb783de6f	-1.5719996e-05
41	0xb15cf8cd	-3.215564e-09
42	0xaf4ef4ed	-1.8822606e-10
43	0xb1def605	-6.4890195e-09
44	0x354f77b0	7.728768e-07
45	0xbb926543	-0.0044676377
46	0x3e3f4528	0.18678725
47	0x3dd4c127	0.103884034
48	0x3be440f9	0.006965753
49	0x3cff5e24	0.03117282
50	0xbcd2001f	-0.025634823
51	0x3dd084b9	0.10181565
52	0x3ddab21c	0.10678503
53	0x3e0f3b5b	0.13987486
54	0x3d237554	0.039906815
55	0xbe4db015	-0.20086701
56	0xbc8612e9	-0.016366439
57	0x3bced3f6	0.006311889
58	0x3d2faf9d	0.042892087
59	0x3cb266c6	0.021777522
60	0xbd7f6a45	-0.062357206
61	0xbd954192	-0.07287897
62	0x3dbd0235	0.092289366
63	0xb3bd679f	-8.819847e-08
64	0xb2da0a7e	-2.5383311e-08
65	0xaf192bc9	-1.3930825e-10
66	0xb98995de	-0.00026242336
67	0x304785a3	7.258569e-10
68	0x30c937c4	1.4640524e-09
69	0xb983ace3	-0.00025115078
70	0x318aff2f	4.0453396e-09
71	0xb21dea54	-9.191883e-09
72	0xbdfad179	-0.12246985
73	0x3e0e7fac	0.1391589
74	0xbd9ed762	-0.07755925
75	0xbcd4248a	-0.02589633
76	0xbe0da26a	-0.13831487
77	0xbdce2725	-0.1006606
78	0xbdc83efb	-0.097776376
79	0x3dccc121	0.09997774
80	0xbb902cf6	-0.004399891
81	0x315147a4	3.0454226e-09
82	0x3afaf93e	0.0019147766
83	0x30ecf387	1.7240475e-09
84	0xb0cd0f3a	-1.4920041e-09
85	0x33a685dd	7.754327e-08
86	0xba324801	-0.00068008906
87	0x33969ed7	7.013812e-08
88	0x3938191e	0.00017556964
89	0xb0949574	-1.0810894e-09
90	0xbd30f1b2	-0.04319925
91	0x3d052678	0.03250739
92	0x3e1bccf1	0.15214898
93	0x3c8c7ac0	0.017148376
94	0x3cebb711	0.028773816
95	0x3e38ed02	0.18059161
96	0xbd7ebbb5	-0.06219073
97	0xbe0f5c62	-0.14000085
98	0x3d1f78ed	0.038933683
99	0xbd08d5a5	-0.033406872
100	0xbcc90467	-0.024538232
101	0xbdadcbbb	-0.08486124
102	0xbcc98cac	-0.02460321
103	0xbc60653a	-0.013696009
104	0x3d88b07f	0.06674289
105	0x3e219b7f	0.15781973
106	0x3c917efe	0.01776075
107	0x3d50caac	0.050974533
108	0xb4e81d89	-4.3234857e-07
109	0xb4b276a3	-3.3241403e-07
110	0x31bf081e	5.5597544e-09
111	0xafa56a5a	-3.0088892e-10
112	0x3894165a	7.061353e-05
113	0xbae073cd	-0.0017124355
114	0x31c800a2	5.820838e-09
115	0x31dd2326	6.4359424e-09
116	0x3128eb27	2.4580886e-09
117	0x3dc5eee6	0.09664707
118	0xbc908acd	-0.01764431
119	0xbdcbc10d	-0.09948931
120	0xbdb4ef88	-0.088347495
121	0xbce24f8b	-0.02762582
122	0x3da769b5	0.08174459
123	0x3d8603ef	0.06543719
124	0x3be6298a	0.007023995
125	0x3d22e93b	0.039773207
126	0x35122939	5.4449225e-07
127	0x39a84639	0.00032095777
128	0xb1b494e3	-5.255616e-09
129	0xbad8898c	-0.0016520484
130	0x2d79e75d	1.4205384e-11
131	0xbab544f3	-0.0013829753
132	0xb8cdec9e	-9.819235e-05
133	0xafc53b6e	-3.5876319e-10
134	0x30f9f54a	1.818685e-09
135	0x3d7ce36c	0.061740324
136	0xbe0b8ea9	-0.1362864
137	0xbd573723	-0.052542817
138	0x3d0b1370	0.033954084
139	0x3d51e9db	0.051248413
140	0xbce153a4	-0.027505703
141	0x3e02c26a	0.12769476
142	0x3e5ccdad	0.21562834
143	0x3e228dff	0.1587448
144	0x3d680a70	0.05665058
145	0x3c86e106	0.016464721
146	0xbda7f314	-0.0820066
147	0x3a2b848f	0.0006542885
148	0xbe418036	-0.18896565
149	0xbe129cfa	-0.14317694
150	0x3da92217	0.08258455
151	0x3d0dda25	0.034631867
152	0xbe19cb4e	-0.15018961
153	0xb53e14b2	-7.081063e-07
154	0x30200ae9	5.8223165e-10
155	0xb3c913d4	-9.3633986e-08
156	0x305d107c	8.042276e-10
157	0x352f9062	6.5402685e-07
158	0xb34c4366	-4.755875e-08
159	0x3197a6e1	4.4136503e-09
160	0x320eaf86	8.305397e-09
161	0xb8f7b4bc	-0.00011811542
162	0x3d35e54b	0.044408124
163	0x3de5bdb8	0.112178266
164	0x3db7c041	0.089722164
165	0xbe2cda3b	-0.16880123
166	0x3de47648	0.11155373
167	0x3bf0a0c8	0.0073433854
168	0x3d3e9db4	0.046537116
169	0x3d974f04	0.07388118
170	0xba49ef37	-0.00077031873
171	0x3ab7e021	0.0014028588
172	0xb4ff9e22	-4.7612508e-07
173	0x354b38cb	7.570604e-07
174	0x2f93c665	2.6880112e-10
175	0xb4cd0095	-3.818465e-07
176	0xb1e294e2	-6.5943917e-09
177	0xb005bd3c	-4.8654036e-10
178	0x3a716352	0.000920822
179	0xb0423db2	-7.0664463e-10
180	0x3e1a35bc	0.1505956
181	0xbd54ad16	-0.05192288
182	0x3e046f52	0.1293309
183	0x3d2627bd	0.04056524
184	0xbc6c6bad	-0.014429969
185	0x3d331644	0.043722406
186	0x3cdb93ac	0.026803814
187	0x3d09f99b	0.033685308
188	0xbe1d199c	-0.153418
189	0x3de0794c	0.109606355
190	0xbe00689c	-0.12539905
191	0x3da6b0d4	0.08139196
192	0x3d7b500d	0.06135564
193	0x3d8068d6	0.06269996
194	0x3de834cd	0.11338196
195	0x3ddbaeec	0.10726723
196	0x3d1e392f	0.038628753
197	0xbdf7eb34	-0.12105408
198	0x324f2fe3	1.2059874e-08
199	0x31233e0e	2.3754896e-09
200	0x36b7ff2c	5.483531e-06
201	0xbaff70ee	-0.0019488612
202	0xb55929b8	-8.089951e-07
203	0xb0846812	-9.633843e-10
204	0xb8375e61	-4.3718497e-05
205	0x34c54d99	3.675057e-07
206	0x2e423af1	4.4162844e-11
207	0x3e097da4	0.13426834
208	0xbcd0dbbe	-0.025495406
209	0x3e053345	0.13007839
210	0xbba54363	-0.0050434335
211	0x3d240d8d	0.040051986
212	0x3e2b1596	0.16707453
213	0x3df04314	0.11731544
214	0x3d2a2564	0.041539565
215	0xbc7a89f2	-0.015291678
216	0x31559d53	3.1085008e-09
217	0xb1ba9f65	-5.4314335e-09
218	0x30aba526	1.2488826e-09
219	0x354c6c62	7.615364e-07
220	0x2fe63826	4.1876652e-10
221	0xafaeb473	-3.1778633e-10
222	0xb1f219d5	-7.0460637e-09
223	0xb71e22de	-9.425652e-06
224	0x3ad44684	0.0016195332
225	0x3da0b933	0.07847824
226	0x3e154ca7	0.14580022
227	0x3e0c41cf	0.13696979
228	0x3e2a4a3a	0.16629878
229	0xbd8d8736	-0.06910555
230	0xbc904564	-0.017611213
231	0x3e01d7db	0.12679999
232	0x3e32e52a	0.17470232
233	0xbdb054fe	-0.08609961
234	0x3db7e459	0.08979101
235	0x3dc7b88a	0.09751995
236	0x3cb2c68a	0.021823186
237	0x3cb001ff	0.021485327
238	0xbe100fb7	-0.14068495
239	0xbda55cb4	-0.08074322
240	0x3d8d835c	0.069098204
241	0xbdc4c347	-0.09607559
242	0xbbe62317	-0.007023226
243	0xb9e7b7d9	-0.0004419673
244	0x32f4e5f6	2.8509913e-08
245	0x391a240a	0.0001470001
246	0xafee4eb8	-4.334788e-10
247	0xb98b0066	-0.00026512443
248	0x350b7e6c	5.1965503e-07
249	0x32f7e33f	2.8857924e-08
250	0xb6e9ec12	-6.9714233e-06
251	0x3370d7bf	5.6075574e-08
252	0x3c3109f9	0.0108056
253	0x3d8a8f3b	0.067656
254	0x3c9d5835	0.0192071
255	0x3d84a3d5	0.06476561

conv1.bias f4 [32]
0	0x3dfaf8ba	0.12254472
1	0x3c3d3558	0.011548363
2	0xbce7278b	-0.028217098
3	0x3dd4ce24	0.10390881
4	0xbd9917c5	-0.07475237
5	0xbe168eeb	-0.14702956
6	0xbc9151e5	-0.017739246
7	0x3dad35e9	0.08457548
8	0x3d864f4e	0.06558095
9	0xbdf004c3	-0.11719658
10	0x3e38ee42	0.18059638
11	0xbd5f2c84	-0.054485813
12	0x3e20f8f2	0.15719965
13	0x3e10908c	0.1411764
14	0xbdbe608d	-0.09295759
15	0xbd3620f4	-0.04446502
16	0xbd326a6d	-0.043558527
17	0xbd9ad602	-0.0756035
18	0xbd374797	-0.044746008
19	0x3e264c36	0.1624001
20	0xbd6ac689	-0.057318244
21	0x3d8591f6	0.065219805
22	0xbb611469	-0.003434444
23	0xbd92db27	-0.07170706
24	0xbd88f216	-0.06686799
25	0x3da498ac	0.08036932
26	0xbdf3f7ae	-0.119124755
27	0x3e20d484	0.15706068
28	0x3dffae02	0.12484361
29	0xbd8e1aed	-0.069387294
30	0xbddc9634	-0.107708365
31	0x3dc8198b	0.09770497

conv2.weight f4 [64, 32, 3, 3]
0	0xbcd88543	-0.026430732
1	0x3d03530a	0.032061614
2	0xbb62873a	-0.0034565465
3	0x3d15aa99	0.036539648
4	0xbd5b8965	-0.053597827
5	0xbd5f69d2	-0.054544277
6	0xbd5469f0	-0.051858842
7	0x3c7fa39d	0.015602973
8	0xbc8e4f17	-0.017371697
9	0xbd487cb9	-0.04894707
10	0xbd30bfa0	-0.043151498
11	0xbd169e8a	-0.03677229
12	0x3cf0073b	0.029300323
13	0x3d000795	0.03125723
14	0x3d19885d	0.03748356
15	0x3cd91a4e	0.0265018
16	0x3cb61e96	0.022231381
17	0x3d838e5a	0.06423636
18	0xbd7397b6	-0.059470855
19	0xbd3e1a2c	-0.04641168
20	0xbd1d7679	-0.038443062
21	0x3c7faebc	0.015605625
22	0x3d42653a	0.04745982
23	0xb9b25074	-0.00034010748
24	0x3b227724	0.0024790252
25	0x3c33eb2d	0.010981363
26	0xbd590a35	-0.05298825
27	0xbda66188	-0.08124071
28	0xbc53a5e8	-0.012917973
29	0x3cf1a4a1	0.029497446
30	0xbb2d68ea	-0.0026460239
31	0xbb17f967	-0.0023189427
32	0xb93efcbd	-0.00018213964
33	0x3d08df99	0.033416364
34	0x3cb0ffbd	0.02160632
35	0x3d520ed5	0.051283676
36	0xbb8a3a9c	-0.0042184126
37	0x3d102271	0.035189096
38	0xbd4d3ef2	-0.050108857
39	0x3cb7d2ae	0.022439327
40	0x3d548995	0.05188902
41	0xbcd80650	-0.026370198
42	0xba820b52	-0.0009921587
43	0xba862143	-0.0010233301
44	0xbcfcb754	-0.030849136
45	0xbd63f0db	-0.05564962
46	0xbc8a1e6c	-0.01686021
47	0xbb2756f0	-0.0025533997
48	0xbd5d81fa	-0.054079033
49	0xbd0ca380	-0.034335613
50	0xba9b22ec	-0.0011835969
51	0xbcf15e5c	-0.02946394
52	0x3d809832	0.06279029
53	0x3cdcac7b	0.026937714
54	0xbc8c1512	-0.01709989
55	0xbd465e5d	-0.048429836
56	0xbd9561a7	-0.07294016
57	0xbb3b5119	-0.0028582274
58	0x3cda6535	0.026659587
59	0xbbdbfee9	-0.0067137373
60	0x3cceb2f5	0.025231818
61	0xbcdfe8c8	-0.027332678
62	0xbd077813	-0.033073496
63	0x3cab2362	0.020890895
64	0xbce128a2	-0.027485196
65	0x3ce432b7	0.027856214
66	0xbd1ebdf1	-0.03875536
67	0x3db95ef6	0.090513155
68	0x3d25478e	0.040351443
69	0x3d427a3b	0.04747985
70	0xbc14c7d5	-0.009080847
71	0xbb9ed2e7	-0.004846919
72	0xbdb71e61	-0.08941341
73	0xbc925938	-0.017864808
74	0x3bf3dc46	0.00744203
75	0xbd850522	-0.0649512
76	0x3d7a6c46	0.061138414
77	0xbd9bc483	-0.07605841
78	0xbd15c406	-0.036563896
79	0x3d1805de	0.03711497
80	0x3d234253	0.039858174
81	0xbb9d0743	-0.0047921254
82	0xbd857ca7	-0.06517916
83	0xbce60fab	-0.028083643
84	0x3cf13004	0.029441841
85	0xbd8fac7b	-0.0701532
86	0xbd25845e	-0.04040944
87	0x3d2878f4	0.041130975
88	0x3d3a2425	0.045444626
89	0xbc3f3a9b	-0.0116716875
90	0xbd77fcaa	-0.060543694
91	0x3cc82a09	0.024434106
92	0xbd7d2dc2	-0.061811216
93	0xbd71222a	-0.058870472
94	0xbd7b3446	-0.06132915
95	0xbdb1ddee	-0.08684908
96	0xbd327048	-0.04356411
97	0xbcc1424a	-0.02359118
98	0xbcde3176	-0.027123194
99	0x3bdb311f	0.0066892053
100	0x3d4a06f7	0.04932305
101	0xbcc60c50	-0.024175793
102	0xbd8cf08b	-0.068818174
103	0x3c851a1d	0.016247803
104	0x3d35ce6d	0.044386316
105	0xbcc3547a	-0.023843993
106	0x3ce4501b	0.027870229
107	0xbd62e621	-0.05539525
108	0xbdc5e1aa	-0.09662183
109	0xbd0f9f65	-0.03506412
110	0xbda369f6	-0.07979195
111	0x3be9caa0	0.0071347505
112	0x3d8228cc	0.06355438
113	0xbdba7bec	-0.091056675
114	0xbd3a1787	-0.045432594
115	0xbd52b793	-0.0514446
116	0xba944f2c	-0.0011315099
117	0xbd9b3e91	-0.07580293
118	0xbd6bc352	-0.05755932
119	0x3d14c1ed	0.036317755
120	0xbd9490d6	-0.07254188
121	0x3d07f640	0.033193827
122	0xbc95f77b	-0.018306484
123	0xbd38b325	-0.04509272
124	0x3bc17490	0.005903788
125	0xbc4b348a	-0.012402663
126	0xbcdc87b0	-0.02692017
127	0x3c11bafd	0.008894679
128	0xbd6bc289	-0.05755857
129	0xbd8f26d2	-0.06989826
130	0xbcf8f44f	-0.030389933
131	0x3bd4bb2f	0.0064920406
132	0xbda28a39	-0.0793652
133	0xbc915fd6	-0.017745893
134	0x3c287662	0.010282131
135	0xbd4b5dd2	-0.04965002
136	0xbd1629d8	-0.036661
137	0xbd1aee58	-0.03782496
138	0xbd481849	-0.048851285
139	0xbc53853b	-0.012910183
140	0xbd19c38e	-0.03754001
141	0xbcb82b60	-0.02248162
142	0xbd4bda45	-0.049768705
143	0xbd6e3c6e	-0.0581631
144	0x3d512c2b	0.051067512
145	0xbd294b68	-0.04133168
146	0xbd865fce	-0.06561242
147	0xbd3bd33e	-0.045855753
148	0xbd789eab	-0.060698193
149	0xbcebd7b8	-0.028789386
150	0xbc402396	-0.011727234
151	0x3c6f3d3a	0.014602
152	0xbcadff91	-0.021240028
153	0xbd4c86b8	-0.049933165
154	0x3ccefd6d	0.025267327
155	0x3ab0c133	0.0013485312
156	0xbd892012	-0.0669557
157	0xbb919e04	-0.0044438858
158	0x3d89e340	0.067327976
159	0x3afcf3e5	0.001929876
160	0x3d3d4f05	0.046217937
161	0xbd70ca55	-0.05878671
162	0xbd17430b	-0.03692917
163	0x3bfd3100	0.0077267885
164	0x3d59e68b	0.05319838
165	0xbc3d7034	-0.011562396
166	0xbd722f48	-0.059127122
167	0x3c2341e6	0.009964442
168	0x3d5c46db	0.05377851
169	0xbcf67649	-0.0300857
170	0x3c85e42e	0.016344156
171	0x3cbfb1db	0.023400238
172	0xbd95e9c2	-0.073199764
173	0xbd5287a8	-0.051398903
174	0xbc68afde	-0.014202086
175	0x3d42f990	0.047601283
176	0xbce2fc2b	-0.027708134
177	0xbb8682b9	-0.004104939
178	0xbd37cc6c	-0.044872686
179	0xbdc5df94	-0.09661785
180	0xbd89cfbd	-0.06729076
181	0x3ce00f8c	0.027351163
182	0x3a8ba31e	0.0010653471
183	0xbcc1e757	-0.023669882
184	0x3d66b2e0	0.056322932
185	0x3c2e67d7	0.010644875
186	0x3ae0dd91	0.0017155876
187	0x3b788e58	0.003792664
188	0xbcba87a3	-0.022769755
189	0xbbceff0c	-0.006317025
190	0x3c739d90	0.014869109
191	0xbd3cdccd	-0.04610901
192	0xbc7276cf	-0.014798834
193	0x3d9164bd	0.070992924
194	0xbc5a04cc	-0.013306808
195	0xbc848e86	-0.016181242
196	0xbd909fd9	-0.070617385
197	0xbd99b694	-0.07505527
198	0x3d2c28eb	0.04203121
199	0xbc3414d4	-0.010991294
200	0xbc49aad2	-0.012308793
201	0xbd600244	-0.05468966
202	0xbcff130e	-0.031137016
203	0xbc57c68a	-0.013169894
204	0xbd920526	-0.07129888
205	0x3c2051f0	0.00978516
206	0xbd626e0e	-0.055280738
207	0x3d263f45	0.040587682
208	0xbd0072c4	-0.03135945
209	0xbd8157e9	-0.06315596
210	0x3cb63d8c	0.022246145
211	0x3bdc02aa	0.006714185
212	0xbd6344b5	-0.055485446
213	0x3c61c935	0.013780882
214	0x3d81d801	0.063400276
215	0x3db0484c	0.086075395
216	0x3c8a6283	0.016892677
217	0xbaf84d17	-0.0018943873
218	0x3c8b7ce5	0.017027328
219	0xbd4232f0	-0.04741186
220	0x3cb23602	0.021754269
221	0xbd42acec	-0.047528192
222	0x3c1c38f9	0.009535068
223	0xbccaed84	-0.02477146
224	0xbcfaf619	-0.030634927
225	0x3c12db3e	0.008963404
226	0x3d4461cb	0.047944825
227	0xba1d7e01	-0.0006007851
228	0xbc005b11	-0.007834212
229	0xbd129ac1	-0.035792116
230	0xbd5d20eb	-0.05398647
231	0x3ce1d0dd	0.027565414
232	0x39c88db2	0.00038252544
233	0x3cc8d899	0.024517344
234	0x3b8f9a5e	0.0043824157
235	0x3d2f418b	0.042787116
236	0xbc691fed	-0.014228803
237	0x3d233af0	0.03985113
238	0xbcaa4dd6	-0.020789068
239	0x3d61be1b	0.05511294
240	0x3d2dccec	0.042431757
241	0xbc94a5fd	-0.018145556
242	0xbc17c25b	-0.009262647
243	0xbb5832b8	-0.0032989215
244	0xbd804a4a	-0.062641695
245	0xbcab289e	-0.020893391
246	0x3c5868d7	0.0132085895
247	0xbd3f196e	-0.04665511
248	0xbbf1dcea	-0.0073810713
249	0xbd5b9df8	-0.053617448
250	0xbd0719e8	-0.03298369
251	0xbd42c60e	-0.04755216
252	0xbd099c19	-0.033596132
253	0x3cfcd49f	0.030863104
254	0x3d4e05f4	0.050298646
255	0x3c88bb77	0.016690953

conv2.bias f4 [64]
0	0x3cd383b5	0.025819639
1	0x3c2ec71e	0.01066759
2	0xbd9205f4	-0.07130042
3	0xbd5b168f	-0.05348831
4	0xbc27d572	-0.01024376
5	0x3d90a0dc	0.070619315
6	0x3d7f6278	0.062349766
7	0x3cbfee0c	0.02342894
8	0xbcbe3c8c	-0.02322223
9	0x3daa0e4f	0.083035104
10	0xbcdf0066	-0.02722187
11	0xbd0d2291	-0.034456793
12	0x3d542a7e	0.051798336
13	0xbd2e9f02	-0.04263211
14	0xbc143125	-0.00904492
15	0x3c0652ee	0.008198483
16	0x3d8d31d4	0.068942696
17	0x3da47e37	0.08031886
18	0x3cf46d2c	0.029837213
19	0x3d213a59	0.039362285
20	0x3c08d207	0.008350856
21	0xbcf4ee52	-0.029898796
22	0x3d9909f8	0.074726045
23	0x3d59833c	0.05310367
24	0x3cdc445a	0.026888061
25	0x3dc10211	0.09424222
26	0xbb4f08ae	-0.0031590867
27	0x3d60bf0b	0.054869693
28	0xbd3938a1	-0.04522002
29	0xbcc84e21	-0.024451317
30	0x3d936cab	0.07198461
31	0x3d7ff393	0.06248815
32	0x3a429bea	0.00074237457
33	0x3c294374	0.0103310235
34	0x3be13a42	0.0068734
35	0x3db26fba	0.087127164
36	0x3cdc20ea	0.026871163
37	0xbd1ba8c1	-0.038002733
38	0xbaea7aac	-0.0017889342
39	0x3d9db3b7	0.077002935
40	0x3d241242	0.040056475
41	0xbd0abacc	-0.03386955
42	0xbd605053	-0.054764103
43	0xbccd3d68	-0.025053695
44	0xbbd827f2	-0.0065965587
45	0x3d612846	0.05497005
46	0xbd0b0bee	-0.033946924
47	0x3da39d0d	0.079889394
48	0x3d58ca4b	0.052927297
49	0xbd36903a	-0.04457114
50	0x3d35643e	0.04428505
51	0x3d5707e0	0.052497745
52	0x3daba1b6	0.08380453
53	0x3a8be46e	0.0010672936
54	0x3d123dc0	0.03570342
55	0x3d8f564b	0.06998881
56	0xbc8718df	-0.016491352
57	0x3d3d67d0	0.04624158
58	0xbd198849	-0.037483487
59	0xbbcf1e25	-0.006320732
60	0x3c3ac7b5	0.011400153
61	0xbc8665ca	-0.016405959
62	0xbd0e1efd	-0.03469752
63	0x3bb599fb	0.0055420375

conv3.weight f4 [128, 64, 3, 3]
0	0x3cc990df	0.024605213
1	0x3d354a7b	0.044260483
2	0xbb3bbf28	-0.0028647874
3	0xbcb83a89	-0.02248885
4	0xbcb679f3	-0.022274947
5	0xbcb25e61	-0.021773519
6	0x3af0c182	0.0018368217
7	0xbc1e4d78	-0.009662025
8	0x3bc54aea	0.0060208933
9	0x3c8a6471	0.016893597
10	0x3c015300	0.007893324
11	0x3d10dbe9	0.035365973
12	0xbd1f874b	-0.038947385
13	0x3cc6b2f4	0.024255253
14	0xbc5c46ac	-0.013444584
15	0xbc05272a	-0.008127013
16	0xbbd04999	-0.00635643
17	0xbba83c8e	-0.005134172
18	0x3d73ba5f	0.05950391
19	0xbce12d7d	-0.02748751
20	0xbc249211	-0.010044591
21	0x3cc1a284	0.023637064
22	0xbbe0ab7f	-0.0068563814
23	0x3ccdcebe	0.025122996
24	0xbd4a36ec	-0.049368784
25	0xbd0bcd54	-0.034131363
26	0x3cdab34f	0.02669683
27	0x3bf45e53	0.0074575334
28	0xbc61d8bc	-0.013784584
29	0x3da8f084	0.08249
30	0xbca40215	-0.020020524
31	0x3c7c4e8b	0.0153995855
32	0x3dd961b9	0.10614342
33	0x3c169cda	0.00919267
34	0x3d4416a4	0.047873154
35	0xbd590f04	-0.052992836
36	0x3c17ad71	0.00925766
37	0xbbf19a17	-0.0073731053
38	0xbd345e21	-0.04403508
39	0xbce06ee8	-0.027396634
40	0xbd4dab25	-0.050212044
41	0xbd2cb3b2	-0.04216356
42	0xbd36f426	-0.04466643
43	0xbcb0796c	-0.021542273
44	0x3c8cf333	0.01720581
45	0x3d1ff610	0.039053023
46	0xbc10968a	-0.008824954
47	0xbcbb144f	-0.022836832
48	0x3d5955d6	0.053060375
49	0x3c3cfccc	0.011534881
50	0xbd5423c1	-0.05179191
51	0x3cd1dcee	0.025618043
52	0xbd5bb674	-0.053640798
53	0xbb23d857	-0.0025000775
54	0x3cae0724	0.02124364
55	0xbcf1d077	-0.02951835
56	0xbbadbd12	-0.00530208
57	0xbd3dc08f	-0.046326216
58	0xbd342c07	-0.0439873
59	0xbcc49886	-0.02399851
60	0x3c001959	0.007818543
61	0xbcdf9fd6	-0.027297895
62	0xbbfe8149	-0.007766877
63	0x3bb37d8c	0.005477613
64	0xbbf3601b	-0.007427228
65	0x3d0d3b5c	0.034480438
66	0xbcbc4834	-0.022983648
67	0x3cd846ff	0.026401041
68	0xbc0d099b	-0.008608247
69	0x3cb2a214	0.0218058
70	0xbbb82805	-0.005620005
71	0xbafd2376	-0.0019312936
72	0x3bcbe695	0.006222556
73	0x3c35a34f	0.011086299
74	0xbd0dfc96	-0.034664713
75	0x3d018272	0.031618543
76	0x3c78dee5	0.015189861
77	0xbaf7d784	-0.0018908833
78	0x3d1152a2	0.035479195
79	0xbd1a74a5	-0.037708897
80	0xbcca6a87	-0.024709
81	0xbc9d4713	-0.01919893
82	0xbd15d90e	-0.036583953
83	0xbd76ccd3	-0.06025393
84	0xbd2a7007	-0.041610744
85	0xbd6c17cc	-0.057639882
86	0x3cd439b0	0.025906414
87	0xbceb0711	-0.028689893
88	0x3d160ef7	0.036635365
89	0xbc0e9ff0	-0.008705124
90	0x3cfd01a8	0.030884579
91	0x3c8f7204	0.017510422
92	0xbc483489	-0.012219557
93	0x3bc2f284	0.0059493203
94	0x3c842779	0.016132103
95	0xbc4d9d0c	-0.01254965
96	0x3d00079a	0.03125725
97	0x3cae40dd	0.021271164
98	0xbd244514	-0.04010494
99	0xbd57a27b	-0.052645188
100	0x3d3c6db4	0.04600306
101	0x3d0b4680	0.03400278
102	0x3d210e24	0.039320126
103	0x3d55fba1	0.052241925
104	0xbc1bea82	-0.00951636
105	0x3cf944e0	0.03042835
106	0xbd64a028	-0.0558168
107	0x3d90af8f	0.07064735
108	0xbcdc015a	-0.026856113
109	0x3d27934b	0.040911954
110	0xbccaeae7	-0.024770213
111	0x3bbf9dfc	0.0058476906
112	0x3bca4209	0.006172423
113	0xbd1ac031	-0.037780944
114	0xbaba14e6	-0.0014196902
115	0xbb8ff508	-0.0043932237
116	0x3dbb8c1e	0.091575846
117	0xbbdfc781	-0.0068292026
118	0xbc993946	-0.018704068
119	0xbcda2079	-0.026626812
120	0x3c00a958	0.007852875
121	0x3c99e9b7	0.018788202
122	0x3b92521c	0.0044653546
123	0x3d290924	0.041268483
124	0x3c81c507	0.01584102
125	0xbcbbea3c	-0.02293884
126	0xbd51adbb	-0.051191073
127	0x3ca206cc	0.019778632
128	0xbc61c110	-0.01377894
129	0xbd8ec324	-0.06970814
130	0xbcde2277	-0.027116043
131	0x3b112484	0.002214701
132	0x3cea55eb	0.028605422
133	0x3c672ae7	0.01410935
134	0x3cea7a0a	0.028622646
135	0xbbd216d8	-0.0064114146
136	0xbc2f29ea	-0.010691145
137	0xbd5f28e7	-0.054482367
138	0x3d31613a	0.043305613
139	0xbd999e0a	-0.07500847
140	0xbd5b5312	-0.05354602
141	0xbaf301f2	-0.0018540008
142	0xbca16768	-0.019702628
143	0xbcfce6e6	-0.03087182
144	0x3be145ef	0.006874792
145	0xbd1848da	-0.03717885
146	0xbd750ae4	-0.05982484
147	0x3c2a18f5	0.010381927
148	0xbc89b514	-0.016809978
149	0xbd56c298	-0.052431673
150	0x3c8f29d7	0.017476005
151	0xbba8273a	-0.0051316293
152	0x3d000263	0.031252276
153	0xbb31652b	-0.0027068357
154	0x3cf590e8	0.029976323
155	0x3ba1490b	0.0049220375
156	0x3cee9165	0.029122064
157	0x3d185c6b	0.03719751
158	0xbc1c7e95	-0.009551664
159	0x3c3433db	0.010998691
160	0x3bd99500	0.0066400766
161	0x3d07b1ee	0.03312867
162	0x3cb4942a	0.022043306
163	0xbd6a9d8a	-0.057279147
164	0x3cfc24de	0.030779298
165	0xbcb9a16e	-0.022659983
166	0xbc5fcee8	-0.01366017
167	0x3d16040a	0.036624946
168	0xbd434498	-0.047672838
169	0x3c47841c	0.012177493
170	0x3cd12ea4	0.025534935
171	0xbbc37581	-0.0059649353
172	0x3d5d77a5	0.05406918
173	0x3da253b9	0.07926125
174	0xbb0d7f3e	-0.0021590735
175	0xbd1b3185	-0.037889022
176	0xbd03e865	-0.03220405
177	0x3d6300df	0.055420753
178	0x3cb3c9a1	0.02194673
179	0xbc159dcc	-0.00913186
180	0xbb531492	-0.0032208306
181	0x3cf53e1a	0.029936839
182	0x3b991803	0.004672052
183	0xbce7d7d4	-0.028301157
184	0xbcf13c62	-0.029447738
185	0xbc8d320c	-0.017235778
186	0xbc3bf1ff	-0.011471271
187	0x3c7f9fda	0.015602076
188	0x3d825890	0.06364548
189	0xbce5f66b	-0.028071603
190	0x3d0b1153	0.03395207
191	0x3d113fee	0.03546136
192	0xbd369a37	-0.044580664
193	0x3d0dd1cc	0.034623906
194	0x39b9ad49	0.00035415057
195	0xbd5938f8	-0.053032845
196	0xbd4739f4	-0.048639253
197	0xbd619d51	-0.05508167
198	0x3c69e31e	0.01427534
199	0x3cbda6e7	0.023150874
200	0xbdc428e6	-0.09578113
201	0xbbaa8654	-0.0052040014
202	0xbd594999	-0.053048704
203	0xbda838cd	-0.08213959
204	0x3c9c06e0	0.019046247
205	0xbd4d8363	-0.05017413
206	0x3d9a2b8b	0.075278364
207	0xbc5c0ac1	-0.013430298
208	0xbd0c4a9e	-0.034250848
209	0x3d45b813	0.04827125
210	0xbd4fb4d3	-0.050709557
211	0x3cf4f22b	0.029900631
212	0xbc848516	-0.016176742
213	0xbd9710dd	-0.07376263
214	0x3ce31b9c	0.027723126
215	0x3d98baeb	0.07457527
216	0x3c721c92	0.0147773195
217	0x3b883750	0.0041569844
218	0x3c38662d	0.011254829
219	0x3d34fa90	0.044184268
220	0xbcb4088d	-0.021976734
221	0xbbbcec27	-0.0057654562
222	0xbb92d00e	-0.0044803685
223	0xbcc21817	-0.023693128
224	0xbcce5847	-0.025188578
225	0xbd1ada73	-0.037805986
226	0x3d2cb564	0.042165175
227	0x3d0a6c1b	0.033794504
228	0x3c7e9131	0.015537546
229	0x3c30c8d7	0.010790071
230	0xbd586e6f	-0.052839693
231	0x3caed92e	0.021343794
232	0x3c5c3e60	0.013442606
233	0x3d6aa88d	0.05728965
234	0x3b8c6ac3	0.004285188
235	0xbc87640d	-0.0165272
236	0xbd0e9284	-0.034807697
237	0xbc1857c4	-0.009298269
238	0xbd19a93e	-0.037514918
239	0xbc9dbf6e	-0.01925632
240	0xbbfec85c	-0.0077753495
241	0xbd92a39b	-0.071601115
242	0x3d0f9541	0.03505445
243	0x3c341744	0.010991875
244	0xbb7a914e	-0.003823358
245	0xbd00aa5b	-0.031412464
246	0xbc9cbba1	-0.019132437
247	0x3c4eb428	0.012616195
248	0xbc83f9fb	-0.01611041
249	0xbc6312e0	-0.013859481
250	0xbc3d825d	-0.011566726
251	0xbc15fecb	-0.009154986
252	0xbd29ed87	-0.04148629
253	0x3b18ff0d	0.0023345381
254	0x3c9ca38e	0.019120958
255	0x3d284706	0.04108336

conv3.bias f4 [128]
0	0xbc66a7e1	-0.014078111
1	0xbd003887	-0.03130391
2	0xbcc253d4	-0.023721613
3	0x3dc73210	0.097263455
4	0xbcd4eec5	-0.02599276
5	0x3bcacd92	0.0061890567
6	0xbc8270db	-0.015922954
7	0x3d00b358	0.031421036
8	0xbc8e8f64	-0.017402358
9	0x3c91a35c	0.017778091
10	0xbc9acecb	-0.018897435
11	0xbc763407	-0.015027053
12	0x3d463bd3	0.048396897
13	0xbc750050	-0.014953688
14	0x3c911b01	0.017713072
15	0x3ceacacf	0.02866116
16	0x3d82e557	0.06391399
17	0x3d2e3d75	0.04253908
18	0x3cc2a424	0.023759909
19	0x3c1adc12	0.009451883
20	0x3cd1f5c2	0.025629882
21	0x3cdbb339	0.026818858
22	0x3d5ae669	0.053442392
23	0x3cfbf012	0.030754123
24	0xbc9eaeb9	-0.019370424
25	0x3ca47124	0.02007348
26	0x3d5c466e	0.053778104
27	0xbc83783d	-0.016048545
28	0x3ca294ba	0.019846309
29	0xbd35cff9	-0.04438779
30	0xbd4961c2	-0.049165495
31	0x3cb36607	0.021899236
32	0xbd0ac449	-0.0338786
33	0x3ce8fc84	0.028440721
34	0x3bad24be	0.005283921
35	0xbccf7cb2	-0.025328014
36	0x3d26c6e9	0.04071704
37	0xbd17db5d	-0.037074436
38	0x3c2d8c91	0.010592596
39	0x3b8d710e	0.0043164557
40	0x3ceb20ea	0.028702218
41	0xbc4717ef	-0.012151702
42	0x3c2c16f6	0.010503521
43	0xbc856bc4	-0.016286738
44	0x3caa2099	0.020767497
45	0x3d985060	0.07437205
46	0x3b91fd87	0.0044552716
47	0x3c0c2f4b	0.008556197
48	0x3cc86eaf	0.02446684
49	0x3bbaa424	0.0056958366
50	0xbcd9ca3f	-0.026585696
51	0x3c81b61e	0.01583391
52	0xbd1d2117	-0.038361635
53	0x3d5d0a34	0.05396481
54	0xbc0a9648	-0.008458681
55	0x3ce0073d	0.027347201
56	0xbb83d634	-0.0040233377
57	0x3d796e26	0.06089606
58	0xbc6c3150	-0.014416054
59	0x3cf8bb4c	0.030362748
60	0x3cf308a2	0.029667202
61	0x3d018748	0.031623155
62	0x3cb1f07f	0.021721123
63	0xbc2ab92c	-0.010420125
64	0xbcb83534	-0.022486307
65	0x3d2973a0	0.041370034
66	0x3d351aec	0.044215128
67	0x3ccc1f51	0.024917277
68	0x3c55aac8	0.013041206
69	0x3c5e178d	0.01355542
70	0x3c53b9f2	0.012922751
71	0x3c9aea5d	0.018910581
72	0xbc1f63b3	-0.00972836
73	0x3c96d271	0.018410893
74	0x3cc0fd58	0.023558304
75	0x3d6cffd3	0.05786116
76	0x3d1827ad	0.037147213
77	0x3d4c040c	0.049808547
78	0x3c0c1dc3	0.008552018
79	0x3cc08897	0.023502631
80	0xbcf15df8	-0.029463753
81	0x3d2ab8e5	0.041680235
82	0x3c20ef2b	0.009822647
83	0xbd040067	-0.032226946
84	0x3b89ad0e	0.004201538
85	0xba7eecfc	-0.00097246445
86	0x3d124541	0.035710577
87	0xbbcedd74	-0.0063130204
88	0x3c2e61f7	0.010643474
89	0x3c2a753d	0.010403928
90	0xbcced8c5	-0.025249848
91	0x3da36d95	0.079798855
92	0xbbd631ba	-0.0065366896
93	0x3cc5e581	0.024157288
94	0xbc9d9f75	-0.019241074
95	0xbbcfac8a	-0.006337707
96	0x3aab60de	0.0013075133
97	0x3cbc3c47	0.022977961
98	0xbcd1a975	-0.025593499
99	0x3d38cf3c	0.04511951
100	0x3d037fb5	0.032104213
101	0x3d26be44	0.040708795
102	0xbc8a92a7	-0.016915632
103	0xbcf41a41	-0.029797675
104	0x3d0dc90e	0.03461557
105	0x3d7fd031	0.062454406
106	0xbbba5c43	-0.005687268
107	0x3d02284d	0.031776715
108	0xbd377432	-0.044788547
109	0x3c499684	0.012303952
110	0x3ca79e27	0.020461155
111	0x3d2d7a51	0.04235298
112	0xbcf1123c	-0.02942764
113	0xbba2ff37	-0.0049742716
114	0x3d36b997	0.044610586
115	0x3d6cf01f	0.057846185
116	0xba86a25e	-0.0010271778
117	0xbbdcb8df	-0.0067359055
118	0xbc7100f9	-0.014709705
119	0x3d047e6f	0.03234714
120	0xb9a3a2e4	-0.00031211146
121	0x3c1305d0	0.008973554
122	0xbcc69265	-0.024239728
123	0x3b77db7d	0.0037820034
124	0xbcbc0331	-0.02295074
125	0xbc791985	-0.015203838
126	0xbcb544c1	-0.022127511
127	0x3d8653aa	0.065589264

act_conv1.weight f4 [4, 128, 1, 1]
0	0x3bbc83d3	0.0057530194
1	0xb029449a	-6.157933e-10
2	0x3bb220fe	0.005436062
3	0xbdc9a1f7	-0.098453455
4	0x3c329a9e	0.010901121
5	0x3bda51fd	0.006662606
6	0x3d4c17b7	0.049827304
7	0x3c7fdae7	0.015616155
8	0x3d8f270e	0.06989871
9	0xbdd7275b	-0.10505553
10	0xbc9f8eb7	-0.019477231
11	0x3c9ffc37	0.019529445
12	0xbe014239	-0.12622918
13	0x3c30bf40	0.010787785
14	0x3cf48c59	0.02985208
15	0xbd3fe854	-0.046852425
16	0x3c3025f5	0.010751237
17	0xbd6dc578	-0.05804965
18	0x3ce6bfb8	0.02816759
19	0x3c0e3459	0.008679473
20	0xbc99bbdf	-0.018766342
21	0x3cc4c190	0.024018079
22	0xbdc17a65	-0.09447173
23	0x3bca9fc7	0.0061835977
24	0x3c8652d6	0.016396921
25	0x3d13543f	0.035969015
26	0xbc246cea	-0.010035733
27	0xbd17643d	-0.03696083
28	0x3b46270c	0.0030235676
29	0xbd2ea3ab	-0.042636555
30	0xbcbd2c9c	-0.02309256
31	0x3d1df78a	0.03856615
32	0x30c7055e	1.4480681e-09
33	0xbaa1124a	-0.0012288776
34	0xbcd8d83b	-0.026470294
35	0x3d57b29f	0.05266058
36	0xbd8bb202	-0.06821062
37	0xbcb32fda	-0.021873403
38	0xba979c1d	-0.0011566911
39	0xb89ce035	-7.4804215e-05
40	0xbd1ed198	-0.038774103
41	0xbcbd376f	-0.023097722
42	0xbd1999c6	-0.037500165
43	0xbd599e2f	-0.05312937
44	0xbb767890	-0.0037608482
45	0xbda776f2	-0.08176984
46	0xbbe41e43	-0.0069616153
47	0xbda93a01	-0.082630165
48	0x3bb2d37b	0.0054573393
49	0xbd01dbf2	-0.031703897
50	0x3d0b49cf	0.034005936
51	0x3cf2268a	0.029559392
52	0xbb69ef9a	-0.0035695792
53	0xbd16558e	-0.036702685
54	0xbd806288	-0.06268793
55	0x3d70bd10	0.058774054
56	0x2fcc2a00	3.7137227e-10
57	0xbdd6fbec	-0.10497269
58	0xbd951ae3	-0.07280519
59	0xbc9be32f	-0.019029228
60	0xbda21b36	-0.07915346
61	0x3cebb728	0.02877386
62	0x3d16c521	0.03680909
63	0x32e2fa1c	2.64236e-08
64	0x3d7652ff	0.060137745
65	0xbd4c4a8b	-0.049875777
66	0x3d380149	0.0449231
67	0xbc41b742	-0.011823477
68	0xbd2e5f28	-0.042571217
69	0xbba7a689	-0.005116288
70	0x3d21124a	0.039324082
71	0x3c046804	0.00808144
72	0xbd11ba31	-0.035577957
73	0x3d98b14d	0.074556924
74	0x3d4f6a99	0.05063877
75	0xbd73fb55	-0.05956586
76	0xbba31208	-0.0049765147
77	0xba070935	-0.0005151213
78	0xbd81bbe0	-0.063346624
79	0xbcbf1570	-0.023325652
80	0x3c1dc0eb	0.009628515
81	0x3d176de1	0.036970023
82	0x3b68879d	0.0035481222
83	0x321c01d9	9.080815e-09
84	0xbce5a311	-0.028031858
85	0xb0c4bb4e	-1.4314112e-09
86	0xbdca0a3c	-0.09865233
87	0x3d9588a6	0.07301454
88	0x3d30941a	0.04310999
89	0xbaa85c8c	-0.0012844964
90	0x3c32e5f8	0.010919087
91	0xbda1e969	-0.079058476
92	0x3ca54974	0.020176627
93	0x3d67f561	0.056630496
94	0xbcf81b9d	-0.030286605
95	0x3d551fd3	0.052032303
96	0xbd1afc4d	-0.03783827
97	0x3d53680c	0.0516129
98	0xbd1836dc	-0.037161693
99	0x3d7d7108	0.061875373
100	0x3a0b6db2	0.0005318775
101	0x3cbcb4be	0.023035403
102	0xbb84fdd0	-0.004058577
103	0xbda450ca	-0.08023222
104	0xbbbb607f	-0.0057182903
105	0x3b6e19c6	0.003633128
106	0xba14b95c	-0.00056733727
107	0xbdb7469b	-0.08949014
108	0x3ccf67ab	0.025317987
109	0x3d7fe851	0.062477414
110	0xbcba27fe	-0.022724148
111	0x3bea1394	0.007143447
112	0xb1e14fa7	-6.5574173e-09
113	0x3b1ed248	0.0024234224
114	0xbc8cee2a	-0.01720341
115	0xbc5e0ed5	-0.013553341
116	0xbd2b4a49	-0.04181889
117	0x3d26e9c4	0.04075028
118	0x3d145ac7	0.036219385
119	0xbc08114e	-0.008304907
120	0x3d9c1142	0.07620479
121	0xbccbb4ea	-0.02486654
122	0xbc9e59c7	-0.019329919
123	0xbdc5061f	-0.09620308
124	0xb3cf6426	-9.6574055e-08
125	0x3d340e6d	0.04395907
126	0xaf36361c	-1.6572027e-10
127	0xbc2a984f	-0.01041229
128	0xbb788733	-0.0037922382
129	0x3d42191e	0.047387235
130	0xbd468da5	-0.048474927
131	0x3d146051	0.036224667
132	0x3da6936a	0.08133586
133	0xbdc4b3d3	-0.09604611
134	0xbd6ca777	-0.057776894
135	0x3d9f1b2b	0.07768854
136	0x3d904877	0.070450716
137	0xbd9f30d4	-0.07772985
138	0x3c163892	0.009168761
139	0xbe084bab	-0.13310115
140	0x3cb7ac9c	0.022421174
141	0x3cd5c430	0.026094526
142	0x3dd6e3e0	0.104926825
143	0x3dfb8bef	0.122825496
144	0xbe27921e	-0.16364333
145	0xbd35d8ff	-0.044396397
146	0x3c0ecf6e	0.008716447
147	0x3c657292	0.0140043665
148	0x3d1863ee	0.037204675
149	0xbd89e1f2	-0.06732549
150	0x3cc968aa	0.02458604
151	0xbccdc46f	-0.02511808
152	0x3d5dbb3f	0.05413365
153	0x3a8eb2ec	0.0010887063
154	0xbb871241	-0.004122049
155	0x3e052303	0.13001637
156	0x3d95fc44	0.073235065
157	0xbdeea55e	-0.11652635
158	0xbbb65aa4	-0.0055650044
159	0xbd88fa4f	-0.066883676
160	0xbd8681cc	-0.065677255
161	0x3d4bb79f	0.04973566
162	0x3c98ae63	0.018637842
163	0x3a9a5354	0.0011774101
164	0x3df06b1e	0.11739181
165	0x3db22959	0.08699293
166	0x3c709fb2	0.014686512
167	0xbc4e03fa	-0.01257419
168	0x3cfae5cf	0.03062716
169	0xbabddc87	-0.0014485278
170	0xbd2eaab5	-0.042643268
171	0x3da46eac	0.080289215
172	0xbdbdfafc	-0.09276387
173	0x3d21c9f6	0.039499246
174	0xbd3a8a38	-0.045541972
175	0x3abf2e51	0.0014585947
176	0xbe047ffc	-0.12939447
177	0xbca000dd	-0.019531662
178	0x3d1f6ecd	0.038924027
179	0x3c844038	0.016143903
180	0xbe1e2da6	-0.15447101
181	0x3df3a429	0.118965454
182	0x3cfa3ed4	0.030547537
183	0xbd57b4a2	-0.0526625
184	0x335cebe5	5.1437286e-08
185	0x3db22344	0.08698133
186	0x3bba21c9	0.005680297
187	0x3da70132	0.08154525
188	0x3db38b16	0.08766763
189	0x3c438966	0.011934614
190	0xbc5e1710	-0.013555303
191	0xb02c782a	-6.2744e-10
192	0x3bc862c9	0.0061152917
193	0x3db23c5e	0.087029204
194	0x3dba4064	0.09094313
195	0x3da18e84	0.07888511
196	0x3d8c6cd3	0.06856694
197	0xbd2c54ff	-0.042073246
198	0xbd5da754	-0.054114655
199	0x3dc80d45	0.09768156
200	0x3dfda201	0.123844154
201	0x3daaf419	0.08347339
202	0x3dab10b6	0.08352797
203	0xbdc04898	-0.09388846
204	0xbc43ec1b	-0.011958147
205	0x3c911bac	0.01771339
206	0x3dbe8eab	0.093045555
207	0x3e044b15	0.12919267
208	0xbd5dbae5	-0.054133315
209	0x3bb7fb75	0.005614693
210	0xbcdc592c	-0.02689799
211	0xbca39716	-0.019969504
212	0x3d94eaab	0.07271322
213	0xb1061dc4	-1.9516486e-09
214	0x3dc5c2af	0.096562736
215	0xbd833829	-0.06407196
216	0x3db24716	0.08704965
217	0xb9af76ff	-0.0003346726
218	0x3c702472	0.014657127
219	0x3d8535dd	0.06504414
220	0xbd2f3df9	-0.04278371
221	0xbda597d1	-0.08085597
222	0x3d6508dd	0.055916656
223	0x3d9c83c1	0.076423176
224	0x3dc65bd7	0.09685486
225	0x3c904a23	0.017613476
226	0xbd680337	-0.05664369
227	0x3cfbc2f6	0.030732613
228	0x3defa36b	0.117010914
229	0x3d7e13cb	0.062030595
230	0xbdf29631	-0.11845053
231	0x3e0930ab	0.13397472
232	0x3db2c771	0.08729447
233	0xbc8f653b	-0.017504325
234	0xbcbce643	-0.023059016
235	0x3e2c1ea5	0.16808565
236	0xbdd0efd5	-0.10201994
237	0xbbaa7176	-0.005201514
238	0x3dd396d5	0.10331503
239	0xbce28df2	-0.027655575
240	0xbae35a9a	-0.0017345727
241	0x3d60f7df	0.05492389
242	0x3e3d06e1	0.18459655
243	0xbe0c5b92	-0.13706806
244	0x3c63af55	0.013896783
245	0xbdba8846	-0.09108023
246	0x39343c5e	0.00017188626
247	0x3dabcb8d	0.083884336
248	0xbd23c479	-0.039982293
249	0x3d228225	0.039674897
250	0x3ddc9079	0.107697435
251	0x3cbc8a5b	0.023015192
252	0x3b7745dd	0.003773085
253	0x3d08ce2b	0.033399742
254	0x3b3dbd4d	0.0028951943
255	0x3d645d2e	0.055752926

act_conv1.bias f4 [4]
0	0xbc8d5bf5	-0.017255763
1	0x3d5a3a78	0.053278416
2	0x3da14f36	0.078764364
3	0xbd8e9ec6	-0.069638774

act_fc1.weight f4 [36, 144]
0	0xbd11d1fc	-0.035600647
1	0xbd66cfdf	-0.056350585
2	0xbdaac56c	-0.083384365
3	0xbcedb50f	-0.029017
4	0xbd1841f2	-0.037172265
5	0xbd90455c	-0.07044479
6	0xbd06ad3a	-0.032880045
7	0xbd8d93b1	-0.069129355
8	0xbd97caa9	-0.07411701
9	0xbdd89917	-0.105760746
10	0xbd155772	-0.036460347
11	0xbdef02a5	-0.11670426
12	0xbdf4020b	-0.11914452
13	0xbdae8a25	-0.08522443
14	0xbdc2627c	-0.09491441
15	0xbd5e3e95	-0.0542589
16	0xbd363556	-0.04448446
17	0xbcb4d66b	-0.022074899
18	0xbd0f9865	-0.035057444
19	0xbd2c9786	-0.04213669
20	0xbd023cee	-0.03179639
21	0xbd08166c	-0.03322451
22	0x3c20be2d	0.009810966
23	0xbcb4a075	-0.022049168
24	0xbadd88b4	-0.0016901703
25	0xbcc527c8	-0.02406682
26	0xbda784f3	-0.08179655
27	0xbcc43111	-0.023949178
28	0x3c92f150	0.017937332
29	0x3c383c92	0.01124491
30	0xbc8b1ed4	-0.016982473
31	0xbd1ae065	-0.037811656
32	0xbc355fa7	-0.011070169
33	0xbcaddfb3	-0.021224832
34	0xbd0403ec	-0.032230303
35	0xbd54a463	-0.051914584
36	0x3da18823	0.07887294
37	0x3da79b40	0.081839085
38	0x3c788870	0.015169248
39	0x3d868b78	0.0656957
40	0x3d42bf4f	0.047545727
41	0x3c476a64	0.012171362
42	0xbaff712a	-0.0019488682
43	0xbd05bf24	-0.03265299
44	0xbbab2a40	-0.0052235425
45	0x3d9fd27a	0.07803817
46	0x3d374441	0.044742826
47	0xb50cf400	-5.250913e-07
48	0x3d3ec68f	0.04657608
49	0x3cc0c9bf	0.0235337
50	0x3c3ba8ac	0.011453789
51	0xbcfdc8cb	-0.030979535
52	0xbd70bfd5	-0.058776695
53	0x3d75c95b	0.06000648
54	0xbca15b50	-0.019696862
55	0xbde45679	-0.11149306
56	0x3cc3c63e	0.02389824
57	0x3d929d96	0.071589634
58	0xbc9c0da4	-0.019049473
59	0x3d389d61	0.045071963
60	0xbd985c08	-0.074394286
61	0x3d87a1a5	0.06622628
62	0x3ad056e8	0.0015895041
63	0xbd97151b	-0.073770724
64	0x3c47fd36	0.012206366
65	0xbcd3a1aa	-0.025833923
66	0x3d72dad2	0.059290715
67	0xbdd1f02d	-0.10250888
68	0x3d6a88d1	0.057259385
69	0xbd8ccb54	-0.06874719
70	0xbe049a7f	-0.1294956
71	0xbca30fef	-0.019905059
72	0x3863d610	5.432038e-05
73	0xbd82296c	-0.06355557
74	0xbd4b21f2	-0.04959292
75	0x3c367e42	0.011138501
76	0x3d5f45e2	0.054510005
77	0xbc4e71b7	-0.012600354
78	0xbcea2077	-0.028579934
79	0xbdb1615a	-0.086611465
80	0xbda76254	-0.081730515
81	0xbd9e407f	-0.077271454
82	0x3bf79052	0.007555046
83	0x3cde08c9	0.027103798
84	0xbdd9cd83	-0.106349014
85	0xbd9b0d08	-0.07570845
86	0xbbd442a5	-0.006477671
87	0xbd98cb68	-0.07460672
88	0xbca6e843	-0.020374423
89	0xbd9430ad	-0.07235847
90	0x3d221c9c	0.039578065
91	0xbde7c584	-0.1131697
92	0xbd9d496d	-0.076800205
93	0xbce76c75	-0.028249959
94	0xbd275485	-0.04085209
95	0xbc8f0e91	-0.017463
96	0xbd27ab9f	-0.040935155
97	0x3ce5dfe6	0.028060865
98	0x3bfd8beb	0.007737627
99	0xbe0ede62	-0.1395202
100	0x3cf016d9	0.02930777
101	0x3d1f1a43	0.038843405
102	0x3cfe9484	0.031076677
103	0xbc61115e	-0.013737051
104	0xbcdee6aa	-0.027209599
105	0xbdd6336f	-0.10459029
106	0xbd52ed80	-0.05149603
107	0xbc5d7702	-0.013517143
108	0xbd5b7201	-0.05357552
109	0xbd54e244	-0.051973596
110	0xbce25e78	-0.027632937
111	0xbdb0331d	-0.08603499
112	0xbde6b73a	-0.112654164
113	0x3c8edbd3	0.017438805
114	0x3d04b48a	0.032398738
115	0xbbcdc17b	-0.006279168
116	0x3c97eb82	0.018544916
117	0xbd88c56f	-0.066782825
118	0xbd31d1ba	-0.0434129
119	0x3d30866f	0.043096956
120	0xbcc5520e	-0.024086978
121	0xbd188710	-0.03723818
122	0xbbbca255	-0.005756656
123	0x3d52e623	0.051489007
124	0xbccfc132	-0.025360677
125	0xbd8a305f	-0.06747507
126	0xbb7a5de5	-0.0038202938
127	0x3d549c1d	0.051906694
128	0xbb0905dd	-0.0020908036
129	0xbc767b21	-0.015044005
130	0x3c8c9868	0.017162517
131	0x3d4e60f6	0.050385438
132	0x3cdd69fe	0.02702808
133	0x3ca33efa	0.01992749
134	0x3cfc1154	0.030769981
135	0xbcc946bd	-0.024569863
136	0xbd9bdd4f	-0.07610571
137	0xb8405ab8	-4.5860856e-05
138	0x3d8aae06	0.067714736
139	0x3ca7923a	0.020455468
140	0xbd1db502	-0.0385027
141	0x3d033d14	0.03204067
142	0x3a501f80	0.0007939264
143	0xbba5c286	-0.0050585894
144	0xbcf4a552	-0.029863987
145	0xbc914d46	-0.017737042
146	0x3cb3fba9	0.021970587
147	0xbd161330	-0.036639392
148	0xbce94839	-0.028476821
149	0xbcd88499	-0.026430415
150	0xbcc1c7b3	-0.023654794
151	0xbcd24d0d	-0.025671506
152	0xbc638034	-0.0138855465
153	0xbc81fe17	-0.01586823
154	0xbcbcb335	-0.023034671
155	0xbcfc45b2	-0.030794952
156	0xbc532b70	-0.012888774
157	0xbc182e7f	-0.009288429
158	0xbd94cb7c	-0.07265374
159	0xbcc993f8	-0.02460669
160	0x3c79b54e	0.01524098
161	0x3b0023df	0.001955263
162	0xbd3b9285	-0.04579403
163	0xbc9a228a	-0.018815298
164	0x3caade82	0.020858053
165	0xbba74878	-0.0051050745
166	0xbd76d036	-0.06025716
167	0xbd790d19	-0.060803507
168	0x3c811156	0.015755337
169	0xbd290295	-0.041262228
170	0x3c76000c	0.01501466
171	0x3c779271	0.015110598
172	0xbc002ed8	-0.007823668
173	0xbd50c408	-0.0509682
174	0xbc2f6832	-0.010705994
175	0x3c9a4caa	0.018835384
176	0x3cb43ca0	0.022001565
177	0xbccc5510	-0.024942905
178	0x3b28d3de	0.0025761048
179	0xbd1f5904	-0.03890325
180	0xbebe4b15	-0.37166658
181	0xbb9a7606	-0.0047137765
182	0xbe1de957	-0.15421043
183	0x3e15d284	0.14631087
184	0x3dbd54ef	0.092447154
185	0x3e6b822e	0.22998878
186	0xbd48d12a	-0.0490276
187	0x3e142bdc	0.14469856
188	0xbe286cff	-0.16447829
189	0xbd80c749	-0.062880106
190	0xbdc5ce76	-0.0965852
191	0x3c5da449	0.013527938
192	0xbdac09c0	-0.08400297
193	0xbd36b028	-0.04460159
194	0xbd06cbe5	-0.032909293
195	0xbdff03e3	-0.12451913
196	0xbcfe2dc3	-0.03102768
197	0xbdb10ff8	-0.08645624
198	0xbc1701da	-0.00921675
199	0x3d08300a	0.03324894
200	0xbd356fb8	-0.044295996
201	0xbd953b81	-0.0728674
202	0xbd9496dd	-0.072553374
203	0xbd067be9	-0.032833014
204	0xbcd919c1	-0.026501538
205	0xbe163090	-0.14666963
206	0xbd550274	-0.052004293
207	0x3c014bdb	0.0078916205
208	0xbc840fda	-0.01612084
209	0xbddc07da	-0.10743685
210	0x3c987ad4	0.018613257
211	0x3b80607f	0.003917753
212	0xbe1e2a7f	-0.15445898
213	0x3ca1d472	0.019754622
214	0xbdc42099	-0.0957653
215	0xbc98a7fe	-0.018634792
216	0x3e213176	0.15741524
217	0x3e527e68	0.20556033
218	0x3d5f678b	0.054542106
219	0x3d677284	0.056505695
220	0x3dc80a57	0.09767597
221	0x3e24a10c	0.1607706
222	0xbd5835db	-0.052785736
223	0xbd38d773	-0.045127343
224	0x3d837368	0.06418496
225	0x3de85c1a	0.11345692
226	0x3d530f78	0.051528424
227	0xbc942c46	-0.018087517
228	0x3d79e3bf	0.06100821
229	0x3d2d7c10	0.042354643
230	0xbc860ad0	-0.016362578
231	0x3c4883a8	0.012238421
232	0x3bee20f3	0.0072671114
233	0xbd21c55a	-0.03949485
234	0x3d3b0784	0.045661464
235	0x3d4e0bdc	0.05030428
236	0xbce37c92	-0.02776936
237	0xbcf5f0f7	-0.030022128
238	0x3cba4d6e	0.022742
239	0xbd1583e9	-0.036502752
240	0x3da91f00	0.08257866
241	0x3d84850d	0.0647069
242	0x3c1f737c	0.009732123
243	0x3d879db1	0.06621874
244	0x3c14dcda	0.009085858
245	0xbcfa5325	-0.030557225
246	0x3d663f5b	0.056212764
247	0xbc2501d2	-0.010071235
248	0xbd751278	-0.059832066
249	0xbc4ea30a	-0.012612114
250	0x3d6ca4f5	0.057774503
251	0xbd8d4663	-0.06898191
252	0x3bd15f74	0.0063895527
253	0xbd44b9ce	-0.04802876
254	0xbcd5ac9c	-0.026083283
255	0xbd79e6b9	-0.06101105

act_fc1.bias f4 [36]
0	0xbcf0f42b	-0.029413303
1	0x3d06f314	0.03294666
2	0xbca157fa	-0.01969527
3	0xbd8273e3	-0.0636976
4	0xbbc75591	-0.0060831984
5	0xbd9720bf	-0.07379293
6	0xbdd0607a	-0.101746514
7	0xbc09fa3e	-0.008421479
8	0x3d02bdb2	0.03191919
9	0xbd299534	-0.041402057
10	0xbc6e3a1b	-0.014540221
11	0x3d0cb20b	0.034349483
12	0x3da46dcd	0.08028755
13	0x3d0eeec1	0.034895662
14	0x3ca57d2b	0.020201286
15	0xbbdd261f	-0.006748929
16	0x3ca3aecf	0.019980816
17	0x3d8ae168	0.06781274
18	0x3d0e0d56	0.034680687
19	0x3cf6916b	0.030098638
20	0xbd017c49	-0.03161267
21	0x3d31dbed	0.04342263
22	0x3c372dd1	0.011180357
23	0x3da25354	0.0792605
24	0xbd48bcbf	-0.049008127
25	0xbd55b9c6	-0.05217912
26	0x3de7622e	0.11298023
27	0xbd706c4e	-0.058697037
28	0x3d25b194	0.040452555
29	0xbc163e80	-0.009170175
30	0xbdf3d3d0	-0.119056344
31	0x3c9284ef	0.017885653
32	0x3c123f10	0.008926168
33	0x3a7d4460	0.0009661373
34	0x3b93dea8	0.0045126267
35	0x3d45e9dc	0.04831873

val_conv1.weight f4 [2, 128, 1, 1]
0	0xbdb66b86	-0.08907227
1	0xbc117e46	-0.008880204
2	0x3d74e067	0.05978432
3	0xbd987d95	-0.07445828
4	0x3d7a6208	0.061128646
5	0xbdf22745	-0.11823896
6	0x3d86f9ad	0.065905906
7	0x3c8e4045	0.01736463
8	0x3d74ec95	0.059795935
9	0x3b64aaee	0.003489192
10	0x3d1acda5	0.037793774
11	0xbd1a580a	-0.037681617
12	0x3be9ba76	0.0071328236
13	0x3db0eda8	0.08639079
14	0x3dd9951e	0.10624145
15	0xbdbd57dd	-0.09245274
16	0x3d81667b	0.06318375
17	0xbd917cf0	-0.07103908
18	0x3d4d5af4	0.050135568
19	0x3d380249	0.044924054
20	0xbd976f30	-0.07394254
21	0x3cb6e72a	0.022327024
22	0x3c27146d	0.010197741
23	0x3d888d6d	0.066676
24	0x3d27ac5a	0.04093585
25	0x3cf6290f	0.030048875
26	0xbdbe43e7	-0.09290295
27	0x3b8b6a6a	0.004254629
28	0xbd99203d	-0.07476852
29	0x3d9058fe	0.07048224
30	0x3d08c69d	0.033392537
31	0x3d44a137	0.04800531
32	0xbc7ded4e	-0.015498472
33	0x3cf18d4d	0.029486323
34	0xbd2ce55e	-0.04221093
35	0xbdde9b03	-0.1086941
36	0x3d70845a	0.05871997
37	0x3de98d31	0.11403883
38	0x3d8f19c0	0.06987333
39	0x3d99b586	0.07505326
40	0xbdc9d665	-0.09855346
41	0xbc7f0f6e	-0.015567644
42	0x3c800e57	0.015631838
43	0x3ccfb2c1	0.025353791
44	0xbe02ea5b	-0.12784712
45	0x3be11d0e	0.0068699187
46	0xbd21d774	-0.039512113
47	0x3caf0fa9	0.021369772
48	0xbe0afcd2	-0.13573006
49	0xbcca00d8	-0.024658605
50	0xbcdbc659	-0.026827978
51	0x3cc09689	0.02350928
52	0x3c0bd7e0	0.008535355
53	0x3d835dc3	0.06414368
54	0x3d1803cf	0.037113007
55	0x3dab6b47	0.08370071
56	0xb155dfb5	-3.1122742e-09
57	0x3c9fb288	0.01949431
58	0x3d821044	0.06350759
59	0x3d7775ea	0.060415186
60	0xbc0e329a	-0.008679057
61	0x3d84d504	0.06485942
62	0x3da8fead	0.082517006
63	0xbc15cbea	-0.009142855
64	0xbc7fcbef	-0.015612586
65	0xb9272ab2	-0.00015942266
66	0x3d7dadef	0.061933454
67	0x3c813c53	0.015775835
68	0xbdddf74b	-0.10838183
69	0x3aae2d97	0.0013288733
70	0x3c673cf1	0.014113651
71	0x3d8704fe	0.06592749
72	0x3d82c4c4	0.06385186
73	0x3db97d08	0.09057051
74	0x3d349672	0.04408879
75	0xbd7916ed	-0.06081288
76	0xbd837b3a	-0.06419988
77	0xbe18231d	-0.14857145
78	0xbcd17644	-0.025569089
79	0x3dd5fd08	0.104486525
80	0xbd7f1b4b	-0.062281888
81	0xbce8018b	-0.028321048
82	0xbe2e52d4	-0.17023784
83	0xbc09b787	-0.008405573
84	0xbd6e0fa0	-0.05812037
85	0x30668ca5	8.387338e-10
86	0xbdce07b4	-0.10060063
87	0x3de326de	0.11091398
88	0x3dd54f6d	0.1041554
89	0xbdf4671d	-0.1193373
90	0x3d115afc	0.03548716
91	0xbc56533d	-0.013081369
92	0xbcaaa998	-0.020832822
93	0x3d929c54	0.071587235
94	0xbd9b7c30	-0.07592046
95	0xbc268650	-0.0101638585
96	0x3a978111	0.001155885
97	0xbe0f1f48	-0.13976777
98	0x3ce19e13	0.027541196
99	0xbc4b9f06	-0.012428051
100	0xbda0e39b	-0.07855912
101	0xbdb0db0e	-0.08635531
102	0x3c525091	0.012836591
103	0xbd06fe09	-0.03295711
104	0xbd24b8f6	-0.040215455
105	0xbce3ad84	-0.0277927
106	0x3d66452a	0.056218304
107	0x3bb7b28e	0.005606002
108	0x3d80b166	0.06283836
109	0xbd0d8ad6	-0.034556232
110	0x3d7f49e0	0.062326312
111	0x3d61d4d8	0.055134624
112	0xb401fae0	-1.2105329e-07
113	0x3d368620	0.044561505
114	0x3d8f05c7	0.06983524
115	0xbe146962	-0.14493325
116	0x3da5958b	0.08085164
117	0x3c088f0d	0.008334887
118	0x3c1a0c7f	0.009402393
119	0xbd7d9796	-0.06191214
120	0x3d0d22ef	0.034457143
121	0xbe050d02	-0.12993243
122	0x3d010b0e	0.031504683
123	0x3d0abb18	0.033869833
124	0x3bdfc5dc	0.0068290066
125	0x3d06791d	0.032830346
126	0xbac3df79	-0.0014943919
127	0xbc06c61f	-0.008225947
128	0x3c3aef25	0.011409556
129	0x3ce11e74	0.027480341
130	0xbd7c858c	-0.061650798
131	0xbdf52adb	-0.11971065
132	0xbda26130	-0.07928693
133	0x3d3dc332	0.04632873
134	0x3d24c2ac	0.040224716
135	0x3d67ff63	0.05664004
136	0x3d1c1925	0.038109917
137	0x38dbd02b	0.00010481508
138	0xbb58832f	-0.0033037176
139	0x3d4130ae	0.047165565
140	0xbd257e1f	-0.04040348
141	0xbba175bf	-0.0049273665
142	0xbdd8328f	-0.10556518
143	0xbdd475b9	-0.10374016
144	0xbdb9c4fd	-0.09070776
145	0x3cc84175	0.024445275
146	0x3cb41d97	0.021986766
147	0xbd389abf	-0.045069452
148	0x3ca07cc7	0.019590748
149	0x3cbaf48e	0.02282169
150	0x3bc448ec	0.0059901383
151	0x3d5ae03d	0.053436507
152	0xbb25fad3	-0.0025326505
153	0xbcf20abe	-0.029546138
154	0xbcfc07a7	-0.030765368
155	0xbdcd876d	-0.10035596
156	0xbd4a438d	-0.049380828
157	0xbcdda08c	-0.027054094
158	0x3c9ec2f2	0.019380067
159	0x3cdaf980	0.026730299
160	0x3aa39096	0.0012479003
161	0x3d2a7bed	0.04162209
162	0x3c586c24	0.0132093765
163	0xbcf6b1bf	-0.030114053
164	0x3ca2972b	0.019847473
165	0xbc6c3cda	-0.014418805
166	0xbdd672ac	-0.10471091
167	0xbda0fa4d	-0.07860241
168	0x3cd8f0de	0.026482042
169	0x3d22df6c	0.039763853
170	0x3ceef038	0.02916728
171	0x3cdc6908	0.026905552
172	0x3d28b3e5	0.041187186
173	0xbb9f4fcf	-0.004861809
174	0x3d82e797	0.063918285
175	0x3c60acb1	0.013713048
176	0x3c6917a2	0.014226826
177	0xbbf0674c	-0.0073365327
178	0xbdae67a6	-0.08515863
179	0xbdfe170a	-0.12406738
180	0x3d4d7851	0.05016357
181	0xbc71d2dd	-0.014759746
182	0x3cad7c86	0.021177541
183	0xba7e793c	-0.00097073964
184	0xb57f1bab	-9.5035165e-07
185	0xbd51f2a7	-0.051256802
186	0x3b4c523e	0.003117695
187	0x3d63a27f	0.05557489
188	0x3cc89e6d	0.024489606
189	0x3be1ba5d	0.0068886713
190	0xbd0fec5f	-0.03513753
191	0x3a5820c3	0.0008244628
192	0x3ca40968	0.020024016
193	0x3ce72635	0.02821646
194	0xbe080e29	-0.13286652
195	0xbdc7c8e9	-0.097551174
196	0x3cc57fab	0.024108728
197	0xbd333e83	-0.043760788
198	0xbcc536d2	-0.024073992
199	0xbd949143	-0.07254269
200	0xbd30e05b	-0.043182712
201	0xbe2ad291	-0.16681887
202	0x3c452470	0.012032613
203	0xb990114e	-0.00027478713
204	0x3d0d632a	0.0345184
205	0xbcbdf60b	-0.023188611
206	0x3d33b69d	0.043875325
207	0xbdd9d56a	-0.106364086
208	0xbc4d04d5	-0.012513359
209	0xbd917c97	-0.07103842
210	0xbd204dc0	-0.03913665
211	0xbbe8cacb	-0.007104253
212	0x3d08c7ff	0.033393856
213	0x3301f20a	3.0255286e-08
214	0x3a85668f	0.001017766
215	0xbd9f0fc5	-0.0776668
216	0xbd727762	-0.059195884
217	0x3d6008ef	0.05469602
218	0xbd78bdf8	-0.060728043
219	0xbd447352	-0.04796154
220	0xbb6c8dd5	-0.003609528
221	0xbb717a3a	-0.0036846534
222	0x3d5a5248	0.053301126
223	0x3d1887ec	0.037239
224	0xbdbcfdef	-0.092281215
225	0xbce628f9	-0.02809571
226	0x3cc49bf7	0.024000151
227	0xbde4863b	-0.11158415
228	0xbddaebad	-0.10689483
229	0x3d89ad4b	0.06722506
230	0x3d57cd68	0.052686125
231	0x3dbaf568	0.09128839
232	0xbc6988bc	-0.014253791
233	0xbd983e9c	-0.07433817
234	0x3d9d5b21	0.07683397
235	0x3ca79f52	0.020461712
236	0x3d89244a	0.06696375
237	0x3b9bb577	0.004751857
238	0xbe051bb9	-0.12998857
239	0xbd963a2f	-0.073353164
240	0xbbd56837	-0.0065126675
241	0xbda78036	-0.08178751
242	0xbd80ddb4	-0.062922865
243	0xbd5baacb	-0.053629678
244	0x3da70336	0.08154909
245	0xbd2e4d5e	-0.04255425
246	0xbbb8850e	-0.0056310957
247	0xbd611c5c	-0.054958686
248	0xbd8ac184	-0.067751914
249	0xbce662cf	-0.028123287
250	0x3c569976	0.013098111
251	0x3cbd35d4	0.023096956
252	0xbc76d671	-0.015065775
253	0xbda6e882	-0.08149816
254	0x3906d2f0	0.00012857816
255	0xbc168090	-0.009185925

val_conv1.bias f4 [2]
0	0x3d1d9b33	0.038478088
1	0x3d82d4be	0.063882336
