models/Eval/AC_nmcts20/train_090.pth (torch, 424031 bytes, 15 tensors)

conv1.weight f4 [32, 5, 3, 3]
0.038107105 -0.18911925 -0.04210702 0.13849176 -0.26007867 -0.040086675 0.12815133 -0.1449573
0.02210941 -0.000224458 -0.02037866 0.15664873 0.08599651 -0.17843533 0.14220184 -0.036359217
-0.012683708 0.09716119 4.6677858e-14 1.5963347e-16 9.557368e-16 1.5040337e-14 8.380915e-15 -2.8201752e-13
-2.0331653e-12 -6.178242e-16 3.55784e-17 0.10377474 0.011140218 -0.056054585 -0.13381132 -0.1770066
-0.0030863353 0.047231786 -0.13744392 0.082458675 2.561482e-15 -4.8842153e-14 -6.1533517e-15 3.1203137e-16
2.138142e-12 4.8133134e-15 -4.7666276e-16 1.0587253e-14 -1.0205782e-12 -0.07050352 0.24337326 0.06790216
0.14633712 -0.077884845 -0.030963723 -0.009831978 0.14298484 0.10670024 0.08832732 -0.14482321
-0.069787845 -0.01748087 0.04569853 0.016143648 -0.016673123 -0.0786884 0.045427255 4.3063785e-14
-1.0749041e-15 7.1417133e-16 1.301347e-09 -8.8211684e-16 -1.715102e-15 1.2850082e-09 5.6432185e-15 3.3845343e-14
-0.122840576 0.21069932 -0.13471681 0.041249752 -0.19899914 -0.10624471 -0.14125189 0.12386808
-0.053375427 5.2948546e-15 1.560726e-06 1.9965974e-14 -1.048875e-15 -7.6903456e-14 -4.2741487e-08 2.2171306e-13
-7.2007855e-10 -1.0039074e-14 -0.09982287 0.041038346 0.062141493 0.059695844 0.016689394 0.17809807
-0.13743858 -0.1995971 -0.018962067 -0.026569534 -0.06537927 -0.085113265 -0.0017611119 -0.015739905
0.11191414 0.16543916 -0.012117911 0.1237942 -5.013352e-13 -5.647469e-13 -3.6874804e-15 2.943187e-16
6.312872e-11 -1.1093168e-06 -6.207392e-15 -9.087414e-15 3.827611e-15 0.07369079 -0.036306746 -0.17341071
-0.048552595 -0.036710996 0.10844043 0.04002216 -0.04998326 0.055419695 4.799811e-13 -8.7828167e-10
-2.6483115e-14 -9.924626e-07 2.711139e-18 -5.647234e-07 3.8056072e-11 -4.253096e-16 3.603989e-15 0.014125293
-0.10594244 -0.09626577 0.0036811295 0.025400806 -0.04678256 0.1720753 0.22681667 0.1735388
0.07041286 0.009540001 -0.12662461 -0.028357295 -0.20453668 -0.1489567 0.07995442 0.008587689
-0.14853148 1.3429348e-13 1.857462e-16 1.661106e-14 2.0011413e-16 1.4737194e-13 -1.9653807e-13 -1.7666799e-16
9.7844935e-15 1.7133343e-10 0.021981303 0.12155085 0.033942796 -0.2129444 0.080828786 -0.011546926
0.0838877 0.062651314 0.011931639 5.913701e-07 -5.725379e-13 -6.179133e-13 4.029468e-16 -5.944158e-13
9.828151e-15 -3.4021311e-15 1.4024035e-07 6.6239353e-16 0.116633326 -0.088283256 0.094491996 0.038442377
-0.02037594 0.056325376 0.020134091 0.04133862 -0.14075352 0.14469141 -0.1723864 0.11829769
0.055217806 0.05471783 0.13313891 0.08934677 0.037191927 -0.15753184 2.0399162e-14 3.864443e-15
-8.556575e-12 -1.6461593e-06 3.7127834e-13 -1.5715125e-15 -6.1529566e-11 5.884864e-13 -2.3783957e-18 0.13555916
-0.074740335 0.13338347 -0.011218418 0.03236157 0.18572125 0.103372924 0.044415724 -0.03180071
-4.9533576e-15 4.447032e-15 2.5835426e-15 -2.5961313e-13 -1.3652882e-16 -3.423381e-15 1.1099091e-14 9.401804e-12
9.3281596e-07 0.07570663 0.14676929 0.15995482 0.15796785 -0.078787975 -0.09463712 0.10043716
0.14919235 -0.09455828 0.08726702 0.12225129 0.045300968 0.047010638 -0.14682563 -0.115918204
0.072092734 -0.076801136 0.0039745234 -4.2085335e-09 -2.1860765e-14 -4.2925036e-10 6.835461e-16 1.301353e-09
5.220661e-13 -2.618223e-14 9.488032e-12 2.0844451e-13 0.007432761 0.0813194 0.045528498 0.07209172
00000000: 3216 1c3d 7aa8 41be 6978 2cbd c9d0 0d3e
00000010: 0829 85be ed31 24bd 1a3a 033e b06f 14be
00000020: cb1e b53c 7c5c 6bb9 26f1 a6bc 8668 203e
00000030: f01e b03d c0b7 36be 5c9d 113e 67ed 14bd
00000040: 54cf 4fbc 72fc c63d e837 5229 7c0b 3825
00000050: 77bc 8926 a878 8728 26fa 1628 02c3 9eaa
00000060: 4012 0fac 6113 32a6 9013 2424 da87 d43d
00000070: 7685 363c 7e99 65bd d605 09be 3841 35be
00000080: 1d44 4abb 1e76 413d 19be 0cbe 18e0 a83d
00000090: 0193 3827 2bf7 5ba9 a7b2 dda7 b4df b325
000000a0: 5875 162c fb6a ad27 8163 09a6 16b9 3e28
000000b0: 34a2 8fab 2664 90bd d736 793e 4a10 8b3d
000000c0: 66d9 153e 1782 9fbd a2a7 fdbc 4e16 21bc
000000d0: 9e6a 123e a885 da3d f4e4 b43d 894c 14be
000000e0: eeec 8ebd 0b34 8fbc 622e 3b3d af3f 843c
000000f0: 1396 88bc 6227 a1bd ee11 3a3d 2af1 4129
00000100: f6e8 9aa6 8bd8 4d26 14db b230 bc40 7ea6
00000110: 182c f7a6 359c b030 8151 cb27 066d 1829
00000120: d793 fbbd 90c1 573e 34f3 09be 80f5 283d
00000130: 6ec6 4bbe d496 d9bd 56a4 10be 8cae fd3d
00000140: 31a0 5abd 6ac4 be27 237a d135 67d6 b328
00000150: a828 97a6 d32b ada9 c392 37b3 70a0 792a
00000160: 06ef 45b0 0fd9 34a8 ef6f ccbd d317 283d
00000170: 1488 7e3d a183 743d 32b8 883c 575f 363e
00000180: b3bc 0cbe 2f63 4cbe 5656 9bbc 5aa8 d9bc
00000190: 91e5 85bd dd4f aebd 1cd5 e6ba f9f0 80bc
000001a0: 3e33 e53d e268 293e 348a 46bc d087 fd3d
000001b0: 021d 0dab 4ef6 1eab 01db 84a7 c6a9 a925
000001c0: 4fd2 8a2e d6e3 94b5 16a5 dfa7 4db4 23a8
000001d0: 7be7 8927 32eb 963d 62b6 14bd 9492 31be
000001e0: 16df 46bd 455e 16bd 0416 de3d 47ee 233d
000001f0: 3fbb 4cbd c3ff 623d 491a 072b 946b 71b0
00000200: e889 eea8 c134 85b5 f80b 4822 7f97 17b5
00000210: 545f 272e 9e2c f5a5 eed8 8127 c66d 673c
00000220: 5af8 d8bd fd26 c5bd 1b3f 713b 5a15 d03c
00000230: 129f 3fbd 8234 303e a142 683e 28b4 313e
00000240: 9e34 903d aa4d 1c3c e2a9 01be 8f4d e8bc
00000250: 1072 51be 1b88 18be 25bf a33d 61b3 0c3c
00000260: a318 18be 7633 172a 9a26 5625 7f9e 9528
00000270: 44b7 6625 12ed 252a 3e48 5daa 30af 4ba5
00000280: 0343 3028 1362 3c2f 2212 b43c a7ef f83d
00000290: 9a07 0b3d 190e 5abe 9089 a53d 512f 3dbc
000002a0: 51cd ab3d 554f 803d ec7c 433c a5be 1e35
000002b0: b427 21ab 59ed 2dab 7448 e825 2c50 27ab
000002c0: 590c 3128 3e26 75a7 f994 1634 04ec 3e26
000002d0: 74dd ee3d dacd b4bd 0585 c13d c175 1d3d
000002e0: 71eb a6bc 70b5 663d 40f0 a43c af52 293d
000002f0: b121 10be fc29 143e 0f86 30be 0f46 f23d
00000300: 112c 623d ce1f 603d 9155 083e 70fb b63d
00000310: 9056 183d 0750 21be 44bd b728 323b 8b27
00000320: 6387 16ad 9af1 dcb5 d902 d12a 947a e2a6
00000330: 114e 87ae eaa4 252b a07e 2fa2 05d0 0a3e
00000340: 7611 99bd ad95 083e 75cd 37bc 918d 043d
00000350: b62d 3e3e 2fb5 d33d 43ed 353d 7641 02bd
00000360: a976 b2a7 a138 a027 f329 3a27 3226 92aa
00000370: 3268 1da5 3cae 76a7 86f1 4728 f665 252d
00000380: a066 7a35 140c 9b3d b04a 163e 32cb 233e
00000390: 53c2 213e 975b a1bd 1bd1 c1bd ffb1 cd3d
000003a0: e1c5 183e c6a7 c1bd 0db9 b23d e25e fa3d
000003b0: 828d 393d 3a8e 403d 7559 16be 8666 edbd
000003c0: 5ba5 933d ea49 9dbd b83c 823b a79a 90b1
000003d0: 7ee7 c4a8 9efb ebaf cd04 4526 4adb b230
000003e0: d4f2 122b 1dd4 eba8 4cea 262d 0ab0 6a2a
000003f0: 858e f33b c98a a63d 177c 3a3d d3a4 933d

conv1.bias f4 [32]
0.12370083 0.002674965 -0.045154057 0.080653526 -0.073925026 -0.13707934 -0.03377089 0.10638535
0.07690904 -0.08578538 0.18911545 -0.043129187 0.17908664 0.15418454 -0.11241919 -0.021264957
-0.034043092 -0.063873775 -0.017649606 0.17023502 -0.065004155 0.09404104 0.00756907 -0.07076493
-0.08368954 0.07183488 -0.12242904 0.17144822 0.12372656 -0.081887275 -0.11337664 0.13911995
00000000: dc56 fd3d 774e 2f3b 76f3 38bd ad2d a53d
00000010: 0166 97bd 875e 0cbe 5853 0abd 90e0 d93d
00000020: 7d82 9d3d 3fb0 afbd 7ba7 413e 3ba8 30bd
00000030: 7d62 373e 8de2 1d3e 083c e6bd d933 aebc
00000040: c570 0bbd 41d0 82bd e895 90bc 1752 2e3e
00000050: e620 85bd 9798 c03d f605 f83b 34ed 90bd
00000060: 6c65 abbd 2a1e 933d 14bc fabd 1f90 2f3e
00000070: 5a64 fd3d 84b4 a7bd 0332 e8bd 7675 0e3e

conv2.weight f4 [64, 32, 3, 3]
-0.019497048 0.02994639 -0.011010134 0.03276051 -0.056061424 -0.052571196 -0.051039755 0.0103121875
-0.01810152 -0.045954388 -0.030420953 -0.039350454 0.024589458 0.026635844 0.036893964 0.023422
0.022278342 0.06441722 -0.053591136 -0.042678375 -0.04033733 0.010862619 0.040389042 -0.004169972
0.0029231678 0.0035768675 -0.051577043 -0.0796199 -0.013494801 0.033147372 -0.0030709147 -0.0023119133
0.00048731582 0.032762844 0.02219586 0.04780828 -0.0039157784 0.036119167 -0.042707864 0.020010972
0.054619286 -0.03411307 -0.0021615855 -8.046656e-05 -0.033119902 -0.047377832 -0.024457274 -0.008464607
-0.053610045 -0.030986752 0.0043894667 -0.02826864 0.059798323 0.027580695 -0.012526859 -0.046587147
-0.06340252 -0.004099803 0.02589379 -0.0070074014 0.025394619 -0.026445834 -0.03515965 0.015619715
-0.026417783 0.024641812 -0.03971258 0.085562855 0.03552148 0.04408195 -0.010720714 -0.004822353
-0.08237672 -0.00914328 0.012101867 -0.06544696 0.045484792 -0.05888019 -0.03743354 0.03678956
0.044101704 -0.00023932359 -0.05558105 -0.014655094 0.028435772 -0.07071517 -0.037505448 0.041190457
0.043628477 -0.011293835 -0.058611166 0.02849355 -0.068915874 -0.061548453 -0.05850818 -0.084345855
-0.047479898 -0.022306351 -0.023653524 0.006144626 0.047766637 -0.025644835 -0.06953128 0.013481352
0.045189343 -0.025287835 0.024899274 -0.058906928 -0.089414604 -0.029964553 -0.07559934 0.003462168
0.060276393 -0.09074918 -0.047984503 -0.053065434 0.00065718126 -0.06963112 -0.054360364 0.037772663
-0.06942604 0.030520592 -0.016570164 -0.043926753 0.008976783 -0.011296252 -0.026479442 -0.0022962373
-0.05523861 -0.06356423 -0.031485736 0.012247214 -0.07632981 -0.016303198 0.008052128 -0.04420839
-0.034994226 -0.026470695 -0.04512778 -0.014921012 -0.030724915 -0.018441485 -0.04796638 -0.059118908
0.05087644 -0.038302276 -0.07846725 -0.041577082 -0.05741427 -0.034137104 -0.010158305 0.005925247
-0.031367537 -0.049938284 0.02667763 0.008652655 -0.06693005 -0.0010617925 0.06360515 0.0006992497
0.046225812 -0.06724612 -0.032136306 0.013613188 0.049977012 -0.0048826966 -0.048372794 0.007937757
0.049185254 -0.031268418 0.0142964795 0.026259303 -0.07147886 -0.047914706 -0.018641343 0.04677684
-0.026922392 -0.010554096 -0.04419088 -0.087742686 -0.062770575 0.029654102 -0.00081860356 -0.024116278
0.061138365 0.0016101857 0.002957992 2.9947176e-05 -0.03162109 -0.0048056133 0.009770233 -0.043578558
-0.015735835 0.06567059 -0.0202043 -0.021103686 -0.08060094 -0.06634118 0.043785583 -0.00858167
-0.010171915 -0.060104463 -0.036091007 -0.0050096014 -0.06978773 0.00849557 -0.05539096 0.03817889
-0.026694212 -0.05706105 0.01909204 -0.00039371735 -0.05089791 0.013294414 0.0568238 0.08281309
0.014163585 -0.018556537 0.030811593 -0.04550786 0.026197733 -0.037428845 0.02838566 -0.024892054
-0.026370656 0.009437287 0.046661157 -0.012382649 -0.009536008 -0.033929005 -0.05222942 0.023960039
-0.002360081 0.022094954 0.0035977585 0.04049144 -0.015206738 0.04032086 -0.022153491 0.05198774
0.043492805 -0.020326009 -0.016787235 -0.003928442 -0.06188572 -0.026051557 0.008906223 -0.043993738
-0.006042655 -0.056737304 -0.030475184 -0.045812618 -0.029589307 0.023155136 0.04466216 0.019219605
00000000: 46b8 9fbc 2252 f53c d963 34bc e22f 063d
00000010: aaa0 65bd e554 57bd 100f 51bd 73f4 283c
00000020: a449 94bc ab3a 3cbd 5d35 f9bc f12d 21bd
00000030: d56f c93c 6a33 da3c 201e 173d 7fdf bf3c
00000040: 1281 b63c 2ded 833d 6182 5bbd 85cf 2ebd
00000050: c238 25bd 20f9 313c fb6e 253d 43a4 88bb
00000060: 9e92 3f3b e169 6a3b 7342 53bd c20f a3bd
00000070: 4c19 5dbc 8ac5 073d 6641 49bb 7883 17bb
00000080: 6c7e ff39 5532 063d 18d4 b53c 9dd2 433d
00000090: ee4f 80bb b1f1 133d 71ee 2ebd 0dee a33c
000000a0: 79b8 5f3d 26ba 0bbd 63a9 0dbb 28c0 a8b8
000000b0: bca8 07bd 420f 42bd 9f5a c8bc 23af 0abc
000000c0: 3596 5bbd eed7 fdbc 84d5 8f3b a393 e7bc
000000d0: 16ef 743d e9f0 e13c 743d 4dbc 2ad2 3ebd
000000e0: 2ed9 81bd a457 86bb 371f d43c 589e e5bb
000000f0: 6008 d03c efa4 d8bc 9103 10bd d5e9 7f3c
00000100: 1b6a d8bc a0dd c93c a9a9 22bd 943b af3d
00000110: f97e 113d 468f 343d efa5 2fbc d404 9ebb
00000120: 20b5 a8bd b2cd 15bc e946 463c 0e09 86bd
00000130: 434e 3a3d 5b2c 71bd e953 19bd a6b0 163d
00000140: fda3 343d f0f2 7ab9 f5a8 63bd eb1b 70bc
00000150: 23f2 e83c 1dd3 90bd 509f 19bd 53b7 283d
00000160: c6b3 323d c709 39bc 4312 70bd 4e6b e93c
00000170: c423 8dbd 3b1a 7cbd 46a6 6fbd 85bd acbd
00000180: 487a 42bd cfbb b6bc 09c5 c1bc dc58 c93b
00000190: f3a6 433d 1e15 d2bc 6a66 8ebd e3e0 5c3c
000001a0: 7618 393d 6f28 cfbc 90f9 cb3c 6448 71bd
000001b0: 011f b7bd 3978 f5bc d4d3 9abd 8ae5 623b
000001c0: 61e4 763d b5da b9bd 668b 44bd 245b 59bd
000001d0: b046 2c3a c39a 8ebd f9a8 5ebd 82b7 1a3d
000001e0: 3d2f 8ebd 5206 fa3c 27be 87bc 8aec 33bd
000001f0: 5b13 133c ea13 39bc 6aeb d8bc 787c 16bb
00000200: e141 62bd f72d 82bd 30f7 00bd 8aa8 483c
00000210: ce52 9cbd 498e 85bc 13ed 033c db13 35bd
00000220: 1b56 0fbd 12d9 d8bc e8d7 38bd 4377 74bc
00000230: d1b2 fbbc 9912 97bc 6578 44bd ab26 72bd
00000240: d063 503d d9e2 1cbd 70b3 a0bd bb4c 2abd
00000250: 3a2b 6bbd 59d3 0bbd 056f 26bc 9328 c23b
00000260: 3f7b 00bd 168c 4cbd 0c8b da3c dec3 0d3c
00000270: 9f12 89bd d82b 8bba 6b43 823d da4d 373a
00000280: 4757 3d3d 55b8 89bd 5ca1 03bd d909 5f3c
00000290: b2b4 4c3d 07ff 9fbb 8d22 46bd 5e0d 023c
000002a0: 7a76 493d 5013 00bd c83b 6a3c c01d d73c
000002b0: 8263 92bd 3642 44bd bbb5 98bc 1299 3f3d
000002c0: 598c dcbc 16eb 2cbc 7f01 35bd 70b2 b3bd
000002d0: dc8d 80bd 29ed f23c 8e97 56ba 808f c5bc
000002e0: 396c 7a3d de0c d33a dfda 413b 1237 fb37
000002f0: 1e85 01bd 6878 9dbb 5413 203c 6e7f 32bd
00000300: 70e8 80bc 4d7e 863d 7d83 a5bc a3e1 acbc
00000310: 1b12 a5bd e2dd 87bd 8358 333d 229a 0cbc
00000320: 1ba8 26bc 1930 76bd 2ad4 13bd 9527 a4bb
00000330: dfec 8ebd 0131 0b3c a2e1 62bd 7861 1c3d
00000340: d2ad dabc d9b8 69bd e966 9c3c d96b ceb9
00000350: 547a 50bd d0d0 593c 13c0 683d e999 a93d
00000360: 620e 683c e103 98bc 9868 fc3c 7366 3abd
00000370: a19c d63c fd4e 19bd 0b89 e83c 6cea cbbc
00000380: 4607 d8bc da9e 1a3c c51f 3f3d 98e0 4abc
00000390: eb3c 1cbc 24f9 0abd 84ee 55bd d847 c43c
000003a0: 97ab 1abb 7a00 b53c 5fc8 6b3b 5ada 253d
000003b0: af25 79bc 7c27 253d 3d7b b5bc 19f1 543d
000003c0: 8325 323d bb82 a6bc 6285 89bc 29ba 80bb
000003d0: e17b 7dbd 136a d5bc 68eb 113c c732 34bd
000003e0: 7701 c6bb 6065 68bd 18a7 f9bc 03a6 3bbd
000003f0: 4665 f2bc d7af bd3c abef 363d 6f72 9d3c

conv2.bias f4 [64]
0.024704743 0.0120032765 -0.07361472 -0.048075687 -0.017126653 0.06294736 0.06500366 0.022319747
-0.03979756 0.07747707 -0.033092212 -0.026513442 0.056463875 -0.048563626 -0.016167644 0.0009155757
0.06419424 0.08097815 0.033949956 0.053436104 0.015809137 -0.023827404 0.07357729 0.03885449
0.026245514 0.10391167 -0.02633149 0.059573326 -0.059023056 -0.02167332 0.07374574 0.0737998
0.013934329 -0.02777944 0.010888305 0.082756214 0.038977288 -0.027143963 0.0031961293 0.08289937
0.04584904 -0.013277629 -0.059118997 -0.010095639 -0.024071157 0.056769837 -0.03958234 0.092981
0.037112195 -0.0606405 0.047175534 0.08249093 0.057309818 -0.035044055 0.040193975 0.06962748
0.0029622086 0.0064063724 -0.031895332 -0.012135977 0.015691403 -0.02325528 -0.05107697 -0.00081920676
00000000: 9a61 ca3c 64a9 443c 50c3 96bd 03eb 44bd
00000010: 324d 8cbc 8cea 803d a420 853d e7d7 b63c
00000020: c402 23bd 4cac 9e3d b38b 07bd b832 d9bc
00000030: aa46 673d a7ea 46bd 0272 84bc 3f03 703a
00000040: 4578 833d dfd7 a53d 1c0f 0b3d d1df 5a3d
00000050: 2a82 813c b031 c3bc b1af 963d e325 1f3d
00000060: d500 d73c a4cf d43d 23b5 d7bc 2903 743d
00000070: 29c2 71bd 3f8c b1bc 0208 973d 5924 973d
00000080: d04c 643c b591 e3bc dc64 323c 177c a93d
00000090: a6a6 1f3d 045d debc 2776 513b 25c7 a93d
000000a0: 34cc 3b3d 6a8a 59bc c326 72bd 2e68 25bc
000000b0: e030 c5bc 7d87 683d 1721 22bd d36c be3d
000000c0: f502 183d 2c62 78bd 223b 413d 01f1 a83d
000000d0: b3bd 6a3d 5b8a 0fbd 70a2 243d da98 8e3d
000000e0: 9d21 423b 8cec d13b aea4 02bd fad5 46bc
000000f0: 428b 803c db81 bebc 1636 51bd 09c0 56ba

conv3.weight f4 [128, 64, 3, 3]
0.021963567 0.041136343 1.800214e-05 -0.021023307 -0.01989209 -0.019033158 0.0018747651 -0.008751604
0.0055095362 0.010725408 0.009280332 0.023733413 -0.032411106 0.017467475 -0.009289011 -0.03891704
-0.010927424 0.006982787 0.050481252 -0.02393097 -0.010155598 0.020798543 -0.005761973 0.019135904
-0.04297617 -0.029316064 0.021987414 0.009524132 -0.01089258 0.07598428 -0.014180967 0.016856011
0.08140966 0.010265127 0.034939818 -0.045439016 0.010082561 -0.010806053 -0.04031934 -0.028417384
-0.052470993 -0.029639067 -0.031829074 -0.016909715 0.015569679 0.033353154 -0.015432186 -0.03510548
0.05082926 -0.0121429665 -0.048690263 0.036115732 -0.041666806 -0.010563509 0.0056480956 -0.028446628
-0.01319802 -0.061314527 -0.049748745 -0.024970824 -0.010854547 -0.023549197 -0.020947358 0.0040563005
-0.0057488293 0.026630796 -0.01791631 0.021266943 -0.0068106833 0.01655904 -0.0042889486 -0.0016010061
0.0074484358 0.015927756 -0.01819153 0.028781973 0.012762103 0.00048619474 0.034418147 -0.027102806
-0.0107723335 -0.016629769 -0.033011645 -0.055773523 -0.035798904 -0.05616013 0.013453444 -0.027945708
0.03532671 -0.010923293 0.04919394 0.038199455 -0.010015962 0.015359793 0.02367445 -0.008730127
0.044797346 0.024992442 -0.028411139 -0.046064146 0.04536751 0.036296014 0.031060247 0.038821183
-0.014071281 0.0075964327 -0.045025792 0.06483238 -0.024689877 0.04219017 -0.028163766 -0.0027250485
0.007836941 -0.038905296 -0.007985734 -0.00745628 0.06904534 -0.0036569843 -0.01018048 -0.011208348
0.003522603 0.0071679745 0.0019906443 0.021349177 0.0044551603 -0.006869229 -0.05669749 0.020490583
-0.0059111537 -0.069692574 -0.025375942 0.009461212 0.013780105 0.009100874 0.026080824 0.013297213
0.013736783 -0.044238873 0.06788494 -0.051543232 -0.05138524 0.008371059 -0.00882812 -0.010727566
0.0024809171 -0.012042814 -0.0730255 0.01791262 -0.009149553 -0.06183276 0.0055576027 -0.0028824897
0.010505781 -0.0045459545 0.034299802 -0.001546772 0.023539646 0.040466946 -0.0108425375 -0.00038223367
0.0073457533 0.025901277 0.009522326 -0.035185922 0.03020403 -0.03287594 -0.0023099429 0.041939195
-0.058430534 0.019962737 0.028853005 0.00096975267 0.044783182 0.08143839 -0.013920325 -0.046913464
-0.011941327 0.04183414 0.011136065 -0.00089186424 -0.0067447596 0.037844285 0.0051398976 -0.032451227
-0.01991837 -0.021825595 -0.01587454 0.02122311 0.054592125 -0.03219319 0.030104883 0.032972623
-0.055249043 0.025614997 -0.001435563 -0.057733454 -0.04271769 -0.041969057 0.0063136937 0.016530216
-0.08908068 -0.02248033 -0.046661764 -0.081342995 0.023124205 -0.04725027 0.05830124 0.008670697
-0.029930186 0.043917507 -0.052960437 0.014568279 -0.0024874767 -0.09293206 0.016585821 0.071262695
0.011983063 0.003240752 0.0077636745 0.03314727 -0.017112082 -0.004892752 -0.0031648402 -0.018337576
-0.019079141 -0.030241705 0.05392974 0.021859566 0.010672017 0.01851062 -0.056615762 0.005362327
0.015233239 0.036072407 -0.008479547 -0.026966648 -0.032330632 0.02491793 -0.037285473 -0.024855873
0.039524157 -0.057999875 0.016656227 0.009350376 -0.002693643 -0.026421418 -0.015914248 0.008187058
-0.014169497 -0.011840457 -0.0080312425 -0.0058859657 -0.034238175 0.013781382 0.0032748468 0.034717277
00000000: f0ec b33c 957e 283d 4d03 9737 1239 acbc
00000010: bcf4 a2bc 6deb 9bbc aeba f53a e362 0fbc
00000020: 5789 b43b 9fb9 2f3c 890c 183c 936c c23c
00000030: 82c1 04bd f317 8f3c f030 18bc 7967 1fbd
00000040: f008 33bc ddcf e43b 6ec5 4e3d e20a c4bc
00000050: aa63 26bc b561 aa3c efce bcbb e6c2 9c3c
00000060: c807 30bd 3e28 f0bc f31e b43c 1b0b 1c3c
00000070: cb76 32bc a59d 9b3d 4957 68bc 9e15 8a3c
00000080: 1cba a63d 102f 283c 0e1d 0f3d 431e 3abd
00000090: 5331 253c df0b 31bc e425 25bd 93cb e8bc
000000a0: d3eb 56bd a1cd f2bc 345f 02bd 3e86 8abc
000000b0: f817 7f3c 519d 083d 48d7 7cbc c4ca 0fbd
000000c0: 5832 503d 4bf3 46bc 716f 47bd 17ee 133d
000000d0: d0aa 2abd 9112 2dbc a913 b93b e708 e9bc
000000e0: 823c 58bc f124 7bbd 57c5 4bbd 9d8f ccbc
000000f0: 45d7 31bc 3fea c0bc cb99 abbc b7ea 843b
00000100: ad60 bcbb d428 da3c 3ac5 92bc 0338 ae3c
00000110: 272c dfbb d3a6 873c 4f8a 8cbb dad8 d1ba
00000120: 0212 f43b ed7a 823c 6706 95bc 2cc8 eb3c
00000130: 2418 513c f4e7 fe39 0bfa 0c3d b406 debc
00000140: 717e 30bc 273b 88bc 3837 07bd c772 64bd
00000150: dfa1 12bd 2a08 66bd d56b 5c3c 66ee e4bc
00000160: beb2 103d 9df7 32bc 967f 493d 0877 1c3d
00000170: fd19 24bc a4a7 7b3c ecf0 c13c ce08 0fbc
00000180: 6c7d 373d f3bc cc3c 7abe e8bc c2ad 3cbd
00000190: 48d3 393d 21ab 143d 0f72 fe3c f602 1f3d
000001a0: 3b8b 66bc 7feb f83b f76c 38bd d7c6 843d
000001b0: 6d42 cabc 9acf 2c3d b3b7 e6bc ba96 32bb
000001c0: 8366 003c 295b 1fbd 99d6 02bc cf53 f4bb
000001d0: a567 8d3d 04aa 6fbb 07cc 26bc 38a3 37bc
000001e0: 79db 663b 54e1 ea3b 7875 023b 78e4 ae3c
000001f0: 98fc 913b 4517 e1bb a13b 68bd dedb a73c
00000200: 5ab2 c1bb fbba 8ebd 35e1 cfbc 3303 1b3c
00000210: f3c5 613c d51b 153c 74a7 d53c 8edc 593c
00000220: 3e10 613c d233 35bd 4207 8b3d ff1e 53bd
00000230: 5479 52bd c426 093c d2a3 10bc acc2 2fbc
00000240: e296 223b 394f 45bc 658e 95bd 7dbd 923c
00000250: 02e8 15bc 5944 7dbd 8d1c b63b 27e8 3cbb
00000260: 7020 2c3c 3bf6 94bb f37d 0c3d 0ebd caba
00000270: 37d6 c03c abc0 253d e6a4 31bc 8966 c8b9
00000280: a5b4 f03b ea2e d43c 8803 1c3c 1d1f 10bd
00000290: 716e f73c eca8 06bd 6962 17bb 6fc8 2b3d
000002a0: db54 6fbd e588 a33c 235d ec3c 0037 7e3a
000002b0: 926e 373d 2cc9 a63d 1312 64bc 5528 40bd
000002c0: 8ea5 43bc 465a 2b3d 0b74 363c ffcb 69ba
000002d0: 2503 ddbb 9c02 1b3d 966c a83b 94eb 04bd
000002e0: d92b a3bc 97cb b2bc 530b 82bc 16dc ad3c
000002f0: fe9b 5f3d 02dd 03bd 849e f63c 4d0e 073d
00000300: d24c 62bd 8bd6 d13c 8029 bcba ea79 6cbd
00000310: bff8 2ebd bfe7 2bbd 1ae3 ce3b 606a 873c
00000320: ee6f b6bd ab28 b8bc 6820 3fbd 2897 a6bd
00000330: f96e bd3c 8089 41bd 48cd 6e3d 8a0f 0e3c
00000340: 2630 f5bc d8e2 333d 0bed 58bd caaf 6e3c
00000350: ef04 23bb 2a53 bebd fdde 873c 2df2 913d
00000360: 9c54 443c cc62 543b 6c66 fe3b 6fc5 073d
00000370: a32e 8cbc 6153 a0bb 3569 4fbb af38 96bc
00000380: dc4b 9cbc 74bd f7bc 6ee5 5c3d d512 b33c
00000390: afd9 2e3c 95a3 973c eee5 67bd 76b6 af3b
000003a0: d694 793c a9c0 133d cced 0abc 29e9 dcbc
000003b0: 206d 04bd b020 cc3c a7b8 18bd 8b9e cbbc
000003c0: 15e4 213d 4791 6dbd a472 883c 5232 193c
000003d0: d587 30bb bb71 d8bc 995e 82bc 0323 063c
000003e0: 2e27 68bc 7afe 41bc 7995 03bc 0fdf c0bb
000003f0: 543d 0cbd 4ecb 613c d09e 563b b433 0e3d

conv3.bias f4 [128]
-0.014962948 -0.02089931 -0.016829252 0.051512185 -0.026593022 -0.000550081 -0.01751257 0.04684609
-0.020150144 0.016682468 -0.018161518 -0.014732962 0.042383775 -0.0147534115 0.015336773 0.03597683
0.060747564 0.037202504 0.02361876 0.009293331 0.038313106 0.026644077 0.05363437 0.022910671
-0.01893848 0.01509888 0.047185395 0.0070715034 0.024731845 -0.03476079 -0.044529907 0.020767331
-0.026922092 0.027549732 0.009206461 -0.035144705 0.04808492 -0.04710043 0.007166831 0.005312334
0.044268608 -0.012063942 0.012735401 -0.025350235 0.018175015 0.07457959 0.0036052116 0.008051537
0.017901761 0.009864129 -0.019878497 0.0062462725 -0.03827106 0.06489807 -0.0005764259 0.025789153
-0.00020331574 0.061573494 -0.014046432 0.029716685 0.038197666 0.03049652 0.0031844883 -0.003806963
-0.022382712 0.04017588 0.044542596 0.032882262 0.026654154 0.01209784 0.00020651196 0.030685324
-0.00884472 0.005940358 0.026618425 0.05799268 0.04022753 0.05423445 0.019150708 0.025451671
-0.041985992 0.037403442 -6.5499e-05 -0.024983585 0.018503234 -3.4280843e-06 0.049402528 -0.006483786
0.017116744 0.029129146 -0.025107162 0.08038443 -0.008935254 0.023758885 -0.0101113785 -0.011952702
0.013431847 0.02970347 -0.017451452 0.044104446 0.037846286 0.04731706 -0.01916282 -0.0046307873
0.045308065 0.054756716 0.012946093 0.048074044 -0.040598575 0.012028422 0.017394796 0.0042445753
-0.01385817 -0.004138169 0.050856795 0.04842647 0.019993247 -0.007565769 -0.013043111 0.03686087
-0.02389425 0.011409086 -0.009134363 0.0051485705 -0.0138580715 -0.015777586 -0.016280806 0.06271289
00000000: 2727 75bc 0835 abbc 80dd 89bc 71fe 523d
00000010: 9cd9 d9bc 5033 10ba 8576 8fbc b0e1 3f3d
00000020: ea11 a5bc aca9 883c 77c7 94bc 8562 71bc
00000030: 9c9a 2d3d 4bb8 71bc 1747 7b3c 715c 133d
00000040: 70d2 783d a761 183d 217c c13c 0e43 183c
00000050: 34ee 1c3d ae44 da3c b7af 5b3d 29af bb3c
00000060: df24 9bbc 4b61 773c 7945 413d 12b8 e73b
00000070: 709a ca3c 5561 0ebd fe64 36bd 4020 aa3c
00000080: b88b dcbc faaf e13c b2d6 163c e5f3 0fbd
00000090: b1f4 443d 61ec 40bd bcd7 ea3b 1613 ae3b
000000a0: 0053 353d d7a7 45bc 25a8 503c 4cab cfbc
000000b0: c5e3 943c 2fbd 983d 6a45 6c3b 98ea 033c
000000c0: b7a6 923c 289d 213c 3bd8 a2bc 88ad cc3b
000000d0: 1dc2 1cbd 48e9 843d 4a1b 17ba c643 d33c
000000e0: 2731 55b9 7d34 7c3d 0223 66bc 6870 f33c
000000f0: 2875 1c3d d7d3 f93c d9b2 503b 3e7e 79bb
00000100: f35b b7bc 778f 243d 4c72 363d 8daf 063d
00000110: d059 da3c 0536 463c 228b 5839 ca5f fb3c
00000120: 72e9 10bc 56a7 c23b e20e da3c bc89 6d3d
00000130: 9fc5 243d f124 5e3d f2e1 9c3c 0680 d03c
00000140: 81f9 2bbd 5a34 193d 825c 89b8 60aa ccbc
00000150: 1894 973c 0a0e 66b6 4e5a 4a3d f075 d4bb
00000160: 6a38 8c3c 3fa0 ee3c 89ad cdbc 98a0 a43d
00000170: 2c65 12bc fea1 c23c 32aa 25bc 44d5 43bc
00000180: 4011 5c3c b154 f33c 59f6 8ebc dda6 343d
00000190: b504 1b3d 89cf 413d 59fb 9cbc dcbd 97bb
000001a0: f394 393d 9448 603d da1b 543c 4ae9 443d
000001b0: b14a 26bd dc12 453c 887f 8e3c 1416 8b3b
000001c0: 610d 63bc 7a99 87bb 374f 503d d65a 463d
000001d0: e1c8 a33c 45ea f7bb c6b2 55bc 6cfb 163d
000001e0: e0bd c3bc 2ded 3a3c 4ca8 15bc 57b5 a83b
000001f0: f70c 63bc ff3f 81bc 535f 85bc 9e6f 803d

act_conv1.weight f4 [4, 128, 1, 1]
0.005704744 -9.819354e-16 0.00419054 -0.1207026 0.0107974 -0.001533557 0.049151655 0.015309022
0.06896075 -0.10330877 -0.0076321946 0.017819226 -0.12911277 0.010475185 0.029476717 -0.04711428
0.0048843785 -0.061163664 0.027820386 0.008613764 -0.020654265 0.023802824 -0.092643216 0.0052614002
0.016032986 0.035167687 -0.013341305 -0.039302047 -0.0009995439 -0.04119735 -0.022627797 0.035448123
2.4006282e-15 -0.0015811775 -0.026036868 0.049891032 -0.06702475 -0.013567763 -0.0012531414 -0.00052810134
-0.041037723 -0.0072521083 -0.038031463 -0.05392306 -0.008276169 -0.08087412 -0.008094681 -0.07957577
-0.004434203 -0.031206919 0.02950497 0.026296053 -0.012350051 -0.03686633 -0.06275737 0.058206547
-5.0736876e-16 -0.10654816 -0.068560384 -0.016925743 -0.07857234 0.028127382 0.031766955 -5.4093567e-14
0.059794534 -0.048687223 0.039662816 -0.027244542 -0.053804602 -0.0048644575 0.03815194 0.0068862666
-0.03547776 0.07115724 0.04920726 -0.06008025 -0.0068621445 -0.005919328 -0.06285545 -0.02377207
0.006254579 0.033545014 -0.0036242907 -2.8772896e-15 -0.028292706 1.3777951e-14 -0.10601696 0.07212134
0.04263436 -0.006417403 0.010528161 -0.081766374 0.015886711 0.055683203 -0.028584171 0.04773113
-0.042164445 0.04857071 -0.03426099 0.052922122 -0.009252428 0.022915516 -0.008162762 -0.07828867
-0.008619548 0.0017156805 -0.008007393 -0.08882175 0.023628082 0.06159407 -0.031244777 -0.0020434144
9.656804e-15 0.0023785068 -0.029695874 -0.02745696 -0.044062383 0.04012947 0.024662355 -0.012589724
0.07090898 -0.02906194 -0.020673478 -0.09427845 -1.9773736e-13 0.039000712 -2.1487144e-15 -0.012085533
-0.0009807548 0.024302784 -0.061636034 0.04320211 0.11351153 -0.099049985 -0.06091464 0.10854938
0.06697683 -0.10389707 0.009104734 -0.13966364 0.02454196 0.0255258 0.13675645 0.13190797
-0.1860109 -0.043756224 0.010634155 0.013704059 0.05117481 -0.06325621 0.034693953 0.0006833408
0.050561342 0.008186364 -0.00043959144 0.14246799 0.07790224 -0.13204928 -0.020926815 -0.08164901
-0.04227671 0.07679141 0.030683555 0.0037392275 0.15114991 0.13671333 0.013612517 -0.024026273
0.038832664 -0.0011382097 -0.014551725 0.10216181 -0.09519883 0.048275393 -0.040476725 0.0010559505
-0.1380106 -0.04217656 -0.0023393393 -0.0037702115 -0.16150078 0.13522767 0.033653982 -0.049507655
2.365581e-14 0.095244095 0.006255446 0.08069273 0.10839146 0.013720267 -0.027344707 2.7629831e-15
0.0055334284 0.10517066 0.099399686 0.08243873 0.07866545 -0.023291484 -0.044774055 0.11480522
0.1305218 0.094064765 0.090500064 -0.12508495 -0.0029711388 0.01961878 0.11486861 0.16394332
-0.059811827 0.00062609895 -0.02824059 -0.00779371 0.09099567 -3.4418091e-15 0.110469356 -0.09286577
0.09304854 0.0067345235 0.007377538 0.06977717 -0.050222274 -0.07748367 0.08134347 0.09081552
0.10610773 0.017273413 -0.055712655 0.030630032 0.124497525 0.0671554 -0.117532805 0.15410289
0.097996235 -0.025827216 -0.01378705 0.18757635 -0.08228598 -0.004613177 0.10693222 -0.029313909
-4.5538593e-05 0.059401914 0.19964366 -0.15157546 0.042245395 -0.08406408 1.787462e-06 0.08692065
-0.0452363 0.04857754 0.12895952 0.046959378 1.9884386e-05 0.023878478 3.4163957e-05 0.070225544
00000000: dcee ba3b 0683 8da6 cc50 893b ed32 f7bd
00000010: 94e7 303c a201 c9ba 3f53 493d b1d2 7a3c
00000020: 4b3b 8d3d 8c93 d3bd 7d17 fabb a0f9 913c
00000030: 2336 04be 1ca0 2b3c 2879 f13c e7fa 40bd
00000040: 230d a03b c086 7abd 94e7 e33c bf20 0d3c
00000050: 2233 a9bc 24fe c23c babb bdbd d367 ac3b
00000060: 9c57 833c fe0b 103d 7d95 5abc 2ffb 20bd
00000070: 2103 83ba 8dbe 28bd ee5d b9bc 0d32 113d
00000080: c6fb 2c27 833f cfba 454b d5bc 8a5a 4c3d
00000090: 4644 89bd 534b 5ebc 7340 a4ba 4870 0aba
000000a0: 2c17 28bd 18a3 edbb e1c6 1bbd 6dde 5cbd
000000b0: c598 07bc 55a1 a5bd 8e9f 04bc 9ff8 a2bd
000000c0: ca4c 91bb a7a5 ffbc 68b4 f13c d26a d73c
000000d0: de57 4abc 2601 17bd f086 80bd fd69 6e3d
000000e0: 353d 12a6 ec35 dabd 6369 8cbd dba7 8abc
000000f0: 89ea a0bd 656b e63c 111e 023d a39d 73a9
00000100: 1deb 743d 416c 47bd 7a75 223d f22f dfbc
00000110: 3762 5cbd 0766 9fbb 3545 1c3d 31a6 e13b
00000120: 2151 11bd e3ba 913d 8d8d 493d b516 76bd
00000130: d7db e0bb ecf6 c1bb 5cba 80bd a5bd c2bc
00000140: 36f3 cc3b 7f66 093d 8285 6dbb a054 4fa7
00000150: 1bc6 e7bc 9633 7828 6c1f d9bd 5ab4 933d
00000160: 5ea1 2e3d 1449 d2bb 4f7e 2c3c 2175 a7bd
00000170: d924 823c 1214 643d 5a29 eabc b881 433d
00000180: a0b4 2cbd 15f2 463d 4055 0cbd dec4 583d
00000190: 7f97 17bc 52b9 bb3c 1bbd 05bc cf55 a0bd
000001a0: 0139 0dbc afe0 e03a 7131 03bc 2de8 b5bd
000001b0: ae8f c13c 104a 7c3d 0cf5 ffbc ceea 05bb
000001c0: 26f6 2d28 b9e0 1b3b c344 f3bc 6bed e0bc
000001d0: c27a 34bd cd5e 243d b508 ca3c 2145 4ebc
000001e0: ba38 913d 4e13 eebc 6d5b a9bc 0f15 c1bd
000001f0: eaa1 5eaa 36bf 1f3d c9d4 1aa7 6602 46bc
00000200: ac8c 80ba a216 c73c 1176 7cbd b2f4 303d
00000210: bc78 e83d b8da cabd a181 79bd 234f de3d
00000220: 262b 893d fdc7 d4bd 062c 153c fc03 0fbe
00000230: 380c c93c 7c1b d13c e209 0c3e e212 073e
00000240: a479 3ebe ba39 33bd e13a 2e3c fd86 603c
00000250: ad9c 513d 798c 81bd 3f1b 0e3d 3a22 333a
00000260: 6919 4f3d 1920 063c f778 e6b9 21e3 113e
00000270: 368b 9f3d ed37 07be b66e abbc 9937 a7bd
00000280: 582a 2dbd d144 9d3d 145c fb3c d40d 753b
00000290: 0bc7 1a3e 94fe 0b3e 0907 5f3c bfd2 c4bc
000002a0: 000f 1f3d fb2f 95ba 5c6a 6ebc 363a d13d
000002b0: 9bf7 c2bd 6bbc 453d ecca 25bd d267 8a3a
000002c0: a752 0dbe 54c1 2cbd 9a4f 19bb a715 77bb
000002d0: 7660 25be 1f79 0a3e c2d8 093d 8ac8 4abd
000002e0: 9612 d528 560f c33d 7cfa cc3b 3b42 a53d
000002f0: 57fc dd3d f9ca 603c 0202 e0bc 0b18 4727
00000300: c351 b53b b763 d73d 1092 cb3d a3d5 a83d
00000310: 5a1b a13d c8cd bebc 0065 37bd 001f eb3d
00000320: 82a7 053e 07a5 c03d 1958 b93d 4516 00be
00000330: 70b7 42bb 90b7 a03c 3c40 eb3d c2e0 273e
00000340: 3ffd 74bd ca20 243a cf58 e7bc 6162 ffbb
00000350: f05b ba3d 2c02 78a7 c23d e23d 6930 bebd
00000360: 3c90 be3d 47ad dc3b 46bf f13b 55e7 8e3d
00000370: dfb5 4dbd c2af 9ebd 6897 a63d 7dfd b93d
00000380: 024f d93d f980 8d3c f432 64bd d5eb fa3c
00000390: 8ff8 fe3d c588 893d 0ab5 f0bd 26cd 1d3e
000003a0: 40b2 c83d 9993 d3bc 14e3 61bc 0414 403e
000003b0: 8d85 a8bd 222a 97bb 48ff da3d b923 f0bc
000003c0: b100 3fb8 6c4f 733d 636f 4c3e 9936 1bbe
000003d0: 8209 2d3d ca29 acbd bae8 ef35 7403 b23d
000003e0: b349 39bd 3ef9 463d f70d 043e 7a58 403d
000003f0: 65cd a637 cc9c c33c 454b 0f38 69d2 8f3d

act_conv1.bias f4 [4]
-0.019193197 0.066047914 0.0763196 -0.0737828
00000000: 0d3b 9dbc 2144 873d 734d 9c3d 701b 97bd

act_fc1.weight f4 [36, 144]
-0.03076505 -0.047362953 -0.06849553 -0.02110631 -0.03432559 -0.06550376 -0.03025564 -0.057659324
-0.060131717 -0.09832774 -0.033209126 -0.10105513 -0.111104526 -0.08039335 -0.08916587 -0.044990655
-0.04306943 -0.013858431 -0.032804046 -0.037947614 -0.022297528 -0.031887192 0.008418234 -0.021058377
0.0026970934 -0.022191169 -0.07471206 -0.022625757 0.020348566 0.009629022 -0.015712984 -0.03416873
-0.0076431204 -0.016260698 -0.025441796 -0.043473225 0.017364418 0.08461762 0.011533127 0.04752462
0.11088083 0.049804334 -0.054292228 -0.016609322 -0.057020538 0.113050215 0.0151499575 0.020019906
-0.01545936 0.025247598 -0.039733212 -0.018884365 -0.09249178 0.030256953 -0.0010608436 -0.14840208
-0.01332129 0.040547 0.023399184 0.022420252 -0.02732489 0.08052329 0.001653646 -0.057222303
-0.05413128 -0.054013066 -0.015956523 -0.048769202 0.029302986 -0.009280172 -0.13175555 0.02245096
-0.12050782 -0.073507965 -0.09484176 -0.081354 0.03757588 -0.046372686 -0.1197011 -0.1579834
-0.11507341 -0.028582282 -0.05644546 -0.0281683 -0.16563325 -0.09960834 -0.0051677246 -0.064168066
-0.0820099 -0.12522407 0.025150556 -0.13453041 -0.10863344 -0.050433677 -0.05258157 -0.10911882
-0.10257734 -0.02362872 -0.040721968 -0.17438409 -0.059382845 -0.0033917564 -0.041265048 0.001600066
-0.078089304 -0.058579117 -0.082185335 -0.040417973 -0.031992964 -0.043546405 -0.025426801 -0.08284527
-0.0967074 0.01711048 0.030779788 -0.008610239 0.015999021 -0.06299578 -0.04200142 0.023468474
-0.020707864 -0.035596587 -0.006005307 0.047757637 -0.021747725 -0.066663526 -0.0027179131 0.045018807
-0.0018259878 -0.015187462 0.016006341 0.05236417 0.023158874 0.019414928 0.030408936 -0.029325318
-0.062783 -5.2665833e-05 0.06655668 0.018993346 -0.023896037 0.030945018 0.0006693869 -0.018764233
-0.029050754 -0.01727632 0.02135043 -0.034912087 -0.02787662 -0.025997566 -0.02319567 -0.024642795
-0.013770944 -0.015683273 -0.022702096 -0.029946072 -0.012679908 -0.009096835 -0.07156413 -0.023880344
0.014964274 0.0018343913 -0.04506984 -0.018231139 0.020504866 -0.0050616357 -0.059243813 -0.05874825
0.015458806 -0.04062265 0.014798328 0.014421995 -0.0076245996 -0.0499662 -0.010442864 0.0178824
0.020320633 -0.023362493 0.0023915428 -0.034829516 -0.47995752 -0.05823465 -0.19453543 0.16071431
0.113881394 0.24859351 -0.10287911 0.17171547 -0.19225185 -0.11984827 -0.15575047 0.053061295
-0.11452816 -0.03363956 -0.07540326 -0.11829951 -0.04986525 -0.09989603 -0.07102208 0.023758112
-0.048887685 -0.10453379 -0.054656636 -0.04820119 -0.050644286 -0.2061786 -0.05683495 -0.022614298
-0.023385307 -0.117198914 -0.0038786388 -0.026678182 -0.17546298 -0.03338263 -0.10453325 -0.03468927
0.17176944 0.22930993 0.09264262 0.097346015 0.120042846 0.19836104 -0.036686998 -0.008615554
0.06730013 0.12945291 0.07127829 0.03580396 0.057481237 0.05674568 -0.007369033 0.027987367
0.008941818 -0.017436959 0.049061198 0.06972152 -0.027432242 -0.024959387 0.032921832 -0.03733799
0.08078181 0.04608546 0.0146537665 0.06835391 0.015110291 -0.022524906 0.054945193 -0.017232092
-0.046931513 -0.014028803 0.07353139 -0.054535076 0.005579943 -0.044583403 -0.024068963 -0.056420095
00000000: fc06 fcbc a8ff 41bd 6247 8cbd 24e7 acbc
00000010: fd98 0cbd d626 86bd adda f7bc 2f2c 6cbd
00000020: ad4c 76bd 0e60 c9bd 4b06 08bd fef5 cebd
00000030: c58a e3bd 45a5 a4bd 989c b6bd 1f48 38bd
00000040: 9269 30bd 790e 63bc 895d 06bd f56e 1bbd
00000050: 4ea9 b6bc 259c 02bd a2ec 093c 9e82 acbc
00000060: b8c1 303b 41ca b5bc a302 99bd a759 b9bc
00000070: 09b2 a63c 0cc3 1d3c 84b8 80bc 83f4 0bbd
00000080: 2473 fabb 2835 85bc 506b d0bc fb10 32bd
00000090: d33f 8e3c 014c ad3d 71f5 3c3c 2da9 423d
000000a0: 7d15 e33d a1ff 4b3d 8761 5ebd 4610 88bc
000000b0: 5e8e 69bd df86 e73d 8737 783c c900 a43c
000000c0: 4149 7dbc 0dd4 ce3c 4bbf 22bd 62b3 9abc
000000d0: 556c bdbd 6edd f73c 010c 8bba b7f6 17be
000000e0: 8a41 5abc 9c14 263d a5af bf3c adaa b73c
000000f0: 73d8 dfbc 65e9 a43d 27bf d83a ef61 6abd
00000100: c3b8 5dbd ce3c 5dbd 41b7 82bc 37c2 47bd
00000110: d10c f03c dd0b 18bc edea 06be 13eb b73c
00000120: cecc f6bd 588b 96bd 663c c2bd ed9c a6bd
00000130: 2ae9 193d 49f1 3dbd da25 f5bd 67c6 21be
00000140: 9cab ebbd 6425 eabc 5b33 67bd 35c1 e6bc
00000150: c39b 29be 75ff cbbd 0456 a9bb 8c6a 83bd
00000160: cef4 a7bd bd3a 00be 8a08 ce3c 57c2 09be
00000170: 367b debd 8b93 4ebd c65f 57bd b079 dfbd
00000180: 1214 d2bd 0491 c1bc 14cc 26bd be91 32be
00000190: 6d3b 73bd 3b48 5ebb 8a05 29bd 4eb9 d13a
000001a0: 49ed 9fbd a8f0 6fbd c950 a8bd 518d 25bd
000001b0: 0e0b 03bd b75d 32bd de4b d0bc c8aa a9bd
000001c0: 880e c6bd 472b 8c3c e525 fc3c f611 0dbc
000001d0: 6110 833c ee03 81bd ae09 2cbd f540 c03c
000001e0: 8aa3 a9bc bacd 11bd 2bc8 c4bb 839d 433d
000001f0: 4928 b2bc e386 88bd 041f 32bb a465 383d
00000200: fc55 efba d5d4 78bc bb1f 833c d07b 563d
00000210: aeb7 bd3c 0e0c 9f3c 291c f93c a63b f0bc
00000220: 6094 80bd 82e5 5cb8 de4e 883d ef97 9b3c
00000230: 9fc1 c3bc 6880 fd3c cb79 2f3a 73b7 99bc
00000240: d9fb edbc 1287 8dbc 19e7 ae3c faff 0ebd
00000250: 825d e4bc d9f8 d4bc d904 bebc b0df c9bc
00000260: 879f 61bc 357a 80bc bff9 b9bc 7751 f5bc
00000270: 64bf 4fbc e40a 15bc 3790 92bd b6a0 c3bc
00000280: b72c 753c f56f f03a 279b 38bd 7859 95bc
00000290: d2f9 a73c 14dc a5bb a4a9 72bd 01a2 70bd
000002a0: ef46 7d3c f063 26bd b074 723c 3b4a 6c3c
000002b0: c7d7 f9bb 5ca9 4cbd 8c18 2bbc 1c7e 923c
000002c0: 7577 a63c b362 bfbc 6ebb 1c3b 65a9 0ebd
000002d0: febc f5be 7587 6ebd 4c34 47be 4b92 243e
000002e0: a63a e93d 4c8f 7e3e 48b2 d2bd 2ed6 2f3e
000002f0: abdd 44be 0373 f5bd 0d7d 1fbe cd56 593d
00000300: bd8d eabd a3c9 09bd 066d 9abd 0347 f2bd
00000310: 813f 4cbd 4a96 ccbd 0674 91bd 5fa0 c23c
00000320: 743e 48bd d015 d6bd a3df 5fbd 9c6e 45bd
00000330: 6270 4fbd 7c20 53be c4cb 68bd 9f41 b9bc
00000340: 8b92 bfbc fc05 f0bd c330 7ebb 348c dabc
00000350: 91ac 33be 3abc 08bd 8715 d6bd 5616 0ebd
00000360: 54e4 2f3e 39d0 6a3e 6abb bd3d 595d c73d
00000370: 06d9 f53d 281f 4b3e 1b45 16bd 4128 0dbc
00000380: a7d4 893d 4e8f 043e 5afa 913d 2ca7 123d
00000390: 7271 6b3d 286e 683d ee77 f1bb c345 e53c
000003a0: b480 123c f4d7 8ebc 65f4 483d 28ca 8e3d
000003b0: 95b9 e0bc a177 ccbc 0bd9 063d b8ef 18bd
000003c0: ef70 a53d 1bc4 3c3d 5a16 703c 23fd 8b3d
000003d0: 2791 773c 2786 b8bc 360e 613d 512a 8dbc
000003e0: 423b 40bd 11d9 65bc a097 963d 2c60 5fbd
000003f0: f4d7 b63b 169d 36bd 462c c5bc c218 67bd

act_fc1.bias f4 [36]
-0.03085561 0.017675951 -0.035454787 -0.056944624 -0.01495518 -0.078499585 -0.109303065 -0.01741648
0.04884114 -0.017167427 -0.006802639 0.043142624 0.083494976 0.0309449 0.0066559226 -0.008014645
0.021776559 0.04146123 0.026581533 0.019322803 -0.03109453 0.036504447 0.0039115287 0.084643856
-0.024380838 -0.03111557 0.12945265 -0.051551033 0.04351554 -0.015531705 -0.091439866 0.016017998
-0.0030283667 -0.017035045 -0.01673183 0.056186035
00000000: e7c4 fcbc 28cd 903c 0a39 11bd c43e 69bd
00000010: 9206 75bc 64c4 a0bd 49da dfbd 02ad 8ebc
00000020: a60d 483d b4a2 8cbc ace8 debb 52b6 303d
00000030: 6aff aa3d 2980 fd3c ed19 da3b dc4f 03bc
00000040: c164 b23c 40d3 293d 84c1 d93c db4a 9e3c
00000050: f5b9 febc b085 153d 482c 803b c259 ad3d
00000060: 53ba c7bc 14e6 febc 3c8f 043e 2d27 53bd
00000070: 5a3d 323d b178 7ebc d344 bbbd 2d38 833c
00000080: 9077 46bb 148d 8bbc 3111 89bc 5423 663d

val_conv1.weight f4 [2, 128, 1, 1]
-0.08823384 -0.0056793173 0.055886406 -0.092726424 0.053721648 -0.11819859 0.06547065 0.013180962
0.058505856 0.0014280637 0.03741043 -0.038463198 0.0016216977 0.08566455 0.099817045 -0.09840041
0.059495274 -0.07360706 0.049823016 0.044610616 -0.07978036 0.0220337 0.005989787 0.06566795
0.040588364 0.021706387 -0.097586215 -0.005730324 -0.0854239 0.06770503 0.03308442 0.0470599
-0.006139021 0.026868533 -0.04501399 -0.11325792 0.051000945 0.11022385 0.06765898 0.07217574
-0.100139886 -0.014909003 0.012824519 0.024944449 -0.12799019 0.0015463145 -0.04112357 0.017461417
-0.13738038 -0.026949136 -0.03182809 0.013774229 0.0064291563 0.055973437 0.036013108 0.08307005
4.58528e-15 0.011833083 0.061974697 0.059922177 -0.015292081 0.06412413 0.074146815 -0.0003849701
-0.015252947 -0.005264047 0.050406657 0.004845001 -0.116653465 0.0012499312 0.014036548 0.058175195
0.05439943 0.08201368 0.03803203 -0.061895255 -0.0667159 -0.1529635 -0.031067053 0.09898439
-0.06576872 -0.034511786 -0.1782832 -0.0014141154 -0.065506674 -5.749478e-15 -0.11061407 0.10707436
0.09637566 -0.122453846 0.033492684 -0.020230824 -0.022022722 0.07083312 -0.074309826 -0.013096659
-0.0064895935 -0.14273566 0.026173571 -0.025751997 -0.089961536 -0.085803285 0.011284911 -0.037243463
-0.050354525 -0.031732965 0.052618764 -0.0019936138 0.061981544 -0.032923013 0.05192045 0.043778013
6.572343e-14 0.042360082 0.060013108 -0.14610273 0.07616929 0.0074521136 0.008055912 -0.07226443
0.030265033 -0.13775845 0.021777978 0.029370489 0.0001087759 0.01808486 -2.0800182e-06 -0.015874634
0.011654878 0.019888282 -0.028580239 -0.0590775 -0.07150625 0.060996212 0.04165894 0.063443564
0.037625834 -0.0061593046 -0.0032915606 0.046051476 -0.03065305 -0.0057517774 -0.11932028 -0.10074204
-0.097409286 0.035323765 0.023135554 -0.044474617 0.036529347 0.02285912 0.021577477 0.02543659
-0.002479733 -0.08691833 -0.010387711 -0.055420816 -0.026309153 -0.027666107 0.028419426 0.033504758
0.0009235224 0.05249889 0.031021154 -0.0024944013 0.0237181 0.07259622 -0.103055194 -0.07466763
0.03650692 0.038827993 0.02928863 0.058654446 0.053560644 0.0084227035 0.07629274 0.028857471
0.024914635 -0.0076855184 -0.06267108 -0.08171196 0.048367105 -0.0067266016 0.02622812 -0.002044337
1.4341028e-12 -0.03315821 0.0038586864 0.05541784 0.035853963 0.0072100502 0.0048669465 3.2474893e-06
0.019674098 0.04661166 -0.12239392 -0.08377125 0.041484 -0.040697917 -0.016400015 -0.06699145
-0.01657834 -0.15907514 -0.0007013704 -0.006513644 0.045772735 -0.0015270828 0.055078235 -0.09603575
-0.0019835115 -0.07854735 -0.009692007 -0.0035358693 0.031400677 -2.772404e-14 0.0260634 -0.07585525
-0.07379694 0.07370084 -0.060937792 -0.029909935 0.0175399 -0.0036256441 0.064848214 0.038178798
-0.069010295 -0.0012028199 0.033794556 -0.09236731 -0.080798306 0.072030105 0.059793334 0.08177672
0.007978173 -0.08215578 0.08746605 0.039154377 0.052161746 0.004621128 -0.13923612 -0.053834192
-0.00018446895 -0.066114165 -0.030720236 -0.050492667 0.105543196 -0.041206185 -0.0044825156 -0.04002405
-0.049792815 0.0067302124 0.030365104 0.035715476 -0.0011234276 -0.105735414 3.1103898e-06 0.0151163405
00000000: f2b3 b4bd 9119 babb 25e9 643d 5ae7 bdbd
00000010: 3b0b 5c3d 1a12 f2bd 7a15 863d f6f4 573c
00000020: d6a3 6f3d de2d bb3a ae3b 193d 968b 1dbd
00000030: 258f d43a e570 af3d e16c cc3d 2786 c9bd
00000040: 51b1 733d 4cbf 96bd 3813 4c3d 9fb9 363d
00000050: e363 a3bd 0580 b43c fa45 c43b eb7c 863d
00000060: fc3f 263d 98d1 b13c 48db c7bd 71c5 bbbb
00000070: baf2 aebd efa8 8a3d 8783 073d e2c1 403d
00000080: d729 c9bb 661b dc3c 9760 38bd c5f3 e7bd
00000090: 5ee6 503d 0bbd e13d cb90 8a3d e0d0 933d
000000a0: 2416 cdbd e444 74bc ee1d 523c 4d58 cc3c
000000b0: dc0f 03be b4ad ca3a 3071 28bd 3f0b 8f3c
000000c0: 71ad 0cbe 6fc4 dcbc 2c5e 02bd 4ead 613c
000000d0: acab d23b 6744 653d 7b82 133d a120 aa3d
000000e0: be33 a527 8cdf 413c 2ed9 7d3d f570 753d
000000f0: a38b 7abc 8353 833d 49da 973d d0d5 c9b9
00000100: 7fe7 79bc 077e acbb 3677 4e3d d0c2 9e3b
00000110: 03e8 eebd bbd4 a33a 8df9 653c 1d49 6e3d
00000120: f0d1 5e3d caf6 a73d 79c7 1b3d e185 7dbd
00000130: 59a2 88bd 77a2 1cbe 5580 febc 54b8 ca3d
00000140: c0b1 86bd 3b5c 0dbd df8f 36be d759 b9ba
00000150: 5d28 86bd 9325 cfa7 a189 e2bd cd49 db3d
00000160: 9a60 c53d 15c9 fabd a02f 093d 1dbb a5bc
00000170: ff68 b4bc f410 913d c02f 98bd 5f93 56bc
00000180: a8a6 d4bb 4c29 12be f569 d63c daf5 d2bc
00000190: c13d b8bd a2b9 afbd 59e4 383c 9a8c 18bd
000001a0: 8c40 4ebd 6dfa 01bd c686 573d 4aa7 02bb
000001b0: 5ce0 7d3d 48da 06bd 8aaa 543d 9350 333d
000001c0: fafe 9329 c481 2d3d 4ed0 753d f49b 15be
000001d0: a5fe 9b3d dc30 f43b f2fc 033c 60ff 93bd
000001e0: 60ee f73c 8d10 0dbe bb67 b23c 619a f03c
000001f0: 9e1e e438 b326 943c 7196 0bb6 850b 82bc
00000200: 1af4 3e3c c0ec a23c 1b21 eabc 40fb 71bd
00000210: de71 92bd 2ad7 793d 91a2 2a3d b3ee 813d
00000220: 8c1d 1a3d fed3 c9bb 39b7 57bb 79a0 3c3d
00000230: 1b1c fbbc 6879 bcbb 315e f4bd d851 cebd
00000240: 857e c7bd a7af 103d c686 bd3c 042b 36bd
00000250: cc9f 153d 0d43 bb3c 40c3 b03c 6560 d03c
00000260: 0483 22bb 3d02 b2bd 3831 2abc f000 63bd
00000270: 4b86 d7bc 08a4 e2bc dbcf e83c 493c 093d
00000280: 8a18 723a 1309 573d 1320 fe3c 1c79 23bb
00000290: 764c c23c 54ad 943d 9a0e d3bd 58eb 98bd
000002a0: 4888 153d 1a0a 1f3d b5ee ef3c a53f 703d
000002b0: 6862 5b3d 61ff 093c 5e3f 9c3d 8166 ec3c
000002c0: c719 cc3c cdd6 fbbb b259 80bd 9a58 a7bd
000002d0: 961c 463d d36a dcbb 5bdc d63c 49fa 05bb
000002e0: 00d5 c92b e7d0 07bd 04e2 7c3b d1fd 623d
000002f0: 9bdb 123d 4942 ec3b e87a 9f3b 71ef 5936
00000300: 932b a13c deeb 3e3d aaa9 fabd 4390 abbd
00000310: 20eb 293d dcb2 26bd 5359 86bc d032 89bd
00000320: 4dcf 87bc 98e4 22be 2cdc 37ba 6870 d5bb
00000330: 317c 3b3d 6528 c8ba b799 613d 64ae c4bd
00000340: cdfd 01bb 6fdd a0bd 39cb 1ebc 0bba 67bb
00000350: ff9d 003d 49b7 f9a8 e982 d53c ff59 9bbd
00000360: da22 97bd 77f0 963d e899 79bd ae05 f5bc
00000370: d6af 8f3c 379c 6dbb 24cf 843d 5f61 1c3d
00000380: 4555 8dbd f0a7 9dba 296c 0a3d 122b bdbd
00000390: 9579 a5bd 8584 933d dbe9 743d 8e7a a73d
000003a0: e2b6 023c 4a41 a8bd 6721 b33d 5760 203d
000003b0: 8ea7 553d d56c 973b ea93 0ebe 3e81 5cbd
000003c0: 026e 41b9 dd66 87bd 01a9 fbbc 66d1 4ebd
000003d0: 0827 d83d d1c7 28bd 11e2 92bb 42f0 23bd
000003e0: 8df3 4bbd 1d89 dc3b 3dc0 f83c 644a 123d
000003f0: fa3f 93ba cf8b d8bd 17bc 5036 87aa 773c

val_conv1.bias f4 [2]
0.034146152 0.08014604
00000000: d6dc 0b3d 9b23 a43d
