models/Eval/AC_nmcts20/train_080.pth (torch, 424031 bytes, 15 tensors)

conv1.weight f4 [32, 5, 3, 3]
0.020873986 -0.18837163 -0.039128873 0.14545992 -0.26231202 -0.033927064 0.12179039 -0.14484872
0.027089942 0.016681397 -0.017619884 0.15446949 0.09381173 -0.18018638 0.14830409 -0.030231459
-0.008803649 0.10491119 -1.6447485e-13 1.5853638e-15 9.663879e-15 -3.1441465e-13 2.0770363e-14 -6.2578233e-12
2.1146604e-11 -2.0485353e-14 7.4830205e-16 0.101446405 0.013501496 -0.056236204 -0.124834746 -0.17935286
0.0041170456 0.046577975 -0.13473497 0.08975795 3.6556123e-14 5.9156234e-13 4.125462e-15 -2.4141821e-14
-2.293197e-10 5.500775e-14 8.723051e-15 3.9380906e-14 3.944424e-13 -0.05664695 0.2338199 0.08897812
0.12917082 -0.051881775 0.0044132024 0.028853621 0.14882576 0.121462286 0.072628535 -0.15559797
-0.042546485 -0.018500563 0.03094118 0.008633057 -0.023024581 -0.067038074 0.082056426 -7.407868e-13
-1.4903294e-13 1.6207192e-16 -9.820754e-09 -1.353464e-14 2.0507747e-14 -6.9994988e-09 -1.4491944e-14 -4.3309616e-13
-0.12864819 0.19577761 -0.102705866 0.028585017 -0.19309369 -0.091446914 -0.12200727 0.13446419
-0.020735957 8.252189e-14 7.834374e-06 -3.1958548e-13 -1.452619e-14 1.0470207e-12 -4.7060058e-07 -2.8664085e-12
-3.2972585e-09 1.4528057e-13 -0.10399173 0.039147563 0.07424203 0.06411815 0.021190438 0.16268854
-0.1563659 -0.18683113 -0.0060795853 -0.027874097 -0.047060978 -0.08031176 -0.0022021574 -0.019584978
0.11535181 0.19534795 -0.0097937025 0.107389666 3.854719e-11 5.5318085e-12 1.1122843e-13 5.8894705e-15
-1.2963227e-09 -5.917899e-06 -8.5302005e-14 -4.298224e-14 4.5628533e-14 0.07063439 -0.027645878 -0.16122633
-0.045665607 -0.0353967 0.101140976 0.060215976 -0.04097025 0.0515781 -8.997401e-12 3.0876635e-08
3.4177224e-13 -5.4028133e-06 1.5854687e-16 -3.4180168e-06 2.6953415e-09 6.7977088e-15 -1.0992661e-14 0.035589717
-0.10050929 -0.12242295 0.027365766 0.020370994 -0.045009267 0.18094683 0.22854798 0.1713117
0.07093691 0.01708193 -0.093171 -0.048257865 -0.19373958 -0.14746332 0.053455636 0.031707667
-0.15404457 3.838158e-11 6.37087e-15 -4.860007e-13 2.9448883e-14 -8.588009e-12 2.9606716e-12 -1.328347e-13
6.281009e-14 3.5127758e-09 0.035704043 0.13029474 0.040122975 -0.20655371 0.0852038 -0.008897236
0.07214144 0.07977369 0.0060595316 3.5475937e-06 8.30633e-12 -3.628747e-12 2.3594287e-15 6.637862e-12
2.6007029e-14 -5.0797897e-14 1.1383196e-06 1.3807882e-14 0.105162375 -0.08081878 0.10290639 0.030931745
-0.009084837 0.041615322 0.031041019 0.019503227 -0.14895399 0.14881532 -0.16525188 0.113337606
0.07462021 0.051078804 0.13674878 0.09474701 0.045018006 -0.15396102 -1.5386763e-13 4.5183526e-14
4.3524254e-11 -8.186391e-06 3.8035082e-11 1.6162476e-14 1.2333815e-10 -6.330316e-12 4.665809e-16 0.13157277
-0.06550467 0.13472803 -0.0013382942 0.036350314 0.17995542 0.11211715 0.036740605 -0.033790767
-4.3702438e-14 1.030487e-13 3.670655e-14 -3.8215448e-11 -8.976352e-15 -3.746397e-14 -5.6456464e-14 -1.2982031e-10
5.136158e-06 0.07704577 0.14965296 0.14596143 0.15754324 -0.07625987 -0.090005845 0.10169636
0.15829079 -0.11319963 0.08122162 0.123735584 0.056196544 0.04465412 -0.1415647 -0.09800519
0.060727276 -0.10979966 -0.007445506 -1.1414764e-07 3.788822e-13 -4.0083616e-09 -7.289297e-15 -1.05527285e-08
-8.809234e-12 4.1806342e-13 -7.706625e-11 -2.9579104e-12 0.004474807 0.08374149 0.041631203 0.07050561
00000000: ecff aa3c 7ee4 40be 9945 20bd 72f3 143e
00000010: c34d 86be 1bf7 0abd 3d6d f93d 3953 14be
00000020: baeb dd3c 6da7 883c 9357 90bc 402d 1e3e
00000030: 5d20 c03d c782 38be 07dd 173e f7a7 f7bc
00000040: 2e3d 10bc aedb d63d a62e 39aa 9a79 e426
00000050: c716 2e28 edff b0aa 3215 bb28 762d dcac
00000060: eb01 ba2d 0284 b8a8 f2ae 5726 22c3 cf3d
00000070: 6135 5d3c ef57 66bd 5ca9 ffbd 47a8 37be
00000080: 48e8 863b 8cc8 3e3d f7f7 09be 04d3 b73d
00000090: 57a2 2429 8f82 262b aca2 9427 4073 d9a8
000000a0: c223 7caf 9ebb 7729 f923 1d28 185b 3129
000000b0: 240d de2a a206 68bd 7c6e 6f3e 293a b63d
000000c0: 5b45 043e fc81 54bd a09c 903b 6e5e ec3c
000000d0: c865 183e 38c1 f83d 45be 943d 1355 1fbe
000000e0: 3945 2ebd 7e8e 97bc 5c78 fd3c aa71 0d3c
000000f0: 0c9e bcbc 424b 89bd 330d a83d 5183 50ab
00000100: d2cb 27aa 30db 3a25 22b8 28b2 83d1 73a8
00000110: a5b7 b828 3e80 f0b1 2688 82a8 bccf f3aa
00000120: 5abc 03be ed79 483e 7457 d2bd 202b ea3c
00000130: 5aba 45be 8548 bbbd f3de f9bd fbb0 093e
00000140: 74de a9bc a1d2 b929 6170 0337 1fe9 b3aa
00000150: 1dd7 82a8 e55a 932b daa6 fcb4 a0b4 49ac
00000160: fc95 62b1 4692 232a 9ef9 d4bd 3259 203d
00000170: 350c 983d 6050 833d 9297 ad3c d397 263e
00000180: 621e 20be a950 3fbe 4237 c7bb 3858 e4bc
00000190: 03c3 40bd 7e7a a4bd 1252 10bb ad70 a0bc
000001a0: 923d ec3d 4b09 483e c475 20bc 1def db3d
000001b0: 4788 292e 1aa2 c22c d376 fa29 c730 d427
000001c0: 4d2a b2b0 5e92 c6b6 4215 c0a9 2693 41a9
000001d0: 1e7e 4d29 c3a8 903d 9c79 e2bc 8418 25be
000001e0: dc0b 3bbd 21fc 10bd 0023 cf3d 07a5 763d
000001f0: 6cd0 27bd 8f43 533d b148 1ead 389d 0433
00000200: 9266 c02a d049 b5b6 c7ca 3625 1561 65b6
00000210: f338 3931 cce9 f427 b306 46a8 86c6 113d
00000220: d1d7 cdbd e2b8 fabd 2c2e e03c 12e1 a63c
00000230: a35b 38bd 204a 393e 7b08 6a3e 566c 2f3e
00000240: 5f47 913d 67ef 8b3c 70d0 bebd 0aaa 45bd
00000250: ab63 46be a000 17be 4cf4 5a3d e6df 013d
00000260: dcbd 1dbe d1cd 282e e788 e527 0bcc 08ab
00000270: 40a0 0429 f414 17ad b856 502c ff8e 15aa
00000280: 8d6f 8d29 6865 7131 673e 123d fc6b 053e
00000290: fd57 243d d182 53be 547f ae3d b6c5 11bc
000002a0: e4be 933d 6360 a33d 098f c63b 3213 6e36
000002b0: 6220 122d b259 7fac c703 2a27 8c8c e92c
000002c0: 2040 ea28 fdc5 64a9 5dc8 9835 9ebd 7828
000002d0: 5f5f d73d 5184 a5bd 96c0 d23d 9264 fd3c
000002e0: 91d8 14bc d474 2a3d bc49 fe3c 3bc5 9f3c
000002f0: 6587 18be 0b63 183e ca37 29be 8c1d e83d
00000300: 7bd2 983d 0238 513d df07 0c3e b80a c23d
00000310: cd64 383d f5a7 1dbe 533d 2daa 0f7d 4b29
00000320: f46b 3f2e 4858 09b7 b247 272e 2294 9128
00000330: 9a9c 072f 6bba deac 987b 0626 03bb 063e
00000340: 5027 86bd 25f6 093e b469 afba 11e4 143d
00000350: 3c46 383e ad9d e53d 517d 163d 3068 0abd
00000360: 7bd1 44a9 880b e829 c54f 2529 c512 28ae
00000370: 1eb4 21a8 04b9 28a9 df41 7ea9 2bbd 0eaf
00000380: 4357 ac36 2cca 9d3d a03e 193e ea76 153e
00000390: 0453 213e 222e 9cbd fc54 b8bd 2e46 d03d
000003a0: fb16 223e 35d5 e7bd 8557 a63d 1569 fd3d
000003b0: 592e 663d 3de7 363d 56f6 10be f2b6 c8bd
000003c0: 2abd 783d a5de e0bd 6ef9 f3bb 5421 f5b3
000003d0: ae4a d52a ecb9 89b1 f34f 03a8 644b 35b2
000003e0: 43f9 1aad 4a59 eb2a 7178 a9ae fa24 50ac
000003f0: 67a1 923b a980 ab3d 7b85 2a3d 3f65 903d

conv1.bias f4 [32]
0.1231571 0.007951944 -0.039041243 0.08283191 -0.07402182 -0.13891615 -0.03595585 0.10635434
0.07340631 -0.0895725 0.1866052 -0.041046377 0.1742137 0.14979719 -0.111348584 -0.026546152
-0.027322024 -0.06432126 -0.028401325 0.16841228 -0.060642883 0.08030119 0.0065485183 -0.07467164
-0.0799676 0.07596579 -0.115897916 0.16962638 0.12568747 -0.07569824 -0.11125539 0.12310364
00000000: ca39 fc3d df48 023c b6e9 1fbd c7a3 a93d
00000010: c198 97bd 0940 0ebe 7146 13bd 4ed0 d93d
00000020: 0c56 963d c971 b7bd 6f15 3f3e 3f20 28bd
00000030: 1465 323e 6f64 193e ba0a e4bd 5177 d9bc
00000040: 70d2 dfbc ddba 83bd e5a9 e8bc 4574 2c3e
00000050: ac64 78bd f374 a43d f494 d63b 72ed 98bd
00000060: 0ec6 a3bd f493 9b3d e35b edbd 8ab2 2d3e
00000070: 37b4 003e ae07 9bbd ded9 e3bd c31d fc3d

conv2.weight f4 [64, 32, 3, 3]
-0.021932002 0.030469457 -0.008193571 0.033495136 -0.053534072 -0.05371597 -0.051815383 0.011254656
-0.019825535 -0.04691641 -0.035304576 -0.044073716 0.02527341 0.026980883 0.037558615 0.024580777
0.021436205 0.05683866 -0.054907657 -0.040550373 -0.036174178 0.011970985 0.0406685 -0.0038302788
0.0020884443 0.0036245075 -0.053350497 -0.07943481 -0.015104197 0.03090382 -0.0027476603 -0.005134354
-0.0029570262 0.032155585 0.021236567 0.046649113 -0.0036098734 0.03481112 -0.04371064 0.020515487
0.05383202 -0.03445811 -0.0031462356 -0.0019979954 -0.03340548 -0.05027157 -0.02049558 -0.013403215
-0.052925646 -0.031942822 0.0012114818 -0.027261645 0.057635985 0.022544676 -0.013515181 -0.046787344
-0.06794086 -0.00384728 0.027294531 -0.007461771 0.024359917 -0.02812176 -0.035254892 0.018905375
-0.025439544 0.024598174 -0.041286357 0.08408688 0.032483086 0.044184238 -0.01710569 -0.005256306
-0.08546463 -0.0124222245 -3.7448626e-05 -0.063133836 0.03760039 -0.06209841 -0.039069068 0.035857774
0.03807182 -0.003583018 -0.060765557 -0.028371 0.030109458 -0.07266312 -0.040029038 0.039385315
0.0410381 -0.012639011 -0.058186 0.02693314 -0.068579555 -0.06112572 -0.058994662 -0.08456913
-0.04775204 -0.023670267 -0.024726454 0.007156982 0.047719557 -0.021410266 -0.06938367 0.0123284245
0.041487355 -0.026140647 0.024481716 -0.059425406 -0.090375304 -0.032792963 -0.07490481 0.003005053
0.061949782 -0.09287835 -0.04912803 -0.052153103 -0.0022241618 -0.06912434 -0.054230064 0.032384954
-0.06941959 0.03182266 -0.016095366 -0.04550643 0.00847643 -0.012534165 -0.027443303 -0.0016331071
-0.05637087 -0.06520393 -0.030908234 0.013148239 -0.07609771 -0.016289478 0.007563523 -0.04388324
-0.03672127 -0.032604605 -0.042976342 -0.017223952 -0.036845785 -0.020120243 -0.050475102 -0.064883016
0.05521214 -0.03599537 -0.08034223 -0.043810308 -0.05859687 -0.03496737 -0.008382341 0.004498653
-0.029439317 -0.04938227 0.026914002 0.00541082 -0.06744545 -0.008317658 0.061114322 -0.0007682039
0.04360835 -0.06569159 -0.03270084 0.011915927 0.04436478 -0.009242947 -0.054296225 0.0050558047
0.04875154 -0.03359748 0.013856814 0.027703684 -0.07297245 -0.048159264 -0.017174102 0.04592748
-0.029135562 -0.00933991 -0.044531528 -0.09178543 -0.0638768 0.029121278 -0.0054122224 -0.02422427
0.05680733 0.00022643377 0.0020513406 -0.00015307327 -0.03271085 -0.002989119 0.0122792 -0.046325795
-0.018062044 0.0582271 -0.025128204 -0.019211765 -0.08362787 -0.070880465 0.041913416 -0.011029459
-0.013960551 -0.05559369 -0.0347894 -0.005584129 -0.0723549 0.0073010083 -0.05758119 0.037389528
-0.032071285 -0.057584815 0.021263769 0.00045393582 -0.051103227 0.013244953 0.05799735 0.078494385
0.017470423 -0.019457432 0.028382815 -0.04598071 0.02279385 -0.041340936 0.018473629 -0.02738999
-0.031663984 0.008531141 0.044432577 -0.007495826 -0.010113194 -0.032412693 -0.05407925 0.024169719
-0.0025238765 0.02033655 0.00524169 0.036976933 -0.012313281 0.039130062 -0.023193864 0.054611664
0.043044206 -0.021137485 -0.020008033 -0.003005865 -0.066926 -0.023144355 0.009920088 -0.045960046
-0.0057402793 -0.05643111 -0.0320668 -0.045373157 -0.03115805 0.026438424 0.041622225 0.019187318
00000000: beaa b3bc 159b f93c 543e 06bc 3232 093d
00000010: 8b46 5bbd 4705 5cbd 5e3c 54bd 7365 383c
00000020: 2969 a2bc 6c2b 40bd 889b 10bd a486 34bd
00000030: 2f0a cf3c 0307 dd3c 10d7 193d a05d c93c
00000040: fb9a af3c a8cf 683d dae6 60bd 2618 26bd
00000050: 602b 14bd f321 443c 0394 263d 6a05 7bbb
00000060: 48de 083b 2589 6d3b 0d86 5abd b8ae a2bd
00000070: 9877 77bc 022a fd3c 1712 34bb 153e a8bb
00000080: abca 41bb 93b5 033d 4ff8 ad3c 2413 3f3d
00000090: a093 6cbb 1b96 0e3d ee09 33bd 1810 a83c
000000a0: f77e 5c3d f223 0dbd 1331 4ebb cdf0 02bb
000000b0: 2fd4 08bd 90e9 4dbd 59e6 a7bc 2999 5bbc
000000c0: 90c8 58bd 7ad6 02bd 95ca 9e3a d053 dfbc
000000d0: b613 6c3d 9daf b83c c76e 5dbc 16a4 3fbd
000000e0: 9424 8bbd a622 7cbb c898 df3c df81 f4bb
000000f0: 738e c73c 9b5f e6bc 6f67 10bd 72df 9a3c
00000100: 9766 d0bc 1c82 c93c e21b 29bd be35 ac3d
00000110: fc0c 053d 88fa 343d 3b21 8cbc 173d acbb
00000120: 1408 afbd 9686 4bbc 2812 1db8 504c 81bd
00000130: de02 1a3d e75a 7ebd e306 20bd 9adf 123d
00000140: 32f1 1b3d 11d1 6abb 4ee5 78bd 4d6a e8bc
00000150: 1ca8 f63c 67d0 94bd 7df5 23bd 7f52 213d
00000160: 9117 283d db13 4fbc 7154 6ebd e3a2 dc3c
00000170: 7073 8cbd f75e 7abd 63a4 71bd 9432 adbd
00000180: a597 43bd 26e8 c1bc 228f cabc 1e85 ea3b
00000190: 9575 433d 9564 afbc 0719 8ebd 29fd 493c
000001a0: a5ee 293d e924 d6bc e18d c83c 0e68 73bd
000001b0: b016 b9bd ea51 06bd b167 99bd 6cf0 443b
000001c0: 0ebf 7d3d 0137 bebd 793a 49bd 7e9e 55bd
000001d0: 3ec3 11bb 1091 8dbd 5820 5ebd 16a6 043d
000001e0: dc2b 8ebd 7a58 023d 6eda 83bc f364 3abd
000001f0: b9e0 0a3c 195c 4dbc c7d0 e0bc fb0d d6ba
00000200: 24e5 66bd a389 85bd 4433 fdbc b66b 573c
00000210: 1ed9 9bbd 8371 85bc 6ed7 f73b eabe 33bd
00000220: 0b69 16bd 688c 05bd f607 30bd 3f19 8dbc
00000230: 9beb 16bd 35d3 a4bc fbbe 4ebd 63e1 84bd
00000240: 2026 623d e26f 13bd 788a a4bd 7072 33bd
00000250: 4603 70bd f239 0fbd 1656 09bc 7069 933b
00000260: b92a f1bc 1045 4abd c17a dc3c 3f4d b13b
00000270: d720 8abd c946 08bc 0353 7a3d 4b61 49ba
00000280: ab9e 323d 5089 86bd 51f1 05bd 053b 433c
00000290: d8b7 353d bb6f 17bc b865 5ebd 2aab a53b
000002a0: b2af 473d 839d 09bd b107 633c d6f2 e23c
000002b0: 9472 95bd a642 45bd b4b0 8cbc 741e 3c3d
000002c0: b4ad eebc 6c06 19bc b166 36bd 00fa bbbd
000002d0: d7d1 82bd bf8f ee3c 0359 b1bb fa71 c6bc
000002e0: ceae 683d da6e 6d39 c96f 063b 4b82 20b9
000002f0: d0fb 05bd 18e5 43bb b32e 493c 1ec0 3dbd
00000300: daf6 93bc 8a7f 6e3d aad9 cdbc fe61 9dbc
00000310: 1745 abbd c729 91bd 67ad 2b3d e7b4 34bc
00000320: cbba 64bc 36b6 63bd 547f 0ebd 12fb b6bb
00000330: ce2e 94bd 4c3d ef3b 41da 6bbd c325 193d
00000340: 2e5d 03bd 0ede 6bbd 5b31 ae3c 3cfe ed39
00000350: 9e51 51bd 5c01 593c a18e 6d3d aac1 a03d
00000360: 221e 8f3c 3165 9fbc 1483 e83c 4556 3cbd
00000370: 2bba ba3c 1d55 29bd 0256 973c f960 e0bc
00000380: 18b2 01bd 33c6 0b3c effe 353d 8c9f f5bb
00000390: cfb1 25bc 2cc3 04bd 3482 5dbd 93ff c53c
000003a0: 9f67 25bb d698 a63c 7cc2 ab3b 2075 173d
000003b0: a5bd 49bc d846 203d 0f01 bebc 7bb0 5f3d
000003c0: 1f4f 303d 8528 adbc e3e7 a3bc 0cfe 44bb
000003d0: 8010 89bd 3b99 bdbc dd87 223c 9a40 3cbd
000003e0: f418 bcbb 4f24 67bd 7a58 03bd 34d9 39bd
000003f0: 2b3f ffbc 6595 d83c 117c 2a3d b92e 9d3c

conv2.bias f4 [64]
0.023686657 0.009286155 -0.07190251 -0.048372936 -0.015768593 0.07072101 0.06786485 0.022579942
-0.041088447 0.08090258 -0.03737557 -0.033411745 0.055822838 -0.04908887 -0.017482914 -0.0023964325
0.08394252 0.081256226 0.029500289 0.05323813 0.011141823 -0.024720553 0.075796336 0.039108556
0.025897326 0.10002646 -0.015666898 0.06368342 -0.045902856 -0.020957606 0.073061146 0.06977733
0.012703747 -0.025791248 0.0063872547 0.08614255 0.02857269 -0.029970206 0.0032317643 0.08538391
0.04437368 -0.013472187 -0.057263713 -0.011098431 -0.021013374 0.058253843 -0.041855752 0.08950465
0.041676354 -0.060973637 0.043927737 0.077327274 0.066499285 -0.034878 0.031636585 0.07047004
-0.0058345175 0.018171642 -0.032795437 -0.011807138 0.017517168 -0.023443691 -0.051080063 -0.006129351
00000000: 850a c23c f524 183c a041 93bd b322 46bd
00000010: 232d 81bc 2dd6 903d bafc 8a3d 92f9 b83c
00000020: 5c4c 28bd 40b0 a53d 2017 19bd c1da 08bd
00000030: 7da6 643d 6911 49bd 5438 8fbc 770d 1dbb
00000040: 0eea ab3d aa69 a63d 97aa f13c 3a10 5a3d
00000050: 318c 363c c282 cabc 1c3b 9b3d 4b30 203d
00000060: a126 d43c acda cc3d de57 80bc 746c 823d
00000070: a204 3cbd 49af abbc 15a1 953d 6be7 8e3d
00000080: 6023 503c 2b48 d3bc 2d4c d13b 816b b03d
00000090: 4611 ea3c 1484 f5bc 02cc 533b c2dd ae3d
000000a0: 2dc1 353d 73ba 5cbc 5b8d 6abd 32d6 35bc
000000b0: 3d24 acbc 959b 6e3d f070 2bbd 374e b73d
000000c0: d3b4 2a3d 7ebf 79bd 92ed 333d c35d 9e3d
000000d0: c730 883d 3cdc 0ebd 5d95 013d 9952 903d
000000e0: 7b2f bfbb b2dc 943c 8254 06bd ba72 41bc
000000f0: 2a80 8f3c fc0c c0bc 5439 51bd b9d8 c8bb

conv3.weight f4 [128, 64, 3, 3]
0.02238721 0.04168134 -0.00021915529 -0.021469103 -0.020307012 -0.019581271 0.0019323024 -0.00808946
0.005534962 0.009183026 0.008569851 0.023477083 -0.035953175 0.015120148 -0.009225297 -0.035894904
-0.010424489 0.007195631 0.05213136 -0.024740186 -0.010567788 0.021347616 -0.005939692 0.019961523
-0.04434058 -0.030160187 0.0227088 0.008706842 -0.01336054 0.080273405 -0.016097914 0.015212998
0.086969696 0.010630247 0.03587809 -0.045952447 0.011404569 -0.009274584 -0.044886615 -0.027703168
-0.050247803 -0.030647228 -0.038536143 -0.016245324 0.016706057 0.036563713 -0.01778855 -0.035983942
0.052959472 -0.004258521 -0.051206727 0.031134643 -0.046879612 -0.0053072385 0.008858462 -0.025059361
-0.014940797 -0.06249427 -0.04525328 -0.021749726 -0.013844879 -0.025183063 -0.015411544 0.0043209633
-0.0060690395 0.028122794 -0.018881708 0.022254255 -0.0069930563 0.017545078 -0.0045504053 -0.0016740636
0.0079637915 0.016563354 -0.018762486 0.029710282 0.01315533 0.0005044506 0.035753384 -0.028186932
-0.011090398 -0.018045159 -0.031897634 -0.056186825 -0.038213894 -0.0561841 0.013428752 -0.02847892
0.036261838 -0.010806395 0.052273795 0.034061838 -0.008314561 0.015654875 0.022604993 -0.0085384
0.04457299 0.022829134 -0.030680286 -0.052246757 0.050375033 0.035464052 0.029943725 0.038145848
-0.008169153 0.012400431 -0.045470934 0.065462746 -0.027039083 0.04111475 -0.02806004 -0.0027429904
0.0076442906 -0.039996013 -0.010101785 -0.0092837885 0.069014415 -0.0041728574 -0.011501289 -0.013458472
0.0040423987 0.008645717 0.0023636278 0.024556614 0.0055379067 -0.008852051 -0.058768105 0.02229657
-0.0043740706 -0.06961103 -0.020308794 0.013533231 0.012660921 0.008707518 0.024998574 0.01636954
0.014541008 -0.044713933 0.068383545 -0.059059005 -0.055315234 0.009102509 -0.011329512 -0.009996076
0.010745955 -0.010519466 -0.06959566 0.013826429 -0.018230874 -0.06401704 -0.0007631368 -0.007018912
0.009024777 -0.004510599 0.034151968 0.002634503 0.025552496 0.042411868 -0.0078068995 -0.0010761927
0.004232583 0.0247661 0.01093771 -0.034109514 0.032965027 -0.035008594 -0.0011012532 0.042796906
-0.058918666 0.02145144 0.029112605 -0.0032759092 0.046224304 0.085142784 -0.011710525 -0.042437736
-0.0064968998 0.038720295 0.010778921 0.0019354164 -0.0060929 0.042867262 0.00874974 -0.03195291
-0.0178909 -0.018678594 -0.016005648 0.023411822 0.05685887 -0.033630565 0.032873534 0.038954984
-0.057262078 0.028674114 0.0011498712 -0.058962904 -0.04402864 -0.04188822 0.007989056 0.01882045
-0.092284635 -0.01996166 -0.046160582 -0.08493911 0.013656311 -0.05457059 0.057832886 -0.00028510668
-0.031234013 0.05054391 -0.05745752 0.019415304 -0.0016483207 -0.08929079 0.01350129 0.07623857
0.012523681 0.0033856472 0.008331042 0.03521763 -0.018045241 -0.005226478 -0.0034056061 -0.019340193
-0.020242015 -0.03628736 0.050675523 0.026957538 0.011075115 0.017373204 -0.05267659 0.0014929567
0.0076483986 0.03606162 0.00084046077 -0.023281572 -0.03385546 0.014940539 -0.03663298 -0.026980478
0.037013236 -0.06266917 0.020291483 0.010093893 -0.0009342886 -0.02510502 -0.0152286 0.010346626
-0.013879371 -0.011640799 -0.008965108 -0.0069134277 -0.036688205 0.013967147 0.008944057 0.03612636
00000000: 6265 b73c 0eba 2a3d 0dcd 65b9 f9df afbc
00000010: e45a a6bc e768 a0bc 4f45 fd3a a889 04bc
00000020: a05e b53b 6774 163c 8f68 0c3c 0353 c03c
00000030: a343 13bd 7fba 773c b325 17bc 8906 13bd
00000040: 7acb 2abc 54c9 eb3b b187 553d eeab cabc
00000050: 8424 2dbc 32e1 ae3c bfa1 c2bb 5986 a33c
00000060: 789e 35bd 7f12 f7bc ce07 ba3c 24a7 0e3c
00000070: 2be6 5abc 6266 a43d c6df 83bc f03f 793c
00000080: 2b1d b23d 7d2a 2e3c e7f4 123d a238 3cbd
00000090: 3bda 3a3c 6df4 17bc 07db 37bd c1f1 e2bc
000000a0: a4d0 4dbd e50f fbbc 13d8 1dbd ea14 85bc
000000b0: 24db 883c d5c3 153d 4bb9 91bc e663 13bd
000000c0: 08ec 583d 108b 8bbb 25be 51bd 140e ff3c
000000d0: d604 40bd 58e8 adbb 1523 113c 4a49 cdbc
000000e0: 3fca 74bc fef9 7fbd 815b 39bd 7b2c b2bc
000000f0: a2d5 62bc b64c cebc b380 7cbc de96 8d3b
00000100: cbde c6bb c661 e63c d0ad 9abc 8e4e b63c
00000110: 0226 e5bb b2ba 8f3c 911b 95bb 416c dbba
00000120: 907a 023c dfaf 873c c9b3 99bc fa62 f33c
00000130: 7489 573c 1b3d 043a 2472 123d 48e8 e6bc
00000140: 80b4 35bc 71d3 93bc 18a7 02bd 2824 66bd
00000150: 2c86 1cbd 4d21 66bd 4504 5c3c a04c e9bc
00000160: 4b87 143d 4e0d 31bc 0c1d 563d 6d84 0b3d
00000170: cc39 08bc a73e 803c 1b2e b93c a5e4 0bbc
00000180: 2b92 363d 2a04 bb3c 3955 fbbc b200 56bd
00000190: 0d56 4e3d c142 113d 8b4c f53c d23e 1c3d
000001a0: e9d7 05bc 2d2b 4b3c bb3f 3abd 5511 863d
000001b0: 1181 ddbc f167 283d 2bde e5bc bec3 33bb
000001c0: f57c fa3b dcd2 23bd f581 25bc 081b 18bc
000001d0: 6e57 8d3d 77bc 88bb e76f 3cbc ec80 5cbc
000001e0: 1976 843b c4a6 0d3c 18e7 1a3b f42a c93c
000001f0: 5477 b53b 3108 11bc d3b6 70bd 4ca7 b63c
00000200: 5d54 8fbb 3a90 8ebd a15e a6bc 7cba 5d3c
00000210: c06f 4f3c faa9 0e3c cfc9 cc3c 6a19 863c
00000220: 683d 6e3c f525 37bd ac0c 8c3d dbe7 71bd
00000230: 3a92 62bd b122 153c 6b9f 39bc 95c6 23bc
00000240: cd0f 303c d759 2cbc 2b88 8ebd 3f88 623c
00000250: ea58 95bc 5e1b 83bd 3e0d 48ba e7fe e5bb
00000260: a9dc 133c a6cd 93bb efe2 0b3d a0a7 2c3b
00000270: 7853 d13c 11b8 2d3d 05d1 ffbb 090f 8dba
00000280: 7bb1 8a3b 47e2 ca3c 1534 333c 6bb6 0bbd
00000290: 5606 073d 2c65 0fbd ed57 90ba cf4b 2f3d
000002a0: b354 71bd eeba af3c 8f7d ee3c a3b0 56bb
000002b0: b255 3d3d 575f ae3d 80dd 3fbc 31d3 2dbd
000002c0: f2e3 d4bb 2c99 1e3d 129a 303c ccad fd3a
000002d0: f3a6 c7bb 9595 2f3d 125b 0f3c 0ee1 02bd
000002e0: f08f 92bc da03 99bc 471e 83bc 26ca bf3c
000002f0: d9e4 683d 34c0 09bd 66a6 063d 438f 1f3d
00000300: a48b 6abd fae5 ea3c 46b7 963a 1683 71bd
00000310: 6057 34bd fb92 2bbd 88e4 023c 582d 9a3c
00000320: baff bcbd a386 a3bc e112 3dbd 8ef4 adbd
00000330: b8be 5f3c 6985 5fbd 2de2 6c3d 5f7a 95b9
00000340: 79de ffbc 2207 4f3d 9458 6bbd d80c 9f3c
00000350: 770c d8ba 17de b6bd 8434 5d3c f822 9c3d
00000360: 2030 4d3c bce1 5d3b ec7e 083c 5d40 103d
00000370: 9dd3 93bc e042 abbb 9730 5fbb 536f 9ebc
00000380: 95d2 a5bc 0ea2 14bd 2391 4f3d 0ed6 dc3c
00000390: 6674 353c 4052 8e3c 68c3 57bd 50af c33a
000003a0: 6b9f fa3b 59b5 133d 5e52 5c3a ffb8 bebc
000003b0: 06ac 0abd 2ac9 743c 770c 16bd 2a06 ddbc
000003c0: 319b 173d b258 80bd 533a a63c db60 253c
000003d0: 0ceb 74ba 0ba9 cdbc 6181 79bc e584 293c
000003e0: 4d66 63bc 0db9 3ebc 63e2 12bc 098a e2bb
000003f0: 5f46 16bd 76d6 643c 188a 123c 3cf9 133d

conv3.bias f4 [128]
-0.015073237 -0.022758665 -0.022953367 0.05582551 -0.024855208 0.006436437 -0.017552016 0.04994853
-0.020201014 0.0127090365 -0.018334392 -0.010450129 0.040368512 -0.01466894 0.016222818 0.030796332
0.05860488 0.037868872 0.024708262 0.00932538 0.0407877 0.026603961 0.055056714 0.036759514
-0.019028634 0.011574513 0.046942323 0.0024877375 0.019341836 -0.03890621 -0.04776331 0.015424762
-0.028344762 0.03979343 0.011819092 -0.03552562 0.054339428 -0.039330218 0.0065121357 0.003466574
0.04301686 -0.012161794 0.017643645 -0.027393784 0.021272626 0.074803784 0.0039783325 0.008295042
0.018346846 0.0045436304 -0.022461992 0.0035964602 -0.034706607 0.06665303 0.001224889 0.025843948
-0.00038578667 0.05948237 -0.013395957 0.029769368 0.04661944 0.031421997 0.0034526142 -0.0047113267
-0.022300558 0.04562339 0.04596291 0.03283596 0.026074074 0.012238462 0.001405347 0.025779046
-0.00963844 0.0050406465 0.028640067 0.057833556 0.040607598 0.052274626 0.025424194 0.028844478
-0.042744238 0.034707103 -0.0016388047 -0.026361058 0.018182814 -1.1939105e-05 0.048637893 -0.0037440069
0.011381572 0.029585887 -0.02584397 0.0776961 -0.009307167 0.023833487 -0.011224759 -0.007132863
0.010805076 0.028949464 -0.01972663 0.040164623 0.03873649 0.045963272 -0.013213644 -0.0083326725
0.045522407 0.05313552 0.013938791 0.050502986 -0.033052336 0.012085288 0.01842221 0.005602373
-0.016248392 -0.000740285 0.049587693 0.04341517 0.023036016 -0.0076172417 -0.0133777745 0.033769734
-0.023012934 0.00936657 -0.008510406 0.011189129 -0.015415143 -0.01709266 -0.017369064 0.06606962
00000000: bdf5 76bc 6170 babc b308 bcbc 4aa9 643d
00000010: 269d cbbc bfe8 d23b 3fc9 8fbc d496 4c3d
00000020: 997c a5bc 9039 503c 0232 96bc 0537 2bbc
00000030: 7459 253d fe55 70bc b7e5 843c 9748 fc3c
00000040: ac0b 703d 641c 1b3d fb68 ca3c 7bc9 183c
00000050: 0111 273d 8df0 d93c 2683 613d 2591 163d
00000060: f0e1 9bbc 07a3 3d3c 9846 403d 4f09 233b
00000070: c572 9e3c 1e5c 1fbd 76a3 43bd 24b8 7c3c
00000080: 4633 e8bc 70fe 223d dda4 413c 5083 11bd
00000090: 0593 5e3d b918 21bd c163 d53b 762f 633b
000000a0: 7232 303d 4342 47bc 6889 903c ee68 e0bc
000000b0: ee43 ae3c ba32 993d ac5c 823b eee7 073c
000000c0: 204c 963c bce2 943b 3602 b8bc 97b2 6b3b
000000d0: 8428 0ebd 6281 883d 748c a03a b0b6 d33c
000000e0: 6943 cab9 c9a3 733d b77a 5bbc e4de f33c
000000f0: 07f4 3e3d 5ab4 003d 4145 623b 7961 9abb
00000100: a9af b6bc 97df 3a3d 9b43 3c3d 007f 063d
00000110: 4c99 d53c d583 483c 9f33 b83a 942e d33c
00000120: 8cea 1dbc 022c a53b 939e ea3c e1e2 6c3d
00000130: 2754 263d eb1d 563d 6646 d03c 414b ec3c
00000140: 9514 2fbd 0929 0e3d 29cd d6ba 25f3 d7bc
00000150: 20f4 943c 114e 48b7 8738 473d 035e 75bb
00000160: c679 3a3c 1a5e f23c bcb6 d3bc 221f 9f3d
00000170: 167d 18bc 723e c33c 0de8 37bc cbba e9bb
00000180: c607 313c 6d27 ed3c be99 a1bc a983 243d
00000190: 27aa 1e3d fc43 3c3d 0a7e 58bc c385 08bc
000001a0: b475 3a3d a2a4 593d 875f 643c 38dc 4e3d
000001b0: e361 07bd 5f01 463c 2dea 963c 1c94 b73b
000001c0: 591b 85bc af0f 42ba 771c 4b3d 1bd4 313d
000001d0: 07b6 bc3c 0e9a f9bb 742e 5bbc 2252 0a3d
000001e0: 9f85 bcbc 3e76 193c 3b6f 0bbc 9c52 373c
000001f0: cc8f 7cbc e805 8cbc 9149 8ebc 824f 873d

act_conv1.weight f4 [4, 128, 1, 1]
0.0057099587 1.3101614e-14 0.004430425 -0.11886997 0.010822543 -6.0762497e-05 0.049293377 0.015372498
0.069103956 -0.10365007 -0.0093052145 0.017925896 -0.1294204 0.010540254 0.029530833 -0.047160503
0.006863631 -0.060875934 0.027890407 0.008627559 -0.020676767 0.02384799 -0.09312352 0.0059267352
0.016108949 0.03534155 -0.013301302 -0.03907036 -0.0010014916 -0.041497014 -0.022725588 0.035851624
2.2435025e-14 -0.0015985487 -0.026129505 0.049931332 -0.06731347 -0.015006568 -0.0012557129 -8.834923e-05
-0.04086377 -0.00926864 -0.037970822 -0.05437715 -0.0075918282 -0.081157275 -0.008110549 -0.08019869
-0.0023990853 -0.03131191 0.029895311 0.026448922 -0.010312857 -0.036942884 -0.06277478 0.058328662
8.812647e-16 -0.10672243 -0.06943555 -0.01734866 -0.078709535 0.028266013 0.032279376 6.0282194e-13
0.059866644 -0.048932392 0.040939216 -0.024416603 -0.051600445 -0.0049164454 0.03819184 0.0077579306
-0.03554724 0.07230852 0.0493566 -0.059614304 -0.0066589005 -0.005066093 -0.062967345 -0.023406336
0.0068691727 0.033609264 -0.0027053275 -1.3146857e-13 -0.028361665 -1.06601224e-13 -0.10556948 0.07264913
0.04269588 -0.0054272823 0.010830823 -0.08211967 0.016675651 0.055881463 -0.028910311 0.048645966
-0.04123208 0.04906562 -0.034737736 0.054823227 -0.008119632 0.022932732 -0.0070718285 -0.07869678
-0.008569288 0.0017182884 -0.005409523 -0.08912294 0.02366708 0.06177904 -0.029922158 -0.0016312337
3.0412217e-14 0.0023992734 -0.028517602 -0.024671419 -0.041986458 0.04025941 0.026744723 -0.012632172
0.07223096 -0.02909216 -0.02045838 -0.0947398 2.0764222e-12 0.040391304 -1.8255995e-15 -0.012137612
-0.003885374 0.027981533 -0.057721417 0.043944642 0.106438994 -0.099316105 -0.061260328 0.10144269
0.067172 -0.09840068 0.009119656 -0.14463845 0.026974041 0.02514857 0.124798775 0.12530158
-0.18200418 -0.04247855 0.009424522 0.013761294 0.048864044 -0.064092316 0.037474178 -0.03570505
0.05129364 0.00868078 0.00096722424 0.13964991 0.07868183 -0.13030754 -0.0061777984 -0.074254245
-0.046389643 0.07411227 0.028909372 0.0059406008 0.14696516 0.1270644 0.012183072 -0.02271339
0.034405332 -0.0011568984 -0.030377561 0.08716707 -0.0950035 0.049552348 -0.04283704 0.0028520129
-0.13579848 -0.03536517 -0.000116117895 0.005530068 -0.1565743 0.13241245 0.025640529 -0.04980553
1.6211189e-12 0.09405257 0.007085472 0.08086084 0.10645739 0.011555848 -0.02764961 3.5519212e-14
0.005558375 0.10227946 0.098583885 0.08094742 0.07795666 -0.02640277 -0.046872914 0.11053292
0.13346137 0.09082995 0.086859494 -0.12328607 -0.0019781117 0.019457666 0.11345348 0.15520115
-0.058821548 0.005195022 -0.027018914 -0.009510231 0.08742755 1.0416455e-13 0.10847943 -0.07371047
0.0934562 0.004908078 0.0065574287 0.07128045 -0.047432262 -0.07817754 0.07055493 0.08573854
0.10367596 0.016192568 -0.052901823 0.030700697 0.12469497 0.06655156 -0.119706355 0.15065761
0.09762469 -0.020862363 -0.017978862 0.18516839 -0.09570417 -0.004726243 0.106913954 -0.027948422
-9.989103e-05 0.05918488 0.19738272 -0.1495414 0.035085723 -0.085367106 4.833622e-06 0.08933771
-0.04025697 0.048272084 0.124034315 0.044900466 6.295276e-05 0.026185421 8.97523e-05 0.069762185
00000000: 9b1a bb3b 8804 6c28 192d 913b 1972 f3bd
00000010: 0951 313c 3cdb 7eb8 dae7 493d eedc 7b3c
00000020: 6086 8d3d 7d46 d4bd e674 18bc 54d9 923c
00000030: c886 04be 08b1 2c3c a5ea f13c 5f2b 41bd
00000040: 4fe8 e03b 0b59 79bd 6c7a e43c 9b5a 0d3c
00000050: 5362 a9bc dc5c c33c 8bb7 bebd 0f35 c23b
00000060: eaf6 833c 4dc2 103d b4ed 59bc 3e08 20bd
00000070: 7b44 83ba c6f8 29bd 032b babc 27d9 123d
00000080: a513 ca28 6586 d1ba 8b0d d6bc cc84 4c3d
00000090: a5db 89bd 1cde 75bc bc96 a4ba 2248 b9b8
000000a0: c560 27bd 7edb 17bc 4b87 1bbd 93ba 5ebd
000000b0: dfc4 f8bb c935 a6bd 1ce2 04bc 363f a4bd
000000c0: f939 1dbb eb40 00bd 03e7 f43c 69ab d83c
000000d0: 42f7 28bc 6c51 17bd 1090 80bd 09ea 6e3d
000000e0: dc01 7e26 4a91 dabd 3a34 8ebd c71e 8ebc
000000f0: 7732 a1bd 208e e73c 6137 043d e6ad 292b
00000100: ba36 753d 556d 48bd e1af 273d 5405 c8bc
00000110: fd5a 53bd 221a a1bb 0c6f 1c3d 3d36 fe3b
00000120: fc99 11bd 7d16 943d 252a 4a3d 212e 74bd
00000130: e832 dabb 7801 a6bb 06f5 80bd a5be bfbc
00000140: cc16 e13b dea9 093d dd4b 31bb 3c05 14aa
00000150: b956 e8bc 6c0b f0a9 d034 d8bd 11c9 943d
00000160: e0e1 2e3d 58d7 b1bb c473 313c 5c2e a8bd
00000170: 609b 883c f6e3 643d 51d5 ecbc fe40 473d
00000180: f8e2 28bd 08f9 483d 2849 0ebd 528e 603d
00000190: 3408 05bc 6ddd bb3c ccba e7bb c72b a1bd
000001a0: 3366 0cbc 3138 e13a 5e42 b1bb 1786 b6bd
000001b0: 77e1 c13c 050c 7d3d 501f f5bc 1fcf d5ba
000001c0: e6f6 0829 213d 1d3b bf9d e9bc b71b cabc
000001d0: fef9 2bbd 0de7 243d c017 db3c 2bf7 4ebc
000001e0: d3ed 933d ae52 eebc 5598 a7bc f106 c2bd
000001f0: 7f1d 122c 5a71 253d 5e8c 03a7 d6dc 46bc
00000200: c2a1 7ebb 8739 e53c 4b6d 6cbd 4cff 333d
00000210: b0fc d93d 3e66 cbbd 1cec 7abd 2fc1 cf3d
00000220: 7991 893d 4c86 c9bd 9c6a 153c 1a1c 14be
00000230: aaf8 dc3c 6004 ce3c 8096 ff3d 0f4f 003e
00000240: 4e5f 3abe fdfd 2dbd 4f69 1a3c 0d77 613c
00000250: aa25 483d d542 83bd 867e 193d 753f 12bd
00000260: 4819 523d d539 0e3c 528d 7d3a 6300 0f3e
00000270: f023 a13d 576f 05be 216f cabb 9c12 98bd
00000280: 1103 3ebd 2cc8 973d 59d3 ec3c 5fa9 c23b
00000290: 097e 163e 2c1d 023e 829b 473c 6e11 babc
000002a0: 9bec 0c3d 12a3 97ba 5dda f8bc a684 b23d
000002b0: 3291 c2bd 67f7 4a3d e475 2fbd d6e8 3a3b
000002c0: c20e 0bbe 12db 10bd 5284 f3b8 9335 b53b
000002d0: 0355 20be 2197 073e 160c d23c e200 4cbd
000002e0: f726 e42b a29e c03d 3f2d e83b 5e9a a53d
000002f0: 5506 da3d bd54 3d3c 6f81 e2bc ddf6 1f29
00000300: 0723 b63b e577 d13d 59e6 c93d c3c7 a53d
00000310: bea7 9f3d 9f4a d8bc d0fd 3fbd 155f e23d
00000320: 19aa 083e 0e05 ba3d 64e3 b13d 687d fcbd
00000330: 35a3 01bb af65 9f3c 4c5a e83d 0ded 1e3e
00000340: ddee 70bd 013b aa3b c556 ddbc cdd0 1bbc
00000350: 370d b33d c68e ea29 772a de3d 84f5 96bd
00000360: f765 bf3d f1d3 a03b b3df d63b 7cfb 913d
00000370: 5548 42bd 8c1b a0bd 1a7f 903d b097 af3d
00000380: 1054 d43d 47a6 843c 95af 58bd 0780 fb3c
00000390: 1460 ff3d 2f4c 883d 9b28 f5bd fd45 1a3e
000003a0: 74ef c73d 8ce7 aabc 6848 93bc c89c 3d3e
000003b0: 8c00 c4bd 9ade 9abb b4f5 da3d 17f4 e4bc
000003c0: 977c d1b8 d86b 723d b21e 4a3e 6121 19be
000003d0: 0cb6 0f3d f3d4 aebd 7f30 a236 b0f6 b63d
000003e0: 7ee4 24bd f3b8 453d b405 fe3d 8de9 373d
000003f0: 8105 8438 cf82 d63c 6639 bc38 7adf 8e3d

act_conv1.bias f4 [4]
-0.018852487 0.06528801 0.07629047 -0.07208977
00000000: 8870 9abc b8b5 853d 2e3e 9c3d cda3 93bd

act_fc1.weight f4 [36, 144]
-0.031939063 -0.049131352 -0.0714628 -0.022749523 -0.035099056 -0.06660684 -0.030797642 -0.059915643
-0.060386438 -0.10013522 -0.03387811 -0.10347173 -0.112871684 -0.08126193 -0.090479046 -0.046123724
-0.04395517 -0.01405529 -0.033354256 -0.0388382 -0.022487577 -0.032198858 0.008525323 -0.02138673
0.0027592275 -0.022584667 -0.07612721 -0.023189552 0.020577066 0.009755196 -0.01601906 -0.035010684
-0.0082448 -0.017200213 -0.026808126 -0.045667734 0.023957381 0.083847456 -0.004752981 0.053672202
0.102337256 0.058459897 -0.039023984 -0.024114223 -0.061806194 0.104144596 0.022343373 -0.00028247386
0.00014097337 0.021839105 -0.030706355 -0.03423598 -0.08575918 0.016769802 0.0012008641 -0.1347232
-0.004708093 0.0569179 0.019248279 0.021089984 -0.037613742 0.07652911 -0.005317133 -0.04942382
-0.035999868 -0.04610498 -0.002786683 -0.06130038 0.04859396 -0.018041085 -0.12674686 0.024235358
-0.09398051 -0.057430085 -0.10251985 -0.08123663 0.03675983 -0.042902656 -0.102081314 -0.17159443
-0.11960418 -0.04307192 -0.04608845 -0.029960977 -0.16150816 -0.10031371 -0.0060322783 -0.09704806
-0.085048616 -0.13544366 0.037360948 -0.13224368 -0.09985782 -0.04808866 -0.053250253 -0.12737103
-0.09351633 -0.018413061 -0.029987494 -0.17086363 -0.053608935 -0.0036578728 -0.033906903 -0.013303614
-0.06605224 -0.07298489 -0.07592992 -0.03535622 -0.035668492 -0.045200363 -0.02591797 -0.08367776
-0.099866726 0.01729877 0.030967407 -0.0086599495 0.016503725 -0.06377513 -0.042294808 0.02388328
-0.02137806 -0.036005612 -0.0059236703 0.047926 -0.022463566 -0.06725543 -0.0027264403 0.04517329
-0.0018788436 -0.015246801 0.016046787 0.052521937 0.023926042 0.019513587 0.0305035 -0.02967014
-0.06538086 -5.295564e-05 0.06674737 0.019066667 -0.026328987 0.031172607 0.0006727198 -0.015261665
-0.02926835 -0.017372351 0.021477902 -0.035276793 -0.0280065 -0.026091814 -0.023291962 -0.024856253
-0.013819312 -0.01572874 -0.022777632 -0.03014731 -0.012723969 -0.009120102 -0.07180335 -0.024040889
0.015013062 0.0018387691 -0.045217182 -0.018354885 0.020564847 -0.0050752005 -0.05947067 -0.059204273
0.015521309 -0.04075861 0.014855075 0.014533827 -0.0076719495 -0.050185706 -0.010500314 0.018069573
0.020663 -0.023686834 0.0024264217 -0.035687167 -0.46637583 -0.044611312 -0.19440028 0.1631585
0.11725411 0.24430922 -0.09723623 0.16497427 -0.1881938 -0.11367977 -0.13472041 0.046107307
-0.09683021 -0.05339524 -0.07673062 -0.12651248 -0.045328613 -0.08065368 -0.055553123 0.029637318
-0.055483256 -0.11124783 -0.07669762 -0.052759804 -0.04755355 -0.17811419 -0.04900793 -0.01624288
-0.023177188 -0.12022569 -0.0056893867 -0.025601437 -0.18329097 -0.019512987 -0.10570149 -0.033536535
0.17739345 0.23002063 0.08404883 0.09054278 0.12380941 0.19410881 -0.041221786 -0.013400754
0.06445332 0.124942906 0.067955956 0.032133076 0.058208868 0.040545225 -0.010808317 0.026443735
0.007705055 -0.024042957 0.049642123 0.065159574 -0.026542593 -0.029342653 0.029470861 -0.03292423
0.08230667 0.056491304 0.014811196 0.06396609 0.014035502 -0.02278603 0.055353835 -0.014160016
-0.053749632 -0.01329188 0.068551734 -0.06073404 0.0057415324 -0.045287956 -0.02449372 -0.057452787
00000000: 89d2 02bd f53d 49bd 175b 92bd 355d babc
00000010: 07c4 0fbd 2b69 88bd 564b fcbc 1b6a 75bd
00000020: c557 77bd b213 cdbd c6c3 0abd fde8 d3bd
00000030: 4529 e7bd a86c a6bd 144d b9bd 3bec 3cbd
00000040: 560a 34bd 2948 66bc 799e 08bd ce14 1fbd
00000050: de37 b8bc f3e2 03bd ccad 0b3c 3933 afbc
00000060: 28d4 343b 7b03 b9bc 95e8 9bbd 04f8 bdbc
00000070: 3c91 a83c 42d4 1f3c 673a 83bc 5d67 0fbd
00000080: 3315 07bc 76e7 8cbc b79c dbbc 170e 3bbd
00000090: 4542 c43c 37b8 ab3d e5be 9bbb 62d7 5b3d
000000a0: 3296 d13d a573 6f3d 9dd7 1fbd 318b c5bc
000000b0: 7e28 7dbd c349 d53d 7309 b73c 0019 94b9
000000c0: 40d2 1339 ece7 b23c e58b fbbc 073b 0cbd
000000d0: 82a2 afbd d360 893c 5066 9d3a e1f4 09be
000000e0: 5946 9abb be22 693d 91ae 9d3c e7c4 ac3c
000000f0: de10 1abd 4bbb 9c3d 583b aebb a270 4abd
00000100: 9974 13bd 93d8 3cbd c8a0 36bb 1b16 7bbd
00000110: 760a 473d e6ca 93bc eec9 01be 3b89 c63c
00000120: db78 c0bd cf3b 6bbd edf5 d1bd 645f a6bd
00000130: 7a91 163d b2ba 2fbd 0210 d1bd 73b6 2fbe
00000140: 09f3 f4bd 2e6c 30bd 3ec7 3cbd b970 f5bc
00000150: 6562 25be 4671 cdbd 6baa c5bb 22c1 c6bd
00000160: f82d aebd beb1 0abe cb07 193d e36a 07be
00000170: 4282 ccbd 9df8 44bd f01c 5abd 8d6d 02be
00000180: 7d85 bfbd fdd6 96bc 55a8 f5bc e0f6 2ebe
00000190: 0b95 5bbd ecb8 6fbb f7e1 0abd 67f7 59bc
000001a0: 6646 87bd 1a79 95bd 2581 9bbd afd1 10bd
000001b0: 2019 12bd 0424 39bd ec51 d4bc 3f5f abbd
000001c0: ed86 ccbd 26b6 8d3c 5caf fd3c 76e2 0dbc
000001d0: d232 873c 899c 82bd 523d 2dbd dea6 c33c
000001e0: 0b21 afbc 9f7a 13bd 591b c2bb 0e4e 443d
000001f0: 8305 b8bc 37bd 89bd 14ae 32bb a107 393d
00000200: 8843 f6ba b8cd 79bc 8d74 833c 3e21 573d
00000210: 8c00 c43c f5da 9f3c 7ae2 f93c cb0e f3bc
00000220: 66e6 85bd af1c 5eb8 d8b2 883d b331 9c3c
00000230: e3af d7bc b25d ff3c 7659 303a 100c 7abc
00000240: 2ec4 efbc 7650 8ebc 6df2 af3c 667e 10bd
00000250: e36d e5bc 80be d5bc c9ce bebc 579f cbbc
00000260: 656a 62bc 8fd9 80bc 2898 babc 7ef7 f6bc
00000270: 3278 50bc 7b6c 15bc a20d 93bd 66f1 c4bc
00000280: 59f9 753c da02 f13a a735 39bd fc5c 96bc
00000290: 9c77 a83c de4d a6bb 8497 73bd 2e80 72bd
000002a0: 174d 7e3c 80f2 26bd b362 733c 4a1f 6e3c
000002b0: fa64 fbbb 878f 4dbd 8209 2cbc a406 943c
000002c0: 7445 a93c e40a c2bc 9a04 1f3b b52c 12bd
000002d0: d0c8 eebe 5aba 36bd de10 47be 0613 273e
000002e0: ec22 f03d 322c 7a3e ca23 c7bd 04ef 283e
000002f0: e0b5 40be f0d0 e8bd 26f4 09be 04db 3c3d
00000300: eb4e c6bd f8b4 5abd f124 9dbd 7d8c 01be
00000310: 7faa 39bd c22d a5bd ac8b 63bd f6c9 f23c
00000320: 6942 63bd e7d5 e3bd a413 9dbd aa1a 58bd
00000330: 83c7 42bd 9163 36be 8abc 48bd ca0f 85bc
00000340: 16de bdbc e338 f6bd 096e babb 1bba d1bc
00000350: a1b0 3bbe b3d9 9fbc 067a d8bd 9b5d 09bd
00000360: a1a6 353e 878a 6b3e cb21 ac3d 7e6e b93d
00000370: ca8f fd3d 76c4 463e 2dd8 28bd d68e 5bbc
00000380: 1a00 843d 11e2 ff3d 7e2c 8b3d f99d 033d
00000390: 6c6c 6e3d c012 263d 5e15 31bc 88a0 d83c
000003a0: b07a fc3b bcf5 c4bc 8a55 4b3d 6272 853d
000003b0: da6f d9bc 0160 f0bc e06c f13c 8fdb 06bd
000003c0: 6690 a83d 6d63 673d a9aa 723c a700 833d
000003d0: 2af5 653c c5a9 babc b4ba 623d 69ff 67bc
000003e0: 9328 5cbd 2fc6 59bc da64 8c3d 42c4 78bd
000003f0: 7723 bc3b dd7f 39bd 0ea7 c8bc 9d53 6bbd

act_fc1.bias f4 [36]
-0.028842427 0.020144952 -0.03584804 -0.05308532 -0.015658243 -0.07848238 -0.10903217 -0.014301159
0.041460276 -0.010974594 -0.015883034 0.04323411 0.08998879 0.037656568 0.005267569 -0.006502247
0.024155261 0.041816987 0.028709168 0.017475236 -0.0333781 0.03885609 0.0036960861 0.08432279
-0.02851142 -0.03523325 0.1282886 -0.05440044 0.044100184 -0.015228283 -0.108661555 0.012910019
0.008144826 -0.015093645 -0.013641458 0.048610747
00000000: f446 ecbc 0707 a53c 65d5 12bd fe6f 59bd
00000010: b745 80bc 5fbb a0bd 424c dfbd 694f 6abc
00000020: 40d2 293d c9ce 33bc 231d 82bc 4016 313d
00000030: 0b4c b83d c63d 1a3d 929b ac3b cd10 d5bb
00000040: 41e1 c53c 4a48 2b3d 7d2f eb3c 3a28 8f3c
00000050: 79b7 08bd 9027 1f3d 093a 723b 6db1 ac3d
00000060: c890 e9bc be50 10bd 165e 033e ffd2 5ebd
00000070: 65a2 343d 0c80 79bc f389 debd 8b84 533c
00000080: e071 053c 564b 77bc 6c80 5fbc 101c 473d

val_conv1.weight f4 [2, 128, 1, 1]
-0.0884227 -0.0062411414 0.05569077 -0.089121595 0.057118036 -0.118335016 0.06558135 0.014053373
0.058602788 0.0013639155 0.03748607 -0.038488608 0.002394468 0.085844435 0.10225917 -0.09449639
0.06015912 -0.07363135 0.049888674 0.04467645 -0.07846485 0.022095146 0.006392376 0.06618442
0.040661287 0.025652852 -0.097186394 -0.0022674752 -0.082460105 0.06807656 0.033148747 0.047136527
-0.007467702 0.026723772 -0.04476404 -0.11356329 0.052621845 0.11072137 0.068071306 0.07370868
-0.09842212 -0.0150453625 0.013401695 0.024982141 -0.12807901 0.002263937 -0.041050643 0.01783472
-0.13731115 -0.026933752 -0.028682198 0.015797209 0.0063800365 0.05800959 0.036654122 0.08320776
2.0030498e-14 0.013375183 0.062436406 0.060025662 -0.014017365 0.06444864 0.074635655 -0.00076037546
-0.015327957 -0.0046508685 0.055121716 0.00903715 -0.113823175 0.001266159 0.014050368 0.06256743
0.056772858 0.08508985 0.038433813 -0.06191614 -0.06669029 -0.15027969 -0.030065753 0.10165838
-0.0654547 -0.03407788 -0.17668809 -0.002065949 -0.063129015 2.6201897e-14 -0.107195005 0.110422246
0.09842891 -0.12022675 0.034671944 -0.019011471 -0.02188582 0.07099125 -0.07501754 -0.013107119
-0.0032256783 -0.14066556 0.026325198 -0.020725725 -0.08472558 -0.085922 0.011391034 -0.03497804
-0.048098456 -0.03132329 0.05405827 -0.0006505297 0.062380243 -0.033260442 0.054987673 0.04472863
8.8497596e-13 0.043381687 0.06242028 -0.14511494 0.07816958 0.007629969 0.008322607 -0.07079541
0.032337178 -0.13622835 0.024769139 0.029837644 0.00026692828 0.025846679 -9.099091e-06 -0.0148550505
0.006753857 0.021291707 -0.051724307 -0.06385615 -0.0800901 0.05518196 0.04174316 0.07445158
0.037727393 -0.008273392 -0.0032941985 0.043375984 -0.031370416 -0.005769675 -0.12095678 -0.09894115
-0.094577655 0.032375507 0.022824157 -0.04459922 0.033116955 0.022808924 0.021094419 0.07262059
-0.0024907843 -0.07331265 -0.016390884 -0.054240264 -0.0457193 -0.01894297 0.019083891 0.023412615
0.0009840486 0.05390679 0.030407954 -0.011476657 0.028866969 0.07573122 -0.103034586 -0.073150836
0.033424847 0.03901919 0.03769347 0.06324233 0.048617274 0.008720728 0.07505938 0.02684154
0.020237338 -0.013383514 -0.047444038 -0.08775798 0.03881982 -0.0026006014 0.0341971 -0.0020511146
1.4435694e-11 -0.036065392 0.0038833923 0.055450846 0.038501516 0.008007541 0.004163409 1.10145e-05
0.019756524 0.044706147 -0.12490682 -0.09104539 0.037359755 -0.041273817 -0.016145349 -0.058814935
-0.009504926 -0.15436152 0.016730735 -0.009976545 0.044014987 -0.011274932 0.057342645 -0.094199054
-0.0066915494 -0.08283829 -0.02282788 -0.0040976126 0.034212977 2.003691e-12 0.023779703 -0.07175331
-0.068458594 0.06986468 -0.060681853 -0.03301278 0.0049872496 -0.0036379723 0.059827466 0.038942773
-0.0731032 -0.0092678955 0.036772717 -0.09727757 -0.08463645 0.07223326 0.060496632 0.08695979
0.0076252758 -0.085584536 0.092388935 0.04076325 0.056216255 0.004648356 -0.14195137 -0.05508717
-0.00039783432 -0.07819299 -0.032144442 -0.06334199 0.10923412 -0.041486457 -0.004703339 -0.056963768
-0.06842947 -0.0015803028 0.040065803 0.03885499 -0.0019573297 -0.13484974 6.948694e-06 0.0013823619
00000000: f616 b5bd 7d82 ccbb 011c 643d 6285 b6bd
00000010: 9af4 693d a159 f2bd 844f 863d 1e40 663c
00000020: 7a09 703d 69c5 b23a fe8a 193d 3ba6 1dbd
00000030: 82ec 1c3b 35cf af3d 416d d13d 5387 c1bd
00000040: 6969 763d 09cc 96bd 1158 4c3d a7fe 363d
00000050: 2eb2 a0bd e100 b53c 2377 d13b b28b 873d
00000060: 738c 263d ee25 d23c a909 c7bd ec99 14bb
00000070: d8e0 a8bd b96b 8b3d fbc6 073d 3b12 413d
00000080: a0b3 f4bb d0eb da3c 7f5a 37bd df93 e8bd
00000090: 018a 573d e3c1 e23d f868 8b3d 94f4 963d
000000a0: 8991 c9bd d380 76bc c892 5b3c 59a7 cc3c
000000b0: 2527 03be 8f5e 143b b824 28bd 1e1a 923c
000000c0: 4b9b 0cbe 2ca4 dcbc eef6 eabc 2669 813c
000000d0: a00f d13b 779b 6d3d a222 163d d468 aa3d
000000e0: 2f6b b428 9523 5b3c 51bd 7f3d 78dd 753d
000000f0: 17a9 65bc a6fd 833d 94da 983d ef53 47ba
00000100: 1d22 7bbc 5066 98bb 4fc7 613d 8e10 143c
00000110: 201c e9bd 3ff5 a53a 8433 663c 5a23 803d
00000120: a88a 683d 9643 ae3d c66c 1d3d c79b 7dbd
00000130: eb94 88bd ebe2 19be 744c f6bc 4532 d03d
00000140: 1d0d 86bd 3f95 0bbd b9ed 34be df64 07bb
00000150: c949 81bd 7601 ec28 0e89 dbbd 0f25 e23d
00000160: 1995 c93d 7139 f6bd 2b04 0e3d f2bd 9bbc
00000170: e449 b3bc dc63 913d cca2 99bd 3ebf 56bc
00000180: e765 53bb a20a 10be f1a7 d73c ffc8 a9bc
00000190: 9b84 adbd e0f7 afbd 76a1 3a3c 2245 0fbd
000001a0: e302 45bd da4c 00bd 346c 5d3d 4f88 2aba
000001b0: 6d82 7f3d 1a3c 08bd c13a 613d 5e35 373d
000001c0: 3d19 792b ffb0 313d 68ac 7f3d 0399 14be
000001d0: 5f17 a03d d204 fa3b 8b5b 083c 2ffd 90bd
000001e0: fd73 043d 727f 0bbe a6e8 ca3c 136e f43c
000001f0: 82f2 8b39 6abc d33c 4ca8 18b7 9962 73bc
00000200: 754f dd3b f26b ae3c dedc 53bd 03c7 82bd
00000210: 4706 a4bd 7b06 623d e0fa 2a3d 127a 983d
00000220: 0a88 1a3d 1f8d 07bc 7be3 57bb 04ab 313d
00000230: 447e 00bd 8b0f bdbb 30b8 f7bd a8a1 cabd
00000240: eeb1 c1bd 2e9c 043d baf9 ba3c acad 36bd
00000250: a5a5 073d c8d9 ba3c 34ce ac3c 1bba 943d
00000260: 6d3c 23bb f124 96bd 2d46 86bc 0a2b 5ebd
00000270: 2944 3bbd 4a2e 9bbc d255 9c3c d0cb bf3c
00000280: 31fb 803a 5ecd 5c3d 1a1a f93c 9708 3cbc
00000290: 6c7a ec3c f818 9b3d cc03 d3bd 1bd0 95bd
000002a0: 7ee8 083d 96d2 1f3d 7864 1a3d 3285 813d
000002b0: e822 473d 62e1 0e3c bbb8 993d cae2 db3c
000002c0: c6c8 a53c 8746 5bbc ae54 42bd 75ba b3bd
000002d0: 8801 1f3d da6e 2abb 4212 0c3d fe6b 06bb
000002e0: 96f4 7d2d 4eb9 13bd 8380 7e3b 6d20 633d
000002f0: c4b3 1d3d 1032 033c 356d 883b ebca 3837
00000300: 6fd8 a13c cb1d 373d 26cf ffbd 0176 babd
00000310: 8b06 193d bc0e 29bd 4043 84bc eee7 70bd
00000320: 8dba 1bbc f210 1ebe e50e 893c aa74 23bc
00000330: 0f49 343d 7eba 38bc 1fe0 6a3d 6feb c0bd
00000340: c944 dbbb 1fa7 a9bd 8901 bbbc 4445 86bb
00000350: e822 0c3d 4aff 0c2c a7cd c23c 66f3 92bd
00000360: 0534 8cbd 3715 8f3d 898d 78bd 6938 07bd
00000370: 156c a33b 0c6b 6ebb a50d 753d 7582 1f3d
00000380: 21b7 95bd 5fd8 17bc fd9e 163d 7639 c7bd
00000390: e055 adbd 08ef 933d 51cb 773d f917 b23d
000003a0: 73dd f93b f246 afbd 6936 bd3d 5ef7 263d
000003b0: 0443 663d 3d51 983b b35b 11be 16a3 61bd
000003c0: 6b94 d0b9 a523 a0bd e4a9 03bd 72b9 81bd
000003d0: 23b6 df3d b4ed 29bd 781e 9abb d752 69bd
000003e0: c024 8cbd 2a22 cfba 0a1c 243d 6926 1f3d
000003f0: 8b46 00bb 0d16 0abe d428 e936 5e30 b53a

val_conv1.bias f4 [2]
0.035436578 0.08355649
00000000: f225 113d aa1f ab3d
